results/ppo/My Behavior/My Behavior-20999945.onnx (onnx, 269768 bytes, 11 tensors)

action_model._continuous_distribution.mu.weight f4 [1, 128]
000000 93 2a bd 3d de 19 fc bc 26 33 01 3d df 38 4a bd
       0.09236636 -0.030774053 0.03154292 -0.049370643
000010 c5 33 3b bb 30 61 db bb 7b 7d 08 3d 99 db a4 3c
       -0.0028564793 -0.0066949353 0.033322793 0.020124244
000020 f6 eb 5b 3d 90 13 c4 3d 9a eb 2a 3d eb 7e 5f 3d
       0.053691827 0.09574044 0.041728593 0.054564398
000030 31 d9 99 3d 96 d6 ce 3d 52 ac 07 3d 3b a4 7e 3d
       0.07512129 0.10099523 0.03312332 0.06216834
000040 ff 6d 61 3d 1e 47 49 3d 76 13 be 3c 14 96 18 3d
       0.05503654 0.04914009 0.02320264 0.0372525
000050 0e da 84 3d 8e fa 24 3d 61 0e b3 3c fc 39 15 3d
       0.06486903 0.04027801 0.021857442 0.03643225
000060 4a 5c b2 3c 79 1a 00 3c c0 ef dc 3d 20 5b f0 3c
       0.021772522 0.007818812 0.10787916 0.029340327
000070 4a 81 54 3c 1f 77 f5 3b 1c 38 9b 3d 66 3e 69 bc
       0.012970278 0.007491007 0.075790614 -0.014236068
000080 d7 08 87 3d 72 43 84 3b 0c 7f 31 bd c4 70 19 3d
       0.06593483 0.0040363604 -0.043334052 0.037461057
000090 a2 28 eb 3c 06 3e 4a 3d 3b ad 5f 3d 32 c0 c3 3c
       0.028705899 0.049375556 0.054608565 0.023895357
0000a0 55 26 65 3d 48 a6 46 3d 7e e9 e6 3d 28 f7 be 3c
       0.05594476 0.048498422 0.11275004 0.023311213
0000b0 f6 3c 7b 3d 1f 4c df 3c 94 3f 3c 3c b7 fa 90 3c
       0.061337434 0.027257977 0.011489768 0.017697675
0000c0 c1 f9 a7 3c b7 39 e0 3c ec 20 a5 3d ec fc b6 3d
       0.020504834 0.02737127 0.0806292 0.0893496
0000d0 83 f8 b0 3d c7 55 ff 3c 6b 87 3e bd 67 fc 70 3d
       0.0864115 0.031168832 -0.046515863 0.05883446
0000e0 d3 3b ac 3d 79 01 26 3d 02 b4 87 bc 88 83 8f 3d
       0.08409848 0.04052875 -0.016565327 0.070075095
0000f0 22 dc 05 3d 20 65 50 3d 32 91 4c 3c ff a7 6a bd
       0.032680638 0.05087769 0.012485789 -0.05728912
000100 65 62 32 3d ef c7 81 3d 00 f6 54 3d 85 5f 2f 3d
       0.043550868 0.063369624 0.051992416 0.042815704
000110 e2 d4 0e 3d f1 f5 3f 3c aa 7b fb bc 37 a6 fc 3c
       0.03487099 0.011716352 -0.030698616 0.030840976
000120 0b 1d c5 3d 5c 38 12 bc d5 76 54 3b a8 f7 12 3d
       0.0962468 -0.00892457 0.0032419462 0.035880715
000130 ff 8d 6f bd b0 67 81 bc 60 47 96 3c 8e 40 d0 3c
       -0.058485027 -0.015796512 0.018344581 0.025421407
000140 d1 d4 9a 3c 39 fc a0 bc 6c 22 02 3d 5e ce a6 3c
       0.018900307 -0.01965152 0.03177111 0.020362075
000150 14 0a 0b 3d b9 07 7b bb 08 fb 09 3c ad ef c2 3d
       0.033945158 -0.0038304164 0.008421667 0.09518371
000160 5c 93 12 3d 45 12 89 3d 37 62 05 3d 67 f2 4b 3d
       0.035785064 0.06692938 0.032564368 0.04979172
000170 1b d6 38 3d 9a 0d c0 3c 01 97 1e 3d cd 34 b8 bc
       0.045126062 0.023443986 0.038718227 -0.022486115
000180 7c 61 07 3d 66 54 97 3d fb ce 60 3b f2 4d d1 3d
       0.033051953 0.073891446 0.0034303057 0.10219945
000190 7c ce d9 3c 7f 4a 7f 3d 3a ab 25 3d 53 2e 9e 3d
       0.026587717 0.062326904 0.040446497 0.077236794
0001a0 1a b2 67 3d 6f 40 4e 3d 44 b2 18 3d f8 0c 38 bd
       0.056566335 0.050354417 0.037279382 -0.044934243
0001b0 de bc 3f 3c fc 2b 33 bd bc d8 15 3d ca a5 37 3d
       0.011702744 -0.04374312 0.036583647 0.044835843
0001c0 9c 0e 90 3d 09 4c c2 3d 60 4a 77 3c 52 8b 5a 3d
       0.070340365 0.09487159 0.015093416 0.053355522
0001d0 30 41 17 3d 6c e5 18 3d 6c e3 44 3c cc 62 89 bc
       0.036927402 0.03732817 0.012017112 -0.016770743
0001e0 e6 c4 56 3a cf 3d 30 3d 14 31 0d 3d 11 ba fa 3c
       0.00081927923 0.043027695 0.034470633 0.030606302
0001f0 42 3d 52 3d 73 35 5f 3d 4b d4 4c 3d 7b 99 8e 3d
       0.05132795 0.054494333 0.050007146 0.06962868

network_body._body_endoder.seq_layers.0.bias f4 [128]
000000 cf 6e ed bc da 04 6d bd 0c 2f 1d be 8a 4a 63 bd
       -0.028983502 -0.057865955 -0.15349978 -0.055491008
000010 ee 96 99 bd e3 82 02 3c ee 44 7c bd 0f a2 53 bb
       -0.07499491 0.007965776 -0.061589174 -0.003229264
000020 6a 71 cb bc 17 87 a8 bd 4f 1d 99 bd d9 d3 08 be
       -0.024834353 -0.08228891 -0.07476293 -0.13362063
000030 13 40 0f be 24 4b 6a bd a3 52 b3 bd e9 59 b1 bc
       -0.13989286 -0.057200566 -0.08755996 -0.021649318
000040 bf b2 36 bc ce f8 cc bc fb bf 3e bc 59 7d 91 bb
       -0.011151015 -0.025020983 -0.011642451 -0.0044399914
000050 38 bf d3 bd 60 0e 20 be 01 15 9c bd e0 00 b1 bd
       -0.103392065 -0.15630484 -0.07621194 -0.08642745
000060 e8 c2 5b 3c f5 a5 af bd 41 74 bd bd cd 0d 49 be
       0.0134131685 -0.08576576 -0.09250689 -0.19634171
000070 64 a7 78 bd a7 5d a4 bd f0 cc 36 be 63 9f 08 be
       -0.06070651 -0.08025675 -0.17851615 -0.13342051
000080 cd bd c7 bc 82 f6 26 3a 95 af ab 3a 6a 7f c3 bd
       -0.024382496 0.000636913 0.0013098592 -0.09545787
000090 64 be a5 bd 11 d2 41 bd 31 90 f0 bd 21 23 c1 bd
       -0.08092955 -0.047319476 -0.11746252 -0.094305284
0000a0 46 61 79 bc f7 f5 6e bd 21 97 e6 bd 2e 82 be bd
       -0.015220946 -0.05834004 -0.11259294 -0.093021736
0000b0 5e db 5f bd c7 df 9f bd 8d 03 39 bd 47 87 d0 3c
       -0.054652564 -0.07806354 -0.045169402 0.02545513
0000c0 07 93 5f 3c 4e 92 65 bc 86 92 7c bd 94 1f 3b bd
       0.013645894 -0.014011933 -0.061663173 -0.045684412
0000d0 07 fd 90 3c 68 2a b2 bc 2f 93 10 be 4a ba d4 bd
       0.017698778 -0.021748737 -0.14118646 -0.10387094
0000e0 45 10 b4 bc 22 6c 3f bd ca 82 02 be ce d9 56 3c
       -0.021980414 -0.046733983 -0.12745205 0.013113452
0000f0 ad 61 01 bd 82 b5 02 3d 4c 3f 68 bd 15 cd 52 bc
       -0.03158729 0.03191138 -0.05670099 -0.012866278
000100 44 bd b0 bd 80 2e 3b bc a6 10 f8 bd 8f 99 42 bd
       -0.086298496 -0.011424661 -0.121125504 -0.047509726
000110 ed fd 31 bd 4f 6e 98 bd b1 a2 7d bd 78 d5 29 be
       -0.043455053 -0.07442915 -0.061922733 -0.16585338
000120 2a 94 d9 ba 8d 63 be bd c3 2f 66 bd 9b 8b 0d bd
       -0.0016599942 -0.092963316 -0.056197893 -0.034556966
000130 ce 98 d2 bd 7b 0f 01 be d1 4f 60 bd ff da 09 be
       -0.102830514 -0.12603562 -0.05476362 -0.13462447
000140 1a 58 66 bd d3 2c 90 bd 68 53 e9 3b c3 d8 58 bd
       -0.056236364 -0.070397995 0.0071205385 -0.052941095
000150 f2 f0 bf bd 1d c4 fa bc af b0 10 bd 7a 6b 9b b9
       -0.093721285 -0.030611092 -0.03532475 -0.0002964398
000160 85 4e 02 be 08 4d af bd 46 f7 9a bd 11 2f d2 bd
       -0.12725265 -0.085596144 -0.07566695 -0.102628835
000170 7d e9 6b bd 02 c1 87 bd ed f6 f6 ba 34 14 68 bd
       -0.05759572 -0.0662861 -0.00188419 -0.056659892
000180 41 88 11 bd 42 59 dc bd 99 52 be bd 83 fa 0c bd
       -0.035530332 -0.10759212 -0.09293098 -0.034418594
000190 30 76 06 be 4a 40 b2 bd 54 66 ad bd bf 63 e0 bd
       -0.13131022 -0.087036684 -0.08466783 -0.10956525
0001a0 db 72 b5 bb 4c e0 2b be 49 86 c1 bd 5b ee ae bd
       -0.0055373735 -0.16784781 -0.09449441 -0.085415564
0001b0 50 65 dd bd bb 9b 95 bc 7c 84 89 bd c6 be 59 bd
       -0.108103395 -0.018262735 -0.067147225 -0.05316045
0001c0 be 4e b8 bd fa 48 dc bd 7f e1 dd bd c6 6c da bd
       -0.08999394 -0.10756107 -0.108340256 -0.10665278
0001d0 02 2f 91 bd d9 9b ff 3c 6f be bc bd 3a a4 25 bd
       -0.07089044 0.031202244 -0.0921601 -0.04043982
0001e0 42 5d b0 bd 19 95 db bd ed dd fd bd e7 35 14 be
       -0.086115375 -0.107217975 -0.123958446 -0.14473687
0001f0 86 92 d4 bc bc ac 15 bd 52 c5 dd bd e1 a9 0c be
       -0.025948774 -0.036541685 -0.108286515 -0.13736679

network_body._body_endoder.seq_layers.0.weight f4 [128, 3]
000000 af 5a 81 3b 6e 1c 5d 3f e4 ce 1f be b3 94 e7 3d
       0.003947578 0.86371505 -0.15606266 0.11307659
000010 f7 64 80 3e d8 f9 81 be 91 ac 39 3d a5 18 47 be
       0.2507703 -0.25385928 0.045330588 -0.19442995
000020 07 cc 0e be fc 87 e6 3e a4 3f 8a bd e4 a8 fa 3d
       -0.13945018 0.45025623 -0.0675042 0.122392446
000030 c0 5c 4b be 80 dd d2 be 70 db 04 bf 68 bf 3a 3e
       -0.198596 -0.41184616 -0.51897335 0.18237078
000040 69 c4 30 3f 60 0b 6e 3d ef 64 81 bd 6e f5 8f 3e
       0.690497 0.058116317 -0.0631808 0.28116935
000050 a1 61 43 3c 81 09 43 3e 25 4e 03 3f 5f b2 07 3d
       0.011925132 0.19046594 0.51291114 0.033129092
000060 81 4a d4 3e d1 0e f5 be 63 ee a9 bc 60 69 94 be
       0.41463092 -0.47862867 -0.020743554 -0.28986645
000070 35 85 fc be b2 70 9c 3e 72 29 40 bf c1 eb 0e be
       -0.4932038 0.3055473 -0.7506324 -0.1395712
000080 0a e7 be be df 5d 6b 3e 4a b4 72 bf cb 27 48 3e
       -0.37285644 0.22985028 -0.9480635 0.1954643
000090 22 6d 8a bf b2 79 22 3c 47 aa 98 bd 8b 92 42 3c
       -1.0814555 0.00991671 -0.07454353 0.011875759
0000a0 9e 42 e4 ba be bc 4c 3e c3 a4 c6 bc 65 25 84 bd
       -0.0017414873 0.19993874 -0.024248486 -0.06452445
0000b0 e0 f9 b9 3e ce c9 5e 3f 39 65 4a bf 05 02 0f 3e
       0.36323452 0.8702668 -0.79060704 0.13965614
0000c0 f5 69 77 3c 73 cd 50 3f 62 02 dd bd d9 7b cb 3c
       0.015100946 0.8156349 -0.1079147 0.024839329
0000d0 01 77 02 3c 4a 81 6e 3f fd e8 81 be 8c 05 02 3f
       0.007962943 0.9316603 -0.25373068 0.50789714
0000e0 f3 3b c8 bf 4e 5f 33 3e 9b a4 4d 3f 71 bc c0 bd
       -1.5643295 0.17516825 0.80329293 -0.09410942
0000f0 67 c5 84 3c 95 b1 8c 3d 85 a3 a0 bd 43 8f a2 bc
       0.01620741 0.068698086 -0.07843689 -0.019843703
000100 05 09 32 be a3 07 80 bf 4d 17 06 bf 18 b2 69 bf
       -0.17386253 -1.000233 -0.52379304 -0.91287374
000110 cb 98 a4 3d ea a1 46 bf 1e ed 4a bd fc d5 b5 3e
       0.080369554 -0.7759081 -0.04954254 0.3551482
000120 6f 73 83 3f 6d bd 8d bf 83 8c 56 3f 05 df 33 3e
       1.0269603 -1.1073433 0.83808154 0.17565544
000130 c8 53 c8 3e 3e 6a f1 bd d3 8b e7 be 20 c4 50 3f
       0.3912642 -0.11787842 -0.45223865 0.81549263
000140 b2 63 3a bf 52 f7 f5 be 66 b2 06 bf ee 75 cd 3e
       -0.7280837 -0.48040253 -0.52615964 0.40129036
000150 a6 eb fa 3e 90 92 b9 3e 48 c7 10 bc b7 ce 8a be
       0.4900791 0.3624463 -0.008836575 -0.27110836
000160 fa 23 1c bf 35 60 9f be 44 8c 11 bf a9 b7 25 bf
       -0.60992396 -0.31128088 -0.56854653 -0.6473337
000170 5a ba 5a 3e d7 a8 21 3d 42 26 a4 be bc 77 00 bf
       0.2136015 0.03946766 -0.32060438 -0.501827
000180 19 69 08 3f 2d 6d 3c be f3 3f 2e bf ce 8c 6c 3f
       0.53285366 -0.18401022 -0.6806633 0.9240235
000190 fa f6 09 3f f3 88 db be 07 77 97 3e 87 24 0b bf
       0.5389248 -0.4287792 0.29582998 -0.5435261
0001a0 d5 00 2d bf 0c 62 9f bb d0 6d 22 be 6c 4b fa 3e
       -0.67579395 -0.004863983 -0.15862203 0.48885667
0001b0 5d f6 6d 3e 31 b1 75 3e 0e 1a 2f 3f d3 56 e7 bb
       0.23238511 0.23993374 0.6839913 -0.007059911
0001c0 21 b1 23 3c f8 31 56 3e ca 3a 53 bf 77 57 e3 3c
       0.009990961 0.20917499 -0.8251158 0.027751667
0001d0 04 6e a5 be 0a 87 49 bf cf 8c a1 bf cf bb b6 3e
       -0.32310498 -0.7872168 -1.2621096 0.35690162
0001e0 52 5f 2a 3e f9 57 ab 3f 41 85 8a bf 9b 31 73 bd
       0.16637924 1.3386222 -1.0821916 -0.05937348
0001f0 b9 f8 81 be 26 d6 21 3f c1 aa 00 be 56 df 5f be
       -0.25385073 0.6321739 -0.12565137 -0.2186254
000200 95 22 29 be f7 b9 a4 3e da 20 4c bf 57 b9 72 bd
       -0.16517098 0.3217313 -0.7973763 -0.059258785
000210 e2 0c 22 3e b9 77 42 bf 61 48 87 3e 41 60 df 3e
       0.15825227 -0.7596393 0.26422408 0.43628123
000220 7d bb f6 3e 23 4b 52 3e f1 1f ab 3e 45 e7 62 bd
       0.48189917 0.20536475 0.33422807 -0.055396337
000230 e1 78 eb 3e 7f e1 32 bc 1e 3d ad 3e 95 f9 0b c0
       0.4599066 -0.01091802 0.3383569 -2.1871083
000240 30 65 c8 bd 7d 4e 48 3f 1f dd 3f 3e f1 21 fa bd
       -0.09784925 0.78244764 0.18736695 -0.12213505
000250 cf b7 8f 3e 37 70 7b bf 45 e0 41 bf 49 9f 82 3e
       0.28069922 -0.982181 -0.75732833 0.2551215
000260 af c8 40 bf 1c 06 9e 3e 09 4b 97 bd bb ad 7a bf
       -0.7530622 0.30864036 -0.07387359 -0.9792134
000270 99 4e 1e 3e c6 f4 40 3f bf 8d 41 bf f3 5d 08 3f
       0.1545967 0.75373495 -0.7560691 0.53268355
000280 5d 78 6d 3f 83 33 ae 3d bb 13 62 3d 0f dd 80 bf
       0.92761785 0.08505919 0.055194598 -1.0067462
000290 6c 2a 59 bf 2a a9 e9 be 4a 48 a4 bc 20 f6 74 bf
       -0.84830356 -0.45636874 -0.020054001 -0.95688057
0002a0 f7 07 38 3f 6b 86 27 be de 4a 32 be 8a 60 91 3d
       0.71887153 -0.1635987 -0.17411372 0.070984915
0002b0 a2 e7 71 bf 24 68 8c 3e fd 12 4a bd 6b 5d d1 be
       -0.9449407 0.27423203 -0.049334515 -0.40891585
0002c0 26 a6 37 bf 2d 22 17 3f 34 ea 85 be d5 d2 44 be
       -0.717379 0.59036523 -0.26155245 -0.19221051
0002d0 3d 16 56 be b5 a5 43 3f 2e e6 13 3f b2 86 30 3f
       -0.2090692 0.76424724 0.577731 0.6895553
0002e0 13 28 aa 3e a6 5d 72 be 5c 50 9a 3e 5f e9 c6 bd
       0.332337 -0.23668537 0.30139434 -0.09712481
0002f0 5d 4b 7f bf 04 69 95 3e eb 7b 9d be aa ac 04 bd
       -0.9972437 0.29181683 -0.30758604 -0.032391228
000300 25 e2 d4 be 36 d8 10 3e 2d 73 d1 be d2 c6 16 3d
       -0.41578785 0.14144978 -0.40908185 0.036810704
000310 5f ad 0f 3e 0b f5 87 3e 4a c6 22 3f d6 e7 6d be
       0.1403098 0.2655414 0.63583815 -0.2323297
000320 d7 de 0e bf 00 2f 06 3f 3d e3 ac 3e 7e 03 f8 be
       -0.55808777 0.52415466 0.3376712 -0.48440164
000330 ba e3 9f 3e 7c ca dc 3e 9b e5 00 bc 9b 09 ee be
       0.3122843 0.43123233 -0.007867242 -0.46491703
000340 54 64 2b 3f 39 33 04 bf 5d 5f 24 bf f7 e2 a2 3f
       0.66949964 -0.5164066 -0.6420801 1.2725514
000350 15 42 81 be 5f b5 8e be 3e 8a fe 3d 23 53 bd 3e
       -0.2524573 -0.2787275 0.12428711 0.3697749
000360 a7 44 98 be 8d 58 15 3f 81 d9 f5 3e 89 35 80 3f
       -0.29739878 0.5833824 0.48017505 1.0016338
000370 73 f1 2e bf b0 7b a7 3f 20 8a 1d bf a1 6a 8d be
       -0.6833717 1.3084621 -0.6153889 -0.27620414
000380 f1 70 e6 be 2e e8 99 3d 73 a5 45 3e 65 7c 1b be
       -0.45008042 0.07514988 0.19301395 -0.15184171
000390 40 8a 9c bf 5a 3e 2a 3d 46 94 bb 3d de 44 8b be
       -1.222969 0.04156337 0.0915914 -0.2720098
0003a0 97 f7 05 bf bf 15 c9 3d f4 12 84 bf d9 3b 30 bd
       -0.5233092 0.09818601 -1.0318284 -0.043025825
0003b0 1b 1e bc bd ea 24 61 be 83 e8 46 bf 53 7e fb 3c
       -0.0918543 -0.21986738 -0.77698535 0.030699885
0003c0 52 d9 ae bf 50 de 4f bf 2e ca 1b 3f d9 8b 25 3e
       -1.3660071 -0.81198597 0.60855377 0.16166629
0003d0 9f 99 08 bf 76 1f bb be 70 5a 0d 3f 95 c9 df 3e
       -0.5335941 -0.3654744 0.5521612 0.43708482
0003e0 ec 43 84 3e e6 40 44 3e 8e 28 c2 be 7c 71 be be
       0.2583307 0.19165382 -0.37921566 -0.37195957
0003f0 00 23 51 be 06 41 d6 3e 8b 28 75 3f aa 6e 42 3f
       -0.20423508 0.41846484 0.9576499 0.7595011

network_body._body_endoder.seq_layers.2.bias f4 [128]
000000 24 d6 68 bd 02 7a 42 bd e5 22 74 bd 14 b7 25 3c
       -0.056844845 -0.047479637 -0.05960359 0.01011445
000010 39 b7 1f bd fb f3 0b bd 1c 48 91 bd b1 84 03 be
       -0.038993094 -0.034168225 -0.07093832 -0.12843587
000020 df 85 f7 bd fa e6 2f bd 52 a3 48 bd 69 f6 31 bd
       -0.12086081 -0.042944886 -0.04898388 -0.043447886
000030 43 2d 60 bd 01 46 3e bd 6f 7d 09 bd b1 60 6d 3b
       -0.054730665 -0.04645348 -0.03356689 0.0036220963
000040 70 c8 ec bd 05 db 94 3c ea 7b b9 bd 0f e8 51 bc
       -0.11561668 0.018170843 -0.09056838 -0.012811675
000050 08 a3 0b be ad 4e a0 3c f8 0e 15 3c b2 62 96 3c
       -0.1363641 0.019568766 0.009097807 0.018357608
000060 af 61 a8 3b d7 d7 2a bd 3d b0 85 bc 2a cb 96 bd
       0.005138598 -0.041709747 -0.016319389 -0.07362969
000070 83 52 de bc 97 d0 b3 bd 41 78 4e bd 3c db ef 3b
       -0.027138954 -0.0878002 -0.05040765 0.007319836
000080 d0 19 9c bd a9 20 81 bd eb 7f 7a bd 47 a8 08 be
       -0.07622111 -0.063050576 -0.06115715 -0.13345443
000090 b4 b0 38 bd a2 d0 48 bd 7b 41 2f bc c4 93 e4 bd
       -0.045090392 -0.049027093 -0.010696764 -0.111609966
0000a0 e3 79 6d bd 8b 13 43 3d 6f f2 23 bd 40 00 3f 3d
       -0.05797757 0.04762606 -0.040026125 0.046631098
0000b0 34 b7 db bd c9 c9 0a be d7 19 20 3d 76 bb f5 bc
       -0.107283026 -0.13553537 0.039087143 -0.029996615
0000c0 90 58 ba bd 58 ec d2 bd fc ab cc bd b9 89 01 3d
       -0.09098923 -0.10298985 -0.09993741 0.031625483
0000d0 70 b4 59 bd 1e 25 84 bd 77 63 b1 bd 7d 73 a4 bd
       -0.053150594 -0.06452392 -0.086615495 -0.0802984
0000e0 17 bf f6 bd 51 84 1e bd 0d dc 7a bd 4c 69 6b bd
       -0.12048166 -0.038700406 -0.061245013 -0.057473466
0000f0 ba 39 2f 3c bc 90 80 bc 19 4e 02 bd e1 b7 c2 bd
       0.010694915 -0.015694015 -0.03181276 -0.09507728
000100 ca 9a be bd ce 53 94 bd 60 56 03 bd be 79 92 bd
       -0.093068674 -0.07242547 -0.032064795 -0.07152127
000110 98 45 42 bb ff 77 05 bd 3c b1 f8 bd bd e3 b3 bd
       -0.0029643532 -0.03258514 -0.1214318 -0.08783672
000120 03 2c 07 bd bb df 76 bd 4d 5a b2 bd 32 18 32 bd
       -0.033000957 -0.06027196 -0.0870863 -0.043480106
000130 19 26 87 bd b2 ea f7 bd 67 d7 a9 bc 9a 5f 9c bd
       -0.065990634 -0.121053115 -0.020732595 -0.07635422
000140 17 bd b8 bd 16 62 b7 bb fb bf 70 bd 1d 20 cd bc
       -0.09020441 -0.0055964096 -0.058776837 -0.025039727
000150 e1 fb 0a bc 26 37 ed bb dc a6 e9 ba d2 88 e5 bb
       -0.008482904 -0.00723924 -0.0017826217 -0.0070048356
000160 6e 96 1a bd 13 5e b4 bd 5e 4f 9d bc 02 64 d4 bd
       -0.037741117 -0.08807006 -0.019202884 -0.103706375
000170 e0 02 d7 bd 85 18 82 3c c7 f5 30 3c c4 19 de bd
       -0.10498595 0.015880832 0.010800785 -0.10844758
000180 97 16 0e bd a4 28 b1 bd 6e 35 58 bd b2 f0 9c bd
       -0.034689512 -0.0865033 -0.05278533 -0.076630965
000190 8b 5f ac 3b 19 34 e2 bc 50 46 75 bd ff 08 86 bd
       0.005260413 -0.027612733 -0.05988151 -0.065446846
0001a0 87 96 ae bd 66 2c 8e bd 48 8f c4 bd f9 c2 d9 bc
       -0.085248046 -0.06942062 -0.09597641 -0.026582228
0001b0 87 c6 6f bc 6b 73 96 bc 96 be b0 bd de 58 c5 bd
       -0.014634735 -0.018365582 -0.086301014 -0.09636091
0001c0 af 4b 41 3d ff ee b0 bd d9 17 57 bd ee 52 5c bd
       0.047191318 -0.08639335 -0.052512977 -0.053790025
0001d0 5c 50 5d bb 07 7a 5a 3b d1 f5 6e bd 23 9e 85 bc
       -0.0033769822 0.0033336894 -0.058339898 -0.016310757
0001e0 4f dd 60 bd 67 0b 34 bd 96 ea 4e bd 07 80 95 bd
       -0.054898556 -0.043956187 -0.050516687 -0.0729981
0001f0 24 91 9b bd 18 9c bc bb 57 c6 95 bd 46 3a 39 3c
       -0.07596043 -0.0057559125 -0.07313221 0.011305397

network_body._body_endoder.seq_layers.2.weight f4 [128, 128]
000000 71 fd 28 be 2e 9b 14 be a2 24 cc 3c 15 0e 33 bd
       -0.1650293 -0.14512321 0.024919812 -0.0437146
000010 6c 67 b9 bd 85 f5 4d bd 7b c1 32 be b1 87 0a 3e
       -0.09052929 -0.050282974 -0.1745662 0.13528325
000020 16 47 e2 bd eb 46 90 bc 43 9b 51 be 06 e8 42 bd
       -0.11048715 -0.017611941 -0.20469384 -0.047584556
000030 39 ef 85 3c ee ee dc 3c a8 c9 2f bd 30 5c 08 be
       0.016349422 0.0269694 -0.042916924 -0.13316417
000040 92 a8 88 3d fa 6e e0 bd 2e 11 c4 3d dc 02 76 3d
       0.06672777 -0.10958667 0.09573589 0.06006132
000050 5b 6d d1 bd 97 a3 a4 bd 43 3e 86 bd f6 5c 04 3c
       -0.10225936 -0.08039015 -0.06554844 0.008078804
000060 d0 54 27 be 5b 99 9c bd cb 46 04 bd 2c 8c 84 bd
       -0.16340947 -0.07646438 -0.032294076 -0.06472048
000070 84 64 d3 bd 95 f7 26 be 28 02 30 be ad ba d5 bd
       -0.10321906 -0.16305383 -0.17188323 -0.10435996
000080 85 5b fc bc fb 02 20 bb dc da 99 3d 30 5b a7 3c
       -0.030805359 -0.002441584 0.07512447 0.020429224
000090 d5 43 34 bd 9a 96 9a bd 74 b9 05 3c 32 36 5f ba
       -0.044010002 -0.07548256 0.008161891 -0.00085148506
0000a0 c4 fa c0 bc d2 01 1f 3e d4 60 35 3d c1 47 22 be
       -0.023557074 0.15528038 0.044281796 -0.15847684
0000b0 c4 5f ec 3d 70 fd ee ba 18 bb f4 3d f8 f7 30 3c
       0.11541703 -0.0018233489 0.11949748 0.010801308
0000c0 d3 72 3a be fb b8 99 3d 3f 04 b0 3d f3 a7 50 be
       -0.18207864 0.07505985 0.0859456 -0.20376568
0000d0 7f f3 86 bd 14 88 8c bd e4 61 6d bd b1 46 36 3d
       -0.06589412 -0.06861892 -0.057954684 0.04450101
0000e0 6d 24 d9 3b 3e 9b e7 bd 6b f2 ad bd df ae db 3a
       0.0066266567 -0.11308907 -0.08493503 0.001676049
0000f0 74 9e 89 be 0a f3 71 be a8 d1 00 be 7a ca 9a bc
       -0.26878703 -0.23627868 -0.12579978 -0.018895376
000100 aa d4 86 bd a7 72 91 bc 51 e0 de bd 23 49 3d be
       -0.06583531 -0.017754866 -0.10882629 -0.1848493
000110 69 c7 95 bd a6 5a e9 3c 2d 9a 13 be d0 bc 68 bd
       -0.07313425 0.028485607 -0.14414282 -0.05682069
000120 d8 b9 da bd a4 ef be bc a7 0c 60 be 3a 73 15 bc
       -0.10679978 -0.023307629 -0.21879826 -0.00912171
000130 7a 91 2b bb 41 54 a2 bd 39 0b 2e 3c d1 6f 9c 3c
       -0.002617924 -0.079262264 0.010622793 0.019096287
000140 79 c5 df bd 64 fc a7 bc 33 a2 bc bd 11 1f af bd
       -0.10926337 -0.020506091 -0.092106245 -0.08550847
000150 c4 63 5b bc 74 53 0e be 59 26 b8 bb 53 04 54 3d
       -0.013390485 -0.13899022 -0.005619806 0.051761936
000160 e5 67 af 3a 69 34 1a bd 5c 8d d3 3d 19 c7 7d 3c
       0.0013382403 -0.03764764 0.103296965 0.015489363
000170 18 73 bf bd 4a 87 3b 3d 7d 6d db bc fb 4c 80 bd
       -0.09348124 0.04578332 -0.026785607 -0.06264683
000180 75 78 a3 bd 29 30 40 3d c9 71 74 3d d7 d2 45 3d
       -0.0798196 0.04692093 0.059678826 0.048296776
000190 d4 43 17 3d ec 06 43 3c 9c b0 a4 3c ee 0d 37 be
       0.03692992 0.011903506 0.020103745 -0.17876408
0001a0 05 8e 87 bb c9 65 3a be d5 98 50 bd c0 28 38 be
       -0.004136803 -0.1820289 -0.050927002 -0.17984295
0001b0 da 3d d6 bd 2d 8f a6 3d 76 b6 a2 bd b9 ed 0a be
       -0.10461016 0.08132777 -0.07944958 -0.13567246
0001c0 53 c8 0e be 29 8e 94 bd ed 66 9a 3c 23 58 dc 3c
       -0.13943605 -0.072536774 0.018847907 0.026897496
0001d0 39 fe 58 be f0 97 9f bd 66 44 7d bd 19 a3 83 bd
       -0.21190728 -0.07792652 -0.061832808 -0.06427593
0001e0 41 48 b2 bc 97 f9 24 3e ef f5 a6 bd 2c 22 55 be
       -0.021762969 0.16110836 -0.08152377 -0.20813817
0001f0 89 40 20 be 55 10 0b be d8 b6 e0 bc a5 07 2b bd
       -0.15649618 -0.13580449 -0.027430937 -0.041755337
000200 e5 16 66 bb 26 f2 43 bc d7 f0 d4 3d 48 e8 69 be
       -0.003510886 -0.011959588 0.10397499 -0.22842515
000210 44 3f 0a 3e cb a4 ba ba d4 cb 9e 3e 38 b5 5e 3e
       0.13500696 -0.0014239786 0.31014884 0.21748817
000220 c9 87 99 bd 4f be 09 3e 0a 18 08 3d fc 75 33 3d
       -0.07496602 0.13451503 0.03322605 0.04381369
000230 99 e0 26 bd 8b 30 86 bc fd a8 ba 3c 45 cf 8c bd
       -0.040741537 -0.016380569 0.022785658 -0.06875471
000240 fb e1 a6 3d fc 38 04 3e 50 f0 40 3d a4 d3 df 3d
       0.08148571 0.12912363 0.04710418 0.10929039
000250 13 37 65 3d c3 3e 25 bd fc 21 95 3d 55 bd bb 3d
       0.055960726 -0.040343057 0.07281873 0.091669716
000260 4c 9f 99 b7 cb 9e c2 3c 31 76 fb bd b0 bd cf 3d
       -1.83132e-05 0.023757359 -0.122784026 0.10143602
000270 a9 27 5a 3d fe 45 49 bd 39 91 04 bd 36 7c 36 be
       0.05326048 -0.049139015 -0.032365058 -0.1782082
000280 c9 7d 52 be 94 79 2b be 52 10 c6 3d 62 71 fe 3d
       -0.20555796 -0.16745597 0.096710816 0.1242397
000290 cb bb 16 3e f3 62 ea 3d c4 7c bc bd 63 bb 10 bc
       0.14720075 0.11444654 -0.09203485 -0.008833739
0002a0 9c 6f 02 3d 82 98 c5 bc 25 7b 23 3d a9 d7 b3 3d
       0.03184472 -0.024120573 0.03991236 0.08781368
0002b0 85 da 0a 3c 19 86 94 bd 01 56 3b be 07 13 c6 bc
       0.008474951 -0.072521396 -0.18294527 -0.024178995
0002c0 60 1a 94 3d ab 56 40 3e 5e 62 0e 3c f6 10 63 bd
       0.07231593 0.18783061 0.008690445 -0.055436097
0002d0 39 75 b2 bd 59 66 42 3d 66 32 d7 3c 81 c9 75 bc
       -0.08713765 0.047460888 0.026269149 -0.015001656
0002e0 ba 04 2b be 50 1e 5c 3e 28 1e 7d 3d 9b 95 18 bd
       -0.16701022 0.21495938 0.061796337 -0.03725205
0002f0 79 e4 e5 3d e9 92 f5 bb c9 6c d7 bd 5d 22 40 3e
       0.11225218 -0.0074943197 -0.10518796 0.18763109
000300 be ed 22 bc c7 a0 83 3d 05 3d 2c be a5 eb 4d bc
       -0.0099443775 0.0642715 -0.16820152 -0.012568389
000310 67 da 8b bd 8c f8 f4 bd ee a4 37 3e 21 11 10 bd
       -0.06828766 -0.11961469 0.1793401 -0.035172585
000320 06 5c 87 3c 43 c2 9a be 33 10 83 bc dd c7 e0 3d
       0.016523372 -0.30226335 -0.015998935 0.10975621
000330 5d ca 1a be 0a 88 4c 3e c7 2e e4 bd b1 d6 2e bd
       -0.15116258 0.1997377 -0.111417346 -0.042685214
000340 53 5c d7 3a 3c bb 69 3d 5f 87 3d 3c 16 8b 11 bb
       0.0016430713 0.057063326 0.0115679195 -0.0022208146
000350 7f c0 a3 bc c7 40 3d be 7f dd 09 3e 2d 47 5a 3e
       -0.01998925 -0.18481742 0.134634 0.21316214
000360 31 5d d9 bd 7b 29 d6 3c d2 0e 42 3d d7 2e d8 bd
       -0.10613478 0.026142826 0.047377415 -0.10555809
000370 d8 fb 57 bc 2d 70 38 be 7c 84 cb bd 96 1c 19 bd
       -0.013182603 -0.18011542 -0.09937379 -0.037380777
000380 3e ed 9d bc 89 49 25 bc a0 b6 ca bd 7e 35 07 3c
       -0.019278165 -0.010088333 -0.09898114 0.0082525
000390 47 3d 44 3d a1 af 04 be 15 51 d8 3d a8 2c ea 3d
       0.04791 -0.12957622 0.1056234 0.11434299
0003a0 62 d6 43 3e 7f dc 33 bd a9 fe 93 3d 5a cf d5 bd
       0.1912475 -0.043911453 0.07226307 -0.1043994
0003b0 0b cd 81 bd 94 c1 f5 bc 91 d4 1a 3b b1 78 8f bc
       -0.06337937 -0.029999532 0.0023625235 -0.017513605
0003c0 9f d6 d0 3a ed d9 c7 3c 74 2d 10 be 76 36 86 3d
       0.0015933103 0.024395907 -0.14079839 0.06553356
0003d0 ca c6 93 bd 39 cb d7 bd a7 01 08 bd 33 29 1f 3c
       -0.072156504 -0.105368085 -0.0332047 0.0097144125
0003e0 45 61 da 3d e5 d3 f1 bd b5 77 58 bd 78 db dc 3c
       0.10663084 -0.11807994 -0.052848537 0.02696012
0003f0 fe f2 a8 3c c7 2b 18 3e d7 c5 48 bd b6 cc 2e bd
       0.02062368 0.1486045 -0.0490168 -0.042675696

network_body._body_endoder.seq_layers.4.bias f4 [128]
000000 99 5a c4 bd da 54 6c 3c 5e 0e 80 bd 20 d4 14 bd
       -0.09587593 0.014424527 -0.0625274 -0.03633511
000010 dd 20 84 bd a0 a4 4d bd 81 4b 1d bd 47 1d e8 3a
       -0.06451581 -0.050205827 -0.038402084 0.0017708921
000020 b3 61 f3 bc 26 bd 08 be 62 67 b1 bd 5d 6a 30 3d
       -0.029709673 -0.13353404 -0.08662297 0.043070186
000030 18 33 d3 bd da d0 3d 3d 0c 3f 34 bd 9d 99 d5 bc
       -0.1031248 0.046341754 -0.04400544 -0.026074225
000040 84 14 45 bd 6d cc ea bd 45 9d ba bb ff 4e 4c bd
       -0.04811527 -0.114647724 -0.0056950175 -0.049880024
000050 bc 8b c8 bd c8 24 99 bd 75 df 1a bd 93 e8 c4 bd
       -0.09792277 -0.074777186 -0.03781076 -0.096146725
000060 71 d0 b3 bc 4a 14 6f bd 8d 2f 89 bd 12 1b c0 bb
       -0.021949979 -0.05836896 -0.06698523 -0.005862602
000070 1c b6 e5 bd d6 8c 1e bc 9a d2 08 3d 6d 11 bc bd
       -0.11216375 -0.009677133 0.03340397 -0.09183011
000080 a0 f9 db bd 43 84 02 3d 6a 34 99 bc 0e 09 92 bd
       -0.107409716 0.031864416 -0.01870175 -0.07130633
000090 5d ff 2a bd 3c 77 37 bc 8a c7 0a bd 98 67 80 bd
       -0.04174744 -0.011197861 -0.0338817 -0.06269759
0000a0 6c 8e c1 bd ec 53 70 bd 68 af 79 bd 3a eb 24 bd
       -0.09450993 -0.058673784 -0.060958296 -0.040263392
0000b0 6f 6b f6 bc 5f a5 04 be 9d 65 6d bd 10 39 0e be
       -0.030080525 -0.12953709 -0.057958234 -0.13888955
0000c0 56 80 6f bd 45 0c 29 3d 21 84 95 bd 3c 77 3b bd
       -0.058472 0.041271467 -0.07300592 -0.045768008
0000d0 06 7d 4c bd c2 d2 e1 ba 22 62 2d bd 68 1f 99 bc
       -0.04992392 -0.0017228948 -0.042329915 -0.018691733
0000e0 22 c7 86 bd 37 5c 96 bd 59 01 9c 3b 9b 3f 57 3b
       -0.0658095 -0.07341807 0.004760903 0.0032844308
0000f0 81 52 4b 3d aa d5 83 bd 77 3e b5 bd 94 3b be bc
       0.04963923 -0.064372376 -0.08849805 -0.023221768
000100 2b 99 25 bd 59 b7 b8 bd b4 bd 07 be 4f d7 e9 bd
       -0.040429275 -0.09019346 -0.1325596 -0.1141802
000110 a4 26 a2 bd f6 86 05 bd b2 3e 9a bd 87 8f f0 bd
       -0.07917526 -0.032599412 -0.075314894 -0.11746126
000120 6e 15 3a bd d0 47 ac bd 7a 91 6e bd e9 40 08 3d
       -0.045430593 -0.08412135 -0.058244206 0.03326503
000130 2d d6 d5 bc 9f f7 90 bd c2 86 9d bd e8 59 3a 3d
       -0.026103104 -0.0707848 -0.07691719 0.045495898
000140 b4 c8 8e bc c7 b3 cf bd da 9e 23 bc cc 03 8c bd
       -0.017429687 -0.10141712 -0.009986604 -0.06836662
000150 8e bd fe b9 73 ac 6d bd 7a 00 81 bc 35 ea 04 bd
       -0.00048587885 -0.05802579 -0.015747298 -0.03244992
000160 ba c0 b4 bc d6 70 34 3d cf e5 65 3d 07 b2 cc 3c
       -0.022064555 0.04405292 0.056127366 0.024987234
000170 23 4b 09 bd 10 3c d0 bd d1 64 b5 bc bc 90 4c bd
       -0.03351892 -0.10167706 -0.0221428 -0.049942717
000180 c5 bf e6 bd 3f 38 92 3a 92 98 59 bd 79 67 9a bd
       -0.11267046 0.0011155679 -0.053124018 -0.07539267
000190 e0 68 ac 3c 3a 4f 1d bd 12 f7 41 bd a7 4f 12 bd
       0.021046102 -0.038405634 -0.047354765 -0.035720494
0001a0 8d df 15 bd 22 ba 16 3c 34 d6 a6 bd c4 e5 4a bd
       -0.036590148 0.009199651 -0.08146325 -0.049535528
0001b0 28 6d 75 bd b7 bb a3 bd aa b8 a7 bd 13 58 e2 bd
       -0.059918553 -0.07994788 -0.08189519 -0.11051955
0001c0 65 77 e6 bd eb 70 0c bd 95 d4 87 bc 11 6a 20 bd
       -0.112532414 -0.034287374 -0.01658086 -0.039163653
0001d0 0f d4 a0 bd 59 23 15 bd 23 fc e8 bd 3e 39 96 bd
       -0.07852947 -0.036410663 -0.11376216 -0.07335137
0001e0 62 ab ce 3c 77 ba b0 bd f8 92 1d bd 4c 54 2d bc
       0.025228206 -0.08629315 -0.03847024 -0.01057918
0001f0 1a 16 d1 bc 9a 61 2c 3d 9b c7 e2 bd b0 83 37 bd
       -0.025523234 0.042085268 -0.11073228 -0.04480332

network_body._body_endoder.seq_layers.4.weight f4 [128, 128]
000000 0c 97 98 bc eb 95 57 bd 6d 4b 3d bd a5 ab 9e 3d
       -0.018626712 -0.052633207 -0.04621451 0.07747582
000010 98 23 b4 3b 3a 22 6e be 9c 55 a1 3c 4f f3 e0 3c
       0.005497407 -0.23255244 0.019694142 0.027459769
000020 82 c4 b7 bb 52 e9 f8 3c 0b bf 6f bd 49 4b 73 be
       -0.0056081424 0.030384693 -0.058531802 -0.23759188
000030 da 17 96 b8 d1 f4 05 3e 52 bd 39 3c 60 b3 58 be
       -7.157e-05 0.13081671 0.011336641 -0.21162176
000040 c5 47 60 3b e6 2f a5 bd 84 fb 56 3e 89 dc 31 bd
       0.0034222465 -0.080657765 0.20994383 -0.04342321
000050 5a 23 60 3d 03 3e 71 be 73 9c 2c bd bf 01 a9 3d
       0.054721214 -0.23558812 -0.04214139 0.08252286
000060 90 93 a4 3d 62 35 23 3d 44 b5 4a bd 4e 3e f1 3d
       0.08035958 0.03984583 -0.049489275 0.11779462
000070 2f d0 3d 3d c7 fe 35 bd 52 e8 98 3e 53 89 5d bc
       0.046341117 -0.044432428 0.29864746 -0.01352151
000080 3d c7 e2 3d 85 58 39 3c e1 b3 ea bc 77 92 50 3e
       0.11073158 0.011312609 -0.028650226 0.20368372
000090 3e 70 8e 3d b2 ac a2 3d 2b f1 d3 bd 63 e6 e6 bd
       0.06955002 0.07943095 -0.103487335 -0.112744115
0000a0 e3 18 81 3d a7 4f 79 3c c0 11 88 bc 30 a4 cf bc
       0.06303575 0.0152167445 -0.016610026 -0.025346845
0000b0 91 e4 21 3e cb a3 1a bd c5 a1 1a 3d 2b 44 23 3d
       0.15809847 -0.03775386 0.03775193 0.039859932
0000c0 c4 16 b0 bd 8b 47 48 bc 7f 11 d4 bd a6 91 13 3e
       -0.08598092 -0.012224088 -0.103548996 0.14411029
0000d0 79 34 27 3e 67 4d 75 3b 8f 59 83 3c 97 1d 70 3d
       0.1632861 0.0037430169 0.016033916 0.05862197
0000e0 f9 14 67 bd c5 b5 5f be fd 8a 05 3e 9d 5c 49 3d
       -0.056416485 -0.21846683 0.13041301 0.04916059
0000f0 94 bb 57 3e d6 67 78 3d 46 e7 07 3e 46 c3 63 bd
       0.21067649 0.0606459 0.13271818 -0.05560615
000100 ca f4 0f 3d 69 cd 46 3e 6b 4d 35 bc 7e 4f ae 3d
       0.03514556 0.19414295 -0.011065821 0.08511256
000110 f0 60 9e 3d c0 ee 09 bc 92 16 d3 bc ca e4 10 bd
       0.07733333 -0.008418739 -0.025767598 -0.03537444
000120 cb 09 36 bd 92 47 9e 3b 05 3a 2d be a5 71 9c 3d
       -0.044442933 0.004830309 -0.16916664 0.076388635
000130 07 78 e1 3d 65 22 5a ba ba a8 b9 bd bf 4f 01 3e
       0.110092215 -0.0008321165 -0.09065385 0.12628077
000140 ef 3e 24 bd 95 65 24 3d 0a 44 2e 3c 4f 03 05 be
       -0.04009908 0.04013594 0.010636339 -0.12989543
000150 30 fe a4 3d ba 17 c3 bd 2d 93 0a 3d 11 e1 3b be
       0.08056295 -0.0952601 0.033831764 -0.18347575
000160 ee 79 47 3d cd 81 14 bc 72 dd 6f bc b1 0f 1f bd
       0.048700266 -0.00906415 -0.014640199 -0.038833324
000170 fa 34 13 3d 88 8c 85 bd fd ad 91 bb 43 18 1d be
       0.035939194 -0.06520945 -0.00444579 -0.15341286
000180 ba 65 d7 bd 81 61 23 3e 49 30 78 be d1 7f a7 3d
       -0.1051745 0.15955164 -0.2423717 0.08178676
000190 62 61 fa bd 33 f7 f1 bd 62 ea 9f bc 26 36 91 bd
       -0.122256055 -0.11814728 -0.019520942 -0.07090406
0001a0 e7 b9 34 bd 27 41 02 bd ca 2e 83 bd a3 8a 9d 3d
       -0.044122603 -0.031800415 -0.06405409 0.076924585
0001b0 34 ab 18 be 70 14 33 bc 73 da 38 be f2 37 22 bd
       -0.14909059 -0.010930166 -0.18052082 -0.039604135
0001c0 1d 78 42 bc 81 26 e5 3d 9a af c9 bc e3 66 08 be
       -0.011869458 0.11188985 -0.024619866 -0.13320498
0001d0 b5 6d 26 3d 7f 74 bf 3c 4f c6 12 3e 58 ca 09 bd
       0.04063197 0.02337098 0.14333461 -0.033640236
0001e0 49 1b d8 bd 51 3d e3 bd 7b 8b 11 be b9 fb a8 bd
       -0.10552079 -0.110956796 -0.14213364 -0.08251137
0001f0 fb 2e 0f bd fc b7 65 be 5a a5 24 bd 84 e1 f7 bc
       -0.034956913 -0.22433466 -0.040196754 -0.030258901
000200 ed 0b 38 3e b9 e7 32 3e 89 0f 1f be 4c aa 67 3e
       0.179733 0.17471208 -0.1553327 0.22623557
000210 7b bf f9 3c e7 61 97 bd a1 c1 6c 3d 96 28 61 3d
       0.030486813 -0.0739172 0.057801846 0.054970346
000220 ee 30 50 bd 5d 91 a0 bd 20 f3 da 3d 52 4c a6 3c
       -0.050827913 -0.07840226 0.10690904 0.020300064
000230 b3 ee bc 3d 4a 28 04 3e 0c 23 6c 3b 0d e1 f5 3d
       0.09225216 0.12905994 0.0036031632 0.12005816
000240 7c e1 3e bb f9 2d 2d be 8c 16 f6 bd e3 ba d4 bd
       -0.0029126098 -0.16912068 -0.12016019 -0.10387208
000250 cb b0 13 bd 61 04 e5 3d 07 16 b4 bd d1 43 be bd
       -0.036057275 0.11182476 -0.08793264 -0.09290279
000260 f0 c2 fc 3d 36 19 2e 3e a8 ea ff 3d b7 2b 14 be
       0.12341869 0.17001805 0.12495929 -0.14469801
000270 ba 2b 41 3e 58 8d ca bd f6 d2 24 3e b1 f9 3e bb
       0.18864337 -0.098902404 0.160961 -0.0029140527
000280 fd 50 a2 bd 96 d1 1e 3e 13 69 30 3e 0d 68 3d 3e
       -0.079256035 0.15509638 0.17227583 0.18496723
000290 3e 40 6c 3d 50 c0 52 3d 0d 13 f1 3d 46 f7 b8 bd
       0.057678454 0.051452935 0.11771212 -0.09031539
0002a0 83 ed a4 3d a0 35 72 3d d8 20 06 bd 32 f9 d6 3d
       0.08053114 0.059133172 -0.032746166 0.10496749
0002b0 12 35 9f bd 17 15 df 3d 0b 86 d3 bd 29 f0 d2 3d
       -0.07773794 0.108926944 -0.10328301 0.10299713
0002c0 af 63 f6 3d a5 a5 ad 3b 58 63 26 3c e5 ee af bc
       0.12030732 0.0052992874 0.010155521 -0.021476218
0002d0 71 6a 34 3e a8 c1 08 3c 0d c6 26 be 5c fd 93 3d
       0.17618729 0.0083469525 -0.16286488 0.07226059
0002e0 9c 08 f3 bc 22 4d 22 3c d1 b2 7f 3d a9 a2 25 3c
       -0.029667191 0.009906085 0.062426392 0.010109582
0002f0 ba 05 b6 3c b5 e2 20 be 93 47 1a be 81 00 44 3e
       0.022219528 -0.15711482 -0.15066366 0.19140817
000300 4b 36 a3 bb 1b 95 49 3d 4d d2 88 3c 32 91 18 3e
       -0.0049808375 0.049214464 0.016701842 0.14899138
000310 83 dd 3f bd 40 80 81 bd 13 9c e9 3d 6a ef 8e bd
       -0.04684211 -0.0632329 0.11406722 -0.06979258
000320 e8 1e c9 3d b6 20 8d 3b bf e1 53 3e ef ba ff 3c
       0.09820348 0.004306878 0.20691584 0.031217067
000330 01 a5 6f bc 88 56 e4 3d 6b 9e 0b be 32 de d8 3c
       -0.014626742 0.11149317 -0.1363465 0.026473138
000340 77 f7 97 3b fb a7 f6 3d 9d 9f 1f bd bd 1d e7 3d
       0.0046376544 0.120437585 -0.03897058 0.11284969
000350 b6 49 75 3d b0 3a 50 be df 73 11 bd b8 93 0b be
       0.05988475 -0.20334888 -0.035510894 -0.13630569
000360 78 70 3b 3c dc ea 99 3d 2c b0 42 3d 2d 70 18 3e
       0.011440389 0.07515499 0.04753129 0.14886542
000370 30 09 71 bd 55 e9 e8 3d e1 b6 27 bb 70 d8 60 3d
       -0.058846653 0.113726296 -0.0025591182 0.05489391
000380 d4 4c cf 3d a6 1a fb 3d e7 5f 57 be c7 2c 09 3b
       0.10122076 0.12260942 -0.21032678 0.002093123
000390 58 e0 23 be 19 40 85 bd fc 2a 5c 3e 24 4c f5 3c
       -0.16003549 -0.06506366 0.21500772 0.029943533
0003a0 2d 6c 2b bd e8 84 fb bb 17 07 91 3d 22 1e cc bd
       -0.04185121 -0.007675756 0.070814304 -0.09966685
0003b0 74 46 88 be c2 35 7a bd e4 0e 08 3d eb 51 ac bc
       -0.2661625 -0.061086424 0.033217326 -0.021035155
0003c0 b2 c6 2b be 8e c6 81 3c 0c c0 db 3d f3 0a 93 3d
       -0.16775015 0.015841749 0.107299894 0.07179823
0003d0 55 99 80 3d 58 29 56 bc fd 2a 53 bc 29 06 f5 3d
       0.06279246 -0.013071381 -0.012888667 0.119640656
0003e0 70 79 d3 bd b0 56 4a 3c a1 c6 98 3b 05 08 a0 3d
       -0.10325897 0.0123497695 0.0046623503 0.078140296
0003f0 41 d3 27 3e 21 12 e6 bc 3a 7a 3b 3e 32 b0 d9 bd
       0.1638918 -0.028084816 0.18308344 -0.1062931

network_body._body_endoder.seq_layers.6.bias f4 [128]
000000 78 b7 2b bd cf a2 eb 3c bc 61 c5 bc 51 62 0a bd
       -0.041923016 0.028764157 -0.024094455 -0.033785168
000010 61 ab c8 bd f9 28 62 bd a3 4c 4a bd cb 14 85 3d
       -0.09798313 -0.055214856 -0.049389493 0.064981066
000020 fd 2d 0d 3b 60 cf ed bc f4 20 c3 bd cc 96 b7 bd
       0.0021542304 -0.029029548 -0.0952777 -0.08964309
000030 6f 75 a8 bd 24 1c 3a bd 83 5c 3e bd ca e4 84 bd
       -0.08225524 -0.045436993 -0.046474945 -0.064889506
000040 37 1b 16 bd 23 a7 06 be a9 fd 84 bd 93 e8 e1 bc
       -0.036647048 -0.13149695 -0.06493694 -0.02757672
000050 5f 33 89 bd 42 32 c9 bd ca c1 25 bd 0e ee 8a bc
       -0.066992514 -0.09824039 -0.040468015 -0.016959216
000060 9a 7b 99 bd 26 6e 7d bc fd a8 9a bd 07 35 4c bc
       -0.07494278 -0.015468156 -0.07551763 -0.012463815
000070 f4 1a af bd d9 f9 c9 bd 3f 2c 44 bd 5b 25 af 3c
       -0.08550063 -0.09862108 -0.04789376 0.021380117
000080 15 97 03 be 71 20 95 bd 3b b3 23 bc cd 78 c9 bc
       -0.12850602 -0.07281578 -0.009991462 -0.024593735
000090 e9 91 92 3c b8 3b 9a 3d 8d e3 ed bc 51 de 1b 3b
       0.017891841 0.07530922 -0.029039169 0.0023783634
0000a0 ad b2 a1 bd b8 00 c3 3d 2e a3 8f bd 53 20 89 bd
       -0.07895408 0.095216215 -0.07013546 -0.066956185
0000b0 fc 4a 18 bc 8b 9a 1c bd 6b b2 69 bd 15 ea 1d bd
       -0.009295221 -0.03823332 -0.05705492 -0.038553316
0000c0 f7 0a c9 bd d9 0b 90 bc 25 93 7c bd 2a 36 17 be
       -0.098165445 -0.017583774 -0.061663765 -0.14766756
0000d0 2c 7c 00 3c 2b 1f a4 bd 92 a5 80 3d 63 76 98 3c
       0.007842105 -0.08013757 0.0628158 0.018611139
0000e0 63 2c 27 be d2 bd 5b bd f4 92 72 bd 22 94 80 bd
       -0.16325526 -0.053647824 -0.059222177 -0.06278254
0000f0 b9 34 8c bd ef 4b 4b bd 0d d6 1d bc d1 33 00 be
       -0.068459935 -0.049632963 -0.009633553 -0.12519766
000100 f7 0d 9e bd c0 5f da 3c 3d 44 26 bd 50 6c c7 3c
       -0.07717507 0.026656985 -0.04059242 0.02434364
000110 4d bb 10 bc 0d fa ab 3d 4f bf 19 3c c8 06 67 bd
       -0.0088337185 0.08397303 0.00938399 -0.05640295
000120 e3 74 f6 bd 72 e8 14 be 88 10 ea bc bd c0 e5 bd
       -0.12034013 -0.14541796 -0.028572336 -0.112184025
000130 98 68 94 bd 07 4a e1 bd 02 f1 4a bd fb 99 7f 3d
       -0.07246512 -0.11000448 -0.04954625 0.062402707
000140 49 db 1f 3d 8e 9e 0d 3d 6c 8e 52 bd bd 0c 11 3d
       0.039027486 0.034575038 -0.051405355 0.03541254
000150 e0 54 49 bd 11 2e 3e bd af 86 af 3c 04 9c 8d 3d
       -0.04915321 -0.04643065 0.021426527 0.06914523
000160 ae 0e 2c bc fe 64 6f bd 7f 47 4a 3d 50 ac 8c bd
       -0.010501547 -0.058445923 0.04938459 -0.068688035
000170 c1 1b bd bc dc d9 d9 3b 39 58 67 bd 99 d3 84 3d
       -0.023084523 0.0066482853 -0.05648062 0.064856716
000180 1e 8c 9e bd 43 72 da bd 46 49 f3 bd 85 8e eb bd
       -0.07741569 -0.10666325 -0.1187921 -0.11501793
000190 b6 56 88 bd fe 9d 49 bc 81 31 f7 bd b1 db 1b bd
       -0.06657164 -0.012305735 -0.12069989 -0.03805131
0001a0 61 3b 95 bd e8 f9 67 bd 0a 81 a6 bd a5 e0 9e bd
       -0.07286716 -0.056634814 -0.08130081 -0.07757691
0001b0 56 9d d1 3b 79 4c e7 bc c7 af 8f 3c d2 1b a1 bd
       0.0063969297 -0.028234707 0.017539872 -0.078666344
0001c0 23 bf 4d 3c 84 10 65 3c e9 b0 a7 3b df ae e0 3b
       0.012557778 0.013980988 0.005117525 0.0068567838
0001d0 1d 06 34 bc 8a b9 30 bd 90 93 e0 bd 93 22 0a bd
       -0.010987786 -0.043145694 -0.10965645 -0.03372438
0001e0 7f 57 be bd 7e c0 f1 3c df fc a8 bc 7a 74 65 3d
       -0.09294032 0.029510733 -0.02062839 0.056019284
0001f0 73 65 94 bd c1 44 35 be 7c aa c8 bc 38 64 7e bd
       -0.072459124 -0.17702009 -0.024495356 -0.062107295

network_body._body_endoder.seq_layers.6.weight f4 [128, 128]
000000 b4 5f 48 3d 47 63 00 3e 4f 37 28 bd d1 90 4a bc
       0.048919395 0.12537871 -0.04106837 -0.0123636285
000010 f9 40 9c 3d 26 52 37 3d 0b dd 29 3d 70 2c 86 bc
       0.0762958 0.044756077 0.04147057 -0.016378611
000020 55 dc 14 3e ff d8 cb 3d b2 9e 3c be 66 85 86 bd
       0.14537175 0.09953498 -0.18419912 -0.065684125
000030 54 5d 95 bd 86 4c 65 bc f1 61 1d 3d 07 14 82 be
       -0.072931916 -0.013995295 0.038423482 -0.25405905
000040 14 49 1a 3e dd 7a 01 bd b0 c1 7f 3d f5 e1 2b 3e
       0.1506694 -0.031611312 0.062440574 0.16785415
000050 6e 84 2c 3d 39 ac 04 be b5 4f ed bd 27 79 7a bc
       0.042118482 -0.12956323 -0.115874685 -0.015287674
000060 9e ed 15 bd 7f 76 53 be c4 b9 36 3e 96 a2 03 3d
       -0.036603563 -0.20650671 0.17844301 0.032137476
000070 48 97 0a 3c 17 7d 79 3d 56 6b 7e bb 3d d5 9c 3d
       0.00845892 0.06091031 -0.0038821301 0.076578595
000080 b2 39 f0 3c f6 6e 7f ba f6 31 89 bc 52 a2 ae 3d
       0.029324386 -0.00097440125 -0.016747456 0.08527054
000090 11 39 0f 3e 1b de b1 bd b5 17 a2 bc f3 05 d9 3c
       0.13986613 -0.086849414 -0.019786695 0.026492095
0000a0 fd c0 43 bd 52 35 51 be 23 7b 89 be 6e ff 25 be
       -0.04779147 -0.20430496 -0.26851758 -0.1621072
0000b0 d4 38 be 3d 11 f2 2c bd c0 da f3 bd 2c 7a c6 bd
       0.09288183 -0.04222304 -0.119069576 -0.09691271
0000c0 10 08 0a 3d 8d dd 0c bc bb 29 51 be 8a be 03 3e
       0.033699095 -0.008597744 -0.20426075 0.12865654
0000d0 e8 f6 0f bd 05 6f 9c 3d bf 2f 1d 3e 9b 9b 44 bd
       -0.035147578 0.07638363 0.15350245 -0.04799996
0000e0 11 f9 fd 3c 67 02 9c bd 25 9f 3d bc a6 e6 8f 3e
       0.031002553 -0.07617646 -0.011573588 0.28105658
0000f0 ba 6f 8a bc 4e cf 99 3d 67 24 6a bc f3 87 65 bd
       -0.016898979 0.07510243 -0.014290906 -0.056037854
000100 de bc 42 3e 03 1e 1b 3d da ee bd 3d 01 2c bb 3d
       0.1901736 0.03787042 0.09274073 0.091392525
000110 3f 86 11 bc f3 57 0b 3e e8 30 83 be 87 65 33 be
       -0.008882104 0.13607769 -0.2562325 -0.17519198
000120 7d 08 31 3e 54 ec 92 3c 1a 43 a0 3d 87 89 30 3b
       0.17288394 0.017934956 0.078252986 0.0026937441
000130 69 03 06 3d 27 b8 31 bd 84 01 8d bd dc b9 17 3e
       0.032718096 -0.043388512 -0.06885055 0.14816993
000140 bf 00 c9 3d 3f de ae bd 54 ae 60 3a 2c 79 e8 38
       0.098145954 -0.08538484 0.0008570899 0.00011085192
000150 9c b2 c2 bd a5 18 43 bd ec 4e eb 3d f1 d2 19 3c
       -0.09506723 -0.047630925 0.114896625 0.009388671
000160 39 10 85 be 30 a7 13 3d d0 fc 46 3e a3 30 12 3e
       -0.2598894 0.036048114 0.19432378 0.14276366
000170 5a e3 82 3d 8d 0d a8 bc e7 3b 52 3d 54 88 4b 3e
       0.0639102 -0.020514274 0.05132666 0.19876224
000180 ab aa 3e 3b d2 85 61 3c c7 1d ad 3c 80 68 9f bd
       0.0029093425 0.013764815 0.021132363 -0.07783604
000190 f3 fe b7 3b 45 f0 4e bc 99 a1 73 3d 6a f6 ba 3d
       0.005615109 -0.012630527 0.059480283 0.09129031
0001a0 13 be 55 3e 49 98 95 bb aa 58 eb 3d 8a 54 b5 3d
       0.20873289 -0.004565273 0.11491521 0.08854015
0001b0 5f 2b 96 bd 69 8b 07 be a7 b3 28 3e c1 d3 a3 3d
       -0.07332491 -0.13236775 0.16474782 0.07999373
0001c0 df 9d 4a 3c a5 7f 8c b7 03 9c b7 bc 5d 4b 9f bd
       0.012366741 -1.674874e-05 -0.02241326 -0.07778046
0001d0 d8 45 57 3c d1 71 12 3b df 11 1a 3e 8e 1d b2 bd
       0.013139211 0.0022345672 0.1504588 -0.08697043
0001e0 e3 2b 56 3d ac 74 6b be a5 8a a0 b9 bc e4 ab bc
       0.052287947 -0.22993726 -0.00030620876 -0.020983092
0001f0 53 ac 34 3d 53 4e a4 bd f1 04 a6 3d 41 7c 2a 3e
       0.044109654 -0.08022752 0.08106411 0.16648962
000200 2c 58 58 be d8 f8 8a bd cb ab 06 3e 24 86 d2 bd
       -0.21127385 -0.067857444 0.13151471 -0.102794915
000210 69 52 6d bd e5 bf 45 be 4b df c7 bd 2b c2 36 3d
       -0.05793992 -0.19311483 -0.09759387 0.044618767
000220 9b 9d 9e 3d 8a d8 4b be 8d f7 a2 3d 66 03 bb bc
       0.077449046 -0.19906822 0.07957373 -0.022828769
000230 ee c0 07 be 2d 00 4d be 5d c8 10 bc 13 bc 07 3d
       -0.1325719 -0.20019598 -0.008836833 0.033138346
000240 f1 a3 a6 bc 08 88 38 3d bb 1b ff bb e2 97 c2 3d
       -0.020341845 0.045051605 -0.007785288 0.095016256
000250 99 49 18 be d1 03 46 bd 06 41 2f be eb 86 36 be
       -0.14871825 -0.048343483 -0.17114648 -0.17824905
000260 c5 b5 2a 3e 1d ac 1d be 7f 1b 20 bd 2c 51 71 bd
       0.16670902 -0.15397687 -0.039088722 -0.058915302
000270 0e 75 36 bc 08 3c 3e bd 49 bf e5 3d a2 e3 da bd
       -0.011136306 -0.04644397 0.112181254 -0.10687949
000280 ac 6d 1a bd cd 8f 8a 3d 6b 64 1e be d0 80 11 3e
       -0.037702248 0.06765709 -0.15467994 0.14209294
000290 e2 7d 02 3e ab 53 06 3b 1f 55 55 3d 98 36 79 3d
       0.12743333 0.0020496647 0.05208313 0.06084308
0002a0 59 a9 c5 3c eb 21 97 bc aa 95 f7 3a 81 5f a3 bd
       0.024128603 -0.01844879 0.0018889208 -0.079772
0002b0 99 17 44 3e 8b 06 38 3d 4c 22 59 bc 0e 60 13 3c
       0.19149627 0.044928115 -0.013252806 0.008995069
0002c0 46 a5 24 3d 74 7e 22 3e 86 f2 30 bd 85 90 bb bd
       0.04019668 0.1586855 -0.04320004 -0.09158424
0002d0 65 39 3e be c7 04 9c be b8 d3 3d 3e 3a 58 40 be
       -0.18576582 -0.30472395 0.18537796 -0.18783656
0002e0 f2 41 06 be c3 d6 75 be 51 28 e8 bc 5d c7 01 3e
       -0.13111094 -0.24007706 -0.028339537 0.12673707
0002f0 38 a3 cf bd 9b 7f 76 bd c4 35 74 bd 9b 80 52 bd
       -0.101385534 -0.060180288 -0.059621587 -0.05139218
000300 a0 f2 01 3e 06 3c 60 3d 09 75 8f bc b1 1e 04 be
       0.1269021 0.054744743 -0.017511861 -0.12902333
000310 e3 9c ac 3c 02 89 7b bd b2 a2 7b bd 7d 48 94 bd
       0.021070903 -0.061409958 -0.061434455 -0.072403885
000320 92 72 9c 3d 45 9c f3 bb fb cb 78 3e 7b 8b 95 3e
       0.0763904 -0.0074344003 0.24296562 0.29207978
000330 bf 04 3a bd 7d 33 60 bd 5b 68 4c be fd 44 de 3d
       -0.045414682 -0.054736603 -0.19961683 0.10853002
000340 0b fb 4a bd 98 0b ab 3b 83 eb 12 3d 7b 45 17 bd
       -0.04955582 0.005219888 0.035869133 -0.036931496
000350 ad d7 98 bd 9c 3e d1 3d db 83 1c bd 6e 85 9b bd
       -0.07463012 0.1021702 -0.038211685 -0.07593809
000360 d4 52 f8 bd 2a 31 60 bc 15 67 1e 3d 2f 0e 09 be
       -0.12125173 -0.013683597 0.038672525 -0.13384317
000370 4c 8a ef 3c 34 ee 93 3d 48 10 34 3d 48 86 ff bd
       0.02924075 0.07223168 0.04396084 -0.12476784
000380 08 4c b5 3d 1d fd 94 3d e5 6f 5f ba b6 d9 36 3d
       0.088523924 0.0727484 -0.00085234485 0.04464122
000390 e2 5f 34 3b 3c ed cb bd 57 b8 53 bd 58 17 48 bd
       0.002752297 -0.09957358 -0.051689472 -0.048850387
0003a0 30 07 9b bd e7 c7 a6 3c c6 93 ef bd a7 34 60 be
       -0.0756973 0.020358993 -0.116981074 -0.21895085
0003b0 46 6a c2 bd f8 46 fa 3d 3f c2 3e 3d 19 78 e5 3c
       -0.09492926 0.122205675 0.046571966 0.028011369
0003c0 53 0e 7e bd e6 16 32 3e f6 aa e7 3d 13 5b 67 be
       -0.06202538 0.17391548 0.11311905 -0.22593336
0003d0 dd 48 2b 3e 51 1d 0f 3e 5a b2 41 3d 72 40 c3 bc
       0.16727014 0.13976027 0.04728923 -0.02383444
0003e0 a3 c4 73 3e e5 6f 2d be 19 72 34 3d db 48 a7 bc
       0.2380548 -0.16937216 0.044054125 -0.020420482
0003f0 a3 e0 5f 3e 96 7a 97 3c 5b b3 2c 3d a0 d8 06 be
       0.21863036 0.01849107 0.042163234 -0.13168573

network_body._body_endoder.seq_layers.8.bias f4 [128]
000000 86 cc e5 bd 12 14 ae bc a6 e8 26 be 05 43 a7 3b
       -0.112206504 -0.021249805 -0.16299686 0.005104425
000010 49 0c 21 bd 4f 74 b3 bd 09 3d 83 bd e5 6f 5a bc
       -0.039318357 -0.087624185 -0.06408126 -0.013332342
000020 5c 0a 87 bd 97 c3 17 be e5 b7 06 be 8d 43 90 bc
       -0.06593773 -0.14820705 -0.13156088 -0.017610336
000030 50 bb d4 bd ea bf 46 be de f7 06 3d b9 ee 01 bd
       -0.103872895 -0.19409147 0.03295123 -0.031721804
000040 88 4a 7a bd 64 37 a9 bd f8 1f a1 bd ce 4c 81 bd
       -0.061106235 -0.08262518 -0.07867426 -0.063134775
000050 9a 54 77 bd b4 e5 7d bd f8 05 a7 bd 7b 3f f7 3b
       -0.060383417 -0.06198664 -0.08155435 0.0075454093
000060 46 7b b2 bd 81 9d 0e be 16 6b 05 be 75 e3 a5 bd
       -0.08714919 -0.1392727 -0.13029131 -0.081000246
000070 40 0b d8 bd da c5 1e be 29 aa 40 bd f8 c4 9d bb
       -0.10549021 -0.15505162 -0.047037277 -0.0048147403
000080 73 c0 7e bd 5a 8c 41 be 63 a2 08 3d 11 03 20 be
       -0.062195253 -0.18901196 0.03335799 -0.1562617
000090 a1 96 99 3d 05 45 40 bd bd 53 de bd 5e cf f9 bd
       0.07499433 -0.046940822 -0.108558156 -0.12197755
0000a0 96 5b 76 bd a3 05 f6 bd 06 43 0e be db bf b1 bd
       -0.060145937 -0.12012794 -0.13892755 -0.08679172
0000b0 47 e1 4a bd cc 6f cb bd 7b eb a7 bd bc 23 e5 bd
       -0.049531247 -0.09933433 -0.08199211 -0.111884564
0000c0 ed e8 df bd 9f ba 18 bc 3e 73 82 bd b7 8c ff bd
       -0.10933099 -0.009321838 -0.06369637 -0.12478011
0000d0 c4 fd 10 be 77 68 23 3d 70 75 4e 3d 48 c3 9d bd
       -0.14159304 0.039894547 0.050404966 -0.077032626
0000e0 8c c3 0b bd 01 50 57 bc a2 c3 44 bd 86 bf 06 bd
       -0.034122035 -0.013141633 -0.048038132 -0.032897495
0000f0 92 de 80 bd 94 dc d6 3a 97 22 82 bd d1 6b a1 bc
       -0.06292452 0.0016392642 -0.06354254 -0.019704731
000100 db 0d 41 bb d2 84 59 bd cd cf b0 bd 25 61 5d 3c
       -0.0029457721 -0.053105183 -0.08633385 0.013511931
000110 91 70 a7 bd 87 ac b2 bd 0a 2c 81 3c 10 8c d8 3c
       -0.08175767 -0.08724313 0.01576807 0.026433975
000120 c5 2e fa bd b1 d1 70 3c cd b0 8f bc 40 1d 5e bd
       -0.12215952 0.014698432 -0.01754036 -0.054227114
000130 ad e5 0f bc 0d f4 07 3d 90 d8 d7 bd 88 85 da bd
       -0.008782786 0.03319173 -0.10539353 -0.1067
000140 25 99 26 be 0b 74 46 bd af 6e a7 bd b8 38 2d be
       -0.16269358 -0.04845051 -0.08175408 -0.16916168
000150 d0 0a f9 bc a9 d0 eb bd 16 9a ba bc 2a 01 37 bd
       -0.030400664 -0.11514408 -0.022778552 -0.044678845
000160 01 f3 d1 bd 08 64 1e be cd 2a 4e bd 5a d5 8a bd
       -0.102514274 -0.15467846 -0.050333787 -0.06778975
000170 8b 46 f9 bd 32 13 b2 bd 72 d1 b6 bd 8e dd 86 bd
       -0.12171658 -0.086950675 -0.08926667 -0.06585227
000180 8d 63 4c bd fd 77 18 be a7 f2 c6 bd da 6e 68 bd
       -0.049899627 -0.14889522 -0.09714251 -0.05674634
000190 f7 35 07 bd bd 6b da bd d7 21 4b bd f7 99 c1 bd
       -0.03301045 -0.10665081 -0.04959282 -0.094531946
0001a0 dc 88 20 be 45 40 6d bc a7 71 27 bd c9 09 9f 3c
       -0.15677208 -0.014480655 -0.04087987 0.019413846
0001b0 ae ce 4b bc 01 1d 97 3c c1 3e c1 3c 51 6d cb bd
       -0.012439413 0.018446447 0.023589494 -0.0993296
0001c0 fe 22 c3 bd 98 09 16 3a d3 09 84 bd 62 d0 18 be
       -0.095281586 0.00057234755 -0.06447186 -0.14923242
0001d0 c7 48 37 bd aa 12 1c be 61 1c 51 bd 43 63 ee bd
       -0.04474714 -0.15241495 -0.051052455 -0.116400264
0001e0 38 f2 39 bd 4e f0 1d be b8 d1 3d be 9f fa 8f bd
       -0.045397013 -0.154237 -0.18537033 -0.07030224
0001f0 da 7c 8d bd f5 7d b6 bd b3 81 9e bc 12 66 11 be
       -0.06908579 -0.08910743 -0.019348955 -0.14199093
