results/ppo/My Behavior/My Behavior-7499955.onnx (onnx, 269768 bytes, 11 tensors)

action_model._continuous_distribution.mu.weight f4 [1, 128]
000000 86 27 84 bd 0b f3 92 3c 41 35 af 3c f5 e8 b6 bb
       -0.06452851 0.017938158 0.021387698 -0.00558197
000010 37 97 25 bd ab d7 b4 3c 6f fc 24 3d 34 a6 4b 3d
       -0.040427413 0.022075495 0.040279802 0.04971905
000020 9b a0 cb bb 24 5c dd 3a be c4 33 bd 4b 01 b5 bc
       -0.006214214 0.0016888422 -0.0438888 -0.022095343
000030 5d 25 a7 3c 36 5d 28 bb 63 8e 15 3d 0b 0b 40 3c
       0.020403558 -0.0025690324 0.036512744 0.011721383
000040 f8 f7 85 3d c0 00 b9 3c 97 d4 21 bb df 55 ec bc
       0.06541437 0.022583365 -0.0024693364 -0.02884954
000050 00 7a ce 3c f2 46 30 bd d0 57 99 bd 58 d1 48 bb
       0.025204659 -0.04303641 -0.07487452 -0.0030642357
000060 ee cf 06 bd 07 be 05 bd 2f 0c 15 bc d1 5b a8 3c
       -0.03291314 -0.032651927 -0.009097143 0.020551594
000070 8f 9c e4 bc e7 bc 66 bd ec da 9d bb 43 77 91 ba
       -0.027906684 -0.056332495 -0.0048173573 -0.0011098165
000080 ea 7f e6 bc d4 48 15 3d 29 b6 d1 3c 07 da e1 ba
       -0.028137166 0.036446407 0.025599556 -0.0017231115
000090 48 cd dd bc b9 e6 a1 bc c7 06 e8 3c 87 cc 70 3c
       -0.027075425 -0.019763337 0.028323544 0.014697201
0000a0 81 fe 28 bc d7 00 2c 3c b3 40 21 bd 35 4b 01 bd
       -0.010314585 0.010498247 -0.039368343 -0.031565864
0000b0 ef 7b 05 bd a5 b8 d1 3c 0c 99 8c 3d f3 7e 72 bd
       -0.032588895 0.02560074 0.06865129 -0.0592031
0000c0 9f ec 5d bd 81 86 d2 bb c7 4a a0 3c e3 58 8e bd
       -0.054180738 -0.0064247255 0.019566907 -0.069505475
0000d0 f5 24 1a bd e2 5a 00 3d 31 e5 fa bc 29 a9 d8 3c
       -0.0376329 0.031336673 -0.030626865 0.02644785
0000e0 7c 8f f6 bb 51 08 0e 3c 66 0b 91 bc 7c e0 89 3c
       -0.007524429 0.008668975 -0.01770563 0.016830675
0000f0 33 62 23 bc ec fc af bc 79 b3 d3 3c b7 08 0f 3d
       -0.009972143 -0.021482907 0.025842415 0.03492042
000100 82 ff 5b bc 0f 22 a4 bc a5 09 9a bc fa 82 8f bd
       -0.013427617 -0.020035772 -0.018803427 -0.07007404
000110 8e 90 26 bd 62 83 cb 3b a7 bf 33 bd f7 c0 66 bc
       -0.0406652 0.0062107304 -0.043883946 -0.014084092
000120 be e4 6e 3c 00 b7 a4 3c 56 7c d4 3c 8b 1e 07 bd
       0.014580904 0.020106792 0.025938194 -0.032988112
000130 30 f3 21 bd 00 56 ef 3c 54 fe 8f 3c ea c9 65 3d
       -0.039538562 0.029215813 0.017577328 0.056100763
000140 62 dc c0 bc c7 e1 0c 3d 14 1c d4 bc cd d6 51 3d
       -0.023542587 0.034395006 -0.025892295 0.05123024
000150 0e f0 f2 3c ea 8e 1d 3d 3e a9 ea 3b ce d2 97 bc
       0.029655483 0.03846637 0.0071612885 -0.018533137
000160 17 3c 3a bd ca 8a d3 bc 84 b7 7e 3d 75 fe 0f 3d
       -0.045467462 -0.025823016 0.062186733 0.03515478
000170 15 b7 b9 bc c5 3a d6 bc 85 4a 2a bd b9 a1 cc bb
       -0.022670308 -0.02615107 -0.041574974 -0.006244865
000180 81 a4 b5 bc f6 ff 04 bd 61 19 cb bc be b6 69 3d
       -0.022173168 -0.032470666 -0.024792375 0.057059042
000190 bd 08 76 bc 36 35 8b bd ec f9 cb bc b1 c5 0a bd
       -0.015016732 -0.067972586 -0.024899445 -0.03387994
0001a0 7d c9 19 bd 57 a0 a7 3d 47 4c 3f 3d 98 27 af 3c
       -0.03754567 0.08184879 0.046703603 0.021381184
0001b0 18 aa 87 3b 7e fb 34 bd e3 34 92 bc e1 68 a4 bc
       0.00414015 -0.044185154 -0.017847484 -0.020069541
0001c0 1e 0b c3 bb f3 34 1e 3d 12 83 cc bb 42 63 4f bd
       -0.005952253 0.038624715 -0.0062412107 -0.05063177
0001d0 4b 1a 7b 3d 1b ef 40 bd dd 72 ef bc b2 90 9a 3c
       0.06130437 -0.04710303 -0.029229576 0.018867824
0001e0 c4 f6 99 3d 0f f0 73 3c 19 e2 13 3c 55 e3 e7 bc
       0.0751777 0.014888777 0.009026074 -0.028306643
0001f0 40 1b e5 3c 4a 1b 03 bd f3 58 03 bd 6a 8f 03 3d
       0.027967095 -0.032008447 -0.03206725 0.032119192

network_body._body_endoder.seq_layers.0.bias f4 [128]
000000 37 ef 3a bd 2d a8 fd bc 5b b6 9f 3b b5 d8 ad bc
       -0.04563829 -0.030963982 0.0048740334 -0.021221498
000010 90 04 fe bc 47 4e 72 bc 8a 08 99 bd 92 02 53 bd
       -0.031008035 -0.014789171 -0.07472332 -0.051516123
000020 0e ba 14 bd f3 e6 36 3d 13 2d 1a bd b9 dd 02 bd
       -0.036310248 0.044653844 -0.037640642 -0.031949732
000030 30 65 fa bc 62 9a 89 bd e1 9f 3a bc 10 d1 9a bc
       -0.030565828 -0.06718899 -0.011390657 -0.018898517
000040 b4 1d 6e bd 1f 86 56 3d 88 7e a4 3c 7d 4b 06 bd
       -0.058133796 0.052374 0.020079866 -0.032786835
000050 18 bc 96 bd 04 a5 db 3c 6b 30 a9 bd d4 cf 70 bd
       -0.07360095 0.026812084 -0.08261188 -0.05879195
000060 13 23 3c bd 8e c6 85 bb 09 59 57 bd f7 e5 af bd
       -0.045931887 -0.0040825075 -0.052575145 -0.08588784
000070 b7 b8 b2 3b 04 b5 41 bd 5a ee 1d 3d b4 1c ff bc
       0.0054541486 -0.04729177 0.038557388 -0.031141616
000080 62 15 88 bd bc 6e 1e bb d5 15 3d bd 9d 46 bf 3b
       -0.066447034 -0.002417489 -0.0461634 0.005837275
000090 06 49 3a bd 42 64 f8 bb 69 d5 7e bd 63 4a 1d bd
       -0.045479797 -0.007580311 -0.062215243 -0.03840102
0000a0 d0 7a 99 bd da 2c df bd 10 aa 14 bd ae 4b 05 bd
       -0.07494128 -0.10897227 -0.036294997 -0.032542877
0000b0 cd cc 5f bd 71 44 db bc 1d 47 70 bd 7f 66 8e bc
       -0.054638673 -0.026766034 -0.05866157 -0.017382858
0000c0 d5 9f 18 bd 2d 94 ad bd a3 54 7e bd 72 1c 96 bd
       -0.037261803 -0.08475528 -0.062092435 -0.07329644
0000d0 e8 bb 9f bd 5d c3 14 3e 74 58 45 bd b0 19 bf bc
       -0.07799512 0.1452765 -0.04818006 -0.023327678
0000e0 0a b6 c3 3a ae b8 98 bd f1 66 c7 bc ff 11 1e 3c
       0.0014931571 -0.074571 -0.024341078 0.009647845
0000f0 66 b5 01 bd 06 11 f1 bc bf 2b de 3a 47 91 1e bd
       -0.031667136 -0.029427063 0.0016950293 -0.038712766
000100 17 db 64 bc 2c 1f 9b bd 0d 7f 19 bd 5c 09 a1 bd
       -0.013968251 -0.07574305 -0.03747468 -0.07863113
000110 7c 2d c4 3a e3 cf 36 bd 41 fa 22 bd 30 01 85 bd
       0.0014967169 -0.04463185 -0.039789442 -0.06494367
000120 1a a1 7c bd 68 b3 a2 bd 7e 38 b0 bc 4e 48 81 bd
       -0.061677076 -0.07944375 -0.021511313 -0.06312619
000130 78 3b 04 bd b6 e7 5e bd 42 b5 8c bd f3 1d a6 bc
       -0.032283276 -0.054420196 -0.0687051 -0.020277953
000140 46 5d 31 bd 52 e3 a6 bb c5 43 3a bd c1 87 91 bd
       -0.043301843 -0.0050930167 -0.045474786 -0.07105971
000150 f9 4e c4 bc e6 77 f7 3c 11 57 06 bd ef 8f 25 bd
       -0.023963438 0.03020854 -0.032797877 -0.04042047
000160 3a 16 13 bd 98 a4 46 bc df 37 52 3c 97 f1 dc 39
       -0.03590987 -0.012124203 0.0128307035 0.00042141668
000170 52 3d 8b bd 5c 98 dc bb 52 cd bf bd cf 89 4e bc
       -0.06798805 -0.00673203 -0.093653336 -0.012606098
000180 64 46 6a bd 56 bb 2d bd 0b ae cc 3b e3 ff 51 bd
       -0.057196036 -0.042414986 0.0062463335 -0.051269423
000190 33 3d 27 bd 9a d7 05 bd cb 9e 41 bd 16 94 2c bd
       -0.04082985 -0.032676317 -0.047270577 -0.042133413
0001a0 a4 f8 02 bd d0 a1 08 3c 7c 20 53 bd 1d 40 30 bd
       -0.031975403 0.00833936 -0.05154465 -0.043029893
0001b0 81 82 9d bc 01 61 ad bc 7f f0 09 bd 6f b4 c6 bd
       -0.019227268 -0.02116442 -0.03367662 -0.09702384
0001c0 24 a6 0f bd ce 6c 1c 3c 09 a3 36 bd 44 85 06 be
       -0.035070553 0.009547425 -0.044589076 -0.13136774
0001d0 b7 cc 83 bc 09 26 ff 3c dc 59 33 bd 64 79 5f bc
       -0.016088827 0.031146066 -0.04378687 -0.013639782
0001e0 fe 1c 7c bd fd 43 f6 bc eb 46 27 bd 6e f1 57 3d
       -0.061551087 -0.030061716 -0.040839117 0.05272048
0001f0 9b 57 53 3c bb d1 2f bd b1 2e 6b bd 7a 73 77 3c
       0.012899305 -0.042924624 -0.057417575 0.015103215

network_body._body_endoder.seq_layers.0.weight f4 [128, 3]
000000 65 f8 9f 3f bd df 7a be 36 8f ae 3e d0 57 ab 3f
       1.2497679 -0.24499412 0.34093636 1.3386173
000010 1d fe 24 be d5 72 ee 3e d1 65 02 40 46 47 2f bd
       -0.16112562 0.46571985 2.0374644 -0.04279258
000020 10 93 92 3e c4 90 13 3f 22 f4 8e 3e d7 46 2d 3f
       0.28627825 0.5764277 0.27920634 0.6768622
000030 61 36 c4 be 48 78 b4 3e 86 a0 d3 bd 1f df de bf
       -0.38322738 0.35248017 -0.10333352 -1.7411841
000040 2c 43 92 3e 5a 72 44 3f f4 b7 d4 3e a9 0c 6b 3f
       0.28566873 0.76736987 0.41546595 0.9181619
000050 81 33 02 3e bf 9e 93 be 0b 89 be bd 4f 66 f6 bd
       0.1271496 -0.2883205 -0.093034826 -0.120312326
000060 e2 0c 5e bf eb c4 96 3e 11 2f fc 3e 1b fc 6b bf
       -0.8673841 0.2944711 0.4925466 -0.9218156
000070 d3 b3 a0 3d 41 8d 26 bd 94 ff bb 3e 1a 1f fd 3e
       0.07846799 -0.040662054 0.36718428 0.4943779
000080 57 40 40 3f ba 80 ef be 1a c1 6c 3d cc be 38 3e
       0.75098175 -0.46777898 0.057801344 0.18041533
000090 38 e7 8e bf bb 92 ba 3d 36 0c f7 3e 4e fc 28 be
       -1.1164312 0.09110018 0.48251504 -0.16502497
0000a0 7b 73 25 be ec 9e 45 be ea 22 82 bc 74 9c f3 3e
       -0.16157334 -0.19298905 -0.015885789 0.47580302
0000b0 2b 8a 13 3f ed 4c b1 3f 03 5e 0b bd 8f 4a 38 bf
       0.576327 1.3851601 -0.034025203 -0.7198877
0000c0 ec b9 83 be 52 d5 9c be 20 9b ef 3e f6 92 07 40
       -0.25727785 -0.306315 0.46798038 2.1183448
0000d0 34 b7 cf 3e 4b 45 1c 3e d3 f4 47 bf e9 29 b2 be
       0.4056946 0.15260808 -0.7810795 -0.347976
0000e0 0b 94 67 bd b1 42 44 3f e2 ff 4f be 24 e0 e2 be
       -0.05653767 0.76664263 -0.20312455 -0.4431163
0000f0 ea 3b 0d 3e f9 73 83 3e 24 b0 a6 be 6d 87 da 3e
       0.13792387 0.25674418 -0.3255626 0.42681447
000100 63 7a 22 3f fb ff c5 be db 9c a2 be 9c 76 ae 3e
       0.63468 -0.3867186 -0.31760296 0.34074867
000110 0e 0b 58 bf 0c d1 f7 3c b5 a7 d8 3e 23 9a d8 3d
       -0.8439187 0.030251049 0.4231545 0.10576274
000120 6f 98 35 3f e4 00 89 be 66 34 99 3f 59 36 49 bf
       0.7093572 -0.26758492 1.1969116 -0.7859855
000130 15 1f 6d bf 92 4a 0e be 50 dd 03 3e 18 1e d1 be
       -0.9262555 -0.13895634 0.12877393 -0.40843272
000140 40 aa f9 be 58 a3 67 bf 7c 0e 19 3f ae 0f eb be
       -0.48762703 -0.9048362 0.59787726 -0.459104
000150 d8 9a b6 3f 5c b9 2e be f2 62 40 3e 60 ad cc be
       1.4266005 -0.17062896 0.18787745 -0.39976025
000160 77 39 1d be 9d 0e 69 be c9 a2 1a 3f 73 50 a7 bd
       -0.15353952 -0.22759481 0.6040464 -0.08169641
000170 8e 61 5b bc 63 38 47 bf 34 dd 32 be be db 4e be
       -0.013389958 -0.77820414 -0.17467195 -0.20201012
000180 0b dd 3f 3f dd 46 c1 3e 4c 24 e9 be a9 c3 8b 3f
       0.7494666 0.37749377 -0.45535505 1.0919086
000190 21 fa ca 3d 9f d7 07 3f 45 75 b6 bd e3 ad f2 3e
       0.099109896 0.53063387 -0.08909086 0.4739829
0001a0 f1 39 a7 bd d5 f5 78 bf d1 de c3 be d3 5a 37 3e
       -0.08165348 -0.9725011 -0.38255933 0.1790574
0001b0 fa 10 ee bb 2a 30 78 be 90 f2 a4 3e 74 f5 6c 3d
       -0.0072652074 -0.24237123 0.3221631 0.05785127
0001c0 47 f6 a1 3f 77 56 16 3f d1 90 28 be 9e 29 c0 3e
       1.2653283 0.58725685 -0.16461493 0.3753175
0001d0 25 73 31 be 62 51 45 bf cb 10 e5 3e a9 99 2b 3d
       -0.1732908 -0.77077305 0.44739375 0.04189459
0001e0 41 ba 0c bf 54 8d 90 3e 2f f0 a0 be 2a 63 86 bc
       -0.549717 0.28232825 -0.31433246 -0.016404707
0001f0 42 74 17 bf e7 01 9d 3e 72 a1 37 3f 7a 6d 21 bf
       -0.5916177 0.30665514 0.7173072 -0.6305767
000200 9d 71 07 3f 18 9f 07 bf e3 5e 85 3f e6 f5 34 3f
       0.52907735 -0.5297713 1.0419582 0.7068771
000210 dd 58 a2 3e ac e3 90 be c0 5d 9a 3d c3 33 58 3e
       0.31708422 -0.282987 0.07537413 0.21113496
000220 5d 18 51 3e 23 10 6e 3e eb 67 19 3f 2e 8b 88 bd
       0.2041945 0.23248343 0.5992419 -0.066671714
000230 86 84 4e be 7c c2 a7 3f 4b 5d 1e bf 1f 4e ed 3e
       -0.20167741 1.3106227 -0.61861104 0.46348664
000240 00 ef ad 3f 10 55 54 bf af 26 3a 3f 8b 45 90 bd
       1.3588562 -0.82942295 0.72715276 -0.07044514
000250 85 21 6d 3f 48 db 25 be cd 5a ff 3e a6 51 df be
       0.9262927 -0.1619693 0.49873963 -0.4361698
000260 c0 f9 b3 bf ad 41 00 bd 3f 0f 08 bf 1a 0c 0d 3f
       -1.4060593 -0.031312633 -0.53148264 0.5509659
000270 70 26 8e 3f e6 fb 84 bf 16 0e e0 bd f0 19 ac bf
       1.110548 -1.0389373 -0.10940187 -1.3445415
000280 e8 d4 34 bc 63 fd af 3c 1e fd a0 3f 45 6b 21 bf
       -0.011037089 0.021483129 1.2577245 -0.63054305
000290 6d f8 06 be 09 4d 0b 3f 6a d1 41 3f d2 97 43 3e
       -0.13180704 0.5441442 0.75710166 0.19100884
0002a0 3c 72 ab 3f 62 2d 94 3d 85 55 6a 3e 2d f7 80 bd
       1.3394237 0.072352186 0.22884186 -0.06297145
0002b0 5e c5 21 bf b4 c2 07 bd 90 13 34 3f f7 ae 81 3d
       -0.63191783 -0.033144668 0.7034235 0.063322
0002c0 ba 2d 7b 3e 9c 57 81 3f a8 a1 9d 3e 32 77 95 be
       0.24529162 1.0104861 0.30787396 -0.291925
0002d0 0a 8c f5 bd 16 d8 61 be 2d 17 b5 be 85 43 fe bc
       -0.11989601 -0.22055086 -0.35369244 -0.031038055
0002e0 23 65 02 bf 32 9b ce be 6d 80 50 bf bf d6 89 3e
       -0.5093557 -0.4035278 -0.8144596 0.2692165
0002f0 69 30 6a bd 46 45 3f bf 2c ec 9d 3e 24 63 2c bd
       -0.057175074 -0.7471508 0.30844247 -0.042086735
000300 6e bb b6 3e 25 02 57 3e 49 5e b9 bd c4 7a 84 3f
       0.35689873 0.20996912 -0.090511866 1.0349965
000310 c1 bd 81 be 64 be 43 be c2 cc 8a bf ea 6b 07 3f
       -0.25340083 -0.19115597 -1.0843737 0.5289904
000320 c7 0d 91 3e a6 75 a9 be 4e e8 d0 3e 57 44 a9 be
       0.28330824 -0.3309757 0.40802234 -0.33059952
000330 36 56 22 bf 37 14 d3 3d e0 77 62 3e ee 26 9d be
       -0.634128 0.1030659 0.22116041 -0.30693763
000340 d4 f8 38 3f 44 6f de 3d 84 85 18 bf 37 3a bf be
       0.7225468 0.10861066 -0.5957873 -0.37349102
000350 43 5a 2e 3e 35 23 df 3d c9 0b 3e be 2b fc 7f bf
       0.1702662 0.10895387 -0.18559183 -0.9999415
000360 60 ca 0d bf 56 a2 ce be 18 2e 15 bf 10 ae fd bc
       -0.55386925 -0.40358227 -0.5827346 -0.030966789
000370 0a 01 ab 3e e1 08 d3 be 39 17 b5 be 0c 08 a7 3f
       0.3339923 -0.41217712 -0.3536928 1.3049331
000380 7a 47 02 bf 0c d7 88 bf e2 16 15 3f 0c 1a 56 bf
       -0.50890315 -1.0690627 0.5823804 -0.83633494
000390 bb 79 53 3f 37 69 cc be c5 e4 6c 3e 4a e8 66 3e
       0.8260762 -0.39924023 0.23134144 0.22549549
0003a0 e4 19 29 bf d1 ab 5c be 70 4e 23 3e 6f d6 35 3e
       -0.6605513 -0.21549918 0.1594789 0.17757581
0003b0 a6 e3 d3 bd a2 07 c8 3e 6c 56 1c bd 9a 0a d0 3d
       -0.10346155 0.39068323 -0.038168356 0.10158272
0003c0 a9 f0 fa 3c b1 c4 54 bf 51 b6 9d bb 85 ae 86 be
       0.030632334 -0.8311263 -0.0048129936 -0.26305023
0003d0 a1 27 99 be d5 af 44 3f a9 a3 72 3d b5 55 25 3f
       -0.29913047 0.768308 0.05923811 0.64583904
0003e0 5b 23 d2 bd 52 33 ff be 76 c8 8e be d6 52 8b bf
       -0.1026065 -0.49843842 -0.27887315 -1.0884655
0003f0 e2 57 93 3e 59 a8 f0 be 52 f3 87 bf ca 48 4d bf
       0.28777987 -0.4700344 -1.062113 -0.8018919

network_body._body_endoder.seq_layers.2.bias f4 [128]
000000 5c 4c 1a bd c3 52 6c b9 7b e9 45 bc 40 e1 4d bb
       -0.03767048 -0.00022537545 -0.012079592 -0.0031414777
000010 0b c1 b7 bc 16 b5 95 bc b0 37 33 bd b1 90 fe bc
       -0.022430917 -0.018274825 -0.04375428 -0.031074854
000020 26 42 93 3b 3e 5a 46 ba 29 c6 a6 bc 76 e6 bd bc
       0.0044939695 -0.0007566548 -0.020358162 -0.023181181
000030 ee 16 97 3a 01 85 78 bc 80 da 85 bc a2 2a 16 bd
       0.0011527219 -0.015168429 -0.01633954 -0.03666175
000040 79 5d b4 bb 26 66 22 bd 01 cb 3b bd fb c6 c6 bc
       -0.005504307 -0.039648198 -0.045847896 -0.024264803
000050 c0 47 53 bd df 69 62 bc 4a e0 e3 bc 75 7f d1 bc
       -0.051582098 -0.013819187 -0.02781691 -0.025573472
000060 3c 68 09 3c fd 12 57 bc b9 e5 9d 3c 46 58 23 bd
       0.008386668 -0.013127086 0.01927458 -0.039879106
000070 64 21 cc bc a1 50 b9 bc f0 00 df ba 7a 11 e5 bb
       -0.024918266 -0.022621455 -0.0017013829 -0.0069906088
000080 9d 8d 43 bd 70 da f2 ba a3 69 49 3c e8 ea 25 bd
       -0.047742475 -0.0018528234 0.012293252 -0.040507227
000090 cf 5b 77 3b 9a 92 88 ba fa 79 25 bd ad 84 84 bc
       0.0037743931 -0.0010419667 -0.04039953 -0.016176546
0000a0 10 be 99 bb a8 00 e7 3b d0 58 18 bd c6 36 e3 3b
       -0.0046918467 0.007049639 -0.037194073 0.0069340197
0000b0 69 f4 f5 bb 1c ad b0 ba 3b 75 f2 bc a2 cc 17 bd
       -0.0075059426 -0.0013479325 -0.029596915 -0.037060387
0000c0 b2 c9 1c 3c 3f 75 18 bd 16 b6 6f bc b5 b5 91 3b
       0.009569572 -0.03722119 -0.014630815 0.00444671
0000d0 89 7c 1d bc ab b7 15 bb df e0 99 bc 75 6a 7b 3b
       -0.009612211 -0.002284507 -0.018783985 0.0038363014
0000e0 99 c2 c3 bc c3 84 19 bd 77 9e 54 3c a0 f9 8e bc
       -0.023896502 -0.037480127 0.012977234 -0.017453015
0000f0 c0 3c aa bd e1 50 15 bd 05 b3 60 bd d3 46 67 bd
       -0.083123684 -0.036454085 -0.054858226 -0.056464028
000100 3b 5d c7 bc 62 d9 e3 39 f6 39 0e 3c 1c 12 07 bc
       -0.024336448 0.00043458777 0.008680811 -0.008244064
000110 ec 2b db bc 93 93 64 bc d1 05 17 bd 00 9c 16 bd
       -0.026754342 -0.0139512 -0.03687078 -0.036769867
000120 cd f4 fd bb e4 92 73 3c c5 44 92 3c 49 93 96 bc
       -0.00775013 0.014866564 0.017855057 -0.018380778
000130 70 8a 02 bc 5a 64 e7 bc f2 a9 f7 bb 90 f8 7f 3c
       -0.007967576 -0.028246094 -0.007558101 0.015623227
000140 16 83 24 bd 1b d6 08 bc cc c4 b9 bc e8 ba e7 bb
       -0.040164076 -0.008351828 -0.022676848 -0.0070718415
000150 a2 fc 5b bd e6 fa fd 3b ff 77 dc bc 48 f5 88 bc
       -0.053707726 0.0077508567 -0.026912687 -0.016718522
000160 6d 49 31 bd 65 2a 81 bb de 68 7f bc ab c0 7f bc
       -0.043282915 -0.0039418214 -0.015588967 -0.0156099005
000170 be 74 e4 bb 72 21 69 bc 51 f6 0c 3c e0 26 82 ba
       -0.0069719246 -0.014229165 0.008603648 -0.0009929799
000180 50 a1 96 3b 89 38 2d 3c 84 4e 75 bd 94 45 2c bc
       0.0045968667 0.010572561 -0.05988933 -0.010514636
000190 6d d3 84 bc d0 56 2b bc 88 af d2 bc 43 02 a1 bd
       -0.016214097 -0.010457709 -0.025718465 -0.078617595
0001a0 88 83 af bc 4f 55 55 bd 94 0c 0d bc fa e1 70 bb
       -0.021425024 -0.05208331 -0.008608956 -0.0036755786
0001b0 d5 20 48 bb c4 4a 26 bd fe bc 14 bd fc b9 c7 ba
       -0.0030537148 -0.040598646 -0.03631305 -0.0015237923
0001c0 0f 46 3c bd a8 8c 8b bb 8c 91 be bc 95 8c c6 bc
       -0.04596525 -0.004258711 -0.023262762 -0.024236957
0001d0 5a 6c 91 bc c7 63 ce bc f3 1c be bc c4 1e 3c bd
       -0.017751861 -0.025194062 -0.023207163 -0.045927778
0001e0 f9 70 94 bc f7 bc 61 bc 54 15 d0 3b b3 bd 9f bc
       -0.018120276 -0.013777963 0.0063501988 -0.019499635
0001f0 0c a5 22 bc 80 10 a7 bc 8e 3a 56 bd 96 98 d8 bc
       -0.009927046 -0.02039361 -0.052301936 -0.026439946

network_body._body_endoder.seq_layers.2.weight f4 [128, 128]
000000 fa a3 58 3d 49 4d 0e be db c1 e2 bd e5 18 c9 bd
       0.052890755 -0.1389667 -0.11072131 -0.098192014
000010 cc aa dd 3c 95 91 58 bd 37 76 ca 3d d4 e6 66 bd
       0.027058981 -0.052873213 0.09885829 -0.05637248
000020 a0 a5 40 3d 7a 75 15 bd e6 2a 33 bd a3 b2 c4 3d
       0.047032952 -0.036488988 -0.043742083 0.09604385
000030 4d ea b5 3d 12 15 28 be 28 0a cd bd 19 e3 b4 3d
       0.0888258 -0.16414288 -0.10011703 0.08832378
000040 b4 85 ad 3d ed 66 59 3d 39 b3 b3 bd ca ee 83 3d
       0.084727675 0.053076673 -0.087744184 0.0644203
000050 bb d6 ae 3d f4 fd f7 3c 82 7d 1f 3d 2e 51 b3 bd
       0.0853705 0.030272461 0.038938053 -0.08755718
000060 fd 06 12 3d 14 c5 57 bd 28 a7 47 3d a6 c3 70 3e
       0.035651196 -0.052678183 0.048743397 0.23512134
000070 56 fa a0 3d a7 db bb bd 1d b8 e9 bd c2 c6 15 3e
       0.07860248 -0.09172755 -0.1141207 0.14626601
000080 b2 5a a7 bc 0a e2 ce bd 84 ef ca 3d 2a 5c 33 bd
       -0.02042899 -0.10101707 0.09908965 -0.043789066
000090 41 03 c7 3d df 0c 0e be 37 f9 1e 3e b9 bc 1f 3d
       0.097174175 -0.13872097 0.15524755 0.03899834
0000a0 13 2e 18 bd 6f ef e0 bc 21 66 e5 bd 33 b2 89 bc
       -0.037153315 -0.02745792 -0.1120112 -0.016808605
0000b0 23 c7 ab 3d f1 06 02 bd e7 6d 2d 3d 2f 49 30 bd
       0.08387592 -0.0317449 0.04234114 -0.043038543
0000c0 b1 0b 95 bd bb 5d 73 bd 7e 56 e2 bd 1a 24 1e be
       -0.072776206 -0.05941556 -0.11051653 -0.15443459
0000d0 37 61 7f be 07 75 0a 3c 00 14 9c bd 45 3e c6 3c
       -0.24939428 0.008450753 -0.07621002 0.024199614
0000e0 1e 62 76 be c8 9f 1c 3d 1d e1 6a bd 7b bc 3a bd
       -0.24060866 0.038238317 -0.05734359 -0.045589905
0000f0 11 e0 62 bd 53 a4 42 bc b9 68 e4 3d 05 b6 98 3d
       -0.055389468 -0.011879998 0.11152787 0.074565925
000100 b9 96 a7 bc 4d 0e 0c be 97 d2 85 bd 0d ec 29 bd
       -0.020457612 -0.1367733 -0.065343075 -0.04148488
000110 f5 7b 54 bd 67 cb a5 3d 9a 4a 3f 38 23 60 27 be
       -0.051876027 0.080954365 4.5607427e-05 -0.16345267
000120 42 28 75 be 1d f0 1f bd d3 19 4e be 4b be 2a 3c
       -0.23941138 -0.03904735 -0.20127039 0.010421346
000130 35 ff 22 3e 77 6c 0b be 6e 9d a5 bd 7f 0e c0 3d
       0.15917666 -0.13615595 -0.08086668 0.09377765
000140 c4 2d 23 be 4d a2 8d 3d be 9b 6a bd 91 0f 4e 3d
       -0.15935427 0.06915722 -0.057277434 0.050307814
000150 e8 de 68 be 94 c1 c8 3d ea 26 2e bd b1 76 c6 3d
       -0.22741282 0.09802547 -0.04251758 0.09690607
000160 9b 6a 1a 3d fb 09 a9 3d 4b b0 30 3e 72 32 ac bd
       0.037699323 0.08253857 0.1725475 -0.08408059
000170 6e c6 c9 bd 0d 12 d9 bc bc dd 3a 3e 77 53 73 bd
       -0.098523006 -0.026497865 0.18248647 -0.05940577
000180 cf bd 69 be 80 8b d0 bd 18 e4 c7 3b ca 97 c7 bd
       -0.22826312 -0.101828575 0.006100189 -0.09745748
000190 6f 87 79 bc 3d 53 32 bd de 34 aa 3d 76 eb 08 be
       -0.015230044 -0.043536413 0.08310865 -0.13371071
0001a0 dc aa 5d bd e9 ed 25 3d 0a 27 07 3d ea 8b 54 3d
       -0.054118022 0.040510092 0.032996215 0.051891245
0001b0 b3 df 75 bd 50 b7 a5 bd 00 03 b8 3d ce c7 e4 3d
       -0.06002779 -0.08091605 0.08984947 0.11170922
0001c0 2e 5d d9 bd 56 38 bd bd 66 b2 94 bd 66 ed 4e 3d
       -0.10613476 -0.09239261 -0.07260589 0.05051937
0001d0 97 fa 0b 3d bc 5b 15 bd 29 ac 8e bc 60 bf d7 bd
       0.034174528 -0.036464438 -0.017416077 -0.10534549
0001e0 72 39 1e 3d 5c c1 b3 bb 17 71 3f bd d1 06 f1 bd
       0.038629003 -0.0054856967 -0.04673871 -0.11768878
0001f0 20 19 cf bc c2 8e 84 bd 8d 06 09 3c b4 d5 b8 3d
       -0.025280535 -0.064725414 0.008363378 0.09025136
000200 63 77 ef bd e3 51 fd 3c 58 ac ff bd 7d f9 03 3d
       -0.11692693 0.030922836 -0.12484044 0.032220352
000210 ed 06 0c 3e 54 47 33 3e 0b f2 a6 bd 45 07 2d 3b
       0.13674517 0.17507678 -0.08151635 0.0026402038
000220 43 13 71 bd aa f7 5d bb 5f f0 0e be d5 eb e6 bc
       -0.05885626 -0.0033869543 -0.13958882 -0.028188625
000230 a9 39 5a 3d c3 5b 1c 3c ea 32 50 ba 77 b8 93 bd
       0.053277645 0.009543362 -0.0007942157 -0.07212918
000240 31 07 af bc 26 fa 07 be 8d 91 8b 3d 9e cc 41 3d
       -0.021365734 -0.13279018 0.06814871 0.04731428
000250 b6 49 1c 3c 1c 3c 46 3a a3 d7 01 bd 60 2e e6 3d
       0.009539058 0.00075620576 -0.031699788 0.11239314
000260 8f c5 be bd e2 53 be 3d b7 a4 f3 3d db 0d f4 bd
       -0.09315025 0.09293343 0.11896651 -0.11916705
000270 3d 84 88 be 58 ab e4 bd da 42 82 be ea 1a 3c be
       -0.2666339 -0.11165494 -0.2544163 -0.18369642
000280 a6 d0 56 3e e4 90 a0 bd 39 ce 12 bb b0 24 76 bd
       0.2097803 -0.07840136 -0.002240075 -0.06009358
000290 2d 1f 15 3d 73 cd 74 bd c0 8e 50 3d 60 66 fa 3d
       0.036406685 -0.059766244 0.050917387 0.12226558
0002a0 c1 58 a8 3d a0 7c dd bd a0 db 9e 3c 69 c1 3f bd
       0.082200535 -0.10814786 0.019391835 -0.04681531
0002b0 db 51 57 bd 14 57 8e 3d 22 38 aa 3d 67 83 fe bd
       -0.052568298 0.069502026 0.08311488 -0.12427407
0002c0 69 89 e5 3c 7c 6c 21 be f4 a3 ba 3d 19 83 02 3e
       0.028019624 -0.1576404 0.09113303 0.12745322
0002d0 6a 00 46 3d b8 15 8b 3e 77 2c b6 bc c4 87 32 bd
       0.04834024 0.27165008 -0.022238 -0.043586507
0002e0 35 70 bc bd b5 49 90 3d 0d 12 d0 bc b3 bb a9 bb
       -0.09201089 0.070453085 -0.025399232 -0.005179846
0002f0 d9 e6 2a bc 59 99 33 bc 2d 5d 6e 3e 98 d6 f1 3d
       -0.010431015 -0.010961854 0.23277731 0.11808509
000300 bb 13 96 3d 26 60 88 39 ec d4 a6 3b f1 13 85 bd
       0.07327982 0.00026011578 0.0050913002 -0.06497944
000310 c9 1a a3 3d fb bc d0 3d 47 03 c0 bd 1e 1e 92 3d
       0.07964093 0.10192295 -0.09375625 0.07134651
000320 c4 f9 8e bc 58 7f 0d 3d 55 39 79 3d 7f d4 b9 bd
       -0.017453082 0.034545273 0.06084569 -0.090737335
000330 ec 91 e2 bd 70 25 79 bd 9f 60 db 3d 7f ed ab bd
       -0.11062989 -0.06082672 0.107117884 -0.08394908
000340 d7 65 a0 3c f5 78 0f 3e 5b fc 8c 3d 20 76 58 3d
       0.019579811 0.14010985 0.068840705 0.052847028
000350 7a a0 cd 3d 24 bf 21 3e 78 78 61 3c 09 76 3b 3d
       0.10040374 0.1579557 0.013761632 0.045766864
000360 6f f2 01 be f8 93 35 3c 85 36 21 3e b8 24 b5 bd
       -0.12690137 0.011082642 0.15743454 -0.08844894
000370 2f 11 44 3d d0 42 85 bd ea 7f d1 bd c9 c9 32 3e
       0.04786795 -0.06506884 -0.10229476 0.17459787
000380 a9 ba e6 3d de 50 98 bd bd dd e2 3c 14 49 84 3e
       0.11266071 -0.07437299 0.027693624 0.25837004
000390 39 f3 1b be 32 a1 ae 3d 15 ec 31 be 0e 8a 38 be
       -0.15229501 0.08526839 -0.17375214 -0.18021414
0003a0 55 ac 04 bd aa 8d 67 3c e9 63 80 3d 9d 67 15 bd
       -0.03239091 0.014132896 0.06269056 -0.036475766
0003b0 12 72 5b 3e 05 01 f9 3d 0a 02 ee 3d 32 5c 66 bd
       0.21430233 0.121583976 0.11621483 -0.056240268
0003c0 cd 33 32 3e 40 d0 c7 bc 3d 90 82 bd bf 63 cc bd
       0.17402573 -0.024391294 -0.063751675 -0.099799626
0003d0 04 b7 53 be a2 9b ac 3d aa b7 83 be 6d b3 a5 bd
       -0.20675284 0.08428122 -0.25726062 -0.080908634
0003e0 8e f0 a4 3c ac 0d 53 3d 00 d1 18 3c a5 83 c9 ba
       0.020134237 0.05152671 0.009327173 -0.0015374316
0003f0 88 73 0c 3e 19 1f cd ba c0 48 5d 3e 07 c5 5c bc
       0.13715947 -0.0015649527 0.21609783 -0.013474709

network_body._body_endoder.seq_layers.4.bias f4 [128]
000000 45 cc cc bc 12 6b ab 3c 4e 11 a1 bc e2 ed 6a 3c
       -0.024999747 0.020925079 -0.019661572 0.014338942
000010 d9 37 03 bc 68 5d c6 bc c0 4c 91 bd 62 d2 6f bd
       -0.008008921 -0.024214461 -0.07094717 -0.058550246
000020 6e 51 6a bc 7c 53 1b 3d cb 05 a8 3c 3a 58 3d 3c
       -0.014301641 0.037921414 0.020510575 0.011556679
000030 b3 d9 15 3c 3f d8 c6 3c aa b6 03 bd 16 34 50 bd
       0.009146142 0.024273036 -0.032156624 -0.050830923
000040 a8 d3 b8 bc 0c 87 51 3c b1 f9 5d bd b0 70 3d bd
       -0.022561863 0.012788545 -0.054193202 -0.046250045
000050 87 2d 95 bc 35 5a ad bc 06 75 c0 bc 20 4a 9c bc
       -0.018210186 -0.021161178 -0.023493301 -0.019078314
000060 fe c3 9c bd e0 40 08 3c b2 51 d2 3c 6e 76 ca 3b
       -0.0765457 0.008316249 0.025673721 0.0061786687
000070 f0 8c fc bb a5 68 d3 bc 71 c5 ed 3b cd 0b c1 3c
       -0.0077072307 -0.025806734 0.007256203 0.023565197
000080 26 63 4d bb e3 e8 4b bb 65 a3 86 bb 9c 82 51 bc
       -0.0031339615 -0.0031114153 -0.0041088336 -0.012787487
000090 25 5b cd 3b 34 44 c8 3c 3d 92 2a bc 16 ff 54 bd
       0.006266969 0.024446584 -0.0104108425 -0.05200108
0000a0 c8 ae 13 bd 65 12 2a bd dc cf a5 bc 85 a4 59 bd
       -0.036055356 -0.04152145 -0.020240717 -0.053135414
0000b0 89 9d 1a 3b 7a 53 82 bc 30 92 73 bd 66 24 31 bc
       0.0023592433 -0.015908945 -0.059465587 -0.010811901
0000c0 7f 90 c0 3c 9e 12 79 bc e9 8e 27 3b cc ae 86 3c
       0.023506401 -0.015202193 0.0025567359 0.016440772
0000d0 3b 26 db bb 50 f1 a3 bc f0 07 ef bb 69 ad f7 ba
       -0.006687907 -0.020012528 -0.0072946474 -0.0018896285
0000e0 30 6b d1 3c 94 9d 3e 3d 14 02 17 bd 97 d1 88 bd
       0.025563806 0.046536997 -0.036867216 -0.06680601
0000f0 94 3b 9e bb a6 05 8f 3c e6 b0 63 bd bc cd 15 bd
       -0.0048288796 0.017458748 -0.055588625 -0.036573157
000100 ef 70 79 bc 5c fe ff 3b 49 7f 8f bc dd 3f 3e bd
       -0.015224679 0.0078123044 -0.017516749 -0.046447624
000110 40 9c 38 bd 77 43 c4 bc 26 1f 08 3c 34 6b df 3c
       -0.045070887 -0.023957951 0.008308208 0.027272798
000120 00 8b 9b bc 37 15 aa 3c 11 ba 94 3c 5a 18 20 3d
       -0.018987179 0.02076207 0.01815513 0.039085723
000130 1b 4e 62 3b 7a 76 c7 3c fa b5 34 bd 3c 85 59 bd
       0.0034531418 0.024348486 -0.04411886 -0.053105578
000140 77 f4 e1 bb ea 21 0c bc 94 e2 7a 3c d0 71 9b 3a
       -0.0068955976 -0.008553008 0.0153128095 0.001185948
000150 08 52 64 bd 88 b2 14 bd 72 96 03 bd 8e 2c cd 3c
       -0.055742294 -0.036303073 -0.032125898 0.02504566
000160 1d 09 ec bc e6 26 eb bc c3 4e 2d bc ea b3 48 bd
       -0.02881294 -0.028705072 -0.01057786 -0.048999704
000170 d1 d1 2c bc 1d 77 35 bd fd ee 18 bc 93 d4 11 bd
       -0.010548071 -0.04430305 -0.009334323 -0.035603117
000180 64 93 b3 bc 82 ac 49 bd ae 16 2e bd f5 52 41 bd
       -0.021920867 -0.049236782 -0.042502098 -0.047198255
000190 6e 97 01 bd 45 64 c4 3b 10 ac 0b bd 91 21 d0 3c
       -0.031638555 0.0059933984 -0.03409964 0.02540663
0001a0 ee c6 eb bc f4 1b a0 bc b5 bf 18 bc 61 41 12 bc
       -0.02878138 -0.01954458 -0.00932305 -0.00892672
0001b0 47 d2 8b 3c 41 7c 38 bc ef d7 a0 bc d1 23 8c 3b
       0.017068041 -0.011260093 -0.019634215 0.0042767306
0001c0 a8 77 7b 3c 14 1a 04 bd ff 1c 0f bb 12 f2 34 3c
       0.0153483525 -0.032251433 -0.0021837351 0.011044042
0001d0 ac 89 3f bd d7 76 0c bd f4 23 8c bc ef a6 75 3c
       -0.046762154 -0.034293022 -0.017106988 0.014993413
0001e0 98 e4 0b bd 20 4d 71 3c f7 7f e0 bc 63 e7 b8 bc
       -0.03415355 0.014727861 -0.027404768 -0.022571271
0001f0 82 51 d0 bc 60 9a 22 ba 37 ff 7c 3c 5b c8 11 bd
       -0.025429491 -0.0006202813 0.015441707 -0.035591464

network_body._body_endoder.seq_layers.4.weight f4 [128, 128]
000000 d0 45 5c 3d 5d b4 66 bd 76 4f f0 bd b7 ee a1 bc
       0.053777516 -0.05632435 -0.11733906 -0.019767148
000010 4f 8e 3d 3d 5c 04 81 bd ee 80 a5 bd b8 1c c5 3d
       0.046278294 -0.062996596 -0.08081232 0.09624618
000020 7a a0 e3 bc fa 96 b4 bd 6d 5d fc 3c 67 64 c8 3c
       -0.027786482 -0.08817859 0.030806268 0.024461938
000030 71 fb 6b 3d 5d ec b4 bc c2 9e a8 3d 83 5b 9e 3d
       0.05761284 -0.022085363 0.08233406 0.07732298
000040 95 b8 c5 bd b6 dc f8 bd 2a 5b 08 3c e8 04 dd bd
       -0.09654347 -0.12151472 0.008322516 -0.107919514
000050 eb 35 33 3e 47 cd d9 bd 31 cf c0 3d 3c fc 69 bc
       0.17501037 -0.10634857 0.094145186 -0.014281329
000060 97 3a 9c 3c 0f b9 9d bd 3f 42 ae bd a2 10 08 bc
       0.019070907 -0.07701313 -0.08508729 -0.008304747
000070 41 7b 7f 3d 65 49 dc 3d 67 43 c5 3d f3 be c4 bd
       0.062373403 0.107561864 0.096319966 -0.09606733
000080 59 46 f7 3b 2f fc 24 bd ee 0c 24 be a4 43 b0 3d
       0.007546228 -0.040279564 -0.16020557 0.086066514
000090 9e eb 58 bd 25 b3 37 be ef e0 e6 3c 9f 19 69 bd
       -0.052959077 -0.17939432 0.028183429 -0.0569092
0000a0 e8 90 2c 3c 1f c0 c3 bd d6 c0 b2 bd f3 a3 80 bd
       0.010532595 -0.095581286 -0.08728187 -0.06281271
0000b0 46 58 98 3d 43 b2 57 bd 1d f5 71 bd ae f6 00 3e
       0.07438712 -0.052660238 -0.05907165 0.12594101
0000c0 41 e3 c8 bd 0f 62 ac bc 24 f4 a3 be bd 9b c4 3c
       -0.0980897 -0.021042852 -0.32022202 0.024000043
0000d0 e8 b1 27 be 8e 47 20 3d 08 42 11 be 24 75 45 3d
       -0.1637646 0.03913074 -0.14185345 0.048207417
0000e0 29 8b 54 3d ef 7c 93 3d 13 e2 a7 bd ce 90 15 3d
       0.051890526 0.072015636 -0.08197417 0.03651505
0000f0 11 95 ad 3d be 23 0c bd 90 5b a7 be 4f da e9 3d
       0.08475698 -0.034213774 -0.32687044 0.11418592
000100 e0 63 5d 3c 89 e2 f7 bc 6f d9 02 3e 20 48 55 3c
       0.013512582 -0.030259388 0.12778257 0.013017684
000110 67 59 10 be 19 19 62 3e 40 e8 4c bd b0 94 68 be
       -0.14096604 0.22079886 -0.05002618 -0.2271297
000120 8f d4 c6 bb ae 3f ab 3d b9 68 61 3d 9a 04 2e be
       -0.0060678194 0.08361755 0.055031512 -0.16993943
000130 fb 54 1f bd a2 fe 14 3d a7 25 78 3c 0e 34 27 bc
       -0.038899403 0.03637565 0.015145696 -0.010205282
000140 c0 6d b5 3c f3 95 e3 bd 87 03 90 3c 39 d1 0e be
       0.02214706 -0.11112585 0.017579807 -0.13947
000150 b3 17 8b bc 30 63 74 3d 91 07 c6 3c 5d 2b 0d 3e
       -0.016979074 0.059664905 0.02417353 0.13786073
000160 ef be b9 bc d5 6e b3 3d 9d cf e8 bd dd 72 c6 bd
       -0.022674052 0.08761374 -0.11367724 -0.09689877
000170 93 2d 68 3d cf 45 d6 3d 8a ec 14 3e c5 d5 92 3d
       0.056684088 0.10462534 0.14543357 0.071696796
000180 25 55 61 3e a9 fc 2b bd a7 fd d3 3d 6d e1 14 3e
       0.22005136 -0.041989002 0.10351115 0.14539118
000190 94 40 2b be d8 a2 5e bd 53 2b b2 bc e9 27 88 bc
       -0.16723853 -0.05435452 -0.021749174 -0.016620593
0001a0 8a 21 6f be f7 f2 89 bd 0d 83 0e be d4 f0 63 bc
       -0.23352638 -0.06735795 -0.1391718 -0.013912398
0001b0 c3 1b eb bc 9f 72 b6 bd fc 0d de 3b 0c 82 2a bd
       -0.028699761 -0.08908581 0.0067765694 -0.04162793
0001c0 ac f2 a7 3d 27 cb 17 bc 9b 39 1a bb 5e fd 00 bd
       0.08200583 -0.009264744 -0.002353287 -0.03149163
0001d0 85 8d 39 3b ab ff 9b 3d 74 f4 c6 3b 18 34 82 bd
       0.0028313112 0.07617124 0.0060716216 -0.06357592
0001e0 a2 6f 0d bd 49 85 11 be ba 4a 10 3e 92 aa 14 3e
       -0.03453029 -0.14211 0.14091006 0.14518192
0001f0 87 7a a1 ba b6 52 7a bd 9e 86 b3 bd 8b 50 a0 3d
       -0.0012319841 -0.061114036 -0.087659106 0.07827862
000200 fd bd 08 be 29 6d 53 bd 34 04 91 bc c4 c4 17 be
       -0.13353725 -0.051617775 -0.0177022 -0.14821154
000210 ec cc b6 3b d9 db 92 3d a7 b9 15 be 0f 98 5c bd
       0.005578628 0.07170839 -0.14621602 -0.053855952
000220 61 2f 94 be 4a 9a 90 3d e4 66 96 3e 4b 21 7f bd
       -0.28942397 0.07060678 0.29375374 -0.06228761
000230 81 aa bd 3c de 85 b2 bd de d1 29 3d aa 5e 3b bc
       0.023152592 -0.087169394 0.04145991 -0.011436144
000240 69 8a 2c bc 6f 49 38 3d e3 e0 26 bb 59 e8 83 bd
       -0.010531046 0.044991907 -0.0025463633 -0.06440801
000250 e3 35 ce bd 1f 25 ca bc 79 64 83 3d 22 38 ff 3c
       -0.10068872 -0.024675904 0.06415648 0.031154696
000260 43 d6 62 be 04 3f b1 bd 90 cb 2a be 17 56 69 bd
       -0.22152047 -0.086545974 -0.16679215 -0.056966867
000270 ff 21 db 3d 1d 97 5a bd fe 00 ed bd a9 4c 61 be
       0.106998436 -0.05336677 -0.11572455 -0.220019
000280 b1 b4 69 be 41 0f 9a 3d 07 f9 13 bc bb 86 1a bd
       -0.22822835 0.07522441 -0.009031541 -0.037726145
000290 b2 4d 19 3e c4 5a 8d bd 8d 96 a7 3c 71 9d 31 be
       0.14971045 -0.06902078 0.02045753 -0.17345215
0002a0 59 a0 a8 3c 75 06 17 3e 7c e7 18 bd 2f 40 97 3d
       0.020584272 0.14748557 -0.037330136 0.07385289
0002b0 95 15 33 3d 60 7f 40 3e 64 20 04 3d ce db 88 3d
       0.043721754 0.1879859 0.032257453 0.066825494
0002c0 0d c6 6e 3d 76 6d 69 3d 35 12 01 be 6c cd 89 3e
       0.058294345 0.056989156 -0.12604602 0.26914537
0002d0 f4 c8 98 b9 4b 96 24 3e 7b 80 54 bd 7f f8 e7 3a
       -0.0002914142 0.16072957 -0.05188034 0.0017697959
0002e0 0f 11 4f bc ce 23 42 bd d7 8d ca bd 91 1e 11 3d
       -0.012638344 -0.047397427 -0.09890335 0.03542954
0002f0 de 8d d3 bc c9 80 e3 bd 93 7b 9c 3d 6a 28 65 bd
       -0.025824483 -0.11108548 0.076407574 -0.055946745
000300 fa c6 22 be 3e b5 93 bc 1e b9 c7 bc dd 53 a9 3d
       -0.15896216 -0.018030759 -0.024380263 0.08267949
000310 f5 13 8c 3e 0a 58 99 3d f3 58 d3 bd 10 c9 0e 3d
       0.27358976 0.07487495 -0.103197 0.034859717
000320 12 ff f3 3c 3e a4 e8 3c 03 58 0c 3c e4 b6 4c 3e
       0.029784713 0.02839863 0.0085659055 0.19991642
000330 81 36 dc bd 3b f2 cf bd 77 05 f4 3c 8e 6f 5f bd
       -0.10752583 -0.10153624 0.029787762 -0.054549746
000340 80 d6 7a 3d bd c3 0a 3c dc 1e f5 bd b2 78 a6 bd
       0.06123972 0.008469519 -0.119687766 -0.081284896
000350 e3 ad 10 be 70 1f 67 3e e2 5a b9 bc 01 e6 0d 3d
       -0.14128833 0.22570586 -0.022626344 0.034643177
000360 22 03 b6 bd 72 45 08 be dd 13 3a be 4c 82 b4 bd
       -0.08887316 -0.13307741 -0.1817164 -0.08813915
000370 00 fd 46 bd 74 c7 b8 3d 1c ca 53 3d d8 b8 79 37
       -0.048581123 0.09022418 0.05170642 1.4884594e-05
000380 bc 9c b5 bc e9 91 be bd 2a 27 8e bd 43 ce 30 3e
       -0.022169463 -0.09305174 -0.06941064 0.17266183
000390 90 ac 7d bc 07 5b 8c 3d fc f8 39 bd b0 41 49 3d
       -0.015483037 0.068532996 -0.045403466 0.04913491
0003a0 a1 f0 3e 3d 48 7f 09 3d 7c 21 f6 3c 12 73 dd bd
       0.0466162 0.03356865 0.030045263 -0.108129635
0003b0 99 4c bf 3d 66 74 0b be de 30 23 be a1 f3 f2 bc
       0.09340782 -0.13618621 -0.1593661 -0.029657187
0003c0 dd 2d 8a 3e 4d 4b a6 bd e5 b3 f1 3c a9 50 7c bc
       0.26988116 -0.08119831 0.029504726 -0.01540009
0003d0 3a 09 b4 bd 9f 64 f2 bc 9b a8 e9 3d 61 27 f7 3c
       -0.08790822 -0.029588996 0.11409112 0.030170145
0003e0 60 e0 14 be 2d b9 f5 bd 46 a3 04 3e 40 1a 11 be
       -0.14538717 -0.1199821 0.12952909 -0.1417017
0003f0 0c 91 e8 bd 37 e6 c4 bb 88 7f be 3d b6 d0 5c bd
       -0.113557905 -0.006008889 0.093016684 -0.05390998

network_body._body_endoder.seq_layers.6.bias f4 [128]
000000 62 5a a8 bd 34 00 e7 bc 7c 58 cc bc c9 24 9f bb
       -0.08220364 -0.028198339 -0.024944536 -0.00485668
000010 c3 46 2a bd 5c da 42 bd 15 13 38 bc 01 02 d9 bc
       -0.04157139 -0.047571525 -0.011235018 -0.026490213
000020 f3 1b b8 bb 08 11 d0 3b ee 9a f0 3b ad 45 7b 3b
       -0.005618566 0.0063496865 0.007342688 0.003834109
000030 75 26 a5 bb 4c 52 c7 bc a7 44 7a 3c 03 76 97 3b
       -0.005039985 -0.024331234 0.015275157 0.0046222224
000040 f1 23 24 3c 9e 7a 48 bd da 7d f6 bb 21 05 12 3b
       0.010018335 -0.04894506 -0.007522327 0.002228089
000050 b9 b6 23 bd b4 c3 5b bd 12 c6 0f bc 03 2c 43 bc
       -0.03996918 -0.053653434 -0.008775251 -0.011912349
000060 30 64 09 bd 4b bb 5f bd 47 71 7b bc b9 8d 0a bd
       -0.033542812 -0.054621976 -0.015346832 -0.033826564
000070 80 06 c3 ba f6 6d 5b 3c ce d9 5d bd 7f ed 2a bd
       -0.0014879256 0.013392916 -0.054162793 -0.0417304
000080 87 95 11 bb 3c a7 cb bc 4a 7a 91 bd de d4 09 3d
       -0.002221437 -0.024860017 -0.07103403 0.03365027
000090 78 a7 a2 bc 28 af 10 bd 83 25 48 bd eb fc 13 bc
       -0.019855246 -0.035323292 -0.0488639 -0.009032468
0000a0 d7 7d 45 3c bb c3 c4 bc 28 d3 7f bd a0 8b 0d 3d
       0.012053928 -0.024019113 -0.062457234 0.034556985
0000b0 e7 6c 6e bc bd 0b e4 bc 7e 2f f4 bb 87 16 6f bd
       -0.0145523315 -0.027837628 -0.0074519506 -0.058371093
0000c0 b9 c2 9f bc 1a 27 09 3c 58 19 7e bc 70 95 2d bc
       -0.01950203 0.008371139 -0.015508972 -0.010594711
0000d0 01 bb 2b 3c b0 2b b8 bc 9a 99 ea bc 0a de 57 bd
       0.010481597 -0.02248177 -0.028637696 -0.052701987
0000e0 de 00 a4 3c da 35 f1 bc 8c 83 53 bd b7 65 45 bc
       0.020019945 -0.029444624 -0.051639125 -0.0120481765
0000f0 03 17 bf bc 0b 51 ec 3b b3 cf 80 bc 65 b2 c9 bc
       -0.023326403 0.0072118095 -0.015724039 -0.024621198
000100 35 b6 74 3c 52 8f 7f 3b be a4 3f 3b a6 bb e7 bc
       0.01493602 0.0038995338 0.002924248 -0.02828772
000110 3f eb e0 3b fa 91 bd bc 3d 53 4e 3c 55 19 37 3c
       0.006863981 -0.023140896 0.012593088 0.011175473
000120 25 61 13 bc ae 2e 7d bb 39 0a a5 3c d6 68 e3 bc
       -0.008995329 -0.003863256 0.020146476 -0.02775995
000130 51 23 80 bd 58 e3 93 bb 1c 77 32 bb b6 a4 9a bc
       -0.06256736 -0.0045131855 -0.002723164 -0.018877368
000140 67 b3 9a bc 13 c4 31 bd 10 9d 27 3d c5 13 8c 3c
       -0.018884374 -0.04339988 0.04092127 0.01709927
000150 66 cc 40 bc bd 97 e2 bc fd 59 40 3d cc 7c 8a bd
       -0.011767482 -0.027660245 0.04696082 -0.06762084
000160 70 73 06 bc 9d 8d 05 bd f5 35 6d bc 39 cb ff bb
       -0.008206233 -0.032605756 -0.014478196 -0.0078062085
000170 b6 60 43 3c ef e7 0b bd b8 b0 fa 3b d2 80 0c 3c
       0.011924913 -0.034156736 0.007650461 0.008575635
000180 e8 bb d0 bc eb f0 20 3c 5c 63 49 bd 27 ef b2 bc
       -0.025480226 0.009823064 -0.049167022 -0.021842552
000190 a2 5e 7e bb 64 f8 0c bd 2e 5c d1 3c 5d 96 48 bc
       -0.003881373 -0.03441657 0.02555665 -0.012242881
0001a0 0e d8 49 bd c6 b4 af 38 28 16 ad bb ca c4 69 bc
       -0.04927831 8.378322e-05 -0.0052821822 -0.01426811
0001b0 d1 63 c6 bd a7 22 04 bd 05 4a f3 bb a8 4a 03 bd
       -0.09687007 -0.03225961 -0.0074245953 -0.03205362
0001c0 5e 9f 94 bb f7 6a 8e 3c 20 45 19 bc 20 4c 22 bd
       -0.0045355996 0.01738499 -0.00935486 -0.03962338
0001d0 0e 37 c5 bc 55 c2 87 3c 1f 0b 95 bc 6b de 5e bc
       -0.024074104 0.016572157 -0.01819378 -0.013602833
0001e0 65 d0 7f 3b 64 36 d4 3c b5 2d 12 3c 6c f4 d6 bc
       0.0039034125 0.025904842 0.00892203 -0.026239596
0001f0 86 cf 1c bc 51 d2 13 3c 36 9d 47 bc 4f 82 2d bc
       -0.009570962 0.009022311 -0.012183478 -0.01059015

network_body._body_endoder.seq_layers.6.weight f4 [128, 128]
000000 39 20 52 3e 7d c0 19 3e 9f fe 8c bc fe 77 cf bd
       0.20520104 0.15014835 -0.017211257 -0.101303086
000010 f4 00 a8 3d ba 08 8b bd 42 92 14 3d e5 99 85 bd
       0.08203307 -0.06788774 0.036272295 -0.06523494
000020 69 ce fd 3c 5f e3 11 bd 97 b4 2b 3d fa 7c 9a 3d
       0.030982213 -0.03561723 0.04192027 0.07543369
000030 c9 ed cc bd 7c 43 cd bd d5 30 ff bb c3 fc ca 3d
       -0.100062914 -0.10022637 -0.0077878037 0.09911492
000040 3d e9 d6 3d 20 77 53 bc 84 f8 b8 3d ea d1 18 bc
       0.104937054 -0.01290682 0.090317756 -0.009327391
000050 c2 19 d0 3c dd fa 2a bd 01 ce 34 3d d9 14 23 3d
       0.025402907 -0.041743148 0.044141773 0.039814804
000060 04 07 59 3d b7 da 6d 3d 1a 15 f7 bc 98 c6 40 bc
       0.052985206 0.05806991 -0.03016143 -0.011766098
000070 80 bc 93 bd ee b4 45 3e 94 62 07 3d df 1d f4 3c
       -0.07213688 0.193073 0.033052996 0.0297994
000080 a5 da 37 bd ec a7 a4 bd 67 d3 b5 bc 42 5c 56 3d
       -0.04488625 -0.08039841 -0.022195531 0.052334078
000090 9d e4 07 bc 48 5f aa 3d a5 d3 fa bd ac f7 87 bd
       -0.008294252 0.08318955 -0.12247399 -0.066390365
0000a0 c3 ca 56 3b 65 e1 01 be 11 fe af bd 8c 8e 9a 3d
       0.0032774664 -0.12683637 -0.08593381 0.0754672
0000b0 54 1c 8a bd 46 e6 20 be 2c d2 99 3d 11 2e 3d bd
       -0.067436844 -0.15712842 0.0751079 -0.04618651
0000c0 4e ff 64 3d 1b d1 e3 bb 7a 33 0a 3e db e7 f8 bd
       0.05590754 -0.0069524175 0.13496199 -0.12153598
0000d0 98 d9 d2 3d 5c d3 c6 3d d6 8b 81 3b fa 0f a8 3c
       0.10295409 0.09708282 0.0039534373 0.02051543
0000e0 93 ae d1 3d 85 a8 34 be 60 24 45 bd 98 b8 0d 3e
       0.102383755 -0.1764241 -0.048130393 0.13839948
0000f0 4a 54 3c bd d3 a6 26 3e 8f 9d 50 3e c3 1b 08 bd
       -0.04597882 0.16274576 0.20372604 -0.0332296
000100 49 d9 7b bd 42 83 46 bd fd 90 6b be 42 2d 59 3e
       -0.061486516 -0.04846502 -0.23004527 0.2120867
000110 6d ff 83 3d a9 74 91 3c 3b 4b 7f be a8 e0 a2 3d
       0.06445203 0.017755823 -0.24931042 0.07953006
000120 64 0f e8 bd b5 5f 5f bd 78 60 a6 bd 27 7e 5b be
       -0.113310605 -0.054534633 -0.08123869 -0.21434842
000130 89 9b 0f 3e 37 3c 0a 3e 74 94 eb 3d 4e 29 63 3d
       0.14024176 0.13499533 0.115029246 0.055459313
000140 1a 52 01 be d2 53 7b bc 87 21 d5 bd 4b 2e 33 3d
       -0.12628976 -0.015339809 -0.104067855 0.04374532
000150 30 97 71 3d 1a 5e 24 be 48 f6 23 3e c8 20 08 3a
       0.058982074 -0.16051522 0.16011918 0.0005192873
000160 69 d8 0b bd d4 72 d8 bc c4 92 14 bd a8 6a 0d 3e
       -0.03414193 -0.026421942 -0.03627278 0.13810217
000170 98 39 66 3b c1 89 23 3d f0 ba c7 bd fa 74 11 3e
       0.0035129543 0.039926294 -0.097524524 0.1420478
000180 8c f3 d1 3c 36 ce 4d be 21 04 df 3d 23 e2 67 3e
       0.025628828 -0.20098194 0.108894594 0.22644858
000190 76 41 ae 3c cd eb 7a be 2c b4 14 3e 0d ae d1 bc
       0.021271449 -0.24504013 0.14521855 -0.02559569
0001a0 ae f7 48 3d 65 24 19 3d c0 99 ee bd 49 9b 15 bd
       0.04906433 0.037388224 -0.11650419 -0.036525045
0001b0 b8 49 1b 3d eb bb af 3d ba 8e b6 3b 33 7a 6f bd
       0.0379121 0.085807644 0.0055712136 -0.058466148
0001c0 85 e8 37 be ab 0b ab bd 50 52 1e 3d f6 ae 45 3d
       -0.17959793 -0.08351835 0.038652718 0.04826256
0001d0 5e a2 a3 bd 7c a9 fe 3d df b3 c9 bd 1e 47 35 3e
       -0.079899535 0.1243467 -0.09848761 0.1770291
0001e0 4e 84 fa bd 7c ff 67 bd 8b bf 63 bd 7f 31 39 be
       -0.12232266 -0.056640133 -0.05560259 -0.18085288
0001f0 87 38 fe bd 34 49 b6 3d 82 ac 2d be f9 4a 70 bc
       -0.124131255 0.08900681 -0.16960338 -0.014666312
000200 f0 2d 81 3d fd e5 51 bd eb a2 7c 3d d8 a1 89 bc
       0.0630759 -0.051244725 0.06167881 -0.016800806
000210 20 af 21 3d 1c 2a fc ba b0 15 35 3d af 74 4d 3d
       0.039473653 -0.0019238624 0.044210136 0.050160106
000220 89 55 15 be f2 c7 d0 bd 27 43 a7 3d 38 28 bb bc
       -0.1458341 -0.101943865 0.08167105 -0.022846326
000230 76 7c 19 3d 44 4b b5 bd 1c 73 05 be 8c ba 3e 3d
       0.03747221 -0.088522464 -0.13032192 0.046564624
000240 2d ad dd 3d e0 8e 8d bd 04 29 95 3d 41 f7 86 bd
       0.10824046 -0.06912017 0.07283214 -0.06590129
000250 70 56 d6 bc df 9c 00 3c 94 12 7a 3d ad 2b d7 bd
       -0.026164263 0.007849901 0.061052874 -0.10506377
000260 80 7e 41 3e c5 c9 b8 bd b4 e7 21 3d b1 01 09 be
       0.18895912 -0.090228595 0.03952761 -0.13379551
000270 1a e7 c1 bd f9 82 03 be 59 78 b1 3d e2 60 65 bd
       -0.09467907 -0.12842931 0.086655326 -0.056000598
000280 9c 7e 32 3e e5 c2 3b 3d e9 4a 2c be b5 6a 8f bc
       0.1743111 0.045840163 -0.16825451 -0.017506937
000290 5d ec 35 bd 34 c2 1b bd f6 d4 8a bd 82 f9 b2 bd
       -0.044414867 -0.038027003 -0.067789 -0.08738996
0002a0 e4 96 d5 3d d1 88 a3 bd de c5 b0 bd 0e 5c c6 3c
       0.10429171 -0.0798508 -0.0863149 0.024213817
0002b0 e6 9c 7f bd 88 d9 b5 bd 48 e7 01 3e 08 3a 19 bc
       -0.06240549 -0.088793814 0.12685883 -0.009352215
0002c0 9f 8b 3a be c6 a1 89 be 15 2e df 3d 9d d3 cd 3d
       -0.18217324 -0.26881236 0.10897461 0.10050128
0002d0 3d 35 43 3c b6 94 b1 bd 02 54 a9 3d b3 42 54 3d
       0.011914548 -0.086709425 0.08267976 0.05182142
0002e0 d8 9d f7 bc 50 17 80 3c 5c 3e 8e 3c e9 da 15 be
       -0.030226633 0.015636116 0.01736372 -0.14634289
0002f0 bc 4e 6d bc 76 f4 28 bd 92 1c 1a 3d e0 63 8c bd
       -0.014484104 -0.04124876 0.037624903 -0.06854987
000300 d6 4f 9c 3d 15 b1 22 3b 8b 87 d3 bc 65 3d 99 3d
       0.07632415 0.0024824787 -0.025821468 0.07482413
000310 13 52 de 3c 86 87 a0 ba b0 fa 93 bc d7 e0 db bd
       0.027138745 -0.001224742 -0.018063873 -0.10736244
000320 97 85 be 3d c2 9d 65 be 8b 3a 2b bd 7d 62 c4 bc
       0.09302824 -0.22423461 -0.041803878 -0.023972744
000330 99 1c 13 be d0 6c 3f bc 8d 11 16 3e 2c ca 84 bc
       -0.14366378 -0.011683658 0.14655133 -0.016209684
000340 49 a2 b8 bd eb f2 12 3d 62 f2 1b 3d ac d0 62 bd
       -0.090153284 0.035876196 0.03807295 -0.055374786
000350 9a 88 e2 3d 07 b9 bb 3d fb f1 25 be 6f 4c 64 3e
       0.11061211 0.091661505 -0.1620559 0.22294782
000360 95 84 00 3c d0 c2 57 bd 96 a9 d7 3c 01 aa 48 3e
       0.00784411 -0.052676022 0.026325982 0.19596101
000370 73 3c ab 3d cb 22 80 bd c3 f6 08 bd cf 96 41 bd
       0.08361139 -0.06256636 -0.033438455 -0.047262963
000380 67 d5 73 bd 49 a4 e8 bd f3 11 3d bd ae 81 85 bd
       -0.05952969 -0.1135946 -0.046159696 -0.06518875
000390 2a c2 bb bd 46 22 43 bc 78 c6 ce 3d 91 fd d4 bd
       -0.09167893 -0.011910027 0.10096449 -0.103999265
0003a0 32 f8 bb bd 79 8a ec bd a7 87 16 3e dd 71 30 bc
       -0.09178199 -0.11549849 0.14700185 -0.010769335
0003b0 29 8d 18 3d 89 65 a0 3d 31 15 80 3d 4d d2 3d be
       0.037243996 0.07831866 0.06254042 -0.18537255
0003c0 c9 47 72 3b bc a8 1d 3d 46 63 18 bd 66 fd 7a be
       0.0036969057 0.038490996 -0.03720405 -0.24510726
0003d0 cc 83 f2 3d 96 a1 d6 3d 56 b0 2d bd d9 4e 7b be
       0.118415445 0.10480039 -0.042404495 -0.24541797
0003e0 f1 6b 66 bd 30 b4 97 bc 8e 58 59 be 84 db 3a 3e
       -0.056255285 -0.018518537 -0.21225187 0.18247801
0003f0 d7 3b 4b bd 69 5e e2 bc 01 ff 76 bd 73 96 18 bc
       -0.049617615 -0.027632909 -0.060301784 -0.009313214

network_body._body_endoder.seq_layers.8.bias f4 [128]
000000 b0 93 1a 3c 2a 3e c2 bc 70 8d 25 bd e4 ef 09 bc
       0.0094346255 -0.023711283 -0.04041809 -0.008419011
000010 48 fa 15 bc 32 00 20 bd a2 90 ce bc 7e e3 f7 bc
       -0.00915391 -0.039062686 -0.02521545 -0.030259844
000020 65 3e 30 bd 57 13 45 bd 04 0c 21 bc f7 97 20 bc
       -0.043028254 -0.048114147 -0.009829525 -0.009801856
000030 5f c9 2c bc 95 76 2c bd 89 8d 5d 3b f4 f8 da bc
       -0.0105460575 -0.042105276 0.0033806285 -0.026730038
000040 28 d2 11 3c fd af 79 bc ca ae c2 bc df 2d 9a bc
       0.008900203 -0.015239713 -0.023764987 -0.018820701
000050 45 04 8b bc 62 0a bd bc 45 2d 4b 3c 15 d8 ce 3b
       -0.01696981 -0.02307624 0.01240093 0.00631238
000060 b3 bd d1 3c 06 47 c1 3b 03 a7 23 3c 8d 79 26 bc
       0.025603151 0.005898359 0.009988549 -0.010160816
000070 b7 2b 85 bc ec ea 09 3d ab c1 73 bd e2 c1 02 bc
       -0.016256196 0.033671305 -0.059510868 -0.007980796
000080 c8 46 4b 3c 8d 83 83 bb 1f c6 fa bc e8 dd bd bc
       0.012407012 -0.004013485 -0.03061205 -0.023177102
000090 18 fc 09 bd d6 6d 6d bd 80 18 42 bd 29 08 21 bc
       -0.03368768 -0.057966076 -0.047386646 -0.009828606
0000a0 6c b0 09 bd d7 ac 1b bd 8a 34 62 3c 51 1d 5a bd
       -0.033615515 -0.03800663 0.013806472 -0.053250615
0000b0 34 c6 94 3c 0c 64 09 bd 17 86 48 39 46 1a a9 bc
       0.018160917 -0.033542678 0.00019123439 -0.020642411
0000c0 13 f8 73 3c 30 2f 70 bd 9c 17 d4 bc 75 b7 b3 3c
       0.0148906885 -0.05863875 -0.025890164 0.021938065
0000d0 29 0c c3 bc 7a e9 3e bc ee df a2 bc f8 3f 85 3b
       -0.02380951 -0.011652345 -0.019882169 0.0040664636
0000e0 7a 92 d9 3b 9d f2 3b bc 06 0e 02 bd d0 53 2e bc
       0.006639776 -0.011471418 -0.031751655 -0.0106401
0000f0 3c fc f2 bb 51 9a fa bb 88 ca 81 bd aa 11 9e bc
       -0.0074153226 -0.0076477905 -0.06337458 -0.019295532
000100 10 58 c0 bc 04 70 11 bb b3 25 ee ba 45 d8 14 3d
       -0.023479491 -0.002219201 -0.0018169194 0.036339063
000110 71 92 38 bd 84 80 60 bb bc ac de 3b 31 34 61 bc
       -0.045061532 -0.0034256289 0.006795494 -0.013745354
000120 b0 a2 01 bc 38 28 e3 bc 85 c4 fb bc f4 c4 00 3b
       -0.007912323 -0.027729139 -0.030733356 0.0019648643
000130 57 a6 13 bc 45 68 37 bc 87 69 f1 bc 83 4f 02 bb
       -0.0090118265 -0.011194293 -0.029469265 -0.0019883818
000140 a1 5f ee bc f4 90 f1 bc 09 39 ba bc 0f d8 80 3c
       -0.029098334 -0.029488064 -0.022732275 0.015728025
000150 b6 84 60 3b 69 0e d5 38 9d ad 12 bd 5c e9 2b bc
       0.003425879 0.000101593156 -0.0358101 -0.010492649
000160 3b ec 85 bc 3c d9 40 b9 15 6c cf 3c 69 05 00 bc
       -0.016347995 -0.00018391473 0.025320092 -0.00781379
000170 4f d9 84 bd bb a7 ac bc 27 79 5b bc ed 73 30 bd
       -0.06486761 -0.021076074 -0.013395584 -0.043079305
000180 db 8e d3 bc 6a c1 35 3c 36 5d 52 bd bf 64 7d 3c
       -0.025824955 0.011093477 -0.051358424 0.015465914
000190 0f c2 bb bb b7 30 83 3c b3 53 03 bd 70 76 d5 3b
       -0.0057299207 0.01601444 -0.032062244 0.006514363
0001a0 e7 0d 1e 3c 3d e6 af 3c f6 70 cb 3b 1d e4 3e bc
       0.009646869 0.02147209 0.0062085344 -0.011651066
0001b0 7f fb e5 bc 77 e4 05 bd 2d 7e 8b bc 97 88 cc bc
       -0.028074024 -0.032688584 -0.017027939 -0.024967475
0001c0 a1 da 3c bd 14 3c 3d bc 64 76 c3 bb d5 7f c6 3a
       -0.04610694 -0.011549968 -0.005965041 0.0015144298
0001d0 97 b6 98 3c e1 97 d4 bc db 25 ee bb e3 c3 29 bd
       0.018641753 -0.025951328 -0.0072676963 -0.041446578
0001e0 18 ef d1 3c e8 93 1b bd ff f2 73 3c 02 13 c6 bc
       0.025626704 -0.03798285 0.014889478 -0.024178986
0001f0 06 17 a3 3b e1 0e a2 bb ca 2f d9 bc 4a 37 de bc
       0.00497711 -0.0049456214 -0.026512045 -0.027125973
