results/ppo/My Behavior/My Behavior-5815944.onnx (onnx, 270443 bytes, 12 tensors)

action_model._discrete_distribution.branches.0.bias f4 [2]
000000 fd 3f 41 bc 22 40 41 3c
       -0.011795041 0.011795076

action_model._discrete_distribution.branches.0.weight f4 [2, 128]
000000 01 f9 8d 3c 57 b6 2c 3d 88 3d 83 bb 0d 18 5b 3c
       0.017330648 0.04216608 -0.004005138 0.013372433
000010 d5 1e 7e ba 9a 3e fd 3c e3 6b df bc 76 5e 31 bb
       -0.00096939254 0.03091364 -0.027273124 -0.002706436
000020 c5 a1 7b bb 5d 62 84 3c 5f 4f 20 bd 29 29 44 bc
       -0.0038395983 0.016160185 -0.039138194 -0.011972704
000030 b9 83 2a b9 87 01 0e bb dc 8b 00 3c 2e 9d c9 bc
       -0.00016261534 -0.002166839 0.007845845 -0.024611082
000040 9e c3 9b bc 9d 65 64 bc 71 6d e1 bc 8a 11 95 3c
       -0.019014176 -0.013940242 -0.027518006 0.01819684
000050 53 4f 1d bc e9 ad bf 3c 88 db a7 3c a9 a7 09 bd
       -0.009601432 0.023398357 0.020490423 -0.03360716
000060 f0 38 24 bb 90 f2 2b bc 59 02 88 bc 24 24 20 bc
       -0.0025058351 -0.010494843 -0.016602682 -0.009774242
000070 9b f4 3e bc a6 b3 1d bd cd be 21 3c 3c ef 73 bc
       -0.011654998 -0.038501404 0.009872151 -0.014888581
000080 11 26 d6 bc d3 c9 4b bc c8 39 a8 3a 40 55 0d 3c
       -0.026141198 -0.012438255 0.0012834603 0.008626282
000090 32 d0 9a 3b 88 a2 8b bc 18 65 f7 bb 48 fd c0 ba
       0.004724526 -0.017045274 -0.007549893 -0.0014723921
0000a0 94 1b 52 bc 49 31 98 3c be a0 9e 3a 56 66 8d bc
       -0.012823958 0.018578188 0.0012102348 -0.017260712
0000b0 e9 0f d4 bb 31 0e e7 3c af 36 a0 bc d8 f9 0e bd
       -0.006471623 0.02820501 -0.019557325 -0.03490624
0000c0 c2 8c d7 3a 98 c5 9d bc eb 07 f6 bc 82 25 a6 bb
       0.0016445147 -0.01925926 -0.030033072 -0.0050703892
0000d0 d5 29 02 bd 7e 7c 82 3a 83 0e 29 bd 54 ad 38 bc
       -0.031778175 0.0009955314 -0.041273605 -0.011271793
0000e0 c2 51 0c bc ce 97 06 bd 22 15 f2 3c 87 b7 2c 3c
       -0.008564414 -0.032859616 0.029551093 0.010541803
0000f0 8b e1 22 bd c6 48 d9 bc f3 60 24 3d bb bd b0 3c
       -0.039765876 -0.026523959 0.04013152 0.021574846
000100 64 26 70 bc 51 54 61 3b 1b 97 3d bb 1d b3 f5 bc
       -0.014657591 0.0034382532 -0.0028929177 -0.029992634
000110 db e6 c0 3c 07 34 35 bd 8c 6f 18 3b 03 72 27 3d
       0.02354758 -0.04423907 0.0023259846 0.040880214
000120 af 50 0c bc 15 e3 d7 bc b3 30 65 bc e9 fb b9 bc
       -0.008564158 -0.026353398 -0.013988662 -0.022703128
000130 47 1f e6 bb a1 e9 41 ba 50 03 76 ba 85 6d f2 3b
       -0.0070227715 -0.0007397179 -0.0009384649 0.0073983097
000140 bb 96 82 bd f8 b7 7a bc dc aa 50 3c 30 5b dd bc
       -0.06376406 -0.015302651 0.012736049 -0.02702102
000150 83 d9 a2 bc 89 74 4f bc b9 5b 0f bd ed b4 48 3c
       -0.019879108 -0.0126620615 -0.034999583 0.012250167
000160 16 5d 0e 3d e9 15 80 bc 74 60 0e bd 1a 9a 92 bb
       0.034756742 -0.015635448 -0.034759954 -0.0044739367
000170 41 26 bb bb 53 9d 05 3c e1 de fd bc 4e 58 1f 3c
       -0.0057113473 0.008155185 -0.030990066 0.009725643
000180 1f 46 41 bc 9a 7a b4 3c 0b 44 48 3c 40 2e f2 bb
       -0.011796503 0.022031117 0.012223254 -0.0073907673
000190 c6 9a fd bc 69 0b af bb 0b 7b bd bc 9c d5 a8 ba
       -0.03095759 -0.0053419364 -0.02312996 -0.0012881043
0001a0 c1 8e 4a bc 97 6e ef bb 91 fb 66 bc 0e 8b f4 3b
       -0.012363137 -0.0073068845 -0.014098064 0.0074628657
0001b0 ed 0f 99 3c e2 84 4a 3c c7 a8 1a bd e4 56 94 bc
       0.018684352 0.012360783 -0.037758615 -0.018107839
0001c0 c4 9f 6e bc 6a f9 dd bc 77 f9 15 bc d9 78 77 3c
       -0.014564458 -0.027096469 -0.009153715 0.015104496
0001d0 26 70 4c bc 98 6a 43 3c 5e 9d 65 bc c9 10 13 3c
       -0.01247791 0.011927269 -0.01401457 0.00897617
0001e0 bb 46 4e bc 2c 83 9d bc 47 b6 8f bc e3 d8 fd ba
       -0.012590106 -0.019227587 -0.017542971 -0.0019367005
0001f0 26 0f 35 ba 46 fe 2c 3c 40 a4 87 bc dc b5 2c 3c
       -0.00069068593 0.01055867 -0.016557813 0.0105414055
000200 5d 50 dc bb 24 a5 0c bd 75 82 c3 bc 0f 4f 3e bc
       -0.0067234472 -0.034337178 -0.023865918 -0.011615529
000210 5d c5 e7 bc 62 87 a8 bc 29 8c 84 3c 47 2b 28 3c
       -0.028292352 -0.020572368 0.016180115 0.010264224
000220 b9 3c c3 bc 02 a5 2a bc 12 32 04 3d ed b1 42 3c
       -0.023832666 -0.0104153175 0.032274313 0.011883241
000230 95 f1 4c 3c bf 91 4b 3b 7d 95 52 bc 42 db ea 3c
       0.0125087695 0.0031062213 -0.012853024 0.028669003
000240 7c a0 d0 3c 9f 09 2a 3c 17 3f f9 3c cf e0 02 bd
       0.02546715 0.01037827 0.030425591 -0.031952675
000250 ac 7e b1 3c eb b6 42 bc a0 92 bb ba 2f be 33 3d
       0.021666847 -0.011884431 -0.0014310665 0.043882545
000260 a4 48 e6 bb 69 6d 04 3b 0a 5e 14 3d 55 44 a4 ba
       -0.0070277024 0.0020206815 0.036222495 -0.0012532572
000270 13 03 21 3c 85 5f e4 3c 71 d4 7a 3c bf 06 38 3b
       0.009827393 0.027877579 0.015309439 0.0028080193
000280 45 91 19 3d cb d8 d0 3b 94 86 88 3b 13 51 64 3b
       0.037492055 0.0063735 0.0041664336 0.0034838363
000290 9b f5 18 bd 94 55 87 3c 98 d3 12 3c d8 1d 13 bc
       -0.037343603 0.016520299 0.008961581 -0.008979283
0002a0 cc 3d 7b bc 76 90 71 bc 70 f0 bc 3b a0 a3 1a bc
       -0.015334558 -0.014743915 0.005765967 -0.009438425
0002b0 d2 9a b0 3c d9 6f ae bb 33 f3 33 3c bc 20 f4 3c
       0.0215582 -0.005323392 0.010983276 0.029800765
0002c0 75 7a 02 3a dc af 92 3c 66 f0 69 3d e0 6c 9c bc
       0.0004977354 0.017906122 0.057114027 -0.019094884
0002d0 76 eb 6e bb a1 50 aa ba 81 b0 09 3d 96 47 0a 3c
       -0.0036456264 -0.0012994 0.033615593 0.008439919
0002e0 7d c2 dc ba 51 43 78 3c 4e 3a d4 bc f2 75 98 bc
       -0.001684263 0.015152768 -0.025906708 -0.018610928
0002f0 63 14 2b 3d e5 92 31 3d 80 bb e5 bc a7 44 8c bc
       0.04176749 0.04335298 -0.028043509 -0.01712258
000300 a1 98 ae 3b 7f 84 01 3c eb a3 04 3d af 33 98 3c
       0.0053282534 0.007905125 0.032382887 0.018579332
000310 2a 91 07 bd 5e cc 55 3d 2e c4 96 b9 8e df 28 bd
       -0.033097424 0.052196853 -0.00028756395 -0.041228823
000320 f9 bf 91 3c 9e b6 11 3c 93 63 a0 3c 51 08 ad 3c
       0.017791735 0.008893637 0.01957873 0.02112213
000330 4b 42 67 bb c4 fa 9b 39 9c 38 3a 3c f0 3c 13 3c
       -0.0035287316 0.0002975074 0.011366036 0.008986697
000340 cc f7 1a 3d 01 4f 39 3d a6 80 8e bc 06 61 68 3c
       0.037833974 0.04524136 -0.017395329 0.014183288
000350 a2 68 f7 3c 25 d0 f8 3b a4 43 04 3d a6 1b e2 bc
       0.03020126 0.007593172 0.03229107 -0.027601074
000360 a9 41 e1 bc 00 e8 4b bc 73 8c 01 3d d2 6d 9a 3c
       -0.02749713 -0.01244545 0.031628083 0.018851195
000370 44 fa 19 3c 42 4e 11 3c a8 d8 19 3d 02 ad 8d 3b
       0.009398047 0.008868756 0.037560135 0.0043236027
000380 e7 ec 7e 3c 79 47 ea bc cd 45 a5 bb ef a7 11 bc
       0.015559412 -0.028598534 -0.0050437213 -0.008890136
000390 58 d1 f3 3c 75 d4 0a bc 54 e9 2a 3b e9 ef 60 bb
       0.029762909 -0.008473505 0.0026079016 -0.0034322685
0003a0 5f 72 3a 3b e1 69 34 3c 77 5f 23 3c f7 87 07 3b
       0.0028449518 0.011011572 0.009971491 0.0020680407
0003b0 9a 95 89 bc 92 68 14 bc 1e c2 3c 3d 8b 36 60 3c
       -0.016794968 -0.009058135 0.046083562 0.013684879
0003c0 ae 67 0a bc 16 a1 9c 3c 28 e6 28 bc 16 6f 91 bb
       -0.008447571 0.01911978 -0.01030878 -0.0044382913
0003d0 b9 eb 8f bb 69 9d b0 bc bd 5e 2b 3c 1f 12 2a bc
       -0.004392114 -0.021559434 0.010459599 -0.010380297
0003e0 3d 7f 2d b9 69 4d f9 3c 71 f6 e9 3b 34 13 15 bb
       -0.00016545966 0.03043242 0.007139974 -0.0022747042
0003f0 79 bc 32 3c dd 12 8f bc 45 2c 89 3c 5c ab 0d bc
       0.010909193 -0.01746505 0.016744742 -0.008646812

network_body._body_endoder.seq_layers.0.bias f4 [128]
000000 f6 c2 b6 bb 29 46 3b bd 42 8f 88 3b 3d 38 b5 bc
       -0.0055774404 -0.045721207 0.0041674683 -0.022121543
000010 39 14 96 bc d2 1e 5b bc 3f 26 32 bd f9 32 e5 3c
       -0.01832019 -0.013374047 -0.043493506 0.027978407
000020 27 94 d8 bc b9 a6 18 3d c2 82 4d 3c d2 63 ae 3c
       -0.026437832 0.037268374 0.012543382 0.021287832
000030 3e 18 65 bd 6d 4b 1d 3c fb 10 8e bc 35 28 42 bc
       -0.055931322 0.009600502 -0.017342081 -0.011850406
000040 39 f9 44 bd d1 16 8f 3c e4 bf 41 bd da b7 ea 3b
       -0.04808924 0.017466934 -0.04730214 0.00716303
000050 20 bd a0 3c b6 8b a9 3c 96 9b 5d bd 18 e1 c5 bc
       0.019621432 0.020696502 -0.054103456 -0.024155185
000060 b3 c3 96 bc fc e0 60 3b f9 cc 55 bd 33 94 97 bc
       -0.018403864 0.0034313789 -0.05219743 -0.018503284
000070 74 f8 36 bd db 2b 7e bd fd 5b 57 bc 9f 57 0b bd
       -0.044670537 -0.062053543 -0.01314449 -0.03401911
000080 ce b7 ae 3b ca 39 36 3b 28 2e 75 bd b0 5f e1 bc
       0.00533197 0.002780544 -0.05985847 -0.027511448
000090 e8 65 c4 bc 35 5d 9e bc 03 ff 1e bd cc 94 73 bb
       -0.023974374 -0.019331554 -0.038817417 -0.0037167547
0000a0 a5 03 6b bc db ba 85 bc 91 0a 03 bd 08 53 58 3c
       -0.014344131 -0.016324451 -0.0319925 0.01320339
0000b0 fd 4a 13 bd 6f 3b 5f 3c af bc 2d bd 75 61 dc bc
       -0.035960186 0.01362501 -0.04241627 -0.02690194
0000c0 89 bc 8a bc 1a 8e 84 bc dd 11 d2 bc b2 61 58 bd
       -0.016935604 -0.01618104 -0.025643284 -0.052827545
0000d0 c7 1c 10 bd 06 49 53 bd 97 7a 2d 3d 73 2f de bc
       -0.035183694 -0.051583312 0.04235324 -0.027122235
0000e0 bb e4 53 3c c9 23 5f bc 09 4e 00 bd da e2 b5 bc
       0.012932952 -0.013619372 -0.03132442 -0.022202898
0000f0 0e c5 15 3c 84 30 08 bd 95 e9 f4 3c 9a 82 fd 3c
       0.00914122 -0.033249393 0.029896537 0.030946065
000100 17 40 c5 bc 53 d4 18 bd 2b 58 ac bb fb a1 09 bd
       -0.024078412 -0.037311863 -0.005259534 -0.033601742
000110 f2 c3 b5 3c 0a 28 ee ba 25 c7 1f bd 2f 22 f0 bc
       0.02218816 -0.0018169892 -0.03900828 -0.029313175
000120 e0 78 61 bd d5 b6 ff bc 67 91 e0 bc d0 3c f2 bc
       -0.055046916 -0.03121511 -0.027413083 -0.029570013
000130 62 c2 6c bd 12 3b 86 bc 55 3a 94 bd d9 80 18 3d
       -0.057802565 -0.016385589 -0.072376885 0.037232254
000140 4a 54 95 bb b9 a3 10 bd 29 68 02 bb cf 1b ed bc
       -0.004557167 -0.035312388 -0.001989851 -0.028943924
000150 7a e4 40 bd 1d 81 7e bd f0 58 2d bd 2b 07 8f ba
       -0.047092892 -0.06213485 -0.042321146 -0.001091217
000160 f4 6e b8 3c 33 c1 e8 bc c6 00 e9 bc b0 ab 70 bc
       0.022513844 -0.028412437 -0.028442752 -0.014689371
000170 ea 78 9d 39 ba eb 71 bb 62 7d 2e 3d 09 9b 8c bd
       0.00030035462 -0.0036914186 0.042600043 -0.06865508
000180 27 ce 52 3c 50 fa a3 3b 63 f3 29 3d 89 e3 d4 3c
       0.012866533 0.005004205 0.041491877 0.025987403
000190 52 2e 16 3d 57 77 32 bd 91 6c d4 bc d1 0e bb 3c
       0.03666527 -0.043570843 -0.025930675 0.022834213
0001a0 a0 10 8d 3c f0 c8 39 bd c2 f4 ef 3c 98 44 11 bd
       0.017219841 -0.045357645 0.029291514 -0.035465807
0001b0 37 7a 2c bd a4 fb 46 bc 0d 6e 34 bc 1b 04 0d 3d
       -0.04210874 -0.012144957 -0.011012566 0.034427743
0001c0 ff a6 7b bc 46 c1 9c bb 9a 23 5a bd 67 3f 30 bd
       -0.015359639 -0.004783782 -0.05325661 -0.043029215
0001d0 18 c3 d3 3b a3 3e 4c bc a0 19 bc bc b0 31 7f ba
       0.006462466 -0.012466106 -0.022961438 -0.0009734882
0001e0 50 a8 1b bd 9a 44 b9 ba c1 00 3e bd 00 66 4f bd
       -0.038002312 -0.0014134825 -0.046387438 -0.050634384
0001f0 68 2b 6d 39 b0 a7 bb 3b 7c 7b d5 3c 59 0b 44 bb
       0.00022618251 0.005726777 0.026059859 -0.002991399

network_body._body_endoder.seq_layers.0.weight f4 [128, 3]
000000 e3 c4 80 be f3 ee f0 3e b4 43 db 3e 72 a7 79 3d
       -0.25150213 0.47057304 0.4282509 0.060950704
000010 49 25 65 bd b6 38 ea 3e 50 3e b8 3e 33 68 15 3f
       -0.05594376 0.45746392 0.3598504 0.5836212
000020 0b 6c 2e bf 19 82 b3 3e e1 e9 ea be 47 d5 2c 3f
       -0.6813361 0.35060194 -0.4588156 0.67512935
000030 45 3f ba be 7a ad 22 3d a7 25 ec 3e 70 8e 3a bf
       -0.36376396 0.03971622 0.46122476 -0.7287359
000040 69 ff 84 3f a1 75 78 be 39 7e 8a 3e 4a d3 94 be
       1.0390445 -0.24263622 0.27049425 -0.2906745
000050 3e af 33 bd af ad 05 3b b1 2c 89 bf af ec ac 3f
       -0.043868296 0.0020397713 -1.0716764 1.350973
000060 38 39 28 bf 13 fb 1a be 5c a3 3e 3f 0f 97 27 3f
       -0.6571231 -0.1513484 0.74468017 0.6546487
000070 51 d9 3b 3f c7 e2 e4 be 3c 4a ea 3e 07 d7 7b 3e
       0.73378474 -0.44704267 0.4575976 0.24593745
000080 91 a0 8d 3f 3a ea 1b bf a5 22 b7 be db 99 cb be
       1.1064626 -0.60904276 -0.3576862 -0.3976582
000090 d3 37 11 3f 63 ba fd be bf 10 24 be 96 56 b4 3e
       0.56725806 -0.49556264 -0.16022013 0.3522231
0000a0 67 39 c2 3e 66 34 43 3e c1 2b dc bd 01 a2 33 be
       0.3793442 0.19062957 -0.10750533 -0.17542268
0000b0 dd 6b e1 3e f8 8f 88 bd eb d5 fe be e8 43 3d bf
       0.44027606 -0.06668085 -0.4977258 -0.7393174
0000c0 70 7a ec 3e 03 61 6e bf f2 b8 f3 be 97 10 0f bf
       0.46187162 -0.9311678 -0.4760204 -0.5588469
0000d0 8b 99 9e be ca 4a b1 3d 9c fb 74 bd 1f 0c a9 3c
       -0.3097652 0.08656843 -0.059810266 0.020635663
0000e0 c2 cf 7f 3f 98 55 5a 3d 61 7d 4d bf 50 9f b2 be
       0.9992639 0.053304285 -0.8026944 -0.3488717
0000f0 84 f4 8f 3e 08 2c c5 3e ab db b9 be 6e 87 c1 be
       0.28116238 0.38510156 -0.36300406 -0.37798637
000100 0a 9d cc be 1d b5 aa 3d 94 bc 28 3f 39 ef 87 be
       -0.3996356 0.08335326 0.6591275 -0.265497
000110 a0 f2 50 be c1 e0 58 bf 07 cc ad bf 58 25 01 3f
       -0.20405054 -0.8471795 -1.3577889 0.5044761
000120 51 1d 43 3f e4 98 5d 3e 27 cf c5 bd 22 2a bd 3e
       0.7621661 0.21640354 -0.09658652 0.36946207
000130 f1 93 02 3e da f8 1a bf e5 a5 03 bf 4e 39 46 3f
       0.12751748 -0.6053597 -0.5142501 0.7743119
000140 0c a3 1e 3f 7f 6f 31 3f 1d c1 86 be 49 4c 29 3f
       0.6196754 0.69310755 -0.2631921 0.66132027
000150 8c 1f 2e be d3 2d ad be ea e9 e0 bd c5 60 f8 3e
       -0.17004222 -0.33824024 -0.109821156 0.4851133
000160 87 a4 a3 be 89 7b 11 bf 79 51 4c be 43 0c 94 3e
       -0.31961462 -0.56829125 -0.19952954 0.28915605
000170 f9 83 05 3e cf 09 cd be bc 8f 20 3e fa 8a 77 3f
       0.13038625 -0.40046546 0.1567983 0.96696436
000180 9e f9 90 3d 03 f8 81 3e d7 5f fd 3d 29 d0 22 3d
       0.07078861 0.2538453 0.123717956 0.0397493
000190 08 68 a9 3c 39 93 18 be 75 0a 06 3f ef 27 55 be
       0.020679489 -0.14899911 0.52359706 -0.20816015
0001a0 d2 2a 0b 3f e7 a4 4d be 68 50 06 3f 1e b6 1e bd
       0.54362214 -0.20082437 0.5246644 -0.0387479
0001b0 f7 a2 65 be 28 51 85 be fb b4 c8 be 2d 04 14 bf
       -0.22425447 -0.2603848 -0.39200577 -0.5781887
0001c0 e6 db 9c 3f de ea 3a 3f c7 fe c8 be 32 34 61 3d
       1.2254608 0.7301463 -0.3925688 0.054981418
0001d0 e8 e5 28 3e 49 b1 0a bf 18 37 c0 3f 3e dd 49 bd
       0.16493952 -0.54176766 1.5016813 -0.04928326
0001e0 37 a7 0e 3f a6 70 1e bf 8a b7 ed be f4 81 38 3e
       0.557239 -0.6189064 -0.46429092 0.18018323
0001f0 18 03 74 3e c8 00 43 3f 0d 36 9f 3d 1c a0 53 be
       0.23829305 0.7617307 0.07773981 -0.20666546
000200 17 36 cc be cf a3 40 3e cc b9 9a 3e 3f 65 03 be
       -0.39885017 0.18812488 0.30219877 -0.12831591
000210 c6 35 93 3d b6 8a a0 be 17 a9 fa be 8a f3 d4 3e
       0.07187991 -0.31355828 -0.4895713 0.41592056
000220 cf ba ff 3d 16 d9 eb be 7c 03 00 bf 17 09 30 bf
       0.12486803 -0.4606406 -0.50005317 -0.6876387
000230 62 1b 7b 3d 69 05 85 bc 28 8b da bc 7d 5c 25 3f
       0.06130541 -0.016237931 -0.026677683 0.6459425
000240 23 ef 78 be d4 1c 13 3f b3 99 16 3e 29 dd 0b bf
       -0.24309973 0.57465863 0.14707069 -0.5463434
000250 f5 15 75 bd 56 4e 32 3f b6 b0 c7 3e 75 90 02 bf
       -0.059835393 0.6965078 0.39002007 -0.51001674
000260 68 11 ac 3d 40 9b ac be 2a b0 2f 3d 9f d0 f1 be
       0.084017575 -0.33712196 0.042892613 -0.47229478
000270 4d f6 39 3f 91 c8 c4 3e a3 d1 80 3d 80 13 02 bf
       0.7264145 0.3843427 0.06289985 -0.50811005
000280 09 ab 8b bf bd 98 52 bf d6 86 4c 3f 29 88 53 3f
       -1.0911571 -0.8226431 0.79893243 0.8262964
000290 44 fb 87 bf 8b da e7 be 7d 70 9b bf 8e 92 36 be
       -1.0623555 -0.45283923 -1.2143704 -0.17829344
0002a0 3c 8e 5f be b7 2e 0b 3f d1 f5 68 be 8f d3 e4 be
       -0.21831602 0.54368156 -0.22750022 -0.44692656
0002b0 95 28 f2 3d e0 f4 62 bf 1a 04 9e bf ba 64 93 3e
       0.11824147 -0.886549 -1.2345002 0.28787786
0002c0 f9 c2 7d 3d a5 4a 21 be 5e 0c a7 3d 5e a4 22 be
       0.06195352 -0.15751131 0.08156656 -0.15883014
0002d0 4a 47 12 3e 56 79 26 3f 24 cb 57 bf 94 bb e5 3e
       0.14285007 0.65028894 -0.84294343 0.44869673
0002e0 6c 7c 2c be c8 ff 7a 3f 00 4c 17 bc 13 72 0b 3e
       -0.16844338 0.9804654 -0.009234428 0.13617735
0002f0 3d 9b 49 be 56 36 a9 3e 4a 66 e3 3e be 22 e7 3d
       -0.19688125 0.33049268 0.44413978 0.112859234
000300 e1 ef d6 be 08 b3 86 3f 3d cf 27 bf ca e1 29 bf
       -0.41979888 1.0523386 -0.65550596 -0.6636015
000310 0b 5e a3 3e 4a 86 2b 3d c8 e1 96 be d9 fe 0a be
       0.31907687 0.041876115 -0.29469132 -0.13573779
000320 61 dd 8b 3e 25 6e 40 3e ce 5f 44 bf 8d 03 56 bf
       0.27317336 0.18792017 -0.76708686 -0.8359917
000330 59 c1 75 be 14 d9 96 3f 2d 3a dc 3e c1 22 4a be
       -0.23999538 1.1784997 0.43013135 -0.1973982
000340 f3 7e 32 be 96 28 1e 3e d2 e3 c5 be 56 dc a5 bf
       -0.1743124 0.1544517 -0.38650376 -1.2957866
000350 aa 7a b8 bd c1 f6 13 bf 3f 26 95 3f a8 0e 0f 3f
       -0.09007771 -0.5779839 1.1652297 0.5588174
000360 21 8d eb 3e c5 c8 5c bf d6 1f b8 3e db 71 f6 3e
       0.4600611 -0.8624385 0.3596179 0.4813374
000370 26 ac 5c bf 83 f2 d9 bd 50 fc 64 3f 05 0e 97 3e
       -0.8620018 -0.106419586 0.894475 0.29502884
000380 4d a6 08 3f e5 78 8a bd 7a 8f 4e 3d a0 b9 bc 3e
       0.53378755 -0.0676134 0.0504298 0.3686037
000390 a9 d9 64 3e 26 c2 e8 be 23 66 29 3f 00 6b 39 3e
       0.22348656 -0.45460624 0.66171473 0.18107224
0003a0 a6 0c 07 3f cd 81 2a bd 34 1f 1f bb de 4a 9b be
       0.52753675 -0.041627694 -0.0024280073 -0.30330557
0003b0 e1 8f c8 bd 9a 78 21 3f a4 a6 53 3f 73 81 e1 3e
       -0.09793068 0.6307465 0.8267615 0.44044074
0003c0 25 76 8b be cf fb 53 be 6c 0c fc 3c 85 7e 07 be
       -0.27238575 -0.20701526 0.030767642 -0.13231857
0003d0 4f f4 70 3e eb a4 2d bf 56 c4 94 be ed f7 2c 3f
       0.23530696 -0.6782977 -0.29056042 0.67565805
0003e0 55 f1 c3 be d0 42 c8 be fe 1d 39 bf 95 7d 45 be
       -0.3827006 -0.39113474 -0.7231139 -0.19286187
0003f0 ab 01 01 3f 62 f1 57 be 60 26 1c be ae a0 91 3e
       0.5039317 -0.21088174 -0.15249014 0.284429

network_body._body_endoder.seq_layers.2.bias f4 [128]
000000 59 38 bc bc 2f 9d 53 bd 15 74 25 3c 54 6e 82 bc
       -0.022976087 -0.051663574 0.010098477 -0.01592175
000010 d9 9b 5a ba 44 31 6f 3c 23 7b af bb 26 42 4c bc
       -0.0008339263 0.014599148 -0.005355255 -0.012466943
000020 98 aa d9 38 d7 5b 84 3c 0f e6 d8 bc 8f 4f 8d bc
       0.00010379142 0.016157074 -0.026476888 -0.01724985
000030 81 f1 de 3b 99 6a 42 bc 80 6c 15 3c 6c 87 ce bc
       0.006803692 -0.011866235 0.009120107 -0.025211059
000040 68 5b 6d bb df 55 86 3c a6 34 60 3c a8 98 88 bc
       -0.0036217812 0.016398368 0.013684427 -0.016674355
000050 ef 6f 80 3c 95 0f 08 bd d7 e6 a9 3a bb 1f d7 bc
       0.015678374 -0.033217985 0.0012962472 -0.026260247
000060 c3 e7 12 bc b6 49 45 bd 6a 9c db bc 36 ef e4 bc
       -0.008966389 -0.048166 -0.026807982 -0.027946096
000070 fa 91 b3 bc 8b 0d 61 3c 99 3e 9c 3c 7a 2b 2a bc
       -0.021920193 0.013736139 0.019072818 -0.010386342
000080 06 8c d8 3a 27 9a 91 3b 72 58 7b 3a 67 f1 87 3b
       0.0016521222 0.004443425 0.00095880695 0.0041486504
000090 19 dd ae bc 1d 7b ca bc 7b c6 84 bc 53 c7 a5 bc
       -0.021345662 -0.024716908 -0.016207924 -0.020236647
0000a0 94 82 b5 bc 1f 9f f5 bc 58 f3 ba bc 19 61 d4 3b
       -0.022156991 -0.029983101 -0.022821113 0.0064813015
0000b0 cc b9 14 bc 42 8b 84 b8 f5 47 67 bd 88 a3 eb ba
       -0.009077501 -6.320189e-05 -0.056465108 -0.0017977813
0000c0 2f 15 a1 bc 5e 6e 5d bb 91 5e 6b 3a 58 c8 22 bd
       -0.019663421 -0.0033787708 0.000897863 -0.039741844
0000d0 8e 59 0f bb 54 eb d0 3b 4a 1e 68 3a 26 a9 b4 3c
       -0.0021873447 0.0063757095 0.0008854611 0.022053313
0000e0 65 9f 9e 3c d9 45 d5 bc e5 b2 3b 3a b6 74 8c bc
       0.019363115 -0.026034283 0.0007160141 -0.017145496
0000f0 79 4f 6b 3a 74 46 ac bc 35 e9 a0 3b b8 a2 8e 3c
       0.0008976381 -0.021029688 0.004910613 0.017411575
000100 4b 72 8d bc 7f 28 8d bc 1f 48 1c bc 1c 6e 29 bc
       -0.017266413 -0.017231224 -0.009538679 -0.0103411935
000110 c8 0f 31 bd f9 f5 39 bd 47 03 58 bc 29 ad 80 bc
       -0.04322794 -0.045400593 -0.013184375 -0.01570757
000120 02 ec cb bb ec f5 62 3c 69 aa f0 bc 25 b6 bf bc
       -0.0062232027 0.013852578 -0.029378133 -0.023402283
000130 a6 18 28 3c 3f a1 44 3b 18 f9 2f bc c5 f3 0d 3d
       0.010259783 0.0030003337 -0.010740541 0.034656305
000140 c3 eb 01 3d 05 7e 78 bb 6e 25 32 bc 45 14 6c bc
       0.03171898 -0.003791691 -0.010873182 -0.0144091295
000150 b1 0e a4 3c 74 2a 76 3c 37 52 e4 bc 98 64 27 3c
       0.020026537 0.01502477 -0.027871234 0.0102168545
000160 e3 82 29 bb 99 06 45 bd dc f4 53 bd 1b 55 13 bc
       -0.0025865368 -0.048101995 -0.051747188 -0.008992459
000170 a7 46 97 bc 4e ef cd bc 2a 08 ce 3a 55 8f b2 bb
       -0.018466307 -0.025138523 0.0015718986 -0.0054492154
000180 36 34 f3 bb 8c 97 62 3c 04 d5 b0 bc fc 44 b1 bc
       -0.0074219955 0.013830077 -0.021585949 -0.02163934
000190 30 03 e1 bc 0d 66 b4 bc e8 d2 1c bb 9c ca e4 bc
       -0.02746734 -0.022021318 -0.002392942 -0.027928643
0001a0 00 40 76 bc 07 79 1f bb be bd 7b bc 73 d1 85 3c
       -0.015029907 -0.0024333613 -0.015365062 0.016335225
0001b0 f1 5b e6 3c 59 1e 8e 3c 85 c4 9d bc ee 66 23 bd
       0.028120013 0.017348455 -0.019258747 -0.039893083
0001c0 ea c8 d4 bc a6 ff 47 3b 9e 33 3b bc 33 86 7e bb
       -0.02597471 0.0030517369 -0.011425881 -0.0038837313
0001d0 96 8d 08 bd 07 0c 7d 3c 6e 73 5d bc 47 55 ad bc
       -0.033338152 0.015444762 -0.01351629 -0.021158827
0001e0 8e 87 d9 3b e9 0b 36 bb 17 45 04 bc 0d 54 87 3c
       0.006638474 -0.0027778095 -0.008073113 0.01651957
0001f0 43 c6 a3 bc c8 8f 22 bd 22 44 67 bb 48 bd e4 bc
       -0.019992 -0.0396879 -0.0035288413 -0.027922288

network_body._body_endoder.seq_layers.2.weight f4 [128, 128]
000000 ee d5 23 be b4 ca 1e be 39 a7 b5 3c 63 8b ce 3d
       -0.15999576 -0.15507013 0.022174465 0.1008518
000010 c7 01 2f 3d 9f fd 7a 3d 72 21 68 be a7 f7 fb bd
       0.042726304 0.06127703 -0.22669008 -0.12303095
000020 ad c5 9c bd 98 34 53 bd ee 3c f5 bd f0 b2 5d 3e
       -0.07654891 -0.05156383 -0.11974512 0.2165029
000030 f4 b8 cd bb 82 05 65 bd b1 ae 75 3d d1 a7 bc 3d
       -0.0062781516 -0.055913456 0.05998105 0.09211696
000040 ab b9 da 3a 0a 02 0c bd 94 ac 76 3c 14 c2 bc bb
       0.0016687413 -0.034181632 0.015055794 -0.0057604406
000050 f5 fc 30 3c c8 72 96 bb 5e fc 07 3d 1b 7e 21 bd
       0.010802497 -0.0045913197 0.03319966 -0.039426904
000060 c0 dd c6 bd 65 18 74 bd f6 17 9b bd f3 45 65 bc
       -0.09710264 -0.059593577 -0.075729296 -0.013993728
000070 bb 0d 0a 3e 95 79 f7 bd 1f 08 13 be b8 9f bd 3d
       0.134818 -0.12083737 -0.14358567 0.092589796
000080 82 7a 5c bd 3e 2c 17 3e 8f 5d 22 be 76 03 eb 3d
       -0.05382777 0.14762971 -0.15856002 0.114752695
000090 f0 3c 36 be 6c 82 ed 3c ac a3 da bd cd a9 91 3d
       -0.17796683 0.028992854 -0.10675749 0.07112465
0000a0 45 c4 ae bd 0b 2e 20 3b e8 c3 9b bd 1b b7 8f bc
       -0.08533529 0.0024441506 -0.076057255 -0.017543366
0000b0 2b 19 1c bd 1f 6e 56 bb 8b f7 7d 3d fd 80 1e 3b
       -0.03810994 -0.0032719446 0.062003653 0.002418577
0000c0 6b 97 a1 3d 41 64 c2 bc 05 1e a3 3d 5d ad 49 bd
       0.07890209 -0.023729445 0.0796471 -0.049237598
0000d0 2e d6 a1 bd 65 b2 e4 3c a0 c4 9b bd 0d 24 e4 bc
       -0.0790218 0.027917096 -0.076058626 -0.027849222
0000e0 91 4f ef bb ea c8 01 3e 51 26 b9 3d 52 1e a4 3d
       -0.007303186 0.12674299 0.090405114 0.08013596
0000f0 be 92 bd bd 2d 7c 5d 3d 32 de c0 3d 0e 8f a9 3c
       -0.092565045 0.0540735 0.094173804 0.020698097
000100 24 95 43 3e 25 e8 c7 bc 34 11 8d bc 82 b3 7d 3d
       0.19099861 -0.024402687 -0.017220117 0.06193877
000110 d4 bf 7a bd 69 61 f8 3c 04 6c 69 bc da b9 6e 3d
       -0.061218098 0.030319886 -0.014246944 0.05828271
000120 76 a2 4e bd 52 29 57 bc 38 27 be bd 25 27 0a 3e
       -0.050447904 -0.01313241 -0.09284824 0.13491495
000130 13 d2 eb 3c c4 ca df 3d 5c 7f bf bc 55 dd 22 bb
       0.028786695 0.10927346 -0.02337616 -0.0024851162
000140 e2 58 b1 3d 70 39 c5 bd 56 37 1f bd 2f 7c 4e 3d
       0.08659531 -0.09630096 -0.03887113 0.0504114
000150 20 84 d3 bc 0e f0 48 3d 50 4c 32 be 0b 31 de bb
       -0.025819838 0.04905706 -0.17411923 -0.0067807487
000160 d8 dc a9 3d e2 fe 54 3e 49 bb c3 3d 7e 8d 0d 3e
       0.08294076 0.20800355 0.09557206 0.13823506
000170 c0 e9 aa bc 27 4b 1b be f0 83 f2 3d 57 36 58 bd
       -0.020863414 -0.15165387 0.11841571 -0.052786198
000180 bb ae b7 3d 13 d3 7a bd cc b9 40 be 62 fd a7 bd
       0.08968874 -0.061236452 -0.18820876 -0.08202626
000190 37 a8 6c bd 01 c0 65 3b 70 c9 ab bd 21 87 73 bb
       -0.05777761 0.003505707 -0.083880305 -0.00371594
0001a0 97 12 e5 3d 1b c9 ab 3d d6 f1 91 ba 1c 1d 61 bd
       0.11185186 0.08387967 -0.0011134695 -0.0549594
0001b0 bd 8b 0c bc 78 fe 0b 3d 0f dd 26 bd 25 04 45 bd
       -0.008578238 0.034178227 -0.04073816 -0.048099656
0001c0 2c 69 58 bc 89 73 9d 3d 3c a5 02 bd 56 68 17 bd
       -0.013208669 0.07688052 -0.03189586 -0.036964737
0001d0 0e 61 fc bd e9 79 a1 3d 5b 1f 45 be 78 ac c7 3d
       -0.12323199 0.07884581 -0.19250242 0.09749693
0001e0 8b 10 d0 bc d3 17 0f 3d 96 a6 14 bb 7f 64 aa 3d
       -0.025398513 0.03493483 -0.00226823 0.08319949
0001f0 61 6a 00 3e a2 7a 7b bd e2 12 86 3c 99 d8 0a 3e
       0.1254058 -0.06139625 0.016366426 0.13559188
000200 ce 6e a4 bd 83 fa 26 3d f2 13 1c 3e 4b 3d 60 3d
       -0.08028947 0.04076625 0.15241984 0.054745954
000210 77 f5 e0 bd 97 e8 18 be ba 41 8f bc 10 9f f9 bd
       -0.10984319 -0.14932476 -0.017487396 -0.12188542
000220 8b 67 05 be f4 76 3c 3c af 1c ed bd ce c2 cb 3c
       -0.1302778 0.01150297 -0.115777366 0.024873164
000230 dc 0d ae 3d 66 5c 5a bd 91 53 15 3d 64 b4 22 3c
       0.08498737 -0.053310774 0.03645665 0.009930704
000240 a7 80 1f be 3a 30 00 be 49 e0 f1 3c d9 1b 84 be
       -0.1557642 -0.12518397 0.029525893 -0.25802496
000250 e5 72 06 be 1b 38 e1 bc 0e 85 20 3e 0b 6f 1d be
       -0.13129766 -0.027492573 0.15675756 -0.15374391
000260 4a d5 3a 3d 47 90 9f 3d ad a6 81 3c 85 ec f8 bc
       0.045613565 0.077911906 0.015826548 -0.030386219
000270 88 57 4e 3e a3 7f a0 3c 39 79 cb 3c 3a 52 cf bd
       0.20150578 0.019592112 0.024838077 -0.10123105
000280 8f 2a 78 bd 01 94 fc bc 0b ec 9f bd 11 43 04 3e
       -0.060587462 -0.030832293 -0.078086935 0.12916209
000290 d3 aa a9 3d 88 29 25 be ca 61 ed bb 39 b1 8a 3d
       0.08284535 -0.16129124 -0.0072443234 0.06772084
0002a0 67 19 da bb 7b 97 89 bd 50 27 f0 3c f0 9b 36 3b
       -0.00665586 -0.06718346 0.02931562 0.0027863942
0002b0 25 45 57 bd bd c0 52 39 45 60 00 3e bf 95 49 bd
       -0.052556176 0.00020098961 0.12536724 -0.049215075
0002c0 06 e5 a4 3d bf f5 83 3d 62 52 90 bb 33 02 64 be
       0.08051495 0.06443357 -0.004404352 -0.22266464
0002d0 27 0b 15 be f7 5a ae bd 1b 0b cd bd 74 39 0a bd
       -0.14555036 -0.08513444 -0.10011884 -0.033746198
0002e0 f4 e7 19 bd 7a 2b e8 bc 49 b0 c5 3c d9 d9 dd bd
       -0.037574723 -0.028341044 0.02413191 -0.10832567
0002f0 50 7a e9 3d 6f 2d f7 3d d7 eb d7 bd eb b1 f3 3c
       0.114002824 0.12069213 -0.1054303 0.029747924
000300 a2 13 02 3d 78 70 01 3c 06 5c 82 bc 04 27 bf bc
       0.031757005 0.00790035 -0.01591302 -0.023334034
000310 10 0b 28 bd 38 90 03 3e 07 c8 14 bd d4 53 05 be
       -0.041026175 0.12847984 -0.036323573 -0.13020259
000320 0c bc 3d be b8 89 26 be ba 94 4c 3d b7 8a 1a bb
       -0.18528765 -0.16263473 0.049946524 -0.0023581216
000330 23 02 8a bd 6a 65 9d be b1 d3 d9 bd b8 5d 85 be
       -0.06738689 -0.30741435 -0.1063608 -0.26048064
000340 59 ad 25 be 59 c0 52 bd 04 06 df 3d 2d bf c4 bc
       -0.16179408 -0.05145297 0.10889819 -0.024016941
000350 16 be 76 3d fa 26 aa 3b 81 52 5e bd e3 7f 54 3c
       0.060239874 0.0051926346 -0.0542779 0.012969944
000360 d3 86 81 3d 41 83 1a bc 5e 4a a9 bb 8f d6 de bd
       0.06324544 -0.009430707 -0.005166336 -0.108807676
000370 ce 05 00 3d b8 2a 94 3d 71 e6 f3 bd f1 74 f1 3b
       0.031255536 0.072347105 -0.119091876 0.007368677
000380 56 ed eb bd 70 a8 19 3e 82 32 f6 3c bc fb e3 bd
       -0.115198776 0.1500566 0.03005338 -0.11131999
000390 93 bd cb bc 76 f0 fa 3d 79 fe e1 bc 54 f4 f2 bd
       -0.02487067 0.122528955 -0.027587162 -0.11863008
0003a0 c1 a5 52 be fe a3 39 bc 76 fe 46 3d 89 e0 0e bd
       -0.20571043 -0.011330603 0.048582517 -0.034882102
0003b0 26 12 80 bd 65 3f a8 bd b5 0e d5 bd b1 d5 92 be
       -0.062534615 -0.082152165 -0.10403196 -0.2867866
0003c0 ae 62 e3 bd a1 e9 35 be 04 29 35 bd fb 1b c2 3d
       -0.11102806 -0.17764904 -0.04422857 0.09477993
0003d0 ab f8 d8 3c d4 16 db bd e6 9a 35 bd 68 fc 1f be
       0.026485762 -0.106977135 -0.044337176 -0.15623629
0003e0 9b a1 1e be b6 63 0f bd 49 6f a0 3b 56 af 40 bd
       -0.15491335 -0.0350072 0.0048960787 -0.047042213
0003f0 4e 67 0c be 5a d8 c8 bd 80 cd bd bd 69 d5 29 bc
       -0.13711283 -0.09806891 -0.09267712 -0.010365822

network_body._body_endoder.seq_layers.4.bias f4 [128]
000000 53 95 40 3c 29 8b 22 3c e0 6a f2 3c e4 50 0b 3c
       0.011754352 0.009920874 0.029591978 0.008503173
000010 ea 41 93 bc 3d d2 dc bb 2e 63 36 bd 0c 33 65 bb
       -0.017975766 -0.0067389295 -0.04452818 -0.0034973053
000020 54 6d cd bc c6 c1 9b 3b 1c f1 c7 3b 8c e0 04 bc
       -0.025076546 0.004753324 0.0061017405 -0.008110177
000030 dd ab 70 bc 5f 3d 25 3c 74 0c bb 3b b4 4d 80 b9
       -0.014689413 0.010085433 0.0057082716 -0.00024471956
000040 f6 5e 34 3b 99 82 b8 bc 10 f7 6b bd 3e 66 b8 3c
       0.0027522421 -0.022523211 -0.057608664 0.02250969
000050 b7 12 23 bc cd ed 2d bd bb b0 f1 bc 60 06 f8 3c
       -0.009953192 -0.042463113 -0.029503217 0.030276477
000060 05 06 c3 bb 31 29 5a bd ec b4 58 3c ac 29 55 bd
       -0.0059516453 -0.05326194 0.013226729 -0.052041695
000070 c6 db 40 bd 71 9e 23 3c 81 3a 56 3c f8 83 7f bb
       -0.047084592 0.009986506 0.013075472 -0.0038988572
000080 44 ba df 3b 86 5b 8f bb 55 5a 8f bc d6 7b 0f bd
       0.0068276245 -0.004374924 -0.017499128 -0.03503021
000090 24 3d 57 3c fe b2 da bc ea 8f d3 bb e8 3e 80 bb
       0.013137136 -0.026696678 -0.006456365 -0.003913749
0000a0 37 5e 6d bb 5f c6 13 bb cb 3f ee bc c5 24 02 bb
       -0.0036219487 -0.0022548658 -0.029083153 -0.0019858342
0000b0 d5 63 cf 3b b8 2e 90 3b 56 22 d3 bc 5a 40 78 bb
       0.0063290396 0.0044001006 -0.025773209 -0.0037880153
0000c0 e5 1c cf 3c c2 85 68 bd fa 1b f8 bc 4e f8 93 b9
       0.025282333 -0.056768186 -0.030286778 -0.00028223026
0000d0 68 40 8c 3c 8d 19 a0 bc 8f 4e f3 3b 29 e9 a1 bd
       0.017120555 -0.019543434 0.0074251364 -0.079058
0000e0 4a 37 73 bd 0b 1c 8b bc 6f b8 21 3c 54 49 c0 bc
       -0.0593789 -0.016981145 0.009870633 -0.023472466
0000f0 6f c1 50 3b 19 6a c1 bc 60 4b 57 3c df 8e 86 3c
       0.0031853577 -0.023610162 0.013140529 0.016425548
000100 ae 99 96 bc be 0c 13 3c 73 a8 db bb 61 ac b1 bd
       -0.018383827 0.008975206 -0.0067034303 -0.08675457
000110 6a 41 04 3d 30 a7 02 bd bd b8 1c bc 6e 41 c9 3b
       0.032288946 -0.031897724 -0.009565529 0.006141833
000120 65 c7 f9 bc 9d 32 2f bd c7 52 03 bc 83 d6 f1 ba
       -0.030490587 -0.042772878 -0.008015341 -0.001845077
000130 1b 33 cb bc f9 f9 4a 3c 36 7b 89 bd dd c1 87 3b
       -0.024804642 0.0123887 -0.06712954 0.0041429834
000140 06 d5 5a 3c c0 99 83 bd 50 ee 16 3b f9 89 1f 3d
       0.013356453 -0.0642581 0.002303023 0.03894994
000150 c0 04 90 bc 16 11 8f bb 9d bb 3d 3c c0 85 28 bc
       -0.01758039 -0.0043660505 0.011580375 -0.010285795
000160 a6 e1 53 bd c5 21 67 bc 18 96 bd ba 94 5c b4 bc
       -0.051728867 -0.014107172 -0.0014464287 -0.022016801
000170 22 df fb ba e9 30 11 bd dc a0 03 3c f6 a3 28 3b
       -0.0019216279 -0.035447035 0.008033957 0.0025732494
000180 82 b8 39 bc 15 5d 36 3a a9 0a 46 bc 9f a7 34 bd
       -0.011335494 0.00069566193 -0.0120875025 -0.04410517
000190 16 f2 eb bc 16 27 9c 3c 30 5c 9f bd 62 31 91 bd
       -0.028801959 0.019061606 -0.07781255 -0.07089497
0001a0 28 f6 dd bc d9 e7 21 3c d2 f8 11 3c 33 5a ab 3c
       -0.027094916 0.009881937 0.008909421 0.020917034
0001b0 50 b0 af bc 52 7e 5f bb 3a 9c 76 3c 9d 83 2d 3c
       -0.021446377 -0.0034102392 0.015051896 0.010590461
0001c0 60 42 c6 3c f5 b3 a0 bc b6 ce e6 bb de fc 13 bc
       0.024201572 -0.01961706 -0.007043685 -0.009032456
0001d0 35 2d a5 bb 99 3b 0f bc 73 eb 67 3c ae 0b 84 bc
       -0.0050407895 -0.0087422365 0.014155257 -0.01611885
0001e0 fe 64 d6 bb aa de 2f 3b ab 2b 31 3b f3 79 38 3c
       -0.006542801 0.00268356 0.0027034085 0.011259544
0001f0 5a 5d de bb f8 48 13 bb c2 cf 11 bc 93 4f 80 bc
       -0.0067860307 -0.0022473913 -0.008899631 -0.015662944

network_body._body_endoder.seq_layers.4.weight f4 [128, 128]
000000 58 ff aa 3d eb 91 d8 bd 55 64 41 3e 87 f1 34 be
       0.08349484 -0.10574707 0.1888593 -0.1767026
000010 07 df b6 bc a0 77 17 bd 9b 33 d2 3d 91 7d a8 3d
       -0.022323145 -0.036979318 0.10263749 0.08227075
000020 3e de ac 3b c4 89 9b 3c a7 0f 32 bd 5a 9f 4f bc
       0.005275517 0.01898659 -0.04347196 -0.01267227
000030 c6 7f 06 3d 41 98 2e 3e 1b 66 a4 bc 11 c5 39 bd
       0.032836698 0.17050268 -0.020068219 -0.045353953
000040 b0 ce 8c 3d 9b 90 0e 3e 40 ef 18 be ae 08 43 3d
       0.0687536 0.1392235 -0.14935017 0.0476157
000050 f8 56 02 3e a8 2e 81 3d f7 b2 99 3c a2 f9 9d 3d
       0.12728488 0.06307727 0.018762095 0.07713629
000060 b4 1f 13 be fe cc e0 3d 41 25 d4 bd a3 77 00 3c
       -0.14367563 0.10976599 -0.10358668 0.007841024
000070 c9 b0 c1 3d 6c 2b 72 bb ef de 4b bb c5 b1 69 3b
       0.09457547 -0.003695215 -0.003110822 0.0035658937
000080 f1 7c 2f bd 00 0b 59 3c 34 ba ac bd 27 c3 06 bd
       -0.042843763 0.0132472515 -0.08433953 -0.032900956
000090 c7 28 5d 3e 68 03 d8 bd bf 7a 59 3d a9 bf 61 bc
       0.21597587 -0.10547525 0.053095575 -0.0137786055
0000a0 23 d0 9a bd e0 20 1c 3e 1b b3 05 be bf f9 14 3d
       -0.0755923 0.15246916 -0.13056605 0.03637099
0000b0 17 70 ab bd f1 f4 2c be fa fc fb bc a2 b3 04 3e
       -0.08370989 -0.16890313 -0.030760277 0.1295915
0000c0 c3 6c c4 bd 61 8a 88 3d b8 a4 1c 3e df 89 1a 3c
       -0.09591057 0.06667019 0.1529721 0.009432285
0000d0 79 7a 8b 3d 26 ac e5 bd a9 da 3a 3d 0a b6 4e 3e
       0.06810469 -0.11214475 0.045618687 0.2018663
0000e0 cc 22 c1 bd 30 f6 b1 bd f7 5e 15 bd ac 90 f5 3d
       -0.09430465 -0.08689535 -0.03646752 0.119904846
0000f0 2c 9d 56 bb 0e 51 8c 3c 64 5b 15 be 9a 8e a5 3d
       -0.003274749 0.017128494 -0.14585644 0.0808384
000100 43 c1 08 3e f0 36 7a 3d e8 ff f4 bb 69 09 4b 3e
       0.13354973 0.06108755 -0.0074767955 0.19827808
000110 bc ad ed bc 57 51 44 3d 9d a4 a5 3d 43 f2 04 3d
       -0.029013507 0.047929134 0.08088038 0.0324576
000120 51 01 b0 bc 16 2d 94 3d b4 b4 e1 3d 07 85 7a bc
       -0.021485003 0.07235162 0.110207945 -0.015290505
000130 a7 70 05 be c6 7c 1f be d3 f3 e6 3d 41 92 0f bc
       -0.13031255 -0.15574941 0.112769745 -0.008762897
000140 b8 65 dc 3d 88 b3 c9 bd dc 6e 21 3d 07 7e dd bc
       0.10761589 -0.09848696 0.039412364 -0.027037634
000150 72 4a db 3c 5c dc cc 3d e2 62 24 3c 27 dd 9c bd
       0.026768897 0.10002968 0.010033341 -0.07659369
000160 47 e5 59 3d ce d6 64 bc 93 e5 0f bd be a1 bf bd
       0.05319717 -0.013967229 -0.03513105 -0.09357022
000170 b4 cd bf bc ee 53 25 bc 49 90 f8 3d ff 6d 95 3d
       -0.023413517 -0.010090811 0.12136895 0.07296371
000180 84 bb 6b 3d 62 41 4d 3e 29 0c c7 bd f0 59 64 bd
       0.057551876 0.20044473 -0.09719116 -0.055749834
000190 dd b9 72 3d 0a 41 99 bd f9 10 db 3d 5f 57 04 be
       0.059259284 -0.07483108 0.10696597 -0.12923954
0001a0 d8 94 bc bd 01 9c b6 3d 9f 1e 9e 3a 6a b6 cc 3d
       -0.09208077 0.08916474 0.0012063569 0.0999573
0001b0 97 e2 87 3c 05 bc 13 3d 21 74 04 3d c5 79 8d bd
       0.016587539 0.03606798 0.03233731 -0.06907991
0001c0 8e 62 eb 3c c8 61 d4 bc 3c fa 4b bd f2 eb 2d 3e
       0.028733518 -0.025925532 -0.04979919 0.16984537
0001d0 7b ce a5 3c 5d ce 01 3e 4a 85 b4 3c c3 60 46 bd
       0.02024006 0.12676378 0.022036213 -0.048432123
0001e0 6c 1d ab 3d 40 ef 53 be 41 2c 1e be 0b f9 bc ba
       0.08355221 -0.20696735 -0.15446569 -0.0014417482
0001f0 ea 55 91 3c 8e 1d 89 3d 9b 55 39 3d 84 e4 93 3d
       0.017741162 0.0669509 0.045247655 0.0722132
000200 04 d6 4b 3d 8a e8 c9 3c b7 01 a4 bd 2a 46 89 3d
       0.049764648 0.024647016 -0.080081396 0.06702836
000210 a7 1c e1 bc 93 e1 71 bd 55 f3 87 bd 6b 63 b4 bd
       -0.027479483 -0.059053015 -0.06638209 -0.08808025
000220 74 fc c5 3d 32 4d db bd b0 00 9b bd 7a 87 11 3c
       0.09667292 -0.10708083 -0.075684905 0.008882398
000230 dd 31 3d be 5c b2 55 3d 6f 10 3e bd 18 b7 52 3c
       -0.18476053 0.05217205 -0.04640239 0.012861036
000240 d0 c1 81 3c d0 4f 13 3d 09 c6 f8 bd ff 5c 35 3d
       0.015839487 0.035964787 -0.12147147 0.04427814
000250 da a0 06 bd 46 85 02 be 65 62 ba 3d 69 40 0e bd
       -0.032868244 -0.12746152 0.091007985 -0.034729395
000260 7e d8 81 3d ac 17 cc 3c c2 25 8b bc 37 63 0d bd
       0.06340121 0.024913631 -0.016985778 -0.034518447
000270 0b 97 92 be 09 1a 6b bb 41 4b ef bd 43 7f 86 bd
       -0.28630862 -0.0035873672 -0.116842754 -0.06567242
000280 bb a6 2a bd 43 18 ee bc 16 1b 2e 3e 13 61 85 3d
       -0.041662913 -0.029064303 0.1700252 0.06512656
000290 71 59 6b be 2d 3d 29 bd c0 7f 0c bd f0 19 1e be
       -0.22983338 -0.041318107 -0.03430152 -0.15439582
0002a0 da 7e 9d 3b 4d 50 11 3e 07 d0 01 3c 20 98 c0 bd
       0.0048063817 0.14190789 0.007923133 -0.094040155
0002b0 71 e0 cc bd c9 97 82 bb 07 0f 37 3c b8 da 76 bd
       -0.10003746 -0.0039853794 0.011173016 -0.06026718
0002c0 be 74 07 3e f1 da 1f bc 91 fb 24 be 8f a7 92 bd
       0.13228127 -0.00975679 -0.1611159 -0.071608655
0002d0 3f 4a b6 3d 82 ba 57 be a2 34 d6 bd 76 e8 02 3d
       0.0890088 -0.21067241 -0.10459258 0.031959973
0002e0 f3 43 08 3d 35 5d a4 bd c7 c1 39 bd 35 70 94 3d
       0.033267926 -0.0802559 -0.045350816 0.07247964
0002f0 79 ed 9c 3b 8d 14 af bd c1 bc b1 bc cb a4 9c 3d
       0.004789051 -0.085488416 -0.02169645 0.07648619
000300 ee 49 f2 bc 7d 13 dc bd b4 87 56 bc 44 7d 1b 3d
       -0.029576268 -0.107459046 -0.013093878 0.03796126
000310 60 2e b5 3d 38 bc b4 3d 2d 5d 8a 3d dd da 41 3e
       0.08846736 0.088249624 0.06756053 0.18931146
000320 a0 76 fe 3d ca 76 bb bc 60 b9 b9 3c 74 6c 9c bd
       0.1242497 -0.022883791 0.022671402 -0.07637873
000330 22 15 a4 3d fe 3c 3b 3c 5e de 90 bd 1b 03 c6 bd
       0.08011843 0.011428116 -0.07073663 -0.09668561
000340 f4 5e 8f 3e 92 fd c1 3c 76 ee 75 be b6 35 be 3d
       0.2800213 0.023680482 -0.24016747 0.09287588
000350 e7 5c 05 3e 56 34 a0 3c 41 25 d9 bd 27 d8 b5 bd
       0.1302372 0.019556206 -0.10602809 -0.088791184
000360 41 27 c8 3d ba 61 04 bd b2 80 ba 3d 78 72 f6 3d
       0.09773112 -0.03231976 0.09106578 0.12033552
000370 0c 5a 04 3d 8d 6d fe bc 05 82 b8 bd 71 82 12 3e
       0.032312438 -0.031058097 -0.09009174 0.14307572
000380 4a 75 71 3d 3c 45 1c be 86 fe 51 3e 61 59 02 3e
       0.058949746 -0.15260786 0.20507249 0.12729408
000390 87 48 96 3c 25 43 7e 3e 2b 4b 35 bd e6 a6 02 bd
       0.01834513 0.24830301 -0.04426114 -0.031897448
0003a0 f7 ec 4c bd fe 1d a6 3c ff ed cc bd de b6 33 bd
       -0.050030675 0.020277973 -0.10006332 -0.043875568
0003b0 3b 0b 11 be f7 48 ee 3d 79 d9 cb 3c 0a aa 9c bc
       -0.1416444 0.11635011 0.024883972 -0.01912405
0003c0 b8 24 bf 3c 2b 05 23 3e b2 f8 d9 3c b3 7e cb bd
       0.023332939 0.1591994 0.026607845 -0.09936275
0003d0 d4 4b 03 be 91 35 b9 3d 8c 79 ee ba 05 48 88 bd
       -0.12821895 0.0904342 -0.0018194183 -0.06654362
0003e0 d6 74 68 bd 67 37 ab bd 05 c1 47 bd 2a a5 3d 3d
       -0.05675205 -0.083601765 -0.048768062 0.04630009
0003f0 9f f6 e0 3c 79 91 1d 3d bf 4c e5 bd f3 6a d8 bd
       0.027461348 0.03846881 -0.11196279 -0.10567274

network_body._body_endoder.seq_layers.6.bias f4 [128]
000000 95 b6 d9 bc 80 67 d5 bb 07 96 24 bc 5a d7 15 bd
       -0.02657632 -0.0065125823 -0.010045535 -0.03658233
000010 3c c1 04 bd fd b8 46 3c ee 88 65 bb 34 34 96 bb
       -0.032410845 0.012129066 -0.0035024243 -0.00458386
000020 be 0e 6d bd 74 2e ab bb 2c f5 4c bb 8f 54 e1 bc
       -0.057875387 -0.0052240435 -0.0031274064 -0.027506141
000030 88 96 76 bc 3b 36 23 3b 27 d4 c0 3c e2 40 1e 39
       -0.015050538 0.002490415 0.023538662 0.00015092225
000040 34 22 81 3c 0a c1 82 bd 6c be b2 bc 82 84 b2 bc
       0.01576338 -0.063844755 -0.021819316 -0.0217917
000050 f2 b0 cc bb 30 b6 51 3c 5e b8 02 bd 9a c9 4c bc
       -0.0062466795 0.012799785 -0.031914108 -0.012499237
000060 ef 96 a0 3b 97 28 03 bc 66 05 11 3d b0 48 6d bd
       0.004900805 -0.008005283 0.03540554 -0.05793065
000070 f2 7a 62 3c bc db f4 bb 5c 00 f4 3b 85 17 08 bc
       0.013823258 -0.0074724834 0.007446332 -0.008306389
000080 67 e0 b7 3c 77 c3 43 bb 61 15 2f 3c f7 4a 03 b7
       0.02244587 -0.0029871145 0.0106862495 -7.825663e-06
000090 6f c5 ea bc 41 e2 b1 3b ac 7e c0 3b 98 97 18 bd
       -0.028658597 0.005428583 0.0058744755 -0.037253946
0000a0 bc 4c a5 bb e5 7f 0d bd fa b4 e6 bc 4a be b5 bc
       -0.005044548 -0.034545798 -0.028162468 -0.022185463
0000b0 8e 63 01 bd 6b f3 39 bd f7 7f 03 3c e7 e5 18 3b
       -0.031589083 -0.045398157 0.008026115 0.0023330392
0000c0 2d 90 14 bd 93 63 35 bd 7a 39 4c 3c 98 00 c3 bb
       -0.03627031 -0.044284414 0.012464875 -0.0059509985
0000d0 3d 46 71 3b a5 f4 c9 bc 23 59 29 bc 80 8c e1 bc
       0.0036815547 -0.024652788 -0.010336193 -0.027532816
0000e0 7c 2e cb 3c 72 12 96 3c db 4c f0 bc 84 ed 1f 3c
       0.024802439 0.018319342 -0.029333523 0.009761218
0000f0 c1 cf a8 bc da fc f8 bb a1 ee a9 bc db 43 8f bd
       -0.020606877 -0.0075985016 -0.02074367 -0.06995364
000100 64 1e 72 3c 96 0e da bc c1 15 5f bc 46 91 e0 bc
       0.0147777535 -0.026618283 -0.013616026 -0.027413022
000110 50 9d 48 bc aa 09 2c bd 7f ee 42 bd fc ed 3d bc
       -0.0122445375 -0.042001404 -0.04759073 -0.011592384
000120 61 23 be 3b b9 cf e5 3c 3a 70 09 bd 4f 1b c7 3b
       0.0058025573 0.028053151 -0.033554293 0.0060762535
000130 cf 43 42 bd c7 cd a6 3c 95 1a bb ba f3 8d 28 bd
       -0.04742795 0.020361794 -0.001427489 -0.041151
000140 2b 96 36 bd 4a ed 68 3a 44 95 5e bc 48 40 e2 3b
       -0.044576805 0.00088854565 -0.013585392 0.0069046356
000150 79 95 35 3c d6 1e 23 bc 6a 3d 2d bd 06 ed 48 bc
       0.011083 -0.009956082 -0.042294897 -0.012263542
000160 fa e7 41 3c 96 0e f9 bc 43 7e 01 3c 9d 12 21 3d
       0.011835093 -0.030402463 0.007903638 0.03932439
000170 e8 e5 f0 3b 66 82 06 bc c7 b7 16 bd c1 c8 98 bd
       0.0073516257 -0.0082098 -0.036796357 -0.07460166
000180 61 94 81 bd 54 63 b8 3b 38 6e 01 bc 98 4d 5f 3c
       -0.06327129 0.005627075 -0.007899813 0.01362934
000190 53 e7 6e bb 1f bb 0b bc b8 32 b2 bc 70 85 9d bc
       -0.0036453798 -0.0085285 -0.0217527 -0.019228667
0001a0 65 9a f1 bc aa d3 77 3c 76 d0 83 bc b7 e4 63 bd
       -0.029492566 0.015126148 -0.016090613 -0.05563804
0001b0 56 00 42 bc bf 72 c5 3c b5 33 31 3c 7f 4e 93 bd
       -0.0118409 0.024102567 0.010815551 -0.07192706
0001c0 44 e7 dc bc 22 7b b1 bd d4 ad 31 bc 09 5d 3e 3b
       -0.026965745 -0.08666064 -0.0108446665 0.0029047152
0001d0 21 bc 24 bd 67 0b f1 3b ff 76 b9 3c 80 8c d2 bc
       -0.040218476 0.0073560956 0.02263975 -0.025701761
0001e0 01 29 fd ba f8 ee c6 bb 91 73 cc bc 9a 79 b5 bc
       -0.0019314588 -0.0060709678 -0.02495745 -0.02215271
0001f0 20 e2 2c bb 32 02 3d bc 5a 96 e7 bc 2d 9b 06 3c
       -0.0026379898 -0.011536168 -0.028269935 0.008215708

network_body._body_endoder.seq_layers.6.weight f4 [128, 128]
000000 03 bb 81 be a3 b3 4f bc 5c bc 1d 3d 7f 40 8f bb
       -0.2533799 -0.012677106 0.03850971 -0.004371702
000010 83 a8 03 3d b3 08 e3 bd 81 40 82 3e a3 09 6f 3d
       0.032143127 -0.110856436 0.25439838 0.0583588
000020 1c 65 8c be d2 d4 23 3e a9 93 c3 38 ec 06 81 3d
       -0.2742089 0.15999153 9.3258284e-05 0.06300148
000030 94 c9 60 3c 81 fa 7d 3c bd 23 02 be ab e8 46 be
       0.013719935 0.015501619 -0.12708946 -0.19424693
000040 c3 3d 67 bd ec 23 93 3d 0d ef 4f bd 92 02 36 bd
       -0.056455385 0.07184586 -0.050765086 -0.044436045
000050 6d 21 5a bd e3 0c ee 3d 45 af 03 3d f3 63 02 be
       -0.053254534 0.11623552 0.032149572 -0.1273344
000060 ab d3 8d bd ac 08 d2 bc a2 8f b8 bd 45 65 99 3d
       -0.06925138 -0.0256389 -0.09011771 0.07490019
000070 b2 76 4b 3b 2d 69 14 be ac c1 28 3e 69 29 83 3d
       0.003104609 -0.14493246 0.1648013 0.06404383
000080 33 38 b4 bd 14 a1 43 be 17 c7 a4 bc 3b ff 4c 3d
       -0.08799782 -0.19104415 -0.020114465 0.050048094
000090 9c a5 31 be 43 a9 30 3d 46 aa b9 3d 8b f5 aa 3d
       -0.17348331 0.04313017 0.0906568 0.08347615
0000a0 e6 96 c6 3c fe 41 9f 3d 6a 97 89 3a dd 4a cd bd
       0.024241876 0.07776259 0.0010497395 -0.10024045
0000b0 a9 65 2a bc fb 3a bc bd e0 ea 02 3e 06 0c 22 be
       -0.010400214 -0.09190937 0.1278491 -0.15824899
0000c0 29 9e c3 bd fb e5 9a 3d 81 1a b9 3d 52 ea fa bd
       -0.09551651 0.075633965 0.09038258 -0.12251724
0000d0 c6 fd 4f be 8a 38 25 be f2 36 d9 ba ef f3 72 3e
       -0.2031165 -0.16134849 -0.0016572161 0.23725866
0000e0 da ba 0b bd 6a a5 d8 ba b4 b7 de bd aa 44 72 bc
       -0.034113742 -0.001652879 -0.10874882 -0.014786879
0000f0 7f 89 ac 3c 6f c7 d6 3d b1 8b 19 be 44 7d 0a bd
       0.021061657 0.10487258 -0.14994694 -0.03381087
000100 0e ce 15 bd 20 c2 4c 3e df 18 ff bc 3a c1 6b 3b
       -0.036573462 0.19995928 -0.03113979 0.0035973326
000110 29 e0 d2 3d 3a 1b 65 3d bc 24 b1 bd 89 ea 26 bd
       0.102966614 0.05593417 -0.08649585 -0.040751014
000120 96 96 28 bb 22 84 c9 3c f2 ea a4 3d 84 8f 97 bd
       -0.0025724522 0.024599139 0.08052625 -0.0740042
000130 1b 35 26 3d 47 6c 06 be 71 76 15 3d a6 58 3c 3d
       0.04057799 -0.13127242 0.036489908 0.04598298
000140 1a c2 e4 3d 23 3d 81 bd b0 a2 eb 3d d1 67 f8 bd
       0.111698344 -0.06310489 0.115056396 -0.121291764
000150 ef 25 30 3e 2c c8 ee bb a5 53 00 3e 81 f6 20 be
       0.1720197 -0.007287046 0.12531908 -0.15719034
000160 45 59 5f 3d 44 34 0b be 03 5f e5 3d df 6b ff bc
       0.054528493 -0.13594157 0.11199763 -0.031179367
000170 cf 98 46 3e 67 28 20 3d d1 5e 36 3d fc 3d 2f 3d
       0.1939423 0.03910103 0.044524018 0.042783722
000180 9b c7 da bc 28 5a b5 bd 8a 2e 25 b9 5e 86 9f 3c
       -0.026706507 -0.088550866 -0.00015752963 0.019473251
000190 c1 90 5f bc 30 7e ba 3c 3d 15 54 bd e6 89 6f bd
       -0.013645352 0.022765249 -0.051778067 -0.05848112
0001a0 4a c4 e4 3d 85 6b 96 bb e8 f8 a9 3d 77 78 c1 bd
       0.11170252 -0.004590454 0.08299428 -0.09446805
0001b0 fd 29 05 be 59 17 e3 3d b9 29 aa bd 28 17 18 bc
       -0.13004299 0.110884376 -0.08308739 -0.009282865
0001c0 da 97 aa bd c5 8a 60 3d 68 c2 e3 bd d8 95 b2 bd
       -0.08329745 0.05481984 -0.111210644 -0.08719987
0001d0 05 11 bb 3d ac 67 f8 3d 9f e3 0a 3e 3a 08 a0 bd
       0.091341056 0.12129149 0.13563393 -0.07814069
0001e0 de 6d 9a bd b3 68 8a bd f4 2a c1 3c 32 fd a9 3d
       -0.07540487 -0.06758251 0.023580052 0.08300246
0001f0 7b 20 15 3e 21 0c ef bd 1b 32 b4 bd 41 5f 34 3d
       0.14563172 -0.11672235 -0.08798619 0.044036154
000200 7a 36 22 be 2b b7 e3 3d 1a ca 19 be 2b 72 12 3e
       -0.15841094 0.11118921 -0.15018502 0.14301364
000210 79 f9 bf bd ba db 36 bd 7e 9d ff 3d 23 63 b9 3d
       -0.09373755 -0.04464314 0.12481211 0.09052112
000220 3d f8 82 3d ee 05 d2 bd 16 81 92 bd 95 ea 73 be
       0.06395004 -0.10255037 -0.071535274 -0.23819955
000230 96 13 2f 3d 19 0a d0 3d 4f 69 07 3d 4e 7e e4 3c
       0.042743288 0.10158176 0.033059414 0.027892258
000240 4c 3d 88 bd 4c 5f d7 bd 0e 73 7b bb 70 27 f6 bd
       -0.066523165 -0.10516223 -0.0038368138 -0.12019241
000250 a6 ab 84 3a 4f a5 38 be 5d ef 1e 3e 43 5b a6 bd
       0.0010121956 -0.1803181 0.15520997 -0.081228755
000260 7e 87 2b bd f8 a5 a7 bc 34 ac 0b bd 28 84 8b bd
       -0.041877262 -0.020464882 -0.034099773 -0.06812316
000270 5f e8 25 3d 55 2c 90 3d 79 0f 0e 3d 7a 92 a0 3a
       0.04050481 0.07039706 0.034682725 0.0012250685
000280 09 c1 a4 bc 1b 16 17 3e 7b 20 62 be 64 03 c7 bd
       -0.020111578 0.14754526 -0.22082703 -0.097174436
000290 51 ee dc 3d 85 46 0e bd 11 61 8e 3c 8b 6b 68 bd
       0.10787643 -0.03473522 0.01738027 -0.056743186
0002a0 11 bc 89 bd dc 50 30 bc ea bc 45 bc 93 31 8b 3d
       -0.06725324 -0.010761466 -0.012068966 0.06796565
0002b0 24 35 0c 3e 9f 83 fd bd 36 8a 9d bd 1b 0c ae bd
       0.13692147 -0.1237862 -0.07692377 -0.08498403
0002c0 f6 0f 8e 3d fa 75 01 be 86 44 63 be e3 37 93 3d
       0.06936638 -0.1264266 -0.22194108 0.07188394
0002d0 99 29 10 3e 0d fc 2f bc 79 74 38 bd a5 ed 2f 3e
       0.14078368 -0.010741246 -0.045032952 0.17180498
0002e0 39 27 eb 3d a5 db 70 3e 87 8d 1e 3e d5 a9 92 3d
       0.114820905 0.23521288 0.15483676 0.07161299
0002f0 03 0f 8b 3d b2 53 3b 3d 36 cf fb 3d fa 05 ea bc
       0.06789973 0.045734115 0.12295382 -0.028567303
000300 d8 45 4a bd c8 8b 88 bc 4d e4 33 bd a2 75 e1 ba
       -0.049383014 -0.016668215 -0.043918896 -0.0017201195
000310 24 46 1e be cf 9c 4b 3d 87 5a 72 3c 6f 9b 96 3d
       -0.15456444 0.04971009 0.014792091 0.07353865
000320 cc 88 fe 3d 76 9c cc 3c d1 cd 17 be d8 4c 7b 3c
       0.12428436 0.02497695 -0.14824606 0.015338145
000330 f2 e9 b8 bc 15 52 32 be 2c d9 1f be 2d d7 2a bd
       -0.022572491 -0.17414124 -0.15610188 -0.041709114
000340 29 90 32 bc bf 65 db bd af 30 fd bc 3d e9 3b bd
       -0.010898628 -0.10712766 -0.030907003 -0.04587673
000350 d6 a4 66 3d ac 03 dc 3c 84 a4 dd bd ba 25 37 39
       0.056309544 0.02685722 -0.108223945 0.00017466294
000360 b1 e5 17 3e ec 6d 4d be dd 71 d3 bc 6b dd ec 3b
       0.14833714 -0.20061463 -0.02581113 0.0072285435
000370 49 3d c6 bd 1e d4 c5 bd 70 e0 c3 bd 69 51 44 be
       -0.09679658 -0.09659599 -0.095642924 -0.1917168
000380 33 03 84 3d 84 37 de 3d 90 26 4b 3d 92 23 04 bd
       0.06445923 0.108504325 0.049597323 -0.032260485
000390 41 35 8d 3d 27 0e 41 3d f2 c2 8d 3c b4 70 08 3e
       0.06894923 0.047132637 0.017304871 0.13324243
0003a0 12 e4 de bd 84 76 d9 bc a0 39 11 be 8e 8d 22 be
       -0.10883345 -0.02654577 -0.14182138 -0.15874311
0003b0 5c e1 e9 bc de 97 9c 3d 35 6a b5 3d 81 25 26 be
       -0.028549843 0.07646154 0.08858148 -0.16225244
0003c0 78 a1 2d 3e 45 83 14 be ef 1b ef 3d da 0b 8d bd
       0.16956127 -0.145032 0.1167525 -0.06887026
0003d0 6b 27 6a bd 03 40 c0 bc f2 87 0f bd c3 c6 82 bd
       -0.0571665 -0.023468023 -0.035041757 -0.06385567
0003e0 03 68 d8 bc 3c dd 0d be 44 1c 6d bd 6a a5 d0 bc
       -0.026416784 -0.13853925 -0.057888284 -0.0254695
0003f0 6b f9 18 3d ad 24 52 be 07 ac 57 bd 0a 2b e3 bc
       0.03734724 -0.20521803 -0.052654292 -0.027730484
