results/ppo/My Behavior/My Behavior-127300.pt (torch, 449311 bytes, 30 tensors)

network_body._body_endoder.seq_layers.0.weight f4 [128, 10]
0.16469376 -0.21932462 -0.5209799 -0.64995855 0.10096315 0.17411654 -0.5886353 0.15604448
-0.25521666 -0.14846931 -0.07879929 -0.46088803 -0.3871173 -0.13085106 -0.4177048 0.2067832
-0.43834707 0.054393884 -0.74228436 0.3819117 0.30580056 0.23265755 0.3426392 -0.02565965
0.11600853 0.102419056 0.046348408 -0.077740595 0.15161158 0.21877384 0.3910453 0.30160013
0.07800606 0.04137624 -0.15627463 0.043446627 0.16878693 0.43343198 -0.33386835 -0.64939183
0.24002033 -0.050623614 0.24565277 -0.7120048 0.22802463 0.22783566 0.6052153 0.31838745
-0.60700387 0.15842089 0.24005097 0.121256046 -0.5541122 0.01097532 -0.34867617 0.46428284
-0.038542382 -0.1742496 0.68555516 0.46607378 0.2408281 0.7136364 0.39312792 0.024157487
0.1560525 0.24589016 0.28233656 -0.6213348 -0.6047892 0.33297 -0.11409002 0.42235562
0.001962436 0.2732726 0.3345085 0.06383837 0.2532501 -0.12434 -0.02052268 0.44951263
-0.2063264 -0.30424872 0.5929317 -0.14463344 -0.094504654 0.7291746 0.20760627 -0.25960293
0.4323144 0.0067480896 0.21933988 -0.49283615 -0.17059885 -0.14221872 0.32482406 0.050552618
0.23600575 0.3194948 0.3184926 -0.44668806 -0.01716892 0.03247693 -0.17645523 0.63936824
0.3159247 0.53972644 -0.28989437 -0.74844277 0.47124186 -0.3395398 0.568847 0.010227697
-0.10868887 -0.5142651 -0.57441556 -0.41267502 0.59989804 0.21856217 -0.06459971 0.24089922
0.7338406 0.26037687 -0.23060982 0.08444022 0.5271794 -0.09510744 -0.21773861 -0.19294786
0.26286766 -0.18149331 0.101546824 0.45196652 -0.1612722 0.08657821 0.10969512 -0.8441363
0.10572896 0.10082714 0.38753802 -0.6243929 0.2053799 0.045125403 0.24642417 -0.4021939
-0.15626305 0.093857124 0.14012463 -0.041004375 -0.7336221 -0.17427339 0.08095277 0.49204993
0.51591325 0.5382645 -0.5906047 -0.5452576 -0.5347521 -0.40597308 -0.16557123 0.47175714
-0.14731942 -0.33084977 -0.3405373 0.3071149 -0.17983043 -0.15179211 0.17094658 0.08247622
-0.27013734 -0.25809997 -0.29664212 -0.47586316 -0.18780832 -0.068857595 -0.20773384 -0.703082
-0.05773265 0.10791534 -0.32406515 0.38097668 0.24411689 0.06039377 0.27892467 0.54799575
0.38295916 0.585355 -0.22124678 0.79901713 -0.04671011 0.038319506 -0.62882084 0.115533136
0.040907733 0.16062751 0.7016989 0.07635889 -0.31138045 -0.041608766 0.072330974 -0.35938805
0.12264233 -0.10741436 -0.122325115 -0.22175716 0.043905873 -0.023252087 -0.44384444 -0.3172514
0.42989013 0.60070485 -0.101813994 -0.12575042 0.16237779 -0.07434849 -0.69105446 0.06261725
-0.3254568 0.22088392 -0.17423981 -0.17701155 0.038230844 0.20243196 -0.47426298 -0.18543081
-1.0454458 -0.0676626 0.15027827 -0.34212324 -0.21936762 -0.28942144 -0.503903 0.106424585
-0.09780113 -0.14751396 0.47822177 0.32580826 -0.44743332 -0.19512917 -0.090419695 0.32662702
0.24159604 0.095276125 -0.102617934 -0.551801 -0.09857055 0.3447823 0.6808531 -0.24409589
0.63614273 -0.076144226 -0.047720417 -0.30286658 -0.2519582 -0.29539725 0.1395413 0.09294237
00000000: 7ba5 283e a296 60be f05e 05bf af63 26bf
00000010: c5c5 ce3d 9b4b 323e ceb0 16bf 20ca 1f3e
00000020: c2ab 82be 5708 18be 8661 a1bd 84f9 ebbe
00000030: 3d34 c6be d2fd 05be 67dd d5be fabe 533e
00000040: 076f e0be 1fcc 5e3d 5906 3ebf ee89 c33e
00000050: e491 9c3e c83d 6e3e 686e af3e 3034 d2bc
00000060: e195 ed3d 15c1 d13d d4d7 3d3d 7636 9fbd
00000070: 1140 1b3e 4006 603e 1737 c83e 556b 9a3e
00000080: a4c1 9f3d 227a 293d 7506 20be 17f5 313d
00000090: 7bd6 2c3e ccea dd3e cbf0 aabe 8b3e 26bf
000000a0: e4c7 753e b55a 4fbd 668c 7b3e f245 36bf
000000b0: 4a7f 693e c04d 693e 64ef 1a3f ae03 a33e
000000c0: 9b64 1bbf 1639 223e eccf 753e 1755 f83d
000000d0: 4cda 0dbf d4d1 333c af85 b2be 7bb6 ed3e
000000e0: 9ede 1dbd 7d6e 32be 8b80 2f3f 39a1 ee3e
000000f0: a49b 763e e0b0 363f 1048 c93e ece5 c53c
00000100: 3acc 1f3e a1ca 7b3e 6b8e 903e cc0f 1fbf
00000110: 77d3 1abf 0b7b aa3e 07a8 e9bd ff3e d83e
00000120: 369c 003b 63ea 8b3e b344 ab3e b1bd 823d
00000130: ffa9 813e f8a5 febd 2e1f a8bc 8526 e63e
00000140: 3a47 53be 7dc6 9bbe 5fca 173f ca1a 14be
00000150: a88b c1bd 30ab 3a3f bd96 543e adea 84be
00000160: 5058 dd3e 141f dd3b a29a 603e 0555 fcbe
00000170: 77b1 2ebe c9a1 11be 574f a63e 4310 4f3d
00000180: 7eab 713e d394 a33e 7611 a33e 4cb4 e4be
00000190: d6a5 8cbc 8806 053d aeb0 34be a3ad 233f
000001a0: e2c0 a13e 832b 0a3f 096d 94be f299 3fbf
000001b0: 9d46 f13e 29d8 adbe f59f 113f 1292 273c
000001c0: 4598 debd e1a6 03bf e60c 13bf 244a d3be
000001d0: eb92 193f c3ce 5f3e da4c 84bd 49ae 763e
000001e0: fadc 3b3f 1e50 853e fb24 6cbe feee ac3d
000001f0: 3bf5 063f b1c7 c2bd dff6 5ebe 2094 45be
00000200: 9796 863e 62d9 39be c8f7 cf3d 2868 e73e
00000210: 8a24 25be eb4f b13d d6a7 e03d 5119 58bf
00000220: 6d88 d83d 767e ce3d 626b c63e 37d8 1fbf
00000230: 1c4f 523e 6ad5 383d 9e56 7c3e 5cec cdbe
00000240: 6c03 20be 2a38 c03d d57c 0f3e 34f4 27bd
00000250: a8ce 3bbf b974 32be 91ca a53d f8ed fb3e
00000260: e412 043f b4cb 093f df31 17bf 0196 0bbf
00000270: 83e5 08bf b4db cfbe 818b 29be 278a f13e
00000280: e7da 16be 2465 a9be e85a aebe 2a3e 9d3e
00000290: 7825 38be 646f 1bbe 9f0c 2f3e 4be9 a83d
000002a0: 714f 8abe ae25 84be 7ae1 97be 56a4 f3be
000002b0: d350 40be 3605 8dbd 2eb8 54be 2ffd 33bf
000002c0: 1279 6cbd b802 dd3d deeb a5be 600f c33e
000002d0: c7f9 793e 755f 773d 37cf 8e3e 7349 0c3f
000002e0: 3913 c43e d3d9 153f 848e 62be 638c 4c3f
000002f0: 1a53 3fbd eaf4 1c3d 67fa 20bf a39c ec3d
00000300: de8e 273d 8a7b 243e 8aa2 333f 0d62 9c3d
00000310: 426d 9fbe f46d 2abd 4322 943d b601 b8be
00000320: e72b fb3d 0ffc dbbd 9785 fabd 4f14 63be
00000330: a5d6 333d 297b bebc 943f e3be c76e a2be
00000340: 8f1a dc3e cbc7 193f db83 d0bd b8c4 00be
00000350: 5d46 263e 0544 98bd f2e8 30bf 793d 803d
00000360: 46a2 a6be 652f 623e ec6b 32be 8442 35be
00000370: f297 1c3d 534a 4f3e 99d2 f2be 93e1 3dbe
00000380: 2bd1 85bf b092 8abd 8ce2 193e c72a afbe
00000390: e8a1 60be 0c2f 94be c9ff 00bf 22f5 d93d
000003a0: f54b c8bd e60d 17be 7cd9 f43e 57d0 a63e
000003b0: fb15 e5be f1cf 47be f62d b9bd a83b a73e
000003c0: f464 773e 2120 c33d 5a29 d2bd d542 0dbf
000003d0: 5bdf c9bd 4e87 b03e 644c 2e3f 46f4 79be
000003e0: 40da 223f 81f1 9bbd 7c76 43bd 5411 9bbe
000003f0: aa00 81be 4f3e 97be eae3 0e3e 9258 be3d

network_body._body_endoder.seq_layers.0.bias f4 [128]
-0.0007008288 -0.002980569 -0.0006753707 -0.00026277025 0.00024658348 -0.00012506399 -0.0011978055 0.0025797784
-6.119373e-05 -5.158872e-07 -0.0019053259 -0.018394813 4.968315e-07 -0.0007536449 -0.0005801362 -0.003607865
-0.000285744 -0.0046737124 -0.0024866075 -0.014133193 -0.0011465834 -0.0025089197 -0.0010451607 0.001486969
-0.0034473245 0.00087024824 -0.0021523603 -0.012590095 -0.0008912889 -0.00091431214 0.00022196172 7.517678e-05
0.00053757586 0.00016850268 -0.0006437248 -0.0011751718 -0.0022108923 -0.00021831677 -0.00048678895 -0.00038924566
-0.0029669194 -0.00075064093 0.000747426 -0.0009527288 0.0013400359 0.0023211746 -0.0009858619 -5.281503e-05
-0.00011593361 -0.0011910144 -0.0016350895 -0.0007301279 -0.0009791019 -0.00011647692 -0.018517295 0.00029710057
2.284738e-06 -0.0034057556 -0.00028834515 -0.00048348753 0.0014156689 0.0009634028 1.6363083e-05 -0.007197314
-0.0035894194 0.00037269958 -0.0038636716 0.0026956836 0.0002661008 -0.007848221 0.00027735194 -0.00077067263
0.00044505578 0.0021871747 -0.0002437365 -0.00029357694 -0.0016465366 -0.0026989668 -0.0076351445 0.0004392989
0.00012890268 0.00026699773 -0.0028578532 -0.0027360965 -0.00054083276 -0.006762835 -0.008137381 0.0018058107
-0.00018295532 0.00059904816 -0.0009900014 -0.0003282271 0.002119842 -0.0019639856 -0.0035298388 -0.000557352
-0.0028295945 -0.0008943739 0.00017014027 -0.00074988743 -0.00035503288 -0.00034293855 -0.0002066849 -0.0021411146
-0.0023138113 0.011081325 -0.0026166216 -0.015289775 5.8424852e-05 -0.0022206535 -0.00049402355 0.0007101934
-0.0018100142 -0.00038666007 -0.000712141 -0.0015912526 -0.00043606982 -0.001687759 -0.00017081317 -0.0011211452
-0.00026343108 -0.001966136 -0.00029903135 -0.0011095667 -0.0012501804 -0.0011030679 -0.002413604 -0.0004685105
00000000: d3b7 37ba a655 43bb 5c0b 31ba 6dc4 89b9
00000010: e047 8139 9c23 03b9 afff 9cba 8011 293b
00000020: 2255 80b8 807b 0ab5 21bc f9ba b8b0 96bc
00000030: 005e 0535 4190 45ba 4814 18ba ee71 6cbb
00000040: e9cf 95b9 f125 99bb 5af6 22bb e88e 67bc
00000050: f448 96ba b06c 24bb c6fd 88ba 66e6 c23a
00000060: 82ec 61bb 5f21 643a 9d0e 0dbb b046 4ebc
00000070: 63a5 69ba 73ae 6fba 65be 6839 3aa8 9d38
00000080: 1bec 0c3a 18b0 3039 a4bf 28ba 3908 9aba
00000090: 9ee4 10bb f6eb 64b9 b537 ffb9 ab13 ccb9
000000a0: a670 42bb a9c6 44ba e9ee 433a 8cc0 79ba
000000b0: 25a4 af3a d91e 183b 0938 81ba b585 5db8
000000c0: 6221 f3b8 d01b 9cba 8050 d6ba 0e66 3fba
000000d0: 3555 80ba 1245 f4b8 95b1 97bc 2ac4 9b39
000000e0: 8053 1936 1933 5fbb 082d 97b9 997c fdb9
000000f0: f78d b93a de8c 7c3a 7443 8937 72d7 ebbb
00000100: 773c 6bbb e466 c339 a735 7dbb 11aa 303b
00000110: 7283 8b39 d395 00bc 8c69 9139 f706 4aba
00000120: 6056 e939 b456 0f3b 8593 7fb9 3beb 99b9
00000130: 9ad0 d7ba 26e1 30bb 3c30 fabb b351 e639
00000140: 0d2a 0739 d4fb 8b39 d24a 3bbb 1550 33bb
00000150: acc6 0dba c69a ddbb a652 05bc f4b0 ec3a
00000160: b2d7 3fb9 7109 1d3a efc2 81ba e515 acb9
00000170: 0ced 0a3b 36b6 00bb de54 67bb 421b 12ba
00000180: b870 39bb 6b74 6aba ae67 3239 1894 44ba
00000190: b523 bab9 6fcc b3b9 8eb9 58b9 f151 0cbb
000001a0: 50a3 17bb 728e 353c a07b 2bbb f781 7abc
000001b0: 350d 7538 6288 11bb 5c81 01ba 462c 3a3a
000001c0: 003e edba a3b8 cab9 f9ae 3aba 9491 d0ba
000001d0: 4da0 e4b9 cb37 ddba 501c 33b9 64f3 92ba
000001e0: 1f1d 8ab9 4ada 00bb 4fc7 9cb9 e16e 91ba
000001f0: 18dd a3ba d194 90ba 8e2d 1ebb 6aa2 f5b9

network_body._body_endoder.seq_layers.2.weight f4 [128, 128]
0.013934215 -0.05377469 0.026014073 -0.114718266 0.106956445 -0.08973085 -0.08922355 0.122815885
-0.037320282 -0.052750137 -0.022059657 -0.16675644 -0.009916465 0.13643585 0.12152283 -0.016453544
0.21119557 0.014824428 0.032050453 0.20462304 0.06794407 0.04861495 -0.005552254 -0.11698259
-0.1408058 0.039101664 -0.11574517 -0.008637725 -0.028052956 0.19738571 -0.05638638 -0.120003395
0.032011166 -0.026861953 -0.07102568 -0.15596063 -0.068386026 -0.055735856 0.12051237 0.121157564
-0.055796787 -0.056478605 -0.021302626 0.06348414 0.008339427 0.03230684 -0.037447993 -0.03797641
0.02251777 0.002569039 -0.2521253 0.019799246 -0.039863963 -0.048898183 0.15527762 -0.040821318
-0.017872907 0.1596971 0.03053712 0.082974374 -0.09608377 0.115844645 -0.05592024 -0.035669442
-0.03992909 -0.10350101 -0.036400758 0.20026936 -0.05561093 -0.011846771 0.060340595 0.107047826
0.050486244 0.10477901 -0.13979128 -0.075485185 0.021131663 0.036500655 0.072387666 0.009541689
0.07058146 -0.05387101 -0.18640651 0.05915955 -0.13114592 -0.027164187 -0.06525149 -0.06838866
0.004938936 0.037358988 0.19342904 -0.14109693 -0.052699655 -0.08458823 0.06511882 0.10143911
-0.027613327 -0.067049265 -0.028175028 0.022474345 -0.005014529 -0.09653481 0.19747272 -0.053567436
0.021011045 0.29728594 0.14347908 0.13062552 -0.04815428 -0.06481585 0.19737133 -0.14098598
0.06747275 0.051683776 -0.030727386 0.076036334 0.13637915 0.08019966 -0.017265445 -0.07982342
0.11244859 0.03540214 0.094967976 0.019281887 0.032270115 0.06348177 -0.009518207 0.13129103
0.0579593 -0.008385856 -0.040988766 -0.21682206 0.028213682 0.09896585 0.09514854 -0.062320165
0.021559834 -0.016550291 -0.042639256 0.10469638 0.012573315 -0.08750411 0.1856972 0.060416725
-0.098090686 -0.098476306 0.088797405 -0.05921587 0.046882633 0.01742027 -0.08109338 0.045179628
0.046442997 0.08398138 -0.09370743 0.16641931 -0.02597479 0.018235251 -0.14718226 0.016869951
-0.047521003 -0.022607772 -0.023068551 -0.05558295 0.14734624 0.0811368 -0.056130063 0.026462078
-0.014375414 -0.12279958 -0.18618247 -0.150151 -0.050229505 -0.07794097 0.048740666 -0.05600431
-0.08393234 0.014377391 0.08234171 0.09702381 -0.062089242 -0.049539723 0.052353382 -0.12558629
-0.041705064 -0.024499042 0.276657 -0.0026352596 -0.08229187 -0.020254504 0.0013057222 0.042677857
-0.058043838 0.099465676 -0.020544346 0.07681258 0.17718454 -0.12936306 -0.06034213 -0.045427967
0.09390687 -0.16795962 0.006551702 0.033617493 0.03737218 -0.19179803 -0.019778926 -0.15550166
-0.034071404 0.22742243 -0.014877049 0.051690057 0.05385567 -0.002557549 0.040493924 -0.18018922
-0.006794048 0.0031641847 0.1203542 0.03232327 0.09739039 -0.03256321 -0.14023392 0.016189195
-0.02370717 0.042584807 0.02507569 0.06786997 0.0011210531 0.08275516 -0.03365353 -0.058070038
0.10064245 0.036380593 0.08176265 0.056841463 -0.1286609 0.0045974865 0.049612883 -0.03147415
0.021167664 -0.042073455 -0.044331815 0.06323162 -0.05604318 -0.023871956 -0.009823067 0.028070627
0.07549408 0.026503477 -0.079828754 0.043846034 -0.013399202 0.097906776 -0.049386386 -0.10356079
00000000: 554c 643c d942 5cbd 771b d53c 69f1 eabd
00000010: fb0b db3d cfc4 b7bd d6ba b6bd e586 fb3d
00000020: 27dd 18bd 8710 58bd 74b6 b4bc 33c2 2abe
00000030: ab78 22bc d7b5 0b3e f6e0 f83d 95c9 86bc
00000040: a743 583e 28e2 723c 5647 033d b488 513e
00000050: 4326 8b3d 7820 473d afef b5bb 9194 efbd
00000060: 652f 10be 1129 203d ce0b edbd 3f85 0dbc
00000070: 50cf e5bc 7b1f 4a3e 68f5 66bd 57c4 f5bd
00000080: 241e 033d 990d dcbc e975 91bd 25b4 1fbe
00000090: f90d 8cbd 484b 64bd 30cf f63d 7521 f83d
000000a0: 2c8b 64bd 1c56 67bd d882 aebc f903 823d
000000b0: 18a2 083c 2d54 043d 1163 19bd 278d 1bbd
000000c0: 3077 b83c 525d 283b 9116 81be 0732 a23c
000000d0: 6548 23bd 7649 48bd 1901 1f3e 4134 27bd
000000e0: 346a 92bc a387 233e fb28 fa3c 78ee a93d
000000f0: 91c7 c4bd f53f ed3d 9f0c 65bd 1f1a 12bd
00000100: af8c 23bd 56f8 d3bd f618 15bd 6913 4d3e
00000110: 49c8 63bd f618 42bc b327 773d e43b db3d
00000120: aaca 4e3d 6196 d63d 7225 0fbe fa97 9abd
00000130: 4f1c ad3c b681 153d fc3f 943d bf54 1c3c
00000140: 038d 903d d9a7 5cbd 59e1 3ebe 4951 723d
00000150: 1e4b 06be 6e87 debc 93a2 85bd 5b0f 8cbd
00000160: ccd6 a13b bd05 193d 4312 463e b77b 10be
00000170: 98db 57bd 983c adbd 045d 853d 4fbf cf3d
00000180: 5835 e2bc 2051 89bd 51cf e6bc 1e1c b83c
00000190: eb50 a4bb 0bb4 c5bd 4a36 4a3e 8769 5bbd
000001a0: 5b1f ac3c dd35 983e 2eec 123e b2c2 053e
000001b0: 6c3d 45bd 2cbe 84bd b61b 4a3e a15e 10be
000001c0: 272f 8a3d 5eb2 533d 00b8 fbbc f0b8 9b3d
000001d0: faa6 0b3e b83f a43d 4370 8dbc 767a a3bd
000001e0: 724b e63d d601 113d 927e c23d 0cf5 9d3c
000001f0: ab2d 043d bb02 823d 41f2 1bbc 2871 063e
00000200: bb66 6d3d d464 09bc d6e3 27bd 9a06 5ebe
00000210: 6120 e73c 9cae ca3d 3ddd c23d 6e43 7fbd
00000220: 409e b03c 7a94 87bc 80a6 2ebd 0e6b d63d
00000230: 4e00 4e3c 5b35 b3bd 6827 3e3e 8777 773d
00000240: c5e3 c8bd f2ad c9bd 6adb b53d 578c 72bd
00000250: 0108 403d f4b4 8e3c 4914 a6bd 460e 393d
00000260: 033b 3e3d 6efe ab3d aee9 bfbd d369 2a3e
00000270: 15c9 d4bc 1862 953c f2b6 16be da32 8a3c
00000280: 62a5 42bd ef33 b9bc 42fa bcbc f3aa 63bd
00000290: efe1 163e 0d2b a63d a3e8 65bd 00c7 d83c
000002a0: db86 6bbc 597e fbbd 9ea6 3ebe 2fc1 19be
000002b0: 74bd 4dbd 849f 9fbd 4ba4 473d c664 65bd
000002c0: b8e4 abbd 268f 6b3c c5a2 a83d 6bb4 c63d
000002d0: 4a51 7ebd 2aea 4abd 8070 563d b199 00be
000002e0: eed2 2abd 37b2 c8bc fca5 8d3e 52b4 2cbb
000002f0: a488 a8bd c6ec a5bc c424 ab3a face 2e3d
00000300: 60bf 6dbd a9b4 cb3d 9e4c a8bc ea4f 9d3d
00000310: dd6f 353e c077 04be 4f29 77bd ad12 3abd
00000320: 3f52 c03d 9bfd 2bbe a9af d63b 7fb2 093d
00000330: 9213 193d b466 44be 6a07 a2bc d43b 1fbe
00000340: 758e 0bbd 6de1 683e debe 73bc f4b8 533d
00000350: c397 5c3d 8d9c 27bb f5dc 253d 8683 38be
00000360: 9ba0 debb 365e 4f3b 437c f63d 6865 043d
00000370: 9d74 c73d 0061 05bd 7b99 0fbe 349f 843c
00000380: 8a35 c2bc 686d 2e3d 896b cd3c 69ff 8a3d
00000390: 4df0 923a 8a7b a93d 49d8 09bd d9da 6dbd
000003a0: a11d ce3d d103 153d 2d73 a73d 98d2 683d
000003b0: afbf 03be 83a6 963b e136 4b3d 0aeb 00bd
000003c0: cf67 ad3c 3755 2cbd 4795 35bd 947f 813d
000003d0: 898d 65bd 1f8f c3bc eef0 20bc 5ff4 e53c
000003e0: a49c 9a3d d21d d93c 427d a3bd e697 333d
000003f0: 5488 5bbc 5983 c83d 6149 4abd ae17 d4bd

network_body._body_endoder.seq_layers.2.bias f4 [128]
-0.0009617237 -0.0007221768 -0.0014290792 -0.00078141835 -0.00045706527 -0.00014519595 -0.00069882366 -0.00040668232
-0.0012860727 0.00082936126 -0.00028688673 -0.0016755044 0.00082511717 0.0014666504 -0.0006992918 0.002197508
-0.0026207643 -0.0004179839 -0.00021052099 -0.0014295569 -0.00035684594 -0.00085122953 -0.0008171249 -0.00077013223
-0.00032975434 -0.0014840369 -0.00027326815 -0.00026472082 -0.0007874537 -0.00062254857 -0.0001759424 -0.0018065595
-0.00075864117 -0.00091032544 -0.002427329 -0.00038395415 -0.0009218994 -0.0025140834 -9.6259624e-05 -0.0010516522
-0.0009899487 -0.00037378195 -0.0008693915 -0.0010570856 -0.01265546 -0.0004402777 -0.00092378864 -0.00033356107
-0.0037113966 -0.0009317284 -0.001171869 0.0012344675 -0.00076264265 3.55417e-05 -0.003316503 -0.00040699373
-0.0009469923 -0.0029428436 -0.001068457 -0.0013345645 -0.00040174814 -0.0013774128 -0.00035916845 -0.0009773339
-0.00069414184 0.00044789197 -0.0017363179 -0.0003340197 -0.00026256178 0.0018875649 -0.0004966316 -0.0011316936
-0.0006361887 -0.00076693983 -0.0010752056 -0.00015963061 -0.0075736376 0.0002531212 -0.0020402626 -0.0009775948
-4.672972e-05 -0.00020653453 -0.0019817124 -0.0001107976 -0.00213457 -0.0013431176 0.0005873657 -0.0019582352
0.00039388007 -0.0011342965 -0.0009031009 0.0019736683 -0.0032104405 -0.00032646215 0.00060793594 -0.0020686926
-0.0021158915 -0.0023437936 -0.000206556 4.7650123e-05 -0.0002879966 -0.001351508 0.00105853 -0.0010975492
-0.00053620036 -0.0016959396 -0.009634756 -0.00053292484 -0.00032469505 -0.00048442496 -0.0014014625 -0.0005966419
-0.0009591494 -0.0008171877 -0.0009352393 -0.0015463135 -0.001160045 -0.0033716427 -0.0014827276 -0.0009112485
-0.015082645 -0.0032152566 -0.0021819735 -0.0012091575 -0.0012087137 -0.0007285632 -0.001040976 -0.0014872072
00000000: 2f1c 7cba 7750 3dba f14f bbba 19d8 4cba
00000010: 43a2 efb9 be3f 18b9 4331 37ba fa37 d5b9
00000020: 7091 a8ba 7e69 593a 4969 96b9 999c dbba
00000030: ad4c 583a 9f3c c03a ae50 37ba 1104 103b
00000040: 21c1 2bbb d924 dbb9 4cbf 5cb9 f85f bbba
00000050: 0d17 bbb9 0c25 5fba 5334 56ba b3e2 49ba
00000060: e1e2 acb9 0484 c2ba 6e45 8fb9 3aca 8ab9
00000070: 206d 4eba 8732 23ba 2e7d 38b9 14ca ecba
00000080: 8cdf 46ba e8a2 6eba d313 1fbb 744d c9b9
00000090: 9fab 71ba 52c3 24bb fede c9b8 98d7 89ba
000000a0: 2bc1 81ba 2af8 c3b9 e0e7 63ba e88d 8aba
000000b0: d958 4fbc 13d5 e6b9 682a 72ba cfe1 aeb9
000000c0: e73a 73bb 3c3f 74ba 6699 99ba dbcd a13a
000000d0: 15ec 47ba 9c12 1538 b059 59bb c661 d5b9
000000e0: 943f 78ba b9dc 40bb 780b 8cba 8eec aeba
000000f0: b9a1 d2b9 4e8a b4ba c64e bcb9 e219 80ba
00000100: 12f7 35ba 0bd3 ea39 2995 e3ba 5e1f afb9
00000110: 72a8 89b9 2b68 f73a 6230 02ba 5655 94ba
00000120: e7c5 26ba 760c 49ba eaed 8cba 8462 27b9
00000130: 472c f8bb 5ab5 8439 edb5 05bb a322 80ba
00000140: a8ff 43b8 3191 58b9 9edf 01bb 025c e8b8
00000150: 24e4 0bbb 8c0b b0ba 72f9 193a bc55 00bb
00000160: b081 ce39 adac 94ba 13be 6cba a958 013b
00000170: 4166 52bb 0229 abb9 e45d 1f3a e792 07bb
00000180: c5aa 0abb 559a 19bb f496 58b9 eedb 4738
00000190: 40fe 96b9 1525 b1ba 5fbe 8a3a a4db 8fba
000001a0: cc8f 0cba 4a4a deba 18db 1dbc fbb3 0bba
000001b0: d53b aab9 6bfa fdb9 47b1 b7ba f667 1cba
000001c0: 6d6f 7bba 8a38 56ba d92a 75ba acad caba
000001d0: a70c 98ba c7f6 5cbb 1558 c2ba dae0 6eba
000001e0: 331d 77bc 0eb7 52bb 71ff 0ebb 987c 9eba
000001f0: b46d 9eba 0cfd 3eba 5c71 88ba 65ee c2ba

action_model._continuous_distribution.mu.weight f4 [1, 128]
-0.015360818 0.03852094 0.0036919576 0.024172103 0.011534439 -0.023555549 -0.0011163696 -0.0040689325
0.018541085 -0.024237523 0.017309368 -0.020430615 -0.016796865 0.026117042 -0.010988649 -0.00055135076
0.0004146459 -0.013751526 0.025370691 0.006632027 -0.015410539 -0.024371574 -0.013042858 0.008318657
-0.02098999 0.027390456 -0.022363225 0.018755648 0.011323897 -0.011235798 0.02581763 0.002682864
-0.013330402 0.006270893 -0.0019303665 0.013961154 0.0068558375 0.002790201 -0.00061718497 0.0051820176
-0.012226703 -0.016054846 0.013000416 -0.017899552 -0.00031865787 0.025925748 0.0060936282 0.01578745
0.0010949762 0.012093222 -0.022215934 0.0037261248 -0.013381134 -0.0014997107 0.01711238 0.006010147
-0.006117572 -0.001445024 -0.014816005 -0.009710607 0.013243334 0.0038067754 -0.0164045 0.005662473
0.016599698 -0.014294343 -0.0026303588 -0.013891604 -0.02375396 0.018823575 -0.011190034 0.0046075135
-0.010878565 -0.01806093 -0.005014656 -0.029676974 0.00018519128 0.026287826 0.004257843 0.0102066
0.0046409816 -0.033287577 -0.002890972 0.035633758 -1.3492227e-05 -0.004144313 0.001752705 -0.004400535
-0.008861608 0.009850996 0.005967917 0.023098199 -0.0010144127 -0.0017969467 -0.00022241514 0.0036460455
-0.0021918737 -0.009754361 -0.029580614 -0.012692231 0.019283613 -0.021894183 0.02305938 -0.01594451
-0.032821935 0.013650737 -0.00019649592 -0.03003596 -0.017477764 0.010979676 0.0024005077 0.01412699
-0.015499042 0.0067671286 0.011856306 0.0066020326 0.0064179017 0.0013406157 0.0021727944 0.014456627
6.0407503e-05 -0.001324941 0.001965751 0.020807866 -0.009018446 0.009885615 0.011008005 0.0143689765
00000000: f1ab 7bbc 22c8 1d3d c5f4 713b 9304 c63c
00000010: f2fa 3c3c 91f7 c0bc 2653 92ba ae54 85bb
00000020: 79e3 973c c58d c6bc 60cc 8d3c 1b5e a7bc
00000030: 9499 89bc 68f3 d53c bc09 34bc 8688 10ba
00000040: d564 d939 154e 61bc 32d6 cf3c 7a51 d93b
00000050: 7c7c 7cbc e5a6 c7bc b6b1 55bc fa4a 083c
00000060: 33f3 abbc f361 e03c 1533 b7bc 72a5 993c
00000070: de87 393c 5a16 38bc 7f7f d33c fdd2 2f3b
00000080: c267 5abc 107c cd3b 5a04 fdba 53bd 643c
00000090: efa6 e03b cedb 363b 95ca 21ba eacd a93b
000000a0: 8252 48bc 7485 83bc b2ff 543c 15a2 92bc
000000b0: 8911 a7b9 3c62 d43c 0fad c73b af54 813c
000000c0: 4e85 8f3a a622 463c 31fe b5bc 0032 743b
000000d0: 8b3c 5bbc f191 c4ba 432f 8c3c c4f0 c43b
000000e0: ea75 c8bb f666 bdba d4be 72bc 3d19 1fbc
000000f0: 92fa 583c 187b 793b bb62 86bc 448c b93b
00000100: 17fc 873c d232 6abc 1962 2cbb 9c99 63bc
00000110: aa97 c2bc e633 9a3c 6856 37bc a0fa 963b
00000120: 023c 32bc 84f4 93bc fc51 a4bb 201d f3bc
00000130: e82f 4239 9159 d73c 6085 8b3b 9539 273c
00000140: 6013 983b 8e58 08bd 7676 3dbb b4f4 113d
00000150: ac5c 62b7 04cd 87bb 05bb e53a 5d32 90bb
00000160: 4730 11bc 1266 213c 848e c33b 6f38 bd3c
00000170: 0bf6 84ba 8787 ebba 1c38 69b9 7ef2 6e3b
00000180: 8aa5 0fbb c1d0 1fbc 0b53 f2bc 13f3 4fbc
00000190: abf8 9d3c 6e5b b3bc 06e7 bc3c 109e 82bc
000001a0: 4b70 06bd 57a7 5f3c 790a 4eb9 f90d f6bc
000001b0: 872d 8fbc 19e4 333c d651 1d3b e474 673c
000001c0: b2ef 7dbc cabe dd3b f440 423c dd55 d83b
000001d0: 434d d23b 99b7 af3a 7165 0e3b 7ddb 6c3c
000001e0: 105e 7d38 a5a9 adba d4d3 003b 4275 aa3c
000001f0: 1bc2 13bc 46f7 213c eb5a 343c db6b 6b3c

exp_avg f4 [128, 10]
3.5129315e-07 -8.898657e-06 -1.975223e-05 0.0 -7.654018e-06 0.0 2.039049e-06 5.321632e-05
-8.898657e-06 4.0453768e-05 1.146295e-08 -2.9036957e-07 -6.4452956e-07 0.0 -2.2707329e-07 0.0
2.0951407e-07 1.7364863e-06 -2.9036957e-07 1.3200356e-06 2.7892079e-06 -7.065381e-05 -0.00015682928 0.0
-6.9225694e-05 0.0 2.8207967e-06 0.0004225283 -7.065381e-05 0.00032119596 -1.087283e-05 0.0002754212
0.0006113487 0.0 0.0002484615 0.0 -2.5831225e-05 -0.0016470911 0.0002754212 -0.0012520791
2.3489744e-07 -5.9502186e-06 -1.3207622e-05 0.0 -5.1425923e-06 0.0 -5.4330917e-07 3.5583886e-05
-5.9502186e-06 2.7050019e-05 -8.0314237e-07 2.0344505e-05 4.515843e-05 0.0 1.4001026e-05 0.0
-2.5111747e-06 -0.000121665544 2.0344505e-05 -9.248721e-05 8.734661e-06 -0.00022125884 -0.00049112516 0.0
-0.0001784171 0.0 2.471292e-05 0.0013231861 -0.00022125884 0.0010058547 2.7869476e-07 -7.059657e-06
-1.567023e-05 0.0 -2.2454512e-06 0.0 -3.7943973e-06 4.2218613e-05 -7.059657e-06 3.2093576e-05
-9.4670095e-06 0.00023981014 0.0005323034 0.0 0.00020387984 0.0 -2.4323623e-05 -0.0014341278
0.00023981014 -0.0010901897 -4.5260113e-06 0.00011464904 0.0002544849 0.0 6.859326e-05 0.0
2.2397657e-05 -0.0006856314 0.00011464904 -0.00052120053 3.6137988e-06 -9.1541675e-05 -0.00020319383 0.0
-6.6488836e-05 0.0 6.9107e-06 0.0005474434 -9.1541675e-05 0.00041615334 -1.3323093e-08 3.3748918e-07
7.4912e-07 0.0 -1.0173197e-07 0.0 -2.1162799e-07 -2.0182742e-06 3.3748918e-07 -1.5342436e-06
1.0666722e-05 -0.00027020025 -0.00059975975 0.0 -0.0002115905 0.0 2.5301739e-05 0.0016158684
-0.00027020025 0.0012283444 2.614096e-06 -6.6218054e-05 -0.00014698328 0.0 -3.9564937e-05 0.0
-1.4898546e-07 0.0003960013 -6.6218054e-05 0.00030103064 1.1957642e-05 -0.00030290065 -0.0006723447 0.0
-0.0002592991 0.0 3.2255408e-05 0.0018114266 -0.00030290065 0.0013770028 -1.7265488e-06 4.373545e-05
9.7079006e-05 0.0 3.8076832e-05 0.0 3.1709478e-06 -0.0002615495 4.373545e-05 -0.00019882363
3.2183607e-08 -8.152467e-07 -1.8095925e-06 0.0 5.696149e-06 0.0 -5.770215e-07 4.875379e-06
-8.152467e-07 3.706159e-06 -2.5517789e-08 6.463947e-07 1.4347938e-06 0.0 3.7733645e-07 0.0
2.4275382e-08 -3.865611e-06 6.463947e-07 -2.9385446e-06 -1.0833298e-08 2.744198e-07 6.0912595e-07 0.0
2.0756218e-07 0.0 -2.9353519e-08 -1.6411027e-06 2.744198e-07 -1.2475268e-06 1.5004655e-06 -3.80085e-05
-8.436697e-05 0.0 -1.0309565e-05 0.0 -4.988178e-06 0.00022730089 -3.80085e-05 0.00017278864
-2.7763778e-07 7.0328824e-06 1.5610794e-05 0.0 -2.6771322e-06 0.0 -6.3965163e-06 -4.2058484e-05
7.0328824e-06 -3.1971857e-05 1.8179696e-07 -4.6051255e-06 -1.0221933e-05 0.0 3.5384485e-06 0.0
-2.542252e-06 2.7539854e-05 -4.6051255e-06 2.0935136e-05 -5.6255894e-06 0.00014250261 0.00031631114 0.0
9.70789e-05 0.0 -8.2427605e-06 -0.000852203 0.00014250261 -0.00064782455 -1.4831198e-06 3.7569123e-05
8.339167e-05 0.0 1.2807357e-05 0.0 -2.5807833e-06 -0.00022467325 3.7569123e-05 -0.0001707912
1.0183038e-06 -2.5794794e-05 -5.7256344e-05 0.0 -4.377732e-06 0.0 1.37455445e-05 0.00015425966
-2.5794794e-05 0.00011726451 3.8461286e-07 -9.742682e-06 -2.1625705e-05 0.0 -1.0591201e-05 0.0
00000000: 5d99 bc34 714b 15b7 97b1 a5b7 0000 0000
00000010: c269 00b7 0000 0000 98d6 0836 9734 5f38
00000020: 714b 15b7 e7ac 2938 96ee 4432 17e4 9bb4
00000030: bc03 2db5 0000 0000 6ed1 73b4 0000 0000
00000040: caf6 6034 3711 e935 17e4 9bb4 142c b135
00000050: 3a2e 3b36 fa2b 94b8 8a72 24b9 0000 0000
00000060: 432d 91b8 0000 0000 eb4c 3d36 ca86 dd39
00000070: fa2b 94b8 3166 a839 736a 36b7 6866 9039
00000080: eb42 203a 0000 0000 f043 8239 0000 0000
00000090: 22b0 d8b7 35e3 d7ba 6866 9039 ce1c a4ba
000000a0: 1e38 7c34 fda7 c7b6 4e96 5db7 0000 0000
000000b0: 888e acb6 0000 0000 ecd7 11b5 e83f 1538
000000c0: fda7 c7b6 79e9 e237 8697 57b5 7ea9 aa37
000000d0: 7f68 3d38 0000 0000 f3e5 6a37 0000 0000
000000e0: a785 28b6 b126 ffb8 7ea9 aa37 b1f5 c1b8
000000f0: 158b 1237 b801 68b9 dabe 00ba 0000 0000
00000100: 7a15 3bb9 0000 0000 974e cf37 c26e ad3a
00000110: b801 68b9 e2d6 833a 849f 9534 fee1 ecb6
00000120: 9073 83b7 0000 0000 8fb0 16b6 0000 0000
00000130: 40a3 7eb6 e413 3138 fee1 ecb6 379c 0638
00000140: 7fd4 1eb7 8b75 7b39 478a 0b3a 0000 0000
00000150: 94c8 5539 0000 0000 950a ccb7 58f9 bbba
00000160: 8b75 7b39 b2e4 8eba 24de 97b6 bc6f f038
00000170: 636c 8539 0000 0000 bad9 8f38 0000 0000
00000180: 9ae2 bb37 f2bb 33ba bc6f f038 2da1 08ba
00000190: 9784 7236 10fa bfb8 6e10 55b9 0000 0000
000001a0: ec6f 8bb8 0000 0000 76e2 e736 4e82 0f3a
000001b0: 10fa bfb8 282f da39 95e3 64b2 2930 b534
000001c0: 2217 4935 0000 0000 be77 dab3 0000 0000
000001d0: dc3b 63b4 b071 07b6 2930 b534 35ec cdb5
000001e0: 39f5 3237 aaa9 8db9 3239 1dba 0000 0000
000001f0: 64de 5db9 0000 0000 123f d437 8ccb d33a
00000200: aaa9 8db9 6600 a13a d46d 2f36 8cde 8ab8
00000210: 861f 1ab9 0000 0000 87f2 25b8 0000 0000
00000220: d0f8 1fb4 659e cf39 8cde 8ab8 a6d3 9d39
00000230: ae9d 4837 a3ce 9eb9 4a40 30ba 0000 0000
00000240: 89f2 87b9 0000 0000 fb49 0738 646d ed3a
00000250: a3ce 9eb9 8c7c b43a c4bb e7b5 9570 3738
00000260: e596 cb38 0000 0000 b0b4 1f38 0000 0000
00000270: 78cc 5436 9420 89b9 9570 3738 507b 50b9
00000280: 403a 0a33 54d7 5ab5 20e1 f2b5 0000 0000
00000290: 8c21 bf36 0000 0000 9ee4 1ab5 3097 a336
000002a0: 54d7 5ab5 54b7 7836 3632 dbb2 e883 2d35
000002b0: 2493 c035 0000 0000 ba94 ca34 0000 0000
000002c0: 2186 d032 58b5 81b6 e883 2d35 d033 45b6
000002d0: 591d 3ab2 f853 9334 d182 2335 0000 0000
000002e0: 42de 5e34 0000 0000 1225 fcb2 dc43 dcb5
000002f0: f853 9334 b270 a7b5 9a63 c935 516b 1fb8
00000300: 2cee b0b8 0000 0000 3ff7 2cb7 0000 0000
00000310: 1f60 a7b6 9e57 6e39 516b 1fb8 992e 3539
00000320: 3f0e 95b4 00fc eb36 edf3 8237 0000 0000
00000330: c8a8 33b6 0000 0000 a8a1 d6b6 f467 30b8
00000340: 00fc eb36 8519 06b8 f833 4334 ba85 9ab6
00000350: de7e 2bb7 0000 0000 1576 6d36 0000 0000
00000360: 8f9b 2ab6 6305 e737 ba85 9ab6 dd9d af37
00000370: 72c3 bcb6 c16c 1539 90d6 a539 0000 0000
00000380: d696 cb38 0000 0000 634a 0ab7 6066 5fba
00000390: c16c 1539 c5d2 29ba 9c0f c7b5 8a93 1d38
000003a0: 90e2 ae38 0000 0000 2edf 5637 0000 0000
000003b0: 8531 2db6 4496 6bb9 8a93 1d38 6a16 33b9
000003c0: a7ac 8835 e661 d8b7 8826 70b8 0000 0000
000003d0: 6ee4 92b6 0000 0000 aa9c 6637 c3c0 2139
000003e0: e661 d8b7 e8eb f538 ca7c ce34 8074 23b7
000003f0: d968 b5b7 0000 0000 ddb0 31b7 0000 0000

exp_avg_sq f4 [128, 10]
8.8081457e-13 5.651896e-10 2.784694e-09 0.0 1.03242866e-10 0.0 5.9985496e-11 2.021318e-08
5.651896e-10 1.168054e-08 8.0873107e-16 5.1893586e-13 2.5568026e-12 0.0 9.646293e-14 0.0
6.739338e-14 1.8558995e-11 5.1893586e-13 1.07246425e-11 4.2500992e-11 2.727149e-08 1.3436672e-07 0.0
4.4160977e-09 0.0 3.572195e-09 9.753247e-07 2.727149e-08 5.63609e-07 8.237846e-10 5.2859514e-07
2.6043917e-06 0.0 8.87851e-08 0.0 6.33166e-08 1.8904435e-05 5.2859514e-07 1.0924257e-05
2.757296e-13 1.7692653e-10 8.7171814e-10 0.0 2.6685482e-11 0.0 2.4551423e-11 6.3275167e-09
1.7692653e-10 3.6564674e-09 2.7995505e-12 1.7963783e-09 8.850765e-09 0.0 3.0725053e-10 0.0
2.0180056e-10 6.4244865e-08 1.7963783e-09 3.7125027e-08 3.874197e-10 2.4859443e-07 1.2248263e-06 0.0
4.264061e-08 0.0 2.7940988e-08 8.890616e-06 2.4859443e-07 5.137597e-06 8.964364e-14 5.752132e-11
2.834082e-10 0.0 2.1036008e-11 0.0 8.832114e-12 2.0571664e-09 5.752132e-11 1.188771e-09
5.284171e-10 3.3906784e-07 1.6705907e-06 0.0 5.7414375e-08 0.0 3.9557026e-08 1.2126265e-05
3.3906784e-07 7.007379e-06 5.2257948e-11 3.353221e-08 1.652135e-07 0.0 6.53845e-09 0.0
3.8928727e-09 1.1992308e-06 3.353221e-08 6.9299676e-07 5.238803e-11 3.3615652e-08 1.6562473e-07 0.0
5.84236e-09 0.0 3.6846257e-09 1.2022157e-06 3.3615652e-08 6.9472094e-07 2.0358373e-15 1.3063282e-12
6.4362964e-12 0.0 1.6885628e-13 0.0 3.5964856e-13 4.671902e-11 1.3063282e-12 2.699741e-11
5.9044797e-10 3.7887094e-07 1.8666992e-06 0.0 6.449804e-08 0.0 4.338031e-08 1.354976e-05
3.7887094e-07 7.829966e-06 2.2214855e-11 1.4254517e-08 7.023217e-08 0.0 2.6437665e-09 0.0
1.5122068e-09 5.097924e-07 1.4254517e-08 2.945925e-07 8.3647705e-10 5.3673944e-07 2.6445189e-06 0.0
9.025819e-08 0.0 6.290731e-08 1.9195722e-05 5.3673944e-07 1.1092581e-05 7.795005e-12 5.0017954e-09
2.4643876e-08 0.0 7.9428875e-10 0.0 6.241072e-10 1.78882e-07 5.0017954e-09 1.0337011e-07
4.574346e-13 2.935205e-10 1.4461782e-09 0.0 6.3789474e-11 0.0 4.7827183e-11 1.0497341e-08
2.935205e-10 6.0660725e-09 1.5330386e-15 9.837006e-13 4.8467e-12 0.0 1.6429139e-13 0.0
1.1379695e-13 3.5180612e-11 9.837006e-13 2.0329743e-11 1.2159461e-15 7.8023314e-13 3.8442127e-12 0.0
1.3445137e-13 0.0 8.831861e-14 2.7903891e-11 7.8023314e-13 1.612475e-11 5.046544e-12 3.2381984e-09
1.5954628e-08 0.0 1.1357894e-09 0.0 3.511017e-10 1.15809435e-07 3.2381984e-09 6.6922546e-08
3.180075e-13 2.0405476e-10 1.0053793e-09 0.0 3.968473e-11 0.0 7.572426e-11 7.2977255e-09
2.0405476e-10 4.2171187e-09 1.5213545e-12 9.762026e-10 4.8097566e-09 0.0 3.386856e-10 0.0
7.5051694e-11 3.491248e-08 9.762026e-10 2.0174788e-08 9.066514e-11 5.817683e-08 2.8663757e-07 0.0
1.01438085e-08 0.0 6.125347e-09 2.0806108e-06 5.817683e-08 1.2023168e-06 3.5037312e-12 2.2482285e-09
1.1077035e-08 0.0 6.920947e-10 0.0 2.2471572e-10 8.040462e-08 2.2482285e-09 4.646322e-08
5.808674e-12 3.72723e-09 1.8364096e-08 0.0 8.707917e-10 0.0 5.302914e-10 1.3329895e-07
3.72723e-09 7.7029256e-08 9.347666e-13 5.998094e-10 2.9552627e-09 0.0 1.1921195e-10 0.0
00000000: 61ed 772b af5b 1b30 db5c 3f31 0000 0000
00000010: 9108 e32e 0000 0000 d5e8 832e 41a1 ad32
00000020: af5b 1b30 8fab 4832 d219 6926 4511 122b
00000030: 43eb 332c 0000 0000 1837 d929 0000 0000
00000040: a3c1 9729 243f a32d 4511 122b 7fab 3c2d
00000050: ddeb 3a2e a442 ea32 7146 1034 0000 0000
00000060: 68bc 9731 0000 0000 b87a 7531 e7e7 8235
00000070: a442 ea32 ea4a 1735 b070 6230 c8e4 0d35
00000080: 1cc7 2e36 0000 0000 20aa be33 0000 0000
00000090: abf8 8733 f794 9e37 c8e4 0d35 5447 3737
000000a0: d338 9b2a 6488 422f b69d 6f30 0000 0000
000000b0: 5dba ea2d 0000 0000 e4f4 d72d 6d69 d931
000000c0: 6488 422f 4145 7b31 3800 452c 71e4 f630
000000d0: 130e 1832 0000 0000 abe9 a82f 0000 0000
000000e0: cfe1 5d2f fdf6 8933 71e4 f630 6673 1f33
000000f0: 7afc d42f 8f76 8534 b664 a435 0000 0000
00000100: d923 3733 0000 0000 e202 f032 e828 1537
00000110: 8f76 8534 9f63 ac36 0adc c929 40fb 7c2e
00000120: 29ce 9b2f 0000 0000 e108 b92d 0000 0000
00000130: 4e60 1b2d 0e5e 0d31 40fb 7c2e 2962 a330
00000140: 0c40 1130 2109 b634 0f39 e035 0000 0000
00000150: c697 7633 0000 0000 69e5 2933 e971 4b37
00000160: 2109 b634 ed20 eb36 38d5 652e 0e05 1033
00000170: 8b65 3134 0000 0000 d0a8 e031 0000 0000
00000180: 12c2 8531 42f5 a035 0e05 1033 6006 3a35
00000190: ae67 662e cd60 1033 94d6 3134 0000 0000
000001a0: f1bd c831 0000 0000 9f34 7d31 d15b a135
000001b0: cd60 1033 dc7c 3a35 92b2 1227 6fd9 b72b
000001c0: 0175 e22c 0000 0000 821d 3e2a 0000 0000
000001d0: d276 ca2a f178 4d2e 6fd9 b72b c378 ed2d
000001e0: 154d 2230 a067 cb34 4c8b fa35 0000 0000
000001f0: 2c82 8a33 0000 0000 2851 3a33 c753 6337
00000200: a067 cb34 735d 0337 6867 c32d 07e4 7432
00000210: 8bd2 9633 0000 0000 a2ad 3531 0000 0000
00000220: 0cd6 cf30 abd8 0835 07e4 7432 7c28 9e34
00000230: d7ed 6530 7414 1035 7d78 3136 0000 0000
00000240: f7d3 c133 0000 0000 a917 8733 8006 a137
00000250: 7414 1035 461a 3a37 9521 092d 42dc ab31
00000260: 75b0 d332 0000 0000 1a55 5a30 0000 0000
00000270: a48d 2b30 b612 4034 42dc ab31 52fc dd33
00000280: a3c1 002b 575d a12f dfc2 c630 0000 0000
00000290: 4846 8c2e 0000 0000 9f58 522e cb57 3432
000002a0: 575d a12f bd6d d031 24ef dc26 8d71 8a2b
000002b0: 3187 aa2c 0000 0000 c5f9 382a 0000 0000
000002c0: bd1f 002a d9b9 1a2e 8d71 8a2b 83d2 b22d
000002d0: 7e3c af26 b99d 5b2b 9741 872c 0000 0000
000002e0: f860 172a 0000 0000 36e0 c629 fa71 f52d
000002f0: b99d 5b2b b6d5 8d2d 3a8f b12c fd86 5e31
00000300: 990c 8932 0000 0000 091a 9c30 0000 0000
00000310: 2c05 c12f e9b2 f833 fd86 5e31 0fb7 8f33
00000320: b605 b32a 4f5c 602f a42d 8a30 0000 0000
00000330: 0989 2e2e 0000 0000 f884 a62e 79bf fa31
00000340: 4f5c 602f 2be6 9031 931c d62b 132b 8630
00000350: 1143 a531 0000 0000 c331 ba2f 0000 0000
00000360: 590a a52e adf2 1533 132b 8630 d44c ad32
00000370: f05f c72e 1ade 7933 2be3 9934 0000 0000
00000380: f144 2e32 0000 0000 1f77 d231 9fa0 0b36
00000390: 1ade 7933 4a5f a135 9c8d 762c 417f 1a31
000003a0: 514d 3e32 0000 0000 d63d 3e30 0000 0000
000003b0: da13 772f e8aa ac33 417f 1a31 da8e 4733
000003c0: e25f cc2c 1011 8031 13bf 9d32 0000 0000
000003d0: 855c 6f30 0000 0000 f1c3 1130 f020 0f34
000003e0: 1011 8031 486b a533 848e 832b d6df 2430
000003f0: 8815 4b31 0000 0000 2e13 032f 0000 0000

exp_avg f4 [128]
-5.85438e-06 -1.9103261e-07 -4.6482775e-05 0.00018119815 -3.9146175e-06 1.3384547e-05 -0.00014556505 -4.644512e-06
0.00015776989 7.5427e-05 -6.0224786e-05 2.2203236e-07 -0.00017776327 -4.3564498e-05 -0.00019927675 2.8773318e-05
-5.363469e-07 4.2525977e-07 1.8053936e-07 -2.5005596e-05 4.6268965e-06 -3.0296867e-06 9.375171e-05 2.4716526e-05
-1.6970262e-05 -6.4096594e-06 5.013727e-06 3.1112959e-06 -4.2941767e-05 0.0001548807 -1.5479882e-05 -0.00011256641
5.519103e-06 -3.3183762e-06 0.00014139288 -6.7520414e-05 -9.583199e-09 4.200572e-06 0.00015061861 -0.00022163069
-3.4255993e-06 0.00010046089 1.4510789e-05 5.7572533e-06 6.764838e-05 -5.642213e-06 1.531557e-07 -6.6160974e-06
0.00011317695 -0.00015927614 -0.00010683251 -2.1585001e-05 9.660384e-05 4.887732e-05 6.1476567e-06 3.5532434e-05
3.9133658e-05 -1.4947951e-05 -0.000106861495 -1.9834508e-05 3.1817876e-06 4.222936e-06 9.579471e-06 2.2048534e-05
-4.1409862e-08 8.439484e-08 6.051519e-06 1.4831923e-05 -1.3481054e-05 6.548497e-08 -7.3493734e-06 -6.0496357e-05
9.063109e-06 3.3232582e-06 8.337443e-06 4.9402675e-05 -3.9599054e-06 -7.857689e-06 1.040519e-05 0.00014232958
0.00013545214 1.0300109e-06 -1.5888792e-05 8.5199616e-05 -0.000119234835 3.3197216e-06 5.1031224e-05 7.779036e-06
1.0054616e-05 -8.915503e-06 7.866406e-06 -1.1737994e-06 1.5181686e-06 -3.0806652e-06 4.182411e-07 -0.0001171028
-3.4772988e-06 -4.0648833e-06 -5.491608e-06 1.0528151e-07 0.00020087203 -0.00016367962 -0.00010884274 -4.630038e-05
-1.11394465e-05 -4.523791e-06 -3.9694645e-05 -1.2125755e-06 0.00016079078 -7.4975314e-06 6.8480244e-06 -1.2675758e-05
0.00012333343 -5.550353e-07 -7.220067e-06 1.784371e-05 -1.5584899e-06 6.465802e-05 -4.5944307e-06 -9.46894e-07
2.7920062e-06 -3.5160106e-08 -6.8268026e-05 -5.155604e-07 0.00016525325 0.0001855232 -7.186576e-05 0.00020660726
00000000: be70 c4b6 a51e 4db4 80f6 42b8 0200 3e39
00000010: 4f5a 83b6 318e 6037 d2a2 18b9 0ed8 9bb6
00000020: 086f 2539 902e 9e38 df99 7cb8 ca67 6e34
00000030: f765 3ab9 06b9 36b8 f2f4 50b9 3b5e f137
00000040: 7af9 0fb5 424f e434 48da 4134 1cc3 d1b7
00000050: bd40 9b36 9f51 4bb6 919c c438 5656 cf37
00000060: 5c5b 8eb7 8e12 d7b6 963b a836 a8cb 5036
00000070: 5f1c 34b8 7967 2239 cbda 81b7 a211 ecb8
00000080: bc30 b936 45b1 5eb6 dd42 1439 bf99 8db8
00000090: 5ba3 24b2 a4f2 8c36 60ef 1d39 8965 68b9
000000a0: 59e3 65b6 88ae d238 5d73 7337 6e2e c136
000000b0: 73de 8d38 3e52 bdb6 1e73 2434 d8ff ddb6
000000c0: 6a59 ed38 5d03 27b9 440b e0b8 7011 b5b7
000000d0: cb97 ca38 9f01 4d38 f847 ce36 a908 1538
000000e0: 7223 2438 f6c8 7ab7 d41a e0b8 4862 a6b7
000000f0: b286 5536 beb2 8d36 84b7 2037 def4 b837
00000100: a0da 31b3 8e3c b533 270e cb36 a0d6 7837
00000110: b02c 62b7 bea0 8c33 a39a f6b6 78bd 7db8
00000120: c20d 1837 2405 5f36 0ce1 0b37 b835 4f38
00000130: 54df 84b6 84d4 03b7 f391 2e37 4e3e 1539
00000140: 2808 0e39 e83e 8a35 ec48 85b7 32ad b238
00000150: b70d fab8 62c8 5e36 5c0a 5638 b582 0237
00000160: 3fb0 2837 cb93 15b7 f5f9 0337 718b 9db5
00000170: e0c3 cb35 6dbd 4eb6 9e8a e034 1695 f5b8
00000180: 8a5b 69b6 1565 88b6 8e44 b8b6 1f17 e233
00000190: 2da1 5239 6aa1 2bb9 8042 e4b8 a832 42b8
000001a0: 8fe3 3ab7 12cb 97b6 cd7d 26b8 c7bf a2b5
000001b0: f299 2839 4e93 fbb6 15c8 e536 f7a9 54b7
000001c0: 1153 0139 bcfd 14b5 e743 f2b6 13af 9537
000001d0: 4e2d d1b5 0399 8738 dc29 9ab6 0f2e 7eb5
000001e0: 4d5e 3b36 f202 17b3 1e2b 8fb8 0a65 0ab5
000001f0: d547 2d39 0189 4239 a3b6 96b8 b7a4 5839

exp_avg_sq f4 [128]
2.4462837e-10 2.2460877e-13 1.18037935e-08 2.2878936e-07 7.6578306e-11 7.7751877e-10 1.0759791e-07 2.489671e-11
1.4675713e-07 1.45135965e-08 1.4549715e-08 5.6541317e-13 1.6398496e-07 6.1697203e-09 2.323145e-07 2.1649051e-09
1.2704325e-10 4.2577075e-13 3.3770458e-13 1.4015747e-09 8.832014e-11 4.2252524e-10 2.5180409e-08 9.730906e-10
1.6132413e-09 2.5961264e-10 1.4090146e-10 9.75648e-10 2.1546082e-08 9.116768e-08 1.453876e-09 8.058334e-08
1.72331e-10 9.197758e-10 7.0372224e-08 2.033487e-08 1.6742646e-16 1.4215805e-10 1.0304596e-07 2.3081564e-07
7.456765e-11 3.9275292e-08 1.8099992e-09 2.939208e-10 8.477426e-09 7.596655e-10 1.169665e-13 2.8006084e-10
7.246235e-08 1.5460921e-07 3.7533233e-08 3.899187e-09 5.1315972e-08 1.6457086e-08 8.877665e-11 8.6626315e-09
4.7675472e-09 1.1455363e-09 1.1508793e-07 1.9707542e-09 7.38965e-10 1.0059957e-10 6.33199e-10 7.433249e-10
3.2593265e-14 1.8605023e-14 5.007648e-10 4.6694515e-10 7.85956e-09 9.711334e-15 5.199926e-10 1.467989e-08
4.8047455e-10 1.7155395e-10 3.3950036e-09 5.271153e-09 8.508001e-10 2.076212e-10 1.985768e-10 1.178848e-07
1.0692711e-07 5.5283434e-11 8.96862e-09 1.7466494e-08 8.38188e-08 2.5432729e-11 4.7758113e-09 1.8939943e-09
1.2427605e-09 4.905808e-10 3.0722175e-10 6.011497e-12 5.6952162e-11 5.099289e-11 1.0266542e-12 6.099328e-08
4.023576e-11 1.1187064e-10 6.2144095e-11 1.4123186e-13 1.9666446e-07 1.4167902e-07 8.159183e-08 1.0050287e-08
1.9775708e-09 2.646541e-10 1.1113733e-08 4.8210607e-12 1.5529413e-07 5.6530414e-10 2.3096755e-10 4.4351053e-10
8.0317385e-08 1.6727757e-12 1.4328067e-10 1.0079722e-09 1.8665496e-11 2.1384583e-08 3.5008668e-10 3.597316e-12
4.5416473e-10 7.0424745e-14 2.8679503e-08 4.0462785e-12 1.1202233e-07 1.396225e-07 4.2648985e-08 2.5350437e-07
00000000: 627c 862f 12e3 7c2a a2c9 4a32 24a9 7534
00000010: c165 a82e 05b9 5530 9410 e733 68fe da2d
00000020: 4b94 1d34 7957 7932 53f6 7932 5026 1f2b
00000030: d813 3034 6ffd d331 2072 7934 6ac5 1431
00000040: 7faf 0b2f 08b0 ef2a 5c1c be2a 87a1 c030
00000050: d237 c22e 2449 e82f 4e4c d832 95bd 8530
00000060: e2b8 dd30 3bb9 8e2f 3cec 1a2f 9017 8630
00000070: 5614 b932 f6c7 c333 b7d1 c730 290d ad33
00000080: dd7a 3d2f 78d3 7c30 8a1f 9733 daac ae32
00000090: 9207 4125 ef4d 1c2f 1e4a dd33 1fd6 7734
000000a0: dbf9 a32e a4af 2833 afc3 f830 ad95 a12f
000000b0: 1da4 1132 b5d0 5030 4cb1 032a 0ff7 992f
000000c0: 999c 9b33 a802 2634 3a34 2133 9df9 8531
000000d0: 8266 5c33 845d 8d32 d038 c32e a8d2 1432
000000e0: cacf a331 fa70 9d30 4226 f733 e06d 0731
000000f0: 0a20 4b30 8638 dd2e 6b0d 2e30 d752 4c30
00000100: 7ac9 1229 4394 a728 31a6 0930 585a 0030
00000110: b606 0732 a0f1 2e28 3aef 0e30 d732 7c32
00000120: 6412 0430 25a0 3c2f 894d 6931 8d1d b531
00000130: bcdd 6930 2c48 642f 6656 5a2f db27 fd33
00000140: cd9f e533 9d23 732e 6814 1a32 3a09 9632
00000150: dfff b333 6ab5 df2d 7b18 a431 8027 0231
00000160: bfcd aa30 8ed9 0630 9ee5 a82f c082 d32c
00000170: 6f7a 7a2e e444 602e 1e7d 902b 69fb 8233
00000180: 70f5 302e 9201 f62e 04a8 882e 5003 1f2a
00000190: b72a 5334 6f20 1834 9537 af33 a1a9 2c32
000001a0: cbe5 0731 c17e 912f b7ee 3e32 41a0 a92c
000001b0: edbe 2634 be63 1b30 96f3 7d2f 8fd2 f32f
000001c0: f37a ac33 196c eb2b ec89 1d2f de88 8a30
000001d0: f62e a42d 32b1 b732 5276 c02f 7c23 7d2c
000001e0: 01ae f92f 1a95 9e29 e55a f632 a35d 8e2c
000001f0: ed90 f033 24eb 1534 0e2d 3733 6019 8834

exp_avg f4 [128, 128]
-2.0287003e-05 -1.1642376e-06 8.743371e-05 4.2058688e-05 -8.699864e-06 -2.1060676e-05 0.00057496864 -3.137859e-05
0.00051215914 -1.7192493e-05 0.0011376743 -3.994212e-06 0.0004020686 0.00048772086 0.000105029045 0.00023243968
-3.3271193e-05 -2.3626956e-06 -1.449805e-06 0.00046590378 -3.0731473e-05 -3.1958865e-05 0.0002696562 -1.6932192e-05
0.00037207323 -2.4003646e-05 -2.0541867e-05 0.0017817438 -1.8070099e-05 0.00047447963 -2.807853e-05 1.47483925e-05
-1.361297e-05 -3.017221e-05 0.00036884536 0.00012915094 -5.3058265e-08 -9.4320485e-06 0.00040218062 9.658764e-05
-1.8638773e-05 0.00089740125 -3.0171026e-05 -1.1823456e-06 1.1728198e-05 -2.6906986e-05 -2.6937136e-07 -2.9615783e-05
5.7275523e-05 0.0009451674 0.0010207182 -2.9281586e-05 0.0006594027 -2.1976593e-06 6.8553436e-07 6.4912834e-05
2.0104708e-05 0.0003508209 0.00016567935 -2.0257397e-05 -3.256285e-05 -2.064515e-05 -2.9970226e-05 0.00019616599
-5.8608117e-07 -3.546745e-07 0.0007087786 -2.2418511e-05 -1.4887895e-05 -2.890401e-07 -1.1952225e-05 0.0008534988
-3.0783605e-05 -3.0169716e-05 0.00045383058 7.4673153e-06 -3.392653e-05 -2.8110644e-05 0.00010688045 0.0002676286
-2.289693e-06 -3.284165e-05 0.0004870594 0.0007428984 0.00018252654 -2.189581e-05 0.0005502249 8.189284e-05
-3.1503027e-05 -2.5493606e-05 -1.5476988e-05 -1.3475114e-06 -3.20517e-05 -1.3390738e-05 -4.22593e-06 0.00046277334
-9.356983e-06 -8.195029e-06 -2.2468843e-05 -3.735958e-07 0.00031305198 0.00030991674 0.000567045 0.00025161987
5.5525772e-05 -2.5275174e-05 0.00011641484 -1.712404e-05 0.0004535399 -3.0605253e-05 -1.9537e-05 -3.026033e-05
0.00074192684 -5.2575507e-07 -9.420626e-06 1.3181567e-05 -1.2537675e-05 0.0006568519 -5.146326e-06 -8.336707e-07
-1.3626834e-06 -2.8521814e-07 0.00015392626 -1.0191155e-06 0.00070186635 0.00028707075 0.0005256787 0.0006573294
4.3673244e-05 2.0531659e-06 -0.00018960774 -6.845632e-05 1.9020072e-05 3.931334e-05 -0.0011898773 6.407705e-05
-0.0010339839 2.7476384e-05 -0.002370384 3.7351751e-06 -0.00089379767 -0.0010094112 -0.0001930535 -0.00041175983
7.013453e-05 4.394265e-06 3.304507e-06 -0.0010482767 6.1599276e-05 7.9121746e-05 -0.000420673 2.8415834e-05
-0.0007362505 4.9078993e-05 4.2416563e-05 -0.003632938 6.8031135e-05 -0.00089173217 5.6962162e-05 -1.1134287e-05
2.8718046e-05 6.464125e-05 -0.0007607984 -0.00027103577 1.1815691e-07 1.7098826e-05 -0.00078154885 -0.0002257431
3.245735e-05 -0.0018428526 6.537424e-05 2.3269995e-06 -3.6310033e-05 6.4757245e-05 4.837782e-07 5.9908918e-05
-0.00015163151 -0.0019399134 -0.00211204 6.271061e-05 -0.0013703324 1.556074e-06 2.1782762e-06 -0.00013682184
-4.731227e-05 -0.0006090071 -0.00033276255 4.2429572e-05 7.146834e-05 4.284135e-05 6.498564e-05 -0.00045901194
1.2140565e-06 7.84642e-07 -0.0014241724 4.157679e-05 5.0997845e-05 6.8789143e-07 2.3312406e-05 -0.0017430838
6.3028885e-05 6.030274e-05 -0.00093134877 -3.0340387e-05 7.408929e-05 5.5303513e-05 -0.00021328422 -0.0005998076
7.15026e-06 6.989064e-05 -0.0009881965 -0.0015450483 -0.00028309107 4.9523296e-05 -0.0010892327 -0.00018952382
6.4968524e-05 5.493597e-05 3.169457e-05 2.8203247e-06 6.899907e-05 2.749017e-05 6.0031234e-06 -0.0010109134
2.0913378e-05 1.7372124e-05 4.1600273e-05 7.5622137e-07 -0.0006177133 -0.0005809273 -0.0011845932 -0.0004354503
-0.00014417738 5.8824735e-05 -0.00028759066 3.9633254e-05 -0.0010198365 6.940326e-05 4.0895266e-05 6.0959923e-05
-0.0015241813 9.835832e-07 2.194928e-05 -2.647334e-05 2.1836895e-05 -0.0013424784 6.750916e-06 1.7221678e-06
-2.5598383e-06 5.465372e-07 -0.00029848772 1.9984368e-06 -0.0014345647 -0.00064549106 -0.0011137539 -0.0013938397
00000000: 022e aab7 e642 9cb5 9e5c b738 2c68 3038
00000010: a2f5 11b7 75ab b0b7 7eb9 163a 819c 03b8
00000020: 6b42 063a 9938 90b7 041e 953a 0506 86b6
00000030: bccc d239 c9b4 ff39 0a43 dc38 0dbb 7339
00000040: ac8c 0bb8 cd8e 1eb6 ec96 c2b5 8c44 f439
00000050: abe5 00b8 920b 06b8 a460 8d39 9b09 8eb7
00000060: d312 c339 705b c9b7 5351 acb7 6789 e93a
00000070: 3e95 97b7 94c3 f839 2f8a ebb7 dd6f 7737
00000080: 4363 64b7 541a fdb7 9661 c139 b16c 0739
00000090: 2ee2 63b3 573e 1eb7 c5db d239 188f ca38
000000a0: 765a 9cb7 943f 6b3a c917 fdb7 16b1 9eb5
000000b0: 3ac4 4437 50b6 e1b7 1e9e 90b4 696f f8b7
000000c0: 203b 7038 1cc5 773a 9fc9 853a baa1 f5b7
000000d0: c4db 2c3a 807b 13b6 9005 3835 d021 8838
000000e0: 88a6 a837 62ee b739 36ba 2d39 6eee a9b7
000000f0: 1894 08b8 1f2f adb7 9268 fbb7 e8b1 4d39
00000100: 3153 1db5 186a beb4 54cd 393a 630f bcb7
00000110: 06c7 79b7 5e2d 9bb4 6a86 48b7 56bd 5f3a
00000120: a51d 01b8 f914 fdb7 1cf0 ed39 c08f fa36
00000130: 564c 0eb8 26cf ebb7 0125 e038 8150 8c39
00000140: a0a8 19b6 74bf 09b8 025c ff39 11bf 423a
00000150: 9864 3f39 e5ac b7b7 f83c 103a e2bd ab38
00000160: 1e22 04b8 1adb d5b7 94d4 81b7 24dc b4b5
00000170: 406f 06b8 c8a8 60b7 76cc 8db6 63a0 f239
00000180: f0fb 1cb7 627d 09b7 797b bcb7 9e92 c8b4
00000190: 2021 a439 527c a239 bfa5 143a d9eb 8339
000001a0: 58e4 6838 0606 d4b7 be23 f438 99a5 8fb7
000001b0: 18c9 ed39 245e 00b8 63e3 a3b7 90d7 fdb7
000001c0: de7d 423a 9d21 0db5 480d 1eb7 6626 5d37
000001d0: e758 52b7 9630 2c3a 9bae acb6 6ac9 5fb5
000001e0: 72e5 b6b5 1520 99b4 4467 2139 8bc8 88b5
000001f0: 74fd 373a fc81 9639 b3cd 093a a150 2c3a
00000200: ca2d 3738 1fc9 0936 71d1 46b9 3590 8fb8
00000210: 4b8d 9f37 61e4 2438 a8f5 9bba 1b61 8638
00000220: be86 87ba 167d e637 7258 1bbb d2a9 7a36
00000230: bf4d 6aba 384e 84ba 686e 4ab9 78e1 d7b9
00000240: 3015 9338 7372 9336 ffc2 5d36 5466 89ba
00000250: dc2e 8138 2aee a538 c68d dcb9 8a5e ee37
00000260: ef00 41ba 2bda 4d38 70e8 3138 9616 6ebb
00000270: f0ab 8e38 22c3 69ba a8ea 6e38 66cd 3ab7
00000280: 89e7 f037 0290 8738 5170 47ba ce19 8eb9
00000290: 73bd fd33 736f 8f37 dbe0 4cba 74b5 6cb9
000002a0: d022 0838 df8b f1ba 8719 8938 8c29 1c36
000002b0: 9a4b 18b8 48ce 8738 fcdc 0135 b646 7b38
000002c0: 46ff 1eb9 b144 feba 276a 0abb 8183 8338
000002d0: ba9c b3ba 4cda d035 802e 1236 d577 0fb9
000002e0: 2a71 46b8 c6a5 1fba a276 aeb9 68f6 3138
000002f0: 46e1 9538 8db0 3338 e648 8838 8aa7 f0b9
00000300: aaf2 a235 30a0 5235 4cab baba bd62 2e38
00000310: 85e6 5538 8aa7 3835 038f c337 3078 e4ba
00000320: 602e 8438 93ed 7c38 c225 74ba 7c83 feb7
00000330: 6260 9b38 b2f5 6738 0ca5 5fb9 683c 1dba
00000340: 44ec ef36 4092 9238 5f86 81ba 3883 caba
00000350: d76b 94b9 3cb7 4f38 96c4 8eba eaba 46b9
00000360: b63f 8838 0c6b 6638 c9ef 0438 cf44 3d36
00000370: 98b3 9038 b19a e637 706e c936 a080 84ba
00000380: 236f af37 5aba 9137 f47b 2e38 23ff 4a35
00000390: 0aee 21ba 5f49 18ba 5a44 9bba 264d e4b9
000003a0: 522e 17b9 94ba 7638 c4c7 96b9 e23b 2638
000003b0: 09ac 85ba 978c 9138 f586 2b38 38af 7f38
000003c0: 0ac7 c7ba a903 8435 b81f b837 1113 deb7
000003d0: 602e b737 1af6 afba ed85 e236 3c25 e735
000003e0: b0c9 2bb6 c0b5 1235 587e 9cb9 e21c 0636
000003f0: 0108 bcba 2c36 29ba 61fb 91ba 80b1 b6ba
