results/ppo/My Behavior/My Behavior-999977.onnx (onnx, 270443 bytes, 12 tensors)

action_model._discrete_distribution.branches.0.bias f4 [2]
0	0xbc573e93	-0.013137477
1	0x3c573e9f	0.013137489

action_model._discrete_distribution.branches.0.weight f4 [2, 128]
0	0xbd452db7	-0.0481393
1	0xbc865391	-0.01639727
2	0xbc93dc5d	-0.018049413
3	0xbcfa8d34	-0.030584909
4	0xbcc49df4	-0.0240011
5	0xbb410c6e	-0.0029456872
6	0xbd16fd25	-0.03686251
7	0xbce920bd	-0.028457994
8	0xbc999462	-0.018747512
9	0xbd165df3	-0.03671069
10	0xbd208e9f	-0.039198514
11	0xbcd71900	-0.026257038
12	0xbd3e8095	-0.046509344
13	0xbcd58a5a	-0.026066948
14	0x3c67ab64	0.014139984
15	0xbcc39c8b	-0.023878356
16	0xbc841355	-0.0161225
17	0xbbcdb69e	-0.006277873
18	0xbd17dd42	-0.037076242
19	0xbd26e2f4	-0.040743783
20	0xbca64553	-0.020296728
21	0xbcdabae5	-0.026700446
22	0xbd21bdbb	-0.03948758
23	0xbcc5fdb3	-0.024168825
24	0xbcdf17f8	-0.027233109
25	0xbcc26a52	-0.023732338
26	0xbc85caa7	-0.016331984
27	0xbd09e968	-0.03366986
28	0xbc81e22e	-0.015854921
29	0xbc99e4f2	-0.018785927
30	0xbc872f32	-0.016501997
31	0xbc0cdee6	-0.008598065
32	0x3c3c88cd	0.011507225
33	0xbcd9de5d	-0.026595289
34	0xbd25381c	-0.040336713
35	0xbc5590da	-0.013035024
36	0xbcaa00a7	-0.020752264
37	0xbcb285db	-0.021792343
38	0x3d4c7dac	0.049924538
39	0xbbf709e2	-0.00753902
40	0xbd105c72	-0.035244413
41	0xbca8e01d	-0.020614678
42	0xbc4c8a99	-0.012484216
43	0xbcd6ec35	-0.02623568
44	0xbca820e3	-0.020523494
45	0xbccb2871	-0.024799557
46	0xbd13cf33	-0.036086272
47	0x3d657d5b	0.05602775
48	0xbcb80da3	-0.02246744
49	0xbb8aae7e	-0.004232227
50	0xbcdc966d	-0.026927197
51	0xbcc796da	-0.024363924
52	0xbc9c174d	-0.01905408
53	0xbd05710b	-0.03257851
54	0xbd886561	-0.066599615
55	0xbd40a715	-0.04703434
56	0xbd1fea64	-0.03904189
57	0x3d67b512	0.056569166
58	0xbcbaab68	-0.022786811
59	0xbcfa940c	-0.030588172
60	0x3b18a2f1	0.002329048
61	0xbca74fc1	-0.020423772
62	0xbd0a968b	-0.033834975
63	0xbcfb1281	-0.030648472
64	0xbd190b35	-0.037364203
65	0xbd1763b4	-0.03696032
66	0xbcf65f1a	-0.030074645
67	0xbc3cee5a	-0.011531437
68	0xbd2816d5	-0.0410374
69	0xbd42528a	-0.047441997
70	0xbccb76f4	-0.024836995
71	0xbd1618fa	-0.036644913
72	0xbd07802b	-0.033081215
73	0xbd0ef775	-0.034903962
74	0xbcd8f4a9	-0.02648385
75	0xbbe50e9c	-0.006990267
76	0xbc1c5450	-0.009541586
77	0xbd7024c9	-0.05862883
78	0xbc278385	-0.010224228
79	0xbca8ed2b	-0.020620903
80	0xbb28ef12	-0.0025777263
81	0xbd312536	-0.043248378
82	0xbc2b35d9	-0.01044985
83	0xbce5c1d1	-0.02804652
84	0xbcf66f03	-0.030082231
85	0xbcdee21b	-0.027207425
86	0xbd02023a	-0.031740405
87	0x3c812128	0.01576288
88	0x3d999e6a	0.07500918
89	0xbcc3495f	-0.023838697
90	0x3da2e953	0.07954659
91	0xbc85aa58	-0.016316578
92	0xbb8be266	-0.004268932
93	0xbd0ec35d	-0.03485428
94	0xbc9c8c6d	-0.019109929
95	0xbcb60a84	-0.022221811
96	0xbc1631cc	-0.009167146
97	0xbc8243cc	-0.015901469
98	0xbcddf5d1	-0.027094753
99	0xbd10c324	-0.03534235
100	0xbd4d4501	-0.050114635
101	0xbc57fbcf	-0.013182594
102	0xbc2cd5c4	-0.010549013
103	0xbca709cf	-0.02039042
104	0x3bee3a7b	0.007270155
105	0xbc2136f2	-0.00983976
106	0xbc8a2d26	-0.016867232
107	0xbd43a7f2	-0.047767587
108	0xbd110e4e	-0.035414033
109	0xbce36f00	-0.02776289
110	0xbd1b20ca	-0.037873067
111	0xbd084d4f	-0.033276852
112	0xbcaf7e91	-0.021422656
113	0xbd0f7729	-0.03502575
114	0xbc928ea8	-0.01789029
115	0xbd36a314	-0.044589117
116	0xbcfd85f5	-0.030947665
117	0xbc8b163f	-0.016978381
118	0xbc6e5861	-0.014547438
119	0xbccec45f	-0.025240121
120	0xbcc3163b	-0.023814311
121	0xbd0865bb	-0.033300143
122	0xbcd737dc	-0.026271753
123	0xbcea15cb	-0.028574845
124	0xbc91f3b1	-0.017816396
125	0xbce6fb13	-0.028195893
126	0xbbe4eeef	-0.006986491
127	0xbb2b52a1	-0.002614178
128	0x3d26d535	0.040730674
129	0x3ccdc481	0.025118114
130	0x3cbd56d4	0.023112692
131	0x3d15d16f	0.036576685
132	0x3cc546de	0.024081644
133	0x3c6d5c40	0.014487326
134	0x3cd16d39	0.025564777
135	0x3cb3196c	0.021862708
136	0x3d00f34c	0.031482026
137	0x3d2640c1	0.040589098
138	0x3d05504d	0.032547284
139	0x3c7e3db3	0.01551764
140	0x3cc5d7b6	0.02415071
141	0x3d10055b	0.035161357
142	0xbc92eadc	-0.017934255
143	0x3c897640	0.016780019
144	0x3ca0c4d8	0.019625112
145	0x3cea2cf1	0.028585883
146	0x3d1b0861	0.037849788
147	0x3d07917b	0.033097725
148	0x3cad9840	0.021190763
149	0x3cdbfc8f	0.026853828
150	0x3d30eb96	0.043193422
151	0x3bfa11bd	0.007631509
152	0x3cfd270d	0.03090241
153	0x3ce0eeb6	0.027457576
154	0x3cdbb423	0.026819294
155	0x3cf63beb	0.030057868
156	0x3c6cfa54	0.01446398
157	0x3c9cd258	0.019143268
158	0x3cec9ac0	0.028882384
159	0x3c096550	0.008385971
160	0x3ab5807b	0.0013847494
161	0x3ce438e4	0.027859159
162	0x3cbca9c7	0.023030175
163	0x3d0f2acb	0.03495292
164	0x3b1843aa	0.002323369
165	0x3bf3dc5e	0.0074420413
166	0xbd32cac8	-0.04365042
167	0x3c48cb7f	0.0122555485
168	0x3cd414a9	0.025888758
169	0x3cc8670c	0.0244632
170	0x3ca2d131	0.01987514
171	0x3d441f33	0.047881316
172	0x3cab6804	0.020923622
173	0x3cdab8b1	0.026699396
174	0x3d265b94	0.04061468
175	0xbd570973	-0.052499246
176	0x3d0305ff	0.03198814
177	0x3c7311e2	0.014835807
178	0x3be8a418	0.0070996396
179	0x3ce63514	0.028101481
180	0x3d0589e6	0.032602213
181	0x3cc56aae	0.02409872
182	0x3d41e657	0.04733881
183	0x3d02d613	0.03194244
184	0x3d35c39b	0.044375997
185	0xbd43b829	-0.04778305
186	0xbbc791fa	-0.0060904
187	0x3c555540	0.013020813
188	0x3b25433f	0.0025217084
189	0x3bd09827	0.006365794
190	0x3d11fb23	0.035639893
191	0x3ccd2591	0.025042327
192	0x3c8ba8b3	0.017048215
193	0x3d494691	0.049139563
194	0x3d1877c5	0.037223596
195	0x3c8d917f	0.017281292
196	0x3cc1bc11	0.023649247
197	0x3d589962	0.052880652
198	0x3c941faa	0.018081505
199	0x3cb41969	0.021984773
200	0x3d078163	0.033082377
201	0x3d55c224	0.0521871
202	0x3cff21b5	0.031144002
203	0x3c44f58a	0.012021432
204	0x3cf35ebc	0.029708259
205	0x3d39abab	0.04532973
206	0x3cb5f622	0.022212092
207	0x3cd69f30	0.026198953
208	0xbc4921fc	-0.012276169
209	0x3cda0526	0.026613783
210	0x3d102a56	0.035196625
211	0x3cab1949	0.02088608
212	0x3cd3c703	0.025851732
213	0x3ccf512a	0.025307257
214	0x3d00675c	0.03134857
215	0xbcb4bb28	-0.0220619
216	0xbdb99d33	-0.090631865
217	0x3cd96ddb	0.026541641
218	0xbd9de977	-0.077105455
219	0x3c8eba53	0.01742283
220	0xbb191db4	-0.0023363652
221	0x3c627705	0.013822322
222	0x3cdc9deb	0.02693077
223	0x3bcac069	0.006187488
224	0xbc1e2e06	-0.0096545275
225	0x3c12351f	0.008923798
226	0x3cdacb9d	0.026708419
227	0x3d6cf3be	0.05784964
228	0x3d09d244	0.03364779
229	0x3cadc4ca	0.021212
230	0x3c105a7f	0.008810638
231	0x3c643e19	0.013930821
232	0x3b89f865	0.004210519
233	0x3bef0cf9	0.0072952476
234	0x3b827322	0.00398101
235	0x3cf98da9	0.030463057
236	0x3c3d5214	0.0115552135
237	0x3c85431e	0.016267356
238	0x3bf7b923	0.007559912
239	0x3cc99ca4	0.024610825
240	0x3c75fd7e	0.0150140505
241	0x3d2680cb	0.04065017
242	0x3d094295	0.033510763
243	0x3cc812f4	0.0244231
244	0x3cefa64c	0.029254101
245	0x3cdc001a	0.026855517
246	0x3cb6bebe	0.02230775
247	0x3d242789	0.040076766
248	0x3cfa6240	0.030564427
249	0x3c6685d1	0.01406999
250	0x3c649a7d	0.0139528485
251	0x3c2016cf	0.009771063
252	0x3cf1be44	0.029509671
253	0x3d117fb1	0.035522167
254	0x3bf76c84	0.007550778
255	0x3c352696	0.011056563

network_body._body_endoder.seq_layers.0.bias f4 [128]
0	0x3e1d6def	0.15373968
1	0xbe00633d	-0.12537856
2	0xbe06bfaf	-0.13159059
3	0xbdd3f9e8	-0.103504
4	0xbb20d47c	-0.0024540713
5	0xbdf7cfe8	-0.12100202
6	0xbc81f067	-0.015861703
7	0xbd8c08c6	-0.06837611
8	0xbc9d33f6	-0.019189816
9	0xbcd9f238	-0.026604757
10	0xbc8a2f41	-0.016868236
11	0x3cebd160	0.028786361
12	0x3a5f7df4	0.00085255434
13	0xbc7ecb7e	-0.015551446
14	0x3cb94ed1	0.02262059
15	0xbda189e4	-0.07887629
16	0xbd13230e	-0.035922103
17	0xbd9540c0	-0.07287741
18	0xbce39c9c	-0.027784638
19	0xbe39c38e	-0.18141004
20	0xbcecdb8a	-0.028913278
21	0xbdea6eb7	-0.114468984
22	0xbd333fbc	-0.043761954
23	0xbe5237d4	-0.20529109
24	0xbe04d3a3	-0.12971358
25	0xbce1f268	-0.027581409
26	0xbd9e688b	-0.07734784
27	0xbe3daa08	-0.18521893
28	0xbe033969	-0.12814869
29	0xbe16a355	-0.14710744
30	0xbb1481ad	-0.00226603
31	0x3d44dc95	0.048061926
32	0xbe08f28c	-0.13373774
33	0xbda37d98	-0.079829395
34	0xbc7001b4	-0.014648844
35	0xbd31f501	-0.043446545
36	0xbc94bd1c	-0.01815658
37	0xbe03e77f	-0.12881278
38	0xbe1a00a4	-0.15039307
39	0xbd91f6ae	-0.071271285
40	0x3cf2a987	0.029621853
41	0xbca58888	-0.020206705
42	0x3d14c7d9	0.036323402
43	0xbdfed630	-0.12443197
44	0xbb2ec112	-0.0026665372
45	0x3b9b1120	0.004732266
46	0xbdc958d2	-0.09831394
47	0xbd42fafa	-0.04760263
48	0xbd11dd5f	-0.035611507
49	0xbd47f47a	-0.048817135
50	0xbddf9dbc	-0.10918757
51	0xbc7393d5	-0.014866789
52	0xbd83241a	-0.0640337
53	0xbd76f339	-0.06029055
54	0x3e011f0f	0.12609504
55	0xbcc5c88c	-0.02414348
56	0x3dd44b06	0.10365872
57	0xbe0bf892	-0.13669041
58	0xbe040022	-0.12890676
59	0xbe441be7	-0.19151269
60	0xbdc54508	-0.09632307
61	0xbe402fe9	-0.18768276
62	0xbd3b7aaa	-0.04577128
63	0xbd02e2be	-0.03195452
64	0xbdc76a74	-0.09737101
65	0xbe000830	-0.12503123
66	0x3de98d07	0.11403852
67	0xbdf8dd17	-0.121515445
68	0x3ad4fdf2	0.0016249998
69	0xbda19108	-0.07888991
70	0xbc97337d	-0.018457169
71	0xbdaad1a1	-0.08340765
72	0xbd869cd2	-0.0657288
73	0xbd592f68	-0.053023726
74	0xbda55065	-0.08071975
75	0x3ca2b6fe	0.019862648
76	0x3cfd22bd	0.030900354
77	0x3d4008a5	0.046883244
78	0xbb52342c	-0.0032074554
79	0xbe26ffd1	-0.16308524
80	0xbcd695d6	-0.026194494
81	0xbd8cc1aa	-0.06872876
82	0xbdd8eba0	-0.10591817
83	0x3d3914e8	0.045185953
84	0xbdccaba7	-0.099936776
85	0xbd0264c5	-0.031834383
86	0x3d08fdce	0.033445172
87	0x3d2caad0	0.042155087
88	0xbcf124c0	-0.02943647
89	0x3daece87	0.08535486
90	0xbddcaf01	-0.10775567
91	0x3ca4066f	0.020022599
92	0xbdac450a	-0.08411606
93	0xbccacc17	-0.02475552
94	0xbda00de3	-0.07815149
95	0xbd3748dc	-0.04474722
96	0x3cc2ca5d	0.023778135
97	0xbcafd369	-0.021463113
98	0x3d5b0e15	0.053480227
99	0xbde1aa9c	-0.11018869
100	0xbc430b88	-0.011904605
101	0xba94626c	-0.0011320836
102	0xbda6dee8	-0.08147985
103	0xbde723cd	-0.11286125
104	0x3daca058	0.08429021
105	0x3d6ec1a7	0.05829015
106	0xbd0f655a	-0.035008766
107	0xbd512f58	-0.05107054
108	0x3dff2004	0.12457278
109	0xbd69259b	-0.05692063
110	0x3e0316dd	0.1280169
111	0x3ca41d41	0.02003348
112	0xbc9c55bc	-0.01908385
113	0xbddecfae	-0.108794555
114	0xbc7de260	-0.015495867
115	0x3d525efd	0.05136012
116	0xbcbbf358	-0.022943184
117	0x3d72a6b2	0.059241004
118	0xbe1665da	-0.14687291
119	0xbe147970	-0.1449945
120	0xbd859f26	-0.06524496
121	0xbd8fbc12	-0.070182934
122	0xb801ec24	-3.097592e-05
123	0xbceee23a	-0.029160608
124	0xbda6fc80	-0.08153629
125	0x3e06def1	0.13170983
126	0x3ce5cd3a	0.028051961
127	0x3d8f7c1c	0.07006094

network_body._body_endoder.seq_layers.0.weight f4 [128, 3]
0	0xbea85349	-0.32876042
1	0x3efbfedf	0.4921789
2	0x3fa532de	1.2906148
3	0xbe7a7813	-0.24459867
4	0xbdc5b5be	-0.09653805
5	0x3ded74f5	0.115945734
6	0x3d9d2ebd	0.0767493
7	0xbf18dd96	-0.59713113
8	0x3e5c2ad1	0.21500708
9	0xbf2d7118	-0.6775069
10	0xbee7a4f1	-0.45243028
11	0x3c7089ac	0.014681261
12	0xbedda267	-0.43287966
13	0xbdceac28	-0.1009143
14	0x3db9db70	0.090750575
15	0xbec550ca	-0.385382
16	0xbf0d82fd	-0.55278
17	0x3d0a72a5	0.03380074
18	0xbf090733	-0.5352661
19	0xbdb9adc8	-0.09066349
20	0x3f24aad6	0.64323175
21	0x3ed03f0f	0.4067311
22	0x3e06ce5e	0.1316466
23	0xbfe4eceb	-1.7884802
24	0x3f1f3c51	0.6220141
25	0xbe172b48	-0.14762604
26	0xbfadde37	-1.358344
27	0xbf25dba2	-0.6478826
28	0xbdba09e9	-0.090839215
29	0x3f59a82d	0.8502224
30	0xbd20d06b	-0.039261263
31	0x3f4f2141	0.80910116
32	0xbeb553ec	-0.3541559
33	0x3eab7bb5	0.33492818
34	0xbd8268a4	-0.06367615
35	0x3d6d0dce	0.057874493
36	0xbe54338a	-0.20722786
37	0xbd0cef61	-0.034407977
38	0xbf0dae77	-0.5534434
39	0x3f204e98	0.62619925
40	0xbd617e50	-0.0550521
41	0xbdcea3b8	-0.100898206
42	0x3f8bc2e9	1.0918857
43	0xbe61bd15	-0.22044785
44	0xbf48f486	-0.78498113
45	0x3efc7bd0	0.4931321
46	0xbebdadb8	-0.370466
47	0xbf2a2b3b	-0.66472214
48	0xbdc17de2	-0.09447838
49	0xbd0989c8	-0.033578664
50	0xbe1d3c57	-0.15355049
51	0x3e5e3d9a	0.21703187
52	0x3e666fcc	0.22503585
53	0xbf3b40cb	-0.7314574
54	0xbd5d9554	-0.05409749
55	0x3e33a6c9	0.17544092
56	0x3f54b461	0.83087736
57	0x3d281b42	0.04104162
58	0xbf4a93a5	-0.7913154
59	0xbe94b1e2	-0.29041964
60	0x3eb2c301	0.349144
61	0x3d7db145	0.061936636
62	0xbe2199f2	-0.15781382
63	0xbe53b352	-0.20673874
64	0xbf37287d	-0.71546155
65	0x3f362a6f	0.711585
66	0xbe850f69	-0.2598832
67	0x3e0c2c06	0.13688669
68	0xbf692f3a	-0.91087687
69	0xbdeee185	-0.11664108
70	0xbedc4291	-0.43019536
71	0x3ebffb17	0.37496254
72	0xbec06eaf	-0.37584445
73	0xbf2308aa	-0.63685095
74	0x3f120eb9	0.57053715
75	0x3f5fb92b	0.8739192
76	0xbd861fec	-0.06549057
77	0xbe749da4	-0.2388826
78	0x3e320c11	0.17387415
79	0xbeff70ac	-0.4989065
80	0xbe0de32c	-0.1385619
81	0x3d586b9e	0.052837007
82	0xbf4abc45	-0.79193527
83	0x3e98e5b9	0.29862764
84	0xbe8b3189	-0.2718623
85	0xbe9de087	-0.30835363
86	0xbf201408	-0.62530565
87	0xbf1791e2	-0.59206975
88	0xbf0578b1	-0.52137285
89	0xbe5178b0	-0.20456195
90	0xbd655a39	-0.055994246
91	0x3e8307fe	0.25592035
92	0x3cb7dec9	0.0224451
93	0xbe818768	-0.2529862
94	0x3f1b18bc	0.60584617
95	0x3f5f022b	0.87112683
96	0x3e73a98b	0.23795144
97	0xbe7b02fa	-0.24512854
98	0xbce1b3b9	-0.027551519
99	0x3efe5bb5	0.49679342
100	0xbf183852	-0.5946094
101	0xbf2d95ec	-0.6780689
102	0xbd0841a8	-0.03326574
103	0x3d050e6e	0.032484464
104	0x3e825f9b	0.25463566
105	0x3f7a8610	0.97860813
106	0x3dc69b55	0.09697596
107	0xbf720b80	-0.945488
108	0xbf977fa2	-1.1835825
109	0xbe703865	-0.23459013
110	0xbde459be	-0.111499295
111	0xbee8b1a2	-0.45448023
112	0xbed221f1	-0.4104152
113	0x3f344abf	0.70426553
114	0x3dfd0b22	0.12355639
115	0xbee3860a	-0.444382
116	0xbe573007	-0.21014415
117	0x3f4e0e3b	0.80490464
118	0xbf10ed30	-0.5661192
119	0x3ce94f7c	0.028480284
120	0xbd6b83ac	-0.05749862
121	0x3daa6ee6	0.083219334
122	0xbda895fa	-0.08231731
123	0xbf6a8791	-0.9161311
124	0x3ea74f79	0.3267782
125	0xbf811020	-1.0083046
126	0xbed65ff3	-0.41870078
127	0x3e42a249	0.1900722
128	0x3dd02c1e	0.10164665
129	0xbf24932c	-0.64287066
130	0xbf4f6fd5	-0.8103002
131	0xbe89615f	-0.268321
132	0x3e4a88fe	0.19778821
133	0x3ebda26f	0.3703799
134	0x3ecbb0e4	0.39783394
135	0x3ef184c2	0.471716
136	0x3f38ff14	0.7226422
137	0xbdd851ff	-0.105625145
138	0xbf4fac47	-0.8112225
139	0xbf4dd44c	-0.80402064
140	0xbeef1e8e	-0.46703
141	0x3e785d27	0.24254285
142	0xbe21fc12	-0.15818813
143	0x3f141ab2	0.57853234
144	0xbe864f9d	-0.26232615
145	0xbf2c4d0d	-0.6730507
146	0xbf104743	-0.56358737
147	0xbef37ce6	-0.47556227
148	0xbdacc9cf	-0.084369294
149	0x3eab4444	0.3345052
150	0xbe10b076	-0.14129815
151	0xbdb65cfe	-0.089044556
152	0xbf174257	-0.590856
153	0xbf444c23	-0.76678675
154	0xbeb6cb45	-0.35701957
155	0x3f296450	0.6616869
156	0x3f6236f5	0.8836511
157	0xbed6dc97	-0.41965172
158	0xbe21a107	-0.15784083
159	0xbe155a45	-0.14585216
160	0x3ecc1a0a	0.39863616
161	0xbf0ab159	-0.5417686
162	0xbf2cca69	-0.67496353
163	0x3f28d421	0.65948683
164	0xbebbe991	-0.36701635
165	0xbf40fd9b	-0.7538697
166	0xbec45d17	-0.38352272
167	0x3d321059	0.04347262
168	0xbdf804f0	-0.12110317
169	0x3ee15ce8	0.44016194
170	0xbfbc8bbf	-1.4730147
171	0xbc7534b4	-0.014966179
172	0xbf1dfc22	-0.6171285
173	0x3f4de7f1	0.8043204
174	0xbe95c6dc	-0.2925328
175	0xbeb81d3e	-0.3595981
176	0x3f6b5a10	0.919343
177	0xbc872056	-0.016494911
178	0xbdb25a35	-0.08708612
179	0x3ed08f48	0.40734315
180	0xbeead5ef	-0.45866343
181	0xbec2c181	-0.38038257
182	0x3ebe053e	0.37113374
183	0xbe91f7cb	-0.28509364
184	0xbec5b764	-0.38616478
185	0x3ed718c8	0.42011094
186	0x3e7b6406	0.24549875
187	0x3eb3bb1d	0.35103694
188	0x3ecbc4bf	0.39798543
189	0x3e9d593e	0.3073215
190	0xbd19a780	-0.037513256
191	0x3f02fb15	0.5116437
192	0xbe107b2b	-0.14109485
193	0xbd446e74	-0.0479569
194	0xbf9d6150	-1.2295322
195	0xbda3479b	-0.07972642
196	0xbf199c96	-0.60004556
197	0x3ce342b2	0.027741764
198	0xbee7d370	-0.45278502
199	0x3e9cd1cb	0.3062881
200	0x3f54d1fa	0.831329
201	0x3f1b9648	0.60776186
202	0xbed80468	-0.42190862
203	0x3e1392b2	0.14411429
204	0xbf000e87	-0.50022167
205	0x3e79f213	0.2440875
206	0x3fd2ace6	1.6459014
207	0x3d6c8871	0.05774731
208	0x3d813db7	0.06310599
209	0xbca8f1cf	-0.020623116
210	0xbefb3939	-0.49067095
211	0xbd05543f	-0.032551046
212	0xbf111dc2	-0.5668603
213	0x3f23785c	0.6385553
214	0xbf5557c8	-0.8333707
215	0xba9c9a3e	-0.0011947823
216	0xbf0e7e69	-0.55661637
217	0xbe2ff644	-0.17183787
218	0x3db5792a	0.08861001
219	0x3da1e724	0.07905415
220	0x3f852ca0	1.0404243
221	0x3c25872a	0.010103026
222	0xbd723067	-0.05912819
223	0xbf0c4aec	-0.5480182
224	0x3f85336d	1.0406319
225	0xbd9cd8bc	-0.07658526
226	0x3f3e4bb3	0.7433426
227	0x3ee71892	0.45135933
228	0x3f2d89d2	0.6778842
229	0xbdd7937d	-0.10526178
230	0x3f555e3c	0.83346915
231	0xbef5a805	-0.4797975
232	0x3e8bdb62	0.27315813
233	0xbdba3527	-0.09092169
234	0xbe9ad183	-0.3023797
235	0x3f7df584	0.9920275
236	0x3e206f47	0.15667449
237	0xbca75abe	-0.020429011
238	0xbefbddec	-0.4919275
239	0xbf69e942	-0.9137155
240	0x3be0fdd1	0.006866195
241	0x3ac26175	0.001483007
242	0xbf493d87	-0.7860951
243	0x3f137788	0.57604265
244	0x3f220cbc	0.6330068
245	0xbc35ff6e	-0.011108262
246	0x3e8448a5	0.25836673
247	0xbd9d880b	-0.07691964
248	0xbedd98b8	-0.43280578
249	0xbe89b329	-0.268945
250	0x3ef13872	0.47113377
251	0x3e656523	0.22401862
252	0xbc6cd42f	-0.014454885
253	0xbc94b292	-0.018151555
254	0x3e8cb824	0.27484238
255	0xbf06c158	-0.5263877

network_body._body_endoder.seq_layers.2.bias f4 [128]
0	0xbcb320f0	-0.021866292
1	0xbd188102	-0.037232406
2	0xbd136163	-0.035981547
3	0xbce32963	-0.027729696
4	0xbcb95ee8	-0.022628263
5	0xbd1e0edf	-0.0385884
6	0x3af180de	0.0018425246
7	0xbd0eeb8c	-0.034892604
8	0xbd00770c	-0.031363532
9	0xbc74f4e9	-0.014950969
10	0xbd46dff5	-0.048553426
11	0xbaf8cdb8	-0.0018982207
12	0xbd67b7d3	-0.056571793
13	0xbd38f22f	-0.04515284
14	0xbcf4cca7	-0.029882742
15	0xbd375199	-0.044755552
16	0xbd33e2e1	-0.04391754
17	0xbd23bc63	-0.03997458
18	0xbc925ad5	-0.017865578
19	0x3c2819f1	0.010260091
20	0xbcd69f26	-0.026198935
21	0x3d14df06	0.036345504
22	0x3d204da0	0.03913653
23	0xbd665871	-0.056236688
24	0xbbea65cb	-0.007153248
25	0xbc730f3c	-0.014835175
26	0xbdb53797	-0.088484935
27	0xbd1401bd	-0.03613447
28	0xbd0acc28	-0.033886105
29	0xbd4c43bd	-0.049869288
30	0xbd6c9aa4	-0.057764664
31	0xbd0c83d6	-0.034305416
32	0xbd3ef487	-0.04661992
33	0xbd0872a6	-0.033312462
34	0xbd194cab	-0.037426632
35	0xbd41fba6	-0.04735913
36	0x3cf36f7c	0.029716246
37	0xbd69c2ab	-0.057070415
38	0x3a899e40	0.0010499433
39	0xbd16f5f8	-0.036855668
40	0xbd4d4ab6	-0.050120078
41	0xbca87612	-0.020564113
42	0xbd0e7cff	-0.034787174
43	0xbd41c846	-0.047310136
44	0xbd2137bc	-0.039359793
45	0xbc32890b	-0.010896931
46	0xbcbfb21f	-0.023400364
47	0xbd100cf1	-0.035168592
48	0xbd6c0d5d	-0.05762993
49	0xbd55fc58	-0.052242607
50	0xbd3c4240	-0.04596162
51	0xbd285b13	-0.04110248
52	0xbccca884	-0.024982698
53	0xbd6d18b8	-0.0578849
54	0xbce7d405	-0.028299341
55	0xbcd6c33a	-0.026216138
56	0xbd692d7f	-0.056928154
57	0xbcedfa91	-0.029050143
58	0xbd8b484b	-0.06800898
59	0xbd2a37e2	-0.0415572
60	0xbd77ccbd	-0.060497988
61	0xbd309f2d	-0.04312055
62	0xbd0cc432	-0.034366794
63	0xbcdb9b5c	-0.02680748
64	0xbd091242	-0.033464678
65	0xbcd180fa	-0.025574196
66	0xbcfe1b84	-0.03101898
67	0xbd3c0c58	-0.04591021
68	0xbcfc01a2	-0.030762497
69	0xbd1185b4	-0.0355279
70	0xbcd396fc	-0.02582883
71	0xbd289ea8	-0.04116693
72	0xbd4f9e14	-0.050687864
73	0xbd355d8d	-0.04427867
74	0xbb6a331f	-0.0035736037
75	0xbc39459c	-0.0113081
76	0xbc978e8a	-0.018500585
77	0xbd0725a2	-0.032994874
78	0xbd83a04e	-0.0642706
79	0xbd2e89bb	-0.04261182
80	0xbcde0350	-0.027101189
81	0xbd1b919c	-0.03798066
82	0xbd04edd4	-0.032453373
83	0xbc656797	-0.0140017485
84	0xbcb01296	-0.021493237
85	0xbc5c02b3	-0.013428378
86	0xbcae1f6e	-0.021255221
87	0x3aa956a8	0.0012919502
88	0xbd2213be	-0.03956961
89	0xbd621fd7	-0.055206146
90	0xbd169507	-0.036763217
91	0xbd230891	-0.03980309
92	0xbd5f8a21	-0.05457509
93	0xbd5f0a26	-0.054453038
94	0xbd4b711f	-0.049668428
95	0xbd2c747d	-0.04210328
96	0xbccac25d	-0.024750883
97	0xbd84652d	-0.0646461
98	0x3d0755a2	0.03304065
99	0xbd3dd19a	-0.04634247
100	0xbcf76101	-0.030197622
101	0xbd34ace3	-0.04411019
102	0xbd295fba	-0.041351058
103	0xbcaaa059	-0.020828413
104	0xbd4cba21	-0.049982194
105	0xbd3d4edd	-0.046217788
106	0xbcbcb5d6	-0.023035925
107	0xbcd1c8cf	-0.025608448
108	0xbcf25610	-0.029582053
109	0xbd207b50	-0.0391801
110	0xbd06ec44	-0.032940164
111	0xbc9da7ee	-0.019245114
112	0xbd32d64f	-0.04366141
113	0xbd1d0444	-0.038334146
114	0xbd270a17	-0.040781107
115	0xbd5bbf1d	-0.053649057
116	0xbcc1dd70	-0.02366516
117	0xbd2d0f61	-0.042250995
118	0xbd1ac18d	-0.03778224
119	0xbd3a2a89	-0.04545072
120	0xbb8d2431	-0.004307293
121	0xbd009af5	-0.03139778
122	0xbd5fa565	-0.054601092
123	0x3ca9e192	0.020737443
124	0xbd8a9542	-0.0676675
125	0xbd42242b	-0.047397774
126	0xbc114cbf	-0.008868395
127	0xbbd2b62d	-0.0064304085

network_body._body_endoder.seq_layers.2.weight f4 [128, 128]
0	0xbb0df8fc	-0.0021663299
1	0x3cc1f963	0.023678487
2	0x3c8aebad	0.016958082
3	0x3bf6316b	0.0075132153
4	0x3d2a1ca4	0.04153122
5	0x3de8701e	0.1134951
6	0x3da2a79e	0.07942127
7	0xbca3d65b	-0.019999674
8	0xbe8ae05e	-0.27124304
9	0x3da920a9	0.082581826
10	0x3d330005	0.04370119
11	0xbe217a1c	-0.15769237
12	0x3db530cc	0.08847198
13	0xbdbe28aa	-0.092851
14	0xbdec3a8b	-0.11534604
15	0x3cbe83a5	0.023256132
16	0x3d657f6c	0.056029722
17	0x3d84f9f4	0.06492987
18	0xbdda5cd8	-0.1066224
19	0x3df67494	0.12033954
20	0x3e155716	0.14584002
21	0xbe0b8a9d	-0.13627096
22	0xbdeb8df9	-0.115016885
23	0xbdace80a	-0.084426954
24	0xbc159010	-0.009128585
25	0xbdd18069	-0.102295704
26	0x3d8fdea8	0.0702489
27	0x3d63f486	0.055653118
28	0x3d8b3e09	0.06798942
29	0xbd02734a	-0.03184823
30	0x3da5f340	0.08103037
31	0xbce88b79	-0.028386818
32	0x3dd7f66d	0.10545049
33	0xbd85e1cd	-0.06537209
34	0xbdf504f6	-0.11963837
35	0xbe0db9d2	-0.13840416
36	0xbd835f2d	-0.06414638
37	0xbdb3476c	-0.08753857
38	0x3db6f218	0.089328945
39	0x3bde80fa	0.0067902775
40	0x3c8fc0d7	0.017548008
41	0x3d197de5	0.037473578
42	0xbd955b90	-0.07292855
43	0xbd96c97d	-0.073626496
44	0x3ddb935a	0.107214645
45	0xbd98558c	-0.07438192
46	0x3e71c96d	0.23611994
47	0x3da8c690	0.08240998
48	0xbdb4ed2a	-0.08834298
49	0x3d280277	0.041017976
50	0xbdbc0f05	-0.09182552
51	0x3b6acac5	0.0035826426
52	0xbc7cea3f	-0.015436708
53	0x3bd55c4f	0.006511248
54	0xbd42af09	-0.047530208
55	0x3d04a824	0.032386914
56	0xbc0c4a68	-0.008562662
57	0xbe325983	-0.17416959
58	0xbd81351b	-0.06308957
59	0xbd731211	-0.0593434
60	0xbd92b93c	-0.07164237
61	0xbcaee178	-0.021347746
62	0x3ca3b5a1	0.019984068
63	0xbe2dee7e	-0.16985509
64	0xbe272a09	-0.16324629
65	0xbd21b97b	-0.03948353
66	0xbde76571	-0.11298645
67	0x3c4edce5	0.012625908
68	0xbe3504b0	-0.1767757
69	0xbcb837f7	-0.022487624
70	0xbda51bb1	-0.08061922
71	0x3d077756	0.033072792
72	0x3d6b2d73	0.05741639
73	0xbe101100	-0.14068985
74	0x3c4742a0	0.012161881
75	0x3db1fadd	0.086904265
76	0xbe1dc9fb	-0.1540908
77	0xbe030f80	-0.12798882
78	0x3d6c4c39	0.05768988
79	0x3e1daee5	0.15398748
80	0xbdc8daf1	-0.09807385
81	0xbcf80d83	-0.03027988
82	0x3e2d3702	0.16915515
83	0xbe02856d	-0.1274621
84	0x3dcfcae4	0.1014612
85	0xbd74fe74	-0.059812978
86	0xbd3a1652	-0.045431443
87	0x3c0a7823	0.008451494
88	0xbdeff15e	-0.11715959
89	0xbd3a121e	-0.045427434
90	0x3cc13c46	0.02358831
91	0xbe4e9a41	-0.2017603
92	0xbe0bdbe5	-0.13658102
93	0xbd5b3ccd	-0.05352478
94	0x3d87d152	0.066317216
95	0xbde94b72	-0.11391343
96	0xbddd2f10	-0.10799992
97	0xbe06a7d5	-0.1314996
98	0xbde619ca	-0.112353876
99	0x3ca63b61	0.020291986
100	0xbdf930d2	-0.12167515
101	0x3dbc1f47	0.09185653
102	0x3d3ae30c	0.045626685
103	0x3c0ae1f7	0.008476726
104	0xbe02020b	-0.12696092
105	0xbe5fcf6f	-0.21856473
106	0xbd70ada5	-0.05875935
107	0x3caff2da	0.021478105
108	0xbd8d10f1	-0.06887997
109	0x3d69e6cb	0.057104867
110	0xbd6263a2	-0.0552708
111	0xbc2b6878	-0.010461919
112	0xbd826754	-0.063673645
113	0x3d57eeac	0.05271785
114	0x3e19f64e	0.15035364
115	0xbd21bcfc	-0.03948687
116	0xbd91720c	-0.07101831
117	0xbea5a86e	-0.32355064
118	0xbdaeed8d	-0.08541403
119	0x3dbfac64	0.09359053
120	0xbdbf164a	-0.09330423
121	0xbdb69fa5	-0.089171685
122	0xbca6071e	-0.020267066
123	0xbcdba423	-0.026811665
124	0x3da9e967	0.08296471
125	0x3c319957	0.010839782
126	0xbb06cc0c	-0.0020568399
127	0xbe007c60	-0.12547445
128	0xbd801160	-0.06253314
129	0xbd6e9863	-0.058250796
130	0x3d73deb3	0.059538554
131	0xbb2707ca	-0.002548682
132	0x3c3976f0	0.011319861
133	0x3d296b6f	0.041362222
134	0x3dd542cb	0.104131304
135	0xbd402f82	-0.046920307
136	0xbd423896	-0.047417246
137	0x3db7aadf	0.08968138
138	0x3d6dbdff	0.058042523
139	0xbe5c7276	-0.21528038
140	0xbdd26f52	-0.10275139
141	0xbd8ed417	-0.06974047
142	0xbded57b7	-0.11588996
143	0xbdd97573	-0.10618105
144	0x3dc00b3e	0.09377144
145	0xbdc6c86c	-0.09706196
146	0x3daa6eec	0.08321938
147	0xbdd57927	-0.104234986
148	0xbdd6c0fe	-0.10486029
149	0x3dbd2a12	0.0923654
150	0xbe00071a	-0.12502709
151	0x3de24d2f	0.11049878
152	0x3e07beb0	0.13256335
153	0x3d32d3ee	0.043659143
154	0x3c77ad82	0.015117051
155	0x3d939d60	0.07207751
156	0x3d696797	0.056983557
157	0xbdab1572	-0.083537
158	0x3b159afa	0.002282797
159	0xbd0187d5	-0.03162368
160	0xbde25b32	-0.110525504
161	0x3d8d8a91	0.06911195
162	0xbd3b12e7	-0.045672324
163	0xbda200ae	-0.07910286
164	0xbdcc9b8f	-0.09990608
165	0x3de86409	0.11347205
166	0x3d2a64f1	0.04160017
167	0xbdd9f193	-0.1064178
168	0xbe27ddae	-0.16393158
169	0xbd5ca5d4	-0.053869084
170	0xbdab3e01	-0.08361436
171	0x3db3b878	0.08775419
172	0x3d24e7f4	0.04026027
173	0x3e51bcc0	0.20482159
174	0xbd7baf5f	-0.061446544
175	0x3e1e5ba0	0.1546464
176	0xbda8b3af	-0.08237397
177	0xbdac66b0	-0.084180236
178	0xbd52f862	-0.051506408
179	0xbde6fca6	-0.112786576
180	0xbe50112a	-0.20319048
181	0xbccc902a	-0.024971087
182	0xbced0842	-0.028934602
183	0x3e0f4c7f	0.13994025
184	0x3dae968b	0.085248075
185	0xbdd1bab1	-0.10240687
186	0xbd11f0b7	-0.035629954
187	0x3c4f1992	0.012640374
188	0xbcd336a7	-0.025782896
189	0x3cf32cc6	0.029684436
190	0x3cb18cec	0.021673642
191	0x3d267db0	0.04064721
192	0x3dc8b82d	0.09800754
193	0x3c7005ea	0.0146498475
194	0xbe890e7e	-0.2676887
195	0x3b8850ce	0.0041600233
196	0xbd3cdebc	-0.046110854
197	0xbc5f29a2	-0.013620766
198	0xbddcd70e	-0.10783206
199	0xbd7568a9	-0.059914265
200	0xbe0db791	-0.13839556
201	0xbd79cb15	-0.06098469
202	0xbd88d2ce	-0.06680833
203	0x3cb56489	0.022142665
204	0x3c81af1b	0.015830567
205	0xbd8c559c	-0.06852266
206	0xbd99fb20	-0.075186014
207	0x3dc1ce9f	0.09463238
208	0xbcb2f72d	-0.021846378
209	0xbac02f32	-0.0014662503
210	0x3df1cb02	0.11806299
211	0xbda9e8b5	-0.082963385
212	0xbd19b05d	-0.03752171
213	0x3dac6561	0.08417774
214	0xbe88ec5c	-0.26742828
215	0x3de5e91a	0.11226101
216	0xbe4af8eb	-0.19821517
217	0xbe48eb2e	-0.19620964
218	0xbd741958	-0.059594482
219	0xbcb4268d	-0.021991039
220	0x3dfd1a0d	0.123584844
221	0xbe23823a	-0.15967646
222	0xbdf7bac0	-0.120961666
223	0xbd8ffff0	-0.07031238
224	0x3b5e849c	0.0033953553
225	0x3ca3a2fb	0.019975176
226	0x3b423d7a	0.0029638694
227	0xbce0a60a	-0.027422924
228	0x3daa2541	0.08307887
229	0xbdd75ca3	-0.10515716
230	0xbdaed4cb	-0.08536681
231	0x3d8ee7ae	0.06977783
232	0xbe0f1671	-0.13973404
233	0xbe7a549f	-0.24446343
234	0x3d3cb4f5	0.04607101
235	0x3d88cafe	0.06679343
236	0xbd17186f	-0.036888536
237	0x3d9eade6	0.07748012
238	0xbd2e65e3	-0.042577635
239	0xbdb62223	-0.0889323
240	0xbca92d23	-0.020651406
241	0xbb045234	-0.0020190598
242	0xbd228c1c	-0.0396844
243	0x3c6eaf7f	0.014568209
244	0xbe458947	-0.19290648
245	0x3b03f22f	0.0020133366
246	0x3d04a359	0.032382343
247	0xbc4a4bdb	-0.012347187
248	0xbda359ca	-0.0797611
249	0xbdef4c8e	-0.116845235
250	0x3dde5ebc	0.10857913
251	0xbd5def9c	-0.054183587
252	0xbdc129cb	-0.094317995
253	0xbc76b541	-0.015057863
254	0xbe8f78fb	-0.28021988
255	0xbd232606	-0.039831184

network_body._body_endoder.seq_layers.4.bias f4 [128]
0	0xbd035b25	-0.032069344
1	0xbce163a2	-0.027513329
2	0xbdd8c6ea	-0.10584815
3	0xbd83f13e	-0.06442498
4	0xbd090224	-0.033449307
5	0xbbf98b72	-0.0076155
6	0xbdaa99da	-0.08330126
7	0xbda854f3	-0.08219328
8	0xbda1677e	-0.07881068
9	0xbd79179c	-0.06081353
10	0xbda281ce	-0.079349145
11	0xbd24778a	-0.040153064
12	0xbd6e4747	-0.058173444
13	0xbdac9256	-0.08426349
14	0xbbce8d3d	-0.006303458
15	0xbd8d4c48	-0.06899315
16	0xbd8dac96	-0.06917684
17	0xbc996efb	-0.018729677
18	0xbd97b60d	-0.0740777
19	0xbd1d05ff	-0.038335796
20	0xbd9715b6	-0.07377188
21	0xbcf80d74	-0.030279852
22	0xbd56a026	-0.052398823
23	0xbdf97f94	-0.12182537
24	0xbcc7c743	-0.024387008
25	0xbd2a3c06	-0.04156115
26	0x3c6111cb	0.013737152
27	0xbd46f850	-0.048576653
28	0xbc8cb0d0	-0.017174155
29	0xbde48d91	-0.11159814
30	0xbd11bfd8	-0.035583347
31	0xbcc0f0bf	-0.023552297
32	0xbc9a09c1	-0.01880348
33	0xbd2d541d	-0.042316545
34	0xbd0ca78b	-0.03433947
35	0xbd77f058	-0.060531944
36	0xbd74dae6	-0.05977907
37	0xbd384e1e	-0.044996373
38	0xbd997505	-0.07493023
39	0xbcd06d31	-0.025442692
40	0xbbfa8fe1	-0.0076465462
41	0xbd5e7633	-0.054311942
42	0xbd451310	-0.048113883
43	0xbdb75d76	-0.08953373
44	0xbd0c12a0	-0.03419745
45	0xbd202a85	-0.03910305
46	0xbd0e27f6	-0.03470608
47	0xbd548edd	-0.051894058
48	0xbd2c043c	-0.041996226
49	0x3d69a330	0.057040393
50	0xbc8c6937	-0.017140014
51	0xbd0fca22	-0.03510488
52	0xbd249693	-0.04018266
53	0xbe0db776	-0.13839516
54	0xbd891983	-0.06694319
55	0xbd5b6421	-0.053562287
56	0xbcd626de	-0.02614158
57	0xbd06b3ad	-0.032886196
58	0xbd48f7f2	-0.049064584
59	0xbd810f43	-0.06301739
60	0xbd5381f6	-0.051637612
61	0xbd6e40f6	-0.05816742
62	0x3cc03e69	0.02346726
63	0xbd60482f	-0.05475634
64	0xbca1b71b	-0.019740632
65	0xbcdf3215	-0.02724556
66	0xbd9d3a7e	-0.07677172
67	0xbd176a4d	-0.03696661
68	0xbce0a0fd	-0.027420515
69	0xbd64ecf8	-0.055890054
70	0x3c9bdb89	0.019025581
71	0xbd13c6c7	-0.03607824
72	0xbd9471bb	-0.07248255
73	0xbd9b5241	-0.07584048
74	0xbcd42301	-0.025895597
75	0xbd4a5915	-0.04940136
76	0xbcb59bb3	-0.02216897
77	0xbd6abf46	-0.05731132
78	0xbda488aa	-0.08033879
79	0xbd395d1b	-0.045254808
80	0xbdac44f4	-0.08411589
81	0xbc36cf4b	-0.011157821
82	0xbdbdafdd	-0.09262059
83	0xbd5c612e	-0.053803615
84	0xbd31844d	-0.043339062
85	0xbd3e4af2	-0.046458192
86	0xbd387481	-0.04503298
87	0xbd209b6c	-0.03921072
88	0xbce26443	-0.0276357
89	0xbd1e2b39	-0.03861544
90	0xbdc8a44e	-0.09796964
91	0xbd2a64dd	-0.041600097
92	0xbd2ad0ca	-0.041703023
93	0xbd0fdfca	-0.03512553
94	0xbd8b830d	-0.06812105
95	0xbd077af0	-0.033076227
96	0xbda635a0	-0.08115697
97	0xbd0e2c19	-0.034710024
98	0xbd078420	-0.03308499
99	0x3c9f13bc	0.01941859
100	0xbc9fd779	-0.019511925
101	0x3d5006c6	0.05078771
102	0xbc8a6b40	-0.016896844
103	0xbd8526a9	-0.065015145
104	0xbd301a14	-0.04299362
105	0xba79ec64	-0.0009533821
106	0xbb45aae9	-0.0030161685
107	0xbd319d68	-0.043363005
108	0xbd6ba596	-0.057530962
109	0xbdccc265	-0.09998015
110	0xbcf62dd2	-0.030051146
111	0x3bee970c	0.00728119
112	0xbd0a4db2	-0.033765502
113	0xbc9c0360	-0.019044578
114	0xbe01fbf2	-0.12693766
115	0xbda346d4	-0.07972494
116	0xbd642fac	-0.055709526
117	0xbb9e7bbe	-0.0048365286
118	0xbd6a8377	-0.05725428
119	0xbd800618	-0.06251162
120	0xbdb128d5	-0.08650366
121	0xbd14ec7a	-0.036358334
122	0xbd4023f9	-0.046909306
123	0x3d38ec45	0.0451472
124	0xbc3e8984	-0.011629466
125	0xbd5e69af	-0.054300006
126	0x3d0fd019	0.035110567
127	0xbc9b8c9a	-0.018987942

network_body._body_endoder.seq_layers.4.weight f4 [128, 128]
0	0x3dd87780	0.10569668
1	0xbda1cfb7	-0.079009466
2	0x3d45702c	0.04820268
3	0x3c9cd901	0.019146444
4	0x3cd90fc6	0.02649678
5	0xbe1d8f99	-0.1538681
6	0xbdf2bf83	-0.11852934
7	0x3bc3d92f	0.005976818
8	0xbe47c2e0	-0.19507933
9	0x3d9dec2e	0.07711063
10	0xbe209224	-0.15680748
11	0x3d84872d	0.06471095
12	0x3d634037	0.055481162
13	0xbd1c6e8c	-0.038191363
14	0xbc47021c	-0.012146499
15	0xbbe68599	-0.007034969
16	0xbdceb699	-0.100934215
17	0xbd521b37	-0.051295485
18	0xbd081f5b	-0.033233028
19	0xbdb97c22	-0.090568796
20	0xbd5447e5	-0.051826376
21	0x3e083581	0.1330166
22	0xbdd89749	-0.1057573
23	0x3d4b8ef8	0.049696892
24	0x3cc572d3	0.024102604
25	0xbcd212be	-0.025643703
26	0x3e31baab	0.17356364
27	0x3e2c306a	0.16815343
28	0xbd15aca1	-0.036541585
29	0xbd3047c6	-0.0430372
30	0x3ca91215	0.020638505
31	0x3d90ce1a	0.07070561
32	0x3da54c67	0.08071213
33	0xbe215cf1	-0.1575811
34	0x3b47ada0	0.0030468479
35	0x3cb2617d	0.021775002
36	0x3e03d209	0.12873091
37	0xbd2af225	-0.041734833
38	0x3cd761eb	0.026291808
39	0x3baa3924	0.0051948
40	0x3bb51083	0.00552565
41	0xbd2c353a	-0.04204295
42	0xbc01c001	-0.007919312
43	0xbe0930f9	-0.13397588
44	0x3e03fb22	0.12888768
45	0xbd408b8e	-0.04700809
46	0x3e3a8c90	0.18217683
47	0xbcf16f4d	-0.029472018
48	0xbdb17c5f	-0.086663
49	0xbdc19f60	-0.094542265
50	0xbbfdb0e8	-0.007742036
51	0xbd4e14a1	-0.050312642
52	0x3db170e0	0.08664107
53	0xbd7e1e43	-0.06204058
54	0xbd6dcc9d	-0.058056463
55	0xbd6c5ea8	-0.05770746
56	0x3c436ef6	0.011928311
57	0xbd1482e3	-0.036257636
58	0xbe0adb71	-0.13560273
59	0xbc110d1f	-0.008853226
60	0xbcd7ae8f	-0.026328353
61	0xbd9bcdd8	-0.07607621
62	0x3d2750ca	0.04084853
63	0xbdbe6667	-0.092968754
64	0xbdf8deec	-0.12151894
65	0x3da6661c	0.081249446
66	0xbc9b5bef	-0.018964736
67	0xbd86eb8a	-0.06587894
68	0xbdb2f3a7	-0.08737879
69	0x395ffeeb	0.00021361902
70	0xbd7442bf	-0.059633967
71	0xbd5b99f6	-0.053613625
72	0xbe1817b2	-0.14852789
73	0x3da2afdb	0.07943698
74	0x3d8e5c80	0.06951237
75	0x3d5fa6fc	0.054602608
76	0x3df9b331	0.12192381
77	0x3d218f02	0.039443024
78	0x3ce4621a	0.02787881
79	0xbd974888	-0.07386881
80	0x3da85bb1	0.08220614
81	0xbcb5af8d	-0.022178436
82	0x3d68d643	0.05684496
83	0xbe1e8eec	-0.15484208
84	0x3a50bf4c	0.0007963076
85	0xbe6f64f3	-0.23378353
86	0xbc142e5f	-0.009044259
87	0x3b83cb2a	0.004022022
88	0x3e20cfd8	0.15704286
89	0xbe29fc00	-0.16600037
90	0x3d6bef83	0.057601463
91	0xbdb45f84	-0.08807281
92	0xbb90517a	-0.004404244
93	0xbc082ca0	-0.008311421
94	0x3d54e18e	0.05197292
95	0xbc866003	-0.016403204
96	0xbd32d71c	-0.043662176
97	0xbae96204	-0.00178057
98	0xbe44c36b	-0.19215171
99	0x3ba90cf9	0.005159017
100	0x3e0d1bee	0.13780186
101	0xbcfa9c07	-0.030591978
102	0xbd6d913e	-0.057999842
103	0xbe2f29dd	-0.17105813
104	0x3ca53a35	0.020169357
105	0xbca21cc8	-0.019789115
106	0x3c84536a	0.016153056
107	0x3e165d58	0.14684045
108	0xbd6f4ef5	-0.05842491
109	0x3e347ca5	0.17625673
110	0x3a3f39a5	0.00072946615
111	0xbe259567	-0.16170274
112	0x3e034a47	0.12821303
113	0xb9d80cd2	-0.00041208282
114	0xbd593cf0	-0.05303663
115	0xbabf9bad	-0.0014618539
116	0xbdbc4bea	-0.09194167
117	0xbdd279c6	-0.10277133
118	0xbd8030cf	-0.062593095
119	0xbc053a31	-0.00813155
120	0xbe2ec94f	-0.1706898
121	0x3c0d2481	0.00861466
122	0x3d9a1632	0.07523765
123	0xbd36c765	-0.04462375
124	0xbdbda813	-0.09260573
125	0x3d9060b8	0.07049698
126	0xbd0f79b4	-0.035028175
127	0x3b394d1e	0.0028274725
128	0x3e058b47	0.13041411
129	0x3d087f2c	0.033324406
130	0x3d21c78f	0.039496955
131	0xbe53b670	-0.20675063
132	0x3da7e62f	0.08198201
133	0x3e0f210e	0.13977453
134	0xbd321e8c	-0.043486163
135	0x3cac7d61	0.02105588
136	0x3da30bd1	0.07961238
137	0xbba861e7	-0.005138624
138	0x3d3222a8	0.043490082
139	0xbdc5e9dc	-0.09663746
140	0xbdd2a0b9	-0.10284562
141	0x3dd0f854	0.10203615
142	0x3d8a3a24	0.06749371
143	0xbe989cd8	-0.29807162
144	0x3d3f6da2	0.046735413
145	0x3c0bb8da	0.008527959
146	0xbdc92502	-0.09821512
147	0x3c2bbf52	0.010482626
148	0x3e068544	0.13136774
149	0xbe33cfb9	-0.17559709
150	0xbcce82e9	-0.025208907
151	0xbe67ecf8	-0.2264899
152	0x3daceac3	0.08443215
153	0x3e1f7824	0.15573174
154	0xbd5f70fe	-0.054551117
155	0xbd408ea7	-0.047011044
156	0x3dc5b5c8	0.09653813
157	0xbd9773d2	-0.07395138
158	0x3e2c64d0	0.16835332
159	0xbd8fee04	-0.0702782
160	0x3d910e53	0.0708281
161	0xbb815770	-0.003947191
162	0xbe0a8668	-0.13527834
163	0x3e12ced6	0.14336714
164	0x3d862970	0.06550872
165	0x3e28a858	0.16470468
166	0x3d353d48	0.044247895
167	0x3b3e25de	0.002901427
168	0x3da5e4ae	0.08100258
169	0xbd3cd786	-0.046103977
170	0x3da3dc50	0.08001006
171	0xbe581f27	-0.21105634
172	0x3d71abce	0.059001736
173	0xbc81df63	-0.01585359
174	0xbe1bd4a5	-0.15217836
175	0x3d9a2f06	0.075285
176	0xbdbc1ff1	-0.0918578
177	0xbc98a78b	-0.018634578
178	0x3d0ad2c7	0.03389242
179	0x3c0ec12a	0.008713046
180	0x3daef842	0.08543445
181	0xbde8aba7	-0.11360865
182	0xbdc5a528	-0.09650642
183	0xbe00ac16	-0.12565646
184	0xbd888947	-0.066668086
185	0x3d857151	0.06515754
186	0x3d445432	0.047931857
187	0x3d1a6ee6	0.037703417
188	0x3dc34ec5	0.095365085
189	0x3de1c4cb	0.110238634
190	0xbd96f091	-0.07370103
191	0xbd54082e	-0.051765613
192	0x3e2a42c3	0.1662703
193	0x3dc9e149	0.09857423
194	0x3db9f9f4	0.09080878
195	0xbd2358de	-0.039879672
196	0xbd02c6ed	-0.03192799
197	0xbd43e8fe	-0.04782962
198	0x3d93eb6f	0.0722264
199	0xbe1ec0dd	-0.15503259
200	0x3d73f5d8	0.059560627
201	0xbcb7dab1	-0.022443147
202	0xbe153005	-0.14569099
203	0x3d9bb1ba	0.07602258
204	0x3adc9917	0.0016830292
205	0xbce1bc26	-0.027555536
206	0x3d129585	0.035787124
207	0x3d26c25e	0.040712707
208	0xbd7fa381	-0.06241179
209	0xbd53576e	-0.05159705
210	0x3d20b8fe	0.039238922
211	0x3d0344ef	0.032048162
212	0xbcfdf060	-0.030998409
213	0xbd0fe3e6	-0.03512945
214	0x3de3a4b4	0.11115399
215	0xbd97497b	-0.07387062
216	0xbd804307	-0.062627845
217	0xbc1d03b3	-0.0095834015
218	0x3d92a754	0.071608216
219	0x3d8499b3	0.06474628
220	0xbd90d17f	-0.07071208
221	0x3d9ef20d	0.07761011
222	0x3b876090	0.004131384
223	0x3d0ed16d	0.034867693
224	0xbc27075b	-0.010194625
225	0x3d15e892	0.03659875
226	0xbe308c11	-0.17240931
227	0x3da4b41f	0.08042168
228	0x3db0c861	0.08631969
229	0x3db25920	0.087084055
230	0xbdb2d39c	-0.087317675
231	0xbe3dbf57	-0.18530022
232	0x3da4191a	0.080126
233	0xbd6481de	-0.055787914
234	0x3cb4884d	0.02203765
235	0xbe012f72	-0.12615755
236	0x3db2ebb0	0.0873636
237	0xbd4029dc	-0.04691492
238	0xbdd8f64b	-0.10593852
239	0x3d0a6064	0.03378333
240	0x3d621b7c	0.055201992
241	0x3d849570	0.064738154
242	0xbe2a6d11	-0.16643168
243	0xbcc05909	-0.023479955
244	0xbc861aff	-0.016370295
245	0xbd672ef1	-0.05644125
246	0xbd46d57b	-0.048543435
247	0x3d90c72a	0.070692375
248	0x3d2e5fb0	0.042571723
249	0xbddecacc	-0.10878524
250	0x3d84cff9	0.0648498
251	0x3d909420	0.070595026
252	0xbcdddef1	-0.027083846
253	0xbc9f53fc	-0.019449227
254	0xbcd4b842	-0.025966767
255	0xb87093ec	-5.7358222e-05

network_body._body_endoder.seq_layers.6.bias f4 [128]
0	0xbd1ad7a9	-0.037803326
1	0x3c1771b0	0.009243414
2	0xbcef035d	-0.029176408
3	0x39f7bfd7	0.00047254443
4	0xbd5c0aa0	-0.05372107
5	0xbcf5ba41	-0.02999604
6	0xbde68ff4	-0.11257926
7	0xbddb6a1e	-0.107135996
8	0xbc3e51a9	-0.011616149
9	0xbb9d378c	-0.0047978815
10	0xbdaec084	-0.08532813
11	0x38cf4d91	9.884977e-05
12	0xbd086db9	-0.033307765
13	0xba8d82a4	-0.001079638
14	0xbdb0ef96	-0.086394474
15	0xbd943f04	-0.07238582
16	0xbdd0d041	-0.10195971
17	0xbd791fc3	-0.060821306
18	0x3c80fd2a	0.015745718
19	0xbd0be527	-0.034154084
20	0xbb78e04c	-0.0037975488
21	0xbc9fc884	-0.019504793
22	0xbe1a4284	-0.15064436
23	0xbc365cd4	-0.01113053
24	0x3c8d8923	0.017277306
25	0x3c82de4d	0.015975142
26	0xbd3b2b14	-0.04569538
27	0xbdca3faf	-0.09875428
28	0xbcd24f4e	-0.025672581
29	0xbd111646	-0.035421632
30	0x3c0ef360	0.008725017
31	0xbd2486a0	-0.04016745
32	0xbd98a115	-0.07452599
33	0x3b431cf5	0.0029771898
34	0xbdad7b6a	-0.08470805
35	0x3d0ca760	0.03433931
36	0xb982fa07	-0.00024981817
37	0xbd3164ac	-0.0433089
38	0x3cbf1c9f	0.023329077
39	0xbc981a57	-0.018567247
40	0xbd4eaa5f	-0.050455447
41	0xbd14e4ee	-0.036351137
42	0xbd4ca3ef	-0.049961027
43	0x3bc47728	0.00599565
44	0x3c15b66f	0.009137734
45	0xbd9b3b27	-0.07579642
46	0x3b1a69e9	0.0023561663
47	0x3d3a6b21	0.045512322
48	0xbd13431e	-0.03595268
49	0xbc890532	-0.01672611
50	0xbdc3240d	-0.095283605
51	0x39112556	0.00013842186
52	0xb9a9efdb	-0.00032412898
53	0x3ad88fc9	0.0016522344
54	0xbd74765b	-0.059683185
55	0xbd51a89e	-0.051186197
56	0x3c7066cf	0.014672949
57	0xbda12865	-0.07869033
58	0xbccba5f3	-0.024859404
59	0xbd7067db	-0.058692794
60	0xbd396e4a	-0.045271195
61	0xbd031c24	-0.03200926
62	0xbde199aa	-0.11015637
63	0x3c9e6cb9	0.019338952
64	0xbd6b928c	-0.057512805
65	0x3c345df1	0.0110087255
66	0xbd391565	-0.04518642
67	0xbcc025fe	-0.023455616
68	0xbd93725b	-0.07199546
69	0xbd8738e2	-0.066026464
70	0xbd934e35	-0.07192651
71	0xbd15a52f	-0.036534484
72	0xbd89fae0	-0.06737304
73	0xbce7f636	-0.028315645
74	0xbd46a0ae	-0.04849308
75	0xbc64f24a	-0.013973782
76	0xbd23bab6	-0.039972983
77	0xbd9d2cb2	-0.076745406
78	0xbd924984	-0.07142928
79	0xbd7f747a	-0.06236694
80	0xbdaaea4f	-0.08345472
81	0xbcc66edd	-0.024222786
82	0xbd665e6b	-0.056242388
83	0x3aee4e39	0.0018181271
84	0xbdd18b9f	-0.10231709
85	0xbde43fe0	-0.11144996
86	0x3c92ae93	0.01790551
87	0xbc34b87e	-0.0110303145
88	0xbc8ffb76	-0.01757596
89	0xbd694994	-0.056954935
90	0xbd8f3699	-0.069928356
91	0x3ca3440c	0.019929908
92	0xbd70cf29	-0.058791313
93	0x3d1b0ff5	0.037857015
94	0xbc55b0e2	-0.01304266
95	0xbd291668	-0.041281134
96	0xbd7e10b2	-0.06202764
97	0xbccf7da5	-0.025328467
98	0xbd12c36d	-0.035830904
99	0xbc58b196	-0.013225934
100	0xbcb23e31	-0.02175817
101	0xbd5b5640	-0.05354905
102	0xbdaba97c	-0.08381936
103	0xbca01c41	-0.019544723
104	0xba67a076	-0.0008835861
105	0xbd98e551	-0.07465614
106	0xbd5afcdd	-0.053463805
107	0xbd94571b	-0.072431765
108	0xbd0fcec7	-0.035109308
109	0xbd01877b	-0.031623345
110	0xbdb89eb6	-0.09014647
111	0xbce89ee7	-0.028396083
112	0xba809654	-0.0009810426
113	0xbcf95069	-0.03043385
114	0xbdd2f1f7	-0.103000574
115	0xbdec35f7	-0.115337305
116	0x3cd33052	0.025779877
117	0xbc53a357	-0.012917361
118	0x3cd61505	0.02613307
119	0xbd8a8613	-0.06763854
120	0xbcf9444b	-0.030428072
121	0xbd49701b	-0.049179178
122	0xbc555b20	-0.013022214
123	0x3c448708	0.011995085
124	0xbd87824a	-0.066166475
125	0xbd25f8de	-0.04052054
126	0xbd58f1b0	-0.052964866
127	0xbc709522	-0.0146839935

network_body._body_endoder.seq_layers.6.weight f4 [128, 128]
0	0xbbe5d57c	-0.0070139747
1	0x3bbb1e05	0.0057103657
2	0x3dae866b	0.08521732
3	0xbd8edc29	-0.06975586
4	0x3da53d40	0.08068323
5	0xbd2d4eb6	-0.042311393
6	0xbdb04a0b	-0.086078726
7	0x3e47f1c9	0.19525827
8	0x3cff4e17	0.031165166
9	0xbd93835a	-0.07202788
10	0x3d12b5f0	0.03581804
11	0xbdc4a84d	-0.09602413
12	0xbd4a1c9d	-0.049343694
13	0x3d032f82	0.03202773
14	0xbe05cd92	-0.130667
15	0xbd03a015	-0.032135088
16	0xbd420af3	-0.047373723
17	0xbd620f8c	-0.055190608
18	0x3df26cc2	0.1183715
19	0x3df38242	0.11890079
20	0x3d96dbdc	0.073661536
21	0x3bbff71f	0.0058583166
22	0xbd9b8e06	-0.07595448
23	0x3c4e6d66	0.012599325
24	0x3d1214d6	0.035664402
25	0xbd6a74a3	-0.05724014
26	0xbc2814b2	-0.01025884
27	0x3da23a62	0.07921292
28	0x3c3581f8	0.01107835
29	0x3e08a27a	0.1334323
30	0x3b5a142e	0.0033276188
31	0xbe3d5263	-0.1848846
32	0x3d8cf7fa	0.06883235
33	0x3e448b74	0.19193822
34	0xbdecc877	-0.11561673
35	0x3da317f7	0.07963555
36	0x3d37e9a7	0.044900563
37	0xbdf29392	-0.11844553
38	0x3ae4b929	0.0017450202
39	0x3bcb5eff	0.006206393
40	0xbd052f57	-0.03251585
41	0x3cafc252	0.021454964
42	0x3bafcd5e	0.005365058
43	0x3dd585af	0.10425889
44	0x3c7398fe	0.014868019
45	0xbd8e9fc7	-0.06964069
46	0xbcb6a365	-0.02229471
47	0x3df00ee4	0.1172159
48	0x3ddfb852	0.10923828
49	0x3e0d89fd	0.1382217
50	0xbd8a694a	-0.067583635
51	0xbda05085	-0.07827858
52	0x3cdcd1fd	0.026955599
53	0xbda637d1	-0.08116115
54	0x3da70973	0.08156099
55	0xbd870632	-0.065929785
56	0xbe35a943	-0.1774035
57	0xbd6e6565	-0.058202166
58	0xbad5ce05	-0.0016312009
59	0xbdcffeba	-0.10156007
60	0xbdb8fd11	-0.090326436
61	0xbce1f48c	-0.02758243
62	0xbe15941c	-0.1460728
63	0xbdaeff55	-0.085447945
64	0x3d2e4661	0.042547587
65	0x3cc8ea7c	0.024525873
66	0x3e466d35	0.19377597
67	0xbca736a4	-0.020411797
68	0xbdb0c701	-0.08631707
69	0x3b00181b	0.0019545618
70	0xbe28c167	-0.16480027
71	0xbdb17a5a	-0.08665915
72	0xbd911581	-0.0708418
73	0x3ced150b	0.028940698
74	0x3c259d26	0.010108268
75	0x3d08759d	0.03331529
76	0xbc0eb537	-0.008710197
77	0xbb3dea03	-0.0028978593
78	0xbdc8f9e7	-0.0981329
79	0x3c65d71b	0.014028336
80	0xbc213854	-0.00984009
81	0x3e888eac	0.2667135
82	0x3d5067c4	0.05088021
83	0x3d9ba2b8	0.075993955
84	0x3d81b9fc	0.06334302
85	0x3d6a34d7	0.0571793
86	0xbd894719	-0.06703014
87	0xbd6da40d	-0.05801778
88	0x3e0c6149	0.13708986
89	0xbc6d686b	-0.014490227
90	0x3c9d6bf3	0.019216513
91	0xbe091170	-0.13385558
92	0xbc8b63b9	-0.017015325
93	0x3d5d51d2	0.054033108
94	0xbc587c6f	-0.013213261
95	0x3d274682	0.040838726
96	0x3d9cffcc	0.07665977
97	0x3d4a77da	0.049430706
98	0x3d61c341	0.05511785
99	0xbd69306c	-0.056930944
100	0xbc3f1653	-0.011663037
101	0x3aa12d82	0.0012296888
102	0xbdcd04e9	-0.10010702
103	0x3c3130ff	0.010814904
104	0x3db07215	0.086155094
105	0x3dda4da2	0.106593385
106	0xbda92772	-0.08259477
107	0xbe023850	-0.12716794
108	0x3d6da859	0.058021877
109	0x3d06a200	0.03286934
110	0xbd454f07	-0.04817107
111	0x3c8db3de	0.017297681
112	0x3de8f214	0.11374298
113	0x3dc8a1ea	0.09796508
114	0xbcf6d128	-0.03012903
115	0x3d94bc40	0.07262468
116	0xbd6a5c56	-0.057216965
117	0xbbd9e1fa	-0.006649253
118	0xbe31bca3	-0.17357115
119	0xbdb2ff3d	-0.08740089
120	0x3d7c3eb4	0.061583236
121	0x3bf74bfc	0.0075469
122	0xbe172585	-0.14760406
123	0xbd61a1ea	-0.055086054
124	0x3e2795f6	0.163658
125	0xbd2cebf5	-0.042217214
126	0x3d89dc76	0.06731503
127	0xbd25cfbc	-0.040481314
128	0x3d12e67b	0.035864335
129	0x3c628961	0.013826699
130	0x3cad37ef	0.021144835
131	0x3d1e58ef	0.038659032
132	0x3d486f2e	0.048934154
133	0xbdc4d7fd	-0.09611509
134	0x3e3d1e4c	0.18468589
135	0xbe3e93b3	-0.1861103
136	0xbcc6447a	-0.024202574
137	0x3e2056f0	0.15658164
138	0xbe109e43	-0.14122872
139	0x3c66be78	0.014083497
140	0x3cb3b3aa	0.021936256
141	0x3decd871	0.115647204
142	0xbd7849e5	-0.060617346
143	0x3c6ba718	0.0143831
144	0xbd35b632	-0.044363208
145	0x3e2b3bf7	0.16722094
146	0xbd49b265	-0.049242396
147	0xbda43f0f	-0.0801984
148	0xbca61643	-0.020274287
149	0x3ba3c0bd	0.0049973414
150	0x3d4de8c5	0.050270814
151	0x3dc0b068	0.09408647
152	0xbd032cdd	-0.032025207
153	0xbceb3384	-0.028711088
154	0x3d1ed4b0	0.038777053
155	0xbd851fa6	-0.06500177
156	0xbca61ef5	-0.020278433
157	0x3da10a3c	0.0786328
158	0x3d7f7857	0.062370624
159	0x3e4bd401	0.19905092
160	0xbe08569f	-0.13314293
161	0xbe34d819	-0.1766056
162	0x3e45c47a	0.19313231
163	0xbd1b19b9	-0.037866328
164	0xb9b0774b	-0.00033658216
165	0x3da3cd63	0.07998159
166	0x3e0ffc36	0.14061055
167	0xbdf8d7d7	-0.12150543
168	0x3dc78e8d	0.09743986
169	0x3e09291a	0.13394585
170	0xbdf02116	-0.11725061
171	0xbe8d750a	-0.27628356
172	0x3cd48d35	0.025946239
173	0xbdb9c659	-0.09071035
174	0xbd925e8c	-0.0714694
175	0x3b50d6a6	0.0031866222
176	0x3d261e8c	0.040556476
177	0x3d9639d8	0.073352516
178	0xbd6af11f	-0.057358857
179	0x3c219dc7	0.009864277
180	0x3df118b8	0.11772293
181	0x3b06115b	0.0020457122
182	0x3c5198c1	0.012792767
183	0xbe60a965	-0.21939619
184	0xbe235a79	-0.15952481
185	0xbd9d36d8	-0.07676476
186	0xbd8e888b	-0.06959637
187	0x3dcf50ed	0.10122857
188	0xbc671498	-0.014104031
189	0xbd9ccdc3	-0.076564334
190	0xbe37b724	-0.17940956
191	0xbd9be09c	-0.076112
192	0x370cf860	8.40248e-06
193	0x3d3a74cc	0.045521542
194	0x3d6b8bfb	0.057506543
195	0xbe3b2a4c	-0.18277854
196	0xbe02bb0e	-0.12766668
197	0xbd9914f7	-0.07474702
198	0x3e4073fa	0.18794242
199	0xbcae535b	-0.021279981
200	0xbd530ed6	-0.05152782
201	0xbdecdc8c	-0.115655035
202	0x3d0ce7c5	0.03440072
203	0x3d0a3b88	0.03374818
204	0x3e3f0d14	0.18657333
205	0x3b984004	0.004646303
206	0x3d0239f3	0.031793546
207	0x3db5f36c	0.0888432
208	0xbdb10663	-0.08643796
209	0x3e0336cd	0.12813874
210	0xbe3e90d2	-0.18609932
211	0x3d206540	0.03915906
212	0xbe237b54	-0.15965015
213	0xbd0972d9	-0.033556793
214	0xbdcdb287	-0.10043817
215	0x3e2fe5b5	0.1717747
216	0x3d847ff2	0.06469716
217	0x3dd9ec02	0.10640718
218	0x3d3b91eb	0.045793455
219	0xbc29519a	-0.010334397
220	0x3cbe5762	0.023235027
221	0xbe2bc190	-0.16773057
222	0x3d91f8d2	0.07127537
223	0xbc842243	-0.016129619
224	0xbdd8b669	-0.10581667
225	0x3de32712	0.110914364
226	0xbd9caebd	-0.07650516
227	0xbdfdf1aa	-0.123996094
228	0xbc2c445a	-0.010514343
229	0xbd521269	-0.05128709
230	0x3d820de4	0.06350306
231	0x392711c5	0.00015932981
232	0x3c92850d	0.01788571
233	0x3d2b691d	0.04184829
234	0xbc254c2b	-0.010088961
235	0x3b25db98	0.002530789
236	0x3de4ea4e	0.111775026
237	0xbaeebd99	-0.0018214463
238	0xbead2d4f	-0.3382363
239	0xbe29e9c8	-0.16593087
240	0xbe13c0cd	-0.14429016
241	0xbd9ae420	-0.07563043
242	0x3d39e32f	0.045382675
243	0xbd233e30	-0.03985423
244	0x3e365f1d	0.1780972
245	0xbd97472c	-0.07386622
246	0x3d9c7b95	0.07640759
247	0xbd8250ae	-0.06363045
248	0xbd730eb3	-0.05934019
249	0x3d8acfa5	0.06777886
250	0xbc65157e	-0.013982175
251	0x3c4a5c7e	0.012351153
252	0x3e1b9457	0.15193306
253	0xbd03f5b6	-0.03221675
254	0xbe0281c3	-0.12744813
255	0x3cbdd791	0.02317408
