results/ppo/My Behavior/My Behavior-7200.pt (torch, 152847 bytes, 10 tensors)

network_body._body_endoder.seq_layers.0.weight f4 [128, 10]
00000000: 945e 4fbe 74e8 af3e d885 393d 7f01 fa3e
00000010: 2487 18be 6a5c 373d bc90 673e 4a10 38bf
00000020: 9e2c d23e 895c f4be 1c08 03be 7658 1c3f
00000030: 140e ccbe 7195 9f3e e4a7 a03e 14f1 833d
00000040: 73ad 513c 467c 74be affd a5be 80af f13e
00000050: 80e7 153e 03d4 f13e bed4 743e 67a3 00bf
00000060: 68f7 50be 12c1 a3bc 0ed8 373f 6741 98bd
00000070: 4242 37be b404 0f3c 52e2 f73e af84 713d
00000080: 2e1b c13e 226e 173d 9efd 203e 8007 4abf
00000090: 4c6b a23d 7f31 4a3d a4e0 c5be d225 0a3f
000000a0: 46d7 433e 70d4 19be 2c05 963d 2831 263f
000000b0: c940 943e 38c0 3cbe 737f 1c3f 10d4 babe
000000c0: 9722 003e 2cb3 00be 2323 163e cc65 9f3e
000000d0: ae1c 0b3f b101 ee3d 75fb 543d 760d 18bf
000000e0: 997e 733e 4131 873e a65f 6f3e 73e8 7dbc
000000f0: a58b 0ebe 148c 233e 842d 7e3e 116a 30bf
00000100: b1e5 b73e ee78 20be d01a 22be 79e0 283f
00000110: 65d0 853e 80b3 b83e 1b6f 3a3e 64bc a4be
00000120: dc0e b33d 9eac 573e 95e3 093d b6a4 843e
00000130: 31b1 e23e 2946 9c3d 08b8 933d 9725 e3be
00000140: f827 68be 304c 6dbd 5707 cd3d d524 2fbe
00000150: 2534 153e b6c1 e03d 38ad d1be 5698 013f
00000160: 57e3 503e 8171 b73e cc8c d53e e81e 473e
00000170: 1d9a 223e 784e 2dbd 9062 54bd f779 cdbe
00000180: 3c4c dd39 982b acbe 4f24 d43e f022 413e
00000190: 91cb a5be d10a 9c3e 84be 893e fa64 cb3d
000001a0: e322 33be 182c ea3d 85f4 04be 0043 dd3e
000001b0: 5556 cb3d c521 dc3d e9bb 29bd 2377 40bf
000001c0: 748c df3e 4782 b23c 7bc9 8fbd 85e4 17bf
000001d0: f3e9 06bd 9cee c73d fe53 ae3d a28a aabd
000001e0: 1e4b 0e3f 7535 2dbf 3342 8cbd a8e9 663f
000001f0: cf8f f23e d9a5 ec3d 4415 1dbf beda 483f
00000200: 7084 22bf 9653 bcbc 455c a2be 0166 8d3c
00000210: 4c5c 8cbe c624 bf3c c635 973e 803b a9bd
00000220: 63f3 4a3d 3522 89be 88f7 393f 966c 1cbf
00000230: 8fda 2d3e b942 5dbe d56e 0f3d 8337 e1be
00000240: 8671 e8bd 6934 ecbb 11b6 58be 6135 f83d
00000250: a956 67be 5a29 9b3d 6925 8d3e 68df c73e
00000260: 273d 9bbe 7c4e 8f3e b25d 85be 1d9a f23e
00000270: bb70 a23d cce8 debd bb24 2d3e f1d2 263e
00000280: f692 e93d 94e1 99be f96b c5bd b011 61bd
00000290: 4bfa 7d3e df1a 3b3d 5a83 15be a6c3 e43e
000002a0: 70b2 013d e054 00bd 6102 2e3e 66ad dbbe
000002b0: bcd6 63be d9f9 9bbe 7443 483f 9bc1 b5ba
000002c0: 5f1c 8bbd 3330 4a3e e9a0 b4be 8454 bcbe
000002d0: 9474 50be 602d cbbd e4b6 47bc eb74 1cbe
000002e0: e711 963e 455e b23d 5a5c 003f 0e50 1e3f
000002f0: 1251 1c3f 26a1 c3be 5f51 9d3e 67bb 7abd
00000300: b6a2 543e ef6a 8b3e 6360 433d 8e68 153f
00000310: a5a5 e63d 359f 64be 25fb 873e b1d7 423d
00000320: 716b 94bd 18af 993e a630 6a3e 24fa 9abe
00000330: 956e dd3e 5e32 06be 78d7 a43d 1f25 23be
00000340: 0e56 483f aade 77bc 560d d53d 78e7 a23d
00000350: 8499 443f 665c 223f 6534 5fbd a278 04be
00000360: 3d1b 293e 1fb9 403e 5aaa bb3d a820 1abf
00000370: b15f b43d 1e15 c0bc 389c f5bd a4c7 2fbe
00000380: 9c8e d23e 07d1 443c 7f3c a63f b04c 95be
00000390: 3336 bbbd 7aa2 fabe add8 0bbd dada 2c3e
000003a0: d337 eb3e 96c6 683d 1fd2 9abd 6ee1 d63e
000003b0: 3ef3 93be 003e 44bf e8e0 63be e612 533d
000003c0: e652 ecbd 23fd 4c3e fd6f 9c3e 0261 59bb
000003d0: 384e f2bd 348d 1ebe 193a 4bbe 1c1e 6d3b
000003e0: d7de 34be 437b 22bf 5bcf 3abe fd04 22bf
000003f0: 1d54 853e 1532 24be ab38 3dbf 8140 113f
-0.20250922 0.34357035 0.04529366 0.48829266 -0.14895302 0.044765867 0.22613806 -0.71899855
0.41049665 -0.4772685 -0.12796062 0.6107248 -0.3985449 0.31168702 0.3137809 0.064424664
0.012797701 -0.23875532 -0.32420108 0.47204208 0.14639091 0.47232065 0.2390928 -0.5024933
-0.20406878 -0.019989524 0.7181405 -0.074343495 -0.17896369 0.008729149 0.48414856 0.058964428
0.3771605 0.036970265 0.15721747 -0.78917694 0.079306215 0.04936361 -0.3864795 0.5396396
0.19125089 -0.15022445 0.07325205 0.64918756 0.28955677 -0.184327 0.6113197 -0.36489916
0.12513195 -0.12568349 0.14661841 0.31132352 0.54340637 0.11621416 0.05199762 -0.5939554
0.23778762 0.26404765 0.2337633 -0.015497315 -0.13920458 0.15971404 0.2482205 -0.68911844
0.35917428 -0.15671131 -0.1583054 0.6596752 0.26135555 0.36074448 0.18206446 -0.3217498
0.087430686 0.21061942 0.033664305 0.25906914 0.4427581 0.076305695 0.072128356 -0.44364616
-0.22671497 -0.057933986 0.100111656 -0.17103894 0.14570673 0.109744474 -0.40952468 0.5062307
0.20399223 0.35828784 0.41708982 0.19445384 0.15879102 -0.04231116 -0.05185181 -0.40132114
0.00042209204 -0.3362701 0.4143395 0.18860984 -0.3238187 0.30477002 0.26903164 0.09931369
-0.17493777 0.114341915 -0.12983902 0.4321518 0.09928576 0.107486285 -0.04143897 -0.7518179
0.43661845 0.021790637 -0.07020851 -0.5933307 -0.032937955 0.09762308 0.08512114 -0.08327223
0.5558337 -0.67659694 -0.06848564 0.9020028 0.47375342 0.115550704 -0.61360574 0.78458774
-0.63483334 -0.022989076 -0.3171102 0.017260553 -0.27414167 0.023332965 0.29533213 -0.08263302
0.049548518 -0.2678391 0.7264333 -0.6110319 0.16977905 -0.21607484 0.035017807 -0.43987665
-0.11349778 -0.007208396 -0.21163203 0.12119556 -0.22591652 0.075762466 0.27567604 0.39037633
-0.30320093 0.27989566 -0.26048046 0.47383204 0.07931658 -0.10884246 0.16908543 0.16291405
0.11404984 -0.30054915 -0.09639735 -0.05494851 0.2480251 0.045679923 -0.14600888 0.44680518
0.031664312 -0.031330943 0.16993095 -0.4290573 -0.22249883 -0.30464056 0.78227925 -0.0013866903
-0.06792521 0.19744949 -0.35279015 -0.3678323 -0.20356971 -0.09920764 -0.012189601 -0.15278976
0.29310533 0.08709387 0.5014092 0.61840904 0.61061203 -0.38208884 0.30726144 -0.061213877
0.20765194 0.2723002 0.047699343 0.5836266 0.11262063 -0.22326358 0.26558796 0.04756898
-0.07247055 0.30016398 0.2287012 -0.30268967 0.4324843 -0.13105151 0.0804891 -0.1593213
0.7825631 -0.015128771 0.10402934 0.079543054 0.76796746 0.6342224 -0.054493327 -0.12936643
0.16514297 0.18820618 0.09163351 -0.6020608 0.08807314 -0.02344757 -0.11992687 -0.17166
0.41124427 0.012012727 1.2987212 -0.2916007 -0.09141197 -0.48952085 -0.034142185 0.1688036
0.45941028 0.05683001 -0.07559609 0.41968864 -0.28896517 -0.76657104 -0.22253764 0.051531695
-0.11539249 0.20018439 0.3055419 -0.0033169393 -0.11831325 -0.15483552 -0.19846381 0.0036181277
-0.17663132 -0.6346933 -0.18243162 -0.6328886 0.26040736 -0.1603473 -0.73914593 0.5673905

network_body._body_endoder.seq_layers.0.bias f4 [128]
00000000: 0000 0000 0000 0000 0000 0000 0000 0000
00000010: 0000 0000 0000 0000 0000 0000 0000 0000
00000020: 0000 0000 0000 0000 0000 0000 0000 0000
00000030: 0000 0000 0000 0000 0000 0000 0000 0000
00000040: 0000 0000 0000 0000 0000 0000 0000 0000
00000050: 0000 0000 0000 0000 0000 0000 0000 0000
00000060: 0000 0000 0000 0000 0000 0000 0000 0000
00000070: 0000 0000 0000 0000 0000 0000 0000 0000
00000080: 0000 0000 0000 0000 0000 0000 0000 0000
00000090: 0000 0000 0000 0000 0000 0000 0000 0000
000000a0: 0000 0000 0000 0000 0000 0000 0000 0000
000000b0: 0000 0000 0000 0000 0000 0000 0000 0000
000000c0: 0000 0000 0000 0000 0000 0000 0000 0000
000000d0: 0000 0000 0000 0000 0000 0000 0000 0000
000000e0: 0000 0000 0000 0000 0000 0000 0000 0000
000000f0: 0000 0000 0000 0000 0000 0000 0000 0000
00000100: 0000 0000 0000 0000 0000 0000 0000 0000
00000110: 0000 0000 0000 0000 0000 0000 0000 0000
00000120: 0000 0000 0000 0000 0000 0000 0000 0000
00000130: 0000 0000 0000 0000 0000 0000 0000 0000
00000140: 0000 0000 0000 0000 0000 0000 0000 0000
00000150: 0000 0000 0000 0000 0000 0000 0000 0000
00000160: 0000 0000 0000 0000 0000 0000 0000 0000
00000170: 0000 0000 0000 0000 0000 0000 0000 0000
00000180: 0000 0000 0000 0000 0000 0000 0000 0000
00000190: 0000 0000 0000 0000 0000 0000 0000 0000
000001a0: 0000 0000 0000 0000 0000 0000 0000 0000
000001b0: 0000 0000 0000 0000 0000 0000 0000 0000
000001c0: 0000 0000 0000 0000 0000 0000 0000 0000
000001d0: 0000 0000 0000 0000 0000 0000 0000 0000
000001e0: 0000 0000 0000 0000 0000 0000 0000 0000
000001f0: 0000 0000 0000 0000 0000 0000 0000 0000
0.0 0.0 0.0 0.0 0.0 0.0 0.0 0.0
0.0 0.0 0.0 0.0 0.0 0.0 0.0 0.0
0.0 0.0 0.0 0.0 0.0 0.0 0.0 0.0
0.0 0.0 0.0 0.0 0.0 0.0 0.0 0.0
0.0 0.0 0.0 0.0 0.0 0.0 0.0 0.0
0.0 0.0 0.0 0.0 0.0 0.0 0.0 0.0
0.0 0.0 0.0 0.0 0.0 0.0 0.0 0.0
0.0 0.0 0.0 0.0 0.0 0.0 0.0 0.0
0.0 0.0 0.0 0.0 0.0 0.0 0.0 0.0
0.0 0.0 0.0 0.0 0.0 0.0 0.0 0.0
0.0 0.0 0.0 0.0 0.0 0.0 0.0 0.0
0.0 0.0 0.0 0.0 0.0 0.0 0.0 0.0
0.0 0.0 0.0 0.0 0.0 0.0 0.0 0.0
0.0 0.0 0.0 0.0 0.0 0.0 0.0 0.0
0.0 0.0 0.0 0.0 0.0 0.0 0.0 0.0
0.0 0.0 0.0 0.0 0.0 0.0 0.0 0.0

network_body._body_endoder.seq_layers.2.weight f4 [128, 128]
00000000: 5e06 2c3c a7d1 7cb9 1471 04bd e451 a2ba
00000010: d4f2 293e fdee 943d 7e2f 843e 03ba 05be
00000020: a219 0fbe 451b 68bd a2a8 9dbc 5a33 ff3d
00000030: eb4e 723c 91ff 1ebd df55 913d f76d b73d
00000040: c053 6ebd 2539 f7bc 3e48 cbbd 632f 07be
00000050: 0ce8 b03d 0d13 0bbd 14c9 20bd 5c04 3cbe
00000060: f5e6 84ba f1c0 0d3d fed5 a6bd 75a6 48bd
00000070: c3d7 e73d cf3c d33c 3c12 6ebd 27bf 8b3d
00000080: 251b d53b e979 06bd 050b f23d cccf a13d
00000090: 59a5 1ebe 18e4 af3d 42fa e6bd 9c9e b83c
000000a0: 0737 bcbd e1a6 e43d 3d71 cbbb 02c7 fa3c
000000b0: bf5f f83c 8e73 a03d 7d0b a33c 3fc5 54bc
000000c0: 7f7d 9dbc c047 343d 7f23 14bd 0e16 643b
000000d0: 8360 a43d 47cf 41bd fe9d c339 4614 b03d
000000e0: 7761 5abd 6b2a 1b3d 1b63 173d 0b93 cabd
000000f0: 13fd e3bd a59b f13d 61ea ad3d 9b48 64bd
00000100: fcc9 d3bd b473 9cbd b333 81bc 532f 2bbe
00000110: bae3 26be cb8e 883d 7dff b8bd f910 e3bd
00000120: 14bf af3c 1c9d 903d 75ea 7f3d 4187 33be
00000130: ae53 a63d 6694 3d3d ecab de3b 0ea7 f2bd
00000140: 659e d23d 0483 9cbc a01b 8c3d 61f2 f53b
00000150: fc85 afbd 1c90 bf3d dced 62bd 09c3 a13d
00000160: c00b 0dbd d5b5 5dbd 7e6a 20bd 27cb d7bd
00000170: a4e9 c03c b1ff 9ebd 3db2 9dbd 9f50 1a3c
00000180: 440d 40bd 495c 38bd e3e5 14bd 0872 a4bd
00000190: 720c 75bd a763 083e 9198 5bbe 8002 febd
000001a0: 8c1f 8abd 08da 443d bd77 e13d c5bb 79bd
000001b0: ec56 04be f021 e5bd 3fe2 c5bd 3b2e 71be
000001c0: dc0c c9bd 29a8 37be c0a9 78bd 7980 cbbd
000001d0: f0d9 5f3e 7549 ba3d c25e 023d cfab 903c
000001e0: dc06 8c3d e0cd a1bd 0c65 4e3e 68d9 463e
000001f0: 0f66 c1bc 00a2 c0bd e844 e4bd 28e8 23bd
00000200: a6fb 273d 9acc a03d 59a4 493b 5743 a5bd
00000210: 0ab4 8f3d eec7 95bd f126 34bd a667 103d
00000220: 9f7c 76bb df10 72bd 697a c93c bd29 0bbc
00000230: dd6a 003d 6372 503d 9ceb a8bd 43ab d23d
00000240: c9c5 0abd 6fb0 62bd 1785 96bd 865c 3cbd
00000250: fcd0 16be 3768 093e b3bf 693d ae8e debd
00000260: b3ad 6f3d 4670 973c 22f2 9c3d 00e0 50bd
00000270: 9fc6 563d b39f 353d 8227 56be 12e3 2a3e
00000280: 07b4 253c a3e9 c1bd 5bab 473d 9434 d8bb
00000290: 6915 fe3d 6254 4abd e6d4 493d 992c 2a3d
000002a0: 13da 52bd 08a8 ec3d ef42 653c d503 ed3c
000002b0: 57fc 303e 05bf 4a3d 9703 963d e72f ab3d
000002c0: c41c 28bd b34b 863d 330c 263c 48d2 893d
000002d0: a521 d2bd 717b 90bd 6903 0d3d 027c 60bd
000002e0: 143f d33c af7c 76be 3cc2 d13d aa54 483c
000002f0: 468d 9c3d 07e0 d1ba 3ddd ea3c 8962 b53c
00000300: 9da3 9f3d b2d5 b63d 58e1 29be 563a 003d
00000310: 4bd1 13be f26d bebd 6a93 373e 06ec b4ba
00000320: 45a3 393d 88c1 9dbd 4ceb 3cbe b09a 593d
00000330: 9d92 b8bb 87dd 22bd 4806 cbbd c070 5f3d
00000340: 4d7a e23c d65c 67bd 04e3 a93d 9ad1 10bd
00000350: b73f de3d 9353 533d 420f 313b a234 a8bc
00000360: 13e8 9bbc 9502 8abd 2683 0ebd 5d94 d73d
00000370: c21d df3d 8906 ed39 7d87 ed3d ed53 933c
00000380: 16a5 5b3d 772c 25bd e162 ce3d 98bb 48bc
00000390: 0216 393e 0119 72bd e616 2fbd 5c68 093e
000003a0: 913e 26bb c561 213d 09a4 183d 8501 ef3c
000003b0: 4778 e43d 8e9f b33c aef0 a13c 9ade 8fbd
000003c0: 1605 17be 9609 383e 07a4 483d e85c 98bd
000003d0: 7835 863d da90 d83d 92f8 b63d 6be4 38bd
000003e0: a7fa 0b3d 1dec cdbd 4f12 74bc 7e86 b6bb
000003f0: 97dc 0abe 6cde 903d d76c c03d a5f4 fdbd
0.010499565 -0.00024110694 -0.032334402 -0.0012384024 0.16596538 0.07272146 0.25817484 -0.13059239
-0.13974622 -0.05666663 -0.01924545 0.124609664 0.014789323 -0.038817946 0.07096457 0.08956521
-0.05818534 -0.030178616 -0.099258885 -0.1320167 0.086380094 -0.033953715 -0.039254263 -0.18361038
-0.0010139631 0.03460783 -0.081462845 -0.04898687 0.1132045 0.025785832 -0.05812286 0.06823569
0.00650348 -0.032831106 0.11818508 0.07900962 -0.15492763 0.08588427 -0.11278202 0.022536568
-0.09190183 0.11164642 -0.0062085674 0.030612472 0.030319093 0.0783454 0.019902939 -0.01298648
-0.01922488 0.04401374 -0.036166664 0.0034803185 0.08026221 -0.047316816 0.00037311012 0.08597617
-0.053315606 0.03788225 0.03695975 -0.098913275 -0.111322545 0.11797265 0.0849197 -0.055733304
-0.1034126 -0.07639256 -0.015771722 -0.16717272 -0.16297808 0.066678606 -0.090331055 -0.11087222
0.021453418 0.07061216 0.062479455 -0.17532064 0.081214294 0.046284102 0.006795397 -0.118482694
0.102841176 -0.019105442 0.068412066 0.0075057005 -0.08570477 0.093536586 -0.05540262 0.07898528
-0.034435034 -0.054128487 -0.03916406 -0.10536795 0.023548909 -0.07763613 -0.07700012 0.009418636
-0.04688765 -0.045009885 -0.03635205 -0.08029562 -0.059826322 0.13319264 -0.21444918 -0.124028206
-0.06744298 0.048059493 0.110091664 -0.060970087 -0.12923783 -0.11188114 -0.09662294 -0.23552792
-0.09816906 -0.17935242 -0.06070876 -0.099366136 0.2186048 0.09096042 0.03182865 0.01766005
0.06837246 -0.07900596 0.20155734 0.19418871 -0.023608236 -0.09405899 -0.11145955 -0.040016323
0.041011475 0.07851525 0.0030768125 -0.08069485 0.070167616 -0.07313524 -0.04398245 0.035255097
-0.00376109 -0.05909812 0.024594503 -0.008493838 0.031351913 0.050890338 -0.08248064 0.10286572
-0.03388003 -0.05534404 -0.073496036 -0.045986675 -0.14728159 0.13418661 0.057067584 -0.10867058
0.05851526 0.018486153 0.07663371 -0.050994873 0.052435514 0.044341754 -0.20913509 0.16688183
0.010113723 -0.09468391 0.0487474 -0.0065980647 0.124064274 -0.04939688 0.0492753 0.041546438
-0.051477503 0.11555487 0.013993009 0.028932491 0.1728376 0.049498577 0.073249035 0.08358746
-0.041043058 0.06557407 0.010134744 0.06729561 -0.102603234 -0.070547946 0.03442708 -0.054805763
0.025786914 -0.24071 0.102421254 0.012227217 0.07644133 -0.00160122 0.028669948 0.022141712
0.07794879 0.08927478 -0.16589868 0.031305633 -0.14435308 -0.09298314 0.17927328 -0.0013803251
0.04532172 -0.07702929 -0.18449134 0.053126037 -0.005632712 -0.039762046 -0.099133074 0.054550886
0.027646208 -0.05648502 0.08295253 -0.03535614 0.108519964 0.051593374 0.002701715 -0.02053291
-0.01903156 -0.06738774 -0.03479304 0.10526345 0.10894348 0.00045209032 0.11598108 0.017984355
0.053624235 -0.040325608 0.100774534 -0.012251757 0.18074802 -0.059105877 -0.042746447 0.13418716
-0.0025366882 0.03939988 0.03726581 0.02917553 0.111557536 0.021926668 0.019768085 -0.0702488
-0.14748034 0.17972407 0.048984554 -0.074395955 0.06553167 0.10574503 0.0893413 -0.04513971
0.034174588 -0.10054801 -0.014896943 -0.005570232 -0.13560711 0.070736736 0.093957596 -0.12400178

network_body._body_endoder.seq_layers.2.bias f4 [128]
00000000: 0000 0000 0000 0000 0000 0000 0000 0000
00000010: 0000 0000 0000 0000 0000 0000 0000 0000
00000020: 0000 0000 0000 0000 0000 0000 0000 0000
00000030: 0000 0000 0000 0000 0000 0000 0000 0000
00000040: 0000 0000 0000 0000 0000 0000 0000 0000
00000050: 0000 0000 0000 0000 0000 0000 0000 0000
00000060: 0000 0000 0000 0000 0000 0000 0000 0000
00000070: 0000 0000 0000 0000 0000 0000 0000 0000
00000080: 0000 0000 0000 0000 0000 0000 0000 0000
00000090: 0000 0000 0000 0000 0000 0000 0000 0000
000000a0: 0000 0000 0000 0000 0000 0000 0000 0000
000000b0: 0000 0000 0000 0000 0000 0000 0000 0000
000000c0: 0000 0000 0000 0000 0000 0000 0000 0000
000000d0: 0000 0000 0000 0000 0000 0000 0000 0000
000000e0: 0000 0000 0000 0000 0000 0000 0000 0000
000000f0: 0000 0000 0000 0000 0000 0000 0000 0000
00000100: 0000 0000 0000 0000 0000 0000 0000 0000
00000110: 0000 0000 0000 0000 0000 0000 0000 0000
00000120: 0000 0000 0000 0000 0000 0000 0000 0000
00000130: 0000 0000 0000 0000 0000 0000 0000 0000
00000140: 0000 0000 0000 0000 0000 0000 0000 0000
00000150: 0000 0000 0000 0000 0000 0000 0000 0000
00000160: 0000 0000 0000 0000 0000 0000 0000 0000
00000170: 0000 0000 0000 0000 0000 0000 0000 0000
00000180: 0000 0000 0000 0000 0000 0000 0000 0000
00000190: 0000 0000 0000 0000 0000 0000 0000 0000
000001a0: 0000 0000 0000 0000 0000 0000 0000 0000
000001b0: 0000 0000 0000 0000 0000 0000 0000 0000
000001c0: 0000 0000 0000 0000 0000 0000 0000 0000
000001d0: 0000 0000 0000 0000 0000 0000 0000 0000
000001e0: 0000 0000 0000 0000 0000 0000 0000 0000
000001f0: 0000 0000 0000 0000 0000 0000 0000 0000
0.0 0.0 0.0 0.0 0.0 0.0 0.0 0.0
0.0 0.0 0.0 0.0 0.0 0.0 0.0 0.0
0.0 0.0 0.0 0.0 0.0 0.0 0.0 0.0
0.0 0.0 0.0 0.0 0.0 0.0 0.0 0.0
0.0 0.0 0.0 0.0 0.0 0.0 0.0 0.0
0.0 0.0 0.0 0.0 0.0 0.0 0.0 0.0
0.0 0.0 0.0 0.0 0.0 0.0 0.0 0.0
0.0 0.0 0.0 0.0 0.0 0.0 0.0 0.0
0.0 0.0 0.0 0.0 0.0 0.0 0.0 0.0
0.0 0.0 0.0 0.0 0.0 0.0 0.0 0.0
0.0 0.0 0.0 0.0 0.0 0.0 0.0 0.0
0.0 0.0 0.0 0.0 0.0 0.0 0.0 0.0
0.0 0.0 0.0 0.0 0.0 0.0 0.0 0.0
0.0 0.0 0.0 0.0 0.0 0.0 0.0 0.0
0.0 0.0 0.0 0.0 0.0 0.0 0.0 0.0
0.0 0.0 0.0 0.0 0.0 0.0 0.0 0.0

action_model._continuous_distribution.mu.weight f4 [1, 128]
00000000: 6c05 9aba 008c 213c f742 12bc e792 da3b
00000010: a378 99bc 9fd6 7dbc 0812 513d 4d00 0e3d
00000020: 54d6 893b a5a2 503c 85ef 953c 0314 2c3b
00000030: ef16 e33b 4716 c7bb dda7 893c 64b4 163d
00000040: 36d7 0cbc 0d12 afbc 7f69 253c fcfa 02bd
00000050: e01d a63c 2877 f23a 279b 363c fb51 d6bb
00000060: cb28 2c3b 1f6a a0bb 7fca 0539 a723 1c3b
00000070: 1be7 01bb 869c 8c3b f9c1 a6bb 80ee bd3a
00000080: 582a af3c 2523 9f3b 54a5 053d ca9d 0e3d
00000090: 8a01 16bc 17bb 6fbc 1764 76bc 302f 19bc
000000a0: e70b 813c 97f3 a7bc 3ac7 febc f32c 39bc
000000b0: 7b0b f33c 2da8 303c 5600 0dbc aade 413c
000000c0: 032d 18bc 1bc9 973c a3fa 053d f5a2 8f3a
000000d0: 3d15 883c a6dc b5bc c38e 913c 7f9e b0bc
000000e0: ba42 1f3c 1bd0 703c 69ec 92bb aadb 203c
000000f0: 41bb 043b bb99 1c3c cf88 783c ff99 a8bc
00000100: 9687 4c3d b3d2 9bbc 1fb4 653c 40b5 bdbc
00000110: cf3f cbbb 5442 a9bc bf6b 9a3a c2bd 23bc
00000120: 0328 ab3c 2116 813b 0063 353c 4d2c a33c
00000130: 7a71 833a c0c3 efbb a338 80bc 1f08 083a
00000140: 2160 8b3b aa5d a43b 6f47 8b3c ddc3 a6bb
00000150: 548f 143c fb31 1a3c a206 06bc b371 2f3c
00000160: 79b0 87bc ebdb 4d3a 6fae 633a b359 a43c
00000170: 77ee 6dbb 4b8b e33b 9602 16bc 5bbf ed3c
00000180: f3b6 80bb c362 dfba a0d0 48bc 8352 6e3c
00000190: 9bfb d3bb db5d 21bc 79ce aa39 7823 b83c
000001a0: 2389 f8bb 82af fe3c 842d 143c 8727 a63b
000001b0: 4b44 10bc 1bf6 773b 021e d2bc 5f90 7b3c
000001c0: 303e f839 7637 9abc 99aa b73c a095 ff3b
000001d0: 57b8 debc 5afa 0abc 5a01 04bd 9033 943a
000001e0: ecd8 8dbb dac8 7fba 7fc2 1dbc 7df5 fabb
000001f0: 6ad0 a83c 761a 10bb 5786 93bc 486e 443c
-0.0011750883 0.009860039 -0.0089270985 0.006670344 -0.018734282 -0.015493064 0.051042587 0.034668256
0.004206458 0.01273409 0.018302688 0.0026257045 0.006930224 -0.0060756537 0.016803676 0.036793128
-0.008596232 -0.021370912 0.010095953 -0.03197764 0.020277917 0.0018498646 0.01114539 -0.0065405346
0.0026269432 -0.004895463 0.00012759304 0.0023824961 -0.0019821587 0.00429112 -0.0050890413 0.0014490634
0.021382496 0.0048564845 0.032628372 0.034818448 -0.00915564 -0.014632008 -0.015038512 -0.009349629
0.015752746 -0.020501895 -0.031100858 -0.011302221 0.02966856 0.010782284 -0.008606037 0.011832872
-0.009288075 0.018528512 0.03270973 0.0010958599 0.01661169 -0.02219994 0.01776827 -0.021559952
0.009720499 0.014698054 -0.0044837487 0.009817997 0.0020253214 0.009558137 0.015169336 -0.020581244
0.049933992 -0.019021368 0.014019995 -0.023157716 -0.006202675 -0.02066151 0.0011781378 -0.009993972
0.020893103 0.0039394055 0.011070967 0.019918585 0.0010028325 -0.0073170364 -0.015652006 0.00051891984
0.004253403 0.0050160484 0.017001836 -0.0050892667 0.009067375 0.00941133 -0.008180292 0.01070826
-0.01656364 0.00078529 0.00086853554 0.020062303 -0.0036305466 0.0069440953 -0.00915589 0.02902191
-0.0039280592 -0.0017042983 -0.012256771 0.0145460395 -0.0064692027 -0.009849037 0.0003257876 0.02247785
-0.0075847073 0.031089548 0.009044055 0.00507063 -0.008805345 0.00378359 -0.025649074 0.015354245
0.0004734858 -0.018825274 0.022420214 0.007799819 -0.02718751 -0.00848254 -0.03222785 0.0011306871
-0.0043288376 -0.0009757407 -0.009628891 -0.007658659 0.020607192 -0.0021988428 -0.018008394 0.011989184

network_body._body_endoder.seq_layers.0.weight f4 [128, 10]
00000000: 1c6a 0cbf 595e 483e f1de 82be 8d8a 303e
00000010: 8148 003e b85a a1bd b6de 073f 34b9 b9be
00000020: 2f19 67bd fcf3 843e 237c dd3d f50b b43e
00000030: a83b c03e e903 46bd ff8d ebbe 812b 0d3f
00000040: 7082 29be d0c1 a2be 6e90 183e 9410 843e
00000050: 5ff5 4a3d 7656 1b3e 4295 1dbe e4c1 b3be
00000060: 6a77 c2be 1aff 5e3e 2f11 4ebf f7c1 2b3e
00000070: dd82 24bf a9dc a8bd a9e2 0abf 716d 06be
00000080: 8e80 a3be 56dc 0cbf c193 b3bd 38c6 003f
00000090: 3999 2fbe 4a9b 4e3c 6077 93be cf90 e03d
000000a0: 0391 9d3e 3af2 603d e75b 02be 6271 9d3e
000000b0: f780 0c3e 7510 c2bd 03b8 473e 83d6 c33e
000000c0: badb 1abf b1b4 043f e88b 3b3e 4d31 abbe
000000d0: bebe 683e b8b9 99be 175b b13d eb28 8a3d
000000e0: dc08 5e3e 2fc3 543e 9416 aabe e158 36bd
000000f0: 33ba f43d 4283 db3d dde0 173f 7ab3 15be
00000100: f950 41bf 7029 893d f431 703e 6bb5 173f
00000110: 2158 b4bd c7f8 da3e 040b 11be ee78 f1be
00000120: 7757 813d e308 763d e09a e4bd 5a09 343e
00000130: 23dc 703d d97c 80bc 761b 83be a115 99be
00000140: 9566 023d b9fd 8dbe 7b79 513e 2850 b23e
00000150: a9b0 983d c498 c33d d544 c4be d4ab e0bc
00000160: d9f5 0a3e 2c65 b4be 0a15 043e e420 ef3d
00000170: 2e5a 96be 3de8 29bf d473 1a3a 1e11 c03e
00000180: aafa fa3d 5669 d0be e631 cabe 411d b03e
00000190: 884d 5ebb 5cff ccbd e2b3 db3d a16b 543d
000001a0: 7ae2 00bf df27 293e 07ca 5b3c e47f f93e
000001b0: e2b3 c43e 1d6f cd3e 9a61 80be 5c28 903d
000001c0: 1349 2abe f95d 1d3f 1a3a b13e 2c9a b2be
000001d0: 1efc 5f3d 669b c2be ac34 c93d 2fc3 c53e
000001e0: f278 f53d dcfc 6f3e 3fc8 1b3d 4aea 013f
000001f0: 35b0 a83e 7976 3ebe 47f7 0dbe 4217 6ebd
00000200: bdcd d93e 4347 f03e 7c8b a43e 8bee 1b3e
00000210: ee49 3f3e d490 9a3e 90fd 123f 4d1b b1bc
00000220: 993c aabd 56fd 823e c7cf 2b3f c3fa e63d
00000230: 53dc 843e f44a 19be 06ab 2fbf c693 6cbc
00000240: 1084 b4be e230 adbe 5d0a 84be e6fa 933d
00000250: 4905 e73e a858 2c3f d23a aabd 7c27 81bd
00000260: 477b 043f 427c c93d 7791 b7bd 1515 14bf
00000270: a948 483e 4607 203e 575b 343e 266e 9fbe
00000280: 36a0 6e3d 3fc9 bf3e f9d8 c13e 77ef a038
00000290: aec4 50bd 9fe9 f63d efee 4e3e 2e1c bbbe
000002a0: 83a9 e73e 2987 ac3e 793b 42bd d097 3e3e
000002b0: 376e 5bbe 0e80 2abf 56c7 8dbe c6ea 9cbd
000002c0: e690 d43e 83c6 d33e 2288 8dbe 00f7 4ebe
000002d0: b9a6 f13e 8b98 b23d 384a 723e 4a39 4dbe
000002e0: fe35 70bd 2bff 46bf b8f7 02bf e4e4 563e
000002f0: 10c1 a7bb a019 20bf 5c50 14be 1cbe dc3d
00000300: 76b6 aebe 4d97 a2bd a35e 143f ba6a 97bd
00000310: 416a 33be 6301 03be 8690 e9be 5ae9 913e
00000320: cdf6 b8be ce9d 113f 950c 373c 4789 df3b
00000330: 6771 533d 24de c33e e4b3 ca3e 88bf 0abe
00000340: ac43 ee3e a671 89be a1a1 1a3f 26dc 08be
00000350: f826 dbbd ab1f dabc f04e 15be 2499 4dbd
00000360: 51c1 953e c86c 763e 02dd a9be 960a d33e
00000370: 8629 793d c4a2 a6be ce38 f23e 4f72 933e
00000380: 900f a03e 8baa 4cbe 6ff6 2f3e de7d 97be
00000390: e0d3 8ebd 31ae 97be 73fd 363e cb4a c3be
000003a0: 505b 85be 9a67 acbe b4c6 cdbe 0a22 c5bc
000003b0: ccda 37bc 7c0b ccbe 38af 973e 5fe4 133f
000003c0: 091e 753d 2a99 84bd 8a36 dfbc 38e8 c9be
000003d0: b70e eebd 99ee 283d 1a9e a7be 1f9e f1bd
000003e0: f1f3 d6bd 0ac8 64bc 1463 533c 50b5 353d
000003f0: 847a 5f3e 7bd6 b2bc 8c5a 95bc f801 9abe
-0.5484941 0.19567241 -0.25560716 0.17240353 0.12527658 -0.07878631 0.53074205 -0.3627411
-0.0564205 0.25967395 0.10814693 0.35165372 0.37545514 -0.048343573 -0.46006772 0.55144507
-0.16553664 -0.31788492 0.14898846 0.25793898 0.04955041 0.15169701 -0.15388969 -0.35108864
-0.3798173 0.21777001 -0.8049497 0.1677321 -0.6426218 -0.082452126 -0.54252106 -0.13127686
-0.31934017 -0.55023706 -0.08768416 0.5030246 -0.17148294 0.012610266 -0.28802013 0.1096512
0.30774698 0.054918505 -0.1273037 0.30750567 0.13721071 -0.09475795 0.19503789 0.38249597
-0.60491526 0.51838213 0.18315089 -0.3343605 0.22729012 -0.30024505 0.08659952 0.06746086
0.21683067 0.20777582 -0.3322035 -0.044518355 0.11949577 0.10718395 0.5932749 -0.14619246
-0.7551418 0.06697357 0.23456556 0.59261197 -0.08805872 0.42767927 -0.14164358 -0.47162575
0.06315511 0.06006707 -0.111623526 0.17581692 0.05880369 -0.015684532 -0.2560689 -0.29899314
0.03183611 -0.27732638 0.20456497 0.3482678 0.0745557 0.09550622 -0.38333765 -0.027425684
0.13570346 -0.35233438 0.12898651 0.11676195 -0.29365677 -0.6636999 0.00058918935 0.3751306
0.122548416 -0.40705365 -0.39491194 0.3439732 -0.0033920724 -0.100096434 0.10727669 0.051860455
-0.50345576 0.16519116 0.013414866 0.48730385 0.3841849 0.40123835 -0.25074464 0.07038948
-0.16629438 0.61471516 0.3461464 -0.3488325 0.054683797 -0.38009185 0.098244995 0.38625476
0.11985959 0.23436302 0.038032766 0.5074812 0.32946935 -0.18599881 -0.1386386 -0.05812765
0.42539778 0.46929368 0.32137668 0.15227716 0.18680546 0.3018862 0.57418156 -0.021619463
-0.08312339 0.25583905 0.6711392 0.11278298 0.25949344 -0.14969999 -0.68620336 -0.014439529
-0.35257006 -0.33826357 -0.25789157 0.072255895 0.4512122 0.6732278 -0.08312 -0.06306359
0.51750606 0.098381534 -0.08963292 -0.5784467 0.19558968 0.15627775 0.17612968 -0.31138724
0.058258258 0.37458226 0.3786085 7.673998e-05 -0.05096882 0.120562784 0.20208333 -0.36544937
0.45246515 0.3369687 -0.04742 0.186126 -0.21428762 -0.66601646 -0.27691144 -0.07661967
0.415168 0.4136239 -0.27642924 -0.2021141 0.47197512 0.087205015 0.23661125 -0.20041385
-0.05864524 -0.77733105 -0.5115924 0.20985752 -0.0051194504 -0.625391 -0.1448378 0.10778448
-0.34123582 -0.079390146 0.57956904 -0.07393403 -0.17521001 -0.12793498 -0.45618075 0.28498346
-0.36125794 0.56881416 0.011172433 0.0068217847 0.05162182 0.38255417 0.3959037 -0.13549626
0.46536005 -0.2684452 0.60402876 -0.1336523 -0.10700792 -0.026626429 -0.14580894 -0.050194874
0.2924905 0.24064934 -0.33176428 0.41219014 0.060830615 -0.32546055 0.47308964 0.28798148
0.31261873 -0.19986932 0.1718385 -0.29588217 -0.06974006 -0.29625085 0.1787012 -0.38143
-0.26046228 -0.33672792 -0.4019066 -0.024064083 -0.011221599 -0.39852512 0.2962587 0.5777034
0.059843097 -0.06474526 -0.027247686 -0.3943498 -0.116239004 0.04124317 -0.3273781 -0.11797737
-0.10495747 -0.013963709 0.01290204 0.044362366 0.2182408 -0.021830788 -0.018231653 -0.30079627

network_body._body_endoder.seq_layers.0.bias f4 [128]
00000000: 0000 0000 0000 0000 0000 0000 0000 0000
00000010: 0000 0000 0000 0000 0000 0000 0000 0000
00000020: 0000 0000 0000 0000 0000 0000 0000 0000
00000030: 0000 0000 0000 0000 0000 0000 0000 0000
00000040: 0000 0000 0000 0000 0000 0000 0000 0000
00000050: 0000 0000 0000 0000 0000 0000 0000 0000
00000060: 0000 0000 0000 0000 0000 0000 0000 0000
00000070: 0000 0000 0000 0000 0000 0000 0000 0000
00000080: 0000 0000 0000 0000 0000 0000 0000 0000
00000090: 0000 0000 0000 0000 0000 0000 0000 0000
000000a0: 0000 0000 0000 0000 0000 0000 0000 0000
000000b0: 0000 0000 0000 0000 0000 0000 0000 0000
000000c0: 0000 0000 0000 0000 0000 0000 0000 0000
000000d0: 0000 0000 0000 0000 0000 0000 0000 0000
000000e0: 0000 0000 0000 0000 0000 0000 0000 0000
000000f0: 0000 0000 0000 0000 0000 0000 0000 0000
00000100: 0000 0000 0000 0000 0000 0000 0000 0000
00000110: 0000 0000 0000 0000 0000 0000 0000 0000
00000120: 0000 0000 0000 0000 0000 0000 0000 0000
00000130: 0000 0000 0000 0000 0000 0000 0000 0000
00000140: 0000 0000 0000 0000 0000 0000 0000 0000
00000150: 0000 0000 0000 0000 0000 0000 0000 0000
00000160: 0000 0000 0000 0000 0000 0000 0000 0000
00000170: 0000 0000 0000 0000 0000 0000 0000 0000
00000180: 0000 0000 0000 0000 0000 0000 0000 0000
00000190: 0000 0000 0000 0000 0000 0000 0000 0000
000001a0: 0000 0000 0000 0000 0000 0000 0000 0000
000001b0: 0000 0000 0000 0000 0000 0000 0000 0000
000001c0: 0000 0000 0000 0000 0000 0000 0000 0000
000001d0: 0000 0000 0000 0000 0000 0000 0000 0000
000001e0: 0000 0000 0000 0000 0000 0000 0000 0000
000001f0: 0000 0000 0000 0000 0000 0000 0000 0000
0.0 0.0 0.0 0.0 0.0 0.0 0.0 0.0
0.0 0.0 0.0 0.0 0.0 0.0 0.0 0.0
0.0 0.0 0.0 0.0 0.0 0.0 0.0 0.0
0.0 0.0 0.0 0.0 0.0 0.0 0.0 0.0
0.0 0.0 0.0 0.0 0.0 0.0 0.0 0.0
0.0 0.0 0.0 0.0 0.0 0.0 0.0 0.0
0.0 0.0 0.0 0.0 0.0 0.0 0.0 0.0
0.0 0.0 0.0 0.0 0.0 0.0 0.0 0.0
0.0 0.0 0.0 0.0 0.0 0.0 0.0 0.0
0.0 0.0 0.0 0.0 0.0 0.0 0.0 0.0
0.0 0.0 0.0 0.0 0.0 0.0 0.0 0.0
0.0 0.0 0.0 0.0 0.0 0.0 0.0 0.0
0.0 0.0 0.0 0.0 0.0 0.0 0.0 0.0
0.0 0.0 0.0 0.0 0.0 0.0 0.0 0.0
0.0 0.0 0.0 0.0 0.0 0.0 0.0 0.0
0.0 0.0 0.0 0.0 0.0 0.0 0.0 0.0

network_body._body_endoder.seq_layers.2.weight f4 [128, 128]
00000000: aca2 393d 7ff9 6fbe 9916 fdbd a40a 553b
00000010: f318 cf3d 4d53 83bd 127b 5c3c b668 c63d
00000020: a1ea 00be 66a2 23bd 532a 95bc f503 3d3d
00000030: f392 ca3c 95cb 273c 02e8 c43c f6ec a53d
00000040: 0d08 85bc 0383 2b3e 78f6 db3c 1145 b8bb
00000050: 14cc 0abc 1d17 913c 45cd 143e 3bb6 0c3d
00000060: 68ac 423e bb8a ab3a 781b cfbd 44f6 12be
00000070: 38e0 e23d f9bc 16bd 23e3 e1bc d671 933c
00000080: 36a3 2ebd 21a9 d33d 89ab 8a3d 9957 a6bd
00000090: c200 403d d010 30be d247 43bd 92b2 1abd
000000a0: f99a 39bd cb03 c9bb f102 453e f997 4d3d
000000b0: df5c 69bd f6a5 5fbd 8ddf 9b3d 66db 8e3d
000000c0: fc35 e1bd 89f8 713d c956 f63d 5b54 99bd
000000d0: d138 043e 6f51 ca3d ee4f f5bd 7d48 da3d
000000e0: f0c7 a93d 5d1b 8dbc 8fc6 2abc afae f0bd
000000f0: 0c82 47bd 8e13 cdbb faaf 0c3e 26d0 a7bd
00000100: cf90 0d3d 1e30 debd cc46 673b 171b 9a3d
00000110: 5966 9fbd 4033 6bbc a56b 3fbe da00 2abd
00000120: a262 b03d 1c9f ae3d 2ad4 2a3d f227 823d
00000130: d5b6 843c 35c6 1a3c 5970 663d 0866 2fbd
00000140: c01a 05be 55f0 223e 14d1 0dbe b66c dc3d
00000150: 7df4 e83d f15e 3dbd 495a aa3d 3487 2ebb
00000160: c277 9fbd d9c0 373d b1b1 c7bd f6c5 c2bc
00000170: b3bb 733d 1817 babd cb9f 82bd ad39 933d
00000180: 5b78 233d 5ff4 12bd 4b0c 9e3d eb9f 863d
00000190: 0285 26be 7108 a1bc 684e 37bd 344f 123b
000001a0: 5480 063e b556 c53d ac2d 64bd 5334 2cbd
000001b0: e456 48bd 19f1 193d 4a1a a53d 29b7 15be
000001c0: e5de a3bc 4ee7 adbd e80a 8dbd 2185 283d
000001d0: 8aa9 0a3c 9a27 cb3b 2bf6 d03d 8326 6bbc
000001e0: 8156 1d3e ad09 c8bd 66e4 b43d e2c7 44bd
000001f0: 464e 4c3d f2f3 eebd 912c 2c3d d99b ef3d
00000200: b882 163e e96a e93b 9750 99bc f5b1 96bb
00000210: 5677 e03d f521 d83d cabf 503d efee fc3b
00000220: 2620 ffbd b106 4cbe 4621 bebd eb82 2c3b
00000230: da3d 68bd 8b90 b53d dd09 d8bd 1e3d 3abc
00000240: be60 403d 22eb 15bd 9c59 943b eb29 713d
00000250: 43a2 e93d 2c31 60bd 5049 873d 9651 2b3c
00000260: d823 07b9 35c2 2ebd af27 25bd 535e 1f3d
00000270: b2ce 0abd 9179 5fbd f647 18be 81a7 7cbd
00000280: 1891 2dbe 071b 7dbd 69cc aa3c c07c 99bd
00000290: 3521 f13d e450 21be 6ed8 973d a172 e43d
000002a0: 9ddb 6b3c 50a6 9bbd 020e a93d 424a 333c
000002b0: 1b9a d33d fdb2 2fbd 2144 c93d 6722 1abd
000002c0: c68f 563d a871 06be 3a0a 1b3e 6168 f23d
000002d0: 571a 323d b488 b03d cf06 57bd dfc2 a5bc
000002e0: d5a1 dabb 9326 68bd 9a82 863c 87ab d6bc
000002f0: 29c8 f83c 5a7b 79bd 81d9 123d 61e6 9fbd
00000300: 30f7 a4bd d71d aa3d 0ce1 b2bd 93c9 cd3d
00000310: ff77 c9bd 55eb 9cbc d3fa b53d eac2 84bc
00000320: c38f 073b 715b d93c e730 f3bd e40d 9e3d
00000330: f572 0e3c 06d6 903d e1dd 683d 67b8 10be
00000340: 8ba3 59bc bf9e f6bc 4292 8bbd 965c c83d
00000350: 38a2 debd 7d29 863d e12e 8abd f6ad 1cbb
00000360: d80f 84bd e8aa 243d 8c6e b13d 5327 693d
00000370: 5745 8f3d 739f 08be 3315 00be cf61 d4bd
00000380: eafc a8bd 0483 09bd c0ff 833d 1dfe d0bd
00000390: 7177 a33d 0baf bcbc 92c5 f53d 2d4f 39be
000003a0: 4b37 cebd 58c8 be3d b368 debd 83ad 6dbc
000003b0: 7f53 c43c 0c7b c93d 2dfa ab3d 85cd db3b
000003c0: 5a01 1a3d 30c1 2d3d dba7 2b3e 9913 5b3d
000003d0: 0e06 f53d 322d 62bc 9158 33bd e2b4 6a3d
000003e0: 23a0 25be 483b 603c f560 a1bd 5a99 9ebd
000003f0: 6e9a 19be fbb2 b23d 8314 f1bd 3ac0 efbc
0.04532115 -0.23435019 -0.12357826 0.0032507563 0.101121806 -0.06412373 0.013457077 0.09687941
-0.12589504 -0.039949797 -0.018208658 0.04614635 0.024728274 0.010241409 0.024036411 0.08101837
-0.01623919 0.16749196 0.026850924 -0.0056234677 -0.008471508 0.017711217 0.14531429 0.034353476
0.1901108 0.001308761 -0.10112661 -0.14351755 0.110779226 -0.036801312 -0.027574128 0.017998617
-0.04263612 0.10334993 0.06770999 -0.08122177 0.046875723 -0.17193913 -0.047675915 -0.037767954
-0.04531381 -0.0061344854 0.19239403 0.05019376 -0.056973334 -0.054601632 0.07610998 0.06975441
-0.10996625 0.059074912 0.12028272 -0.07486793 0.12912299 0.098788135 -0.11978136 0.10658357
0.08290088 -0.017224962 -0.010423317 -0.11752068 -0.048708007 -0.0062584346 0.13739005 -0.08193998
0.03456193 -0.108490214 0.003529 0.07524698 -0.07783193 -0.014355481 -0.18693407 -0.04150472
0.08612563 0.085264415 0.04170624 0.06355275 0.016200462 0.00944667 0.056259487 -0.042821914
-0.12998486 0.15911992 -0.13849288 0.107629225 0.113747574 -0.04623312 0.08318002 -0.002663088
-0.07786514 0.04486165 -0.09750689 -0.023776036 0.059505176 -0.09086436 -0.06378134 0.07188735
0.0399097 -0.03587758 0.077171884 0.06573471 -0.16261676 -0.019657345 -0.04475251 0.002232504
0.13134891 0.09635679 -0.05570762 -0.042042088 -0.04891099 0.037583444 0.08061655 -0.14620651
-0.020003745 -0.084913835 -0.06886846 0.041142587 0.008463273 0.0061997892 0.10203203 -0.014352444
0.1536503 -0.097674705 0.08832626 -0.048042186 0.049879335 -0.116676226 0.04203469 0.116996475
0.14698303 0.0071233404 -0.018715186 -0.004598851 0.109602615 0.10553352 0.050964154 0.007718913
-0.12457304 -0.19924428 -0.0928369 0.002632315 -0.05669961 0.0886546 -0.10548756 -0.011367111
0.04696726 -0.036601193 0.004527284 0.058877867 0.11407902 -0.054734394 0.0660578 0.010456463
-0.00012887956 -0.04266568 -0.04032105 0.038908314 -0.033888526 -0.054559294 -0.14871201 -0.06168318
-0.1694988 -0.061793353 0.020849423 -0.07494497 0.11773912 -0.15753514 0.074143276 0.11154676
0.014395622 -0.07600081 0.08254625 0.010942997 0.10332128 -0.042895306 0.09827448 -0.037630465
0.052383207 -0.13129294 0.1514062 0.11836315 0.04348215 0.08619824 -0.052496728 -0.020234523
-0.006672124 -0.056677412 0.016419698 -0.026204837 0.030368881 -0.060908653 0.03585196 -0.07807613
-0.0805496 0.08306473 -0.087343305 0.10048213 -0.098373406 -0.019155184 0.088857315 -0.016206224
0.0020685054 0.02653286 -0.11874562 0.07717493 0.0086944 0.07072072 0.056852225 -0.14132844
-0.013283621 -0.030104993 -0.06815006 0.09783284 -0.108707845 0.06550882 -0.06747223 -0.00239074
-0.064483345 0.04020205 0.08663663 0.056922268 0.069956474 -0.13342075 -0.12508087 -0.10370218
-0.082513645 -0.03357221 0.06445265 -0.10204718 0.07981766 -0.023032686 0.12000574 -0.1809661
-0.1006914 0.09315556 -0.108598135 -0.0145067 0.023965595 0.098379225 0.083973266 0.0067078494
0.037598945 0.042420566 0.1676325 0.053485487 0.119640455 -0.013804721 -0.043785635 0.05730141
-0.16174369 0.013686009 -0.07879821 -0.07744093 -0.15000317 0.08725544 -0.117714904 -0.029266465

network_body._body_endoder.seq_layers.2.bias f4 [128]
00000000: 0000 0000 0000 0000 0000 0000 0000 0000
00000010: 0000 0000 0000 0000 0000 0000 0000 0000
00000020: 0000 0000 0000 0000 0000 0000 0000 0000
00000030: 0000 0000 0000 0000 0000 0000 0000 0000
00000040: 0000 0000 0000 0000 0000 0000 0000 0000
00000050: 0000 0000 0000 0000 0000 0000 0000 0000
00000060: 0000 0000 0000 0000 0000 0000 0000 0000
00000070: 0000 0000 0000 0000 0000 0000 0000 0000
00000080: 0000 0000 0000 0000 0000 0000 0000 0000
00000090: 0000 0000 0000 0000 0000 0000 0000 0000
000000a0: 0000 0000 0000 0000 0000 0000 0000 0000
000000b0: 0000 0000 0000 0000 0000 0000 0000 0000
000000c0: 0000 0000 0000 0000 0000 0000 0000 0000
000000d0: 0000 0000 0000 0000 0000 0000 0000 0000
000000e0: 0000 0000 0000 0000 0000 0000 0000 0000
000000f0: 0000 0000 0000 0000 0000 0000 0000 0000
00000100: 0000 0000 0000 0000 0000 0000 0000 0000
00000110: 0000 0000 0000 0000 0000 0000 0000 0000
00000120: 0000 0000 0000 0000 0000 0000 0000 0000
00000130: 0000 0000 0000 0000 0000 0000 0000 0000
00000140: 0000 0000 0000 0000 0000 0000 0000 0000
00000150: 0000 0000 0000 0000 0000 0000 0000 0000
00000160: 0000 0000 0000 0000 0000 0000 0000 0000
00000170: 0000 0000 0000 0000 0000 0000 0000 0000
00000180: 0000 0000 0000 0000 0000 0000 0000 0000
00000190: 0000 0000 0000 0000 0000 0000 0000 0000
000001a0: 0000 0000 0000 0000 0000 0000 0000 0000
000001b0: 0000 0000 0000 0000 0000 0000 0000 0000
000001c0: 0000 0000 0000 0000 0000 0000 0000 0000
000001d0: 0000 0000 0000 0000 0000 0000 0000 0000
000001e0: 0000 0000 0000 0000 0000 0000 0000 0000
000001f0: 0000 0000 0000 0000 0000 0000 0000 0000
0.0 0.0 0.0 0.0 0.0 0.0 0.0 0.0
0.0 0.0 0.0 0.0 0.0 0.0 0.0 0.0
0.0 0.0 0.0 0.0 0.0 0.0 0.0 0.0
0.0 0.0 0.0 0.0 0.0 0.0 0.0 0.0
0.0 0.0 0.0 0.0 0.0 0.0 0.0 0.0
0.0 0.0 0.0 0.0 0.0 0.0 0.0 0.0
0.0 0.0 0.0 0.0 0.0 0.0 0.0 0.0
0.0 0.0 0.0 0.0 0.0 0.0 0.0 0.0
0.0 0.0 0.0 0.0 0.0 0.0 0.0 0.0
0.0 0.0 0.0 0.0 0.0 0.0 0.0 0.0
0.0 0.0 0.0 0.0 0.0 0.0 0.0 0.0
0.0 0.0 0.0 0.0 0.0 0.0 0.0 0.0
0.0 0.0 0.0 0.0 0.0 0.0 0.0 0.0
0.0 0.0 0.0 0.0 0.0 0.0 0.0 0.0
0.0 0.0 0.0 0.0 0.0 0.0 0.0 0.0
0.0 0.0 0.0 0.0 0.0 0.0 0.0 0.0

value_heads.value_heads.extrinsic.weight f4 [1, 128]
00000000: 3ecc 48be 3a40 343e a81e 613d 18ef 433d
00000010: 18db dbbc 80a4 03be 939e 3dbe 3ca5 b23d
00000020: a2e5 08be d27a 36be 0ae7 2d3e 80d0 db3d
00000030: edf9 c0bd 1089 153d b42f e5bd 240e 253e
00000040: 226a abbd 2426 533e 23d7 f9bd fec0 43be
00000050: a060 a3bd 49e4 f5bd 60d5 fb3c b8fe 4bbe
00000060: 2931 fdbd 0a38 0dbe a11a 4dbe 4137 52be
00000070: e0f5 b1bd 7e2c 103e 9e0a a8bd ece7 083d
00000080: 22f5 513e 1094 aebc 7031 1e3d f2e7 4e3e
00000090: a488 2b3e 0ee5 fdbd 682e ff3d 4d67 37be
000000a0: 9072 34be 800e 9c3d 964b 503e c83d 9c3d
000000b0: 4ecb 10be a85f e53d 9549 4cbe be62 59be
000000c0: fcf6 9c3d e429 fa3d a17b f3bd 0520 51be
000000d0: 0e7c 99bd 4852 4bbd aa05 bfbd e612 3dbe
000000e0: 48c9 f6bc b07d 833c 3c9a 4f3e 00a7 163d
000000f0: 480e 0d3d 542a 99bd dee9 3b3e 7ea6 1a3e
00000100: 2ae3 273e a0fa 253c c063 123e a4d2 33be
00000110: 1232 3ebe 403b 253d 8289 2abe 770c 47be
00000120: 52e0 92bd a41a 523e b887 863d 729f 183e
00000130: d8d9 4f3d 9cf5 2c3e e4e6 13be 707a 3e3e
00000140: 07b7 4dbe 3851 54bd 1836 b33d 665e 06be
00000150: 04f0 0d3e c613 d0bd 92d2 303e ad23 4bbe
00000160: 7ed4 00be 0b72 f6bd 60ad b53b 807c 483b
00000170: d064 47bc f48f 9c3d a063 403d 5cab 883d
00000180: af0d ddbd 6dec 4bbe 8258 acbd 300d c53c
00000190: 80be fd3a 9e8c 0b3e c69a efbd d8f4 693d
000001a0: 308f 183e 41ea febd b8e6 c63d b0a1 3d3e
000001b0: 6cfc dbbd 0aea 28be 80b5 cabb d283 51be
000001c0: c44e 17be 6960 c6bd a01b 413e 8066 ef3d
000001d0: 46ef 553e 589f c7bc 8226 003e 9c5b 3cbe
000001e0: 0217 0e3e 1640 0b3e 6e17 37be 901e 6abc
000001f0: 2984 1dbe 7e96 5abe cc51 b03d 780a f7bc
-0.19609162 0.17602625 0.054960877 0.04783544 -0.02683787 -0.1285572 -0.18517523 0.08722922
-0.13368848 -0.1782029 0.16982666 0.107331276 -0.094226696 0.036507666 -0.11190739 0.16118675
-0.083698526 0.20620018 -0.12199237 -0.1911659 -0.07977414 -0.120064326 0.030741394 -0.19921386
-0.12362892 -0.13790908 -0.2002969 -0.2052889 -0.08689475 0.14079472 -0.0820515 0.033424303
0.20503667 -0.021310836 0.038621366 0.20205668 0.16751343 -0.12397204 0.12460023 -0.179105
-0.17621827 0.07619953 0.20341334 0.07628971 -0.14140055 0.111998856 -0.19949944 -0.21229073
0.07664296 0.12215021 -0.11888815 -0.2042237 -0.07494365 -0.049639016 -0.09327252 -0.1846424
-0.030125275 0.016051143 0.2027368 0.036780357 0.034437448 -0.074787766 0.18350932 0.15102574
0.1639525 0.010130554 0.14295864 -0.17560822 -0.18573788 0.04033971 -0.16654018 -0.19438349
-0.07171692 0.20517975 0.06568855 0.14904574 0.05074486 0.16890568 -0.14443547 0.18601394
-0.2008935 -0.05183527 0.08750552 -0.13121948 0.1386109 -0.101600215 0.17267826 -0.19837828
-0.1258106 -0.12033471 0.0055443496 0.0030591786 -0.012170032 0.076446444 0.04697001 0.06673309
-0.107936256 -0.19914408 -0.08415319 0.02405414 0.0019359142 0.1362786 -0.116994426 0.057118267
0.14898372 -0.12447024 0.09711975 0.1851871 -0.10741505 -0.16495529 -0.0061861873 -0.20460442
-0.1477614 -0.096863575 0.18858194 0.11689472 0.20892057 -0.024367973 0.1251469 -0.18394321
0.13875964 0.13598666 -0.17880031 -0.014289513 -0.15382446 -0.2134647 0.086093515 -0.03015636
