results/ppo/My Behavior/My Behavior-123948.onnx (onnx, 270443 bytes, 12 tensors)

action_model._discrete_distribution.branches.0.bias f4 [2]
0.026323998 -0.02632399
00000000: 6da5 d73c 69a5 d7bc

action_model._discrete_distribution.branches.0.weight f4 [2, 128]
-0.002343013 0.005608341 0.009195879 0.0009322976 0.0038108192 -0.0037799268 -0.019138573 -0.014201338
0.035022754 0.04155459 -0.01532158 -0.007305222 -0.021971561 -0.010655255 -0.02720309 -0.026785638
-0.004284941 0.0030901341 0.007935201 -0.0061818114 0.022391697 -0.012930566 0.0119131375 -0.018363878
-0.020380413 0.0008334212 -0.015930625 -0.0040351953 0.025440583 -0.0072324416 -0.0027046907 -0.009334784
-0.008678009 -0.008887205 -0.0010310431 -0.02812049 -0.02119841 -0.004286882 -0.0086334795 -0.041971337
-0.0048389225 0.0016686117 -0.0097499285 0.01162088 -0.013133093 -0.0053832186 -0.0046385517 -0.018388936
-0.01755163 -0.0029281315 0.022297964 0.007825019 -0.0056773038 0.0025363648 0.0055078343 -0.0029588284
-0.014446434 0.015822709 0.02790398 -0.020189028 -0.018809695 -0.014459043 0.002442921 -0.0063027423
-0.020304168 -0.016058696 -0.0073399213 0.027357878 -0.0031529986 0.004976461 -0.014479542 -0.024768472
-0.008593202 -0.0013910996 -0.003675725 -0.011413214 0.0017021984 0.0036337923 0.021096433 -0.0017323609
-0.014026788 -0.013102552 -0.0022249399 0.002923559 -0.007539018 -0.018089743 0.01240053 -0.005441689
-0.006015412 -0.021227995 -0.008766516 -0.011424014 -0.024166398 -0.0052979947 0.0058695246 -0.00998657
-0.00054602884 0.003026715 0.0034801099 -0.0033606428 -0.010266931 0.015149036 -0.005992143 0.002320809
-0.014619745 -0.001810101 0.001299371 -0.0074439063 -0.035251033 -0.008423324 0.007878992 -0.01929868
-0.016238365 -0.018669253 0.023272544 0.00063336926 0.03077605 -0.0030549786 0.012723628 0.003124018
-0.021931546 -0.027412781 0.0010268409 -0.0005705927 -0.02490513 -0.009209244 -0.02915175 0.030130096
-0.005628351 0.0067788754 -0.009932335 -0.008902007 -0.008039151 0.011696914 0.030789217 -0.01149876
-0.03822312 -0.023861136 0.029802939 0.034062445 0.010819281 -0.0045770467 0.016139135 0.016454278
-0.0020394705 0.0054876106 0.008844436 0.0040563415 -0.024443408 -0.007912519 0.0038165296 0.0013986079
-0.006561861 0.0041212174 0.019652877 0.027190255 -0.023644313 0.0016515537 -0.0061270236 0.016410323
-0.00076618895 -0.013447975 -0.0024618024 0.0070171254 0.018035963 0.013651854 0.028384438 0.032166578
0.019131033 -0.005513155 -0.009201155 -0.0027060497 0.012925938 -0.011197359 0.017597249 0.017714791
-0.010962633 -0.010943428 -0.015708975 0.011943046 -0.0208006 -0.0041463976 -0.0056833667 0.015460525
0.012362934 -0.014487357 -0.047448233 0.00083464244 0.008750319 0.019192811 -0.0047501354 0.008930316
0.0050092502 -0.005812872 0.0065988502 -0.043781757 -0.005413916 0.012900963 0.017710336 0.017127458
0.024903372 0.010914936 0.0068414076 0.012298017 0.018387299 -0.00020518003 -0.03743382 -0.0027114542
0.0023270966 0.013982126 0.00050633017 -0.010295447 -0.005423246 0.00034618928 -0.006037689 0.002037139
-0.00603458 0.018310852 -0.011335047 -0.00801152 0.018634247 -0.009220206 0.005991823 -0.002612344
0.0034595155 -0.013886991 -0.004463912 0.019775825 -0.0070485077 -0.022424083 0.023899151 0.0058332104
0.002051426 -0.001602644 0.011978566 0.010107777 0.020793362 0.007781592 0.0014001471 0.026852928
0.010322084 0.008465838 -0.019013066 0.0021836122 0.0016538083 -0.0016939279 -0.006630657 -0.0057168053
0.011651674 0.0149981305 0.0009412156 0.002830756 0.028068487 -0.0067298524 0.02055717 -0.0028321014
00000000: 3c8d 19bb 2dc6 b73b 50aa 163c 6f65 743a
00000010: f0be 793b a6b8 77bb 7fc8 9cbc bbac 68bc
00000020: 0574 0f3d 2535 2a3d 5d07 7bbc a560 efbb
00000030: b4fd b3bc 6193 2ebc 04d9 debc 8e6d dbbc
00000040: b168 8cbb d983 4a3b a502 023c cb90 cabb
00000050: cb6e b73c bada 53bc 522f 433c d86f 96bc
00000060: d3f4 a6bc f379 5a3a f180 82bc ac39 84bb
00000070: c568 d03c 1efe ecbb 2e41 31bb ecf0 18bc
00000080: 352e 0ebc a49b 11bc 1124 87ba f15c e6bc
00000090: 4aa8 adbc f978 8cbb 7073 0dbc 23ea 2bbd
000000a0: d38f 9ebb 51b5 da3a 2abe 1fbc 8165 3e3c
000000b0: 2f2c 57bc b665 b0bb fefe 97bb 65a4 96bc
000000c0: 70c8 8fbc e5e5 3fbb 38aa b63c 8234 003c
000000d0: ad08 babb 2439 263b 107b b43b e7e8 41bb
000000e0: bcb0 6cbc a09e 813c e396 e43c 7663 a5bc
000000f0: ca16 9abc 9fe5 6cbc 6a19 203b 3c87 cebb
00000100: ed54 a6bc 878d 83bc b983 f0bb a11d e03c
00000110: 8aa2 4ebb 9511 a33b 9a3b 6dbc 40e7 cabc
00000120: 80ca 0cbc 8f55 b6ba 6fe4 70bb 7dfe 3abc
00000130: 4d1c df3a eb24 6e3b 6dd2 ac3c 6310 e3ba
00000140: 9dd0 65bc 16ac 56bc 4cd0 11bb 2e99 3f3b
00000150: de09 f7bb f130 94bc 982b 4b3c 3250 b2bb
00000160: ef1c c5bb 55e6 adbc 6fa1 0fbc ca2b 3bbc
00000170: 9cf8 c5bc cd9a adbb 2455 c03b b69e 23bc
00000180: 6023 0fba da5b 463b 8e12 643b 3b3e 5cbb
00000190: a136 28bc aa33 783c bd59 c4bb b718 183b
000001a0: a887 6fbc e940 edba a84f aa3a 03ec f3bb
000001b0: 6363 10bd fb01 0abc e316 013c 4418 9ebc
000001c0: 5206 85bc 43f0 98bc 10a6 be3c b108 263a
000001d0: 0e1e fc3c 0936 48bb c476 503c 53bc 4c3b
000001e0: c9a9 b3bc c590 e0bc 1097 863a d493 15ba
000001f0: d805 ccbc 5ee2 16bc a7cf eebc 64d3 f63c
00000200: 086e b8bb 5421 de3b 3bbb 22bc b9d9 11bc
00000210: a5b6 03bc 6aa4 3f3c ab39 fc3c 4c65 3cbc
00000220: d98f 1cbd 6e78 c3bc 4b25 f43c 1085 0b3d
00000230: 5b43 313c 0dfb 95bb 3836 843c 1fcb 863c
00000240: a3a8 05bb 6ad1 b33b 41e8 103c 0feb 843b
00000250: 8b3d c8bc 83a3 01bc be1e 7a3b 7e51 b73a
00000260: e104 d7bb 470b 873b 12ff a03c 19be de3c
00000270: b8b1 c1bc f278 d83a 33c5 c8bb f16e 863c
00000280: 12da 48ba e554 5cbc 3156 21bb eaef e53b
00000290: 28c0 933c 07ac 5f3c 7b86 e83c 1ac1 033d
000002a0: afb8 9c3c b2a7 b4bb 71c0 16bc fb57 31bb
000002b0: 50c7 533c 2175 37bc 1b28 903c 9c1e 913c
000002c0: 9e9c 33bc 104c 33bc 1cb0 80bc c4ac 433c
000002d0: 0566 aabc 81de 87bb 893b babb 244e 7d3c
000002e0: e78d 4a3c 615c 6dbc 1459 42bd e8cb 5a3a
000002f0: 7f5d 0f3c 3e3a 9d3c 06a7 9bbb 7650 123c
00000300: a324 a43b e879 bebb 2b3b d83b 8054 33bd
00000310: 3867 b1bb 905e 533c 4415 913c e24e 8c3c
00000320: 2802 cc3c 8fd4 323c e32d e03b 9f7d 493c
00000330: f6a0 963c 9825 57b9 3554 19bd a7b2 31bb
00000340: 3482 183b 4915 653c 3ebb 043a 3cae 28bc
00000350: 7cb5 b1bb bd80 b539 ced7 c5bb 8581 053b
00000360: babd c5bb a400 963c a2b6 39bc c042 03bc
00000370: d9a6 983c 5910 17bc 0e57 c43b dc33 2bbb
00000380: 0ab9 623b 4386 63bc 0246 92bb e900 a23c
00000390: 2bf7 e6bb b6b2 b7bc 27c8 c33c 8424 bf3b
000003a0: 3871 063b cf0f d2ba bf41 443c 179b 253c
000003b0: d756 aa3c bafc fe3b 2485 b73a acfa db3c
000003c0: f51d 293c 4cb4 0a3c 4ac1 9bbc ef1a 0f3b
000003d0: 99c4 d83a ca06 deba fb45 d9bb 0a54 bbbb
000003e0: aae6 3e3c b8ba 753c e9bb 763a 3484 393b
000003f0: e2ef e53c 1886 dcbb 8367 a83c c79a 39bb

network_body._body_endoder.seq_layers.0.bias f4 [128]
-0.012356886 -0.034721337 0.006479911 -0.0119193755 -0.004131565 0.0063682185 -0.060289 -0.043798614
0.010341201 -0.018306276 0.028696626 -0.0048981635 -0.03184279 -0.037391156 -0.051768474 -0.0021602858
-0.00012857636 -0.010618382 -0.020823022 -0.012342952 -0.014406789 -0.015385808 -0.03846671 -0.0030901062
-0.015700711 0.0039002148 -0.03338864 -0.024897607 -0.03048504 -0.016419422 -0.010615985 -0.008199343
0.0071435976 0.016948696 -0.022803215 -0.035775684 0.042074457 -0.0040228916 -0.025614064 0.0038318906
-0.008464703 0.014816624 -0.020770721 0.004911641 -0.0037470062 0.03327394 -0.005513676 -0.026982596
-0.0032409953 0.004116506 0.02476487 -0.026048195 -0.04137108 -0.032263998 -0.012084938 -0.025148613
-0.01803524 -0.006766124 -0.011288838 -0.028869146 0.002115862 -0.0032731283 0.0108867185 -0.044167124
-0.040369052 -0.010645169 -0.010392288 -0.000309759 0.019540282 -0.02837316 0.006586999 -0.012863245
-0.0034612454 -0.003965426 -0.018122667 -0.04890055 0.018513817 -0.024944257 -0.0401217 0.0148311835
-0.015004983 0.011276476 -0.019114688 -0.009518851 -0.02305917 -0.001098214 -0.02178001 -0.010730415
-0.016963935 0.0016388396 -0.05213256 -0.06781894 -0.0018614321 -0.022430388 -0.018014831 -0.016134271
-0.032357305 -0.024152866 -0.005755421 0.004919702 0.007732546 0.0019132036 -0.019144176 0.002222677
0.0014747003 0.004214362 0.024230719 -0.008883873 -0.015008148 -0.013512564 -0.01040111 -0.0130575495
-0.028943382 0.032647263 0.015785933 -0.062221736 -0.01022643 -0.03815544 0.0010449508 -0.010909878
-0.011175017 0.009979475 -0.043754753 -0.0092599895 -0.05300335 -0.023931831 0.005151843 -0.03941002
00000000: 8974 4abc f637 0ebd 6f55 d43b 7c49 43bc
00000010: 1462 87bb 7dac d03b 99f1 76bd 2d66 33bd
00000020: 246e 293c 0bf7 95bc 3015 eb3c c680 a0bb
00000030: 966d 02bd 7827 19bd 2e0b 54bd 9593 0dbb
00000040: 74d2 06b9 b9f8 2dbc 0b95 aabc 183a 4abc
00000050: 740a 6cbc c214 7cbc 458f 1dbd 6183 4abb
00000060: c79e 80bc bf9a 7f3b 87c2 08bd 11f6 cbbc
00000070: c3bb f9bc 0682 86bc abee 2dbc 8a56 06bc
00000080: d714 ea3b fed7 8a3c cfcd babc 8689 12bd
00000090: 4456 2c3d 76d2 83bb 96d4 d1bc 7520 7b3b
000000a0: 8aaf 0abc 6dc1 723c 5c27 aabc d5f1 a03b
000000b0: 5590 75bb 414a 083d 11ac b4bb 9b0a ddbc
000000c0: e166 54bb c1e3 863b b2df ca3c 0663 d5bc
000000d0: b974 29bd 4127 04bd e7ff 45bc 7704 cebc
000000e0: a4be 93bc 5db6 ddbb d2f4 38bc fd7e ecbc
000000f0: 46aa 0a3b fb81 56bb 355e 323c 96e8 34bd
00000100: 055a 25bd 1369 2ebc 6a44 2abc 2667 a2b9
00000110: f112 a03c d46e e8bc c1d7 d73b 5cc0 52bc
00000120: 10d6 62bb 67f0 81bb fd75 94bc f14b 48bd
00000130: 4aaa 973c e657 ccbc a756 24bd 7efe 723c
00000140: 76d7 75bc f8c0 383c 6896 9cbc f4f4 1bbc
00000150: 96e6 bcbc f2f1 8fba fe6b b2bc 9fce 2fbc
00000160: f3f7 8abc 55ce d63a f488 55bd a8e4 8abd
00000170: 4cfb f3ba efbf b7bc d793 93bc 052c 84bc
00000180: 1889 04bd 3bdc c5bc f897 bcbb 7435 a13b
00000190: 4c61 fd3b 76c4 fa3a 3fd4 9cbc 55aa 113b
000001a0: bb4a c13a a118 8a3b 807f c63c aa8d 11bc
000001b0: bce4 75bc cd63 5dbc 6b69 2abc 55ef 55bc
000001c0: ac1a edbc 23b9 053d 8051 813c 38dc 7ebd
000001d0: c28c 27bc e148 1cbd bbf6 883a 58bf 32bc
000001e0: 6b17 37bc f480 233c 2f38 33bd 36b7 17bc
000001f0: 0a1a 59bd b00c c4bc cbd0 a83b 676c 21bd

network_body._body_endoder.seq_layers.0.weight f4 [128, 3]
0.31303367 0.46528724 -0.15452474 0.19209044 -0.807469 -0.20474568 -0.5601291 -0.00396479
0.98004884 -0.06454114 -0.01171263 -0.43459585 -0.47035712 0.25616243 0.4589495 -0.027900307
0.1640576 0.61015844 -0.97881854 -0.6501023 0.04509385 -0.30538028 -0.35607648 -0.4439597
0.12138325 1.0144463 1.5932486 1.0045612 0.3733474 -0.42652547 1.2623351 -0.12037804
0.043288223 0.52890354 1.1782256 0.43093166 -0.7250605 0.04256371 -0.8880859 -0.31361228
-0.2838205 -0.34166566 -0.06795574 -1.1497173 -0.58938384 -0.70156246 -0.046749495 -0.049694702
0.026959706 0.4785901 0.42539984 -0.8024277 0.74933684 0.32273585 0.0062224534 -0.12093931
-1.1374083 1.4075645 -0.703921 -0.0887367 -0.040015247 -0.41983473 -0.013948481 -0.11970857
0.13613532 0.41347894 0.39448112 -0.48994556 0.71762234 -0.27892354 -0.16639629 -0.32521352
-0.65914685 0.122689605 -0.46471557 0.21515933 0.2601578 -0.09076289 -0.10747875 -0.5636362
0.46525356 -0.38965908 -1.0845214 -0.20834884 1.2836907 0.4870374 0.36410713 -0.07749143
-0.33768535 -0.6674832 0.3732819 -0.6724855 -0.48674884 0.5539701 0.93463624 -0.35411316
0.77687705 0.64726776 0.027547954 -0.3104043 0.25032815 -0.93818337 0.45810282 -0.7862924
-1.0202528 -0.114252724 -0.57937443 0.2668421 0.042387277 0.40335137 0.05737337 0.060912736
0.3222725 -0.25776586 0.9843658 -1.4659334 0.19283596 -0.48257974 0.48724997 -0.177871
-1.1031724 0.5445553 -0.1305511 0.6234557 0.17490421 0.9825139 0.6331234 -0.740091
0.3693962 0.11083554 0.6885254 -0.67392915 -0.044305157 0.6337244 -0.1258775 0.3126181
-0.010008791 0.93608785 -0.1775481 1.4463319 -0.8913182 0.11089396 -0.25937676 -0.37760648
-0.031155786 0.038779974 -0.7878207 0.52430636 -0.25063768 -0.6268666 0.9073321 0.62011725
0.7527109 0.8989801 1.4177508 1.0070395 -0.805733 -1.1305008 -0.08941401 -0.64743936
-0.8085773 0.99526846 0.93229026 -0.19127412 -0.3108743 -0.48933163 -0.071606815 -0.14902131
-1.4006219 0.3505825 -0.47377414 0.44901523 0.58366454 0.2620173 0.38296258 0.20643073
0.568138 0.22979626 -1.0297023 0.4296479 0.119802244 0.48347673 -0.65181154 -0.21049415
0.27124086 -0.18347304 0.28637198 0.43584877 1.0104889 -0.9233946 -0.8634587 0.19519672
0.54649967 -1.7739222 0.24522088 0.32354873 -0.617118 0.8576743 0.61669797 -0.7675765
-0.8306286 0.71648645 -0.49161357 -0.13090682 0.13357359 0.12374959 -0.4390449 -0.35387093
-0.24889903 0.2536413 0.7656604 0.28292707 1.2037228 0.33014476 0.03011842 0.17041285
-0.31452736 -0.044986807 0.79573137 0.16646722 0.59011716 1.6742343 -0.43149853 -0.545901
-0.19874409 -1.1633062 -0.89252025 0.9954982 -0.34609976 0.49501204 0.17433867 -0.017862502
-0.22148487 1.115375 -0.6525625 -0.20357163 0.38748688 -1.1301973 0.35094824 -0.29663372
-0.61975366 -0.21435526 -0.5852239 -0.72531664 0.91550344 -0.41143456 -0.23682784 0.02231754
-0.30755976 0.4780223 -0.39042896 -0.34935907 -0.17778991 -0.61867535 -0.08086391 -0.6941918
00000000: f345 a03e 213a ee3e bc3b 1ebe 5bb3 443e
00000010: 4ab6 4ebf daa8 51be 9f64 0fbf 12eb 81bb
00000020: 7be4 7a3f 252e 84bd 55e6 3fbc 5983 debe
00000030: a6d2 f0be b927 833e 6efb ea3e 2f8f e4bc
00000040: b7fe 273e 5833 1c3f da93 7abf 1b6d 26bf
00000050: 54b4 383d ce5a 9cbe a84f b6be b04e e3be
00000060: c897 f83d 60d9 813f 92ef cb3f 7695 803f
00000070: 6427 bf3e 8c61 dabe 3294 a13f c388 f6bd
00000080: fe4e 313d 3966 073f 19d0 963f 13a3 dc3e
00000090: 919d 39bf 4957 2e3d 9959 63bf ca91 a0be
000000a0: ec50 91be cdee aebe 612c 8bbd f029 93bf
000000b0: dce1 16bf 9999 33bf 667c 3fbd ac8c 4bbd
000000c0: 9ada dc3c c309 f53e 02ce d93e e76b 4dbf
000000d0: 8ad4 3f3f a23d a53e b9e5 cb3b 07af f7bd
000000e0: 9896 91bf 132b b43f 2b34 34bf 96bb b5bd
000000f0: 07e7 23bd 94f4 d6be 2b88 64bc c429 f5bd
00000100: 0f67 0b3e 83b3 d33e 6ef9 c93e 25da fabe
00000110: 19b6 373f 11cf 8ebe ca63 2abe 6382 a6be
00000120: d9bd 28bf b044 fb3d 33ef edbe ba52 5c3e
00000130: 6733 853e e5e1 b9bd d21d dcbd 764a 10bf
00000140: b735 ee3e 6581 c7be 99d1 8abf 6659 55be
00000150: fa4f a43f f75c f93e 406c ba3e d4b3 9ebd
00000160: 18e5 acbe 2ee0 2abf ce1e bf3e 0228 2cbf
00000170: 2537 f9be fcd0 0d3f 5244 6f3f 524e b5be
00000180: 6ae1 463f 57b3 253f 3fac e13c 50ed 9ebe
00000190: 032b 803e c92c 70bf 748c ea3e 754a 49bf
000001a0: a597 82bf 55fd e9bd e251 14bf 879f 883e
000001b0: 489e 2d3d 1284 ce3e 5700 6b3d a27f 793d
000001c0: e700 a53e e3f9 83be 66ff 7b3f b5a3 bbbf
000001d0: ca76 453e b114 f7be d478 f93e d123 36be
000001e0: c134 8dbf fa67 0b3f 30af 05be cb9a 1f3f
000001f0: 171a 333e 0886 7b3f 6014 223f 9b76 3dbf
00000200: 8021 bd3e befd e23d 3343 303f 9f86 2cbf
00000210: 5379 35bd c33b 223f 08e6 00be 7b0f a03e
00000220: eafb 23bc 74a3 6f3f 2bcf 35be 6721 b93f
00000230: 6e2d 64bf 5f1c e33d 08cd 84be a355 c1be
00000240: 6b3a ffbc c0d7 1e3d 9eae 49bf f138 063f
00000250: 9553 80be 547a 20bf eb46 683f 01c0 1e3f
00000260: a9b1 403f 8f23 663f dc78 b53f ace6 803f
00000270: 8544 4ebf 40b4 90bf b11e b7bd 96be 25bf
00000280: ecfe 4ebf eac9 7e3f 93aa 6e3f 5ddd 43be
00000290: eb2a 9fbe ad89 fabe 98a6 92bd 0b99 18be
000002a0: 9447 b3bf 8d7f b33e 8692 f2be 53e5 e53e
000002b0: 0a6b 153f 2227 863e ac13 c43e 9462 533e
000002c0: 7e71 113f b64f 6b3e 49cd 83bf cffa db3e
000002d0: e15a f53d 438a f73e 1fdd 26bf c78b 57be
000002e0: 15e0 8a3e 5be0 3bbe 599f 923e 9227 df3e
000002f0: b357 813f 9763 6cbf a10b 5dbf a6e1 473e
00000300: 67e7 0b3f e20f e3bf 2f1b 7b3e 2ea8 a53e
00000310: 72fb 1dbf 8b90 5b3f ebdf 1d3f e57f 44bf
00000320: 13a4 54bf a86b 373f c6b4 fbbe 700c 06be
00000330: 84c7 083e 6d70 fd3d 7eca e0be 922e b5be
00000340: 63df 7ebe 46dd 813e 5202 443f d1db 903e
00000350: 9713 9a3f bc08 a93e e8ba f63c b580 2e3e
00000360: bb09 a1be 1644 38bd 0db5 4b3f 6276 2a3e
00000370: eb11 173f 4f4d d63f 60ed dcbe 2bc0 0bbf
00000380: 9283 4bbe 38e7 94bf 357c 64bf f8d8 7e3f
00000390: fd33 b1be 3872 fd3e d685 323e 6254 92bc
000003a0: eecc 62be 9cc4 8e3f 560e 27bf 1575 50be
000003b0: ae64 c63e 4eaa 90bf 7daf b33e 60e0 97be
000003c0: 2da8 1ebf f27f 5bbe 3cd1 15bf 5aae 39bf
000003d0: 6f5e 6a3f 8da7 d2be ff82 72be 46d3 b63c
000003e0: 7978 9dbe 57bf f43e 4ee6 c7be 31df b2be
000003f0: 8f0e 36be 8261 1ebf fa9b a5bd 8eb6 31bf

network_body._body_endoder.seq_layers.2.bias f4 [128]
-0.023091435 0.004178807 -0.010526707 -0.003161033 -0.009402205 -0.018074602 -0.04254865 -0.008979457
-0.0033705982 -0.023427287 -0.023487166 -0.007317479 -0.008231925 -0.01937289 -0.012980363 -0.021796701
0.018082963 -0.007219245 -0.015243637 -0.0063446737 -0.021349229 -0.005822157 0.003112733 0.01697535
-0.0255347 -0.024162222 -0.021212498 -0.016683396 -0.023042021 -0.016045915 -0.030469721 -0.024047509
-0.011811698 0.0047690524 0.006558782 -0.010116527 -0.00876667 -0.00356361 0.010892561 -0.013199016
-0.0051935543 -0.00074644847 0.009265828 0.004878614 -0.009447995 -0.024483453 -0.0066365367 -0.019896477
-0.023112975 0.018581426 0.014511118 0.0029408943 -0.014297141 -0.012749136 -0.01529499 -0.009158411
-0.006308595 -0.024792185 -0.019614708 -0.014321309 -0.0029506448 -0.0056976546 0.0010773798 -0.021529827
-0.01631257 -0.028235205 -0.01013975 -0.031976502 -0.010031735 0.007341638 -0.011843204 -0.013050788
-0.012435332 -0.019632936 0.0045724013 -0.010705791 -0.017500784 -0.022839393 -0.0077699907 -0.02600067
-0.03579428 -0.016346546 0.012400951 0.011843792 -0.008664288 -0.010688239 -0.0021140315 -0.01887055
0.006048806 -0.009769996 0.0021550031 -0.021920856 -0.025738155 -0.009742561 0.0013019341 -0.0017411362
0.011943211 -0.028359473 -0.0042533292 0.0076035424 0.010149598 -0.012462158 -0.02865193 -0.016749056
-0.02449584 -0.016770713 -0.019884082 -0.016398214 -0.028594583 -0.032283437 0.0138427345 -0.03251137
-0.010571474 -0.015087372 -0.003729065 -0.002335551 -0.0102053275 0.006250133 -0.022548197 -0.006464682
0.011706639 -0.0050592064 -0.023243986 -0.0073323036 -0.013614611 -0.013975174 -0.0049120495 -0.008473922
00000000: 402a bdbc 60ee 883b 3678 2cbc 5529 4fbb
00000010: b50b 1abc 3011 94bc 7e47 2ebd 931e 13bc
00000020: 41e5 5cbb 95ea bfbc 2868 c0bc 76c7 efbb
00000030: 32df 06bc e5b3 9ebc 97ab 54bc ff8e b2bc
00000040: b922 943c 6b8f ecbb 73c0 79bc fbe6 cfbb
00000050: 94e4 aebc cbc7 bebb fefe 4b3b e40f 8b3c
00000060: 262e d1bc daef c5bc d5c5 adbc 9eab 88bc
00000070: 9fc2 bcbc b972 83bc a39b f9bc 48ff c4bc
00000080: da85 41bc b645 9c3b 0deb d63b cabf 25bc
00000090: 14a2 0fbc 748b 69bb b676 323c b040 58bc
000000a0: b12e aabb 4fad 43ba b3cf 173c c8dc 9f3b
000000b0: c3cb 1abc 8691 c8bc 4e77 d9bb f0fd a2bc
000000c0: 6c57 bdbc 1338 983c 0ac0 6d3c 05bc 403b
000000d0: 8e3e 6abc c1e1 50bc d697 7abc 290d 16bc
000000e0: 55b8 cebb fb18 cbbc 06af a0bc eca3 6abc
000000f0: 9b5f 41bb 64b3 babb de36 8d3a 525f b0bc
00000100: f0a1 85bc 844d e7bc 3221 26bc cbf9 02bd
00000110: 255c 24bc 2092 f03b ff09 42bc f9d2 55bc
00000120: 90bd 4bbc 40d5 a0bc 15d4 953b 5867 2fbc
00000130: ce5d 8fbc ae19 bbbc 689b febb 5bff d4bc
00000140: 069d 12bd 31e9 85bc 5c2d 4b3c 770c 423c
00000150: a8f4 0dbc b91d 2fbc 908b 0abb 6996 9abc
00000160: 1035 c63b 5512 20bc f43a 0d3b 5e93 b3bc
00000170: d3d8 d2bc 439f 1fbc a9a5 aa3a d636 e4ba
00000180: 75ad 433c 2052 e8bc 835f 8bbb 2327 f93b
00000190: 804a 263c 142e 4cbc 74b7 eabc 5135 89bc
000001a0: 80ab c8bc bc62 89bc f1e3 a2bc 8c55 86bc
000001b0: 303f eabc a33b 04bd a3cc 623c a42a 05bd
000001c0: fa33 2dbc 0631 77bc 5463 74bb 0b10 19bb
000001d0: 3f34 27bc eacd cc3b ffb6 b8bc afd5 d3bb
000001e0: 34cd 3f3c b3c7 a5bb 2c6a bebc d243 f0bb
000001f0: d10f 5fbc 21f8 64bc 42f5 a0bb 34d6 0abc

network_body._body_endoder.seq_layers.2.weight f4 [128, 128]
0.0003688779 -0.0765662 -0.011322442 0.023604462 -0.06581247 -0.12755181 -0.015790435 -0.09843141
0.14644837 -0.05232333 -0.029400086 -0.016900377 0.059750434 -0.031646058 0.018374877 -0.024987826
-0.1081912 -0.054502446 -0.059264716 -0.034129668 0.03598072 -0.10449722 0.05955043 0.0046467655
-0.10654548 0.067241855 0.031802002 -0.030909244 0.12698132 0.01406364 -0.024608467 -0.052427344
0.04770218 -0.14582601 -0.044858333 0.116073035 -0.09458976 -0.03947905 -0.050826542 -0.09573902
-0.02710076 -0.07193699 0.16688664 0.19120571 0.08406785 -0.07127235 -0.097414814 0.006995617
-0.17519449 -0.038992293 0.025706157 -0.08130901 0.04902047 0.042291466 -0.01151309 0.07394138
-0.0792196 -0.0721409 -0.07183953 0.033334017 0.14705795 0.07795889 0.015079698 -0.00022326196
0.08540367 -0.08113575 -0.11141371 -0.03081843 -0.111344874 -0.15238275 -0.059524212 -0.0073412512
-0.09336034 0.036636017 0.07436965 0.00045054 0.01788644 0.029802263 -0.088386 -0.17882873
0.07068534 0.07211897 0.060003847 0.08090024 -0.14374278 -0.119875796 -0.013215427 0.12906034
-0.026575768 0.0039551915 -0.09755555 0.045832537 -0.10268792 -0.1991283 0.1279194 0.18358333
-0.0045741005 0.055404253 0.0011984285 -0.13186316 -0.07055031 -0.09409494 -0.025087396 0.01591677
0.08753264 0.029949592 -0.14606932 0.0625811 -0.03406638 -0.023276502 0.11667721 -0.057803333
-0.08236905 -0.24343874 0.114947766 -0.00883536 0.14468339 -0.036764413 -0.16122073 0.023370456
0.18744302 -0.18461198 -0.019773554 -0.08290661 -0.10316994 -0.07236098 -0.081849076 0.073509574
-0.027219944 -0.11294869 0.051131997 -0.025937928 0.014486004 -0.15098396 0.11505128 -0.03559242
-0.039542627 -0.13006048 0.056572855 0.21057571 -0.05560086 -0.088364914 -0.053960785 -0.15406309
0.055673335 0.12361316 0.087895446 0.045920555 0.08955611 0.049005836 -0.048050527 0.008405325
0.03006746 -0.049332865 0.011433086 -0.069237664 0.15102392 0.03018055 0.0327682 0.07694653
0.020654017 -0.044543177 -0.025407081 -0.047699407 0.023377163 0.04569041 -0.121080674 0.048440848
-0.120151214 -0.08004885 -0.059829593 0.02305719 0.11610734 0.0015421053 -0.02311771 -0.13985841
-0.07014801 -0.011438714 0.117197454 0.07990826 0.01583525 0.22152066 -0.028236236 0.18811242
0.021629792 0.031987764 0.12472633 -0.05955142 -0.0414082 0.058418144 -0.10226382 -0.030963581
-0.04345823 0.036966905 -0.113987334 -0.07125439 -0.16207688 -0.08058676 0.0077230083 -0.06582394
0.027108366 0.09996714 -0.104265414 0.10901411 -0.04393817 -0.14314266 0.041487157 0.16358836
-0.0125748115 -0.31704667 0.04671537 -0.0016645886 0.021402905 0.047344923 -0.04444936 0.043046176
0.07609665 -0.04488593 -0.04921237 -0.048998613 0.083751634 -0.15123671 0.005749259 -0.2066753
-0.089649245 -0.0878715 -0.0023443755 -0.071866475 0.05083136 0.06866263 -0.115230754 0.17757742
0.103535876 -0.09074768 -0.05160956 -0.047495607 -0.07676564 0.02538416 -0.015791781 0.046078186
-0.04886488 -0.072123915 0.011477133 0.076688744 0.025013939 0.020841073 -0.06255805 0.20535901
-0.060713194 0.13214365 0.01795831 -0.055424664 -0.039625376 -0.057179153 -0.15138465 -0.31461874
00000000: f465 c139 bdce 9cbd c481 39bc 255e c13c
00000010: b0c8 86bd f19c 02be f15a 81bc 6896 c9bd
00000020: 90f6 153e fd50 56bd 73d8 f0bc a972 8abc
00000030: dfbc 743d 4c9f 01bd e986 963c 45b3 ccbc
00000040: 5993 ddbd f53d 5fbd 8fbf 72bd 8dcb 0bbd
00000050: 8560 133d a302 d6bd 27eb 733d e543 983b
00000060: 8434 dabd 19b6 893d d142 023d 6235 fdbc
00000070: 6407 023e 2e6b 663c b297 c9bc 0ebe 56bd
00000080: 5c63 433d 6a53 15be 5fbd 37bd b3b7 ed3d
00000090: 47b8 c1bd c9b4 21bd 7e2f 50bd d212 c4bd
000000a0: 6a02 debc b353 93bd 55e4 2a3e 6ecb 433e
000000b0: c42b ac3d 3df7 91bd 6b81 c7bd 7d3b e53b
000000c0: 2f66 33be 62b6 1fbd b895 d23c 5785 a6bd
000000d0: b0c9 483d d139 2d3d 66a1 3cbc 946e 973d
000000e0: e33d a2bd 9cbe 93bd 9a20 93bd 4089 083d
000000f0: 5c96 163e e9a8 9f3d d610 773c 6d1b 6ab9
00000100: 1fe8 ae3d 802a a6bd df2c e4bd ef76 fcbc
00000110: c808 e4bd 390a 1cbe a9cf 73bd e18e f0bb
00000120: b533 bfbd a60f 163d 1d4f 983d 7536 ec39
00000130: 9586 923c e023 f43c b803 b5bd e11e 37be
00000140: 7ac3 903d 1cb3 933d 98c6 753d 06af a53d
00000150: 4f31 13be 7181 f5bd 8585 58bc 6528 043e
00000160: 6db5 d9bc 8d9a 813b 34cb c7bd e6ba 3b3d
00000170: 0b4e d2bd 4ae8 4bbe 4efd 023e 45fd 3b3e
00000180: 56e2 95bb 92ef 623d 9614 9d3a 2307 07be
00000190: ae7c 90bd d9b4 c0bd 1584 cdbc e363 823c
000001a0: 5044 b33d d958 f53c 3293 15be 852a 803d
000001b0: 3089 0bbd 5dae bebc 76f4 ee3d 30c3 6cbd
000001c0: 1bb1 a8bd 0148 79be bc69 eb3d 30c2 10bc
000001d0: e227 143e 4896 16bd 0c17 25be 6673 bf3c
000001e0: 10f1 3f3e ec0a 3dbe 26fc a1bc f1ca a9bd
000001f0: c34a d3bd fe31 94bd 7da0 a7bd 308c 963d
00000200: 5cfc debc a551 e7bd c96f 513d c77b d4bc
00000210: b456 6d3c 8a9b 1abe 01a0 eb3d 5bc9 11bd
00000220: 73f7 21bd 932e 05be f0b8 673d 29a1 573e
00000230: babd 63bd aaf8 b4bd fc05 5dbd b7c2 1dbe
00000240: b909 643d e528 fd3d 8702 b43d 3117 3c3d
00000250: 3269 b73d 58ba 483d a1d0 44bd 7db6 093c
00000260: 0950 f63c 4211 4abd d751 3b3c 7acc 8dbd
00000270: 04a6 1a3e 333d f73c f337 063d 2496 9d3d
00000280: 9d32 a93c e872 36bd 8322 d0bc 7460 43bd
00000290: 7781 bf3c de25 3b3d 25f9 f7bd e969 463d
000002a0: d711 f6bd a7f0 a3bd e00f 75bd 6fe2 bc3c
000002b0: afc9 ed3d 7820 ca3a 5a61 bdbc 0b37 0fbe
000002c0: c3a9 8fbd 7269 3bbc 3805 f03d f1a6 a33d
000002d0: edb8 813c 50d6 623e ae4f e7bc 8ba0 403e
000002e0: f630 b13c 9a05 033d 8570 ff3d 31ec 73bd
000002f0: a59b 29bd dd47 6f3d b26f d1bd 56a7 fdbc
00000300: 4201 32bd 9c6a 173d 3172 e9bd d2ed 91bd
00000310: 7bf7 25be ac0a a5bd 4a11 fd3b b4ce 86bd
00000320: 5d12 de3c 92bb cc3d 1b89 d5bd ca42 df3d
00000330: 83f8 33bd fd93 12be 70ee 293d b583 273e
00000340: 9506 4ebc f153 a2be 9e58 3f3d 532e daba
00000350: 2555 af3c c0ec 413d 8810 36bd 3051 303d
00000360: 8fd8 9b3d 4fda 37bd e992 49bd c5b2 48bd
00000370: fa85 ab3d ccdd 1abe 4864 bc3b b1a2 53be
00000380: 069a b7bd f9f5 b3bd 18a4 19bb bb2e 93bd
00000390: 8b34 503d fe9e 8c3d 1afe ebbd dbd6 353e
000003a0: 9e0a d43d ebd9 b9bd 8c64 53bd c18a 42bd
000003b0: 4e37 9dbd 71f2 cf3c c45d 81bc 7bbc 3c3d
000003c0: 8a26 48bd b4b5 93bd 960a 3c3c fd0e 9d3d
000003d0: 08ea cc3c e6ba aa3c 6f1e 80bd a249 523e
000003e0: 66ae 78bd aa50 073e 4e1d 933c f904 63bd
000003f0: 384e 22bd b034 6abd 9404 1bbe b515 a1be

network_body._body_endoder.seq_layers.4.bias f4 [128]
0.013615666 -0.021666083 -0.009777595 0.004502168 -0.031183118 -0.0018166784 -0.0070404373 0.004883294
-0.021301132 0.0036190124 0.023939556 -0.007816283 -0.018808333 -0.017918993 -0.018832209 -0.0100310035
-0.013690881 0.035003446 -0.009378163 -0.02857412 -0.009669973 0.02586214 0.00930376 -0.01408083
-0.0061022593 -0.020919848 0.0013539842 0.0069842725 -0.02239736 -0.009533267 -0.025802452 -0.011926627
0.023452653 -0.030952228 0.0029860802 -0.023890119 0.021444978 -0.0009915048 -0.04311028 0.0037192032
-0.027246026 -0.018705612 0.017367447 -0.01840582 -0.014063842 0.016290912 -0.012890096 -0.013482468
0.00029045873 -0.0015955167 -0.026763251 -0.02299507 -0.040181447 0.00033326665 -0.016409567 0.025626218
-0.013942281 0.0042329244 -0.01410909 -0.008135585 -0.022634204 -0.012183747 -0.02036767 0.03216828
-0.006133401 -0.0016610115 -0.02661815 0.0003423509 -0.004894133 0.013197576 -0.014827455 0.02795574
-0.032607235 0.008895263 -0.0002633647 0.012764994 0.004691915 -0.013022833 0.0057843714 -0.012208573
-0.00036004058 0.00082292734 -0.005318617 -0.017491123 -0.018232781 -0.019063618 -0.0021199083 -0.0077413996
-0.0046616592 -0.0094533395 0.011090635 0.02331889 0.015088227 0.0074347635 -0.012390458 -0.014172608
-0.0014897862 -0.0027059284 -0.024954716 -0.005765481 -0.020363243 -0.026634023 -0.010018542 -0.012251607
0.0137996 -0.008308151 0.028205492 -0.03099573 -0.005858926 -0.017203726 0.0044767354 0.023192797
0.003204628 -0.02276421 -0.0020205074 -0.010380126 -0.0037333476 -0.01958973 -0.021550044 -0.018403366
-0.010868975 -0.008830888 -0.009024532 0.028633786 -0.012405342 -0.028085731 0.002832583 -0.002335406
00000000: 3e14 5f3c 127d b1bc 3532 20bc ec86 933b
00000010: bd73 ffbc 9d1d eeba 78b3 e6bb 0a04 a03b
00000020: b67f aebc f42c 6d3b e31c c43c de0f 00bc
00000030: ef13 9abc daca 92bc 0146 9abc 1459 24bc
00000040: b84f 60bc c65f 0f3d dea6 19bc 4614 eabc
00000050: ce6e 1ebc d7dc d33c cc6e 183c 48b3 66bc
00000060: 76f5 c7bb 1a60 abbc 2c78 b13a 53dc e43b
00000070: ab7a b7bc 6b31 1cbc aa5f d3bc e667 43bc
00000080: c71f c03c 878f fdbc 1db2 433b 36b5 c3bc
00000090: 61ad af3c 61f5 81ba 6894 30bd e0bd 733b
000000a0: 0f33 dfbc 833c 99bc 2d46 8e3c cdc7 96bc
000000b0: 076c 66bc 8574 853c fb30 53bc 92e5 5cbc
000000c0: b648 9839 a820 d1ba 9b3e dbbc 2860 bcbc
000000d0: 4d95 24bd 4bba ae39 5b6d 86bc 13ee d13c
000000e0: 2a6e 64bc 58b4 8a3b d029 67bc 1e4b 05bc
000000f0: 5e6b b9bc 579e 47bc 1ada a6bc e3c2 033d
00000100: b2fa c8bb 4cb6 d9ba 4e0e dabc 8f7d b339
00000110: f75e a0bb a53a 583c dbee 72bc 7003 e53c
00000120: 2a8f 05bd 70bd 113c 3614 8ab9 4424 513c
00000130: a3be 993b b85d 55bc d38a bd3b 7706 48bc
00000140: d4c3 bcb9 b8b9 573a cb47 aebb 8b49 8fbc
00000150: ea5c 95bc 4e2b 9cbc 29ee 0abb 91ab fdbb
00000160: d5c0 98bb 2ee2 1abc 7fb5 353c 4207 bf3c
00000170: 9c34 773c 519f f33b 5901 4bbc 3a34 68bc
00000180: ee44 c3ba f255 31bb d56d ccbc 5cec bcbb
00000190: d1d0 a6bc 982f dabc d024 24bc f7ba 48bc
000001a0: b817 623c e91e 08bc 340f e73c c2ea fdbc
000001b0: 3cfc bfbb d4ee 8cbc 94b1 923b d2fe bd3c
000001c0: bc04 523b 027c babc 7d6a 04bb 6711 2abc
000001d0: 2eab 74bb a47a a0bc b889 b0bc a8c2 96bc
000001e0: c913 32bc 6eaf 10bc a1db 13bc 6791 ea3c
000001f0: c73f 4bbc 0c14 e6bc dba2 393b 9c0d 19bb

network_body._body_endoder.seq_layers.4.weight f4 [128, 128]
0.06596209 0.014062384 -0.03745979 0.04474898 -0.09018156 -0.005225905 -0.13611296 -0.07586414
0.019512126 0.09744694 0.0184489 0.10684886 0.08563023 0.14311056 0.051217906 -0.08344459
-0.008492397 -0.10511378 0.106794134 -0.25293016 -0.0848528 0.08565281 -0.13750243 0.07195285
-0.074327394 0.061251827 0.1086863 -0.044173807 0.05239695 -0.033634234 0.022341454 0.011417961
0.13254912 -0.1434668 -0.018366521 0.2259187 0.07559605 0.0351712 0.033805076 -0.054647263
0.20778435 -0.06574509 -0.12786154 -0.08829363 0.04449953 0.18364675 -0.07623131 0.109293036
0.113935664 -0.030873002 0.11911021 -0.035588406 0.078033134 -0.071576506 -0.0046586883 -0.044835195
0.05171615 -0.006299153 0.14249925 0.1709063 -0.0128870085 0.18095821 -0.18921223 0.051991764
-0.16415067 0.10718961 0.043042023 0.001805308 -0.004988327 -0.15375814 -0.16255847 0.049269978
0.057447962 -0.030379653 -0.076656274 -0.1092012 -0.07514223 -0.016210845 0.0857083 -0.08746744
-0.07149098 0.02253223 0.19035773 0.19163795 -0.056459267 -0.049383223 0.009041354 0.006524374
-0.116310306 0.14368922 0.040433384 -0.20038825 -0.08830541 0.20941868 -0.14823468 0.054796793
0.00675645 0.020573653 -0.059817128 0.051664967 0.012093431 -0.012304355 0.12147272 0.025047539
0.16763766 -0.029487854 0.09917517 -0.0716357 0.028648468 0.017246256 0.050715342 -0.1546695
-0.121612035 -0.11541813 -0.107295066 -0.045877174 0.16402344 -0.074426755 0.08957347 0.12165948
0.046240054 0.0123319635 0.025559012 -0.101034924 0.100872956 0.024601707 -0.101309106 -0.08213147
0.019040698 -0.023598932 -0.001795462 0.15650423 -0.13128231 0.026221154 -0.0060610753 -0.046040863
0.18329132 0.054016143 -0.027767105 0.13797559 0.08247269 -0.11066008 0.034189012 -0.09228441
0.019399533 0.08019961 -0.09559592 -0.17238395 -0.026256606 -0.09011747 -0.038721394 0.032425877
-0.0978115 0.09744827 -0.046309788 -0.064116165 -0.039509885 0.03144429 0.031181255 -0.008407159
-0.10259843 -0.012309609 0.038505334 0.061317485 0.13280517 -0.034490347 -0.05811752 -0.12441877
0.070225574 -0.06575873 -0.065050796 -0.039062276 -0.15128912 -0.03240101 0.05292523 0.023550846
-0.028456368 0.0992454 -0.009308606 -0.0637373 -0.024630215 -0.09474615 -0.16129994 -0.021569649
-0.103171244 -0.045398403 -0.061139446 0.08184756 -0.12598945 0.029401945 -0.09337578 -0.14294484
-0.14211722 -0.0338138 -0.03151156 -0.067316175 0.0431506 -0.122163445 -0.010212762 -0.069750756
-0.08314489 0.082983345 0.03686268 -0.012523351 -0.0041755545 -0.025066268 0.145213 0.0009956077
0.064155966 0.082317516 -0.008795055 0.02784286 -0.06289096 -0.02874931 -0.06187769 -0.08308172
-0.15390423 -0.02738233 -0.007552443 0.036894556 0.0038991468 0.04552345 -0.123736754 0.0090478
-0.047498923 -0.013386427 0.04155078 -0.09026136 -0.1827148 -0.051356293 0.018770855 0.12723924
0.09445592 0.04597025 -0.08693912 -0.16346675 -0.070158854 -0.023566654 0.08493842 0.021760494
0.124705136 -0.095804825 -0.019110318 -0.020171424 0.00059290405 -0.09695379 0.15070489 -0.11512083
0.06073331 -0.025411634 0.0821485 0.028947452 0.04940866 -0.015545332 0.06172465 0.11463826
00000000: 2217 873d ea65 663c 706f 19bd b54a 373d
00000010: 1cb1 b8bd 123e abbb 3261 0bbe a95e 9bbd
00000020: e5d7 9f3c 4392 c73d 2622 973c 93d3 da3d
00000030: e75e af3d 938b 123e dec9 513d ffe4 aabd
00000040: b223 0bbc e545 d7bd e2b6 da3d 1080 81be
00000050: 4ec7 adbd be6a af3d 70cd 0cbe 045c 933d
00000060: f638 98bd 32e3 7a3d ec96 de3d 98ef 34bd
00000070: 2f9e 563d 0dc4 09bd 6d05 b73c 6612 3b3c
00000080: f5ba 073e f6e8 12be 6375 96bc 3b57 673e
00000090: 1ad2 9a3d ad0f 103d 3177 0a3d cfd5 5fbd
000000a0: 6cc5 543e 5da5 86bd 23ee 02be 4ad3 b4bd
000000b0: 2445 363d e50d 3c3e 291f 9cbd 07d5 df3d
000000c0: 1a57 e93d 61e9 fcbc 0ef0 f33d 26c5 11bd
000000d0: d6cf 9f3d b496 92bd e9a7 98bb 1ca5 37bd
000000e0: 50d4 533d 2069 cebb 53eb 113e 1002 2f3e
000000f0: 0824 53bc 1c4d 393e dac0 41be 51f5 543d
00000100: 1d17 28be 3a86 db3d d54c 303d 16a0 ec3a
00000110: 1f75 a3bb c672 1dbe ba75 26be 51cf 493d
00000120: 8e4e 6b3d c0de f8bc f7fd 9cbd e1a4 dfbd
00000130: 2be4 99bd 9bcc 84bc d587 af3d 2122 b3bd
00000140: dd69 92bd 8395 b83c 23ed 423e bd3c 443e
00000150: d541 67bd 1046 4abd 3022 143c 6aca d53b
00000160: 1934 eebd 4423 133e 7a9d 253d 9432 4dbe
00000170: 78d9 b4bd da71 563e d5ca 17be 9a72 603d
00000180: 3665 dd3b 148a a83c ce02 75bd a59e 533d
00000190: 8723 463c 3598 49bc b0c6 f83d 7f30 cd3c
000001a0: 35a9 2b3e 8390 f1bc 5a1c cb3d bdb5 92bd
000001b0: 31b0 ea3c 0548 8d3c e4ba 4f3d ae61 1ebe
000001c0: bb0f f9bd 5760 ecbd 84bd dbbd b4e9 3bbd
000001d0: c3f5 273e 0e6d 98bd 4c72 b73d 9b28 f93d
000001e0: 3666 3d3d 010c 4a3c 2261 d13c 66eb cebd
000001f0: 7b96 ce3d 8589 c93c 267b cfbd 8b34 a8bd
00000200: 3dfb 9b3c 8c52 c1bc b555 ebba a542 203e
00000210: df6e 06be bfcd d63c fc9b c6bb 5895 3cbd
00000220: b8b0 3b3e 0840 5d3d d777 e3bc 7949 0d3e
00000230: 71e7 a83d c1a1 e2bd c709 0c3d 9cff bcbd
00000240: c5eb 9e3c b13f a43d cbc7 c3bd 6b85 30be
00000250: 1818 d7bc 828f b8bd 539a 1ebd ffd0 043d
00000260: 6551 c8bd f592 c73d 55af 3dbd 564f 83bd
00000270: 1ed5 21bd bacb 003d d56f ff3c 2ebe 09bc
00000280: 201f d2bd 3eae 49bc c5b7 1d3d 0b28 7b3d
00000290: 14fe 073e c045 0dbd a30c 6ebd 45cf febd
000002a0: 6dd2 8f3d 83ac 86bd 5a39 85bd c4ff 1fbd
000002b0: 89eb 1abe ecb6 04bd 20c8 583d b4ed c03c
000002c0: 541d e9bc 2c41 cb3d 2083 18bc b488 82bd
000002d0: 4ec5 c9bc 450a c2bd d02b 25be d5b2 b0bc
000002e0: 724b d3bd adf3 39bd 5b6d 7abd b29f a73d
000002f0: 6103 01be 59dc f03c cd3b bfbd 2260 12be
00000300: 2d87 11be 5780 0abd 4412 01bd 10dd 89bd
00000310: afbe 303d d430 fabd 6e53 27bc 7cd9 8ebd
00000320: de47 aabd 2cf3 a93d 52fd 163d be2e 4dbc
00000330: 17d3 88bb c657 cdbc b7b2 143e 0d7f 823a
00000340: 3464 833d 1696 a83d 2219 10bc b616 e43c
00000350: facc 80bd ac83 ebbc 7673 7dbd c026 aabd
00000360: 1299 1dbe e850 e0bc 7c7a f7bb bf1e 173d
00000370: d488 7f3b cc76 3a3d b269 fdbd 393d 143c
00000380: 3b8e 42bd bf52 5bbc 2731 2a3d f3da b8bd
00000390: 9719 3bbe fa5a 52bd 56c5 993c 014b 023e
000003a0: 1b72 c13d 4d4b 3c3d 230d b2bd d463 27be
000003b0: 72af 8fbd db0e c1bc 32f4 ad3d 1043 b23c
000003c0: 6865 ff3d 5235 c4bd 3e8d 9cbc 8b3e a5bc
000003d0: 1e6d 1b3a b58f c6bd 6252 1a3e 78c4 ebbd
000003e0: 7ec3 783d 0f2c d0bc 793d a83d 3523 ed3c
000003f0: bc60 4a3d d9b1 7ebc fdd2 7c3d 77c7 ea3d

network_body._body_endoder.seq_layers.6.bias f4 [128]
0.017719151 0.011163754 -0.007960098 -0.00823122 0.01469967 -0.010155073 -0.018705053 0.01644231
0.010814996 -0.010254053 0.008882423 -0.010635978 -0.027249085 -0.009970391 0.003022433 0.010458311
-0.023349479 0.015150358 -0.047163732 -0.00285556 0.04198824 6.0847087e-05 -0.016756227 0.03200133
-0.0446512 0.0012152672 0.025330385 -0.022198828 -0.02599892 -0.0222406 0.018785117 0.06024599
-0.02294758 -0.013497341 0.00850499 -0.018930212 -0.026581654 -0.007922249 -0.0050326907 -0.035180308
0.0036565987 0.02365164 -0.03484318 -0.0092612645 -0.011977508 -0.00023860522 -0.03377557 -0.01827916
0.029539593 0.0014076623 0.026225917 -0.024531337 -0.019940233 -0.016651003 -0.04403934 -0.019275919
0.003777876 0.005096528 -0.02158564 0.00366016 -0.027802633 0.0026423924 0.036162812 0.029906143
0.023203213 0.009503782 -0.013405614 -0.024701335 -0.026377587 -0.010441914 0.0004645422 -0.019414714
0.019984106 -0.032294635 -0.007524066 -0.008460548 -0.034133233 -0.012208139 -0.012727147 -0.04339646
-0.01573889 0.006066436 -0.035313077 -0.02012026 -0.023605494 -0.014425069 0.0050453693 -0.022345796
0.00908024 -0.009397467 -0.010879573 -0.020138556 0.021328954 -0.0215828 -0.008550121 -0.024231294
-0.0345178 -0.036102187 -0.04120041 0.010436035 -0.018595403 -0.009404657 -0.019834066 0.0011316949
-0.015024477 -0.016573438 0.0048976415 0.040839795 0.0041022967 -0.013713563 -0.030161964 -0.03176188
-0.0017152573 -0.036623128 -0.024718948 0.0037986867 -0.033401605 -0.011679509 0.010172889 -0.026566692
0.008224244 -0.025731735 0.00067729363 -0.004257193 0.002585792 -0.021090511 -0.00081666705 0.034625757
00000000: c127 913c 2ee8 363c 126b 02bc 3ddc 06bc
00000010: e2d6 703c 7761 26bc 573b 99bc 06b2 863c
00000020: 6231 313c 9e00 28bc 9587 113c 8642 2ebc
00000030: 7939 dfbc da5a 23bc 0314 463b 5659 2b3c
00000040: 6847 bfbc 3539 783c c22e 41bd 5924 3bbb
00000050: dcfb 2b3d 1036 7f38 5b44 89bc d413 033d
00000060: 2de4 36bd 9a49 9f3a ab81 cf3c 51da b5bc
00000070: b0fb d4bc eb31 b6bc 3fe3 993c 80c4 763d
00000080: 90fc bbbc f423 5dbc 8358 0b3c 8813 9bbc
00000090: c5c1 d9bc 52cc 01bc 45e9 a4bb 3a19 10bd
000000a0: 8ca3 6f3b 16c1 c13c b9b7 0ebd 8fbc 17bc
000000b0: 4f3d 44bc 1a32 7ab9 4158 0abd 2dbe 95bc
000000c0: 04fd f13c 4f81 b83a bcd7 d63c f1f5 c8bc
000000d0: b359 a3bc af67 88bc 9862 34bd 88e8 9dbc
000000e0: 3e96 773b c700 a73b 5ed4 b0bc 4bdf 6f3b
000000f0: 59c2 e3bc fd2b 2d3b 751f 143d bafd f43c
00000100: aa14 be3c c0b5 1b3c 38a3 5bbc 745a cabc
00000110: cf15 d8bc 9014 2bbc cc8d f339 9b0b 9fbc
00000120: b5b5 a33c 6147 04bd 718c f6bb 1c9e 0abc
00000130: 4acf 0bbd a504 48bc 8685 50bc 7dc0 31bd
00000140: d8ee 80bc f4c8 c63b 72a4 10bd 3ed3 a4bc
00000150: 4f60 c1bc 2057 6cbc a053 a53b 880e b7bc
00000160: 49c5 143c d5f7 19bc 3d40 32bc 9df9 a4bc
00000170: 0fba ae3c 6ace b0bc cf15 0cbc b580 c6bc
00000180: 8962 0dbd e3df 13bd c3c1 28bd e7fb 2a3c
00000190: 6355 98bc fe15 1abc 0d7b a2bc 6155 943a
000001a0: 3929 76bc 05c5 87bc 657c a03b a147 273d
000001b0: 8f6c 863b daae 60bc 3916 f7bc bf18 02bd
000001c0: 7cd2 e0ba 2202 16bd 647f cabc 63f3 783b
000001d0: 1fd0 08bd 695b 3fbc 30ac 263c 64a2 d9bc
000001e0: fbbe 063c 5ccb d2bc 688c 313a ec7f 8bbb
000001f0: 6476 293b 02c6 acbc 9915 56ba bdd3 0d3d

network_body._body_endoder.seq_layers.6.weight f4 [128, 128]
-0.005336114 -0.03244451 -0.042317446 0.0362034 0.13540468 -0.02198704 -0.09106057 0.072219916
-0.02891363 0.011647246 -0.06119695 -0.07413701 -0.21223249 -0.050483253 -0.006908368 0.016993105
0.12419433 0.077886075 0.107804336 0.04770021 -0.09896787 -0.14373608 0.0671306 -0.027551036
0.18519725 -0.06072569 0.11486353 0.12484083 -0.048462715 0.16008222 -0.00985274 0.15257938
0.07121156 -0.079545416 -0.1480712 0.014100455 0.014760341 0.039070982 0.06940177 -0.037440963
0.021715153 -0.011741822 0.091356024 0.19841753 -0.050597917 -0.22739229 -0.031784743 0.09348412
0.018384114 -0.04634483 0.081960045 0.09844338 -0.03374151 0.0053238682 -0.066691235 0.075961694
-0.0045120907 -0.0915831 0.023188917 0.012199473 -0.01379247 -0.07482101 -0.04390882 -0.23054965
0.0068562585 -0.007482438 -0.017083306 0.21587928 0.16556337 0.027822755 0.029330434 0.25327125
-0.004197988 -0.10036705 -0.0058461474 -0.0463024 0.09154714 0.013630672 0.034264322 0.053175107
0.051646747 -0.10124866 0.022155643 -0.03971847 0.060017414 0.088965125 0.08832128 0.074351996
0.12872425 0.07898612 0.011936173 -0.116434395 -0.063745536 0.007930113 -0.010877347 -0.111042164
0.0800912 0.047833044 0.024336075 0.11872546 0.12935436 -0.050525267 -0.08486061 -0.24128598
0.039222334 0.079985745 -0.18364158 0.0019671847 -0.10940302 -0.0349313 0.048138496 0.08309599
-0.065321006 0.026532006 -0.015068441 -0.055542402 0.09845015 -0.011435468 0.08910954 -0.069880605
-0.06771679 0.004067569 -0.06573872 -0.040690526 0.0031117338 0.094451874 0.010410421 -0.015881628
0.030145245 -0.057070196 0.0063389265 0.1494838 0.066513374 0.079840675 0.051015478 0.007829404
0.0045181317 -0.07612395 0.056372374 0.15997383 0.0910301 0.0802692 -0.03069863 -0.074731946
0.09206934 -0.027433386 -0.04259599 -0.068877846 0.13640694 -0.0021829633 0.10699927 0.0389244
-0.09966888 0.17024605 -0.07070638 0.07352342 0.0002155609 0.0856233 0.069896 -0.07186476
-0.19344786 0.010726777 -0.14610137 -0.06939928 -0.0007811913 -0.013965665 -0.008617724 -0.033148568
0.16670763 -0.061316736 0.082402624 -0.013556055 0.20916556 -0.13880645 -0.10676888 -0.05286974
0.17417172 -0.22012678 0.063911416 0.037151266 0.1520635 -0.0021547994 -0.04293199 -0.043498755
0.16199598 0.06534772 -0.09587199 -0.040467348 0.20165344 -0.05677876 0.1329994 0.026857276
0.21119672 -0.11308934 0.0029137433 0.109890476 -0.052151475 0.03600502 -0.12933147 0.14412527
0.075089805 -0.10184255 0.065365136 0.023922024 -0.08790139 -0.14070445 0.05505618 -0.06300812
-0.096928686 -0.28557843 -0.06752484 -0.0119415205 -0.071608536 -0.048872344 -0.04726594 0.04976876
0.03245954 -0.023135174 -0.031802326 0.001642723 0.06377435 0.019104099 0.014833711 0.066150196
-0.043263007 -0.050457735 0.024381537 0.06605149 0.025173655 0.1613946 0.11310624 -0.22061056
-0.08058533 0.027716165 0.09903989 0.008595162 -0.12730812 -0.0371447 -0.022584802 0.094185546
-0.06951348 0.004981613 -0.057479147 0.0085635865 0.20025226 0.049767178 -0.035535723 0.01818597
-0.002605364 0.13763492 0.067459784 0.10928335 0.00613189 -0.109244786 0.06843218 0.083879456
00000000: 92da aebb 89e4 04bd 0f55 2dbd 044a 143d
00000010: 86a7 0a3e 2a1e b4bc f77d babd 09e8 933d
00000020: 47dc ecbc 17d4 3e3c a7a9 7abd 25d5 97bd
00000030: 7953 59be 87c7 4ebd 975f e2bb 2035 8b3c
00000040: 9959 fe3d bc82 9f3d 85c8 dc3d 4c61 433d
00000050: abaf cabd 8d2f 13be c57b 893d b6b2 e1bc
00000060: 59a4 3d3e 80bb 78bd 923d eb3d 8dac ff3d
00000070: d780 46bd 98ec 233e 636d 21bc c53d 1c3e
00000080: 5ed7 913d b5e8 a2bd fa9f 17be 9805 673c
00000090: 5bd5 713c e508 203d 8422 8e3d b25b 19bd
000000a0: fae3 b13c c560 40bc de18 bb3d f72d 4b3e
000000b0: c33f 4fbd 86d9 68be b830 02bd 9a74 bf3d
000000c0: 489a 963c 14d4 3dbd abda a73d af9c c93d
000000d0: 8a34 0abd d873 ae3b 6a95 88bd ce91 9b3d
000000e0: 29da 93bb ec8f bbbd aff6 bd3c 4ce0 473c
000000f0: d0f9 61bc c23b 99bd bcd9 33bd 3515 6cbe
00000100: 77aa e03b 3d2f f5bb 4af2 8bbc 750f 5d3e
00000110: 7289 293e 8cec e33c 6146 f03c c5ac 813e
00000120: 478f 89bb 3d8d cdbd 0a91 bfbb 96a7 3dbd
00000130: 117d bb3d 2f53 5f3c bf58 0c3d 24ce 593d
00000140: 8a8b 533d 755b cfbd c07f b53c d6af 22bd
00000150: d2d4 753d 5933 b63d cae1 b43d dc45 983d
00000160: 4ad0 033e 7ac3 a13d f08f 433c 2875 eebd
00000170: 058d 82bd 4eed 013c e636 32bc 136a e3bd
00000180: db06 a43d 95ec 433d 735c c73c 5526 f33d
00000190: 7875 043e 95f3 4ebd 66cb adbd ac13 77be
000001a0: 99a7 203d 91cf a33d 8a0c 3cbe e2eb 003b
000001b0: b10e e0bd 1f14 0fbd df2c 453d 3b2e aa3d
000001c0: 05c7 85bd a659 d93c 9fe1 76bc 6e80 63bd
000001d0: 3ba0 c93d d45b 3bbc 107f b63d 901d 8fbd
000001e0: 1aaf 8abd 3e49 853b 06a2 86bd 1cab 26bd
000001f0: 3bee 4b3b fc6f c13d 7890 2a3c 301a 82bc
00000200: 29f3 f63c 70c2 69bd c5b6 cf3b 4812 193e
00000210: 2a38 883d 8283 a33d 9bf5 503d e746 003c
00000220: d60c 943b e0e6 9bbd b8e6 663d 2ed0 233e
00000230: fd6d ba3d 2e64 a43d b17b fbbc 100d 99bd
00000240: da8e bc3d fbbb e0bc 2279 2ebd d40f 8dbd
00000250: 43ae 0b3e 0c10 0fbb 6f22 db3d 316f 1f3d
00000260: 331f ccbd fb54 2e3e 82ce 90bd 7293 963d
00000270: 3008 6239 455b af3d a225 8f3d d52d 93bd
00000280: 3217 46be 5dbf 2f3c 999b 15be 3621 8ebd
00000290: dcc8 4cba 3fd0 64bc 5b31 0dbc cbc6 07bd
000002a0: 68b5 2a3e 4227 7bbd b5c2 a83d 371a 5ebc
000002b0: 7f2f 563e 4723 0ebe a4a9 dabd f18d 58bd
000002c0: 125a 323e ea68 61be fde3 823d ed2b 183d
000002d0: 89b6 1b3e 8937 0dbb 74d9 2fbd c02b 32bd
000002e0: 46e2 253e 07d5 853d 8958 c4bd 17c1 25bd
000002f0: 3d7e 4e3e d890 68bd ff30 083e ca03 dc3c
00000300: f443 583e 629b e7bd 80f4 3e3b 420e e13d
00000310: c99c 55bd 007a 133d 786f 04be 9395 133e
00000320: afc8 993d d492 d0bd 28de 853d 1ff8 c33c
00000330: a505 b4bd d414 10be 9782 613d 670a 81bd
00000340: 8c82 c6bd 5637 92be 774a 8abd 5ea6 43bc
00000350: 7fa7 92bd 5e2e 48bd ee99 41bd 54da 4b3d
00000360: 4bf4 043d fa85 bdbc 2843 02bd a350 d73a
00000370: 209c 823d 3380 9c3c 1809 733c c179 873d
00000380: 8d34 31bd c5ac 4ebd cabb c73c 0146 873d
00000390: fb38 ce3c a044 253e 3fa4 e73d bce7 61be
000003a0: ec09 a5bd 030d e33c 6dd5 ca3d b9d2 0c3c
000003b0: 0f5d 02be 0a25 18bd c303 b9bc 5ae4 c03d
000003c0: 155d 8ebd cc3c a33b 416f 6bbd 494e 0c3c
000003d0: ee0e 4d3e abd8 4b3d e88d 11bd befa 943c
000003e0: c1be 2abb 2bf0 0c3e 5b28 8a3d f3cf df3d
000003f0: 06ee c83b bbbb dfbd 2c26 8c3d fec8 ab3d

network_body._body_endoder.seq_layers.8.bias f4 [128]
-0.03400182 -0.01863099 0.005221628 -0.016103638 0.0026835727 -0.02326614 -0.017377146 0.00822674
-0.0035085261 0.037241522 -0.07264331 -0.007366481 -0.024278605 0.002036955 -0.03078506 -0.037089247
-0.018612744 -0.03089507 -0.008020076 -0.013909939 0.023444233 -0.012618054 -0.0039674416 -0.057261985
-0.0053511397 -0.033812106 -0.044508997 -0.037427176 0.01959 -0.022935309 -0.01637521 -0.015643848
-0.005333808 -0.011828811 -0.00064489833 -0.024443235 -0.040475443 -0.012947519 -0.028090412 -0.026013117
-0.011000636 0.0011122691 -0.014917506 -0.009511522 -0.01785719 -0.012661416 -0.03973961 -0.05072674
-0.0064315666 0.0029855785 0.017930653 -0.061469994 -0.022768216 -0.015371602 -0.04179716 -0.027068142
0.010551161 0.01354357 0.03943822 -0.05804713 0.0058277 -0.037579924 0.0048547536 -0.025916649
-0.031828694 -0.043326758 -0.001134423 0.012652421 -0.026800016 -0.0061152065 -0.040520467 -0.026731646
-0.026091369 -0.013385512 -0.021399273 -0.041580055 -0.019132841 -0.010759242 0.019580903 -3.4085664e-05
-0.058178656 -0.0041696182 -4.7024485e-05 -0.0060647978 -0.012449501 -0.012321915 0.0064041307 -0.009034737
-0.016103012 -0.024246387 -0.023664614 -0.04213901 -0.042221352 -0.03674358 0.0028717068 -0.04680681
-0.019428924 -0.02549378 -0.027028 -0.013298721 -0.016053637 0.033520777 -0.026720816 -0.010534241
0.013873372 -0.021538315 0.015166548 -0.012168486 -0.06615306 -0.007240898 -0.038928024 -0.06721929
-0.025129685 -0.006225359 0.03249152 -0.007086345 0.023565968 -0.027197776 0.0025746725 -0.015637508
-0.016917119 -0.0370116 -0.0147779845 -0.03932286 -0.03394075 -0.020963563 -0.04049363 0.004153855
00000000: 7e45 0bbd 05a0 98bc 311a ab3b c7eb 83bc
00000010: e1de 2f3b a298 bebc 845a 8ebc 73c9 063c
00000020: 4def 65bb 918a 183d 04c6 94bd 8562 f1bb
00000030: ede3 c6bc 6f7e 053b f330 fcbc e5ea 17bd
00000040: c179 98bc a817 fdbc a366 03bc 83e6 63bc
00000050: 1f0e c03c f4bb 4ebc 5001 82bb 8b8b 6abd
00000060: 9d58 afbb 907e 0abd 114f 36bd 3d4d 19bd
00000070: 357b a03c d4e2 bbbc 4e25 86bc 8727 80bc
00000080: 39c7 aebb a1cd 41bc 650e 29ba 2e3d c8bc
00000090: 94c9 25bd d521 54bc dd1d e6bc 7619 d5bc
000000a0: 033c 34bc 8fc9 913a 8e68 74bc 37d6 1bbc
000000b0: 3e49 92bc d471 4fbc 00c6 22bd d8c6 4fbd
000000c0: e4bf d2bb b2a9 433b 4ee3 923c f6c7 7bbd
000000d0: 6984 babc 2cd9 7bbc 8033 2bbd 02be ddbc
000000e0: c7de 2c3c dae5 5d3c f989 213d d4c2 6dbd
000000f0: 4af6 be3b 68ed 19bd a014 9f3b 274f d4bc
00000100: ce5e 02bd 6677 31bd ebb0 94ba 1a4c 4f3c
00000110: b58b dbbc 1262 c8bb caf8 25bd 53fc dabc
00000120: 91bd d5bc e84e 5bbc 874d afbc d94f 2abd
00000130: 7abc 9cbc 8847 30bc 2168 a03c 34f7 0eb8
00000140: be4c 6ebd 4ba1 88bb 283c 45b8 36bb c6bb
00000150: fef8 4bbc dbe1 49bc bed9 d13b 6f06 14bc
00000160: 77ea 83bc 5ca0 c6bc 4bdc c1bc f499 2cbd
00000170: 4cf0 2cbd 7080 16bd 3f33 3c3b 7fb8 3fbd
00000180: 6829 9fbc 55d8 d0bc d369 ddbc e1e2 59bc
00000190: eb82 83bc 154d 093d 9de5 dabc cf97 2cbc
000001a0: 244d 633c 1f71 b0bc 1d7d 783c 545e 47bc
000001b0: 417b 87bd 0e45 edbb fe72 1fbd 44aa 89bd
000001c0: c5dc cdbc 19fe cbbb d415 053d 9234 e8bb
000001d0: 6b0d c13c dfcd debc d6bb 283b 3b1a 80bc
000001e0: c595 8abc 7a99 17bd 5c1f 72bc 0211 21bd
000001f0: 7505 0bbd c7bb abbc a6dc 25bd 101d 883b
