results/ppo/My Behavior/My Behavior-999976.onnx (onnx, 269768 bytes, 11 tensors)

action_model._continuous_distribution.mu.weight f4 [1, 128]
00000000: 68a3 acbc 2591 b53a 58f6 6dbc d5ea 59bc
00000010: 0f59 a1bc e4ab 59bc b58c 8bbb ca6b 99bc
00000020: 9328 9ebc 6f5d 58bc c796 8cbc 1747 9fbc
00000030: 83f1 23bb 860d cbbc 62e0 14bc e8a1 b9bc
00000040: c37a aabc 3687 c1bb ed68 a6bc 6d0b 363b
00000050: d92b 93bc c3a9 8fbc 7f3f 5bbc eb8b 8cbc
00000060: 6853 e83a 9e77 06bd f0ab c6bb 79e1 c1bc
00000070: e358 32bc b6e3 bbbc be37 81b9 83eb 33bd
00000080: 5c7c febc 7291 56bc 5e34 7b3a 055b abbb
00000090: b62f 8abc f73c af3c 7ca6 bdbb c535 1fbb
000000a0: e271 be3c 6dcc d83a 551c 1abb fb54 b9bc
000000b0: a3e0 80bc e114 d5bc 018d ddbc aef6 51bc
000000c0: 5189 c23c 3d60 81bc e86f 10bd 7262 cebc
000000d0: 79e2 533c 04ad 353c 16b9 c9bb c13f 663b
000000e0: 75aa 91bc 01e7 14bc 2664 cfbb f73c babc
000000f0: 82c6 61bc c491 b3bc 3ad9 5f3b bbd1 23bc
00000100: 75f1 1e3d d6b5 e439 0211 303c baa6 1fbc
00000110: d2b2 8ebc d561 b0bb b34a 82bc 4344 d7bc
00000120: fc5b f5ba 4614 87bc a65d de3c 7730 78bc
00000130: 8eb5 46bc b49e f3bc ccd8 50bb fa83 1d3d
00000140: 6079 cf3b bb22 4e3c 68e6 233c 1c9e 08bb
00000150: 566f 96bc 66ac b73b 3768 b53b 29e7 12bd
00000160: 0c3e 523c 1f10 b43c b76b 5ebc d4c4 e93c
00000170: 668c 0ebc d6ec f63c aac4 9cbc f040 a9bb
00000180: af0a f9bb ce2a 94bb a689 eabb cb68 073b
00000190: 5b9d 0b3c 7649 ba3b 1e25 023d 14f6 adbc
000001a0: 55e6 b9bb 675d f0ba d1c5 37bc 07fd 3dbc
000001b0: 6038 1a3c f4d7 4a3b 4bff 323c 2e1e 29bd
000001c0: 8cea 7ebb 44e7 c7bc 88fb 9d3c 3d65 b1bc
000001d0: 3c1c 4ebc c735 803c df01 5bbc 187b 1bbb
000001e0: 9dff db3c 1c02 15bd 0c64 c1bc 33ba f0bc
000001f0: ac29 173c 78c8 13bc 1fc2 33bc 1f41 15bc
-0.021074012 0.001385246 -0.014524065 -0.013300617 -0.019695787 -0.013285611 -0.004258717 -0.018728156
-0.019306457 -0.01320587 -0.01716174 -0.019443078 -0.0025015778 -0.024786722 -0.0090867 -0.02266021
-0.02081049 -0.005906011 -0.020313704 0.0027777806 -0.017965244 -0.017537003 -0.013381838 -0.017156562
0.0017725052 -0.03282892 -0.006062977 -0.023667084 -0.01088545 -0.02293573 -0.00024646329 -0.043925773
-0.031065159 -0.0130962 0.00095826935 -0.0052293562 -0.016868453 0.021391375 -0.0057876687 -0.0024293524
0.023247663 0.0016540416 -0.0023515422 -0.02262353 -0.015732115 -0.026010932 -0.027044775 -0.012815161
0.023747118 -0.01579296 -0.035262972 -0.025193427 0.012932413 0.011088613 -0.006156097 0.0035133215
-0.017781476 -0.009088279 -0.0063290773 -0.022734148 -0.013780238 -0.021920092 0.0034156577 -0.009998734
0.03880449 0.00043623027 0.0107462425 -0.009744341 -0.017419253 -0.0053827562 -0.01590476 -0.026277667
-0.001871943 -0.01648916 0.027144264 -0.015148274 -0.012128247 -0.029738761 -0.0031867502 0.03845594
0.0063316077 0.012581523 0.010003664 -0.0020846194 -0.018363636 0.0056052683 0.005536105 -0.035864983
0.012832176 0.021980343 -0.013575486 0.028536238 -0.008700466 0.030142229 -0.019136745 -0.005165212
-0.0076001505 -0.0045217043 -0.0071575223 0.0020661827 0.008521403 0.0056850268 0.03177368 -0.021235503
-0.0056732097 -0.0018338383 -0.011216597 -0.011595971 0.009412855 0.0030951472 0.010925124 -0.041288547
-0.0038897125 -0.024402268 0.019284979 -0.02165472 -0.012579974 0.015650643 -0.013367145 -0.0023724493
0.026855284 -0.036378965 -0.023607276 -0.029385662 0.009226244 -0.009019963 -0.010971575 -0.009109764

network_body._body_endoder.seq_layers.0.bias f4 [128]
00000000: 7eca 17bc 2c01 9abc c326 50ba a541 11be
00000010: 6f69 8c3b 93b7 30bc 9a19 8fbc d7d1 1bbc
00000020: e76f 0cbd 296b afbd 988d a4bd a601 593d
00000030: 884f bfbb 5a55 9dbc 5146 6bbd 2ce7 49bb
00000040: 145a eabd 0f7d 8ebd 6591 54bb 5177 2cba
00000050: 269f 44bd 7dad ecbc ef4a 373a 0abf 22bd
00000060: 86e0 11bd 619f 6bbd e1c6 f5bc b6e8 44bc
00000070: 589f babc 6caf 1cbc d996 02bd c6d9 7bbd
00000080: 1824 41bd 2533 b0bc 47ed 70bd e508 4abd
00000090: 6b6c 9bbd 3cb3 72bd 3687 16bd b787 27bd
000000a0: 21cc f1bc 8506 243d 5188 25bd b60b d1bc
000000b0: 7d6d 113c 52ef b0bc 6356 68bd fe09 72bd
000000c0: aac3 3bbc 239f d4bc a383 16bd 817c 9bbd
000000d0: 3f3d 1bbd 527a 03bd f179 2fbd 79fe cabd
000000e0: 7c02 acbd b2af 3ebd d802 64bd d1ab 71bd
000000f0: 23f8 9bbc af5f 43bd d0ab 7fbb f8dd 89bc
00000100: 3e4a 8bbd e63b 65bd bf50 bdbc 9028 9bbc
00000110: 83e6 b1bc 3914 6dbd 5700 033b 077a 33bd
00000120: abad 86bd 34ee 873a b88e 82bd 5fe1 52bd
00000130: cf57 b6bd 659d 21bd 4b6c 133d ac8a 55bd
00000140: 4e90 56bd 4294 3bbd 163c cfbd 5984 0abd
00000150: b890 89bb e44b cdbd 5bdf b6bd cc80 1cbd
00000160: 9471 47bd 6f38 71bd 5064 b6bb b4d7 a7bd
00000170: 456f 68bd cf63 87bb ee2b c7bd e7f7 35bd
00000180: 0e43 22bd a4a2 09bd 84a6 28bc 9e84 24bd
00000190: d228 193d 3db4 2dbd cc3e b4bd b261 7abd
000001a0: bb41 3abd 284b e5bc a79f fbbc 0105 76bd
000001b0: dd16 12bc f0e5 bd3a d178 debd 9b28 5cbd
000001c0: 2cfa a5bc 118c 95bc da65 3bbd dd90 a5bc
000001d0: 6e5a 7a3b 6075 b3bc fb97 abbc 6dd2 4dbd
000001e0: a8d3 b9bc a325 a5bd ccbd 08bd 16a0 f5bc
000001f0: 3a63 80bd e15e 68bc 4c2e a6bd 11d6 38bc
-0.0092645865 -0.018799387 -0.0007940346 -0.14185198 0.0042850296 -0.010785955 -0.017468262 -0.009510479
-0.034286406 -0.08565361 -0.08034819 0.052980088 -0.0058383383 -0.019205738 -0.057440106 -0.0030807955
-0.11442962 -0.06957447 -0.0032435295 -0.0006579059 -0.04800334 -0.02889132 0.0006992062 -0.03973297
-0.035614513 -0.057525042 -0.03000206 -0.012018373 -0.02278106 -0.009563308 -0.03188214 -0.06148698
-0.047153562 -0.021508763 -0.058820035 -0.04932489 -0.075890385 -0.059252962 -0.03675004 -0.040900912
-0.029516282 0.04004528 -0.040413205 -0.02551828 0.008876202 -0.021598492 -0.05672301 -0.05909156
-0.011460224 -0.025954789 -0.036746632 -0.075921066 -0.037900206 -0.032099076 -0.0428409 -0.09911818
-0.08398911 -0.046554275 -0.055666775 -0.059001748 -0.01903922 -0.047698673 -0.003901232 -0.016829476
-0.0680127 -0.055965327 -0.023109792 -0.01894024 -0.021716362 -0.057880614 0.0019989216 -0.043817546
-0.06576093 0.0010370673 -0.06374878 -0.051484462 -0.08903467 -0.039456744 0.035991948 -0.0521342
-0.052383713 -0.045795687 -0.10118882 -0.033817623 -0.00419816 -0.100242406 -0.089293204 -0.038208768
-0.0486923 -0.05889171 -0.0055661574 -0.08195439 -0.05674674 -0.004131771 -0.09725176 -0.04442587
-0.03961473 -0.03360237 -0.010293607 -0.040165536 0.037392445 -0.042408217 -0.0880104 -0.061128326
-0.04547284 -0.027989939 -0.030715777 -0.060063366 -0.008916584 0.0014488082 -0.10862888 -0.053749662
-0.020260893 -0.018255265 -0.04575143 -0.020210678 0.0038200873 -0.021906555 -0.020946493 -0.050249506
-0.022683933 -0.08063819 -0.03338413 -0.029983561 -0.06268926 -0.014182777 -0.08114299 -0.011281506

network_body._body_endoder.seq_layers.0.weight f4 [128, 3]
00000000: 650a 8a3b f433 0d3f d524 9dbe 3952 ddbd
00000010: 73fe 093f 4678 b8be c829 d83e 12cf 2b3f
00000020: 9a94 65bd 340f 3dbf 2a1c cc3d d765 2ebf
00000030: f62d b3bd b947 593e ebd0 43bd 35f1 ec3d
00000040: da1a 61bf 88b0 20bf 5b99 243e 80c9 56be
00000050: 1e72 d7be 181f 233f d7aa df3e 3564 653f
00000060: e7a5 4e3e 4bf8 24bf 0534 903d b034 683b
00000070: 45ee 743c 4d93 c6be 210f ab3f 780b 193f
00000080: ab2d ad3f 0721 493f bc26 2cbf 3cb3 9dbc
00000090: d54b b93e a2d8 c63d 9712 99bc b3e0 f23d
000000a0: 4f87 aeba b229 a6bf b01b cfbe 47e7 053e
000000b0: 334f babe 5df2 86be f6de c2bd d1a2 10bf
000000c0: c3e8 8cbf aead f33d a616 01bf 5f8f 08bf
000000d0: c68a 5dbc a52b 323d 3c95 dfbd f593 e3be
000000e0: a505 d8bf af1e 44bd a910 9a3d a597 f9be
000000f0: e3fc 8fbf b316 e13e a75d 89bf 8bb4 8d3d
00000100: 8e15 063e c705 863d bfa0 d73e 7432 d4bb
00000110: d1d4 b33e 5bed e93e 43ec 2cbf 6e33 6c3d
00000120: 0607 013f 1c96 9cbe 0d3c d93e 25d8 9f3c
00000130: 9136 b43e 4e54 16be 697a 623f 96de 3fbf
00000140: 8c29 5abe b35c 47bf 9398 c23e 5993 853f
00000150: 8359 b63f fde8 93be 34a4 8dbf 7dff d73e
00000160: 93d6 743e 706d da3d 199b 74be e7bd e6be
00000170: f50d 653f 0b34 873d deda e8be f1e2 0e3f
00000180: c617 af3e f258 cd3e 3a5f 533c 2542 b8bf
00000190: 52c4 b03e 6f96 233f 2a41 fdbe 919c 613e
000001a0: c2c3 773e eddd c0be 4ac2 23bf 9d68 2cbe
000001b0: 8a63 7e3d 7f89 f4be 8b52 16bf 76e5 213f
000001c0: edc2 93bc b2e2 abbd 8f71 91be 7ab6 373f
000001d0: e83c 46bf 3687 dd3e 95f6 91bf a806 dc3e
000001e0: e3cb e33d e641 ae3f a2b4 073e d615 2d3d
000001f0: 0025 c63e 3480 173e 3724 943e 2563 333e
00000200: c7e2 33bf ef38 1f3f e60d f23d 2bd6 8ebe
00000210: f93b 663f 7a60 853e ea84 98bd 7845 dd3e
00000220: 3d58 ea3e 3258 243f e4f4 f2be 77ba d53f
00000230: 6392 3b3f a934 093f 4ed1 7abe 02d3 4a3e
00000240: 6aec ac3f f21d 313f 2c98 16bf aff3 86be
00000250: b4a4 72be d2a5 d53e ad74 1abd 189c 2bbf
00000260: 1adf e03e e392 3c3e b916 09bd c842 93bd
00000270: 8693 8bbd 233c d73e 5f43 27bf efab cebe
00000280: b752 d3be fc19 41bf 6a55 88bf c399 34bd
00000290: 33b7 87bf 67d8 fdbe 5fd3 6d3f d034 153f
000002a0: 5f5d cbbf c88b 7abe d0eb d63e 5dad 9c3e
000002b0: 56b4 bbbd a44b c63e 71ea 6e3f cab5 093e
000002c0: 6545 7b3f 225e 93bf fcd3 01be 7787 bebe
000002d0: 22ec da3e aca3 3abe bd19 d6be e6fb 0bbe
000002e0: a63e 04bf d258 c03e 125b 18bf 3cec f33e
000002f0: 5e5a f63e 3714 3c3f ab23 933d 6cbc af3e
00000300: d9da 92bd c37a 9f3c 9e1c 3c3f cb11 b63f
00000310: 79a4 46be 866f 01bf 7fbd b6be c207 83be
00000320: 898c 9c3e ce78 1ebf 2513 003f 2a45 58bf
00000330: bca1 3b3f a310 ba3c 9b6b 683f f37a 79bd
00000340: 630a 4d3f 70ff 67bf 1cf2 de3d 96bc fc3e
00000350: 8133 043f 1d00 bc3e d0ea 1cbd 200f 903e
00000360: 41d2 1ebf c090 eb3e 63ba 723f c7e7 0e3f
00000370: ab3d 9cbc 2f4d 663f 77fc 50bf fe3d 3dbc
00000380: a21f 09be da86 163e 1035 2dbf fbf5 b0bf
00000390: 0d42 383f cb17 80bf 5a2f 633f 0f12 bbbe
000003a0: 9c60 d73e 70d7 1abf 8835 acbe 1d8a 293f
000003b0: 31e5 203d c3fa 98bf f82c d03e 1011 86be
000003c0: 3cd0 8e3d 23f1 0cbf d3ff 0ebe deb9 20be
000003d0: 42f0 1c3e a887 8bbf 703d 1cbf 66e8 e3be
000003e0: 3f54 d83e f532 12bf 22df d0be 9d64 60be
000003f0: 6f59 f6bc c2be a6bf 28f9 83be 5283 8dbf
0.004212665 0.551574 -0.30692163 -0.10806698 0.53903884 -0.3602926 0.42219377 0.6711284
-0.05604992 -0.73851323 0.09966309 -0.68124145 -0.08749001 0.21218766 -0.04780666 0.11569444
-0.879316 -0.62769365 0.16074125 -0.20975304 -0.42079252 0.6371932 0.43685028 0.8960603
0.20180474 -0.64441365 0.07041172 0.0035431795 0.014949386 -0.38784257 1.3363992 0.59783125
1.3529562 0.7856602 -0.67246604 -0.019250505 0.36190668 0.09709288 -0.018685622 0.11859264
-0.0013315472 -1.2981474 -0.4045081 0.13076507 -0.3638855 -0.26356784 -0.09515183 -0.5649844
-1.1008533 0.11898361 -0.50425184 -0.53343767 -0.013521856 0.043498654 -0.10917136 -0.4444882
-1.6876723 -0.047880825 0.07522709 -0.48748508 -1.124905 0.4396263 -1.0731705 0.069192015
0.1309416 0.06544071 0.42114827 -0.006475741 0.35123304 0.456889 -0.67548007 0.057666235
0.5040134 -0.30583274 0.42428628 0.019512245 0.3519788 -0.14680597 0.88468033 -0.74949014
-0.21304911 -0.7787582 0.3800703 1.0435592 1.4246067 -0.28888693 -1.1065736 0.4218711
0.23909979 0.10665405 -0.2388729 -0.4506676 0.8947442 0.06601723 -0.45479482 0.55815035
0.34197825 0.40106922 0.012901122 -1.4395186 0.3452478 0.6390142 -0.4946378 0.22032382
0.2419577 -0.37669316 -0.63968337 -0.16836782 0.062106647 -0.4776115 -0.587197 0.63240755
-0.018037284 -0.08392848 -0.2840695 0.7176281 -0.77436686 0.4326722 -1.1403376 0.42973828
0.11122873 1.3613861 0.132525 0.042257152 0.38700104 0.14795 0.2893388 0.1751829
-0.7026791 0.6219625 0.11819057 -0.27897772 0.8993526 0.26050168 -0.07447226 0.43217063
0.45770445 0.64197075 -0.47452462 1.669753 0.73270243 0.5359598 -0.24493906 0.19807056
1.3509648 0.6918632 -0.58825946 -0.2635779 -0.23695642 0.41728073 -0.037708927 -0.67035055
0.43920213 0.18415408 -0.033468936 -0.07190472 -0.06815247 0.42038068 -0.65337175 -0.4036555
-0.41274044 -0.75430274 -1.0651066 -0.04409195 -1.0602783 -0.49579164 0.9290065 0.5828371
-1.588787 -0.24467385 0.41976786 0.30601016 -0.09165256 0.38729584 0.9332648 0.13448253
0.9815276 -1.1513102 -0.12678522 -0.37212726 0.4275828 -0.18226498 -0.41816512 -0.1367031
-0.51658094 0.37567765 -0.5951396 0.4764117 0.4811582 0.73468345 0.071845375 0.34323442
-0.07170648 0.019467717 0.73481166 1.422418 -0.19398679 -0.50560796 -0.3569145 -0.25591856
0.3057597 -0.61903083 0.5002921 -0.84480536 0.7329366 0.022713011 0.9078919 -0.06090827
0.80093974 -0.9062414 0.108860224 0.4936263 0.5164109 0.36718836 -0.038309872 0.2813654
-0.6203957 0.46008873 0.94815654 0.55822414 -0.019072374 0.8996152 -0.8163523 -0.011550425
-0.13390973 0.1469988 -0.6765909 -1.3825067 0.71975785 -1.0007261 0.8874413 -0.36537215
0.42065895 -0.6048498 -0.3363459 0.6622637 0.039281074 -1.1951526 0.40659308 -0.26184893
0.06973311 -0.55055445 -0.13964777 -0.15695903 0.15326026 -1.0900774 -0.61031246 -0.44513243
0.42251775 -0.57109004 -0.40795237 -0.21913381 -0.030071942 -1.3026965 -0.2577603 -1.1055701

network_body._body_endoder.seq_layers.2.bias f4 [128]
00000000: 6307 c5bc 15f0 a8bc 0770 26bd dadc 34bd
00000010: 8cd4 fcbc c267 f6bc 003a d8bc 8a68 66bb
00000020: e9f2 d4bc 3d37 6c3c 3298 41bd d3fd b3bc
00000030: 4107 85bc e25a 4bbd 2860 d6bc 7923 92bc
00000040: 1ba6 aa3c 81c5 96bc b6b6 9fbc 9c1e cb3c
00000050: 4f77 53bc 9e4c 39bd a02a 0b3c b8d4 373d
00000060: af61 82bc 163f 3cbd 8fce fcbc 0060 82bc
00000070: 7177 f3bc 5cc3 d3bb 5abd e2bc 816a b9bb
00000080: cd3f e5bc 01b1 c6bc 7d31 5ebd efa6 0d3c
00000090: b9de 56bd a739 04bd a9e3 d2b9 3ec3 c1bc
000000a0: 7da5 cdbb 8826 5cbd 4d2e 11bd ba44 243d
000000b0: 8a6a 02bd 15c7 12bd ea58 2abd ef7f eebc
000000c0: 0cf4 38bd 5b61 633c 30dc 1cbd a371 c0bc
000000d0: 1b70 6dba b05c 12bd e515 eabc e743 04bd
000000e0: 8f56 02bd 0d25 aebc 50cd c1bc e704 0abd
000000f0: 8b9b d8bb 0ae8 663c f77b 15bd 372f 3d3b
00000100: 770a 52ba cb4a b4bc 98cd 4cbd 92bd c4bc
00000110: e9f7 f9bb b693 6cbb 40fb 74bd 456b 35bd
00000120: 35bc 1cbd cd5c 2ebd 29bc 17bc d61f 2abd
00000130: 8284 42bd 9363 3f3c 31b7 39bd f0a7 dcbc
00000140: e23b 2bbd 9208 36bd f28d a2bc ca49 0ebd
00000150: 611e dabc 7969 76bc 191a 0dbd 4321 e7bb
00000160: 6b41 05bd e43d 463c 15fd e8bc 6859 b33c
00000170: cb50 a3bc 2fd4 11bd 69e6 eabc b280 2f3d
00000180: 04ec f0bc d583 8abc 4cf9 fdbc 0c3b 9abc
00000190: 77e4 cebc 39c7 6dbd 759f e3bc 680c 1abd
000001a0: 0aa4 03bd d5fd b3bc b3ee d2bc 091b b8bc
000001b0: dbea a3bc f2b4 29bd 739e 31bc a759 f4bc
000001c0: 2068 31bd 0074 c6bc 15fc efbc 3531 20bd
000001d0: 8a8d f8bc de3d ccbc 3f99 5dbd 119d d1bc
000001e0: 2748 a0bc 6dbd 9c3c 18e9 eabc 13c3 19bd
000001f0: a569 fbbc 2a6b 49bd 1770 2eba 668a 32bd
-0.024051374 -0.020622293 -0.04063418 -0.044155933 -0.030863069 -0.030078772 -0.026394844 -0.0035157525
-0.025994735 0.014417467 -0.047264285 -0.021971619 -0.01623881 -0.04964722 -0.026168898 -0.01783918
0.020831158 -0.018404724 -0.019496303 0.02479487 -0.012906863 -0.045239083 0.008494049 0.0448806
-0.01591572 -0.0459586 -0.030860214 -0.015914917 -0.02972004 -0.0064624976 -0.02767818 -0.005658448
-0.027984524 -0.024254324 -0.054246414 0.008645757 -0.0524585 -0.032281544 -0.0004022394 -0.023652669
-0.0062758313 -0.053747684 -0.035444546 0.040104605 -0.031839885 -0.03583439 -0.0415887 -0.029113738
-0.045154616 0.013878192 -0.038295925 -0.023491686 -0.00090575375 -0.035732925 -0.028574893 -0.03229132
-0.03182083 -0.021257902 -0.023657471 -0.03369608 -0.006610339 0.014093408 -0.036495175 0.0028867254
-0.00080124236 -0.02200832 -0.050000757 -0.024016175 -0.00762843 -0.0036098785 -0.059809923 -0.044291753
-0.038265426 -0.04256897 -0.0092611695 -0.041534267 -0.04748965 0.011681455 -0.04534072 -0.026935548
-0.041805156 -0.044441767 -0.019843075 -0.03473834 -0.026625814 -0.015039795 -0.034448717 -0.0070535257
-0.03253309 0.012099717 -0.028440991 0.021893218 -0.019935986 -0.035602745 -0.028674321 0.042847343
-0.029409416 -0.016908566 -0.031002663 -0.018826984 -0.025255425 -0.05805132 -0.027785996 -0.037609488
-0.03213886 -0.021971622 -0.025748586 -0.022473829 -0.020009449 -0.04143233 -0.010841 -0.029827906
-0.043312192 -0.024225235 -0.029295007 -0.039109427 -0.030340929 -0.024931844 -0.054101225 -0.02558759
-0.019565655 0.019133294 -0.0286756 -0.037539553 -0.030690024 -0.049174465 -0.0006654276 -0.04358902

network_body._body_endoder.seq_layers.2.weight f4 [128, 128]
00000000: f346 6a3c 47b1 ba3d c923 edbd 7fda 403d
00000010: 6893 f5bb d3fa a6bc 0bd8 04be 77f3 a6bd
00000020: 1218 cdbd 362b b0bc edd0 b1bd a47e a13d
00000030: 99ad 1ebe fd98 bdbb 8b78 0e3e 72aa 46bd
00000040: 01fc 21be 54f7 173d 1713 e73d a32f b63b
00000050: 752f 3bbe 9e96 d7bd 447a 76bd a2a1 80bc
00000060: dc19 15be 36d4 2f3c 5b7e c8bd 6f68 68be
00000070: 4f5b 7ebd 36f0 933c 0a10 aa3d 9ab3 75bb
00000080: 9ec9 cb3d 0603 413c 9a22 11be 4d25 d6bc
00000090: 5532 03be b8b0 983d 51e0 3fbe 6d19 debc
000000a0: b8ae c1bc d770 653e b3c5 b7bc 9560 f23c
000000b0: cb39 4fbb bd81 ccbc 6e14 02be c934 373d
000000c0: 0f3a 0b3d b4ff 94bd 3f87 dabc 097d 033d
000000d0: 2040 20bd cbbd 723d 3f5a f8bd 47ff b43d
000000e0: d3ac 043e 1379 23be 570d 29bd f52a e7bd
000000f0: 30ce 693d 3dd4 b5bc 8804 46be 4cc6 823c
00000100: 16d5 5ebe 1272 5dbb f03b 92bd 2e5a b7bd
00000110: 8aac 853d 1abc 0cbd 3e62 213c bee0 053e
00000120: 19a7 a53b 9d42 62bc 6b7c 3c3d 3741 84bd
00000130: f135 76bc a5e8 cabd 0a16 95bd a5a1 063e
00000140: ffed efbc 6821 b33d b1d8 d2bd 5197 c0bc
00000150: 3087 d6bd bfc3 13bc 751a a2bd 9a07 943d
00000160: 33ae 123c 8078 c2bd 2479 3fbe 529d f53d
00000170: fb6a a9bd 7feb 17bd d0b4 823d 0967 fb3c
00000180: 4d68 13bd d750 69bd 8cae f9bd 89f0 953d
00000190: 51ea 41be 5c43 f7bd 6d53 33bd c08b e43c
000001a0: c191 a43d ceba d1bc c49d 29bd cca3 8d3d
000001b0: 347f dcbd a056 1ebb d455 f2bc 3436 5c3e
000001c0: 88a2 853c 688a e5bb a843 013d 9f26 82bd
000001d0: 57c9 e8bd bfdf 15be 2a14 293e db50 353c
000001e0: 174c b93b b6bc cebd 4db4 9bbd 4b05 8f3d
000001f0: 74ef 1ebe e42e 6bbd 03d0 8abd 38f5 d4bd
00000200: 9136 90be 3186 6fbe 5456 353c 6256 af3d
00000210: 5bc4 ddbd 957f ab3d 65ad 5c3d 8dfc 12be
00000220: f4de 2ebd 07e2 23be 29cc efb9 0c39 0cbe
00000230: 1ac1 113e b5cc 45be 0662 1e3c 7f92 1dbe
00000240: 563c ee3d 936a 3bbe 27a0 0ebc 1cad d1bc
00000250: edb5 c4bd 4fbf 4bbd 7059 b8bd 7aff 58bd
00000260: c578 883b 478a 08be 8478 ae3d 3906 a2bd
00000270: 23b1 413e 4b7d 15be e7b5 a83c 0d83 b33c
00000280: 1623 403d cf7c 0bbe f601 d3bd e73f fb3d
00000290: 4a11 b9bd 6564 c8bb ef78 85be 9ef8 1f3e
000002a0: 5f32 06be f3cf 2bbd 19de 293c 0eb8 0b3d
000002b0: 2b82 2c3e 181a 9ebd 96d0 f1bd 5de8 23bd
000002c0: 1253 a23b f37e 533c c255 26bd 732d c43c
000002d0: 33ff 1c3d 90bb efbd 31e8 d6b9 86d8 c3bc
000002e0: c084 06bc 67db 13be 20f7 18bd c495 113e
000002f0: c968 38bc ccfc 9b3d 426d cabd 96cc 19be
00000300: b63c 1fba 3ba9 b73d dddf ffbd f5a8 c6bd
00000310: 2484 163e 1ee6 18bd 2a4b d7bd 97c4 5bbd
00000320: ef98 203e 8afd 933d c16e 783b e45f 46bd
00000330: d7e4 b23c d90c 063d d56b 14be d238 debd
00000340: e734 983d 66ef e1bd ab54 b0bd b150 a9bc
00000350: 565c 1ebd 1b63 84bc e20b 2b3c 71ea bcbd
00000360: 165b 223e f0a8 5b3c fce6 67bc 0e22 f1bc
00000370: 14be b23d 09c7 4a3d 3b01 fcbd 0f30 ff3c
00000380: b786 fe3d dae0 723c 08d0 fb3a 78d3 a03c
00000390: 0789 82bd 2e4a a8bd de12 3a3d 7889 ca3d
000003a0: f54a a4bd 6b03 bebd a4a9 3dbe 0c19 46be
000003b0: f9b2 67bd 016a 13be 8f73 8b3d 214e 4c3d
000003c0: 6083 edbd a1a4 ad3d c168 dfbd 53cc 33bd
000003d0: d050 58bd 4c3c 57bd b2bc 18bd 933c 9abc
000003e0: 6413 17bb 00b3 63bd c335 5cbd 9639 86bd
000003f0: 5103 b6bd e2c2 9fbd 723d 463d 4971 00be
0.014299142 0.09115844 -0.11579091 0.047083374 -0.007494379 -0.020383274 -0.12973039 -0.08151906
-0.10014357 -0.02150498 -0.086824276 0.07885483 -0.1549591 -0.00578606 0.13913171 -0.048502393
-0.15818788 0.037101105 0.11282938 0.005559878 -0.18279822 -0.10526775 -0.060175195 -0.015702073
-0.14560646 0.010731747 -0.097897254 -0.22696088 -0.062098797 0.018058877 0.083038405 -0.0037491084
0.09950565 0.011780506 -0.14173356 -0.026140833 -0.12812169 0.074555814 -0.18737914 -0.027111733
-0.023642883 0.22406326 -0.022433138 0.02958707 -0.003162014 -0.024964208 -0.12703106 0.044728074
0.033990916 -0.07275334 -0.026675818 0.032101665 -0.039123654 0.059263032 -0.12126588 0.08837753
0.12956552 -0.15964155 -0.041272487 -0.1128749 0.0570814 -0.02219593 -0.19337666 0.015963696
-0.21760973 -0.0033789915 -0.071403384 -0.08952747 0.0652705 -0.034359075 0.009850083 0.13074014
0.00505532 -0.013809827 0.04601709 -0.06457751 -0.015027509 -0.09907655 -0.07279594 0.131476
-0.02928829 0.08746606 -0.10295237 -0.023509653 -0.10475004 -0.0090188375 -0.079152025 0.072280124
0.008952665 -0.0949564 -0.18698555 0.11992897 -0.08272358 -0.03708982 0.063821435 0.03068878
-0.03598814 -0.05696186 -0.12191495 0.07321269 -0.18937041 -0.12073395 -0.043780733 0.02789867
0.08035613 -0.02560177 -0.041410223 0.069160074 -0.107664496 -0.002416052 -0.029581942 0.21505052
0.016312853 -0.0070050247 0.031558663 -0.06355023 -0.113665275 -0.14636134 0.16511598 0.011066641
0.0056548226 -0.100945875 -0.07602749 0.069834314 -0.15521032 -0.057417765 -0.06777956 -0.10398334
-0.2816663 -0.23391034 0.0110679455 0.08561398 -0.108284675 0.08373944 0.0538763 -0.14354153
-0.042693093 -0.16004191 -0.00045737743 -0.13693637 0.14233819 -0.19316371 0.009666925 -0.15387915
0.11632602 -0.18302374 -0.0087051755 -0.02559524 -0.09605012 -0.049742993 -0.09001434 -0.052978016
0.0041647875 -0.13333999 0.0851908 -0.07911343 0.18915229 -0.14598577 0.02059455 0.021913076
0.04690846 -0.1362183 -0.103031084 0.12268048 -0.09036501 -0.0061154836 -0.26068828 0.15622184
-0.13105153 -0.041946363 0.010367894 0.034111075 0.1684653 -0.07719821 -0.11807363 -0.04001652
0.0049537504 0.012908685 -0.04060913 0.023947453 0.038329314 -0.117056966 -0.00040990257 -0.023906957
-0.008210361 -0.14439164 -0.03734505 0.14217287 -0.0112554515 0.076165766 -0.098841205 -0.1501945
-0.0006074415 0.08967825 -0.124938704 -0.09700195 0.14698845 -0.03732883 -0.10512383 -0.05365428
0.1568334 0.07226093 0.0037907811 -0.048431292 0.021837635 0.032727096 -0.1449426 -0.10850681
0.07431965 -0.1103199 -0.08609899 -0.02066836 -0.038662277 -0.016160538 0.010439845 -0.09224404
0.15855059 0.013406977 -0.014154192 -0.029435184 0.08727661 0.04950622 -0.12304922 0.031150846
0.124280386 0.014824117 0.0019211778 0.019632086 -0.06373792 -0.08217274 0.04542815 0.09889501
-0.080221094 -0.09277996 -0.18521744 -0.19345492 -0.056567166 -0.14395906 0.068091504 0.049879197
-0.115973234 0.08478666 -0.10908652 -0.04389603 -0.052811444 -0.052547738 -0.03728933 -0.018827712
-0.002305233 -0.05559063 -0.05376221 -0.065539524 -0.08887351 -0.07800843 0.048398443 -0.12543215

network_body._body_endoder.seq_layers.4.bias f4 [128]
00000000: 1ce0 90bd 65fe 6ebd da25 d8bd 1138 86bd
00000010: a219 30bd 7367 46bd c213 c0bd e33d c8bd
00000020: 7919 343b 666e edbc 506d 00bc c043 453d
00000030: f18c 6ebd 6ae5 e9bc 59e2 a0bd 7dfc b9bd
00000040: b336 0abd 5cec 14bd 1043 e23b 5d46 92bd
00000050: 06b4 40bd c8e2 43bc 85ca 58bd 84a2 89bd
00000060: 4372 00bd b835 f7bc e80e 78bd 5b44 4abd
00000070: 8679 293d aac6 d8bc 37a6 76bc ba37 98bd
00000080: 10e4 d5bc 0e01 a83b 0376 1cbd 665f 0bbd
00000090: eb98 82bd aa97 dbbc cfa4 97bc 738f 85bd
000000a0: b83e 8c3c 5e86 98bc 4536 1d3d 9ab7 d33c
000000b0: 8f04 d9bd 37c9 29bd f594 8d3c 89e8 03bd
000000c0: 7ee5 56bd cd2a debc 1c1f 2fbd 5b2a 7fbd
000000d0: 739a 72bd 7430 f1bd 92f7 0ebd 947a 433c
000000e0: 45b9 89bc 194c 93bd 3966 15bd 8994 18bd
000000f0: cc0f bfbd ff89 11bd 913d aabc a8e2 28bd
00000100: f4b9 dbbc 0edf 643b 34b8 6cbc ef34 8cbd
00000110: a28c 3abd 148e 74bd 84e5 bd3c e8c0 4cbd
00000120: 6905 3d3d 8d6d 63bd 4807 09bd 0b17 39bc
00000130: e41c 1a3d b8dc 8fbd e750 2fbd 7491 dfbc
00000140: 4de2 71bd 522b 45bd 447d 13bc aa12 61bd
00000150: dadd 21bc a894 67bd 6b76 cf3c f623 e6bc
00000160: 32cf a3bc 41ac 2abd 4550 b0ba 8233 60bb
00000170: 9697 653c 1d92 12be e6a9 88bd b6d7 dfbd
00000180: 4c1c 4fbd a932 1ebd d48d a03b 2c3b d0bd
00000190: 0c5b c2bd 3cc5 f9bc 10e8 9abc 4228 c0bd
000001a0: a2a3 cbbb 8335 30bd 157d 92bd 7aef 18bd
000001b0: b09d 5dbd 7c03 bebd a3e1 bcbd 569f 38bd
000001c0: 6621 9bbd 93bc 70bd 78da 09bd abed adbc
000001d0: 700b 64bd 63d3 80bd 6a43 863d 8934 b4bc
000001e0: 59ef a2bd d474 27bc 031c d0bd 79dd 45bd
000001f0: d546 01be 06e1 9fbd 8b3b 2b3c e439 2c3d
-0.070739955 -0.05834808 -0.105540946 -0.065536626 -0.042993195 -0.0484385 -0.093787685 -0.09777429
0.0027481003 -0.028983306 -0.007838562 0.048160315 -0.05823988 -0.028551776 -0.078556724 -0.090813614
-0.03374357 -0.036358222 0.006904967 -0.07142327 -0.047046684 -0.011955924 -0.052927513 -0.067204505
-0.03135897 -0.030176982 -0.06056109 -0.049381595 0.04137566 -0.026461918 -0.015054277 -0.07432504
-0.026109725 0.005127079 -0.038198482 -0.034026526 -0.06376823 -0.026805717 -0.018511204 -0.065215014
0.01711975 -0.018618759 0.038381834 0.025844384 -0.105965726 -0.04145166 0.017282942 -0.032204185
-0.052464955 -0.027120018 -0.042754278 -0.062296253 -0.059229326 -0.1177682 -0.03490407 0.01193108
-0.016811976 -0.07192249 -0.03647444 -0.03725103 -0.09329185 -0.035531994 -0.02078131 -0.04123178
-0.026822068 0.003492299 -0.014448214 -0.06846034 -0.045544274 -0.05970581 0.02318073 -0.049988657
0.046147738 -0.055524398 -0.03345421 -0.011296998 0.03762521 -0.07024521 -0.042801764 -0.027291037
-0.059053708 -0.048137017 -0.009002034 -0.05494944 -0.009879554 -0.056538254 0.02532502 -0.02809332
-0.01999626 -0.04166818 -0.0013451657 -0.0034210389 0.014013192 -0.1431355 -0.066730306 -0.109298155
-0.050564095 -0.038622532 0.0048997197 -0.10167536 -0.09490022 -0.030489556 -0.018909484 -0.093826786
-0.006214575 -0.043019783 -0.07152764 -0.037337758 -0.05410546 -0.09278008 -0.09222724 -0.04507383
-0.075747296 -0.05877359 -0.033655614 -0.021231493 -0.05567497 -0.06290319 0.06555827 -0.021997707
-0.07955808 -0.010220725 -0.10161593 -0.048306916 -0.12624677 -0.07806592 0.010451208 0.042047396

network_body._body_endoder.seq_layers.4.weight f4 [128, 128]
00000000: 208e 723d d7ce 6d3d 8821 a13c ed67 5c3c
00000010: 9799 9e3d ac43 443e b210 2bbe 9d42 a2bc
00000020: ded3 36bd 6a94 fc3c 0ff3 aa3c 836c c93b
00000030: 5fdd 1fbd 8d29 80bd 856d 713e 1916 56be
00000040: 8156 16be 99db c03d 593e 343e ae95 96bc
00000050: 9780 bebd 0f73 8f3d b70e e43d db49 6abc
00000060: 61e2 a3bd f463 ea3c 8eb5 6ebc 99f0 a83d
00000070: 95ef 913d 961e 05bd 79e5 333e 3119 f7bd
00000080: fb17 dabd 884b 29be 3571 363e a271 52be
00000090: 1adc a4bd e6d2 0ebc dbc4 4abd 375d 783d
000000a0: 8c5a a2bd f2a0 5cbd 7ac0 60bd 79a4 d5bd
000000b0: 5841 edbb a93e 49bd 5774 bdbd 7e2d 65bd
000000c0: fd0a bfbd 485b abbd 88de 27bd 333e 883c
000000d0: b318 e13c 6ac9 2a3e 45c9 77bd a4b4 c5bd
000000e0: 41d4 283d c8a3 593d 7a6e 063d 05bd c83d
000000f0: 2948 b1bd d1d4 243d 4395 28be 6be0 f73b
00000100: f743 01be 1d26 adbd cfce ebbc 11a7 12be
00000110: 2417 54bd da20 8e3c 56d1 6bbe 3af6 71bc
00000120: e8fb 3b3e dd30 66bd ff8a 23bd e2ce 3a3a
00000130: 08d0 9ebd 42f1 6fbc 4236 0fbc 2b20 e7bc
00000140: 94d9 183d 3cf6 e13d fd26 47bd 2a86 f9bd
00000150: 46ca c33d 2875 30bd 597f 52bd b15e de3d
00000160: 888f 07be b1cf 3ebd abf5 27bd 01d4 fdbc
00000170: 2ad7 f2bd 3988 6538 5a34 0fbd 7586 91bd
00000180: a259 34bd 08ce 86bd 98a0 083d 755e 3fbd
00000190: bbe2 1dbe 5fc2 7f3d 76d6 9ebd 56a2 b2bd
000001a0: 82f6 00be 4503 1cbd 86de 073e 3cb1 54bd
000001b0: 88f9 16bd 0f1a 34bd 8dea e03d 5cec b9bd
000001c0: 456a 873d cf8c 123e f969 e63d f183 a3bc
000001d0: 70f9 043a 3030 00bd 3f7b e7bd ed84 873e
000001e0: c451 14be c587 933d 43c5 d0bd 4c48 03bd
000001f0: e257 bc3d 4842 c33d 435a 0f3d ff24 853d
00000200: ae52 80bb 6d57 753d 49a4 1cbe 4ec6 633e
00000210: c7c1 d43c b5ce a2bd b4ed 72bd c19e c93c
00000220: 74fa 44bb 56e4 b93d 3215 e5bd f505 723c
00000230: dfca 9f3c 0ba0 9d3d c22b 613e 739c b9be
00000240: c651 8fbd 0666 91ba fdfb 98bd 2331 3ebd
00000250: 19f5 4abd 16c6 5b3d 3194 1a3c 2c90 073c
00000260: 1b91 b63d 8e2f 133c e5ab 1c3e c4af 77bd
00000270: 60c5 223d e450 aabd c8e5 8c3c b4e5 8fbd
00000280: 5f12 653d 1b11 afbd 51a2 acbd ab99 dbbc
00000290: c6d1 533d 2fde 96bc 2246 41bd be2f 243e
000002a0: e0bb 023e 7d25 f43b cd96 0a3e 4258 cdbd
000002b0: 014b 88bd 0c9d cf3b 4671 b13d 93f0 2ebe
000002c0: c2b9 54be 9562 f43d aeae 89bd e940 863d
000002d0: b53b 633d 4cd0 49bd 47a5 8f3d d939 083d
000002e0: 9f5b 953c c8ee b93d 81a9 1f3e dddc 85bc
000002f0: 6aae d3bd dfaf 7a3d e17b 303e 704c 28bd
00000300: 9afe b1bd a447 903c 8980 f1bd 0b5a 6ebd
00000310: 081a 813d 6366 af3b ff44 adbb 6831 9cbb
00000320: 7575 1bbe bb49 febc 1ded 81be a8b0 fd3c
00000330: 9d7a 88bd 2d57 0fbe c797 d73d 23ea cf3d
00000340: 35ad 1c3d e6ff 3e3c 9952 a7bd 5720 543b
00000350: 14c2 85bc 6a0c d9bd 1ff6 8bbc 430f a03d
00000360: 4512 e3bc ca53 bb3d e1f8 b9bd 8ef4 d13d
00000370: b0eb 00bd 2dfc 793c 513d acba 460b c8ba
00000380: e844 13bc d2e1 f1bd 7494 6e3d 6446 18be
00000390: b3f4 80bd 6571 c8bd 1ab4 dcbd 8fa2 383e
000003a0: ad06 5d3d 8c1a aabd cba3 57bd 589c 3b3b
000003b0: c60c 133d a820 803d 66b6 b7bd 8729 5d3e
000003c0: b1ca 893d eea6 1f3d 6b24 1abe dfc8 4f3d
000003d0: f4cc 853c 1811 8cbc ac98 3abd 882c 6fbd
000003e0: 5d3a 63bd 628e 23b9 b6a0 cdbd 7cc3 e3bc
000003f0: 36fc e3bd 101a eabc e93a 62be a1bc 36be
0.059217572 0.058058586 0.01966931 0.013452512 0.07744139 0.1916644 -0.16705588 -0.019807154
-0.044635646 0.030832488 0.020867852 0.006146969 -0.039029475 -0.06257925 0.23576935 -0.20906867
-0.14681436 0.09416885 0.17601909 -0.01838192 -0.0930187 0.070043676 0.11135619 -0.014299835
-0.08002163 0.028612114 -0.014569653 0.08249015 0.07125775 -0.032499872 0.17568006 -0.12065352
-0.10649105 -0.16532719 0.17816623 -0.2055116 -0.080497935 -0.008717274 -0.049504142 0.06063577
-0.07927427 -0.053864427 -0.05487106 -0.10431761 -0.0072404556 -0.049132023 -0.09250706 -0.055951588
-0.09328268 -0.0836702 -0.040983707 0.016631221 0.027477598 0.16678396 -0.06049468 -0.09653595
0.041218046 0.05313471 0.032820202 0.098016776 -0.086563416 0.04024202 -0.16463189 0.0075645945
-0.12623583 -0.08454535 -0.028785137 -0.14321543 -0.05177988 0.01734965 -0.23029074 -0.014768178
0.18357813 -0.056198943 -0.03992748 0.0007126165 -0.077545226 -0.014644923 -0.008740963 -0.028213581
0.037316874 0.110332936 -0.048621166 -0.12183793 0.09560065 -0.04308048 -0.05139098 0.10857905
-0.13238347 -0.04658479 -0.04100577 -0.03098488 -0.118574455 5.4724722e-05 -0.034962036 -0.07105724
-0.044030793 -0.06582266 0.03335628 -0.04672094 -0.15418522 0.062441226 -0.07755749 -0.087223694
-0.12594035 -0.038089056 0.1326848 -0.051926836 -0.036859065 -0.043970164 0.10982237 -0.09078285
0.06612066 0.14311527 0.112506814 -0.019960376 0.00050725695 -0.031295955 -0.11302804 0.26468602
-0.14484316 0.0720363 -0.10193875 -0.03205137 0.0919645 0.095341265 0.03499819 0.06501197
-0.003916106 0.05989783 -0.15297045 0.22243616 0.025971306 -0.079495825 -0.059308723 0.024611833
-0.0030056508 0.09076755 -0.11185683 0.014771928 0.019505916 0.076965414 0.21989349 -0.36252174
-0.06998019 -0.0011093027 -0.07469938 -0.04643358 -0.04955015 0.053655706 0.009434746 0.008274119
0.089143954 0.008983506 0.15299948 -0.060470358 0.039739013 -0.0831621 0.017199412 -0.07026234
0.055925723 -0.085481845 -0.08429397 -0.026806673 0.051713727 -0.018416492 -0.047186024 0.16033837
0.12766981 0.007450758 0.13534088 -0.100265995 -0.06654931 0.00633586 0.08664183 -0.1708396
-0.20773986 0.119328655 -0.06722771 0.065553494 0.055476863 -0.049270913 0.07013946 0.033258293
0.018232165 0.09078747 0.15592004 -0.016340667 -0.10336001 0.06120288 0.17234756 -0.04108852
-0.086911395 0.017612286 -0.11792094 -0.05819134 0.06303793 0.0053527816 -0.005287766 -0.004766632
-0.15181525 -0.031041017 -0.25376216 0.030968025 -0.066640116 -0.13998099 0.10526996 0.1015208
0.03825112 0.011657691 -0.08170051 0.003236791 -0.016327895 -0.10598071 -0.017085133 0.07815411
-0.027718673 0.09146841 -0.09080673 0.10251723 -0.03147477 0.015257877 -0.0013140832 -0.0015262149
-0.0089885965 -0.1181065 0.058247045 -0.14870602 -0.06296673 -0.09787253 -0.10776539 0.18030761
0.053961445 -0.08305845 -0.05264644 0.0028627124 0.035900854 0.06256229 -0.089703366 0.21597873
0.067281134 0.038977556 -0.15052955 0.050728675 0.01633308 -0.017097995 -0.045555755 -0.058392078
-0.05547558 -0.00015597933 -0.10040419 -0.027803175 -0.1113209 -0.02857688 -0.22092785 -0.17845394

network_body._body_endoder.seq_layers.6.bias f4 [128]
00000000: 219b 15bd c62a b5bd 4e10 7abd 563d acbc
00000010: 11ac bbbd 306f 43bd 7446 cabd eced e3bc
00000020: 5ff2 7e3c 4912 66bd 10d0 bfbc b5d6 46bd
00000030: e5f5 ffbd a1b5 9dbd fe13 96bd 54c0 80bd
00000040: 0f30 573d 4306 64bd dc55 ccbc 306d 88bd
00000050: 7a62 1dbd 7168 c7bd 42bc 4abd d9a9 a1bc
00000060: c145 2ebc 2228 4bbd 611f a6bd 14b4 abbd
00000070: d41f 52bd 865d 0bbe 4538 c93b e42b 03bc
00000080: 99b1 95bc 928a 2bbc c231 3abd 604b df3c
00000090: 047c 91bd 55f6 92bd ad4f 6cbd ab99 fabd
000000a0: a9fb bdbc 2cbe b3bd ab99 9abc 57c0 8abd
000000b0: 8de2 b23c 962a 18bc 7fe6 bebc 73bf 4ebd
000000c0: 4664 8bbd 293f 26ba 2646 13bd 8154 abbd
000000d0: 5499 d6bd f2c2 b93c eb31 a4bd 60d3 bbbd
000000e0: c8bf a7bc 3724 c2bd dc21 fcbc 7164 febb
000000f0: 1920 8fbd 3e62 acbd 9a5e b5bd 7d0c 65bd
00000100: 646e 033c 5eb8 b6bd 16ac 20bd 6d1e cebc
00000110: f172 f9bc 4859 b6bd 6e39 a1bd 3ad8 30bd
00000120: 96a3 81bc ed4b ecbc 45ab c0bd 3d49 dcbd
00000130: 8b87 d9bd 2a39 02be bdbf 1dbd da46 6dbc
00000140: 05b4 22bc df41 cebd e3bd b9bd 0ae8 bfbd
00000150: e177 efbc 6fcf 3c3c 7fa7 41bd 0ff4 0bbd
00000160: d388 0cbc d41c 03be c325 c2bc 85da 873b
00000170: ead9 31bd 5c7b 55bd c4c9 c2bd 25a4 19bd
00000180: 529f d5bc f9f9 acbd 2959 62bd 6b3b 28bd
00000190: 8199 2ebd 6366 d6bb bd3c a9bd 1628 3dbc
000001a0: 96af 81bd 097c 69bd 681d d0bd c19a e0bd
000001b0: 0513 c2bd 885a 9cbd 8eef d8bb 2c46 33bb
000001c0: 04cd fa3b f1c2 c2bc b2bb 49bc c8ff 8ebc
000001d0: 9860 26bd 96b2 8dbc 5da4 e83b 27b3 edbc
000001e0: ffa1 6bbd d4be 36bd d1e6 3b3c 7243 8e3c
000001f0: 478b edbd ee5c 7fbd 4f43 86bd 4b90 d9bd
-0.036524896 -0.08846049 -0.061050706 -0.021025341 -0.091636784 -0.04771346 -0.09876719 -0.02782341
0.015560715 -0.05616978 -0.023414642 -0.048544604 -0.124980725 -0.077006586 -0.07328032 -0.06286684
0.052536067 -0.055670034 -0.024943285 -0.06661451 -0.038423993 -0.097367175 -0.049495943 -0.01973431
-0.010636748 -0.04959882 -0.08111454 -0.083839566 -0.051299885 -0.13609895 0.006140741 -0.00800607
-0.018273162 -0.010470049 -0.04545761 0.027257621 -0.07103732 -0.0717589 -0.057693172 -0.12236341
-0.02319129 -0.08776507 -0.018872103 -0.06774967 0.021836543 -0.009287497 -0.023303268 -0.05047555
-0.06806235 -0.0006341809 -0.03595557 -0.08365727 -0.10478464 0.022675965 -0.080173336 -0.09171176
-0.02047719 -0.09479564 -0.030777864 -0.0077634384 -0.06988544 -0.08417176 -0.088559344 -0.055920113
0.008021925 -0.08921884 -0.039226614 -0.025160993 -0.030450316 -0.08903748 -0.07872282 -0.04317496
-0.015825074 -0.028844798 -0.09407667 -0.107561566 -0.10621556 -0.12717119 -0.038512934 -0.014482224
-0.009930615 -0.10071158 -0.09069421 -0.0937043 -0.029231967 0.011524065 -0.047278877 -0.0341683
-0.008577543 -0.12803966 -0.023699647 0.0041459226 -0.04342071 -0.052119598 -0.0951114 -0.037510056
-0.026076946 -0.08446116 -0.05526081 -0.04107229 -0.04262686 -0.006542967 -0.08263538 -0.011545202
-0.063323185 -0.057003055 -0.10161859 -0.10967017 -0.09476284 -0.07634455 -0.006620354 -0.0027355058
0.0076538343 -0.023774596 -0.012312816 -0.01745595 -0.040619463 -0.01729707 0.0070996718 -0.02901609
-0.05752754 -0.04461558 0.011468605 0.017366145 -0.11598831 -0.062344484 -0.06555807 -0.10623225

network_body._body_endoder.seq_layers.6.weight f4 [128, 128]
00000000: 8e7c a6bd b9e6 01be 1503 c13d e176 c3bd
00000010: 1500 83bd 65d8 b73d 4d82 0cbc 93cd 473b
00000020: 349f db3d 0751 a23d a03c b03c 8451 b4bc
00000030: 2b73 19bd 87d8 943c 9e8b 0fbe 72aa 923b
00000040: 20e1 173e ab3f 9c3d f02e 233d 5334 91bc
00000050: f144 f5bc 3e34 3c3d 050b b13c 1002 cc3d
00000060: 314f 3a3c cc89 91bd 8bfc f93d 370c a03c
00000070: 5822 7abc 1515 77bd e4e9 5fbd 505f 0bbe
00000080: 4bc9 a83d b209 70be 9aea b0bd 64a7 183e
00000090: c455 a5bd 45ec 863d edf3 993a 9875 02bc
000000a0: 681f 6b3d 76ba 88bc 6aad d9bc 03b5 0c3d
000000b0: 2a4a a7bd 32c4 b43c fbfd d9bd 32b1 ecbc
000000c0: 2037 a53c 811a e53d 9a4b 683d 0f41 f93d
000000d0: 6db5 b9bd ea7b c7bc fa87 923d 5abd 023d
000000e0: 68e3 debc a4a6 a03d 822f 453d 61d2 a7bd
000000f0: 97e4 393c 2efa 76bd 1a29 cdbd 319f e3bc
00000100: 2d2e 66bd ac80 433d ea2f 5cbe 42af 143d
00000110: 5729 ed3c 7564 0ebd e313 8d3d 41c7 773b
00000120: 19d1 24be 689e b8bd 0865 35be 685d aa3d
00000130: 4622 afbc ed25 d0bd 9314 29be 94bf 2bbe
00000140: 9d66 92bd 3c78 dcbd 17fd 1c3d 3d60 17be
00000150: ecfc 9e3a 97a2 16bd d6a2 72bc fd1b c73d
00000160: 7b13 183d 50eb 523c d439 993a 63d9 13be
00000170: 2a90 99bd 140e 7a3d fdf1 053e ecbc 073d
00000180: 382e 3ebe b55c 7f3d 14bf 37be 8074 1bbb
00000190: 1915 223d 86be cebd 65a7 d2bd 4e80 aebc
000001a0: 160c 7f3b 5887 9bbd 85be 5abd c3fb 1dbd
000001b0: f517 fbbd 1fab 283c 46bf 2d3e 8ebf d83d
000001c0: f768 e1bc 8a9d 16bd 8363 a0bd 7d56 7ebd
000001d0: 2328 efbc 7b61 453e 50ed 003e d6b0 3b3e
000001e0: d7cf 16bd 189e 3d3d 6b44 6bbd 970c 52bc
000001f0: bb36 aebd fcef 74bd 3cef d3bd 9ca1 a9bd
00000200: b88d 043d 8dae 483c d6d9 7dbe 5210 823c
00000210: bc4d 343c 405b 29bd 8522 a23d 8c7a a4bd
00000220: f804 e13c 4e16 713a a384 98bd e204 e2bc
00000230: d397 f73b 6f8e 473d c700 2fbe fb46 c3bd
00000240: 1268 14be 2693 513c 55b8 b7bd ae8f 74bc
00000250: dca5 6d3c c09c e23d 362d 573e 5302 56bd
00000260: d318 bbbc bbee 863d d730 333e 4ba9 703b
00000270: 4dc8 f3bd ff8c fa3c 02f2 1fbd 4743 d03c
00000280: e5f1 1a3a a0c5 e9bd 4675 333c 4d63 cebc
00000290: 2667 043c 30b3 e6bc 574e 0dbd 8f75 5e3d
000002a0: 7be7 68be 320b f7bd 1333 713d c47d 90bd
000002b0: 01b0 a23d 5446 b7bd e9a3 f83c d7db 9bbd
000002c0: 6c0b 203d 218c 473d 02cd b83d f2c3 383e
000002d0: c565 513e da1e 123e 9de7 1b3d b85e bbbd
000002e0: 0a30 43bd ec88 82bc f942 ed3d bdce 6fbc
000002f0: efdf f83d 52c0 47be 9c2b 8fbd 0e4e f03d
00000300: b779 38bd 05d7 d7bd 414a 023d b3f0 59bd
00000310: fbe9 f4bd 8dc7 0a3e 86f7 c6bd e775 f7bc
00000320: 4bac 43be 6d98 8ebd 420c 053c 4b45 01bc
00000330: c448 98bd 0673 06be 86a2 40bc 2376 813d
00000340: 58e6 8b3d 9ff9 87bc ff57 063e 837a 17be
00000350: eb2d f2bc 9081 a6bc fa7f c63d afb8 1abe
00000360: f591 803d 8319 aabd ccb7 c43d b750 c63b
00000370: a7a3 21be b954 223e 7dd5 e23c 2389 ba3d
00000380: 6231 09bd 974e d73d 0d62 8fbd 13dc 00bd
00000390: e64c 3ebc fca0 5d3d 9248 c4bd 09a1 19bd
000003a0: 7023 10be 0124 e03c 71b2 0a3e e4c8 e4bd
000003b0: 089a 213c 6bd0 c6bd 6f59 453d 2c63 fdbb
000003c0: f375 9bbd 440e b53c ad8b 383e c358 dfbd
000003d0: f645 2cbe 4649 e43c 283f 2b3e 4f95 bebc
000003e0: c689 8ebd 0d9c f5bd 1628 653e ed64 92bd
000003f0: c18d 943d 64df fc3d 655b ca3d 0f9b 94bd
-0.08129226 -0.1268567 0.09424416 -0.09544159 -0.063965 0.08976821 -0.008575988 0.0030487522
0.10723725 0.07925611 0.021513283 -0.022011526 -0.03746335 0.018169655 -0.14018103 0.004475885
0.14831972 0.07629331 0.039839685 -0.017725145 -0.0299401 0.04594826 0.0216117 0.09961331
0.01137142 -0.07106361 0.12206372 0.019537074 -0.015266977 -0.06032284 -0.054666415 -0.13610578
0.082415186 -0.23441198 -0.08638497 0.14907604 -0.08072999 0.065880336 0.0011745669 -0.007962607
0.057403 -0.016690474 -0.026571948 0.034352314 -0.081684425 0.02206621 -0.10644146 -0.028893087
0.020167887 0.11186696 0.056712724 0.12170612 -0.09067807 -0.024351079 0.07154842 0.03191886
-0.027208045 0.07844284 0.04814101 -0.081944235 0.011346004 -0.060297184 -0.10017605 -0.02778587
-0.05619638 0.047730133 -0.21502653 0.03629995 0.028950376 -0.034763772 0.06888559 0.0037807974
-0.1609539 -0.090145886 -0.17714322 0.08318597 -0.021378648 -0.10163484 -0.16511755 -0.167723
-0.07148478 -0.107651204 0.038327303 -0.14782806 0.001212982 -0.03677615 -0.014809331 0.09722135
0.037127953 0.012873486 0.0011690208 -0.14438395 -0.074982 0.061048582 0.13080592 0.033139154
-0.18572319 0.06234427 -0.17943984 -0.0023720562 0.0395709 -0.10094933 -0.10285834 -0.021301415
0.0038917116 -0.07594174 -0.05340435 -0.038570177 -0.12260429 0.010294705 0.16967496 0.10583411
-0.027515871 -0.036771335 -0.0783148 -0.0620942 -0.029193943 0.19275467 0.12590528 0.18329176
-0.036819305 0.046293348 -0.057438295 -0.012820384 -0.08506533 -0.05979918 -0.10348365 -0.08282778
0.032361716 0.012248647 -0.24790129 0.015876923 0.011004861 -0.04134679 0.0791674 -0.080311865
0.02746819 0.0009196744 -0.074471734 -0.027590219 0.0075559407 0.04871982 -0.1709014 -0.09535023
-0.14492825 0.012791431 -0.089707054 -0.014926834 0.014504876 0.11065054 0.2101334 -0.05224831
-0.022838986 0.06588503 0.174991 0.0036722 -0.11903439 0.03058481 -0.039049156 0.025422705
0.0005910679 -0.11414647 0.010953253 -0.025193835 0.008081233 -0.028161615 -0.03449854 0.05431133
-0.22744553 -0.12062682 0.0588866 -0.07055238 0.07943726 -0.08948961 0.030351596 -0.076102905
0.039073393 0.04871762 0.09023477 0.18043497 0.20448978 0.14269581 0.03806268 -0.091489255
-0.047653235 -0.01593443 0.1158504 -0.014636693 0.12152087 -0.19506958 -0.0699074 0.11733638
-0.04503795 -0.105390586 0.031809095 -0.053208064 -0.11958691 0.13552685 -0.0971518 -0.030207587
-0.19108693 -0.06962667 0.008120598 -0.007890056 -0.07435754 -0.13129815 -0.011757499 0.06321361
0.06831044 -0.01659852 0.13119505 -0.14792828 -0.029562911 -0.020325452 0.09692378 -0.15109514
0.06277839 -0.08305647 0.09605369 0.0060521024 -0.15785085 0.15852632 0.02768969 0.09108188
-0.03349436 0.10513037 -0.070011236 -0.03145988 -0.011615014 0.054108605 -0.09584154 -0.03750709
-0.14076018 0.027360918 0.13544632 -0.11171129 0.009863384 -0.09707721 0.048180994 -0.0077327695
-0.075908564 0.022101529 0.18022032 -0.10905602 -0.16823563 0.02786697 0.16723311 -0.023264555
-0.06959872 -0.11992655 0.22378573 -0.07148156 0.072536 0.12347296 0.098807134 -0.072561376

network_body._body_endoder.seq_layers.8.bias f4 [128]
00000000: e907 57bd 33fc fcbb e6d4 0e3a 72c0 15bd
00000010: 3e34 14bd ee4d 503c 690d d5bc 21e2 a5bd
00000020: dc6b 523c a429 d8ba 033a 03bd f08f 5ebd
00000030: 42db 2fbd 16e2 fabc 2e7a 81bc 0801 65bd
00000040: 9f26 563d 0276 b33b c863 debb 9061 c7bd
00000050: 9df6 dabb 0c9d 08b8 1845 5dbc e137 3ebd
00000060: fb08 60bd c9ec 88bd f651 763a 9fd0 aebc
00000070: 3ea1 46bb 1656 4a3c acdd 14bb c600 49bd
00000080: 885b 2bbd 2186 60bd 80fd 80bd 6ff0 863b
00000090: 4917 c2bc 5f2a 11be baf7 77bd 63bc c3bc
000000a0: ba51 2abc 450f 60bc f98f 17bc 314b 79bd
000000b0: 2a4d 4abd 5200 aaba 78f9 01bd aa37 d9bc
000000c0: 93d9 c1bd 09d6 0cbd 5813 2cbd d2fc b4bc
000000d0: bc86 02be 9897 99bc a302 bbbb 3fdf 76bd
000000e0: e44f babc be20 ffbc 127c 4d3b 04f6 e53b
000000f0: 8aef bdbc cce5 28bd 7e71 ebba d6f8 d7bc
00000100: 4237 16be 1a18 15bd 92ca 44bd c471 853c
00000110: f917 2ebc e2f1 92bd 5361 c1bb 47f7 bcbd
00000120: 9ef8 5cbd 5b82 483c 263a 37be 791b 75bd
00000130: 11e6 63bd ba0c f53c 0817 07bd 2231 c9bd
00000140: 1b85 8fbc 8af8 b8bd a3c5 e1bd 5a65 97bd
00000150: c94a 91bc 9d31 9abd 81cd 80bd 1ea4 0b3d
00000160: b285 19bd 936c 02be 73ac 093b bb04 0cbe
00000170: 25b9 dabc a33d 18be 62c2 ad3c cc3f 5cbd
00000180: 12c1 2fbd b5fa e2bd 8bc2 8ebd 41e7 71bd
00000190: a077 1dbd a870 febd f976 55bd 79bb f2bc
000001a0: 30de bebd 9b27 b2bc ebb5 15bc d767 2abc
000001b0: a968 01be 679c bebc 5e45 40bd 1ca7 3d3c
000001c0: 31af b6bc 3ce3 17bd 209d f4bd 166f 15bc
000001d0: 8251 debc 94be 09be 4d3a f8bd 1f36 39bd
000001e0: 8327 07be 7bfd ca3c b11a 90bc 7247 3abd
000001f0: 0385 81bc a6f2 bfbd c8eb f8bc 411a 20bd
-0.052497778 -0.007720494 0.00054485945 -0.036560483 -0.036182635 0.012713892 -0.026007371 -0.08099771
0.0128430985 -0.0016491902 -0.032037746 -0.05433649 -0.04293371 -0.030625384 -0.01580533 -0.055909187
0.052282926 0.005476714 -0.006786797 -0.097354054 -0.0066822306 -3.2571188e-05 -0.013505243 -0.04644001
-0.054696064 -0.06685788 0.00093963684 -0.021339713 -0.003030851 0.012349626 -0.0022715135 -0.049073003
-0.041835338 -0.054815415 -0.06298351 0.0041180174 -0.023692744 -0.1417632 -0.060538985 -0.02389354
-0.010395462 -0.013675516 -0.009250634 -0.060862724 -0.049389996 -0.0012970066 -0.031732053 -0.0265158
-0.09465327 -0.034383807 -0.042010635 -0.02209321 -0.1274671 -0.018749043 -0.0057071014 -0.060271498
-0.022743173 -0.031143542 0.003135447 0.0070178527 -0.02318551 -0.041234776 -0.00179629 -0.026363771
-0.14669517 -0.03639994 -0.04804475 0.0162896 -0.010625833 -0.07175042 -0.0059014945 -0.09226852
-0.053948037 0.01223811 -0.17893276 -0.059840653 -0.05563933 0.029913295 -0.03298095 -0.098238245
-0.017519524 -0.0903178 -0.11024024 -0.07392378 -0.017735856 -0.07528994 -0.06289197 0.03409206
-0.037481017 -0.1273673 0.0021007329 -0.1367368 -0.026699612 -0.14867263 0.021210853 -0.05377178
-0.042908736 -0.11082975 -0.069707 -0.05905843 -0.03844416 -0.12423831 -0.052115414 -0.02963041
-0.09319723 -0.021747401 -0.009137611 -0.010400734 -0.12637581 -0.023267938 -0.046941154 0.0115754865
-0.022300335 -0.037081942 -0.11944032 -0.009120723 -0.027138475 -0.13451606 -0.12120495 -0.04521763
-0.13198666 0.024779072 -0.017590852 -0.04547829 -0.015810495 -0.093724534 -0.030385867 -0.039087538
