results/ppo/My Behavior/My Behavior-8337.pt (torch, 152847 bytes, 10 tensors)

network_body._body_endoder.seq_layers.0.weight f4 [128, 10]
0	0xbf5fd30c	-0.87431407
1	0xbf8d3eba	-1.1034768
2	0x3ed0506c	0.40686357
3	0xbd3aef02	-0.04563809
4	0x3e023189	0.12714209
5	0xbe91023e	-0.28322023
6	0xbd3eceea	-0.046584047
7	0x3efbaaf3	0.4915386
8	0x3dc47112	0.09591879
9	0x3eeb36a3	0.45940122
10	0x3e6313b1	0.2217548
11	0x3da44221	0.080204256
12	0x3ef120d5	0.4709536
13	0xbea2d1e5	-0.31800762
14	0x3f1cb4d8	0.61213446
15	0x3e9d0a6c	0.30672014
16	0xbe5c03ba	-0.21485797
17	0xbc25ee72	-0.010127651
18	0x3e087e8e	0.13329527
19	0x3c945e75	0.018111447
20	0x3ebe811d	0.3720788
21	0xbde9f8ac	-0.114243835
22	0x3ecea767	0.40362093
23	0x3dcce4dd	0.1000459
24	0xbe789cf8	-0.24278629
25	0xbc4ba905	-0.012430434
26	0xbda11470	-0.07865226
27	0x3ef75b9e	0.48312086
28	0xbe16ddc6	-0.14733037
29	0x3e65791d	0.22409482
30	0xbda998cc	-0.08281097
31	0x3e3b2008	0.18273938
32	0x3ea8e8d0	0.32990122
33	0xbe86aa85	-0.2630197
34	0x3edca7ec	0.43096864
35	0x3e891663	0.26774892
36	0xbde9f66a	-0.11423953
37	0x3e41c670	0.18923354
38	0xbd9bd212	-0.07608427
39	0xbe1ca6eb	-0.15298049
40	0xbea15fe2	-0.31518465
41	0xbdfba372	-0.12287034
42	0x3e9fb88e	0.31195492
43	0xbf12506e	-0.57153976
44	0x3d9e9fae	0.077453
45	0xbdd05f88	-0.10174471
46	0x3e7436d5	0.23849042
47	0x3ce5c17c	0.028046362
48	0x3e722b7b	0.23649399
49	0xbe2a0047	-0.16601668
50	0x3ee5c1c2	0.44874388
51	0xbd13d28e	-0.036089472
52	0xbebef81a	-0.3729866
53	0xbf59472d	-0.8487423
54	0xbd6aa7d0	-0.057288945
55	0xbdfab62f	-0.1224178
56	0x3eb94463	0.36184987
57	0x3e79c274	0.24390584
58	0xbda0878f	-0.07838356
59	0x3ed1373d	0.40862456
60	0xbe9f3520	-0.3109522
61	0x3dc74ff0	0.09732044
62	0xbde6d71c	-0.112714976
63	0xbe8c9839	-0.27459887
64	0x3ec1a828	0.37823606
65	0xbe86ccaf	-0.26328036
66	0x3ee948a9	0.45563248
67	0xbc8376ce	-0.016047861
68	0xbde378e5	-0.11107043
69	0xbe5a4f51	-0.2131932
70	0xbdb58c9d	-0.088647105
71	0x3f581503	0.8440706
72	0x3e927287	0.28603002
73	0x3e04df9d	0.12975927
74	0x3d808636	0.06275599
75	0x3c96c20b	0.018403074
76	0xbe8fa516	-0.28055638
77	0xbe3ca085	-0.18420608
78	0xbe01b37c	-0.12666124
79	0x3e758974	0.23978215
80	0xbe5ec383	-0.2175427
81	0xbea31482	-0.31851584
82	0xbe4a9bde	-0.19786021
83	0xbe27e1cf	-0.16394733
84	0x3e8766e5	0.2644569
85	0x3f0ce7ef	0.550414
86	0x3e77d417	0.24202
87	0x3e459736	0.19295964
88	0xbe8189be	-0.253004
89	0xbe80f3b4	-0.2518593
90	0xbefc4f4a	-0.49279243
91	0x3ea33d65	0.31882778
92	0xbf1ec06c	-0.6201236
93	0xbe03f163	-0.1288505
94	0x3eaf6b00	0.34261322
95	0xbd84de80	-0.06487751
96	0xbe71a439	-0.23597802
97	0x3e65c2c4	0.22437578
98	0x3c42ed30	0.01189737
99	0xbf342787	-0.70372814
100	0xbef210ae	-0.4727835
101	0x3f3463df	0.7046489
102	0x3e9b06b5	0.30278555
103	0x3f3245bb	0.6963765
104	0x3eb8ed2f	0.36118457
105	0x3f00f34f	0.5037126
106	0x3e0494ee	0.12947437
107	0x3ecf598b	0.40498003
108	0xbe218612	-0.157738
109	0x3ec9ea1b	0.3943642
110	0xbdb848a7	-0.08998232
111	0x3d7a64e6	0.06113138
112	0xbe7e7d53	-0.24852495
113	0xbe82c085	-0.25537506
114	0x3ad836cb	0.0016495822
115	0x3e9b010e	0.30274242
116	0xbeec9a1e	-0.46211332
117	0x3e1c7f55	0.15282948
118	0xbe99e617	-0.30058357
119	0x3ea6b51b	0.32560048
120	0xbd9cbb6b	-0.07652935
121	0xbefdbde4	-0.49558938
122	0x3e3e638e	0.18592665
123	0xbe8c2aa9	-0.27376297
124	0xbe70cb31	-0.23515011
125	0x3f323ae3	0.69621104
126	0x3dcb15cb	0.09916266
127	0x3e0053eb	0.12532012
128	0xbdf0b005	-0.11752323
129	0x3dab9484	0.083779365
130	0xbee000d6	-0.43750638
131	0xbf48de4c	-0.784642
132	0x3ec4d7eb	0.38445982
133	0x3ea42af9	0.32064036
134	0xbdde8b25	-0.108663835
135	0x3eb6bd65	0.35691372
136	0x3e8aca92	0.27107674
137	0xbe451819	-0.19247474
138	0xbf00eb0d	-0.5035866
139	0x3f18238d	0.59429246
140	0x3da0591f	0.078294985
141	0xbddaa56d	-0.10676084
142	0xbe5e2aac	-0.21695966
143	0xbd30761b	-0.043081384
144	0xbeef559b	-0.46745
145	0xbdbed91f	-0.09318756
146	0x3e4aec01	0.19816591
147	0xbe794f72	-0.24346712
148	0x3db51a30	0.088428855
149	0x3f2336d3	0.6375553
150	0xbe841724	-0.25798905
151	0x3ec6efcf	0.38854834
152	0x3dea721d	0.11447547
153	0xbf6c0a41	-0.92203146
154	0xbe4d92b2	-0.20075491
155	0xbc6e6286	-0.014549857
156	0x3ea3b007	0.31970236
157	0xbe2b7533	-0.16743927
158	0xbeb8d7c0	-0.36102104
159	0xbd9f05f0	-0.07764804
160	0xbf3c132a	-0.7346674
161	0x3e15fc97	0.14647137
162	0x3e6997ac	0.22811764
163	0xbe98ad44	-0.2981969
164	0x3f34d7f9	0.7064205
165	0xbd27e78f	-0.040992316
166	0x3ebae5b7	0.36503384
167	0x3f29a089	0.6626058
168	0x3ec45444	0.3834554
169	0xbdd6a60e	-0.10480891
170	0x3ea9f1d1	0.33192304
171	0x3e2d4f31	0.1692474
172	0x3cbf7742	0.023372296
173	0xbefab2b4	-0.48964465
174	0xbda8758b	-0.082255445
175	0xbd867d05	-0.06566814
176	0x3dac7f1e	0.08422683
177	0x3e02f03a	0.12786952
178	0xbe9b922a	-0.30384952
179	0xbdfd68bd	-0.12373493
180	0xbd113318	-0.035449117
181	0x3f2e8390	0.681695
182	0x3ee109bd	0.43952742
183	0xbe5e67f3	-0.21719341
184	0xbdb050a0	-0.08609128
185	0xbe812a99	-0.25227812
186	0xbe72cc0f	-0.23710655
187	0x3e908ce4	0.2823249
188	0xbe740683	-0.23830609
189	0x3cc492db	0.023995807
190	0xbb6838b7	-0.0035434195
191	0x3f05a8d1	0.5221072
192	0xbcf4c507	-0.029879106
193	0x3ebddaa0	0.3708086
194	0xbe5fcfda	-0.21856633
195	0x3e55ed6d	0.20891352
196	0x3f0abe1a	0.5419632
197	0xbefb9c49	-0.49142674
198	0x3e800a0f	0.25007674
199	0x3dc78ba8	0.09743434
200	0x3e81a465	0.25320736
201	0x3eccd10c	0.4000324
202	0xbd82037e	-0.06348322
203	0xbe640d1d	-0.22270627
204	0xbca31305	-0.01990653
205	0xbc386609	-0.011254796
206	0x3e60ed9b	0.2196564
207	0x3e847dc5	0.25877205
208	0xbef4c01d	-0.4780282
209	0xbdd658f7	-0.104661874
210	0x3e0931cb	0.13397901
211	0x3f111f30	0.56688213
212	0x3dc90f38	0.09817356
213	0x3e961249	0.29310825
214	0xbdb6456d	-0.08899961
215	0xbd88abc6	-0.06673388
216	0x3f41cd56	0.7570394
217	0xbddcf505	-0.10788921
218	0xbdc93983	-0.098254226
219	0xbec16fc2	-0.37780577
220	0x3e864f24	0.26232255
221	0x3eeaa836	0.4583146
222	0x3daeb0df	0.08529829
223	0x3ece31e1	0.4027243
224	0x3ece6972	0.40314823
225	0x3e94520f	0.28968856
226	0x3ce6efaa	0.028190453
227	0xbe1aba03	-0.1511002
228	0xbed85d01	-0.42258456
229	0x3deaefff	0.11471557
230	0xbeaeb362	-0.34121233
231	0xbd8cd975	-0.06877414
232	0x3df3ace4	0.11898211
233	0x3eafaf47	0.34313414
234	0x3efda370	0.49538755
235	0xbd4d0bfc	-0.050060257
236	0x3e64eeec	0.22356766
237	0xbec772a9	-0.38954666
238	0x3f423c14	0.7587292
239	0xbefb1490	-0.49039125
240	0xbf0f99b2	-0.56093895
241	0xbe0641e2	-0.1311107
242	0x3e9bb1ca	0.3040908
243	0xbea1d8b5	-0.31610647
244	0xbdc964f6	-0.0983371
245	0x3d630569	0.05542508
246	0x3ec9361c	0.39299095
247	0xbf0cce74	-0.5500252
248	0x3f0d2ced	0.55146676
249	0x3ef939d4	0.48676932
250	0xbee2493a	-0.44196492
251	0xbe7f1721	-0.24911167
252	0x3e6e3631	0.2326286
253	0xbdbc122e	-0.09183155
254	0x3e4090ea	0.1880528
255	0xbe16b8f6	-0.14718994

network_body._body_endoder.seq_layers.0.bias f4 [128]
0	0x00000000	0.0
1	0x00000000	0.0
2	0x00000000	0.0
3	0x00000000	0.0
4	0x00000000	0.0
5	0x00000000	0.0
6	0x00000000	0.0
7	0x00000000	0.0
8	0x00000000	0.0
9	0x00000000	0.0
10	0x00000000	0.0
11	0x00000000	0.0
12	0x00000000	0.0
13	0x00000000	0.0
14	0x00000000	0.0
15	0x00000000	0.0
16	0x00000000	0.0
17	0x00000000	0.0
18	0x00000000	0.0
19	0x00000000	0.0
20	0x00000000	0.0
21	0x00000000	0.0
22	0x00000000	0.0
23	0x00000000	0.0
24	0x00000000	0.0
25	0x00000000	0.0
26	0x00000000	0.0
27	0x00000000	0.0
28	0x00000000	0.0
29	0x00000000	0.0
30	0x00000000	0.0
31	0x00000000	0.0
32	0x00000000	0.0
33	0x00000000	0.0
34	0x00000000	0.0
35	0x00000000	0.0
36	0x00000000	0.0
37	0x00000000	0.0
38	0x00000000	0.0
39	0x00000000	0.0
40	0x00000000	0.0
41	0x00000000	0.0
42	0x00000000	0.0
43	0x00000000	0.0
44	0x00000000	0.0
45	0x00000000	0.0
46	0x00000000	0.0
47	0x00000000	0.0
48	0x00000000	0.0
49	0x00000000	0.0
50	0x00000000	0.0
51	0x00000000	0.0
52	0x00000000	0.0
53	0x00000000	0.0
54	0x00000000	0.0
55	0x00000000	0.0
56	0x00000000	0.0
57	0x00000000	0.0
58	0x00000000	0.0
59	0x00000000	0.0
60	0x00000000	0.0
61	0x00000000	0.0
62	0x00000000	0.0
63	0x00000000	0.0
64	0x00000000	0.0
65	0x00000000	0.0
66	0x00000000	0.0
67	0x00000000	0.0
68	0x00000000	0.0
69	0x00000000	0.0
70	0x00000000	0.0
71	0x00000000	0.0
72	0x00000000	0.0
73	0x00000000	0.0
74	0x00000000	0.0
75	0x00000000	0.0
76	0x00000000	0.0
77	0x00000000	0.0
78	0x00000000	0.0
79	0x00000000	0.0
80	0x00000000	0.0
81	0x00000000	0.0
82	0x00000000	0.0
83	0x00000000	0.0
84	0x00000000	0.0
85	0x00000000	0.0
86	0x00000000	0.0
87	0x00000000	0.0
88	0x00000000	0.0
89	0x00000000	0.0
90	0x00000000	0.0
91	0x00000000	0.0
92	0x00000000	0.0
93	0x00000000	0.0
94	0x00000000	0.0
95	0x00000000	0.0
96	0x00000000	0.0
97	0x00000000	0.0
98	0x00000000	0.0
99	0x00000000	0.0
100	0x00000000	0.0
101	0x00000000	0.0
102	0x00000000	0.0
103	0x00000000	0.0
104	0x00000000	0.0
105	0x00000000	0.0
106	0x00000000	0.0
107	0x00000000	0.0
108	0x00000000	0.0
109	0x00000000	0.0
110	0x00000000	0.0
111	0x00000000	0.0
112	0x00000000	0.0
113	0x00000000	0.0
114	0x00000000	0.0
115	0x00000000	0.0
116	0x00000000	0.0
117	0x00000000	0.0
118	0x00000000	0.0
119	0x00000000	0.0
120	0x00000000	0.0
121	0x00000000	0.0
122	0x00000000	0.0
123	0x00000000	0.0
124	0x00000000	0.0
125	0x00000000	0.0
126	0x00000000	0.0
127	0x00000000	0.0

network_body._body_endoder.seq_layers.2.weight f4 [128, 128]
0	0x3bf064b3	0.007336223
1	0xbe30178f	-0.17196487
2	0x3da990e9	0.082795925
3	0xbe6ad1e4	-0.2293163
4	0x3d17d872	0.037071653
5	0xbc9afba6	-0.018918823
6	0x3c4f063a	0.012635762
7	0xbdd5bc7e	-0.10436343
8	0xbc857d35	-0.016295055
9	0xbd040f7a	-0.032241322
10	0xbc570417	-0.013123534
11	0x3cb04918	0.021519229
12	0x3d47b5b4	0.04875727
13	0x3d8f9aec	0.07011971
14	0x3d889b91	0.06670297
15	0x3da854d1	0.082193024
16	0x3da5c264	0.08093718
17	0xbd4cbdc5	-0.049985666
18	0x3e0bcd20	0.13652468
19	0x3cc484a7	0.023989035
20	0x3e38fc91	0.18065096
21	0x3b95f146	0.004575881
22	0xbe04185b	-0.12899916
23	0xb941a5a2	-0.00018467617
24	0x3e478dfc	0.19487756
25	0xbd760045	-0.06005885
26	0xbdee8997	-0.11647337
27	0x3c081725	0.008306299
28	0xbdb19f8a	-0.08673008
29	0x3aabdae7	0.0013111503
30	0xbcee3400	-0.02907753
31	0x3d43d4c7	0.047810342
32	0x3d953f41	0.07287455
33	0xbdc6b0d9	-0.097017
34	0xbd769f34	-0.06021042
35	0x3da51b8c	0.08061895
36	0x3d4be6cf	0.049780663
37	0x3c139be8	0.009009339
38	0x38a025b9	7.636421e-05
39	0x3e0b236e	0.13587734
40	0x3d461e28	0.048368603
41	0xbd84bdbd	-0.06481502
42	0xbd1e1b06	-0.03859999
43	0x3d738e5b	0.059461933
44	0xbd9582ca	-0.07300337
45	0xbd60ffc5	-0.05493142
46	0xbd5fa5b6	-0.054601394
47	0x3c98a5d1	0.018633755
48	0xbe140c8b	-0.1445791
49	0x3df54ef3	0.11977949
50	0x3b88b0d8	0.004171472
51	0xbceeb3eb	-0.029138526
52	0x3b041f65	0.0020160314
53	0xbe2bd2d6	-0.16779646
54	0xbdb06747	-0.086134486
55	0x3d9113e5	0.07083873
56	0xbddc7b16	-0.10765664
57	0x3dd4d0f2	0.10391416
58	0xbcbe2371	-0.02321026
59	0x3d448973	0.047982644
60	0xbb6d9d20	-0.0036256984
61	0xbb5139f8	-0.0031925421
62	0x3c54dbee	0.012991888
63	0xbc3a2f85	-0.011363869
64	0x3c6610aa	0.014042059
65	0x3c9226aa	0.017840702
66	0x3d16813f	0.036744352
67	0x3d98c895	0.07460133
68	0x3b66118d	0.0035105676
69	0x3e02ce7b	0.12774079
70	0x3e037df8	0.12841022
71	0x3d70475a	0.058661796
72	0xbbf678fe	-0.0075217476
73	0xbd983bc6	-0.07433276
74	0x3ded9503	0.11600687
75	0x3dadb941	0.084826
76	0x3d80b2f3	0.06284132
77	0x3e1847e9	0.14871182
78	0xbd2c9aa1	-0.042139653
79	0xbd8efb1e	-0.069814906
80	0xbdfbea3f	-0.12300538
81	0xbd85a8b8	-0.06526321
82	0x3d24cf1a	0.04023657
83	0x3e0b622f	0.13611673
84	0x3d957aad	0.07298789
85	0x3c43710a	0.011928806
86	0x3d9125ad	0.07087264
87	0xbade61a0	-0.001696635
88	0xbd4af6cc	-0.04955177
89	0xbda3a074	-0.079895884
90	0x3b810c4c	0.0039382335
91	0xbcfff860	-0.031246364
92	0x3d88de1b	0.06682988
93	0xbcb68295	-0.022279063
94	0x3d51f6f0	0.05126089
95	0xbcc9a55d	-0.024614984
96	0xbdf52bd4	-0.1197125
97	0xbd72b4b6	-0.05925437
98	0x3e203592	0.15645435
99	0x3db1003f	0.08642625
100	0x3ca61e8e	0.020278241
101	0xbcb4d3c1	-0.022073628
102	0x3d3fa7b4	0.046790794
103	0xba8c0b9b	-0.0010684611
104	0x3da09905	0.07841686
105	0xbd3382ee	-0.043826036
106	0xbd6998ad	-0.05703037
107	0x3e1a6ca0	0.150805
108	0x3d043956	0.032281242
109	0x3ce0405c	0.027374439
110	0xbe25898b	-0.1616575
111	0xbdecf7c2	-0.115706936
112	0x3d1fd156	0.039017998
113	0x3d56f29a	0.052477457
114	0x3e058e8f	0.13042663
115	0x3dd19349	0.102331705
116	0xbc1161e1	-0.008873434
117	0x3d34672a	0.044043697
118	0xbde31d39	-0.11089558
119	0x3de20400	0.11035919
120	0xbdb98c10	-0.09059918
121	0x3dc40512	0.095712796
122	0xbd739d03	-0.05947591
123	0xbca4172b	-0.020030579
124	0x3d85ad5f	0.065272085
125	0xbdbdcb95	-0.09267346
126	0xbbf13f9e	-0.00736232
127	0xbcaa1014	-0.02075962
128	0xbce86b0a	-0.028371353
129	0x3b7524aa	0.0037405887
130	0xbda2856d	-0.07935605
131	0x3d9e4195	0.077273525
132	0x3dde21de	0.108463034
133	0x3e164576	0.14674935
134	0x3cdc2f26	0.02687795
135	0x3da8a59f	0.08234715
136	0xbdc70354	-0.09717432
137	0x3d51a328	0.05118099
138	0xbd1a0b6d	-0.037608553
139	0xbdb9a3de	-0.09064458
140	0xbcf334e1	-0.0296883
141	0xbdc5d787	-0.09660249
142	0xbdde7ec4	-0.108640224
143	0x3c503500	0.012707949
144	0xbd397922	-0.045281537
145	0x3e0be126	0.13660106
146	0xbe402723	-0.1876493
147	0xbe3adfe3	-0.18249469
148	0x3da73600	0.081645966
149	0xbce1f92b	-0.027584633
150	0xbd9cb9bc	-0.076526135
151	0xbdb81aea	-0.089895085
152	0x3b9cad17	0.004781376
153	0xbe1d5e02	-0.15367892
154	0x3dc4adef	0.09603488
155	0x3dea26a8	0.11433154
156	0x3e241b71	0.16026093
157	0xbd89ac7c	-0.06722352
158	0x3d1103b8	0.035403937
159	0xbcf68f02	-0.030097488
160	0xbe1fa5c7	-0.15590583
161	0x3dce4ae8	0.10072881
162	0x3dd454ec	0.1036776
163	0xbdd306f2	-0.10304059
164	0x3cf880e6	0.030334901
165	0xbc5cdbc0	-0.013480127
166	0xbd950860	-0.07276988
167	0xbdf31bf0	-0.11870563
168	0x3d708108	0.058716804
169	0x3d5a18f9	0.053246472
170	0x3dcd7764	0.100325376
171	0x3d2acce0	0.04169929
172	0xbd6b4c5f	-0.05744588
173	0xbc236e08	-0.009974964
174	0xbc96328d	-0.018334651
175	0xbccd90e6	-0.025093507
176	0x3c486ccd	0.012232971
177	0xbd1c3aff	-0.0381422
178	0x3d40fc64	0.0471157
179	0x3d6a26e6	0.057166003
180	0xbc2e3fc9	-0.010635325
181	0xbdee7e3f	-0.11645173
182	0x3d653bb1	0.05596513
183	0x3e4f1a20	0.2022481
184	0x3da4a154	0.080385834
185	0xbda464cd	-0.08027039
186	0xbe08760f	-0.13326286
187	0xbe1b9122	-0.15192083
188	0x3c9c0c48	0.019048825
189	0xbcfe7459	-0.031061338
190	0x3daed4c5	0.08536676
191	0xbcb1ff9d	-0.021728331
192	0x3d04ccc5	0.032421846
193	0xbd0c7c17	-0.03429803
194	0x3d82be7e	0.0638399
195	0xbcfa93f0	-0.03058812
196	0xbd578b0f	-0.05262285
197	0x3cb2171f	0.02173954
198	0x3dffe9a0	0.12495732
199	0xbdd30c32	-0.103050604
200	0x3d8e29d7	0.06941574
201	0x3d1ccc8e	0.038281016
202	0x3c46fa78	0.012144677
203	0x3c97df04	0.01853896
204	0xbc384a8e	-0.011248244
205	0xbcb20deb	-0.021735152
206	0xbd78246b	-0.060581606
207	0xbd52bc98	-0.05144939
208	0xbb4d7ce3	-0.0031354956
209	0xbe09f552	-0.13472489
210	0xbe08808e	-0.1333029
211	0xbd932d24	-0.07186344
212	0x3d815887	0.063157134
213	0x3c6356f7	0.0138757145
214	0x3c83f2bb	0.016106954
215	0xbd72dc10	-0.0592919
216	0xbcd413be	-0.02588832
217	0x3c4f0bc9	0.012637087
218	0xbca5a0cd	-0.020218277
219	0xbd85642a	-0.065132454
220	0x3d9e75b4	0.07737294
221	0xbdb59d23	-0.08867862
222	0x3c9caf2b	0.019126495
223	0xbd02c5ab	-0.031926792
224	0x3d9c76f9	0.0763988
225	0xbd83098d	-0.06398306
226	0xbe1c1361	-0.15241767
227	0xbc390ab9	-0.01129406
228	0xbcb51d0c	-0.022108577
229	0xbd1f5940	-0.038903475
230	0xbe14da53	-0.14536409
231	0xbe45d071	-0.19317795
232	0x3dc703a9	0.09717495
233	0xbdc8e927	-0.09810095
234	0x3e458266	0.19288024
235	0x3d405ef0	0.04696554
236	0xbe4a192c	-0.19736165
237	0xbd9ceddc	-0.076625556
238	0xba297fbe	-0.00064658734
239	0xbe2a9949	-0.16660036
240	0x3d03fe31	0.032224838
241	0xbd7399bf	-0.059472796
242	0x3d99cb95	0.07509533
243	0x3e135074	0.14386159
244	0xbd45971b	-0.04823981
245	0xbd536a28	-0.05161491
246	0x3d88760f	0.06663143
247	0x3db22b09	0.086996146
248	0x3c1320f7	0.008980027
249	0x3d59c623	0.053167474
250	0x3dc25be6	0.094901845
251	0xbe4828b2	-0.19546774
252	0xbcf74426	-0.030183863
253	0x3e3bd24f	0.18341945
254	0x3e5103b4	0.20411569
255	0x3d426453	0.047458958

network_body._body_endoder.seq_layers.2.bias f4 [128]
0	0x00000000	0.0
1	0x00000000	0.0
2	0x00000000	0.0
3	0x00000000	0.0
4	0x00000000	0.0
5	0x00000000	0.0
6	0x00000000	0.0
7	0x00000000	0.0
8	0x00000000	0.0
9	0x00000000	0.0
10	0x00000000	0.0
11	0x00000000	0.0
12	0x00000000	0.0
13	0x00000000	0.0
14	0x00000000	0.0
15	0x00000000	0.0
16	0x00000000	0.0
17	0x00000000	0.0
18	0x00000000	0.0
19	0x00000000	0.0
20	0x00000000	0.0
21	0x00000000	0.0
22	0x00000000	0.0
23	0x00000000	0.0
24	0x00000000	0.0
25	0x00000000	0.0
26	0x00000000	0.0
27	0x00000000	0.0
28	0x00000000	0.0
29	0x00000000	0.0
30	0x00000000	0.0
31	0x00000000	0.0
32	0x00000000	0.0
33	0x00000000	0.0
34	0x00000000	0.0
35	0x00000000	0.0
36	0x00000000	0.0
37	0x00000000	0.0
38	0x00000000	0.0
39	0x00000000	0.0
40	0x00000000	0.0
41	0x00000000	0.0
42	0x00000000	0.0
43	0x00000000	0.0
44	0x00000000	0.0
45	0x00000000	0.0
46	0x00000000	0.0
47	0x00000000	0.0
48	0x00000000	0.0
49	0x00000000	0.0
50	0x00000000	0.0
51	0x00000000	0.0
52	0x00000000	0.0
53	0x00000000	0.0
54	0x00000000	0.0
55	0x00000000	0.0
56	0x00000000	0.0
57	0x00000000	0.0
58	0x00000000	0.0
59	0x00000000	0.0
60	0x00000000	0.0
61	0x00000000	0.0
62	0x00000000	0.0
63	0x00000000	0.0
64	0x00000000	0.0
65	0x00000000	0.0
66	0x00000000	0.0
67	0x00000000	0.0
68	0x00000000	0.0
69	0x00000000	0.0
70	0x00000000	0.0
71	0x00000000	0.0
72	0x00000000	0.0
73	0x00000000	0.0
74	0x00000000	0.0
75	0x00000000	0.0
76	0x00000000	0.0
77	0x00000000	0.0
78	0x00000000	0.0
79	0x00000000	0.0
80	0x00000000	0.0
81	0x00000000	0.0
82	0x00000000	0.0
83	0x00000000	0.0
84	0x00000000	0.0
85	0x00000000	0.0
86	0x00000000	0.0
87	0x00000000	0.0
88	0x00000000	0.0
89	0x00000000	0.0
90	0x00000000	0.0
91	0x00000000	0.0
92	0x00000000	0.0
93	0x00000000	0.0
94	0x00000000	0.0
95	0x00000000	0.0
96	0x00000000	0.0
97	0x00000000	0.0
98	0x00000000	0.0
99	0x00000000	0.0
100	0x00000000	0.0
101	0x00000000	0.0
102	0x00000000	0.0
103	0x00000000	0.0
104	0x00000000	0.0
105	0x00000000	0.0
106	0x00000000	0.0
107	0x00000000	0.0
108	0x00000000	0.0
109	0x00000000	0.0
110	0x00000000	0.0
111	0x00000000	0.0
112	0x00000000	0.0
113	0x00000000	0.0
114	0x00000000	0.0
115	0x00000000	0.0
116	0x00000000	0.0
117	0x00000000	0.0
118	0x00000000	0.0
119	0x00000000	0.0
120	0x00000000	0.0
121	0x00000000	0.0
122	0x00000000	0.0
123	0x00000000	0.0
124	0x00000000	0.0
125	0x00000000	0.0
126	0x00000000	0.0
127	0x00000000	0.0

action_model._continuous_distribution.mu.weight f4 [1, 128]
0	0xbbdfe538	-0.006832745
1	0xba48508b	-0.00076413964
2	0x3ccaf3eb	0.024774512
3	0x3ce132ed	0.027490104
4	0x3c34cf05	0.011035685
5	0xbaf692c2	-0.0018812048
6	0xbc522060	-0.012825102
7	0x3c301625	0.010747467
8	0x3c83b1c2	0.016075972
9	0x3d3b359c	0.045705423
10	0x3c66227a	0.014046306
11	0x3c9c3fbf	0.019073365
12	0xbc3bf3a0	-0.011471659
13	0x3c8e2fd7	0.017356796
14	0x3ab7218c	0.001397179
15	0xbd2b7047	-0.041855123
16	0x3ca422d1	0.020036133
17	0xbbc448bb	-0.0059901155
18	0xbd3ea4ed	-0.046544004
19	0x3c49fa98	0.012327813
20	0xbce68ed7	-0.028144283
21	0x3a6a9e00	0.00089499354
22	0x3cd51623	0.026011532
23	0xbce3c082	-0.027801756
24	0xbbf90132	-0.0075990194
25	0x3c37416b	0.01118503
26	0xbd0699db	-0.03286157
27	0x3ce411ba	0.027840484
28	0xbbbb0aad	-0.0057080598
29	0x3c8caeb0	0.017173141
30	0x3ca6b4d7	0.020349903
31	0xbb5c6e67	-0.003363514
32	0x3cc490b5	0.023994783
33	0xbc36ba4f	-0.011152818
34	0xbb11ec66	-0.0022266149
35	0xbc886b6f	-0.01665279
36	0xbcea52a7	-0.028603865
37	0xbbfd2f8b	-0.007726615
38	0xbcf19e1b	-0.029494336
39	0x3d0aa5cd	0.033849526
40	0xbc81ae20	-0.0158301
41	0xbc502e07	-0.012706286
42	0x3bd9b89f	0.006644323
43	0x3c0b708b	0.008510719
44	0x3beeb61f	0.007284894
45	0x3b96ef33	0.0046061515
46	0xbab23033	-0.0013594687
47	0x3c9e3cc0	0.019316077
48	0x3b4c7cc7	0.0031202303
49	0x3b0206c0	0.001984045
50	0x3cbd0929	0.023075657
51	0x3bd0dcd7	0.0063739824
52	0x3ca7a87f	0.020466087
53	0xbb3db81b	-0.0028948847
54	0x3c0158e7	0.007894731
55	0xbc88c679	-0.016696202
56	0x3c40c774	0.011766303
57	0x3c044d33	0.008075046
58	0xbb746297	-0.003729021
59	0x3c1cce7f	0.009570717
60	0x3ce379c0	0.027768016
61	0x3bc79a5f	0.0060914005
62	0xbb9f09cb	-0.0048534623
63	0xbc60c15f	-0.013717978
64	0x3baf9c0e	0.0053591793
65	0x3cb767c9	0.022388356
66	0xbba3703d	-0.004987745
67	0x3ba3e1a3	0.005001263
68	0x3c825fcb	0.015914818
69	0xbce7e578	-0.028307661
70	0xbc95a3d1	-0.01826659
71	0xbc564a4a	-0.013079235
72	0x3ca765d5	0.0204343
73	0xbbf02350	-0.0073284283
74	0xbcad0a12	-0.021122966
75	0xbcd27c48	-0.025694028
76	0x3d02d89d	0.03194486
77	0xbcd2b350	-0.025720268
78	0x3bfff6a3	0.007811384
79	0x3a832605	0.0010005838
80	0xbba701ec	-0.0050966647
81	0xbbe39e67	-0.0069463733
82	0x3c81c8a9	0.015842753
83	0x3c45e9d8	0.0120796785
84	0xbbe4fa73	-0.0069878637
85	0x3b31ad17	0.0027111226
86	0x37173d32	9.0145495e-06
87	0x3b8fe5bf	0.0043914015
88	0x3c39db83	0.01134384
89	0x3ca55607	0.020182623
90	0x3cdddf22	0.027083937
91	0x3c96238d	0.018327499
92	0xbbf1dc87	-0.0073810252
93	0xbc2ca273	-0.010536778
94	0xbcf2bb43	-0.029630309
95	0xbc4746ec	-0.012162905
96	0xbc16bb2e	-0.009199901
97	0x3c40634b	0.011742423
98	0xbca8ac6e	-0.020590033
99	0xbca45a83	-0.02006269
100	0xbc1d5037	-0.009601644
101	0x39a77cc7	0.00031945689
102	0x3aded7e3	0.0017001595
103	0xbc9f5ec7	-0.019454373
104	0x3b5c6370	0.0033628605
105	0xbbe5f6bb	-0.007017938
106	0x3c5ffc50	0.013670996
107	0xbc958a23	-0.018254345
108	0xbc4acaf7	-0.012377492
109	0xbc97ddb7	-0.018538339
110	0x3c620602	0.013795378
111	0xbac6b7e5	-0.0015161006
112	0xb8f0bf5d	-0.00011479736
113	0x3c9fd9e4	0.019513078
114	0x3b1d810b	0.0024033214
115	0x3bbf13ea	0.0058312314
116	0x3c1e2d71	0.009654389
117	0xbcc9a8aa	-0.024616558
118	0xbc5aaf58	-0.013347469
119	0xba5f4153	-0.0008516509
120	0xbc061acb	-0.008185099
121	0xbc981c0e	-0.018568065
122	0xbc959816	-0.018260997
123	0x3a1b9573	0.00059350504
124	0xbb6a5b8d	-0.0035760135
125	0xbca4edb4	-0.020132877
126	0xbc1d217f	-0.009590506
127	0xbb683eb7	-0.0035437772

network_body._body_endoder.seq_layers.0.weight f4 [128, 10]
0	0xbe5cf540	-0.2157793
1	0xbe3222d3	-0.17396097
2	0x3e03e7d8	0.1288141
3	0x3ea713f1	0.32632402
4	0x3eb76db5	0.35825887
5	0xbea25722	-0.31707102
6	0x3e093b69	0.1340157
7	0xbeb848f1	-0.3599315
8	0x3e558be8	0.20854151
9	0x3e90a1de	0.28248495
10	0x3cf250c1	0.029579522
11	0x3c3efc00	0.011656761
12	0x3e84ac89	0.25912884
13	0xbf140222	-0.57815754
14	0x3d0fff06	0.03515532
15	0xbef9c4e0	-0.48783016
16	0xbcc17e3a	-0.02361976
17	0xbe92d63e	-0.2867908
18	0x3e4d9321	0.20075656
19	0xbeb19e60	-0.34691143
20	0x3da04f4a	0.07827623
21	0xbd3ea07a	-0.04653976
22	0xbf1e5637	-0.61850303
23	0xbe000a01	-0.12503816
24	0xbe2bb3e9	-0.16767849
25	0x3e42dba3	0.19029097
26	0x3eeaf04f	0.45886466
27	0xbde4c761	-0.11170841
28	0xbdfe11b5	-0.12405721
29	0x3b70b21f	0.0036727262
30	0x3e96551c	0.29361808
31	0xbe335ad2	-0.17515114
32	0x3e9b2f02	0.30309302
33	0xbed0432c	-0.40676248
34	0x3e7d5df2	0.24742869
35	0xbe1f1789	-0.15536322
36	0xbd8837c7	-0.06651264
37	0x3d545498	0.051838487
38	0xbee49f15	-0.4465262
39	0x3ee35f68	0.44408727
40	0x3f63f2a5	0.8904212
41	0x3e8ee12c	0.27906168
42	0x3e6fedb9	0.23430528
43	0xbe45a2c4	-0.19300371
44	0x3cc56606	0.0240965
45	0xbe7ba869	-0.24575962
46	0x3dbc5751	0.09196342
47	0x3db40905	0.08790783
48	0xbefb623a	-0.49098378
49	0xbdb07261	-0.08615566
50	0xbf2612f7	-0.6487269
51	0x3e26886d	0.1626298
52	0x3ed49c11	0.4152532
53	0xbed3df97	-0.41381523
54	0xbec45b71	-0.38351014
55	0xbefa4e2a	-0.4888776
56	0xbf1c0bb8	-0.6095538
57	0x3deb6987	0.11494737
58	0xbd71757f	-0.058949944
59	0x3e1d9ba0	0.15391397
60	0x3e87ce5e	0.26524633
61	0xbef2ffe5	-0.47460857
62	0x3e05f2fd	0.13080974
63	0x3d5f84e3	0.05457009
64	0xbe373a2e	-0.17893288
65	0xbd2ba9b3	-0.041909885
66	0xbef3235f	-0.47487924
67	0xbe648d1c	-0.22319454
68	0xbe163f8c	-0.14672679
69	0xbdb79913	-0.089647435
70	0x3db86566	0.09003715
71	0xbf02d5d6	-0.5110754
72	0x3d8e049e	0.069344744
73	0x3f064a1a	0.5245682
74	0xbdd9887c	-0.106217355
75	0xbdae55f8	-0.08512491
76	0xbe82fee7	-0.255851
77	0xbf0881a3	-0.5332281
78	0x3d8177cf	0.0632168
79	0x3cee9446	0.029123437
80	0xbd893b49	-0.06700761
81	0x3ebc7701	0.36809543
82	0x3d6a6a49	0.057230268
83	0x3ee1be56	0.44090527
84	0x3e76552b	0.24055927
85	0x3f186201	0.5952454
86	0x3e653b9d	0.22386022
87	0x3dcb5b0d	0.09929476
88	0x3d94ffbe	0.072753415
89	0x3ca2e8f1	0.019886466
90	0xbf0fca58	-0.5616813
91	0x3e8ae9a1	0.2713137
92	0xbe4911b6	-0.19635662
93	0xbe4f969d	-0.20272298
94	0x3e1a294c	0.15054816
95	0x3e4a685f	0.19766377
96	0x3e08d99c	0.13364261
97	0xbe4c16e9	-0.19930615
98	0xbba420c2	-0.005008788
99	0x3e9e2f40	0.30895424
100	0xbdb44831	-0.08802832
101	0x3e4152f6	0.18879303
102	0xbe5db587	-0.21651278
103	0x3e7c3d01	0.24632646
104	0x3edf0905	0.4356157
105	0xbe5f2fe7	-0.21795617
106	0xbed54c62	-0.41659838
107	0xbe729343	-0.23688988
108	0x3e597109	0.21234526
109	0x3eb90329	0.36135224
110	0x3d9aa43e	0.07550858
111	0x3e191ef0	0.14953208
112	0xbf0044ff	-0.5010528
113	0x3df97642	0.12180759
114	0xbea8a3bf	-0.32937428
115	0xbeae1920	-0.34003544
116	0x3ecef7bc	0.4042338
117	0x3e6c1dab	0.23058192
118	0x3e417bec	0.18894929
119	0x3f31d109	0.6945959
120	0xbbfacd41	-0.0076538627
121	0xbe887baf	-0.26656863
122	0x3eb0a4fd	0.34500876
123	0xbea6c712	-0.32573754
124	0xbea2731a	-0.3172844
125	0x3e7034e3	0.23457675
126	0xbd034961	-0.0320524
127	0xbe1fd775	-0.15609534
128	0x3e1f087b	0.15530579
129	0xbce40b1b	-0.027837327
130	0xbe9a6885	-0.30157867
131	0xbddfd438	-0.109291494
132	0x3ec85da3	0.3913394
133	0x3e92b370	0.28652525
134	0xbf527717	-0.82212967
135	0x3ef55da3	0.47923002
136	0x3c2b7584	0.01046503
137	0xbea6a25f	-0.32545754
138	0xbd77a62f	-0.06046122
139	0x3e248b90	0.16068864
140	0x3db2475c	0.08705017
141	0xbe6bebe2	-0.23039201
142	0xbe33f433	-0.17573623
143	0xbe0ac4a9	-0.13551582
144	0x3dadca81	0.0848589
145	0x3e8c7889	0.2743571
146	0x3d998188	0.07495409
147	0xbea76d98	-0.327008
148	0x3e989a76	0.29805344
149	0x3e2a4689	0.1662847
150	0xbe0e2fb6	-0.13885388
151	0xbddc452e	-0.107553825
152	0xbf149a35	-0.580478
153	0xbe2ce9bf	-0.16886042
154	0xbc284776	-0.010270944
155	0x3ea1a6e9	0.31572655
156	0x3e711ebe	0.23546883
157	0x3e65d7ae	0.22445557
158	0x3db6ea05	0.089313544
159	0xbe879186	-0.26478213
160	0x3e10ba99	0.14133681
161	0x3c578542	0.01315433
162	0xbe5bccba	-0.21464816
163	0xbe127ac2	-0.14304641
164	0x3e67167f	0.22567175
165	0x3df4afa4	0.11947563
166	0xbe803423	-0.25039777
167	0x3f40d5b4	0.75326085
168	0xbe88c712	-0.2671438
169	0x3e412321	0.18861057
170	0x3ce71937	0.028210266
171	0x3e56f712	0.20992687
172	0xbd71398c	-0.05889277
173	0xbdb827cc	-0.08991966
174	0xbea94118	-0.33057475
175	0x3e3ff9f8	0.187477
176	0xbf0c9af1	-0.5492392
177	0x3e00b77d	0.12569995
178	0xbf2b503f	-0.6691932
179	0xbe9efedd	-0.3105382
180	0xbea9c3e8	-0.33157277
181	0xbeedeca0	-0.46469593
182	0x3e58944e	0.21150324
183	0x3e802a5a	0.25032312
184	0xbe65d8b3	-0.22445945
185	0x3ec676bb	0.3876246
186	0xbe875448	-0.2643149
187	0xbeb0edd6	-0.34556454
188	0x3d054ea7	0.03254571
189	0xbdb25d2f	-0.087091796
190	0x3d925394	0.071448475
191	0x3f4857a7	0.78258747
192	0xbec816ee	-0.39079994
193	0x3e64de59	0.22350444
194	0x3ea04600	0.31303406
195	0x3d792f46	0.0608361
196	0xbeae0cbd	-0.33994094
197	0x3e2d4fd5	0.16924985
198	0x3edad7b7	0.42742702
199	0x3ef765f3	0.4831997
200	0x3ecfcb02	0.4058457
201	0x3e5e9d55	0.21739705
202	0x3d73e0c7	0.059540536
203	0x3922d626	0.000155293
204	0xbd517db2	-0.051145263
205	0xbef58119	-0.47950056
206	0x3e832bc7	0.25619337
207	0xbdb63903	-0.08897593
208	0xbf40eb70	-0.7535925
209	0x3e390a68	0.18070376
210	0x3e244eb1	0.16045643
211	0x3f32c41a	0.6983048
212	0x3e52d6db	0.20589773
213	0xbde9fba4	-0.1142495
214	0x3e38ca59	0.1804594
215	0xbe78483c	-0.24246305
216	0x3d8bad1c	0.06820127
217	0x3e8b304a	0.2718528
218	0xbe93b8a4	-0.28851807
219	0xbe9ba22b	-0.30397162
220	0x3ee185e5	0.44047466
221	0x3da8de7d	0.08245561
222	0x3e80ae3f	0.2513294
223	0x3dd029f9	0.10164256
224	0xbd780bd6	-0.060558163
225	0xbef71dea	-0.4826501
226	0x3e52e64c	0.20595664
227	0x3d055a85	0.03255703
228	0xbdc3e89b	-0.0956585
229	0x3e0ad305	0.1355706
230	0x3eba7742	0.36419111
231	0xbf3c7237	-0.7361178
232	0x3e09ac04	0.13444525
233	0x3ea4a039	0.3215349
234	0xbe411e60	-0.18859243
235	0x3e34b6c0	0.17647839
236	0xbd961f26	-0.0733016
237	0xbe766afd	-0.2406425
238	0xbf088f6f	-0.5334386
239	0x3d90da36	0.070728704
240	0xbf0f4d46	-0.55977285
241	0x3e3fb689	0.18721975
242	0xbe0212d8	-0.12702501
243	0x3e5b8036	0.21435627
244	0xbf5ca287	-0.861855
245	0x3e1fa268	0.15589297
246	0x3e34f8e1	0.17673065
247	0xbe5c4ee0	-0.21514463
248	0x3e46db0f	0.19419502
249	0xbed6f8bd	-0.41986647
250	0x3d94f832	0.07273902
251	0x3d3a6b15	0.045512278
252	0x3f064983	0.5245592
253	0xbcb09b0f	-0.021558313
254	0x3eab71eb	0.3348535
255	0x3e08a5e7	0.13344537

network_body._body_endoder.seq_layers.0.bias f4 [128]
0	0x00000000	0.0
1	0x00000000	0.0
2	0x00000000	0.0
3	0x00000000	0.0
4	0x00000000	0.0
5	0x00000000	0.0
6	0x00000000	0.0
7	0x00000000	0.0
8	0x00000000	0.0
9	0x00000000	0.0
10	0x00000000	0.0
11	0x00000000	0.0
12	0x00000000	0.0
13	0x00000000	0.0
14	0x00000000	0.0
15	0x00000000	0.0
16	0x00000000	0.0
17	0x00000000	0.0
18	0x00000000	0.0
19	0x00000000	0.0
20	0x00000000	0.0
21	0x00000000	0.0
22	0x00000000	0.0
23	0x00000000	0.0
24	0x00000000	0.0
25	0x00000000	0.0
26	0x00000000	0.0
27	0x00000000	0.0
28	0x00000000	0.0
29	0x00000000	0.0
30	0x00000000	0.0
31	0x00000000	0.0
32	0x00000000	0.0
33	0x00000000	0.0
34	0x00000000	0.0
35	0x00000000	0.0
36	0x00000000	0.0
37	0x00000000	0.0
38	0x00000000	0.0
39	0x00000000	0.0
40	0x00000000	0.0
41	0x00000000	0.0
42	0x00000000	0.0
43	0x00000000	0.0
44	0x00000000	0.0
45	0x00000000	0.0
46	0x00000000	0.0
47	0x00000000	0.0
48	0x00000000	0.0
49	0x00000000	0.0
50	0x00000000	0.0
51	0x00000000	0.0
52	0x00000000	0.0
53	0x00000000	0.0
54	0x00000000	0.0
55	0x00000000	0.0
56	0x00000000	0.0
57	0x00000000	0.0
58	0x00000000	0.0
59	0x00000000	0.0
60	0x00000000	0.0
61	0x00000000	0.0
62	0x00000000	0.0
63	0x00000000	0.0
64	0x00000000	0.0
65	0x00000000	0.0
66	0x00000000	0.0
67	0x00000000	0.0
68	0x00000000	0.0
69	0x00000000	0.0
70	0x00000000	0.0
71	0x00000000	0.0
72	0x00000000	0.0
73	0x00000000	0.0
74	0x00000000	0.0
75	0x00000000	0.0
76	0x00000000	0.0
77	0x00000000	0.0
78	0x00000000	0.0
79	0x00000000	0.0
80	0x00000000	0.0
81	0x00000000	0.0
82	0x00000000	0.0
83	0x00000000	0.0
84	0x00000000	0.0
85	0x00000000	0.0
86	0x00000000	0.0
87	0x00000000	0.0
88	0x00000000	0.0
89	0x00000000	0.0
90	0x00000000	0.0
91	0x00000000	0.0
92	0x00000000	0.0
93	0x00000000	0.0
94	0x00000000	0.0
95	0x00000000	0.0
96	0x00000000	0.0
97	0x00000000	0.0
98	0x00000000	0.0
99	0x00000000	0.0
100	0x00000000	0.0
101	0x00000000	0.0
102	0x00000000	0.0
103	0x00000000	0.0
104	0x00000000	0.0
105	0x00000000	0.0
106	0x00000000	0.0
107	0x00000000	0.0
108	0x00000000	0.0
109	0x00000000	0.0
110	0x00000000	0.0
111	0x00000000	0.0
112	0x00000000	0.0
113	0x00000000	0.0
114	0x00000000	0.0
115	0x00000000	0.0
116	0x00000000	0.0
117	0x00000000	0.0
118	0x00000000	0.0
119	0x00000000	0.0
120	0x00000000	0.0
121	0x00000000	0.0
122	0x00000000	0.0
123	0x00000000	0.0
124	0x00000000	0.0
125	0x00000000	0.0
126	0x00000000	0.0
127	0x00000000	0.0

network_body._body_endoder.seq_layers.2.weight f4 [128, 128]
0	0xbd055fba	-0.032561995
1	0x3da373f8	0.07981104
2	0x3caea80d	0.021320367
3	0x3dad1e30	0.084530234
4	0x3b35777a	0.0027689622
5	0x3c81125f	0.01575583
6	0x3e1922d9	0.149547
7	0x3d4c8dd7	0.049939957
8	0x3dbd7939	0.09251637
9	0x3b88758a	0.0041644024
10	0xbd898250	-0.06714308
11	0xba5eb83a	-0.000849608
12	0xbdad8e2c	-0.08474383
13	0x3da28e17	0.07937258
14	0x3d58150a	0.05275444
15	0x3c455d00	0.012046099
16	0x3dfb38d7	0.12266701
17	0x3d14d4e4	0.03633584
18	0xbdfd4026	-0.12365751
19	0x3d72e231	0.059297744
20	0xbe8c63fc	-0.27420032
21	0x3a5d8b2e	0.00084512203
22	0x3e767b76	0.24070534
23	0xbd0993bd	-0.03358816
24	0x3daa36f7	0.08311265
25	0x3d135097	0.03596553
26	0x3d86939b	0.06571122
27	0x3caf6b35	0.021413425
28	0xbdfb390e	-0.12266742
29	0x3d2dedf4	0.042463258
30	0x3d06b000	0.03288269
31	0x3c99272c	0.018695436
32	0x3debbf2e	0.11511074
33	0xbda57680	-0.08079243
34	0x3d9fc720	0.07801652
35	0x3c99014e	0.01867738
36	0xbe71ee51	-0.23626067
37	0xbcbecb50	-0.023290306
38	0x3d02f50b	0.031971972
39	0xbe01cdfe	-0.12676236
40	0xbd371c5d	-0.044704784
41	0x3df50712	0.11964239
42	0xbdbedfee	-0.09320055
43	0x3c818b26	0.015813421
44	0x3ce41df3	0.027846312
45	0x3db55217	0.08853548
46	0xbbfd32c9	-0.0077270013
47	0xbd5d997f	-0.054101463
48	0x3e1cb806	0.15304574
49	0xbd10092f	-0.03516501
50	0xbd9850a5	-0.07437257
51	0x3c5a0578	0.013306968
52	0x3da9781c	0.08274862
53	0xbd70ab1a	-0.058756925
54	0x3ba7190a	0.0050994204
55	0xbc6484c1	-0.013947667
56	0xbd83e640	-0.06440401
57	0xbc3de8d0	-0.011591151
58	0x3be2fecc	0.006927347
59	0xbe868e7e	-0.26280588
60	0x3d635ee6	0.055510424
61	0x3d87fc02	0.066398636
62	0xbd5b58d8	-0.053551525
63	0x3e0ae9c2	0.13565734
64	0x3d8f1ecf	0.06988298
65	0x3de55e2a	0.11199601
66	0xbd255a31	-0.040369216
67	0x3dd5716d	0.10422025
68	0x3d231a0d	0.039819766
69	0x3e03c2d8	0.12867296
70	0xbdf4b004	-0.11947635
71	0x3e48cedc	0.1961016
72	0x3cda04a6	0.026613545
73	0xbe32482f	-0.17410348
74	0x3daf449b	0.08558007
75	0xbc74b638	-0.014936022
76	0xbdc747ad	-0.09730468
77	0x3dcb9290	0.09940064
78	0x3df2d5f9	0.11857218
79	0x3d493392	0.049121447
80	0x3d18ffe4	0.03735341
81	0x3de0347a	0.10947509
82	0x3d3b094e	0.04566317
83	0xbaeda453	-0.0018130637
84	0x3d6e432f	0.05816954
85	0x3d58e756	0.052954994
86	0xbd831c45	-0.06401876
87	0xbe33eec2	-0.17571548
88	0x3ca42f43	0.020042067
89	0x3bb23d07	0.005439404
90	0xbcaa9ef6	-0.020827752
91	0x3d0002eb	0.031252783
92	0xbd6c3a8a	-0.057673015
93	0xbd6e43a9	-0.058169995
94	0xbca82739	-0.020526515
95	0xbd004084	-0.031311527
96	0xbda33542	-0.079691425
97	0x3e5ebdf4	0.21752149
98	0x3d789408	0.06068805
99	0x3b718424	0.0036852444
100	0x3cc230b6	0.023704868
101	0x3dc338c4	0.095323116
102	0x3dfc3e80	0.123166084
103	0x3d784ac8	0.060618192
104	0x3c4dfff5	0.012573232
105	0xbd18caa0	-0.037302613
106	0x3d28c3f8	0.041202515
107	0x3cade433	0.021226978
108	0x3cbdacf2	0.023153756
109	0xbbf1cc74	-0.007379109
110	0x3d844595	0.06458584
111	0x3d3d5da5	0.046231885
112	0x3d883d55	0.06652323
113	0xbcbd175d	-0.02308243
114	0x3dd8b607	0.10581594
115	0x3dfa2757	0.12214535
116	0xbc96d126	-0.018410277
117	0x3db4f449	0.08835656
118	0x3e0a4d9b	0.13506167
119	0x3d5746ef	0.052557882
120	0xbd800ec0	-0.06252813
121	0xbc1522f7	-0.009102575
122	0x3e01e5f7	0.12685381
123	0xbd8906fb	-0.066907845
124	0xbdb4aa7f	-0.08821582
125	0xbdb28fba	-0.0871882
126	0x3d101fec	0.035186693
127	0xbe09913b	-0.13434307
128	0x3dabe423	0.08393123
129	0xbd83d799	-0.06437606
130	0xbd9199fe	-0.0710945
131	0x3c426c2c	0.0118666105
132	0x3e1a845b	0.15089552
133	0x3d961ec7	0.07330089
134	0x3ccabec4	0.024749167
135	0xbd3e9747	-0.046530988
136	0x3cab7f69	0.020934777
137	0xbe406fef	-0.187927
138	0x3ccf72b6	0.025323253
139	0x3de4266c	0.11140141
140	0xbd4f0400	-0.050540924
141	0x3d160a6a	0.036631025
142	0xbd272e1c	-0.040815458
143	0xbb165765	-0.0022940275
144	0x3d3a6ffc	0.045516953
145	0xbd99e297	-0.07513922
146	0xbc80f3af	-0.015741197
147	0x3d6d6bd2	0.057964154
148	0xbd07e038	-0.033172816
149	0xbdf1a93f	-0.11799859
150	0xbd2e94f6	-0.04262253
151	0xbd8f3ba0	-0.069937944
152	0x3e11ae1d	0.14226575
153	0x3c143d56	0.009047827
154	0x3e0b0e3c	0.13579649
155	0xbdef02c4	-0.116704494
156	0xbd167c5d	-0.036739696
157	0xbb56aae7	-0.0032755674
158	0xbe05a7ba	-0.13052264
159	0xbe36f600	-0.17867279
160	0xbc47d448	-0.012196608
161	0x3defb292	0.117039815
162	0xbdf3109c	-0.11868402
163	0xbd63db44	-0.05562903
164	0xbd5b9360	-0.053607345
165	0xbd27c6d1	-0.04096109
166	0xbdf26549	-0.11835725
167	0xbca8bd3e	-0.02059805
168	0x3c31a443	0.010842386
169	0x3ca42c76	0.020040732
170	0x3d584d84	0.0528083
171	0xbd1c839c	-0.03821145
172	0x3ca397fa	0.019969929
173	0x3d6ea0cf	0.058258828
174	0x3cc0341e	0.023462351
175	0xbcb2966d	-0.021800244
176	0x3c9cec26	0.019155573
177	0x3dfdedfd	0.12398908
178	0x3cc5ccd1	0.024145516
179	0x3b450ec4	0.0030068615
180	0xbc670f36	-0.014102748
181	0x3dd09438	0.101845205
182	0xbdc23e83	-0.094845794
183	0xbcfcdf2d	-0.030868137
184	0x3d86ebf6	0.06587975
185	0x3d2a783d	0.041618574
186	0xbd7213c3	-0.059100877
187	0xbd7cfbc5	-0.061763544
188	0x3e3039f2	0.17209604
189	0x3b7c8bbc	0.0038535437
190	0xbdfd7669	-0.123761006
191	0xbd9318b0	-0.07182443
192	0x3d6621d9	0.056184623
193	0xbcc72dac	-0.02431377
194	0xbd97c892	-0.074113026
195	0x3df0e5d2	0.11762585
196	0xbcc72885	-0.024311313
197	0x3d392f4f	0.045211133
198	0x3dc601d4	0.096683174
199	0xbd82f14a	-0.063936785
200	0x3ce8c2b9	0.028413163
201	0x3bb150ac	0.005411228
202	0xbdb081af	-0.08618485
203	0xbda7cd14	-0.081934124
204	0x3d5aaa6b	0.05338518
205	0x3d7b027a	0.06128166
206	0x3da05b28	0.07829887
207	0xbc93f263	-0.018059915
208	0xbcaeb3db	-0.021325996
209	0xbdaf8ea0	-0.085721254
210	0xbd5955a3	-0.053060185
211	0x3dd0dbb9	0.10198159
212	0x3e03cd9e	0.12871405
213	0x3c9f3825	0.019435951
214	0x3c9b708b	0.018974563
215	0x3ddd14cf	0.107949845
216	0x3d024859	0.031807277
217	0x3b9bd5a1	0.004755691
218	0xbd5b8cd4	-0.0536011
219	0xbd02241b	-0.031772714
220	0x3d64dda5	0.05587544
221	0x3e065e80	0.13121986
222	0x3d27290c	0.04081063
223	0xbe2769df	-0.1634898
224	0xbd32f042	-0.04368616
225	0xbd9bce77	-0.076077394
226	0xbd814376	-0.06311695
227	0x3d5bb68f	0.0536409
228	0x3d27d635	0.040975768
229	0x3cafee62	0.021475974
230	0xbd96d36d	-0.07364545
231	0xbd1c13de	-0.038104884
232	0xbdc457cc	-0.095870584
233	0x3d88ac27	0.066734605
234	0xbceb62e3	-0.028733676
235	0x3ce89423	0.02839095
236	0xbb2f857d	-0.0026782446
237	0x3b04611e	0.0020199488
238	0xbdaf748e	-0.08567153
239	0x3d8dc8b2	0.06923045
240	0xbd2b52eb	-0.041827124
241	0x3ce34f56	0.027747791
242	0xbd87eea2	-0.066373125
243	0x3bbd5f54	0.0057791863
244	0xbde248fe	-0.110490784
245	0x3d59f82e	0.0532152
246	0xbdca9024	-0.09890774
247	0xbb9548b1	-0.0045557846
248	0x3df0d23f	0.11758851
249	0x3de4c15e	0.11169694
250	0xbdfc6dd6	-0.12325637
251	0xbdc48147	-0.0959497
252	0xbdf2f0de	-0.11862348
253	0xbe518487	-0.20460711
254	0x3dddd6b6	0.108319685
255	0x3e037aae	0.12839767

network_body._body_endoder.seq_layers.2.bias f4 [128]
0	0x00000000	0.0
1	0x00000000	0.0
2	0x00000000	0.0
3	0x00000000	0.0
4	0x00000000	0.0
5	0x00000000	0.0
6	0x00000000	0.0
7	0x00000000	0.0
8	0x00000000	0.0
9	0x00000000	0.0
10	0x00000000	0.0
11	0x00000000	0.0
12	0x00000000	0.0
13	0x00000000	0.0
14	0x00000000	0.0
15	0x00000000	0.0
16	0x00000000	0.0
17	0x00000000	0.0
18	0x00000000	0.0
19	0x00000000	0.0
20	0x00000000	0.0
21	0x00000000	0.0
22	0x00000000	0.0
23	0x00000000	0.0
24	0x00000000	0.0
25	0x00000000	0.0
26	0x00000000	0.0
27	0x00000000	0.0
28	0x00000000	0.0
29	0x00000000	0.0
30	0x00000000	0.0
31	0x00000000	0.0
32	0x00000000	0.0
33	0x00000000	0.0
34	0x00000000	0.0
35	0x00000000	0.0
36	0x00000000	0.0
37	0x00000000	0.0
38	0x00000000	0.0
39	0x00000000	0.0
40	0x00000000	0.0
41	0x00000000	0.0
42	0x00000000	0.0
43	0x00000000	0.0
44	0x00000000	0.0
45	0x00000000	0.0
46	0x00000000	0.0
47	0x00000000	0.0
48	0x00000000	0.0
49	0x00000000	0.0
50	0x00000000	0.0
51	0x00000000	0.0
52	0x00000000	0.0
53	0x00000000	0.0
54	0x00000000	0.0
55	0x00000000	0.0
56	0x00000000	0.0
57	0x00000000	0.0
58	0x00000000	0.0
59	0x00000000	0.0
60	0x00000000	0.0
61	0x00000000	0.0
62	0x00000000	0.0
63	0x00000000	0.0
64	0x00000000	0.0
65	0x00000000	0.0
66	0x00000000	0.0
67	0x00000000	0.0
68	0x00000000	0.0
69	0x00000000	0.0
70	0x00000000	0.0
71	0x00000000	0.0
72	0x00000000	0.0
73	0x00000000	0.0
74	0x00000000	0.0
75	0x00000000	0.0
76	0x00000000	0.0
77	0x00000000	0.0
78	0x00000000	0.0
79	0x00000000	0.0
80	0x00000000	0.0
81	0x00000000	0.0
82	0x00000000	0.0
83	0x00000000	0.0
84	0x00000000	0.0
85	0x00000000	0.0
86	0x00000000	0.0
87	0x00000000	0.0
88	0x00000000	0.0
89	0x00000000	0.0
90	0x00000000	0.0
91	0x00000000	0.0
92	0x00000000	0.0
93	0x00000000	0.0
94	0x00000000	0.0
95	0x00000000	0.0
96	0x00000000	0.0
97	0x00000000	0.0
98	0x00000000	0.0
99	0x00000000	0.0
100	0x00000000	0.0
101	0x00000000	0.0
102	0x00000000	0.0
103	0x00000000	0.0
104	0x00000000	0.0
105	0x00000000	0.0
106	0x00000000	0.0
107	0x00000000	0.0
108	0x00000000	0.0
109	0x00000000	0.0
110	0x00000000	0.0
111	0x00000000	0.0
112	0x00000000	0.0
113	0x00000000	0.0
114	0x00000000	0.0
115	0x00000000	0.0
116	0x00000000	0.0
117	0x00000000	0.0
118	0x00000000	0.0
119	0x00000000	0.0
120	0x00000000	0.0
121	0x00000000	0.0
122	0x00000000	0.0
123	0x00000000	0.0
124	0x00000000	0.0
125	0x00000000	0.0
126	0x00000000	0.0
127	0x00000000	0.0

value_heads.value_heads.extrinsic.weight f4 [1, 128]
0	0x3e1666b8	0.14687622
1	0xbdb02632	-0.08601035
2	0x3dbbe950	0.0917536
3	0xbd26027c	-0.040529713
4	0xbe554077	-0.20825373
5	0xbe0356c4	-0.12826067
6	0xbe19262e	-0.1495597
7	0x3e349020	0.17633104
8	0x3de0f8d8	0.10984963
9	0x3e361a4a	0.17783466
10	0xbdcb94f8	-0.09940523
11	0xbe0f554a	-0.13997379
12	0x3d88757c	0.06663033
13	0xbe185509	-0.14876188
14	0xbddffbf5	-0.10936729
15	0xbd10e9cc	-0.035379216
16	0xbe338b9e	-0.17533728
17	0xbe0a5788	-0.13509953
18	0xbe065599	-0.1311859
19	0xbe1386d8	-0.14406908
20	0xbe55a2a2	-0.2086282
21	0xbdec8e78	-0.11550611
22	0x3e4e4ed4	0.20147258
23	0x3dce1050	0.10061705
24	0x3db2be74	0.08727732
25	0x3d4ea418	0.05044946
26	0xbe475882	-0.19467357
27	0xbb5b1900	-0.003343165
28	0x3e57f22c	0.21088475
29	0xbe3a7aa6	-0.18210849
30	0x3e4b9c18	0.19883764
31	0xbe3656e6	-0.17806587
32	0xbd895a9c	-0.067067355
33	0xbd98b95c	-0.074572295
34	0x3d895620	0.0670588
35	0xbdf5c31d	-0.120001055
36	0x3e053de0	0.13011885
37	0xbdd4f4ef	-0.1039828
38	0xbb575580	-0.0032857358
39	0x3e1ac14e	0.15112802
40	0xbdb5e654	-0.08881822
41	0x3db397c4	0.08769181
42	0xbe532b4e	-0.20621988
43	0xbd744fb0	-0.05964631
44	0x3dcbde90	0.0995456
45	0x3dadf880	0.08494663
46	0x3d21a560	0.039464355
47	0xbd8d1552	-0.06888832
48	0x3e03a62c	0.12856358
49	0x3df2669c	0.118359774
50	0xbdc82c47	-0.0977407
51	0xbd317eb0	-0.04333371
52	0x3dfec62c	0.12440142
53	0x3e5a2f0a	0.21307006
54	0x3deeaeb0	0.11654413
55	0x3cdf9a60	0.027295291
56	0x3dc75a28	0.09733993
57	0x3e2d6584	0.16933256
58	0x3da534a4	0.08066681
59	0xbe20ca61	-0.15702201
60	0xbce19188	-0.027535215
61	0x3e2cb70c	0.16866702
62	0xbe55e70f	-0.20888923
63	0xbd4ebd98	-0.05047378
64	0x3ca4ad60	0.020102203
65	0xbe211ef2	-0.15734461
66	0xbe286db9	-0.16448106
67	0x3dd00c84	0.10158637
68	0x3da9b7d8	0.082870185
69	0xbe2a0648	-0.16603959
70	0xbe27a9c9	-0.16373362
71	0x3e52b706	0.2057763
72	0xbc9badc0	-0.019003749
73	0x3d5e79f8	0.054315537
74	0x3e40b66a	0.18819585
75	0x3d8a3f40	0.06750345
76	0x3d3ef668	0.04662171
77	0x3cd45dc8	0.025923625
78	0x3d4fef88	0.050765544
79	0x3e3dc6fc	0.18532938
80	0xbd2ab4e8	-0.041676432
81	0xbdf1dd6b	-0.1180981
82	0x3dfcf9b4	0.123523146
83	0x3d247670	0.040152013
84	0xbd6e7b80	-0.058223248
85	0x3d2f4fe8	0.042800814
86	0xbe371b52	-0.17881516
87	0xbe3e0605	-0.18556984
88	0x3e45dd40	0.19322681
89	0x3e28afe8	0.16473353
90	0x3c9aabd0	0.018880755
91	0x3e35540c	0.17707843
92	0x3d5395c0	0.051656485
93	0xbbd097a0	-0.0063657314
94	0xbdd1fbd0	-0.102531075
95	0x3de0dc8c	0.10979566
96	0x3d5df960	0.0541929
97	0x3bbfcbc0	0.0058531463
98	0x3d4c8058	0.049927086
99	0xbdeda9b4	-0.11604634
100	0xbd5a81d8	-0.053346485
101	0x3e2a5e08	0.16637433
102	0xb8fb5800	-0.00011985004
103	0x3e00a3e2	0.12562516
104	0x3cf9bd20	0.03048569
105	0xbe2ae59e	-0.16689155
106	0x3e0b5ad4	0.13608867
107	0xbc7dc8a0	-0.015489727
108	0xbe37a5db	-0.17934363
109	0xb9933400	-0.00028076768
110	0xbda75b12	-0.08171667
111	0x3d0a2788	0.033729106
112	0xbe4cd46a	-0.20002905
113	0xbd064320	-0.03277886
114	0xbdb1d468	-0.086830914
115	0x3e2cd2a2	0.16877225
116	0x3da617e0	0.081100225
117	0x3e379416	0.17927584
118	0x3defd94c	0.11711368
119	0xbe22a2fa	-0.15882483
120	0x3e329118	0.17438161
121	0x3d615e90	0.055021822
122	0x3d781ac8	0.060572416
123	0x3e380fce	0.17974779
124	0x3d8a40ac	0.067506164
125	0xbe1745ca	-0.14772716
126	0xbe2b534e	-0.16730997
127	0xbe2f44ec	-0.17116135
