results/ppo/My Behavior/My Behavior-8000.onnx (onnx, 69559 bytes, 5 tensors)

action_model._continuous_distribution.mu.weight f4 [1, 128]
-0.01623672 -0.021460924 0.027602142 -0.0102444785 -0.017329294 0.031018663 0.012414396 -0.0009170386
-0.01868019 0.021679336 -0.018103195 0.004920024 0.0062890737 -0.012279737 0.013350193 0.01205262
-0.0077074403 0.019662917 -0.020345828 0.012121818 -0.011607475 0.03071875 0.006177084 -0.00738679
-0.0042234235 -0.049551383 0.031153066 -0.001986894 0.007988083 -0.03799629 -0.009243119 0.010923467
-0.011412647 -0.031639066 0.005524325 -0.012502198 0.0073460336 0.0065805255 0.026376694 0.014943877
1.0444875e-05 -0.032324612 0.023701943 0.01301862 0.0013272297 -0.008531716 0.007334436 0.030519033
0.0317367 0.015122503 0.016560806 0.036179412 -0.036035944 -0.0033462073 0.01982489 0.012475833
0.030270735 0.0071996087 -0.008550803 -0.0031208529 0.026629508 0.011345219 0.01943613 -0.0022850195
-0.024703937 -0.022288062 -0.0033087682 -0.00839607 -0.002694941 -0.015607257 -0.014038594 0.0029894025
0.0057103466 -0.021366201 -0.0010201858 0.0063357116 0.0059975698 -0.0046194685 -0.009337036 0.020689452
-0.007461734 -0.028438753 -0.020638801 -0.015168371 -0.004813871 -0.018845681 -0.012816422 -0.015423715
0.0042459643 0.0008772838 -0.014988737 -0.0005407007 0.0057877465 0.029322578 -0.0013844472 0.0024598646
-0.01471722 -0.0044743433 0.024678076 -0.020855946 0.025314674 -0.0035719485 0.02450626 -0.0033001692
-0.0029564828 0.03281274 -0.011927318 0.034887742 -0.02062547 -0.01708843 0.024120018 -0.015400675
-0.022244167 -0.0046221702 0.012954875 0.0105835525 0.010970936 0.008137106 -0.004548324 0.011786703
0.001602182 0.0032268562 0.014505503 -0.011447431 0.001872105 0.016850725 0.036052357 0.009399655
00000000: df02 85bc d2ce afbc e31d e23c 75d8 27bc
00000010: 2af6 8dbc da1a fe3c c065 4b3c 6b65 70ba
00000020: 3307 99bc dd98 b13c 274d 94bc 2738 a13b
00000030: 9314 ce3b f330 49bc c5ba 5a3c 5a78 453c
00000040: b28e fcbb 2014 a13c 4bac a6bc 979a 463c
00000050: 472d 3ebc e3a5 fb3c 2369 ca3b e30c f2bb
00000060: a564 8abb 64f6 4abd b734 ff3c 8d36 02bb
00000070: 73e0 023c ffa1 1bbd 7370 17bc 57f8 323c
00000080: 1cfc 3abc f797 01bd 6605 b53b 05d6 4cbc
00000090: ffb6 f03b 73a1 d73b f013 d83c 2ad7 743c
000000a0: 663c 2f37 d066 04bd 942a c23c 0d4c 553c
000000b0: 70f6 ad3a 9cc8 0bbc b555 f03b 0d03 fa3c
000000c0: 58fe 013d 60c4 773c 87aa 873c dd30 143d
000000d0: 6d9a 13bd 0b4c 5bbb cf67 a23c 7067 4c3c
000000e0: 55fa f73c b2ea eb3b ab18 0cbc 3987 4cbb
000000f0: 2026 da3c 4ce1 393c 8538 9f3c 44c0 15bb
00000100: e95f cabc 7495 b6bc ebd7 58bb ac8f 09bc
00000110: 9b9d 30bb 95b5 7fbc 2202 66bc dae9 433b
00000120: dc1d bb3b 2c08 afbc c1b7 85ba cd9b cf3b
00000130: 4387 c43b e95e 97bb 5efa 18bc ed7c a93c
00000140: 9081 f4bb 63f8 e8bc b412 a9bc c284 78bc
00000150: adbd 9dbb 4262 9abc f8fb 51bc c0b3 7cbc
00000160: bb21 8b3b 85f9 653a 5293 75bc cfbd 0dba
00000170: 23a7 bd3b e735 f03c 5776 b5ba ae35 213b
00000180: 7f20 71bc 839d 92bb ad29 ca3c 17da aabc
00000190: b860 cf3c 5a17 6abb 5ac1 c83c a747 58bb
000001a0: 8dc1 41bb a766 063d cc6a 43bc 73e6 0e3d
000001b0: bff6 a8bc 09fd 8bbc 5897 c53c 1d53 7cbc
000001c0: 6639 b6bc 9375 97bb af40 543c a366 2d3c
000001d0: 71bf 333c 7f51 053c 1b0a 95bb 041d 413c
000001e0: 4f00 d23a aa79 533b 7da8 6d3c 018e 3bbc
000001f0: 6b61 f53a 880a 8a3c a3ab 133d 0301 1a3c

network_body._body_endoder.seq_layers.0.bias f4 [128]
0.0 0.0 0.0 0.0 0.0 0.0 0.0 0.0
0.0 0.0 0.0 0.0 0.0 0.0 0.0 0.0
0.0 0.0 0.0 0.0 0.0 0.0 0.0 0.0
0.0 0.0 0.0 0.0 0.0 0.0 0.0 0.0
0.0 0.0 0.0 0.0 0.0 0.0 0.0 0.0
0.0 0.0 0.0 0.0 0.0 0.0 0.0 0.0
0.0 0.0 0.0 0.0 0.0 0.0 0.0 0.0
0.0 0.0 0.0 0.0 0.0 0.0 0.0 0.0
0.0 0.0 0.0 0.0 0.0 0.0 0.0 0.0
0.0 0.0 0.0 0.0 0.0 0.0 0.0 0.0
0.0 0.0 0.0 0.0 0.0 0.0 0.0 0.0
0.0 0.0 0.0 0.0 0.0 0.0 0.0 0.0
0.0 0.0 0.0 0.0 0.0 0.0 0.0 0.0
0.0 0.0 0.0 0.0 0.0 0.0 0.0 0.0
0.0 0.0 0.0 0.0 0.0 0.0 0.0 0.0
0.0 0.0 0.0 0.0 0.0 0.0 0.0 0.0
00000000: 0000 0000 0000 0000 0000 0000 0000 0000
00000010: 0000 0000 0000 0000 0000 0000 0000 0000
00000020: 0000 0000 0000 0000 0000 0000 0000 0000
00000030: 0000 0000 0000 0000 0000 0000 0000 0000
00000040: 0000 0000 0000 0000 0000 0000 0000 0000
00000050: 0000 0000 0000 0000 0000 0000 0000 0000
00000060: 0000 0000 0000 0000 0000 0000 0000 0000
00000070: 0000 0000 0000 0000 0000 0000 0000 0000
00000080: 0000 0000 0000 0000 0000 0000 0000 0000
00000090: 0000 0000 0000 0000 0000 0000 0000 0000
000000a0: 0000 0000 0000 0000 0000 0000 0000 0000
000000b0: 0000 0000 0000 0000 0000 0000 0000 0000
000000c0: 0000 0000 0000 0000 0000 0000 0000 0000
000000d0: 0000 0000 0000 0000 0000 0000 0000 0000
000000e0: 0000 0000 0000 0000 0000 0000 0000 0000
000000f0: 0000 0000 0000 0000 0000 0000 0000 0000
00000100: 0000 0000 0000 0000 0000 0000 0000 0000
00000110: 0000 0000 0000 0000 0000 0000 0000 0000
00000120: 0000 0000 0000 0000 0000 0000 0000 0000
00000130: 0000 0000 0000 0000 0000 0000 0000 0000
00000140: 0000 0000 0000 0000 0000 0000 0000 0000
00000150: 0000 0000 0000 0000 0000 0000 0000 0000
00000160: 0000 0000 0000 0000 0000 0000 0000 0000
00000170: 0000 0000 0000 0000 0000 0000 0000 0000
00000180: 0000 0000 0000 0000 0000 0000 0000 0000
00000190: 0000 0000 0000 0000 0000 0000 0000 0000
000001a0: 0000 0000 0000 0000 0000 0000 0000 0000
000001b0: 0000 0000 0000 0000 0000 0000 0000 0000
000001c0: 0000 0000 0000 0000 0000 0000 0000 0000
000001d0: 0000 0000 0000 0000 0000 0000 0000 0000
000001e0: 0000 0000 0000 0000 0000 0000 0000 0000
000001f0: 0000 0000 0000 0000 0000 0000 0000 0000

network_body._body_endoder.seq_layers.0.weight f4 [128, 1]
-0.78124386 -0.15435912 -0.3508621 0.66903263 0.92713505 1.9179815 0.33881503 0.90869105
1.1719415 1.1754991 0.17479447 -0.5159677 0.027253395 -0.7907941 1.8675034 -1.2742648
-1.2266032 0.05343199 0.6862238 -0.9769643 -1.3141003 -0.4719912 -0.59332037 0.46847415
0.13367082 1.7501748 -1.2937523 -1.7073759 -0.49229097 0.54827726 -0.18847074 -0.94249153
-1.4529686 -0.012609033 -0.8903533 -2.0498755 -0.8640908 -0.31814376 1.8022684 -0.982723
0.11745792 -0.24012725 -0.6152319 -1.5951425 0.9859179 0.12421172 -1.3997732 0.51592153
0.12428952 1.2799286 0.3907386 -1.041993 -0.8442666 0.46518096 0.39795014 2.3019648
0.49391112 -0.13047649 0.94287115 -0.4221536 0.9293683 1.644186 0.09450651 0.7559836
0.54857683 -1.5599401 -0.6116053 1.9863935 -0.89215183 1.0270162 0.60988736 0.55972356
1.3449619 0.12389969 -0.6745349 -0.38098255 -0.71310234 -0.40542057 -1.6483407 0.5255402
-0.041786127 0.70871264 -1.5098552 -1.1960235 0.5877029 -0.3751499 0.66479 -0.314684
1.315656 1.4874654 -0.5940756 1.840577 -0.9829926 0.02975685 0.053970747 -0.79411143
-0.50265956 2.0798264 2.1694593 -0.18118691 0.739847 -0.08226769 -0.13748083 0.056821488
-0.05925254 -0.81933093 -1.8419467 0.25405312 -1.0817349 0.63176787 -0.026469206 2.326302
0.32423726 0.5834722 -1.0233748 -1.5651807 -0.19167459 1.9415148 1.734239 0.15811706
-1.0861522 -1.096428 -0.1486907 -0.58088845 0.22542702 0.6143507 -1.6528633 -0.9822507
00000000: 99ff 47bf 5110 1ebe 32a4 b3be b945 2b3f
00000010: b958 6d3f 6b80 f53f 2a79 ad3e fa9f 683f
00000020: 2e02 963f c176 963f 52fd 323e 7616 04bf
00000030: 8342 df3c 7b71 4abf 5a0a ef3f 1c1b a3bf
00000040: 5501 9dbf 81db 5a3d 5dac 2f3f 551a 7abf
00000050: 7034 a8bf d5a8 f1be d8e3 17bf d8db ef3e
00000060: 01e1 083e ba05 e03f ad99 a5bf 4b8b dabf
00000070: 900d fcbe e65b 0c3f 79fe 40be 2047 71bf
00000080: e0fa b9bf 1e96 4ebc 32ee 63bf 2931 03c0
00000090: 0e35 5dbf bde3 a2be bbb0 e63f bc93 7bbf
000000a0: c78d f03d ebe3 75be d67f 1dbf a12d ccbf
000000b0: 1e65 7c3f b762 fe3d c52b b3bf 6f13 043f
000000c0: 818b fe3d b3d4 a33f e40e c83e 0760 85bf
000000d0: db21 58bf 332c ee3e 1fc0 cb3e 6453 1340
000000e0: ebe1 fc3e a19b 05be 0160 713f 8424 d8be
000000f0: 15eb 6d3f b074 d23f a18c c13d 2488 413f
00000100: 886f 0c3f 1eac c7bf 2a92 1cbf 2442 fe3f
00000110: 1064 64bf 4475 833f 9421 1c3f 0b4a 0f3f
00000120: b627 ac3f 1fbf fd3d 52ae 2cbf 2510 c3be
00000130: e08d 36bf 4993 cfbe d4fc d2bf cd89 063f
00000140: ee27 2bbd 316e 353f ef42 c1bf 4c17 99bf
00000150: b273 163f a613 c0be ad2f 2a3f 431e a1be
00000160: 6a67 a83f 4465 be3f 5715 18bf 0798 eb3f
00000170: 67a5 7bbf a3c4 f33c 6e10 5d3d e34a 4bbf
00000180: 4cae 00bf e01b 0540 6cd8 0a40 1089 39be
00000190: 9d66 3d3f f67b a8bd c6c7 0cbe a6bd 683d
000001a0: cbb2 72bd acbf 51bf e9c4 ebbf 4013 823e
000001b0: 4a76 8abf 8abb 213f f3d5 d8bc 22e2 1440
000001c0: 6d02 a63e 6f5e 153f f2fd 82bf d757 c8bf
000001d0: 5846 44be 8f83 f83f 8bfb dd3f 70e9 213e
000001e0: 0907 8bbf c157 8cbf 6042 18be 1bb5 14bf
000001f0: 57d6 663e 1646 1d3f 0691 d3bf c874 7bbf

network_body._body_endoder.seq_layers.2.bias f4 [128]
0.0 0.0 0.0 0.0 0.0 0.0 0.0 0.0
0.0 0.0 0.0 0.0 0.0 0.0 0.0 0.0
0.0 0.0 0.0 0.0 0.0 0.0 0.0 0.0
0.0 0.0 0.0 0.0 0.0 0.0 0.0 0.0
0.0 0.0 0.0 0.0 0.0 0.0 0.0 0.0
0.0 0.0 0.0 0.0 0.0 0.0 0.0 0.0
0.0 0.0 0.0 0.0 0.0 0.0 0.0 0.0
0.0 0.0 0.0 0.0 0.0 0.0 0.0 0.0
0.0 0.0 0.0 0.0 0.0 0.0 0.0 0.0
0.0 0.0 0.0 0.0 0.0 0.0 0.0 0.0
0.0 0.0 0.0 0.0 0.0 0.0 0.0 0.0
0.0 0.0 0.0 0.0 0.0 0.0 0.0 0.0
0.0 0.0 0.0 0.0 0.0 0.0 0.0 0.0
0.0 0.0 0.0 0.0 0.0 0.0 0.0 0.0
0.0 0.0 0.0 0.0 0.0 0.0 0.0 0.0
0.0 0.0 0.0 0.0 0.0 0.0 0.0 0.0
00000000: 0000 0000 0000 0000 0000 0000 0000 0000
00000010: 0000 0000 0000 0000 0000 0000 0000 0000
00000020: 0000 0000 0000 0000 0000 0000 0000 0000
00000030: 0000 0000 0000 0000 0000 0000 0000 0000
00000040: 0000 0000 0000 0000 0000 0000 0000 0000
00000050: 0000 0000 0000 0000 0000 0000 0000 0000
00000060: 0000 0000 0000 0000 0000 0000 0000 0000
00000070: 0000 0000 0000 0000 0000 0000 0000 0000
00000080: 0000 0000 0000 0000 0000 0000 0000 0000
00000090: 0000 0000 0000 0000 0000 0000 0000 0000
000000a0: 0000 0000 0000 0000 0000 0000 0000 0000
000000b0: 0000 0000 0000 0000 0000 0000 0000 0000
000000c0: 0000 0000 0000 0000 0000 0000 0000 0000
000000d0: 0000 0000 0000 0000 0000 0000 0000 0000
000000e0: 0000 0000 0000 0000 0000 0000 0000 0000
000000f0: 0000 0000 0000 0000 0000 0000 0000 0000
00000100: 0000 0000 0000 0000 0000 0000 0000 0000
00000110: 0000 0000 0000 0000 0000 0000 0000 0000
00000120: 0000 0000 0000 0000 0000 0000 0000 0000
00000130: 0000 0000 0000 0000 0000 0000 0000 0000
00000140: 0000 0000 0000 0000 0000 0000 0000 0000
00000150: 0000 0000 0000 0000 0000 0000 0000 0000
00000160: 0000 0000 0000 0000 0000 0000 0000 0000
00000170: 0000 0000 0000 0000 0000 0000 0000 0000
00000180: 0000 0000 0000 0000 0000 0000 0000 0000
00000190: 0000 0000 0000 0000 0000 0000 0000 0000
000001a0: 0000 0000 0000 0000 0000 0000 0000 0000
000001b0: 0000 0000 0000 0000 0000 0000 0000 0000
000001c0: 0000 0000 0000 0000 0000 0000 0000 0000
000001d0: 0000 0000 0000 0000 0000 0000 0000 0000
000001e0: 0000 0000 0000 0000 0000 0000 0000 0000
000001f0: 0000 0000 0000 0000 0000 0000 0000 0000

network_body._body_endoder.seq_layers.2.weight f4 [128, 128]
0.110171184 0.011455596 0.050507523 -0.07688093 -0.03966024 -0.08858959 0.108083084 0.21048793
0.037243567 -0.03758803 -0.17069805 0.042794846 0.15270461 0.0031364365 -0.12274553 -0.08141652
0.041176617 -0.099297985 -0.020030223 0.08798836 -0.13660234 -0.057625763 0.21638606 0.08871982
-0.08311919 -0.023407456 -0.04811602 -0.12942587 0.037233617 0.028980047 0.09033951 -0.029629586
-0.00959858 -0.061701342 -0.015417028 0.12380245 0.017724728 0.06890564 -0.12789717 -0.001618966
-0.062841475 -0.0065403 0.27530733 -0.035963453 -0.049470127 -0.104999326 -0.08215774 0.049017612
0.048110984 0.032591034 -0.07950727 -0.026724197 -0.07041144 -0.0741861 -0.19381474 0.043112762
-0.16998963 0.05983508 -0.074579634 0.090690196 0.032761488 0.015173988 -0.030533776 0.025418852
0.08076803 0.015749712 0.1511781 0.07086554 0.106026836 -0.18650845 0.015057994 -0.011932712
-0.064019956 -0.083616436 -0.014102166 -0.08922469 -0.060526434 0.098981574 0.0062569096 0.16422036
0.13375182 0.07477806 0.018614275 -0.054428723 -1.394655e-05 -0.02240126 -0.031837143 -0.086198024
0.021124579 0.01739611 0.04653587 0.00019876206 0.054583345 0.21325985 -0.16658705 0.010644617
-0.007450701 -0.18336113 0.02435878 0.09602932 0.042651482 0.18476221 0.043047257 0.034184977
-0.111089766 0.050852433 0.05498882 0.01898028 0.101271436 -0.025841136 -0.053429067 0.15357247
0.0520651 0.001922456 0.07397292 0.11112332 0.24816978 0.09879726 0.002402487 0.065903835
-0.037364475 0.060348663 -0.11519073 -0.06632725 -0.09756414 0.042626977 0.09608017 0.025001304
-0.07127712 0.0041257334 -0.037695594 0.0029608924 -0.004478336 0.110449575 0.05741284 0.15041623
0.19519912 0.0021655234 0.029376565 -0.13665105 0.022814706 -0.08774432 0.032458764 0.091060095
0.050018493 0.20244893 0.014287701 -0.053935356 0.07217544 0.22888277 0.09717295 0.030284388
-0.12715453 0.094795205 0.078749016 -0.06621578 -0.08245708 -0.031850684 -0.0991989 -0.14371388
0.10365 -0.14979985 0.041932013 0.1681287 0.12473528 0.04016377 -0.098032735 0.0014615677
0.049507383 0.087772615 -0.18398334 -0.035836175 -0.07828258 0.084692955 0.0557806 -0.016813552
0.16455469 -0.1940229 -0.0011703792 -0.12329603 -0.09558203 0.03233912 -0.20326632 -0.06684836
-0.009564086 -0.18910728 0.08250757 0.052073263 -0.065167844 -0.016673116 -0.03142166 -0.09230135
-0.015207496 -0.052623358 -0.12434684 -0.10526983 0.044312812 0.055207018 -0.133524 0.087768875
0.16026293 0.063020065 0.03404804 0.14149727 0.05105516 0.009753807 0.074196056 0.026173124
0.020089533 -0.13608211 -0.037275005 -0.035396975 -0.027160775 -0.10929924 -0.081274636 0.0181693
0.13054219 0.013089606 0.08681026 0.00639132 -0.08102063 0.09932112 -0.032910366 0.10973906
0.065148436 0.017254284 0.12750493 -0.07461061 -0.13056111 -0.0035795995 -0.048241924 0.13584821
-0.06366618 0.10953989 -0.18531008 0.025186034 -0.10819288 0.03714035 -0.033816632 0.036202565
-0.042038247 0.059529588 -0.004582905 0.029742533 0.007931676 0.06540626 -0.030767066 -0.0035757804
0.016597025 0.074213594 -0.054304205 -0.0026058299 0.014748654 0.14264861 0.13341717 -0.17189871
00000000: 6ea1 e13d 41b0 3b3c fae0 4e3d c073 9dbd
00000010: c772 22bd 756e b5bd aa5a dd3d 268a 573e
00000020: b68c 183d e8f5 19bd 78cb 2ebe a649 2f3d
00000030: 995e 1c3e ac8c 4d3b 0262 fbbd b4bd a6bd
00000040: d0a8 283d be5c cbbd 6c16 a4bc 3e33 b43d
00000050: 7ce1 0bbe fe08 6cbd 4f94 5d3e bdb2 b53d
00000060: 653a aabd fec0 bfbc 4e15 45bd 3788 04be
00000070: 4782 183d 9067 ed3c ec03 b93d bfb9 f2bc
00000080: 5d43 1dbc 8cba 7cbd b497 7cbc 248c fd3d
00000090: 7333 913c 661e 8d3d 7af7 02be 7c33 d4ba
000000a0: 08b3 80bd 0350 d6bb 15f5 8c3e 6a4e 13bd
000000b0: 30a1 4abd e309 d7bd 5142 a8bd b1c6 483d
000000c0: 0610 453d 2d7e 053d b5d4 a2bd b4ec dabc
000000d0: e033 90bd e2ee 97bd 5f77 46be 0297 303d
000000e0: c311 2ebe a115 753d 35bd 98bd c8bb b93d
000000f0: e930 063d 529c 783c f821 fabc 323b d03c
00000100: b569 a53d 8a05 813c 6fce 1a3e f421 913d
00000110: 9924 d93d 12fc 3ebe ceb5 763c 6c81 43bc
00000120: e51c 83bd 183f abbd c50c 67bc 6fbb b6bd
00000130: 91ea 77bd dab6 ca3d c306 cd3b 6229 283e
00000140: 3df6 083e 3d25 993d f77c 983c a7f0 5ebd
00000150: fafb 69b7 d982 b7bc aa67 02bd 9788 b0bd
00000160: 740d ad3c 4982 8e3c 659c 3e3d c96a 5039
00000170: c992 5f3d ca60 5a3e cc95 2abe c266 2e3c
00000180: 0325 f4bb 05c3 3bbe 108c c73c 05ab c43d
00000190: 52b3 2e3d 4e32 3d3e 5252 303d 8c05 0c3d
000001a0: 0883 e3bd a44a 503d f53b 613d 887c 9b3c
000001b0: 6667 cf3d cab0 d3bc 70d8 5abd 1a42 1d3e
000001c0: 3742 553d ebfa fb3a 1d7f 973d a094 e33d
000001d0: 3820 7e3e 3856 ca3d 0b73 1d3b 97f8 863d
000001e0: 7e0b 19bd 2930 773d 1ee9 ebbd 95d6 87bd
000001f0: b5cf c7bd a099 2e3d aec5 c43d 89cf cc3c
00000200: bdf9 91bd 2931 873b b266 1abd 880b 423b
00000210: 01bf 92bb 6333 e23d ba29 6b3d b606 1a3e
00000220: 47e2 473e 74eb 0d3b 1fa7 f03c 41ee 0bbe
00000230: e8e5 ba3c 4bb3 b3bd 7bf3 043d b77d ba3d
00000240: 31e0 4c3d c64e 4f3e f616 6a3c 52eb 5cbd
00000250: b8d0 933d 3f60 6a3e 9d02 c73d f716 f83c
00000260: cc34 02be fd23 c23d 2a47 a13d 249c 87bd
00000270: 42df a8bd dd75 02bd cb28 cbbd bb29 13be
00000280: 7446 d43d 2265 19be e7c0 2b3d ee29 2c3e
00000290: 3675 ff3d c482 243d 63c5 c8bd 1392 bf3a
000002a0: 41c8 4a3d 21c2 b33d 2166 3cbe f4c8 12bd
000002b0: 9e52 a0bd 8073 ad3d 337a 643d 93bc 89bc
000002c0: 0681 283e f0ad 46be 6967 99ba a182 fcbd
000002d0: 83c0 c3bd 0676 043d 0c25 50be cbe7 88bd
000002e0: afb2 1cbc 57a5 41be bbf9 a83d c64a 553d
000002f0: b876 85bd 0f96 88bc 00b4 00bd 7d08 bdbd
00000300: dc28 79bc 978b 57bd 8ea9 febd b597 d7bd
00000310: 5a81 353d c120 623d 84ba 08be 2bc0 b33d
00000320: f71b 243e aa10 813d f575 0b3d a9e4 103e
00000330: 371f 513d 6fce 1f3c 1af4 973d 0569 d63c
00000340: ce92 a43c 1c59 0bbe adad 18bd 6bfc 10bd
00000350: 4680 debc 48d8 dfbd 5173 a6bd c9d7 943c
00000360: daac 053e c975 563c 94c9 b13d 476e d13b
00000370: 25ee a5bd df68 cb3d 05cd 06bd dfbe e03d
00000380: 8b6c 853d db58 8d3c a790 023e 73cd 98bd
00000390: d0b1 05be b797 6abb 5399 45bd cb1b 0b3e
000003a0: 6a63 82bd 7356 e03d edc1 3dbe f152 ce3c
000003b0: 3b94 ddbd 7b20 183d 4f83 0abd 2449 143d
000003c0: 4c30 2cbd 4cd5 733d 322c 96bb 9da6 f33c
000003d0: dcf3 013c b8f3 853d 370b fcbc a457 6abb
000003e0: 7cf6 873c 4cfd 973d 166e 5ebd 92c6 2abb
000003f0: 57a4 713c 7a12 123e 839e 083e 3706 30be
