results/ppo/My Behavior/My Behavior-245760.onnx (onnx, 270443 bytes, 12 tensors)

action_model._discrete_distribution.branches.0.bias f4 [2]
0.024996886 -0.024996882
00000000: 45c6 cc3c 43c6 ccbc

action_model._discrete_distribution.branches.0.weight f4 [2, 128]
0.004558832 -0.0072063818 -0.006943766 -0.018632514 0.0035124843 -0.013690178 -0.017051497 -0.0055848323
-0.00715906 0.0074726976 -0.0021674098 -0.00043436832 -0.00199115 -0.008131713 -0.0022809682 0.0025252653
-0.014021539 0.0041567003 0.032206062 0.007815888 0.0021211233 -0.0017772974 0.0040161647 0.009118472
-0.0067792493 0.026762718 -0.0030591923 -0.01158456 -0.0032936917 0.002276138 -0.004164715 -0.012857726
0.01032303 -0.003704255 0.0031843958 0.0041953884 -0.0010112975 -0.00067474635 0.00044286816 -0.002954245
-0.009682048 0.0015042552 0.00318878 0.008371013 -0.0015171743 -0.012000747 0.0051730443 -0.0017994493
0.0040295357 -0.0005339056 -0.008190311 -8.3451036e-05 -0.0072580446 -0.010702286 0.0015009062 -0.005142562
0.0055008596 0.0028125632 -0.02888176 0.0014153845 -0.004885765 -0.014131962 0.018692436 -0.017999878
-0.017458448 0.00013010387 -0.006507466 0.008301785 0.029480712 0.0021987238 -0.0010987436 0.021575695
-0.008896097 -0.003411284 -0.008320498 -0.012700927 -0.006032228 0.01570165 -0.011378129 0.0041714287
-0.007711442 -0.0034456628 0.00037004982 -0.004442165 0.002349769 -0.013543333 -0.013690821 0.007634533
-0.0013531524 0.007981952 -0.009359768 -0.002596993 -0.013612672 -0.008622477 -0.00040725595 -0.013223882
-0.0020800866 0.021864207 0.0031875372 -0.006870563 -0.0010621002 0.0026076809 -0.007994986 -0.003937382
-0.012526649 0.0042109475 -0.012582763 0.02183353 -0.016602274 0.0027167143 -0.0030236165 0.0032674705
0.0034016215 0.00041523323 -0.010779115 -0.0076427893 -0.0014012752 -0.003171216 0.002731755 -0.0071036415
0.006047356 0.0025564427 0.0034440183 -0.007410494 -0.00036982968 0.014550609 0.0347477 -0.008931541
0.000835266 -0.0056235 -0.012043217 -0.003353102 0.0055227485 0.0147970375 -0.012422199 -0.0033270149
0.00044448534 0.0009306481 -0.0014200028 0.0043349774 0.017856289 0.008209177 -0.002975284 0.00054557656
-0.013784729 0.00046100715 -0.01973637 0.004135679 0.0048435125 0.005170184 0.006233359 -0.011482326
-0.010540314 -0.04464948 -0.004367793 0.013949 0.0053671272 0.0025060822 0.001357541 0.0051216614
0.008893753 -0.00049686595 0.010891689 0.005731912 -0.0031266725 -0.004829762 0.0046609496 0.03006499
-0.013990751 0.009106903 0.007169819 0.009509063 -0.010968386 0.003640323 0.0038332287 -0.0040762858
0.008751637 -0.020476589 -0.012646184 0.006555837 -0.0083955275 -0.009228078 0.010644849 -0.0041553993
0.0011022156 -0.0032385783 -0.002509274 0.0024558431 0.003104241 -0.012191209 0.00023120457 -0.0024384067
0.015991744 -7.0308306e-05 -0.0042699855 0.00094021787 -0.03918994 0.008452576 -0.0030217804 -0.020589825
-0.008225733 -0.00016588508 0.001755798 0.008517457 -0.009670813 -0.01714728 0.007632888 0.0038900834
-0.012579657 -0.0063997353 -0.005626179 0.020295182 -0.005836611 -0.0044500967 -0.00045082925 0.0062785074
-0.0034729152 0.00809555 -0.01813289 -0.0006567742 0.006010213 -0.0057380223 0.0058017634 -0.0076477756
0.002698445 -0.011621187 0.0041102795 0.0033726336 0.014566325 -0.0027321982 0.00016600973 -0.001477891
0.009737404 0.003115698 -0.003000181 -0.030843565 -0.01302859 0.0072714146 0.0050808364 0.005100176
0.0044803126 -0.0013660733 0.010451679 0.00936263 0.008406939 0.0033781868 0.010135005 -0.016406525
-0.0007393698 -0.003677131 0.007315891 0.003349908 -0.017668836 0.02243365 -0.04124812 -0.009728108
00000000: 4162 953b 8323 ecbb 8888 e3bb 37a3 98bc
00000010: b531 663b c54c 60bc 95af 8bbc f800 b7bb
00000020: 8c96 eabb 88dd f43b 1a0b 0ebb eebb e3b9
00000030: f47d 02bb e03a 05bc 4c7c 15bb ec7e 253b
00000040: 99ba 65bc ee34 883b 81ea 033d 360e 003c
00000050: 8b02 0b3b 34f4 e8ba 089a 833b a565 153c
00000060: 7724 debb 7d3d db3c bb7c 48bb 2bcd 3dbc
00000070: fada 57bb 422b 153b 2978 88bb 36a9 52bc
00000080: ed21 293c 16c3 72bb 4cb1 503b 7879 893b
00000090: 838d 84ba 76e1 30ba c230 e839 029c 41bb
000000a0: 74a1 1ebc 6e2a c53a dafa 503b 9326 093c
000000b0: ecdb c6ba c89e 44bc a482 a93b 80db ebba
000000c0: 320a 843b ccf5 0bba a730 06bc 6f02 afb8
000000d0: e4d4 edbb a458 2fbc 0eba c43a f082 a8bb
000000e0: 8e40 b43b fb52 383b 7199 ecbc 6c84 b93a
000000f0: c418 a0bb bf89 67bc e120 993c 7b74 93bc
00000100: 0505 8fbc 7e6c 0839 953c d5bb 3604 083c
00000110: 8981 f13c 7718 103b b803 90ba 83bf b03c
00000120: efc0 11bc d98f 5fbb b352 08bc 8d17 50bc
00000130: ffa9 c5bb bfa0 803c 556b 3abc 7bb0 883b
00000140: 44b0 fcbb a1d0 61bb 3f03 c239 958f 91bb
00000150: 95fe 193b dbe4 5dbc 774f 60bc 1b2b fa3b
00000160: 435c b1ba bcc6 023c b659 19bc 5032 2abb
00000170: af07 5fbc 4a45 0dbc f884 d5b9 fba8 58bc
00000180: 1052 08bb 911c b33c 00e6 503b 7622 e1bb
00000190: 2b36 8bba a0e5 2a3b 67fd 02bc 2705 81bb
000001a0: 933c 4dbc fdfb 893b ef27 4ebc 3bdc b23c
000001b0: 7e01 88bc e70a 323b de27 46bb 0f23 563b
000001c0: bded 5e3b a9b3 d939 e39a 30bc 5d70 fabb
000001d0: feaa b7ba 2dd4 4fbb 3e07 333b aac5 e8bb
000001e0: e628 c63b fe89 273b 0ab5 613b bbd3 f2bb
000001f0: b3e5 c1b9 ad65 6e3c 9b53 0e3d 9955 12bc
00000200: c1f5 5a3a 5645 b8bb ea50 45bc b7bf 5bbb
00000210: 2cf8 b43b 466f 723c 7b86 4bbc 0c0a 5abb
00000220: d009 e939 bdf6 733a 631f baba 6d0c 8e3b
00000230: 5a47 923c c97f 063c fbfc 42bb 0605 0f3a
00000240: 58d9 61bc 55b3 f139 2bae a1bc 9784 873b
00000250: 54b6 9e3b a66a a93b 3541 cc3b 5e20 3cbc
00000260: 48b1 2cbc 60e2 36bd b41f 8fbb 598a 643c
00000270: bade af3b 153d 243b 84ef b13a 9cd3 a73b
00000280: 1bb7 113c 1c40 02ba 0e73 323c c3d2 bb3b
00000290: dce8 4cbb fb42 9ebb e1ba 983b db4a f63c
000002a0: 7639 65bc 1f35 153c cdf0 ea3b e7cb 1b3c
000002b0: bfb4 33bc 7c92 6e3b e836 7b3b 5d92 85bb
000002c0: 0763 0f3c 85be a7bc f131 4fbc 59d2 d63b
000002d0: 658d 09bc 5d31 17bc bc67 2e3c 042a 88bb
000002e0: 3878 903a 543e 54bb a272 24bb 36f2 203b
000002f0: 8670 4b3b a3bd 47bc 816f 7239 adcd 1fbb
00000300: 1e01 833c 7c72 93b8 3ceb 8bbb f478 763a
00000310: a185 20bd ac7c 0a3c 1009 46bb feab a8bc
00000320: 3ac5 06bc 70f1 2db9 ce22 e63a ce8c 0b3c
00000330: 5472 1ebc 7478 8cbc 4e1d fa3b c5f0 7e3b
00000340: e81a 4ebc dfb4 d1bb cf5b b8bb 1542 a63c
00000350: 0b41 bfbb 1ed2 91bb 475d ecb9 f0bb cd3b
00000360: d999 63bb 33a3 043c 6d8b 94bc 5f2b 2cba
00000370: 52f1 c43b 0506 bcbb b81c be3b 319a fabb
00000380: 65d8 303b cb66 3ebc 86af 863b 6707 5d3b
00000390: 98a7 6e3c ae0e 33bb e612 2e39 cbb5 c1ba
000003a0: a289 1f3c bd30 4c3b af9e 44bb a5ab fcbc
000003b0: de75 55bc 0c45 ee3b 257d a63b 611f a73b
000003c0: 96cf 923b d00d b3ba 853d 2b3c b765 193c
000003d0: 42bd 093c 9264 5d3b 4b0d 263c fa66 86bc
000003e0: 44d2 41ba 05fc 70bb 24ba ef3b 218a 5b3b
000003f0: 3cbe 90bc c6c6 b73c caf3 28bd a462 1fbc

network_body._body_endoder.seq_layers.0.bias f4 [128]
-0.0018660618 -0.013122269 -0.014002351 -0.026427653 -0.0036641886 0.019858364 -0.028193846 0.004227819
-0.03761478 0.0065773474 -0.006555437 -0.030462459 -0.016910693 0.007817998 -0.020245785 -0.032726116
-0.019922031 -0.0041304645 -0.012674527 -0.00852694 -0.026647585 -0.018755741 -0.004177037 -0.0069359713
-0.03303792 0.003416744 0.008535326 -0.010775178 -0.0064282217 0.01858636 -0.050803766 -0.011134775
0.0019331493 -0.03163668 -0.016819404 0.0019103996 -0.020874452 0.042767484 0.030016152 -0.020542817
-0.034452606 0.017949477 -0.03224221 -0.02114916 0.018637931 -0.010659357 0.0015491194 -0.009997291
-0.0040139807 0.0031087818 -0.0076142997 -0.0014339188 -0.013512322 -0.021238917 0.0034500202 -0.006741172
-0.014884463 -0.007059449 0.037068736 -0.011589122 -0.0011767425 -0.030304652 -0.035091974 0.0008651256
-0.0129854 -0.020490156 -0.018029159 -0.037614264 -0.016632289 -0.0004819439 -0.03653554 0.012415336
-0.036418606 0.0029344796 -0.011177061 -0.05398678 -0.009741271 -0.04449555 0.01434019 -0.03457165
-0.0057548075 0.022614796 -0.012542434 -0.05744386 0.02513245 -0.026717072 -0.054589525 -0.03170861
-0.051131003 -0.02993637 -0.0101457555 -0.020428106 0.0068767746 0.002093759 -0.013582402 -0.023416076
-0.0059576705 -0.012599747 -0.019836338 -0.02821227 -0.017680835 -0.02093162 0.028149163 -0.013704439
-0.024178326 -0.012239842 -0.036632217 -0.016962105 0.0106102135 0.019154634 -0.02635085 -0.033941746
-0.003728897 -0.014103757 -0.0509877 -0.0047236383 -0.06417579 0.0009445272 -0.009799229 -0.012778894
-0.038097568 -0.037092276 -0.010266063 -0.0024371238 -0.02534856 -0.021428274 -0.04247414 -0.017340409
00000000: a596 f4ba c9fe 56bc 1e6a 65bc ce7e d8bc
00000010: e222 70bb 02ae a23c c8f6 e6bc 8489 8a3b
00000020: f511 1abd ca86 d73b fece d6bb 688c f9bc
00000030: 4b88 8abc 0f17 003c 7dda a5bc d20b 06bd
00000040: 8733 a3bc d958 87bb d2a8 4fbc 94b4 0bbc
00000050: 094c dabc a4a5 99bc 87df 88bb 2547 e3bb
00000060: c552 07bd 74eb 5f3b c1d7 0b3c 5f8a 30bc
00000070: d5a3 d2bb 6c42 983c 9c17 50bd a26e 36bc
00000080: ba61 fd3a 7795 01bd d9c8 89bc 6066 fa3a
00000090: e600 abbc f52c 2f3d 6fe4 f53c 6949 a8bc
000000a0: 2d1e 0dbd c80a 933c 6810 04bd 0141 adbc
000000b0: 93ae 983c 95a4 2ebc d20b cb3a adcb 23bc
000000c0: b687 83bb b4bc 4b3b 6081 f9bb 55f2 bbba
000000d0: c962 5dbc 3dfd adbc bc19 623b 0de5 dcbb
000000e0: f6dd 73bc f352 e7bb 63d5 173d 4de0 3dbc
000000f0: ed3c 9aba 7641 f8bc 9abc 0fbd 99c9 623a
00000100: b7c0 54bc f9da a7bc e3b1 93bc 6a11 1abd
00000110: 7040 88bc 6aad fcb9 4aa6 15bd b269 4b3c
00000120: ad2b 15bd 6650 403b fe1f 37bc 3e21 5dbd
00000130: da99 1fbc f740 36bd 1ef3 6a3c 019b 0dbd
00000140: d392 bcbb aa42 b93c c87e 4dbc 414a 6bbd
00000150: 91e2 cd3c c3dd dabc 4499 5fbd e3e0 01bd
00000160: be6e 51bd 1e3d f5bc 623a 26bc d858 a7bc
00000170: 9156 e13b 7237 093b b988 5ebc 12d3 bfbc
00000180: 9038 c3bb 2b6f 4ebc d17f a2bc 6b1d e7bc
00000190: 66d7 90bc ca78 abbc 1399 e63c 9588 60bc
000001a0: a011 c6bc 9e89 48bc aa0b 16bd 1df4 8abc
000001b0: 76d6 2d3c 2eea 9c3c bddd d7bc 8006 0bbd
000001c0: 8360 74bb 7213 67bc 7ad8 50bd c0c8 9abb
000001d0: 996e 83bd 269a 773a f28c 20bc 915e 51bc
000001e0: 320c 1cbd 12ee 17bd fd32 28bc 27b8 1fbb
000001f0: c9a7 cfbc 598a afbc 5df9 2dbd 790d 8ebc

network_body._body_endoder.seq_layers.0.weight f4 [128, 3]
0.6541704 -0.5907503 1.3580253 -0.24743767 0.0024151856 0.093540594 -0.54198945 0.78065455
-0.23374493 0.32401568 -0.83250403 -0.059886258 0.9675474 -0.2863728 -0.26419762 -0.87838554
-0.946707 0.141247 -0.33451092 -0.58507854 -0.4693275 0.052354757 -0.8289054 0.08837956
0.35479423 0.14892228 -0.6129833 0.7606144 0.44552365 -0.2165772 0.19054706 -0.23210719
0.029621178 0.55094177 -1.2941875 0.70902157 -0.31878802 0.03785545 -0.92433256 -0.52901196
-0.70200604 0.6171712 1.1264211 -0.7668365 0.65806454 0.43899164 -0.9872069 -0.52692574
0.77924556 1.1326915 1.2588197 0.4407026 0.08503989 0.39874515 -0.51586074 -0.45670405
0.5793825 0.22250111 -0.8231613 -0.19093287 -0.2682462 0.12919682 -0.841925 1.0441465
0.408522 0.4091199 -0.019094761 0.30509573 0.28899038 0.8422062 -0.1433997 -0.049021877
-0.19150789 -0.4564256 -0.32807133 -0.42260247 -0.4341648 0.6450216 -0.9787041 1.2510608
-0.9899312 0.3998461 0.15267435 0.22228454 0.45674205 -0.23500542 0.61808336 0.10123538
-0.259216 1.1797518 -0.060449634 -0.38643768 0.7362717 -0.27483988 0.82810026 0.19029993
-0.037229422 -1.2004759 0.61412364 -0.34785494 -0.05691231 0.38817295 0.33628216 -0.12686758
-0.021211958 1.0499547 -0.26045802 -0.07649738 0.7242749 -0.8899374 0.195208 0.21911848
0.74403733 -0.35185438 0.017129732 -0.6888159 -0.33698115 0.47227633 0.8626351 -0.82677877
-0.12793641 -1.2510506 -0.13863291 -0.8559775 1.1345572 -0.16652201 -0.42171666 -1.2834389
-0.23355117 -0.47531596 0.8645556 0.058503475 -0.3686626 -0.22568798 -0.44665036 0.18875808
-0.18906346 0.22346425 0.29849032 0.7327326 0.14997639 0.56934506 -0.350869 -0.5796869
0.9348757 -0.31186765 0.405 0.8257069 0.72221214 -0.29334903 0.3526679 0.89840424
0.3855403 0.45803604 -0.14368345 0.75303596 0.2779377 -0.30578655 -0.17451921 0.7712876
-0.6986145 -0.7585113 1.023692 -0.5806553 -0.60354966 -0.43232742 0.036572173 0.5570479
0.75259906 -0.9544445 0.115492634 -0.20622951 -0.31203875 -0.27997324 0.045369767 -0.44171038
-0.007948697 0.27346483 -0.8270834 0.22062866 -0.7161268 0.36920086 0.017616276 0.8419882
1.5591576 0.5737371 0.4883242 0.5454562 -0.4528167 -1.6435356 -0.08220474 -0.68846697
-0.88997567 0.027290545 -0.13114274 -0.74925923 -0.36026222 -0.87091506 0.36918342 -0.13314104
-0.15419379 0.65935135 -0.57173806 -0.7072509 0.32418403 0.28738236 0.44548133 0.33469522
-0.15173815 0.04938065 -0.34297994 -0.7253971 -0.67809 -0.08704216 -0.06184008 -0.13863075
-1.1019306 0.21026595 0.5262481 -0.23487684 -0.27158624 -0.13584866 0.7087986 -0.14060202
0.14086765 -0.038930714 -1.3437899 0.699713 0.952325 0.07798346 0.4964089 -0.5422503
-0.7187974 -0.30908608 0.26636598 0.811397 -0.14277382 -0.003850864 0.04233672 -1.1774474
-0.74760294 -0.8380944 0.8609861 0.20133872 0.96104085 -0.0070776273 -0.088629745 0.055379756
-0.36584294 -1.0299364 0.42227915 0.251285 -0.53987706 0.06649493 -0.38629946 1.0413126
00000000: b677 273f 693b 17bf c6d3 ad3f 4d60 7dbe
00000010: 1748 1e3b 3692 bf3d d2bf 0abf fad8 473f
00000020: d55a 6fbe 62e5 a53e fc1e 55bf 4b4b 75bd
00000030: 30b1 773f 759f 92be e944 87be e0dd 60bf
00000040: 645b 72bf 0ea3 103e 0445 abbe b5c7 15bf
00000050: b24b f0be f171 563d 2533 54bf 5800 b53d
00000060: 97a7 b53e 157f 183e 79ec 1cbf a0b7 423f
00000070: ad1b e43e 6ac6 5dbe c51e 433e 82ad 6dbe
00000080: 1da8 f23c 850a 0d3f f0a7 a5bf 7082 353f
00000090: 2f38 a3be 510e 1b3d 0fa1 6cbf 546d 07bf
000000a0: abb6 33bf effe 1d3f 912e 903f 664f 44bf
000000b0: eb76 283f 83c3 e03e 97b9 7cbf 9be4 06bf
000000c0: a37c 473f 09fc 903f 0121 a13f c5a3 e13e
000000d0: 6529 ae3d 5328 cc3e 730f 04bf 1dd5 e9be
000000e0: 6952 143f 55d7 633e b3ba 52bf e883 43be
000000f0: 9157 89be 2c4c 043e 6688 57bf 98a6 853f
00000100: cc29 d13e 2a78 d13e 9e6c 9cbc 8235 9c3e
00000110: 8cf6 933e d39a 573f 5fd7 12be 2acb 48bd
00000120: a51a 44be 9eb0 e9be f7f8 a7be 5a5f d8be
00000130: d94a debe 2320 253f 5a8c 7abf c322 a03f
00000140: 226c 7dbf a1b8 cc3e aa56 1c3e 8f9e 633e
00000150: 18da e93e 43a5 70be b63a 1e3f 7f54 cf3d
00000160: f6b7 84be 1b02 973f 099a 77bd 29db c5be
00000170: 4d7c 3c3f d0b7 8cbe 61fe 533f fcdd 423e
00000180: e17d 18bd 32a9 99bf 3537 1d3f 0b1a b2be
00000190: e21c 69bd 9bbe c63e 2d2d ac3e 93e9 01be
000001a0: b3c4 adbc ea64 863f c15a 85be a9aa 9cbd
000001b0: 146a 393f f0d2 63bf 9be4 473e 9860 603e
000001c0: 3b79 3e3f 4226 b4be a753 8c3c 3d56 30bf
000001d0: cb88 acbe 34ce f13e a7d5 5c3f c6a7 53bf
000001e0: c301 03be 6d22 a0bf c9f5 0dbe 5721 5bbf
000001f0: 2c39 913f bf84 2abe 3feb d7be ba47 a4bf
00000200: 0a28 6fbe 9d5c f3be 8453 5d3f 57a1 6f3d
00000210: 58c1 bcbe c01a 67be 5baf e4be cc49 413e
00000220: da99 41be d0d3 643e b9d3 983e 5d94 3b3f
00000230: 6993 193e 99c0 113f 1aa5 b3be 5c66 14bf
00000240: 0454 6f3f 1ead 9fbe 295c cf3e 8761 533f
00000250: e5e2 383f d831 96be e390 b43e d2fd 653f
00000260: 8a65 c53e b383 ea3e c121 13be f7c6 403f
00000270: da4d 8e3e 0e90 9cbe 2ab5 32be 1b73 453f
00000280: 66d8 32bf cc2d 42bf 5708 833f d3a5 14bf
00000290: 3b82 1abf 055a ddbe b4cc 153d b19a 0e3f
000002a0: 55aa 403f 7a56 74bf 6787 ec3d d42d 53be
000002b0: 8bc3 9fbe a758 8fbe a6d5 393d dd27 e2be
000002c0: 403b 02bc 9503 8c3e bdbb 53bf 7bec 613e
000002d0: 1654 37bf e507 bd3e 0250 903c 8a8c 573f
000002e0: 7a92 c73f 6fe0 123f a105 fa3e 04a3 0b3f
000002f0: 97d7 e7be 605f d2bf f55a a8bd 5f3f 30bf
00000300: 72d5 63bf 6c90 df3c 484a 06be 74cf 3fbf
00000310: 4a74 b8be 4af4 5ebf 9c05 bd3e 2056 08be
00000320: fae4 1dbe 40cb 283f 6d5d 12bf 650e 35bf
00000330: 73fb a53e c823 933e 2116 e43e 2c5d ab3e
00000340: 3f61 1bbe 5d43 4a3d 119b afbe a0b3 39bf
00000350: 4e97 2dbf 2943 b2bd 064c 7dbd 38f5 0dbe
00000360: 100c 8dbf f54f 573e 32b8 063f 8e83 70be
00000370: 5a0d 8bbe e91b 0bbe d373 353f faf9 0fbe
00000380: 9c3f 103e d075 1fbd 4f01 acbf 6420 333f
00000390: 92cb 733f cbb5 9f3d 4f29 fe3e ead0 0abf
000003a0: 1b03 38bf 8840 9ebe 1f61 883e b7b7 4f3f
000003b0: 4d33 12be c75e 7cbb 4569 2d3d 99b6 96bf
000003c0: e862 3fbf 5b8d 56bf 9669 5c3f bd2b 4e3e
000003d0: c606 763f 71eb e7bb 8383 b5bd e2d5 623d
000003e0: c44f bbbe f5d4 83bf f934 d83e 6da8 803e
000003f0: 6235 0abf 7e2e 883d 0bc9 c5be bb49 853f

network_body._body_endoder.seq_layers.2.bias f4 [128]
-0.008029096 0.001996477 -0.017668203 -0.020796109 0.013989337 -0.02571332 -0.020886438 -0.022827724
-0.018348452 -0.009801574 -0.011405127 -0.022747256 -0.016050516 0.0050274218 -0.04097782 0.0053795893
-0.016410949 0.0018989719 -0.01046895 -0.039720688 -0.016807817 -0.015686303 -0.00716005 -0.024405515
-0.01693066 -0.013747858 0.000102202175 -0.009064827 -0.010558128 -0.009177426 -0.013437513 0.0051618344
-0.017685717 -0.02853689 -0.030011268 -0.018595517 -0.012267474 -0.027221022 -0.018249946 -0.01791527
-0.02322009 0.00784783 -0.017775143 -0.0029387097 -0.02503934 0.015734179 0.014335526 -0.017305465
0.0075495197 -0.006614654 -0.019611804 -0.0017628318 -0.013352096 0.00697733 -0.009580389 -0.013395058
-0.009940534 -0.0025051723 -0.0261706 -0.014078129 -0.025214747 -0.011818088 -0.031319804 0.00032076883
-0.025268994 -0.02857267 -0.0073119565 -0.000335298 0.0030189604 -0.013803869 0.006755126 0.0028473437
-0.0071913404 -0.002095771 0.00959357 -0.020383287 -0.013931147 0.0020473888 0.00019774932 -0.018949635
-0.030699966 -0.02219285 -0.0054426733 -0.010325696 -0.020426925 -0.009850678 -0.008409109 0.025601065
-0.01680832 -0.014651753 -0.014575522 -0.01991825 -0.014142609 -0.016049108 -0.018564196 -0.010191647
-0.013850321 -0.011551811 -0.0062024486 -0.005764939 -0.020073649 -0.0075658443 -0.022027247 -0.008110865
-0.021309687 -0.016540704 -0.022046285 -0.022936698 -0.026255619 -0.019155396 -0.023607658 -0.007949315
-0.01490297 -0.0075651207 -0.0091413045 -0.008368795 -0.024806919 -0.020001007 0.0033846109 -0.010197655
-0.015899276 -0.0052700797 -0.022690978 -0.015628139 -0.024565423 -0.0064016753 -0.016528716 -0.013172555
00000000: 788c 03bc 53d7 023b e8bc 90bc 9a5c aabc
00000010: 8833 653c bea4 d2bc 091a abbc 3501 bbbc
00000020: 7e4f 96bc c896 20bc 92dc 3abc 7458 babc
00000030: 5f7c 83bc 12bd a43b 5cd8 27bd 4447 b03b
00000040: 4170 86bc ece6 f83a f585 2bbc 29b2 22bd
00000050: 8cb0 89bc 9080 80bc da9e eabb 13ee c7bc
00000060: 2bb2 8abc b23e 61bc 6055 d638 a484 14bc
00000070: 00fc 2cbc ea5c 16bc 0429 5cbc 9b24 a93b
00000080: a3e1 90bc 32c6 e9bc 31da f5bc a055 98bc
00000090: 84fd 48bc 9ffe debc e980 95bc 0bc3 92bc
000000a0: 0f38 bebc 2f94 003c 2d9d 91bc 5e97 40bb
000000b0: 4d1f cdbc f7e4 803c 8edf 6a3c 31c4 8dbc
000000c0: f661 f73b bdbf d8bb efa8 a0bc d20e e7ba
000000d0: c0c2 5abc 16a2 e43b 10f7 1cbc f276 5bbc
000000e0: 9fdd 22bc d12d 24bb ba63 d6bc f4a7 66bc
000000f0: 288f cebc a7a0 41bc 3249 00bd dd2c a839
00000100: ec00 cfbc 3b11 eabc 2399 efbb f0ca afb9
00000110: c0d9 453b 9f29 62bc 1b5a dd3b 809a 3a3b
00000120: 56a5 ebbb 3459 09bb 592e 1d3c dafa a6bc
00000130: 773f 64bc 7c2d 063b ee5a 4f39 443c 9bbc
00000140: 7f7e fbbc c8cd b5bc 7458 b2bb 1c2d 29bc
00000150: 5e56 a7bc bd64 21bc 5cc6 09bc 53b9 d13c
00000160: 9ab1 89bc e80d 70bc 2cce 6ebc 992b a3bc
00000170: 67b6 67bc 6b79 83bc f113 98bc defa 26bc
00000180: 75ec 62bc cf43 3dbc e93d cbbb d0e7 bcbb
00000190: 7e71 a4bc e7ea f7bb 7c72 b4bc 6fe3 04bc
000001a0: a791 aebc 5f80 87bc 699a b4bc bee5 bbbc
000001b0: 0616 d7bc c7eb 9cbc d964 c1bc d83d 02bc
000001c0: 962b 74bc d5e4 f7bb 69c5 15bc 451d 09bc
000001d0: e137 cbbc 27d9 a3bc 59d0 5d3b 1114 27bc
000001e0: 333f 82bc a2b0 acbb 6ee2 b9bc 9506 80bc
000001f0: 6d3d c9bc 25c5 d1bb 3b67 87bc b3d1 57bc

network_body._body_endoder.seq_layers.2.weight f4 [128, 128]
-0.15276651 0.023243027 -0.04263738 -0.12471317 -0.0024797623 0.09361325 -0.076900356 0.095901676
0.09777476 0.048980203 -0.12700188 0.01216046 -0.009423006 -0.02931919 -0.17124584 0.0074730148
-0.12739928 0.11584665 -0.0288827 0.13546418 -0.050925933 -0.04389672 0.19127259 -0.14003128
-0.009914023 -0.010392876 0.019719673 0.005195707 -0.100943714 -0.019233732 0.08213246 -0.09853698
0.032475676 -0.060111485 -0.054693695 -0.02168461 0.007487458 0.015239216 -0.06950155 0.013478216
0.14683712 0.073482566 -0.071921155 0.009295082 -0.13884169 0.03511662 -0.028956186 -0.0014249466
-0.027752446 0.21156497 -0.015714463 -0.09697431 -0.07319025 -0.106615275 -0.16284102 0.057401758
0.0422318 0.030845812 0.0036311243 -0.019201081 0.02648905 -0.022102674 0.23379724 -0.09650852
0.121985324 0.0259498 0.016419869 -0.0868778 -0.11773535 0.09306745 -0.130889 -0.05568585
0.075211294 -0.10671977 -0.10520198 -0.11875687 -0.09337285 0.116599664 0.10675051 -0.19751358
-0.047273435 0.095961645 0.05489089 -0.092351876 -0.05208455 0.008311602 0.045556992 -0.042292014
0.08432462 -0.01551333 -0.036711313 -0.06900362 0.064521834 0.07133772 0.19605324 -0.012030273
-0.102873825 -0.08989336 0.04251908 0.009057846 -0.043335613 0.054754872 -0.010051647 -0.004786127
-0.11195047 0.17371815 -0.04485266 -0.005305485 0.06977208 -0.038288247 0.010485067 0.18307237
0.10280617 -0.03232437 0.049291275 -0.061183013 0.057568032 0.039153043 -0.13296114 0.03449331
0.078660324 0.038971707 -0.15752852 -0.061091032 0.14941162 0.034896534 0.029429484 0.1751833
-0.0122928955 -0.09860013 0.031911872 -0.07311823 -0.042171262 -0.08557835 -0.020284941 0.021461466
-0.11101141 -0.034340255 -0.19193412 -0.022590434 0.004209952 -0.09142998 -0.033048876 -0.024485257
0.11432231 0.1192845 0.28002343 -0.17895609 0.053150635 -0.0304251 0.032172978 -0.18374729
-0.05762118 -0.03827749 0.0066834963 0.104782484 0.03003242 -0.0916976 0.12301805 0.08100034
0.038337287 -0.12642711 0.050629444 -0.009432972 -0.16603316 0.14993308 0.12269438 0.06813624
0.007970976 -0.026494587 0.033255823 -0.18242434 -0.019885167 -0.03515269 -0.044057187 0.14476717
0.045132313 0.09390073 -0.0029275513 -0.08692889 -0.09902578 -0.011136017 -0.06908431 0.054357138
-0.0949753 0.19109277 -0.0374435 0.018344233 -0.18460064 0.12503955 -0.012864064 -0.124225676
-0.09151543 0.016551122 0.04459321 -0.03388738 0.0451377 0.20181622 0.10148666 -0.10245558
0.03454899 0.08484643 0.049033403 0.11552194 0.14056063 0.029397164 0.16895169 -0.14384285
0.1409897 0.013516775 -0.06700375 -0.020498937 0.02916979 0.10249569 0.13828325 0.07842093
0.083495356 -0.06579092 -0.09085217 -0.027928403 0.095094 0.036390696 0.029687986 0.023083283
0.11667526 -0.00810873 -0.058113094 0.062364023 0.036181588 0.1613675 0.04559936 -0.106260724
0.07600338 -0.050048854 -0.0055976273 0.14590003 -0.123556614 -0.16056286 -0.05074901 -0.06755206
-0.09181441 -0.08701916 -0.058034558 -0.13540022 -0.009098531 -0.14601462 0.100826725 -0.01377924
-0.037020262 0.04040184 -0.14898421 0.043227047 0.16747397 0.16611561 0.033772457 -0.09446513
00000000: d36e 1cbe 2968 be3c 89a4 2ebd 9e69 ffbd
00000010: 8283 22bb 4eb8 bf3d ef7d 9dbd 1968 c43d
00000020: 223e c83d 779f 483d c80c 02be ab3c 473c
00000030: f462 1abc cc2e f0bc 125b 2fbe 31e0 f43b
00000040: f574 02be 0241 ed3d 699b ecbc 1fb7 0a3e
00000050: b697 50bd 0ccd 33bd f6dc 433e 5c64 0fbe
00000060: 6d6e 22bc e246 2abc 278b a13c c040 aa3b
00000070: 94bb cebd 0f90 9dbc 1035 a83d c2cd c9bd
00000080: 3705 053d 7637 76bd 7f06 60bd eca3 b1bc
00000090: 5a59 f53b e8ad 793c d456 8ebd bcd3 5c3c
000000a0: 785c 163e 077e 963d 664b 93bd 664a 183c
000000b0: 842c 0ebe 72d6 0f3d 8635 edbc 46c5 baba
000000c0: 1959 e3bc 7da4 583e 9ebb 80bc 789a c6bd
000000d0: c5e4 95bd 1c59 dabd ccbf 26be 1b1e 6b3d
000000e0: 40fb 2c3d 5bb0 fc3c 28f8 6d3b 964b 9dbc
000000f0: 90ff d83c ab10 b5bc 8b68 6f3e 42a6 c5bd
00000100: 71d3 f93d ad94 d43c f682 863c fdec b1bd
00000110: 3b1f f1bd 269a be3d c407 06be d916 64bd
00000120: 6108 9a3d e58f dabd 2374 d7bd cd36 f3bd
00000130: 443a bfbd cecb ee3d 03a0 da3d 0041 4abe
00000140: caa1 41bd 8a87 c43d 45d5 603d fb22 bdbd
00000150: 9c56 55bd 632d 083c f899 3a3d 643a 2dbd
00000160: 63b2 ac3d 9f2b 7ebc 9a5e 16bd c551 8dbd
00000170: 0624 843d 8319 923d 2ec2 483e 9f1a 45bc
00000180: 83af d2bd 031a b8bd 7d28 2e3d 5c67 143c
00000190: af80 31bd a546 603d aaaf 24bc f1d4 9cbb
000001a0: 4a46 e5bd 2ce3 313e 6cb7 37bd a2d9 adbb
000001b0: aae4 8e3d 23d4 1cbd 8fc9 2b3c 5377 3b3e
000001c0: 0b8c d23d 8f66 04bd a6e5 493d 0a9b 7abd
000001d0: 75cc 6b3d f15e 203d f726 08be db48 0d3d
000001e0: aa18 a13d cca0 1f3d 284f 21be 973a 7abd
000001f0: 5cff 183e abef 0e3d 1a16 f13c 4063 333e
00000200: 2468 49bc ddee c9bd 06b6 023d 03bf 95bd
00000210: c6bb 2cbd b443 afbd 9b2c a6bc f5cf af3c
00000220: f359 e3bd 5ea8 0cbd 618a 44be 930f b9bc
00000230: a3f3 893b a43f bbbd 425e 07bd 4e95 c8bc
00000240: d121 ea3d 6f4b f43d 3b5f 8f3e 4440 37be
00000250: 7bb4 593d 0f3e f9bc d0c7 033d 4028 3cbe
00000260: 3004 6cbd dbc8 1cbd 3b01 db3b 3398 d63d
00000270: 8d06 f63c f4cb bbbd e3f0 fb3d 82e3 a53d
00000280: 8f07 1d3d 1c76 01be d260 4f3d c18c 1abc
00000290: 9904 2abe 0f88 193e 3147 fb3d 038b 8b3d
000002a0: b298 023c 2d0b d9bc 4237 083d 72cd 3abe
000002b0: 38e6 a2bc 44fc 0fbd 4f75 34bd d83d 143e
000002c0: a9dc 383d 074f c03d 29dc 3fbb c607 b2bd
000002d0: 07ce cabd d773 36bc 137c 8dbd 97a5 5e3d
000002e0: 6982 c2bd d3ad 433e 5b5e 19bd a546 963c
000002f0: f307 3dbe 5e0a 003e ccc3 52bc 086a febd
00000300: 716c bbbd 3896 873c 5fa7 363d 7ecd 0abd
00000310: 4fe2 383d e9a8 4e3e 3dd8 cf3d 3bd4 d1bd
00000320: 3e83 0d3d f7c3 ad3d 40d7 483d c496 ec3d
00000330: 20ef 0f3e 52d2 f03c ac01 2d3e 8a4b 13be
00000340: 9b5f 103e 7775 5d3c 4339 89bd 63ed a7bc
00000350: 7cf5 ee3c 43e9 d13d 209a 0d3e 279b a03d
00000360: 9dff aa3d 64bd 86bd b410 babd 1bca e4bc
00000370: a5c0 c23d 690e 153d 3834 f33c 2719 bd3c
00000380: 70f3 ee3d 7bda 04bc ff07 6ebd 6b71 7f3d
00000390: 2533 143d 863d 253e 65c6 3a3d 399f d9bd
000003a0: a9a7 9b3d 0700 4dbd 4d6c b7bb d166 153e
000003b0: 400b fdbd 976a 24be 32de 4fbd bc58 8abd
000003c0: 3209 bcbd 1a37 b2bd a5b5 6dbd 5ba6 0abe
000003d0: 0112 15bc db84 15be 3e7e ce3d 52c2 61bc
000003e0: 8fa2 17bd 667c 253d 518f 18be d80e 313d
000003f0: 4c7e 2b3e 361a 2a3e fd54 0a3d ef76 c1bd

network_body._body_endoder.seq_layers.4.bias f4 [128]
-0.019869655 -0.011938917 -0.043353762 -0.031356476 0.0019057035 -0.020437773 0.007922446 -0.028540837
-0.04832175 -0.014152809 -0.0062232222 -0.0012156701 -0.022828097 -0.013836775 -0.027514476 -0.032785196
-0.012208317 0.002147642 -0.014968473 -0.026978342 -0.010682536 -0.029812653 -0.0034800603 -0.038012624
-0.007490592 -0.031178353 -0.0139556 -0.005491679 -0.016416393 -0.025378795 -0.021517476 0.012453483
-0.00022408974 0.011907454 -0.022575289 -0.004271847 -0.05671742 -0.016810596 -0.030723305 -0.004872674
-0.0045068166 -0.009957094 -0.009859116 -0.033875097 -0.03508227 -0.01092441 -0.013278169 0.0109150205
0.0075770067 0.00013262933 0.0044825943 -0.035422873 -0.018708803 -0.00047037317 -0.0094145 0.015704185
-0.02296314 -0.023539245 -0.0233348 -0.02057419 -0.048727706 -0.0038667617 -0.0021956535 0.012256554
-0.030920358 -0.0032043103 -0.029759262 -0.041905038 -0.023753926 -0.015014017 0.0018492553 -0.016268438
-0.010857767 -0.020245006 -0.023140252 -0.013174886 -0.014888704 -0.038993455 0.018066444 -0.016563438
-0.031439513 -0.004428048 -0.031184103 -0.00096184714 -0.005571294 -0.00897841 -0.017413296 -0.014915047
-0.0073915524 0.013572824 -0.009671892 -0.023005037 -0.023597503 -0.025100023 -0.019319236 -0.02119294
-0.0068469774 -0.0190029 -0.04907376 -0.011345964 -0.009512774 -0.016441746 -0.009100195 -0.0072897407
-0.035857193 -0.011526634 -0.021134382 -0.011223556 -0.0012398495 -0.019941678 -0.01705153 -0.011671502
0.0031118216 -0.014816526 0.0111238165 -0.014926508 -0.003424826 -0.022984337 -0.012058614 -0.021036645
-0.0074516395 -0.016589237 -0.015876267 -0.019614765 -0.017324902 -0.013717304 -0.006148979 -0.018888054
00000000: b0c5 a2bc 739b 43bc b793 31bd a66f 00bd
00000010: ccc8 f93a 1e6d a7bc 26cd 013c 79ce e9bc
00000020: 07ed 45bd 2fe1 67bc 2cec cbbb 1f57 9fba
00000030: fd01 bbbc a4b3 62bc 0a66 e1bc c549 06bd
00000040: 6505 48bc 74bf 0c3b 543e 75bc af01 ddbc
00000050: ce05 2fbc aa39 f4bc b911 64bb 20b3 1bbd
00000060: a473 f5bb bf69 ffbc 07a6 64bc 8bf3 b3bb
00000070: ac7b 86bc 31e7 cfbc 6b45 b0bc b209 4c3c
00000080: a2f9 6ab9 7b17 433c d0ef b8bc dafa 8bbb
00000090: 8750 68bd 60b6 89bc 71af fbbc f4aa 9fbb
000000a0: ebad 93bb 1423 23bc 2188 21bc 9dc0 0abd
000000b0: 6db2 0fbd 4cfc 32bc ad8c 59bc ead4 323c
000000c0: 8a48 f83b 6a12 0b39 bae2 923b 9317 11bd
000000d0: 3443 99bc 6b9c f6b9 463f 1abc 10a6 803c
000000e0: 321d bcbc 60d5 c0bc 9f28 bfbc 348b a8bc
000000f0: b496 47bd 7f69 7dbb f4e4 0fbb b7cf 483c
00000100: b14c fdbc 68ff 51bb b2c9 f3bc 9ea4 2bbd
00000110: 9897 c2bc 5afd 75bc b662 f23a 6345 85bc
00000120: c7e4 31bc dbd8 a5bc a090 bdbc 7adb 57bc
00000130: c0ef 73bc 9ab7 1fbd 1400 943c 0cb0 87bc
00000140: b8c6 00bd 2919 91bb ce75 ffbc 7824 7cba
00000150: 678f b6bb 2e1a 13bc 54a6 8ebc 3e5e 74bc
00000160: d634 f2bb 8d60 5e3c db76 1ebc 0f75 bcbc
00000170: 8d4f c1bc 909e cdbc 6043 9ebc d19c adbc
00000180: 9c5c e0bb f8ab 9bbc 9101 49bd 6ce4 39bc
00000190: 77db 1bbc d7b0 86bc fc18 15bc c7de eebb
000001a0: fede 12bd 35da 3cbc 0322 adbc 01e3 37bc
000001b0: 7282 a2ba bb5c a3bc a6af 8bbc d439 3fbc
000001c0: b4ef 4b3b 04c1 72bc ab40 363c 508e 74bc
000001d0: 0c73 60bb a649 bcbc 7e91 45bc 0b55 acbc
000001e0: e22c f4bb 27e6 87bc f20e 82bc 25af a0bc
000001f0: f4ec 8dbc 8bbe 60bc 607d c9bb 1fbb 9abc

network_body._body_endoder.seq_layers.4.weight f4 [128, 128]
0.014602664 0.038655803 -0.05003522 0.103240885 0.10106651 0.00079188874 0.053579323 -0.054099698
-0.070844844 -0.028024878 -0.14094976 -0.010338165 -0.04259145 -0.0011351648 -0.18021137 -0.0067857835
0.023140933 -0.084799156 -0.04539107 0.060360137 -0.12543908 -0.0147911385 -0.10356542 -0.06891629
0.05196286 0.051453706 -0.055186782 -0.086421765 -0.19734427 0.03460828 -0.06398652 -0.016874261
0.029403584 0.08198321 0.040618107 0.056437183 0.13024259 -0.025613198 0.035574645 0.10152416
-0.13315436 -0.07437998 0.12620056 0.13788666 0.022519462 0.06417649 -0.039095197 -0.04317469
0.067778416 -0.023434332 0.07312626 -0.35526413 0.009930039 -0.02295379 0.026352664 -0.056743044
0.0662456 -0.17368264 -0.035943817 0.018253343 -0.10433013 0.11323682 0.0010010883 -0.05171057
-0.14468382 -0.02280052 -0.059777178 0.031075694 0.05316822 0.057491932 -0.10343236 0.11054752
0.062274422 -4.1591593e-05 0.12231245 -0.051823888 -0.022094421 0.022747565 -0.04800129 -0.23031268
0.092006914 -0.08301813 0.061757136 0.030595347 -0.018876282 0.009579415 -0.003787556 -0.061806183
-0.026996858 -0.04827566 0.07819275 0.039572384 -0.06164126 -0.011991619 0.1196569 0.036593463
-0.08765294 0.03710386 0.056472324 -0.07604669 -0.0065340144 -0.10112122 0.07024693 -0.091114946
-0.0065748277 -0.06743514 0.0701862 -0.027299019 0.06311322 0.10514779 -0.034114327 -0.11000104
0.14523342 -0.04892723 0.070435226 -0.099517226 -0.059116945 -0.06356393 0.061924633 0.072814584
0.059207685 0.05579674 0.12198654 -0.12356894 0.00016461329 -0.20450804 0.05702654 -0.06468108
0.038866613 0.040878907 0.08329037 -0.13098893 0.057549287 0.119619295 -0.013414323 -0.032701835
-0.0061639124 -0.11608314 0.035609275 -0.07255747 0.06367816 0.11096394 -0.10203381 0.02682378
-0.074523315 0.12284535 -0.040594157 0.106816955 -0.028386023 0.08885084 0.0880955 -0.14216858
-0.03265713 -0.07795623 0.019124838 -0.0014628074 0.096699655 -0.09568282 0.02682646 -0.10518441
-0.07331633 -0.036091402 -0.10503458 -0.05211808 0.044596087 -0.14732365 0.021094402 -0.05745177
0.19237225 -0.05453282 -0.09283001 0.20590805 0.042233 0.09028852 -0.0209922 -0.14652874
-0.06445962 -0.0057994556 -0.1602027 -0.06408011 0.0040325043 0.18946765 0.0053586867 -0.10761122
-0.053654592 -0.042112436 0.1506633 -0.026970696 -0.016173953 0.09015318 -0.10999418 -0.1735428
0.0073026503 0.025252452 -0.034132905 0.07058306 0.03386516 0.14789702 0.051610883 0.11267932
0.028003557 0.046886172 -0.012347786 -0.1782172 0.031029534 -0.09350926 -0.15498397 0.12231772
-0.023916602 -0.007552595 0.028650152 -0.20544498 -0.060341556 -0.16029146 0.10541995 -0.061300788
0.08532783 -0.093061104 -0.012525593 0.010027784 0.06859603 -0.011400641 0.010461204 0.119524956
-0.06896895 -0.09118419 -0.22559796 -0.036423262 -0.033569027 0.0114835175 -0.045103457 0.045410987
0.00066603546 0.05393898 -0.07907145 0.06145174 -0.08246426 -0.019502563 -0.03357708 -0.026948513
-0.10752065 -0.14957416 0.08489553 0.0016287934 -0.061423577 -0.08325331 0.13715713 -0.09950197
0.20297612 -0.05385242 0.012192038 -0.011327022 -0.05529795 -0.087551735 -0.01784922 0.021212898
00000000: 0340 6f3c 8c55 1e3d bbf1 4cbd f56f d33d
00000010: f5fb ce3d c196 4f3a fe75 5b3d a597 5dbd
00000020: 1a17 91bd 6e94 e5bc 2255 10be 6861 29bc
00000030: 5f74 2ebd cfc9 94ba 5489 38be 475b debb
00000040: 0e92 bd3c 2eab adbd fdeb 39bd 313c 773d
00000050: 1a73 00be 8856 72bc 1b1a d4bd fc23 8dbd
00000060: 02d7 543d 1fc1 523d 890b 62bd e5fd b0bd
00000070: 9e14 4abe 69c1 0d3d 5d0b 83bd e43b 8abc
00000080: c9df f03c d0e6 a73d 2c5f 263d ad2a 673d
00000090: 505e 053e c5d2 d1bc b8b6 113d e6eb cf3d
000000a0: 9e59 08be 8854 98bd b83a 013e 2932 0d3e
000000b0: bc7a b83c f76e 833d 4922 20bd f2d7 30bd
000000c0: 69cf 8a3d 5bf9 bfbc 38c3 953d 2ee5 b5be
000000d0: 9ab1 223c 9609 bcbc 8be1 d73c 656b 68bd
000000e0: c6ab 873d ddd9 31be d339 13bd 0988 953c
000000f0: 09ab d5bd b5e8 e73d f336 833a 76ce 53bd
00000100: ff27 14be 28c8 babc ead8 74bd 7492 fe3c
00000110: ebc6 593d a97c 6b3d 58d4 d3bd bd66 e23d
00000120: 7713 7f3d a272 2eb8 f37e fa3d 4945 54bd
00000130: 5cff b4bc 1a59 ba3c 009d 44bd 16d7 6bbe
00000140: 1f6e bc3d 6905 aabd 0df5 7c3d 18a3 fa3c
00000150: 6fa2 9abc fbf2 1c3c a538 78bb 7b28 7dbd
00000160: 8428 ddbc b3bc 45bd 8523 a03d a716 223d
00000170: 8c7b 7cbd 7f78 44bc ad0e f53d 07e3 153d
00000180: 6283 b3bd 38fa 173d 864f 673d 5ebe 9bbd
00000190: 491b d6bb a418 cfbd 9fdd 8f3d 799a babd
000001a0: a771 d7bb 6f1b 8abd c8bd 8f3d 31a2 dfbc
000001b0: 8141 813d b957 d73d 77bb 0bbd 3a48 e1bd
000001c0: 12b8 143e eb67 48bd 5840 903d b0cf cbbd
000001d0: 9c24 72bd ce2d 82bd afa4 7d3d d01f 953d
000001e0: c283 723d 1f8b 643d 14d4 f93d b611 fdbd
000001f0: 0b9c 2c39 8e6a 51be a994 693d 8477 84bd
00000200: 9932 1f3d a470 273d 2494 aa3d f621 06be
00000210: cdb8 6b3d f6fa f43d c0c7 5bbc 5cf2 05bd
00000220: a5fa c9bb ffbc edbd 08db 113d 0399 94bd
00000230: b269 823d 1041 e33d 1af7 d0bd 8bbd db3c
00000240: ae9f 98bd 5896 fb3d 0f46 26bd d9c2 da3d
00000250: ce89 e8bc 6ef7 b53d 6a6b b43d a494 11be
00000260: 7cc3 05bd 84a7 9fbd b1ab 9c3c acbb bfba
00000270: 780a c63d 5bf5 c3bd 2ac3 db3c ed6a d7bd
00000280: df26 96bd 94d4 13bd 5f1c d7bd c579 55bd
00000290: 63aa 363d 03dc 16be 2bce ac3c 8c52 6bbd
000002a0: 3bfd 443e ce5d 5fbd a91d bebd 8fd9 523e
000002b0: 83fc 2c3d 30e9 b83d d6f7 abbc a10b 16be
000002c0: 6803 84bd 5c09 bebb 2d0c 24be 6f3c 83bd
000002d0: 1923 843b cf03 423e ec97 af3b 4563 dcbd
000002e0: ebc4 5bbd 177e 2cbd 7b47 1a3e a6f1 dcbc
000002f0: 3d7f 84bc 3ba2 b83d a144 e1bd 34b5 31be
00000300: 124b ef3b 3bde ce3c f2ce 0bbd da8d 903d
00000310: 32b6 0a3d 5172 173e ef65 533d 6ac4 e63d
00000320: b767 e53c b70b 403d 5e4e 4abc 927e 36be
00000330: a631 fe3c c881 bfbd 1eb4 1ebe b681 fa3d
00000340: c0ec c3bc c27b f7bb b9b3 ea3c 2b60 52be
00000350: b528 77bd 7223 24be 6ae6 d73d 8916 7bbd
00000360: 5bc0 ae3d d296 bebd 2538 4dbc 934b 243c
00000370: 137c 8c3d c1c9 3abc 7865 2b3c 80c9 f43d
00000380: 983f 8dbd c7be babd 2703 67be 8f30 15bd
00000390: ad7f 09bd 5d25 3c3c 67be 38bd df00 3a3d
000003a0: e298 2e3a 1fef 5c3d 36f0 a1bd d2b4 7b3d
000003b0: 06e3 a8bd d7c3 9fbc 1f88 09bd 21c3 dcbc
000003c0: c933 dcbd f829 19be b5dd ad3d 3d7d d53a
000003d0: 4a97 7bbd b680 aabd eb72 0c3e b0c7 cbbd
000003e0: f9d8 4f3e 5b94 5cbd 1dc1 473c f994 39bc
000003f0: 1a80 62bd 534e b3bd 8738 92bc acc6 ad3c

network_body._body_endoder.seq_layers.6.bias f4 [128]
-0.0352667 -0.046621334 -0.012277193 -0.01607661 -0.0077368133 0.0041898927 0.0015112731 -0.017074974
-0.025595944 -0.03179531 0.0029170942 -0.04217771 0.005510851 -0.006172932 -0.03486303 -0.01598106
-0.010383375 -0.0191866 -0.007104511 -0.020082457 -6.1184735e-05 -0.02700745 -0.028659947 -0.018964399
-0.031437606 -0.026465591 -0.03425639 0.0060748537 -0.03133627 -0.01177795 -0.017977672 -0.04699166
-0.027728153 -0.015256924 -0.0080106985 -0.017493857 -0.01153015 -0.017840998 -0.014697744 -0.015811237
-0.01668073 -0.025508266 -0.00920969 -0.0020273784 -0.016706025 -0.024874747 -0.0089905895 -0.021819895
-0.012363612 -0.026769914 -0.024443833 -0.012843323 -0.0071370755 0.0031925037 0.009883238 -0.04601318
-0.022432478 -0.008311498 -0.034560546 -0.007910385 -0.024958668 -0.012255485 -0.004086495 -0.026093982
-0.019482711 -0.012660768 -0.035288032 -0.021610899 -0.030767307 -0.02575603 -0.045031723 -0.008760369
-0.018040162 -0.02532306 -0.010333407 -0.010343798 -0.0008831306 -0.019718254 -0.01819874 -0.03205697
-0.02034444 -0.008596886 -0.021387234 -0.024805011 -0.005251447 -0.030172639 -0.0059880605 -0.01733324
-0.015365607 -0.010820144 -0.01157173 0.0009918037 0.018314099 -0.026327213 -0.030461106 -0.007848007
0.0038298264 0.0002088329 -0.023324046 -0.039421454 -0.02178709 -0.017303022 -0.0069954908 -0.0036012817
0.008113402 -0.003177509 -0.0011862279 -0.00420297 -0.005081718 -0.028219027 -0.009312539 -0.02112894
-0.01042531 -0.034241766 -0.057209935 0.020410884 -0.022455968 0.010454851 -0.0045178686 -0.016389295
-0.005721997 0.008736875 0.0068971817 -0.019631151 -0.004012511 -0.0041195475 -0.00997219 2.4816283e-05
00000000: d173 10bd 03f6 3ebd 4826 49bc 18b3 83bc
00000010: 1885 fdbb 5e4b 893b e915 c63a d1e0 8bbc
00000020: 96ae d1bc cd3b 02bd b82c 3f3b 89c2 2cbd
00000030: 5e94 b43b 4f46 cabb 89cc 0ebd b6ea 82bc
00000040: 081f 2abc 372d 9dbc f5cc e8bb f783 a4bc
00000050: 4e50 80b8 ba3e ddbc 44c8 eabc 3a5b 9bbc
00000060: b8c4 00bd 5ece d8bc 6e50 0cbd 910f c73b
00000070: 765a 00bd 4ef8 40bc e945 93bc 547a 40bd
00000080: 2726 e3bc 2df8 79bc 4e3f 03bc 474f 8fbc
00000090: f4e8 3cbc 4927 92bc cece 70bc 9186 81bc
000000a0: 07a6 88bc b6f6 d0bc 3de4 16bc c4dd 04bb
000000b0: 13db 88bc 20c6 cbbc 444d 13bc a3bf b2bc
000000c0: bf90 4abc 944c dbbc 6f3e c8bc cd6c 52bc
000000d0: 21de e9bb 5339 513b 4eed 213c 5178 3cbd
000000e0: 51c4 b7bc f32c 08bc 5c8f 0dbd 8f9a 01bc
000000f0: 1f76 ccbc 3bcb 48bc 01e8 85bb 0cc3 d5bc
00000100: 359a 9fbc 1c6f 4fbc 2f8a 10bd 5709 b1bc
00000110: b80b fcbc 4ffe d2bc 2f73 38bd a787 0fbc
00000120: f6c8 93bc 4e72 cfbc 734d 29bc 0979 29bc
00000130: e481 67ba 2d88 a1bc 8615 95bc 2b4e 03bd
00000140: 62a9 a6bc f4d9 0cbc 4834 afbc e133 cbbc
00000150: 5514 acbb 9c2c f7bc 7e37 c4bb 70fe 8dbc
00000160: 07c0 7bbc f946 31bc 5a97 3dbc 69ff 813a
00000170: 7307 963c 2bac d7bc 9289 f9bc ed94 00bc
00000180: d3fd 7a3b 28fa 5a39 1212 bfbc 6478 21bd
00000190: d77a b2bc 11bf 8dbc 6e3a e5bb 7b03 6cbb
000001a0: 13ee 043c c13d 50bb 347b 9bba 11b9 89bb
000001b0: 8a84 a6bb 972b e7bc 9f93 18bc 9916 adbc
000001c0: ebce 2abc 1841 0cbd f754 6abd ba34 a73c
000001d0: 94f5 b7bc d34a 2b3c a10a 94bb d842 86bc
000001e0: 977f bbbb 1c25 0f3c c101 e23b 82d1 a0bc
000001f0: 627b 83bb 45fd 86bb 6562 23bc 902c d037

network_body._body_endoder.seq_layers.6.weight f4 [128, 128]
0.15348016 -0.016952889 0.01155714 -0.019509567 -0.23498821 -0.15332718 0.051239196 0.055025924
-0.0016174675 -0.072405554 -0.14803058 -0.07100052 -0.06715721 0.02985195 -0.007080901 -0.047355704
0.07915901 0.0002953419 0.090891644 0.027732035 -0.088602774 0.03859081 -0.19900456 -0.05040605
0.07351207 -0.056113463 0.027301963 0.09485068 -0.06369591 0.03080985 0.05056315 -0.0010160911
0.076870814 -0.10014642 0.06903056 -0.020437278 0.11978916 -0.1491367 0.036810026 0.02377421
-0.10077012 -0.04217415 -0.11522518 -0.17742972 -0.05662657 -0.04879446 0.08122265 -0.0635142
0.07119332 0.004620712 -0.009290964 -0.12902305 -0.12895267 -0.12085788 0.06292516 0.025296861
0.053128265 0.12166221 0.15404667 0.024702402 0.031214604 -0.17641124 0.017821355 -0.16203311
0.08194326 -0.05236709 0.08471383 0.11026156 -0.107397705 -0.06174869 -0.01535988 0.0803125
-0.12840079 -0.14684775 -0.0906306 -0.027192662 -0.10055195 0.07913365 -0.03335514 -0.12910868
0.026362397 -0.032680873 -0.089426935 0.013101741 -0.004662783 0.06388718 0.051417086 0.15012373
-0.0077793263 0.027061353 0.04491471 -0.034936834 -0.051461723 -0.1117713 -0.21985815 0.16446826
-0.128039 0.021242071 0.1315201 0.14942367 0.044631533 -0.14991511 0.03828433 -0.01788555
-0.027408164 0.06906418 -0.07130501 0.06525087 -0.006603037 0.12760252 0.021962427 0.074932955
-0.13528304 0.03174506 -0.12180914 0.096782915 -0.09767761 0.12136703 0.06224052 -0.026782686
-0.12996669 0.08155764 0.113119565 0.21711482 0.030464312 -0.022457618 -0.025744664 -0.022263099
-0.036865517 0.032843366 0.06120185 0.0793103 -0.25061345 -0.043797355 -0.0416388 0.039240565
-0.008009831 0.09697215 -0.11496336 -0.00036129617 -0.113462076 0.018125063 0.078262165 0.08388283
-0.027584177 -0.10124938 0.110245444 -0.055314492 -0.09933419 0.0492722 -0.11531529 -0.12572466
0.104235716 0.018288324 -0.036235157 -0.04930125 0.18812771 0.020975493 0.023741499 -0.031960584
-0.0154436035 -0.022698998 -0.002224019 0.007389477 0.07282113 -0.028338915 0.004758921 0.061349966
-0.04805089 0.16248658 0.040726736 0.2545762 0.0951148 -0.07664791 0.12816913 -0.14838055
-0.12693025 -0.071921274 -0.09527742 0.13054019 -0.18603042 -0.11218309 0.08308853 -0.08368138
0.04632235 -0.04246182 -0.038205296 -0.11195083 -0.062446762 -0.042460058 0.03767124 0.019857652
0.16045216 -0.12420432 0.12546593 0.06823632 -0.030922195 -0.09954933 0.106870435 0.07201025
0.047212366 -0.03078434 0.06681644 -0.0038028792 0.09070481 0.09549693 0.17195378 -0.062850565
-0.018506778 -0.095926605 0.027530106 -0.07375268 -0.0009515354 0.15656705 -0.01813299 -0.016387206
0.030806802 0.02377426 0.21262348 0.1327563 0.00026301984 -0.054767076 0.03151061 -0.03318189
0.053232618 0.05201958 0.09404644 -0.044361178 -0.12101406 -0.06712563 -0.34999236 0.05448954
0.14236398 -0.06160337 -0.031031357 -0.014836912 -0.06776559 -0.10106889 -0.034252193 0.1403954
-0.061425503 -0.103516705 -0.0008466345 -0.1320528 -0.08384395 0.16189192 0.2389346 -0.06803587
-0.030102126 0.115579724 0.06794769 -0.11159219 -0.26556247 -0.12727489 -0.03623995 -0.086103
00000000: e729 1d3e c9e0 8abc 295a 3d3c 87d2 9fbc
00000010: c0a0 70be cd01 1dbe 31e0 513d dd62 613d
00000020: 3401 d4ba 5d49 94bd 5495 17be b868 91bd
00000030: b889 89bd 148c f43c e706 e8bb 0ef8 41bd
00000040: 1e1e a23d 1ed8 9a39 6625 ba3d 4b2e e33c
00000050: 5f75 b5bd 6611 1e3d dac7 4bbe 9376 4ebd
00000060: 7f8d 963d 3bd7 65bd 5ea8 df3c 1341 c23d
00000070: 0073 82bd f064 fc3c 4e1b 4f3d 5c2e 85ba
00000080: 726e 9d3d 9119 cdbd e55f 8d3d 146c a7bc
00000090: 0554 f53d 4bb7 18be 1cc6 163d 22c2 c23c
000000a0: 9160 cebd cdbe 2cbd 2efb ebbd 23b0 35be
000000b0: 43f1 67bd b3dc 47bd 1058 a63d bc13 82bd
000000c0: cecd 913d 5769 973b 2139 18bc 9e1e 04be
000000d0: 2b0c 04be 5684 f7bd e8de 803d 5d3b cf3c
000000e0: 069d 593d 092a f93d 69be 1d3e b15c ca3c
000000f0: c5b5 ff3c 26a5 34be 17fe 913c 02ec 25be
00000100: ded1 a73d e07e 56bd 727e ad3d d0d0 e13d
00000110: 54f3 dbbd 32ec 7cbd 02a8 7bbc e17a a43d
00000120: 7f7b 03be 425f 16be 899c b9bd 25c3 debc
00000130: 2eee cdbd d310 a23d 669f 08bd 1135 04be
00000140: f4f5 d73c 61dc 05bd 7825 b7bd afa8 563c
00000150: 42ca 98bb 48d7 823d b99a 523d 09ba 193e
00000160: b8e9 febb c5af dd3c 7df8 373d ed19 0fbd
00000170: 87c9 52bd 5ae8 e4bd 7f22 61be 5e6a 283e
00000180: a81c 03be da03 ae3c 35ad 063e 8502 193e
00000190: 8ecf 363d 5983 19be 08d0 1c3d b884 92bc
000001a0: 1687 e0bc 8571 8d3d 5c08 92bd 40a2 853d
000001b0: 4a5e d8bb 3caa 023e 8cea b33c 7376 993d
000001c0: a387 0abe 1c07 023d 1277 f9bd 1f36 c63d
000001d0: 330b c8bd 478f f83d eaef 7e3d 5d67 dbbc
000001e0: fd15 05be b107 a73d 3bab e73d 5953 5e3e
000001f0: 4b90 f93c 0af9 b7bc 79e6 d2bc 1a61 b6bc
00000200: 4c00 17bd c486 063d cbae 7a3d 706d a23d
00000210: 6850 80be db64 33bd 728d 2abd b7ba 203d
00000220: ab3b 03bc 5699 c63d e971 ebbd 5a6c bdb9
00000230: ce5e e8bd 037b 943c ea47 a03d c3ca ab3d
00000240: 36f8 e1bc d65b cfbd 5dc8 e13d 7391 62bd
00000250: b96f cbbd a5d1 493d 6c2a ecbd f7bd 00be
00000260: 8979 d53d 65d1 953c 516b 14bd 1cf0 49bd
00000270: 8da4 403e ccd4 ab3c 887d c23c 1ae9 02bd
00000280: 2b07 7dbc 40f3 b9bc d9c0 11bb 6d23 f23b
00000290: 3f23 953d 0327 e8bc b9f0 9b3b 1a4a 7b3d
000002a0: 03d1 44bd e262 263e 14d1 263d d057 823e
000002b0: 8ccb c23d 94f9 9cbd c53e 033e 12f1 17be
000002c0: 01fa 01be 764b 93bd cf20 c3bd 54ac 053e
000002d0: c27e 3ebe 3fc0 e5bd 522a aa3d 2561 abbd
000002e0: 81bc 3d3d 72ec 2dbd 287d 1cbd 7a46 e5bd
000002f0: 2dc8 7fbd 99ea 2dbd 284d 1a3d 84ac a23c
00000300: 924d 243e d65e febd 247a 003e 7cbf 8b3d
00000310: 8b50 fdbc 85e0 cbbd e3de da3d 1c7a 933d
00000320: c161 413d 712f fcbc 0fd7 883d ba39 79bb
00000330: 72c3 b93d e593 c33d a714 303e ccb7 80bd
00000340: 879b 97bc 2b75 c4bd d186 e13c a50b 97bd
00000350: 7670 79ba 1d53 203e a38b 94bc 763e 86bc
00000360: 8c5e fc3c 3dc2 c23c f8b9 593e 44f1 073e
00000370: ede5 8939 7153 60bd 4511 013d bce9 07bd
00000380: 720a 5a3d 7c12 553d 6c9b c03d 11b4 35bd
00000390: 38d6 f7bd 2a79 89bd 3332 b3be 6d30 5f3d
000003a0: ddc7 113e d153 7cbd 7935 febc 8516 73bc
000003b0: b0c8 8abd 35fd cebd 074c 0cbd d0c3 0f3e
000003c0: 4f99 7bbd 9100 d4bd aef0 5dba d938 07be
000003d0: 60b6 abbd ffc6 253e 46ab 743e 6456 8bbd
000003e0: bc98 f6bc 10b5 ec3d 2928 8b3d 728a e4bd
000003f0: cef7 87be 5954 02be 5870 14bd c556 b0bd

network_body._body_endoder.seq_layers.8.bias f4 [128]
-0.027629135 -0.027409721 -0.02422735 -0.02215305 -0.016909989 -0.052809954 -0.016794793 -0.013604083
-0.020636462 -0.005861985 -0.0052188584 -0.043136425 -0.04913038 -0.040949922 -0.027607067 -0.01491077
-0.025760286 -0.013583981 0.012828192 -0.014579409 -0.0119974995 -0.0114191 -0.009257873 0.0033442937
0.0006233468 -0.007339718 -0.01594646 -0.041906588 -0.019681374 -0.028237553 -0.008294915 -0.022293782
-0.020837544 -0.019550739 -0.017745597 -0.01423343 -0.010275295 -0.022121105 -0.028443454 -0.05321145
-0.009783865 -0.016118657 -0.020825364 -0.007396127 -0.005278539 -0.015888335 -0.015835576 -0.026811948
-0.01557644 -0.008258362 -0.0070901886 -0.05562322 -0.016798193 -0.009996404 -0.009985135 -0.013168888
-0.06140816 -0.0060755895 -0.035869926 -0.01751287 -0.054734398 -0.024437483 0.002605437 -0.0100524165
-0.017856969 -0.020647287 -0.019781852 -0.01697051 0.0045224093 -0.018721728 -0.00814838 0.013362446
-0.0051702154 -0.03688501 -0.033156894 -0.016444268 -0.012432216 0.04583 -0.01446313 -0.015566056
-0.028183859 -0.02033896 -0.011110379 -0.016270315 -0.0043315846 -0.020084772 -0.013873313 -0.0381614
-0.026408138 -0.013688375 -0.01964946 -0.024888437 -0.025218092 0.00075013743 -0.003642028 -0.018837564
-0.016594037 -0.006855025 -0.016780788 -0.00026528887 -0.018694948 -0.024831783 -0.039062135 -0.019444233
-0.061503544 -0.028143952 -0.015885588 -0.0143324975 -0.027427087 -0.01477053 -0.016450526 -0.011911909
-0.012095493 -0.0063903993 -0.03144697 -0.05545128 -0.032716904 -0.03221728 -0.0119379405 -0.018759415
-0.011001069 -0.017468035 -0.016347663 -0.040119052 -0.0050455565 7.9108475e-05 -0.0058950447 -0.010222492
00000000: 7f56 e2bc 5a8a e0bc 6f78 c6bc 507a b5bc
00000010: d186 8abc 404f 58bd 3c95 89bc a9e3 5ebc
00000020: cc0d a9bc e515 c0bb f502 abbb d2af 30bd
00000030: f03c 49bd 1bbb 27bd 3728 e2bc 4d4c 74bc
00000040: 3c07 d3bc 598f 5ebc 562d 523c 79de 6ebc
00000050: 2991 44bc 2d17 3bbc 55ae 17bc f02b 5b3b
00000060: 1868 233a 0482 f0bb 27a2 82bc 3ea6 2bbd
00000070: d53a a1bc 7152 e7bc 65e7 07bc 73a1 b6bc
00000080: 7fb3 aabc df28 a0bc 375f 91bc 5533 69bc
00000090: b659 28bc 5237 b5bc 3f02 e9bc 40f4 59bd
000000a0: 814c 20bc 460b 84bc f499 aabc 365b f2bb
000000b0: 98f7 acbb 4128 82bc 9cb9 81bc bba4 dbbc
000000c0: 5334 7fbc 154e 07bc d054 e8bb 2cd5 63bd
000000d0: 5d9c 89bc f5c7 23bc b198 23bc 52c2 57bc
000000e0: 1f87 7bbd bd15 c7bb 58ec 12bd 2677 8fbc
000000f0: 2d31 60bd 1e31 c8bc fbbf 2a3b e4b2 24bc
00000100: c748 92bc 8024 a9bc 8d0d a2bc bd05 8bbc
00000110: b830 943b 4f5e 99bc c880 05bc 29ee 5a3c
00000120: e96a a9bb bc14 17bd 86cf 07bd 21b6 86bc
00000130: 7eb0 4bbc 3db8 3b3d c4f6 6cbc c508 7fbc
00000140: d6e1 e6bc e49d a6bc 4f08 36bc 5349 85bc
00000150: f7ef 8dbb d288 a4bc e44c 63bc 214f 1cbd
00000160: e155 d8bc 3545 60bc e8f7 a0bc d6e2 cbbc
00000170: 2c96 cebc dfa4 443a 17af 6ebb 3c51 9abc
00000180: 38f0 87bc 1ea0 e0bb dd77 89bc 7816 8bb9
00000190: 2626 99bc 066c cbbc 9eff 1fbd 8349 9fbc
000001a0: 24eb 7bbd 258e e6bc 7e22 82bc dad2 6abc
000001b0: c5ae e0bc 1800 72bc 41c3 86bc 2b2a 43bc
000001c0: 2d2c 46bc 8e66 d1bb 8ace 00bd e220 63bd
000001d0: 2902 06bd 44f6 03bd 5a97 43bc 58ad 99bc
000001e0: d43d 34bc 2019 8fbc 89eb 85bc e053 24bd
000001f0: 3255 a5bb 0ae7 a538 382b c1bb 3d7c 27bc
