results/ppo/My Behavior/My Behavior-3487.onnx (onnx, 74167 bytes, 5 tensors)

action_model._continuous_distribution.mu.weight f4 [1, 128]
000000 4d 88 9e bc 97 44 58 bc a2 9c 63 bb 09 22 95 3c
       -0.019352103 -0.013199947 -0.0034730812 0.018204706
000010 5d 22 27 bc 07 00 a8 bc e7 16 0e 3c 0f d7 8b 3c
       -0.010201064 -0.020507826 0.0086724525 0.017070321
000020 fb c7 b6 ba 72 59 c7 3c 8b ee f5 ba 35 dd 98 3c
       -0.0013945097 0.024334643 -0.0018763108 0.018660167
000030 0f fe d1 b8 5d 04 80 3c a8 7c de bc 46 8e ab 3c
       -0.00010013219 0.01562708 -0.02715905 0.020941865
000040 27 fb 04 bc fa e8 bf bc 8c d6 89 3c c8 02 70 bc
       -0.00811652 -0.023426522 0.016825937 -0.014649101
000050 11 05 04 3d 7a 08 b5 3c df fb 14 3d 2b b3 7c bc
       0.032231394 0.022098769 0.036373015 -0.015423576
000060 2a ce e9 3b 46 8c 8b 39 87 7a 5f 39 c3 a6 5a bc
       0.0071351724 0.00026616658 0.00021312582 -0.013345423
000070 c5 49 5c 3b 16 6d 39 bc c0 7a 75 3c 7a 49 ae 3b
       0.0033613306 -0.011317512 0.014982879 0.0053188177
000080 d3 ba 90 bc 0b 4b 60 3c ff 7a ea 3a 77 a2 3f bb
       -0.01766721 0.013689767 0.0017889439 -0.0029241124
000090 92 bc 2d 3c 0f 04 9f 3c 3e ba 9b bb e8 7f 58 ba
       0.010604041 0.019411115 -0.0047524264 -0.00082588056
0000a0 fe e5 bb 3c b3 0d c7 3b e7 85 50 3c 5f 48 20 3c
       0.022936817 0.006074631 0.012727237 0.00978288
0000b0 a7 ee db bc 28 3e 92 bb 37 03 cf bc 42 8f 3d 3c
       -0.026847197 -0.004462976 -0.025270088 0.0115698
0000c0 88 1c 64 bb 47 b2 e6 3c 70 27 30 3c e6 3c 34 bb
       -0.0034807045 0.028161181 0.01075159 -0.0027502119
0000d0 c2 98 f7 bc ec af b5 3c cb 69 39 3c 4b 66 52 3c
       -0.030224208 0.022178613 0.011316727 0.012841771
0000e0 ed 02 f1 3b a4 00 a3 3b 24 b8 3f bb 4d 13 f9 3c
       0.007355085 0.0049744416 -0.0029254043 0.030404711
0000f0 5b 35 65 bc 22 11 08 3d b6 c1 94 3c ab cc 97 bc
       -0.013989772 0.033219464 0.018158775 -0.01853021
000100 85 2c 47 3c 25 12 b9 bc 18 1d 51 bc 37 56 60 bd
       0.01215661 -0.02259166 -0.012763284 -0.05476972
000110 d7 25 8d bb 25 19 4b bc 2f d9 5f 3c ff 62 e5 3b
       -0.0043074894 -0.012396132 0.01366262 0.0070003266
000120 e6 12 1f 3b c7 ae 07 3d 75 74 7b bb ad d8 11 3c
       0.002427274 0.033125665 -0.0038368974 0.008901757
000130 2f dc fc bb bf 20 15 bb 02 ed d4 bc fd 07 5f 3c
       -0.0077166776 -0.0022755114 -0.02599192 0.013612744
000140 37 37 91 bc be 0e 06 3c c0 6d e3 bb da d6 81 bc
       -0.017726524 0.008182226 -0.0069405735 -0.01584952
000150 0a 28 9b 3c 55 bb 14 bc 3f 2c 99 3b 9d 4c 4e bc
       0.01893999 -0.009077867 0.004674464 -0.012591508
000160 9f 31 ec 3c cf fe fb bc ff e7 d7 bc 43 3e f9 bc
       0.028832255 -0.03076115 -0.026355742 -0.030425197
000170 ba 53 9a 3b 7f 68 49 bb 0d 5d 26 bb a7 f6 8f bc
       0.004709688 -0.003073245 -0.0025385052 -0.017573668
000180 c8 6d dd bc 4f a8 42 bb f3 34 89 bc 79 c4 40 3c
       -0.027029887 -0.002970237 -0.016748881 0.011765593
000190 1e f4 87 3c ca 2a e3 bc bf da 5e bc 73 d2 bc 3b
       0.016595896 -0.027730364 -0.013601958 0.005762392
0001a0 9f 3e 50 bc df 87 34 bc 2a 3b c6 bc fb 0a 8d 3b
       -0.0127102425 -0.011018722 -0.024198133 0.0043042875
0001b0 40 ec 23 bc ff 9d 4d 3c 5b e8 07 3d c5 bd a7 3b
       -0.010005057 0.012549876 0.033180576 0.005119058
0001c0 89 53 af bc f3 ad df bc a4 9a 3a bb 6e be 8e 3c
       -0.021402137 -0.027304625 -0.002847352 0.017424788
0001d0 e1 d7 02 3d 73 fb be 3b ad 3f a5 3c 7d bb 02 bc
       0.03194416 0.005828315 0.020171965 -0.007979271
0001e0 d7 7e 8a bc fa 10 1f 3c b7 20 85 3a 12 a2 ba bc
       -0.016906185 0.009708637 0.0010156845 -0.02278236
0001f0 ec 87 b3 bc 17 5b 9e 3c 29 97 99 bc 82 a0 64 3c
       -0.021915399 0.019330544 -0.018748837 0.013954284

network_body._body_endoder.seq_layers.0.bias f4 [128]
000000 00 00 00 00 00 00 00 00 00 00 00 00 00 00 00 00
       0.0 0.0 0.0 0.0
000010 00 00 00 00 00 00 00 00 00 00 00 00 00 00 00 00
       0.0 0.0 0.0 0.0
000020 00 00 00 00 00 00 00 00 00 00 00 00 00 00 00 00
       0.0 0.0 0.0 0.0
000030 00 00 00 00 00 00 00 00 00 00 00 00 00 00 00 00
       0.0 0.0 0.0 0.0
000040 00 00 00 00 00 00 00 00 00 00 00 00 00 00 00 00
       0.0 0.0 0.0 0.0
000050 00 00 00 00 00 00 00 00 00 00 00 00 00 00 00 00
       0.0 0.0 0.0 0.0
000060 00 00 00 00 00 00 00 00 00 00 00 00 00 00 00 00
       0.0 0.0 0.0 0.0
000070 00 00 00 00 00 00 00 00 00 00 00 00 00 00 00 00
       0.0 0.0 0.0 0.0
000080 00 00 00 00 00 00 00 00 00 00 00 00 00 00 00 00
       0.0 0.0 0.0 0.0
000090 00 00 00 00 00 00 00 00 00 00 00 00 00 00 00 00
       0.0 0.0 0.0 0.0
0000a0 00 00 00 00 00 00 00 00 00 00 00 00 00 00 00 00
       0.0 0.0 0.0 0.0
0000b0 00 00 00 00 00 00 00 00 00 00 00 00 00 00 00 00
       0.0 0.0 0.0 0.0
0000c0 00 00 00 00 00 00 00 00 00 00 00 00 00 00 00 00
       0.0 0.0 0.0 0.0
0000d0 00 00 00 00 00 00 00 00 00 00 00 00 00 00 00 00
       0.0 0.0 0.0 0.0
0000e0 00 00 00 00 00 00 00 00 00 00 00 00 00 00 00 00
       0.0 0.0 0.0 0.0
0000f0 00 00 00 00 00 00 00 00 00 00 00 00 00 00 00 00
       0.0 0.0 0.0 0.0
000100 00 00 00 00 00 00 00 00 00 00 00 00 00 00 00 00
       0.0 0.0 0.0 0.0
000110 00 00 00 00 00 00 00 00 00 00 00 00 00 00 00 00
       0.0 0.0 0.0 0.0
000120 00 00 00 00 00 00 00 00 00 00 00 00 00 00 00 00
       0.0 0.0 0.0 0.0
000130 00 00 00 00 00 00 00 00 00 00 00 00 00 00 00 00
       0.0 0.0 0.0 0.0
000140 00 00 00 00 00 00 00 00 00 00 00 00 00 00 00 00
       0.0 0.0 0.0 0.0
000150 00 00 00 00 00 00 00 00 00 00 00 00 00 00 00 00
       0.0 0.0 0.0 0.0
000160 00 00 00 00 00 00 00 00 00 00 00 00 00 00 00 00
       0.0 0.0 0.0 0.0
000170 00 00 00 00 00 00 00 00 00 00 00 00 00 00 00 00
       0.0 0.0 0.0 0.0
000180 00 00 00 00 00 00 00 00 00 00 00 00 00 00 00 00
       0.0 0.0 0.0 0.0
000190 00 00 00 00 00 00 00 00 00 00 00 00 00 00 00 00
       0.0 0.0 0.0 0.0
0001a0 00 00 00 00 00 00 00 00 00 00 00 00 00 00 00 00
       0.0 0.0 0.0 0.0
0001b0 00 00 00 00 00 00 00 00 00 00 00 00 00 00 00 00
       0.0 0.0 0.0 0.0
0001c0 00 00 00 00 00 00 00 00 00 00 00 00 00 00 00 00
       0.0 0.0 0.0 0.0
0001d0 00 00 00 00 00 00 00 00 00 00 00 00 00 00 00 00
       0.0 0.0 0.0 0.0
0001e0 00 00 00 00 00 00 00 00 00 00 00 00 00 00 00 00
       0.0 0.0 0.0 0.0
0001f0 00 00 00 00 00 00 00 00 00 00 00 00 00 00 00 00
       0.0 0.0 0.0 0.0

network_body._body_endoder.seq_layers.0.weight f4 [128, 10]
000000 68 46 84 bd 4c 9c 46 bd cc ef 0d bd 2f b0 02 3e
       -0.064587414 -0.0484889 -0.034652516 0.12762521
000010 a8 79 47 3e 19 52 c2 bd dc c1 24 be 74 73 70 be
       0.19480002 -0.09488315 -0.16089576 -0.23481542
000020 aa 37 f2 3e 5c fe d2 bd 31 0b db be cd 57 39 be
       0.47308093 -0.103024215 -0.42781976 -0.180999
000030 72 98 51 be 3c 9a 3c 3e ed c4 b5 3c 39 10 03 3e
       -0.2046831 0.1841821 0.022188628 0.12799157
000040 0c 58 c7 3e a8 57 b3 3e 89 7f 13 3f 4e b9 34 bf
       0.38934362 0.35027814 0.5761648 -0.7059525
000050 0b 9e de 3d f3 4c f4 be 5f 12 7f 3e 2d 93 05 bf
       0.10869988 -0.47714958 0.24909352 -0.521777
000060 61 c2 92 3e 3e d2 ea 3e f2 19 9b 3e 99 b3 4b bd
       0.28663924 0.45863527 0.30293232 -0.049731825
000070 f4 71 ae 3e b4 25 d0 be 03 92 82 3d 54 be 4c 3e
       0.34071314 -0.40653765 0.06375506 0.1999448
000080 62 c7 b7 3c d9 c2 cf 3d 65 5f a3 be bd a4 79 bd
       0.02243394 0.10144586 -0.31908718 -0.060948122
000090 db db d8 be e3 99 f5 3d ad 1a 29 bf 77 32 be be
       -0.42355236 0.11992242 -0.6605633 -0.37147877
0000a0 da 81 35 be 64 fb 24 bf 85 a6 46 bc b3 23 20 bf
       -0.17725316 -0.6444609 -0.012124662 -0.6255447
0000b0 b9 e5 0c 3e 6d 32 af 3d 0c 6e cb bd 61 f6 11 be
       0.13759507 0.0855454 -0.09933099 -0.14254142
0000c0 12 d7 b3 bd 82 ff 96 be 84 87 e5 3d b0 2e 94 3e
       -0.08781256 -0.29491812 0.11207488 0.2894187
0000d0 8f 70 a0 3d 1b 9d dd bd bb a9 f0 be 43 6e 4f be
       0.07833969 -0.10820981 -0.47004494 -0.20256905
0000e0 e4 0d 00 bf e7 f2 26 be fa 5f f8 3e 59 a3 02 3f
       -0.50021195 -0.16303597 0.48510724 0.510305
0000f0 92 7f c2 bd f9 40 50 be ab a7 7f 3e b9 66 e4 3e
       -0.09496988 -0.20337285 0.24966304 0.4460962
000100 b2 98 b2 3e bb 32 b9 be 30 c8 94 be 4d bd 88 3d
       0.34882122 -0.36171517 -0.2905898 0.06676731
000110 e4 2c 74 3e b6 5c 91 3d ee 9d 1d be 04 86 85 be
       0.2384525 0.07097761 -0.15392277 -0.26078808
000120 ea 1c b1 bd 7d d1 4b be 06 97 58 3e ba e7 70 be
       -0.08648093 -0.19904132 0.21151361 -0.23525897
000130 af 0a cb 3e e4 42 f1 bd 2f 13 f1 bc 36 23 a1 3e
       0.39656588 -0.117803365 -0.029428093 0.31472176
000140 aa 99 21 3e 7d 50 94 be 6c a2 11 3e da 08 1f bf
       0.15781274 -0.28967658 0.14222115 -0.6212288
000150 9a 10 db be d7 f1 1b 3e cf 66 87 3e 10 ab 71 bd
       -0.42786103 0.15228973 0.26445624 -0.05900103
000160 8e 91 26 3e bf 83 01 3f 6b b9 a4 bd 71 21 df be
       0.16266462 0.50591654 -0.08043178 -0.435802
000170 d1 8e 6e be c6 28 91 3d c7 69 8c 3e d9 04 fb be
       -0.23296668 0.07087855 0.27424452 -0.49027136
000180 11 50 b2 3e 3e a5 d4 bd 57 11 21 be 18 2f de be
       0.3482671 -0.1038308 -0.15729271 -0.43395305
000190 ae d2 4c 3e f9 9c 24 bf c1 0e 58 3d 1f 7a 22 be
       0.20002243 -0.6430202 0.052748445 -0.15866898
0001a0 53 b6 c1 3d 2a 59 83 bd ef f0 0e be db 0e 40 3e
       0.09458604 -0.06413491 -0.13959096 0.18755667
0001b0 f5 af 14 3f 07 e5 92 be c2 4d 50 bd 89 b4 95 3e
       0.5808099 -0.2869036 -0.050855406 0.292393
0001c0 54 aa b6 38 67 a8 b7 3e f9 f8 ab be be 5a 93 3d
       8.7101624e-05 0.35870668 -0.3358839 0.07195042
0001d0 a1 0e 4c 3e 38 0f 17 bd b2 e9 10 3e 96 4c 05 3e
       0.19927455 -0.036879748 0.14151648 0.13017496
0001e0 12 a2 1a 3f 10 fe bb 3d a5 46 b6 3e f5 b7 14 be
       0.6040355 0.09179318 0.35600773 -0.14523299
0001f0 3b 9d 19 3e f9 aa 4c 3e ce f5 67 be 22 cd 5c 3e
       0.15001385 0.19987096 -0.22652361 0.21562627
000200 89 81 b7 bb d4 2d 07 3f 7e f0 c0 3d c8 0c 88 3e
       -0.0056001586 0.52804303 0.0942087 0.2657225
000210 48 f1 6b bd a4 db ed 3d e7 b2 0e 3e f7 39 5f be
       -0.05760315 0.11614159 0.13935433 -0.21799456
000220 7b 5e ab bd 21 f6 c2 3c d0 7e 8f 3d 02 de 63 3e
       -0.0836763 0.023799004 0.070066094 0.22252658
000230 84 46 63 3e a7 a7 0a bf 42 5b f4 3d 2b ae 07 3f
       0.22194868 -0.5416207 0.119314685 0.53000134
000240 cf 1f 0e be 81 da 6c be cb 85 30 bd 6c 0f e1 be
       -0.13879322 -0.23130228 -0.043096345 -0.43957078
000250 c4 8e 0d be fa c7 55 be fa 3d 80 bd af 23 6e 3e
       -0.13823992 -0.20877066 -0.06261821 0.232558
000260 ec 7e 9a 3c 44 c7 8b 3f c6 a7 08 bf 9f 65 8d 3e
       0.01885935 1.0920186 -0.53381 0.27616593
000270 74 e4 f6 bd 18 a4 38 be 0b 02 13 be a4 4f e8 bd
       -0.12055293 -0.18031347 -0.14356248 -0.11343315
000280 1f 71 94 3d da 57 5d be bf 83 e5 3d b6 4b b5 3e
       0.07248139 -0.21615544 0.11206769 0.35409325
000290 82 ad 58 be 71 5a 88 3e cc 87 ed be be 45 cb 3e
       -0.21159938 0.266315 -0.46392667 0.39701647
0002a0 ee e0 c7 be 84 7b a5 3e 14 c4 83 be 71 8d 2b be
       -0.39038795 0.32320797 -0.25735533 -0.16753174
0002b0 fa d2 81 be 34 6c 7e 3f 32 3c 1c bd 34 da 35 3d
       -0.25356275 0.99383855 -0.038143344 0.044397548
0002c0 d1 b7 7f be 5c 01 9b bd 7e d5 e9 3d cf 60 9a be
       -0.24972464 -0.07568619 0.114176735 -0.30151984
0002d0 ec d7 4c be af 36 14 3f d3 e7 60 3e 2e 7a 13 be
       -0.20004243 0.5789594 0.21963434 -0.14402077
0002e0 b2 89 ad 3d b6 d9 1b bd a1 3b 2c 3d 1a 7a dc 3e
       0.08473529 -0.038049422 0.042049054 0.43061906
0002f0 d7 3f 08 3e 10 a8 11 3d f5 a5 2d 3e a3 8b 37 3e
       0.13305603 0.035560668 0.16957839 0.17924361
000300 a1 46 06 bd e1 b4 c8 3e 6e 8d 86 3d 0e a3 ae bd
       -0.0327822 0.392005 0.06569944 -0.08527194
000310 61 56 db 3c f3 21 e1 be 5e 53 c0 3d 04 3f cf be
       0.026774587 -0.43971214 0.09390901 -0.40477765
000320 4e 98 ba bd 38 3f 23 bd b4 24 3d bd b5 88 a7 bc
       -0.09111081 -0.039855212 -0.04617758 -0.02045093
000330 72 97 b7 3d 14 30 f5 bd 9b c5 01 3f 0e d6 4c 3c
       0.08964433 -0.11972061 0.50692147 0.0125022065
000340 19 f2 95 3d 19 65 84 3e 43 c7 98 be 15 a7 d1 3d
       0.07321567 0.2585838 -0.29839525 0.102369465
000350 a5 0b e2 3e 8e 24 71 3f 0a 55 a9 3e 96 52 e7 3d
       0.4414951 0.94196403 0.33072692 0.11295049
000360 3d a4 16 be af f8 3e 3e 8d a2 b1 3d 47 a2 f3 bd
       -0.1471109 0.18649553 0.08673582 -0.11896186
000370 f4 29 25 3e 89 e2 bb 3e 9d 07 87 be 80 3f bc be
       0.16129285 0.3669627 -0.26372996 -0.36767197
000380 0e 91 2a 3d c1 1a f7 be 42 18 8d be 24 b5 dc 3e
       0.04164224 -0.482626 -0.2755757 0.4310695
000390 72 0b 87 bd 50 26 34 bd 22 03 01 bf 85 a5 0f be
       -0.0659398 -0.04398185 -0.50395405 -0.14027984
0003a0 be e3 c1 bd ca 3b 58 be 7d a2 c2 3e 41 52 6a be
       -0.094672665 -0.21116558 0.38014594 -0.2288294
0003b0 25 64 a7 bc 40 33 7d 3d 57 8e 52 3e 90 6c 71 3e
       -0.020433495 0.061816454 0.20562111 0.2357657
0003c0 1d a3 31 3f 06 be 3e be 5c 0c c2 3d 2d 93 13 3d
       0.69389516 -0.18627176 0.094750136 0.03602903
0003d0 66 56 a8 bd d1 fd de 3c c8 9b 86 3c 62 5f 62 be
       -0.08219604 0.027220638 0.016431704 -0.22106698
0003e0 5b aa 35 3f 85 93 66 bc 17 4a 1e 3e a3 00 67 be
       0.70963067 -0.014073257 0.1545795 -0.22558837
0003f0 be 80 a0 b8 0b d0 f8 be 5d d9 6b be 6c b5 d2 bd
       -7.6533746e-05 -0.48596224 -0.23032136 -0.1028851

network_body._body_endoder.seq_layers.2.bias f4 [128]
000000 00 00 00 00 00 00 00 00 00 00 00 00 00 00 00 00
       0.0 0.0 0.0 0.0
000010 00 00 00 00 00 00 00 00 00 00 00 00 00 00 00 00
       0.0 0.0 0.0 0.0
000020 00 00 00 00 00 00 00 00 00 00 00 00 00 00 00 00
       0.0 0.0 0.0 0.0
000030 00 00 00 00 00 00 00 00 00 00 00 00 00 00 00 00
       0.0 0.0 0.0 0.0
000040 00 00 00 00 00 00 00 00 00 00 00 00 00 00 00 00
       0.0 0.0 0.0 0.0
000050 00 00 00 00 00 00 00 00 00 00 00 00 00 00 00 00
       0.0 0.0 0.0 0.0
000060 00 00 00 00 00 00 00 00 00 00 00 00 00 00 00 00
       0.0 0.0 0.0 0.0
000070 00 00 00 00 00 00 00 00 00 00 00 00 00 00 00 00
       0.0 0.0 0.0 0.0
000080 00 00 00 00 00 00 00 00 00 00 00 00 00 00 00 00
       0.0 0.0 0.0 0.0
000090 00 00 00 00 00 00 00 00 00 00 00 00 00 00 00 00
       0.0 0.0 0.0 0.0
0000a0 00 00 00 00 00 00 00 00 00 00 00 00 00 00 00 00
       0.0 0.0 0.0 0.0
0000b0 00 00 00 00 00 00 00 00 00 00 00 00 00 00 00 00
       0.0 0.0 0.0 0.0
0000c0 00 00 00 00 00 00 00 00 00 00 00 00 00 00 00 00
       0.0 0.0 0.0 0.0
0000d0 00 00 00 00 00 00 00 00 00 00 00 00 00 00 00 00
       0.0 0.0 0.0 0.0
0000e0 00 00 00 00 00 00 00 00 00 00 00 00 00 00 00 00
       0.0 0.0 0.0 0.0
0000f0 00 00 00 00 00 00 00 00 00 00 00 00 00 00 00 00
       0.0 0.0 0.0 0.0
000100 00 00 00 00 00 00 00 00 00 00 00 00 00 00 00 00
       0.0 0.0 0.0 0.0
000110 00 00 00 00 00 00 00 00 00 00 00 00 00 00 00 00
       0.0 0.0 0.0 0.0
000120 00 00 00 00 00 00 00 00 00 00 00 00 00 00 00 00
       0.0 0.0 0.0 0.0
000130 00 00 00 00 00 00 00 00 00 00 00 00 00 00 00 00
       0.0 0.0 0.0 0.0
000140 00 00 00 00 00 00 00 00 00 00 00 00 00 00 00 00
       0.0 0.0 0.0 0.0
000150 00 00 00 00 00 00 00 00 00 00 00 00 00 00 00 00
       0.0 0.0 0.0 0.0
000160 00 00 00 00 00 00 00 00 00 00 00 00 00 00 00 00
       0.0 0.0 0.0 0.0
000170 00 00 00 00 00 00 00 00 00 00 00 00 00 00 00 00
       0.0 0.0 0.0 0.0
000180 00 00 00 00 00 00 00 00 00 00 00 00 00 00 00 00
       0.0 0.0 0.0 0.0
000190 00 00 00 00 00 00 00 00 00 00 00 00 00 00 00 00
       0.0 0.0 0.0 0.0
0001a0 00 00 00 00 00 00 00 00 00 00 00 00 00 00 00 00
       0.0 0.0 0.0 0.0
0001b0 00 00 00 00 00 00 00 00 00 00 00 00 00 00 00 00
       0.0 0.0 0.0 0.0
0001c0 00 00 00 00 00 00 00 00 00 00 00 00 00 00 00 00
       0.0 0.0 0.0 0.0
0001d0 00 00 00 00 00 00 00 00 00 00 00 00 00 00 00 00
       0.0 0.0 0.0 0.0
0001e0 00 00 00 00 00 00 00 00 00 00 00 00 00 00 00 00
       0.0 0.0 0.0 0.0
0001f0 00 00 00 00 00 00 00 00 00 00 00 00 00 00 00 00
       0.0 0.0 0.0 0.0

network_body._body_endoder.seq_layers.2.weight f4 [128, 128]
000000 46 cc 1b 3e db 61 9c 3d 1c ba d4 bd f8 14 54 3d
       0.15214643 0.07635852 -0.1038706 0.05177781
000010 dd 7d 5b be e7 57 83 bc 1e d2 ec bc 5d da 66 3c
       -0.21434732 -0.016033126 -0.028908785 0.014090148
000020 f8 73 a6 bc 91 53 0a 3e 1b 51 8b 3d 7c ba 23 bd
       -0.02031897 0.1350844 0.06802579 -0.039972767
000030 71 3a 78 bd 0e fc 99 bc a0 ca 10 3d a7 16 6e bd
       -0.06060261 -0.018796947 0.03534949 -0.05812707
000040 1f 8a 46 bd 2f 40 9f 3d 8c fa ae 3d 66 0b 42 3d
       -0.048471566 0.07775914 0.08543882 0.04737415
000050 5e 48 87 b9 24 76 75 3c e6 24 55 bc d1 16 17 bc
       -0.00025803124 0.01498178 -0.013009286 -0.009221748
000060 7c 79 33 bc 53 e1 8c 3e cf c8 7c bd 4b da 8b bd
       -0.010954257 0.2751566 -0.061714943 -0.068287455
000070 0f 60 34 bd 53 b6 7b bd 37 98 c6 3c 5c 33 13 3e
       -0.04403692 -0.061453175 0.024242504 0.14375061
000080 38 89 54 3e c6 03 c8 3d cd 3f 92 3c 04 32 56 3e
       0.2075547 0.09766345 0.017852688 0.20917517
000090 e9 2e a8 bd 18 ff 12 3d 51 d1 23 bc 0f 58 04 be
       -0.082120724 0.035887808 -0.009998635 -0.12924217
0000a0 4e 7e 00 3d dd 93 52 3b 3c cd 38 3d 81 02 65 bd
       0.031370454 0.003213159 0.0451176 -0.05591059
0000b0 4f 25 c2 3d 12 f2 f6 3d 73 5e 65 bd c2 0b 13 be
       0.09479772 0.1205789 -0.055998277 -0.14359954
0000c0 5c b8 36 3c 5b ed 13 3e 79 ad a9 3d 08 6d 38 3d
       0.011152353 0.14446013 0.082850404 0.045025855
0000d0 c9 82 6e bd c0 d7 15 3c d8 a6 ca 3d a6 a5 d3 bd
       -0.058230195 0.009145677 0.09895104 -0.10334329
0000e0 dc 1f 24 3b 83 b2 79 3d 2c fa 90 38 67 17 7c bd
       0.0025043404 0.060961258 6.913053e-05 -0.061545756
0000f0 d0 4b 32 3d 51 3c 06 3e 11 6b 97 3d 88 20 30 3e
       0.04352933 0.13108946 0.07393468 0.1719991
000100 e2 70 75 bd 9e 33 91 3c b9 ee 1d 3e 56 3a f3 bc
       -0.059922107 0.017724808 0.15423097 -0.029690903
000110 2a d6 24 3c 64 db 3a bd 62 ce 51 bd 8e 86 c6 3d
       0.010060826 -0.045619383 -0.051222213 0.09693633
000120 42 3c da bd 5f 1c 8d 3d 8b 3c 67 bd 9d 1f 71 3d
       -0.106560245 0.06890177 -0.056454223 0.05886804
000130 b7 5c 83 3d 46 ed fc bd 54 27 4b 3d fa 6c c7 bd
       0.06414168 -0.12349944 0.049598053 -0.097375825
000140 b9 6c 06 be 19 fa e6 3d fe 4b 4d 3d 7b 59 46 bb
       -0.13127412 0.11278171 0.0501213 -0.0030265737
000150 56 27 45 3d ba 35 7f bd d2 35 78 3e 3f 95 eb 3c
       0.048133217 -0.062307097 0.24239281 0.02875769
000160 cf 07 1c 3d 6a c5 12 3d 81 36 19 be 06 66 e6 bc
       0.038093384 0.0358328 -0.14962198 -0.02812482
000170 75 63 96 bd 5b 6e 55 bd 22 84 1e 3c fe 28 58 bc
       -0.07343189 -0.052107196 0.009675058 -0.013193367
000180 77 8a 59 3d 22 e6 d8 bb 27 b0 29 3d a8 37 99 bd
       0.053110566 -0.006619231 0.041427758 -0.07481319
000190 65 10 53 3d 32 4c 99 bd 83 a8 e4 bd b8 43 41 3c
       0.051529307 -0.07485236 -0.111649536 0.011795931
0001a0 fc 35 85 bd 57 87 de 3d 67 5e e8 bc a9 44 5f 3d
       -0.06504437 0.10865658 -0.028365327 0.05450884
0001b0 fe 93 77 3c 01 04 10 bd ca fc 14 bd 8c 5c c3 3c
       0.015110968 -0.03516007 -0.03637389 0.02384784
0001c0 94 d0 f1 3c 7a 74 c6 3d e2 53 1c 3d ce 6b 16 be
       0.029518403 0.09690185 0.038165934 -0.14689562
0001d0 77 9a f4 bd 51 16 ab 3d 4e 39 81 bc 65 96 ce 3c
       -0.11943524 0.08353866 -0.015774395 0.025218198
0001e0 73 e7 ea 3c 9a cb ee 3b 17 71 af 3d d7 ca 46 3d
       0.028674817 0.007287455 0.08566492 0.048533287
0001f0 52 8b 01 be 8b df bf 3d 3c fa 4c 3d 3f d0 c7 bc
       -0.12650803 0.09368809 0.05004333 -0.024391292
000200 ec a7 e3 3d 5d f4 5c be 42 b1 d3 bd b7 8a 09 3d
       0.11116013 -0.21577592 -0.103365436 0.033579554
000210 49 ac 60 bd 80 9e 6a bd cc 37 ea 3d 61 17 f1 bd
       -0.054851804 -0.057280064 0.11436424 -0.11772037
000220 fa 3a 91 bd 3b ed 3c 3e a6 53 07 3d 49 c7 e5 ba
       -0.07091327 0.18449871 0.033038758 -0.0017530705
000230 3d 3a 2b bd e7 4b 5d 3d ba 76 38 bd 54 9e 14 ba
       -0.041803587 0.054027464 -0.0450351 -0.00056693447
000240 42 da 83 bd 05 18 49 3d 1c 01 ec 3c b4 52 ef bc
       -0.06438114 0.049095172 0.028809123 -0.02921424
000250 b6 12 32 be 45 b1 0e bd 9f 19 a0 bd b1 bc 76 bd
       -0.1738995 -0.034837026 -0.07817387 -0.060238544
000260 8c a4 fd bb 19 c2 ec bc 5e ed 1d 3d 2d 9a 09 3a
       -0.007740563 -0.028901147 0.03855645 0.0005249109
000270 6a ae a1 3c 65 8e 82 3c 9e de d9 3c 10 e6 96 bd
       0.019736487 0.01593704 0.02659541 -0.073681
000280 4c 22 d7 3c 39 f1 c6 3d ff f9 e8 bb f5 f6 86 3b
       0.026261471 0.09713978 -0.00710988 0.004118795
000290 ed a0 e9 3c a8 81 03 bd ae 0b 78 bd 30 1a fb 3c
       0.028519118 -0.03210607 -0.060558014 0.030652136
0002a0 d5 d6 73 3d 11 32 52 bd 7f 13 bb bd c7 f5 39 bc
       0.05953105 -0.05131728 -0.09134578 -0.011350102
0002b0 a8 ce 22 bd 12 b8 fd bc 6a 6d 87 bc c7 b3 c9 bc
       -0.039747864 -0.03097156 -0.016531665 -0.024621857
0002c0 38 c1 7c 3c 13 6d a1 bd 92 c5 cb 3d bd 5f 2b bd
       0.015426926 -0.078821324 0.09949793 -0.04183935
0002d0 3a 11 27 3c 9a 7d bb bd 96 48 d5 3b c6 d6 de bc
       0.010196978 -0.09154816 0.006508897 -0.027202021
0002e0 3b 9f 03 3e 0b ad 01 3e 51 d4 b1 bd 7b ad 90 bd
       0.1285371 0.12663667 -0.08683074 -0.07064339
0002f0 b0 d1 a5 3c 5f 35 2c 3d ab 81 a7 bd 60 33 30 3e
       0.020241588 0.042043086 -0.08179029 0.17207098
000300 81 f2 2f 3e 77 05 8f 3d 5d 98 16 bd 0f c7 27 3e
       0.17182352 0.06983464 -0.0367664 0.16384529
000310 49 21 65 3d d1 0a ed 3b 81 2d 81 bd 6b 7c 87 bd
       0.055939946 0.0072339554 -0.06307507 -0.06615528
000320 aa f8 8a bc e5 8a 93 bd 57 d0 58 3e c9 f6 06 3e
       -0.016964275 -0.072042264 0.21173225 0.13180079
000330 ef eb 58 bd ea 6f 6e 3d a2 45 12 bd 7b 14 68 3d
       -0.05295938 0.0582122 -0.03571094 0.056660157
000340 45 95 ac bd 47 51 a3 bd c1 66 3a 3e f9 e2 91 bd
       -0.084269084 -0.07974487 0.1820326 -0.0712337
000350 44 e1 d9 3b 68 92 04 3e 22 a6 74 bc 0e ed 8a 3d
       0.006649168 0.12946475 -0.014932187 0.06783496
000360 72 9f 57 3d 9f d3 0a 3e a2 2c e6 3b 1c 30 a2 bc
       0.052642293 0.1355729 0.0070243636 -0.019798331
000370 3f 0e b2 bc 57 fb e8 bc 01 ff 2a be 39 83 ce bc
       -0.021735309 -0.02844016 -0.16698839 -0.025209056
000380 1b 3c 18 be bc 80 b1 bc b6 4d 50 be 60 d0 f4 3d
       -0.14866678 -0.02166783 -0.20342144 0.11953807
000390 d8 e3 f9 3d 16 4e 1b 3e e3 8d ba bb 47 f7 5e 3c
       0.12201661 0.15166506 -0.0056931837 0.01360876
0003a0 b7 81 28 bd c1 71 18 3e 65 8c 2d be e6 de 88 3d
       -0.04113933 0.14887144 -0.16948088 0.066831395
0003b0 b5 1e 1e bd 37 8f 0f 3d ca 7f ae bd c5 fb 1b 3d
       -0.038603503 0.03504869 -0.085204676 0.038081903
0003c0 2d 0d f1 bd 90 19 76 3c cd fe 4a 3b 4a 27 f0 3c
       -0.11770091 0.015020743 0.0030974627 0.02931561
0003d0 09 5a 8f bd 2e 77 75 bc 2e ac ec bd 29 f1 0b 3e
       -0.06999595 -0.014982028 -0.11556278 0.13666214
0003e0 a2 d4 11 3c 60 0d b7 bd 8b 20 4b bd 10 f7 f4 bd
       0.008900793 -0.08938098 -0.049591582 -0.11961186
0003f0 92 f2 47 bd 91 43 ec bc 70 b5 cc 3b 62 37 24 3e
       -0.048815317 -0.028840812 0.006247215 0.16036752
