results/ppo/My Behavior/My Behavior-500019.pt (torch, 434695 bytes, 33 tensors)

network_body._body_endoder.seq_layers.0.weight f4 [128, 5]
00000000: 8005 1e3d e928 4a3f 6a21 373e f758 42bf
00000010: a83f 7a3d 9c70 273f df95 40be 32c7 eebd
00000020: 147e 543e 9fdc 3e3f 0400 96bc c2d7 d1be
00000030: eb09 853e 7eb1 29bf 5707 013f 4b3a 283e
00000040: 3ef0 343e b051 80bf 6321 acbe a6e8 a9bd
00000050: 9dc0 9bbe a80e c53d 7f09 d0be aa11 753e
00000060: ae10 90be 88a1 2abf cece 94bf 25f6 2e3f
00000070: 4f04 de3d e50e 69be 2aa9 d8be a392 473f
00000080: 52e0 503e 142b 01bf 1a0a e03d b889 6e3f
00000090: d37a 04bf fea4 323e 30ae ac3e ea52 803e
000000a0: 325e fc3d caef 65bf bb0c 403e 9c0c 663e
000000b0: 34fa fdbe 89fc ce3c cbe6 04bf 2006 12be
000000c0: 46f5 8bbe d06c 1abf e6b3 99be 8fe3 613e
000000d0: f28a b83e b95b 3ebf e8b7 afbe 5426 3bbf
000000e0: 8c7d 473e 56f4 d13e 1aab cdbe f40d 13bf
000000f0: 9203 3bbe 7cfa acbe 9943 5b3f f3a8 77be
00000100: 16c9 163e 554f 60be d13c a53e d657 c5be
00000110: b67f 20bf 9272 843e 0a57 eb3d e661 a1bd
00000120: 7f97 373f 7258 a8be 4430 34be 259f 67be
00000130: a8e0 b1bd 9c66 7fbf 07cc 8c3e 8468 d3bd
00000140: c52d 23bf 59ad 8dbf daf5 14bf 372c 61bf
00000150: f162 853d 2029 d03e cf7c babe 0fa7 cbbe
00000160: 0121 263f def3 2e3f acb5 b03d 7e52 f03d
00000170: e851 0e3f 1f35 2ebe 4d66 833d e69b 013e
00000180: 7b77 61be 8420 f4be 6afa 873e 8f96 363f
00000190: 1d7a 0ebf 06e5 04bf 1a23 cebe d4c1 933e
000001a0: d0ae 20be 1bfb d0bc 7724 863f 72ae 12bc
000001b0: 10c3 44be b834 bd3b 2a84 b13c cbd8 723e
000001c0: 49de 6d3f dad1 393f 5c83 053e 0cc0 20be
000001d0: a08d cebd f16f 9d3e 4f07 8cbe b71b 403e
000001e0: 7f67 49be 096f 4ebf 77d2 9b3e 0655 863f
000001f0: 3102 853e 5144 84be cd46 1abf bf0f 06bf
00000200: 7114 81bd f0f4 ee3e ba7f 9abe 7b34 5a3e
00000210: 2aa7 89be a82e f6be 9a42 0abf 7ec7 a83e
00000220: c534 4fbe d0e8 93be f0b2 493e 57ef 8c3e
00000230: 43d4 3bbe 6d04 5f3e b0e3 b9be 67fc 293f
00000240: 6254 723e ec03 19bd 3fb8 d8be c9b0 9b3e
00000250: ab35 783e 5081 bfbe c60a 12be c39b c7be
00000260: d991 ab3e 594f 86bf 8cfa be3e 7ea7 14bf
00000270: 2a8d f73d c15e 96bc c658 6b3e b4f4 4c3f
00000280: 0540 d1bc d4bc 54be 818d b73e 6f6a 1a3f
00000290: 36b0 fcbd 82e4 293f 20ae 553e f12f 39be
000002a0: a13e 303f f5c0 f2be 8d46 703e 1edd e0be
000002b0: 081b 003f 3a3f babd dabe 2dbe c04a 423e
000002c0: 2802 56bc a059 28be a30f d6bd a4f1 9b3d
000002d0: 7174 973d 1a8a 48bd b94b f53e 6cf0 43bf
000002e0: 41d3 043f bdd9 853e 0a82 143f f93d 64be
000002f0: 6271 10bf 8e11 3a3e fbde c3bd 06f4 aebe
00000300: 0302 3fbf 292c e5be 864a e5be 76b1 283f
00000310: fe29 b03f f3e9 02bf 7e61 2cbf 6409 4d3e
00000320: 1ffd 133d 355e 0cbe 351b 013c 189e bfbd
00000330: 4575 1c3d 9357 f43e ed1d afbe d7f3 653d
00000340: 9a50 56bf 2fee a7be dc08 f9be 416f 09bf
00000350: 1c29 483e 8745 763f 43f7 ab3d e3a5 16bf
00000360: e6ec 0abe df82 663f b5ca 053e 22e8 b83e
00000370: 1bfd 153d b190 d7be a9f6 523f 9a85 d13e
00000380: f311 fb3e 01df 50bf fc13 e03d 60fd e9be
00000390: f399 b13e e986 813c 8952 95bf 2187 293f
000003a0: 4ca0 d13d 9e58 283f d1fa 00be 9204 2d3f
000003b0: 68d9 363e 28c1 513f 0ad5 95ba 1543 a2be
000003c0: a8e7 633e ff65 693d 5d99 333e 9bcd cd3e
000003d0: 164b 85be 3135 41be f3a1 cdbe 1ba9 943d
000003e0: 2c9c 83be 25b4 b2be 19b3 8e3d 1eaa 6e3d
000003f0: ce32 f13e 52b7 69bf d8fa 63bd d471 a83e
0.038579464 0.78968674 0.1788384 -0.75917 0.061095864 0.65406203 -0.18807171 -0.11659087
0.2075122 0.7455539 -0.018310554 -0.40984923 0.2598413 -0.66286457 0.50401825 0.16428487
0.1766977 -1.0024929 -0.33619222 -0.08296327 -0.3042039 0.09621936 -0.40632245 0.2393252
-0.28137726 -0.6665273 -1.1625612 0.68344337 0.108406655 -0.22759588 -0.42316562 0.77958125
0.20398071 -0.50456357 0.10939427 0.9317889 -0.51749915 0.17445752 0.33726645 0.25063258
0.12322654 -0.89819014 0.18754856 0.22465748 -0.49604952 0.025266903 -0.5191466 -0.14260149
-0.27335566 -0.60322285 -0.30020064 0.22059463 0.36043507 -0.7435871 -0.34319997 -0.7310536
0.19481486 0.41006726 -0.40169603 -0.57443166 -0.1826308 -0.33784854 0.8565002 -0.24185543
0.14725146 -0.21905263 0.32272962 -0.38543576 -0.6269487 0.2586866 0.11491211 -0.07880001
0.7171554 -0.32879978 -0.17596537 -0.22619303 -0.08685428 -0.99765944 0.2749941 -0.10322669
-0.63741714 -1.1068527 -0.5818764 -0.8795809 0.06513012 0.40656376 -0.36423346 -0.39775893
0.6489411 0.6834086 0.08628401 0.11734484 0.5559373 -0.17012452 0.06415997 0.12657127
-0.22018234 -0.47681057 0.26558238 0.71323484 -0.5565508 -0.5191196 -0.40261155 0.28858817
-0.15691686 -0.025510361 1.0479878 -0.008952724 -0.19215035 0.005774107 0.021669466 0.23715512
0.92917305 0.72585833 0.13038391 -0.1569826 -0.100856066 0.30749467 -0.27349326 0.18760572
-0.19668387 -0.80638176 0.3043401 1.0494697 0.25978234 -0.2583337 -0.60264283 -0.52367777
-0.06302727 0.46671247 -0.30175573 0.21309082 -0.2688535 -0.4808247 -0.54007876 0.329647
-0.20234974 -0.2888856 0.19697165 0.27526352 -0.1834269 0.21779032 -0.36306524 0.6640076
0.23665002 -0.037357256 -0.4232807 0.30408314 0.24239223 -0.37403345 -0.14261922 -0.38986024
0.3350971 -1.0492965 0.37300527 -0.5806807 0.12087472 -0.018355729 0.22983083 0.8006089
-0.025543222 -0.20775157 0.35850146 0.60318655 -0.12338297 0.663643 0.20867205 -0.18084694
0.68845564 -0.4741284 0.23464413 -0.439187 0.50041246 -0.09094091 -0.16967335 0.18973827
-0.0130620375 -0.16440439 -0.10452201 0.07614449 0.07395256 -0.04895983 0.47909334 -0.7653873
0.5188485 0.26142684 0.58010924 -0.22289266 -0.5642301 0.18170759 -0.095640145 -0.3417055
-0.74612445 -0.44760254 -0.4478342 0.65895784 1.3762815 -0.5113823 -0.6733626 0.20023113
0.036130067 -0.13707812 0.007880022 -0.09356326 0.038197774 0.47723064 -0.3420252 0.056140747
-0.8371674 -0.32798907 -0.48639572 -0.53685385 0.19546932 0.9619984 0.08396771 -0.58846873
-0.13566932 0.90043443 0.13065608 0.36114603 0.036618333 -0.42102578 0.82407624 0.40922242
0.49037132 -0.81590277 0.10941312 -0.45701122 0.34687766 0.0158114 -1.1665813 0.66221815
0.10235652 0.6576022 -0.12595679 0.675851 0.17856371 0.8193536 -0.0011431288 -0.31691805
0.22256339 0.056982037 0.17538972 0.40195927 -0.2603385 -0.18867947 -0.4016262 0.07258817
-0.25705087 -0.34903064 0.06967754 0.058267705 0.47109073 -0.9129535 -0.055659145 0.32899344

network_body._body_endoder.seq_layers.0.bias f4 [128]
00000000: 7d58 1fbc 1060 563b edae e73b 854a f5b9
00000010: 7d3a 4f3c af27 80bc 667f 18bc 3daf 823a
00000020: 0126 873c db80 da3b 2fc7 5fbc 7b27 86bc
00000030: 7dc1 e73b c9db 9f3b 3a6e e43a 6ca9 19bc
00000040: bfc5 0bb9 a7e8 b73b 6b2d cfbb 7ac0 63bc
00000050: 0429 79bc 943f 92ba 8882 683b 1bae fe3b
00000060: 578c e0bb 21e2 a63b be5d 6dbc 0024 a539
00000070: ec96 52bc 796c cbbb c3f4 83ba 30d7 4b3c
00000080: b402 1ebc 726f d5bb 563d 90bc efa5 313a
00000090: 78ba 2ebc e18d 673c b527 94bb 9408 bf3b
000000a0: 3ac2 febb ec23 d5bb cbfa 13bc 6457 403c
000000b0: 2ba6 e8bb 8443 b3bb 7ba6 aeba a463 4abb
000000c0: 0b0f 063c 4207 a8bb 8927 103b 64dc 413a
000000d0: 609c 06bc b571 263c 5964 ac39 a516 d1bb
000000e0: 26f8 5abb dde2 1cbc ec6a 263a 16f5 b9bc
000000f0: 843c be3b 6b11 bf3a 5936 413c a538 17bb
00000100: 92ac 03ba dee7 1b3c 68a2 47bc ecf9 0d3a
00000110: b307 733c 3b32 16bc 263a 0cba 3161 463c
00000120: 91be 003c 2515 303c bbde d13a 9b52 3bbc
00000130: f375 17bb 5280 173c 9562 2cbc ea46 c3b8
00000140: bfc9 91bc 22b6 95bb 6bf9 ad3c 6b08 2abb
00000150: 2beb 4fbb 1b46 ddbb 4f0c 553c 175c 95bb
00000160: 53b9 10bd ab76 97bb 19d2 b23b fb2e 9bbb
00000170: 243d 273c a584 14bc 8f05 163c 94db 37bc
00000180: 0bc5 03bc 7da7 213b 4706 b4bb 3d53 323b
00000190: bc20 a53a 9fba 7fb9 dde3 c63b b1a6 573c
000001a0: f763 9bbc ccf6 a7bb 8d4d 91bc 087e 9c3c
000001b0: 0e21 4a3c 47b0 0abc 4d18 063c 9403 a2bb
000001c0: 7487 7c3c ae44 b13c 5dcf 67bb 6268 5dbb
000001d0: 6d9a 6c3b 7e2d 31bc 57f1 f5ba adca dd3b
000001e0: b1db fc3b 2226 f2ba 3337 723c a0db 3bbc
000001f0: f1ff 37bc fc7d 0bbc 220c c7bb 4cdf 1bbc
-0.009725687 0.0032711066 0.0070704133 -0.00046785563 0.012648222 -0.015643923 -0.009307718 0.0009970438
0.016497614 0.006668193 -0.013658329 -0.016376248 0.007072626 0.0048784954 0.001742787 -0.009378772
-0.00013329739 0.005612451 -0.006322553 -0.01390087 -0.015207533 -0.0011157864 0.0035478193 0.00777222
-0.0068526673 0.0050928746 -0.014487682 0.00031498075 -0.012853365 -0.0062079993 -0.0010067452 0.012441441
-0.009644199 -0.0065135295 -0.017607372 0.000677674 -0.010664575 0.014132948 -0.004521335 0.00582988
-0.0077746185 -0.0065045264 -0.009031962 0.011739586 -0.007099887 -0.005470695 -0.0013324762 -0.0030882144
0.008182297 -0.0051278183 0.002199622 0.00073952065 -0.008215994 0.010158946 0.0003288116 -0.0063808733
-0.0033412068 -0.009575573 0.000634833 -0.022699874 0.005805554 0.0014577335 0.011792743 -0.0023074534
-0.00050229684 0.009515731 -0.012184717 0.00054159644 0.014833379 -0.009167249 -0.0005349241 0.012108133
0.007857935 0.010747229 0.0016011813 -0.011433269 -0.0023111075 0.009246903 -0.010521551 -9.311533e-05
-0.017796395 -0.004568831 0.021237096 -0.002594496 -0.0031725864 -0.006752742 0.013003423 -0.004558097
-0.03533299 -0.0046223006 0.0054571745 -0.004735825 0.010207448 -0.009064828 0.009156599 -0.011221785
-0.008042584 0.0024666481 -0.0054939124 0.0027210258 0.0012598257 -0.00024388217 0.006069644 0.013162301
-0.018968565 -0.005125856 -0.017737174 0.019103065 0.012336982 -0.008464879 0.008184505 -0.004944274
0.015413154 0.021639194 -0.00353714 -0.003378414 0.0036102787 -0.010814069 -0.0018763941 0.0067685456
0.007716619 -0.0018474499 0.014783668 -0.011465937 -0.011230455 -0.008513924 -0.0060744444 -0.009513687

network_body._body_endoder.seq_layers.2.weight f4 [128, 128]
00000000: 83da 98bd 24a7 50bc c040 e7bc 0e2f aabd
00000010: 911b a53d 8a29 033e 9492 b23d 8105 d43c
00000020: 5442 f33c 87c1 3d3c 3c5f 29bd 7969 a13d
00000030: 9193 3dbd e961 923c 92f6 30bd 2d51 9dbd
00000040: eb54 79bd b8b7 3abd 99c1 e0b9 e96d c2bd
00000050: 050f 2fbd fd22 3abd 8255 f7bd 1e59 dabc
00000060: a9f4 57bd d2a8 00bd 0c5b a8bd de43 d43b
00000070: f3e8 1f3e 3d7d 2ebd 0a66 5b3e 2558 023d
00000080: 5866 eebd 140e 313d 0425 913c 3fa2 95bc
00000090: e5ed 07bd 44c1 043c 9363 cc3d 1633 253e
000000a0: 2ba6 0bbe 2404 f33d 9f6d 97bb 932e 3bbd
000000b0: 7c17 16bd 9595 babd 8fcb 1cbd 9f92 333d
000000c0: e896 753d c3d2 fdbc af3c a63d 9cb1 f43b
000000d0: 2165 833d bf4f debd d66c 34bc bf42 423d
000000e0: 720c b63b 308e 21bc 66cb 1ebe ffbb 12bc
000000f0: d437 8cbc 5426 9fbd 0e53 88bd 643a a73c
00000100: dd5e 2abd 6806 533b 5031 743e 348f e33b
00000110: 432d 01be 7316 40bd d9c6 983b f181 17bb
00000120: f94a bfbd 7cd6 7d3d e278 243e 8c76 a03d
00000130: 3294 c63c 0b4c 653d cf53 95bd 607d 103e
00000140: b519 3c3e 8556 3c3b 5a63 15bd 9887 093e
00000150: a486 3abe c732 d63c bbf5 cbbc 13b6 66bc
00000160: 6823 5f3e cf63 87bc 7a28 1cbc ef9b 04be
00000170: 23d2 92bc a543 14bd 54d6 24bd d057 e63d
00000180: 44fe 09be 0379 a9bd 9f9c fd3d 3957 a1bd
00000190: de82 0abd 5e1e 093e 4bae 793d 64a3 11be
000001a0: c04c 163e 14b2 2fbe 58b0 debc e9e7 dbbc
000001b0: 456d 72be 894f 93bd 0f1d 623c 8410 883e
000001c0: 28ff ddbb 9f02 01bd e7f0 cbbd 7c6a 043e
000001d0: cbbf 95bd 985b 41bd 948f 77bd 97dc 873b
000001e0: 7db7 cb3d 393d 0bbb ff44 9fbd 7c26 d1bd
000001f0: f306 61bc c310 a9bd 0055 8fbd cdb1 3f3d
00000200: 0a6a e8bc a49d debc 9f34 383c 85a0 f93d
00000210: 5b44 11be 472b 583d ea6c df3d 02b3 47bc
00000220: ba59 adbb 9e12 02bd 8354 9e3d 6ad4 783d
00000230: 7cf8 19be 2500 c4bc 508a a83c 9a78 e13d
00000240: d0f2 babd 64c0 3cbd 2d93 1ebd 46da f83d
00000250: 6bc6 033c 589f 253e 8303 24bc b996 013d
00000260: c690 43bd 2233 4bbd 4fbd a93d 9437 5c3d
00000270: 1f4f 133e 1059 fd3d 5edd 11bd afb8 8dbc
00000280: 8eed 203c 0d89 0b3d 6683 71bd 46ab 153e
00000290: 423c efbd b521 a43d 2eda 4b3d ef6c febd
000002a0: aa67 5dbe a2d4 f73d 3dc4 2dbd 21a6 69bc
000002b0: 5c33 9c3d 7c24 183c c95b 203c e8cf 23bc
000002c0: 2e37 a0bc ce6c 833c aaf7 1fbc 1bdc e3bd
000002d0: b069 1c3c 7f0d 863e 8eb3 173e e6f7 913c
000002e0: baac 893d 96be f2b9 6f0d a9bd 9bd8 f13d
000002f0: fdf6 0b3e 8937 4bbc 5c79 59bc 9f21 0d3d
00000300: 082b 93bd bd8a 7abc 25f7 42bc 4f58 56bb
00000310: 23b1 dd3d 1ab3 ec3b d43a 183e c95c d03d
00000320: dc73 48bc d262 c5bc 0f12 eabd 09ad cabc
00000330: 5fc9 293e dd64 6dbd aebc 18bd 046d 01bd
00000340: 1f4c d7bd f50c 2abc 524e 21bc 7973 2a3e
00000350: 41b0 783d 1227 a23c 2d8d babd 846e 833d
00000360: fc69 d33d 171f 00be 681a 18be 28df 7b3d
00000370: 459b 2fbd 9c1e 50bc 2ed9 acba 3bf2 afbc
00000380: 4859 12bd 482c b4bc 5062 31be be31 02bc
00000390: 7ef3 75bc 6714 193e ce03 86bd 4f97 3abe
000003a0: ddbb 7e3d a481 baba cbce 5c3d 6d94 31bd
000003b0: 1e08 873d d3eb 1fbe f318 07bd 5b68 c33c
000003c0: b8d9 d3bc e631 d5bc d84a 7ebc 6114 4c3d
000003d0: 2ef2 2d3e 68aa b5bd deab 573d 70a9 f43b
000003e0: af3d 253e aa93 c63c 6592 a8bd e608 42bd
000003f0: 0194 6b3c 8412 983d dfc2 cabb c012 3ebb
-0.07463553 -0.012735162 -0.028229117 -0.08309756 0.080618985 0.12808815 0.08719364 0.02588153
0.029694714 0.011581785 -0.04135059 0.078814454 -0.04628331 0.017868953 -0.043203898 -0.07681499
-0.060872 -0.045585364 -0.0004286885 -0.0949362 -0.042738933 -0.045443524 -0.12076856 -0.026653823
-0.05272356 -0.031411 -0.08220491 0.006477817 0.15616207 -0.042599905 0.21425644 0.031822342
-0.11640614 0.043226317 0.017717846 -0.018265842 -0.03318586 0.008102719 0.0997993 0.16132769
-0.13637607 0.11866024 -0.004621222 -0.045698714 -0.03664349 -0.09110562 -0.038280066 0.043841
0.05995837 -0.030984288 0.08117043 0.0074674617 0.06415773 -0.10855054 -0.011012277 0.047426935
0.005555683 -0.00986056 -0.15507278 -0.008955955 -0.017116465 -0.077709824 -0.066564664 0.020413585
-0.041594375 0.0032199863 0.23846936 0.0069445614 -0.12614922 -0.04689641 0.0046623764 -0.0023118223
-0.09340472 0.061972126 0.16061738 0.07835111 0.024240587 0.055980723 -0.07291376 0.14110327
0.18369181 0.0028738093 -0.036471702 0.13430631 -0.18215424 0.02614726 -0.024897447 -0.014081496
0.2179085 -0.016527085 -0.009531135 -0.12950109 -0.017922467 -0.036197323 -0.04024346 0.11247218
-0.13475901 -0.08275034 0.12383389 -0.078779645 -0.03381621 0.1339049 0.060957234 -0.14222485
0.14677715 -0.17157775 -0.027183697 -0.026843982 -0.23674496 -0.071929045 0.013800873 0.265751
-0.0067748018 -0.03149664 -0.09958058 0.12931246 -0.07311972 -0.04720649 -0.06043966 0.0041461694
0.09947107 -0.0021246208 -0.07776832 -0.102124184 -0.013734567 -0.0825515 -0.06998634 0.046800423
-0.028370876 -0.027174778 0.011243015 0.1218882 -0.14186232 0.052775647 0.109094456 -0.012188675
-0.0052902373 -0.031756036 0.07730963 0.06074945 -0.15036196 -0.02392585 0.020573765 0.11009331
-0.09128344 -0.046081915 -0.038714577 0.12151007 0.008042912 0.16174066 -0.010010603 0.03163788
-0.04774549 -0.04960931 0.08288061 0.05376394 0.14385651 0.12370503 -0.035611503 -0.017299978
0.009822262 0.03406625 -0.058963202 0.14616117 -0.11681415 0.080142416 0.04976862 -0.12423121
-0.21621576 0.12101103 -0.042423476 -0.0142608 0.076269835 0.009286042 0.009787508 -0.009998299
-0.019557562 0.016043093 -0.009763638 -0.11125966 0.009546682 0.26182172 0.14814588 0.017818402
0.06722398 -0.00046299835 -0.082545154 0.11808892 0.13668437 -0.012403377 -0.013273563 0.03445589
-0.07185942 -0.015291867 -0.011899744 -0.0032706445 0.10824802 0.007223499 0.14866191 0.10173947
-0.012234654 -0.024094973 -0.11429226 -0.024740713 0.16580723 -0.05795752 -0.037289314 -0.031598106
-0.10512566 -0.010379066 -0.009845333 0.16645612 0.060714964 0.01979402 -0.091089584 0.064175636
0.10322949 -0.1251186 -0.14853823 0.061492115 -0.042872686 -0.01270261 -0.0013187283 -0.02147781
-0.035729676 -0.021993771 -0.1732266 -0.00794643 -0.015011666 0.14949189 -0.065436944 -0.18221782
0.06219088 -0.001422931 0.05390815 -0.04335444 0.06593345 -0.15617304 -0.032982778 0.023853472
-0.025860652 -0.02602477 -0.015520774 0.049824122 0.16986915 -0.08870393 0.05265414 0.0074664876
0.16136812 0.024240334 -0.082310475 -0.047371767 0.014378549 0.074254066 -0.006187781 -0.0029002875

network_body._body_endoder.seq_layers.2.bias f4 [128]
00000000: 89da 37bc 93b3 41bb 250a 61bc 8a75 413b
00000010: 8974 61ba c951 dcbb 0322 043c 1b36 923a
00000020: 0126 fb3b 6b6c 2a3b 11ab bf3c 2b76 7bbb
00000030: 0887 bb3a 2c9a 4abb df87 f5bb dae5 963b
00000040: 1d65 37bc b9a9 6cbb 02b0 40bc f867 f33b
00000050: f450 f4ba 3b43 18bc e764 8b3a 7f93 cfba
00000060: 3710 393c 3e32 debb 0f4e 043c a07c 6b3b
00000070: 6269 463c be85 33bc 2ad8 4bbc 0cdc 3dbc
00000080: a7c2 a8bb c5d0 c739 9d97 be3b 7ac6 ed3b
00000090: 960d 493c b315 00bb a414 42bc 7281 eb3a
000000a0: 0a86 43bc c7db 21b9 4703 6cbc 2cb1 9f3b
000000b0: 152c 903a 4d43 b4bb a27a 2b3b 05bc 89ba
000000c0: cad1 feba e926 5cbc ff82 35bc 4dab 7cbc
000000d0: b317 91bb bd20 cd3b 2735 223c a077 0f3c
000000e0: 0c93 81ba 4b89 fc3b 7dae 2bbc 56cd eab8
000000f0: 455a 4abc 2cb7 223b a183 e0bb c234 7a3c
00000100: cb29 46bc 8d12 27bc a1ee 44bc 5dd6 88b9
00000110: 4d30 2c3c 64be 3cbc df4e 7fbb 7852 36bc
00000120: 46e9 32bc 0f9f 24bb 1dd5 b1b9 b94f 553a
00000130: 086a 113a 3de6 093c b1db 5639 8b84 9a3c
00000140: 333c 23bc 7728 273c 7bb7 5ebb 8dee 94bc
00000150: e94f 00ba 5e52 8abb fbce d33b 9346 e2ba
00000160: 2824 82bc 3c81 083c 5260 803c e5bb 09bc
00000170: a1b8 473c 9d75 123b bcb2 1dbb bdff 46bc
00000180: cb58 873c e84f 82bc 2207 473b 83e1 1b3c
00000190: 2b73 233c 1b15 00bc 75fb 01bc 9312 2abc
000001a0: 3d6b 793a c15d 3bbc 3afb 5ebc 45a3 033c
000001b0: 0db5 9abb b38a 2d3c 8795 49bc 0c56 87bc
000001c0: bd98 1bbb 6a64 c83b c122 8abc d7a5 1a3c
000001d0: da4f 223c 807c ecb9 ecdb 1d3c f2ec 52bc
000001e0: f8b1 00bc 18c2 783c c84f 35bc 5ed3 20bb
000001f0: bf53 2d3c 5986 cdbb 6499 30bc 55a6 c0bb
-0.011221536 -0.0029556497 -0.013735329 0.0029519522 -0.0008600434 -0.0067236167 0.00806475 0.0011155041
0.0076644425 0.0026004564 0.023397 -0.0038369994 0.001430721 -0.0030914648 -0.0074930037 0.004605037
-0.011193541 -0.0036111905 -0.0117607135 0.0074281655 -0.0018639849 -0.009293373 0.001063493 -0.0015836804
0.01129537 -0.0067808917 0.008075251 0.0035932437 0.012110086 -0.01095718 -0.012441674 -0.011588108
-0.0051501575 0.00038111783 0.0058164136 0.0072563263 0.012271306 -0.0019544184 -0.011845741 0.0017967655
-0.011933813 -0.0001543603 -0.014405078 0.0048734155 0.0010999466 -0.005501187 0.0026165624 -0.0010508305
-0.0019441184 -0.013437011 -0.011078595 -0.015421701 -0.004427874 0.006260006 0.009900368 0.008756548
-0.0009885742 0.0077067963 -0.010478613 -0.00011196236 -0.0123506235 0.0024828417 -0.006851629 0.0152713675
-0.012094925 -0.010197294 -0.012019784 -0.00026099654 0.010509563 -0.011520002 -0.0038956923 -0.0111280605
-0.0109198745 -0.002511922 -0.00033918853 0.0008137185 0.0005547111 0.0084167095 0.00020490472 0.01886203
-0.009963083 0.010202519 -0.0033983875 -0.018180156 -0.000489472 -0.0042212447 0.006463883 -0.0017263464
-0.015886381 0.008331593 0.01567093 -0.008406614 0.012190015 0.0022347935 -0.0024062833 -0.012145934
0.016521832 -0.015907243 0.0030369242 0.009514215 0.009976189 -0.007817532 -0.007933487 -0.010380405
0.0009514576 -0.011435927 -0.013609702 0.008034532 -0.00472129 0.0105921505 -0.0123037165 -0.016520523
-0.0023742162 0.006115486 -0.016862275 0.009438953 0.009906733 -0.00045106187 0.009634953 -0.012873875
-0.007854931 0.015182994 -0.011066385 -0.0024540047 0.010579049 -0.006272119 -0.010778759 -0.0058792033

action_model._discrete_distribution.branches.0.weight f4 [2, 128]
00000000: 98d2 46bc 9edb 1bbc 743d 843a 98d8 0bbc
00000010: ffd1 55bb e8b1 e83a ede7 17bb 945c 9dbb
00000020: de2b 6f3b abec 0a3a 0e4e fb3c d395 953b
00000030: fbd5 a53b 7c0a e1bb dbf6 02bc a08c 05bb
00000040: b1dd 7aba 5029 68bc 5fdc 553b 676e 113c
00000050: d710 d1b9 041a 8abc a396 86bb a8f6 543a
00000060: 1fd9 873c b2b4 06bc 9ce6 a23a f755 1b3b
00000070: 74bf c0bb ac7a b8bb 822c b9bb 375f bf3a
00000080: 0627 c939 755b de3c 4c8e e1b9 8b4e fabb
00000090: f522 d0ba 44a8 a1bb c8fd bdba 09a8 763c
000000a0: 11e3 7dbb 018e c239 4073 aabc 99f4 f93b
000000b0: e94b 533c 8a48 abba 5b18 c5ba 5ec2 84bc
000000c0: 2869 f1bc 2cff 293c 418e b2bc 897d 843b
000000d0: b009 a5ba f2e0 babb 3b61 8abb d917 8c3a
000000e0: d5a2 ef3b 598e 373a 086b 01ba f0e3 14bc
000000f0: 38ba 00bc 1c5f 5a39 775f 41b9 9c9f 563c
00000100: a67a f6ba 300a 523b 7876 69b9 273e 903c
00000110: ee17 6f3c 8fe4 f9ba 0872 0abc 5e1d 3bbc
00000120: fce3 90bc c272 89ba 25ee cb3c f94e dd3b
00000130: cd01 903b 93b8 973c ce8b 073c a0a4 c33c
00000140: 0ffa 50bc 5765 5cb9 e75c c2bb ff5f 0cbc
00000150: 20f0 02bc e2e4 af3b 5c44 e3bb e4e6 adb9
00000160: 17d1 4e3b aa98 343b 97fa 3c3c 0b8c 743b
00000170: 003d 95bb a687 183b de61 143c 341b 993a
00000180: 6231 013d 6f0f a53b af01 c03a 733f 193c
00000190: cce3 103c c983 c3bb 3c9e f13b 3717 e43b
000001a0: 80e9 31bc 48ff 13bc 793c cb39 2d14 b5b9
000001b0: 8a80 d63b 1b1e 023b 3f78 dcba 0139 4bbb
000001c0: 7454 05bc d6b6 393c 4607 dabb 5df8 4c3c
000001d0: d433 0c3b 7941 3d3c 0e1a a23b 967d 0cbc
000001e0: 6431 19bc b6d5 443b 0ef2 5b3c 116c 4cba
000001f0: a4d2 caba 724f 58bb 9ac2 61bb dcb1 29bc
00000200: a902 6f3c e4f3 a83a bc7d 1b3a 01de f0bc
00000210: 507e debb f9d0 3a3b 1044 ebbb 77f7 26bb
00000220: d8cb 93ba fc08 c0bb bbf3 d4bc e431 8d3b
00000230: 0337 0cbc d440 913b f068 36bb f4f0 73bb
00000240: e7ac 253c 319c 87bc 3cf2 1b3c 0dbf a03b
00000250: 6da6 f03a 113d 893b bc1f 833c 83e2 593c
00000260: 3cc2 78bb 7bb3 853b 94ff 89bb 7eb5 783b
00000270: fd22 f23b 0a29 443c fc9d ba3b f216 2f3c
00000280: c8f3 91ba 613f a5bc 33a0 bbba 205b 573c
00000290: 3f56 fdbb d451 113b 7bf8 253c d8a3 5ebb
000002a0: 4c0c 42bb ad73 fcba be38 083c 42d2 44bc
000002b0: bf1d 6abc 05ec 2bbb aee6 41bc bae9 693a
000002c0: 7b7e 463c 0a2b 813c 3e98 463c 00b3 bc3b
000002d0: 189c 723a 4621 7f3c 12e2 80bc 5989 15bc
000002e0: 6aa1 043d c0d1 62bb c6ec 0a3c ef2d 143c
000002f0: af61 373b aecb 91bb 3ebb 5d3c eafb 56bb
00000300: b9b7 d93b 3e76 5bbc 5e46 bb3b e632 cb3a
00000310: 1a98 9bbc 7309 cb3b 3046 f9bb f4f4 fe3b
00000320: e85b 603b 6949 0cbc 1d00 82bb 6d9f 893b
00000330: 1112 f83a fd09 063c 5169 1cbb 9194 b6bc
00000340: 2fb1 0e3b 64ab fcbb 0870 b8ba 86f0 113c
00000350: 7d1f 173c d12a a63a f80f 10bc 14de ed3b
00000360: e67f a83b 213e 3dba 401d 13bc b2f6 6b3c
00000370: d2cf a2bc 2047 2b3b 362c 883b 6084 be3b
00000380: 2cb2 41bc b1db b43b c446 ebbb cb34 583b
00000390: 9465 7dbb a3da 02bc 9651 783c 9986 103c
000003a0: 58ea 233c 8844 94bb 6a55 473b a68c 24bb
000003b0: 5200 043c ecc3 83bc 476c 3b3c 3d2a ea3b
000003c0: d172 c03b dff8 113c acda 213c 7aff debb
000003d0: fd47 9ebc 1681 ff3b 4ebf 14bc 3c89 95bb
000003e0: 6946 1bbc cd98 b3bc f1c8 563c 5098 9a3c
000003f0: 7ae7 78bc be62 ad3b 3d24 64bc 9196 12bc
-0.01213517 -0.00951281 0.0010089115 -0.008535527 -0.0032626388 0.0017753216 -0.002317901 -0.004802296
0.0036494653 0.00052995485 0.030676868 0.0045649796 0.005060909 -0.006867705 -0.007993425 -0.0020378008
-0.0009569778 -0.014170006 0.0032632572 0.00887642 -0.00039876133 -0.016858108 -0.0041073128 0.0008123913
0.016583024 -0.008221792 0.0012428346 0.0023702362 -0.005882198 -0.005629858 -0.0056510577 0.001460052
0.00038366782 0.02714322 -0.00043021364 -0.0076387576 -0.0015879559 -0.004933389 -0.0014495188 0.015054711
-0.0038740078 0.00037108365 -0.020806909 0.0076280353 0.012896516 -0.0013067883 -0.0015037166 -0.016205963
-0.029469088 0.010375779 -0.021796348 0.0040432853 -0.0012591388 -0.005703085 -0.0042230166 0.001068826
0.0073131123 0.00070021074 -0.00049369084 -0.009087548 -0.007856898 0.00020825531 -0.00018441478 0.013099577
-0.0018804863 0.003204953 -0.00022264745 0.017607762 0.014593108 -0.0019065308 -0.008450039 -0.011420576
-0.017686836 -0.0010486471 0.02489383 0.006753799 0.004394746 0.018520629 0.008273078 0.02388221
-0.012754931 -0.00021018587 -0.005931485 -0.008567809 -0.007991821 0.005367861 -0.0069356393 -0.00033169158
0.0031557733 0.0027556815 0.011534355 0.0037314917 -0.004554391 0.0023274212 0.0090565365 0.0011681081
0.031541236 0.00503724 0.0014648939 0.009353506 0.0088433735 -0.0059666377 0.0073735993 0.0069607752
-0.010858893 -0.009033032 0.00038764233 -0.00034538042 0.006546085 0.001985437 -0.0016820504 -0.0031009319
-0.008137811 0.011335095 -0.006653699 0.012510386 0.0021393197 0.011551254 0.0049469536 -0.008574864
-0.009350155 0.0030034608 0.01342441 -0.00077980856 -0.0015474153 -0.0033006337 -0.0034448267 -0.010357346
0.014588037 0.0012890068 0.00059315166 -0.029402735 -0.00678996 0.0028505905 -0.0071797445 -0.002547709
-0.001127596 -0.005860446 -0.025995126 0.004308926 -0.008558038 0.004432777 -0.0027833544 -0.0037222477
0.010112024 -0.01655397 0.009518202 0.0049055875 0.0018360146 0.004188188 0.016006343 0.0132986335
-0.003795757 0.0040802336 -0.0042113755 0.0037949975 0.007389425 0.011972675 0.0056951027 0.010686623
-0.0011135275 -0.020171823 -0.0014314711 0.0131442845 -0.0077312286 0.0022174018 0.010130043 -0.003397217
-0.002960938 -0.0019260548 0.00831431 -0.01201302 -0.014289319 -0.0026233208 -0.0118347835 0.00089230726
0.012115116 0.015767593 0.012121258 0.005758643 0.0009254827 0.015571898 -0.015732799 -0.0091269845
0.0323805 -0.0034609884 0.008479303 0.009044155 0.0027981808 -0.0044493293 0.013533412 -0.003280396
0.006644216 -0.01339489 0.0057151755 0.001550284 -0.018993426 0.006196195 -0.007607244 0.0077806655
0.0034234468 -0.008562424 -0.0039672987 0.0041999132 0.0018926283 0.008181092 -0.0023866484 -0.022287639
0.002177309 -0.007710861 -0.0014071474 0.008907443 0.009223816 0.0012677555 -0.00879287 0.00725914
0.0051422 -0.0007219036 -0.008979142 0.014402078 -0.019874487 0.0026134923 0.004155661 0.00581412
-0.011822265 0.0055193533 -0.007180067 0.0032990451 -0.0038665282 -0.007986697 0.01515617 0.008821153
0.010004602 -0.004524771 0.00304159 -0.0025108247 0.008056717 -0.016084634 0.01143939 0.0071461485
0.005873062 0.008909433 0.009878796 -0.0068053575 -0.019321436 0.0077973707 -0.009078814 -0.0045634788
-0.009477236 -0.021923447 0.013109432 0.018871456 -0.015191907 0.005291312 -0.0139246555 -0.008947031

action_model._discrete_distribution.branches.0.bias f4 [2]
00000000: 610f 2f3c 5e0f 2fbc
0.010684819 -0.010684816

exp_avg f4 [128, 5]
00000000: 0071 19b5 72b0 3b34 c06c bbb6 9314 f6b7
00000010: 21be 3ab8 4426 d9b5 b684 ca3a 18f6 56b7
00000020: a068 a5b7 a661 bcb7 4fbc f739 a4f2 f1b9
00000030: 9f08 9736 ba5c 4eb8 2e5f 11b7 fdc2 3032
00000040: fe93 c3b5 6bd9 9ab6 e358 e4b7 4beb 34b8
00000050: e8bc 4ebb c76a cdba 909b 0d37 c3d7 ad39
00000060: a08b 0439 2276 db39 a95a a0b9 a347 de35
00000070: 43a0 1db8 e055 4437 fa95 cb3a 3ebf 353a
00000080: 48c8 67b7 5e07 6db9 aaf6 e7b8 8c16 72b7
00000090: 468b 533a 0dde 2db7 2cac 8eb7 a64b 57b7
000000a0: 7a21 a8ba 5486 1db9 879a ab36 d85e e138
000000b0: aa61 8938 b9b8 b0b9 04b9 14b7 1ff2 e4b6
000000c0: f490 94b8 8b87 e0b8 3034 923a 7998 203a
000000d0: f1ef a7b6 2dfa f9b8 a62d 95b8 c487 ec3a
000000e0: 7704 4c3a 5263 cf34 1e25 e8b8 8981 8537
000000f0: a4bb f5ba e404 223a 4986 56b7 68f3 1439
00000100: b6f8 4c37 8e4f 453a 3c93 a839 7581 85b6
00000110: 266c 88b8 ca36 15b8 d256 75b8 7118 ff39
00000120: 29ce 86b6 e8f8 21b6 b0b3 d037 14f5 bab8
00000130: f25d 06ba 9934 d835 a363 1d37 ae69 01b6
00000140: 179c a839 84fd 22ba 5b1f ca36 1401 8cb8
00000150: b7cd 87b8 5138 3f37 e59d f03a c5d5 91b7
00000160: 242a 4ab8 5264 10b8 5419 7db5 118e 17b5
00000170: e30b 87b5 0465 a7b6 3cf5 1eb7 78be 04b8
00000180: 3c44 ffb9 7afe 3237 bd91 8137 7366 33b8
00000190: 1acb 49b9 0c1e 94b9 6fb2 0136 4129 8737
000001a0: 3cd0 fd34 7709 1cba 3a03 32b6 da74 d2b6
000001b0: 404a b0b7 f434 92b8 397a d638 48ce 20b6
000001c0: 0a28 bab4 2124 dbb6 78f1 5f36 0f98 a039
000001d0: ddcc 12ba bcb4 db36 e086 88b8 4912 4cb8
000001e0: 9cff 293a c62f 01ba 5f58 1d36 b4d5 ad37
000001f0: aea6 e537 327f 5bba 2c30 af39 5acb cab6
00000200: 06c1 8a38 7c0d e137 92fc 193b f275 723a
00000210: 9c22 0f34 2c3d 4bb9 7d11 1bb8 576a 9db7
00000220: 7e62 143a ff8c d2b6 fe6e df36 0ff3 b037
00000230: d4b3 153b 60dd 683a 3a47 40b6 de1c 6bb9
00000240: 9d9a 7537 3314 aa38 e5b7 82ba f2bc 2c36
00000250: 5f73 d5b7 6d0f b8b8 4c41 e438 4948 a039
00000260: 5b60 b436 0e27 ad38 5c2b 2a39 9ad2 12bb
00000270: 2cab 70ba c9cc dcb5 5ef2 3239 225f 3137
00000280: 18fd 3f39 d343 d438 e762 9836 c5f3 48b8
00000290: 4c8b 7db8 4fc1 1da2 b073 c033 42e2 68b4
000002a0: bf05 afb5 8cb0 04b6 c0f1 89b8 0e23 5338
000002b0: d4cd 95b4 e653 62b7 73bc 8bb8 86e2 77b4
000002c0: 44c2 0f39 c598 08b7 1ac3 40b6 88d4 e0b4
000002d0: aaf4 0ab8 d0f1 c439 e32d b5b5 fe7f 8137
000002e0: de4b c537 ebc8 bf30 d68b 3f29 e392 a3b5
000002f0: ce18 cab6 4c1e 53b7 5af9 10b9 fc03 93b8
00000300: 696c b935 889a 42b7 c92c cdb7 a03b 8224
00000310: 1902 6610 5727 0336 3800 4c37 a671 9037
00000320: 839a a53a a91e 173a 9890 a034 22c7 abb8
00000330: fb4f 57b7 88e6 4b38 587a 2339 f099 3336
00000340: c508 ba37 96ef 6837 b1e2 1d3a aa2e 6aba
00000350: 2074 3b37 e603 c7b7 d40c 1237 80d5 d8ba
00000360: ec3c 8bb8 efb8 acb6 328e b738 e930 8fb7
00000370: 8c5f 7fba 0c37 28ba 748f 0036 ceea e838
00000380: 2b03 dbb7 003f 163b f9ec 433a 33f7 83b6
00000390: 9028 75b9 34b4 26b8 ee80 8237 b5a6 93b7
000003a0: bc5c 0034 6432 b137 b68c ebb6 cad3 79a4
000003b0: 1aba 7cb5 59bd 8536 4698 c937 2c3d 1538
000003c0: b468 1bb1 a499 bf37 67d0 3133 325c ab35
000003d0: 9990 dc35 621e 5aba 7489 69ba 224c 94b5
000003e0: 4fa4 2838 68cb 54b8 46ac 0938 a227 2c39
000003f0: ccc1 b336 7818 9038 61b8 be38 f2a7 872d
-5.716138e-07 1.7479923e-07 -5.5856945e-06 -2.9335066e-05 -4.4522927e-05 -1.6178897e-06 0.0015450928 -1.2812692e-05
-1.9718253e-05 -2.2456818e-05 0.00047251812 -0.00046147883 4.5011543e-06 -4.9200586e-05 -8.664834e-06 1.02888835e-08
-1.4571704e-06 -4.6148684e-06 -2.722111e-05 -4.3134478e-05 -0.0031545702 -0.0015672081 8.440475e-06 0.00033157886
0.00012640515 0.0004185895 -0.00030585125 1.6561138e-06 -3.7580972e-05 1.1702505e-05 0.0015532367 0.00069330994
-1.3815305e-05 -0.00022604826 -0.00011060883 -1.4429574e-05 0.00080697646 -1.0363304e-05 -1.7007893e-05 -1.2832612e-05
-0.001282736 -0.00015022728 5.1141865e-06 0.00010746502 6.5508604e-05 -0.00033706965 -8.864565e-06 -6.823116e-06
-7.0841896e-05 -0.00010706399 0.0011154469 0.0006126236 -5.0049207e-06 -0.00011919844 -7.113376e-05 0.0018045832
0.0007782648 3.862902e-07 -0.00011069536 1.5915155e-05 -0.0018747938 0.00061805383 -1.278666e-05 0.00014205056
1.2217255e-05 0.0007526808 0.00032153155 -3.9787797e-06 -6.5051296e-05 -3.5575395e-05 -5.849341e-05 0.000486556
-4.0175114e-06 -2.4135752e-06 2.4879206e-05 -8.9148205e-05 -0.0005125693 1.6108562e-06 9.381128e-06 -1.9284012e-06
0.00032159753 -0.00062175863 6.0237194e-06 -6.675921e-05 -6.475619e-05 1.1397599e-05 0.0018357603 -1.7384891e-05
-4.81998e-05 -3.4425706e-05 -9.42867e-07 -5.645862e-07 -1.0061743e-06 -4.9887476e-06 -9.474632e-06 -3.164864e-05
-0.0004868823 1.0668877e-05 1.5445863e-05 -4.277234e-05 -0.00019244515 -0.00028251146 1.932636e-06 1.6112464e-05
4.7276433e-07 -0.0005952338 -2.6525945e-06 -6.272091e-06 -2.101541e-05 -6.971686e-05 0.00010227081 -2.396193e-06
-3.4674332e-07 -6.5309146e-06 3.3370143e-06 0.0003063087 -0.0005599985 6.547749e-06 -6.510108e-05 -4.865442e-05
0.0006484927 -0.0004928078 2.3446262e-06 2.072272e-05 2.7376544e-05 -0.00083731406 0.00033414492 -6.0437424e-06
6.616306e-05 2.682837e-05 0.002349649 0.00092491426 1.3330504e-07 -0.00019382377 -3.6971167e-05 -1.8765377e-05
0.00056604284 -6.274902e-06 6.658839e-06 2.1094018e-05 0.0022842782 0.0008883085 -2.8651689e-06 -0.000224221
1.4639137e-05 8.109994e-05 -0.0009973018 2.5739978e-06 -2.5445303e-05 -8.776677e-05 0.0001088405 0.00030571435
5.3756353e-06 8.256557e-05 0.00016228616 -0.002240336 -0.000918078 -1.6450878e-06 0.00017065692 1.0572172e-05
0.00018309464 0.00010121581 4.5414668e-06 -4.7910744e-05 -6.044963e-05 -2.1379804e-18 8.96174e-08 -2.1688996e-07
-1.3040188e-06 -1.9772297e-06 -6.5776985e-05 5.0338967e-05 -2.7903172e-07 -1.3490184e-05 -6.663138e-05 -2.3086076e-07
0.00013709912 -8.141801e-06 -2.8723794e-06 -4.1877888e-07 -3.3129625e-05 0.00037564198 -1.3498906e-06 1.54376e-05
2.3519558e-05 1.3954183e-09 4.2531808e-14 -1.2187196e-06 -6.0229568e-06 -1.2583634e-05 -0.00013825801 -7.0102484e-05
1.3815126e-06 -1.1599281e-05 -2.4458759e-05 5.647952e-17 4.5361118e-29 1.954342e-06 1.21593985e-05 1.721906e-05
0.0012634549 0.00057647616 2.9907528e-07 -8.191007e-05 -1.28336205e-05 4.861367e-05 0.00015590468 2.6762682e-06
2.2177011e-05 1.38840605e-05 0.00060228544 -0.0008933345 1.1173106e-05 -2.3724464e-05 8.705265e-06 -0.001654312
-6.639384e-05 -5.1475286e-06 8.752606e-05 -1.7069704e-05 -0.00097417156 -0.0006416894 1.9156987e-06 0.00011106358
-2.610831e-05 0.0022925735 0.00074739713 -3.932882e-06 -0.00023380131 -3.974531e-05 1.5557245e-05 -1.7601395e-05
1.1954666e-07 2.112351e-05 -7.0199267e-06 -5.417266e-17 -9.414813e-07 3.985752e-06 2.4031975e-05 3.558134e-05
-2.2614985e-09 2.2840519e-05 4.1400565e-08 1.2767325e-06 1.6433361e-06 -0.00083205674 -0.0008908727 -1.1049017e-06
4.0207346e-05 -5.0734176e-05 3.2823787e-05 0.00016417963 5.3571766e-06 6.871013e-05 9.094249e-05 1.5422306e-11

exp_avg_sq f4 [128, 5]
00000000: 2aa9 a034 84f9 b22b 020f 182e 82a2 3b31
00000010: 4890 1b31 620c 3e36 818b 1339 2896 7830
00000020: c755 c533 f790 b533 2b3b 8b36 6f41 af37
00000030: 1073 6e2f 323b ba32 1ccb ab32 f352 e42d
00000040: b0bd 4e2d 41a2 0f2d 21dc 6230 304f 4730
00000050: 2dc5 af39 4443 0538 3a94 4231 fd62 8a34
00000060: b04a 7434 bbe2 6537 afaa 8537 dc61 592f
00000070: af77 c232 7018 9e32 2ca4 1338 589f 8d36
00000080: b1e9 bf2f dd9b 0e33 d432 0233 a306 0035
00000090: 8f3d f237 b176 9e2f 7053 0c33 3510 e432
000000a0: 2784 1138 77ae e236 ed2f 902f 3699 bb32
000000b0: 7309 b832 4296 7536 a0d5 c636 fcc6 a62e
000000c0: cc40 0532 6ede 2032 d539 0238 733b 1736
000000d0: fd35 c52f 3a2e 0133 bccb 1833 2f7e 4838
000000e0: c3a7 2a37 7c38 e62f b389 2833 a73c 1933
000000f0: 6238 0039 0c5c 6f39 7463 1131 dd21 5b34
00000100: d1ea 5134 f47e 1337 006f 2c35 32c8 b52e
00000110: a638 0432 cd23 f531 b05e 1635 ca35 a737
00000120: ce6b 222f a30d 7732 da55 5e32 bf61 3236
00000130: dd2f 6236 e70d 8c2e e97a 2632 5d1e dd31
00000140: 89af a637 014d 2838 4f76 0a30 59ec 4833
00000150: 852d 3b33 8a20 0337 4008 9439 2fc5 0231
00000160: 80ce 5a34 73d4 3f34 20e9 2d2f 99ad ab2e
00000170: d2f6 602b c83d 422f dbb0 1b2f bc3b 8c36
00000180: 07cc 6938 7252 f62f 4edb 4c33 7c5c 4433
00000190: a5d5 1136 32d2 c836 8c96 882e 63d8 cf31
000001a0: fd1b ad31 6918 3f37 4041 a330 acba 752f
000001b0: b2b2 b832 08d9 ba32 ce03 9735 76e2 dd2f
000001c0: a1de be2e 9bae 8a32 d9bc 9d31 6ae0 1d37
000001d0: 9ac2 a137 2e8c 8d2f c4e7 d932 01fb cc32
000001e0: 3976 8e37 b175 f037 6515 9a2f 1405 d732
000001f0: 40f1 e232 8a62 f537 74dd ef37 790d ff2f
00000200: 419f 3533 e621 2f33 0752 c438 945f 0237
00000210: cebb 4430 81b1 8733 3989 8233 db99 6535
00000220: dca0 2938 20c7 952f cb8c d532 f8d7 f032
00000230: 8700 6439 e5f1 b637 637f dc30 c1f1 1934
00000240: d39e f833 d190 c036 289b b638 39dd 1c30
00000250: 133c 6533 e272 6f33 83d5 d036 d9c3 8b37
00000260: 8139 412f a495 a132 39f2 8b32 e993 1439
00000270: f059 a937 4cbd 9b30 364e d933 3236 bb33
00000280: 29b5 a437 5c35 c437 b48d 872f 9085 ae32
00000290: 22f3 c332 03ac a311 79f3 fa2f bf34 fc2c
000002a0: 00a7 c730 c4a0 aa2e 7de7 8336 69cc c736
000002b0: dcce 132f 57eb 5a32 8286 6032 e156 c92e
000002c0: 7dec 4f36 da00 382e 332a 8b31 07e6 4931
000002d0: d4e9 2735 7d8f c337 e44b 542f 60ca ad32
000002e0: 3363 aa32 1e9e 292a 2be3 2518 3a63 1f2d
000002f0: 97de f230 c969 3530 65b8 3936 2f32 8e36
00000300: c58e 902e df2a 0632 9971 c731 1fd5 0013
00000310: 0000 0000 4699 7a2d 10b6 3b31 9106 9d30
00000320: e953 af37 5ce4 9c36 2fb2 622f b198 9a32
00000330: 73a6 9232 404d 3235 8eda 8c37 4641 e22e
00000340: ddbe 3e32 38dd 3132 21dc 0d38 cf71 df38
00000350: 47a4 6230 2b42 a633 55ad a933 b962 9738
00000360: e8f8 5e38 541a 3630 a6c7 7a33 b8f8 6233
00000370: 5ba3 8437 ed06 8037 d9e1 942f 05aa ee32
00000380: 4164 c932 db1b 9839 86c9 4639 f887 3331
00000390: 9f66 8334 a1e7 7b34 7955 7936 9207 3b35
000003a0: 2f64 4b2e d2d8 c131 7c37 7d31 b2b7 ae0d
000003b0: 6f4c c72c 89e9 fc2c 03d0 c830 7e7a 7830
000003c0: 603f cb29 ff83 9932 5c79 752d 7020 2f31
000003d0: 6f8a 2d30 d240 fe36 2bea b037 a964 922f
000003e0: 625a e732 8cde f132 4594 9f34 08d9 4434
000003f0: 4fef b72e 4091 1d32 9abf a931 841d 622c
2.9925405e-07 1.2716915e-12 3.457413e-11 2.7304456e-09 2.2637483e-09 2.8319414e-06 0.00014070982 9.043526e-10
9.18913e-08 8.454838e-08 4.149411e-06 2.0892096e-05 2.1686852e-10 2.1680169e-08 1.9999383e-08 2.5957436e-11
1.1751863e-11 8.1646365e-12 8.2531143e-10 7.250831e-10 0.00033525508 3.1772317e-05 2.8314973e-09 2.5776527e-07
2.2751442e-07 1.3702253e-05 1.5934316e-05 1.9770802e-10 2.2638998e-08 1.8404734e-08 3.5200428e-05 4.2206775e-06
3.4908745e-10 3.320371e-08 3.031421e-08 4.7693374e-07 2.8877314e-05 2.8824368e-10 3.2672176e-08 2.6550063e-08
3.469377e-05 6.7556352e-06 2.62275e-10 2.1839337e-08 2.1424716e-08 3.6595306e-06 5.925729e-06 7.584153e-11
7.756352e-09 9.3638e-09 3.1048276e-05 2.2535357e-06 3.5872452e-10 3.0077196e-08 3.5575553e-08 4.7801233e-05
1.017185e-05 4.187689e-10 3.9240785e-08 3.567825e-08 0.00012228035 0.00022827106 2.115681e-09 2.0408284e-07
1.9550068e-07 8.791441e-06 6.423652e-07 8.266489e-11 7.696292e-09 7.1345085e-09 5.6017143e-07 1.9932999e-05
1.4772114e-10 1.4380393e-08 1.2941621e-08 2.6580963e-06 3.3704484e-06 6.3689325e-11 9.690418e-09 6.4353984e-09
1.9870482e-05 4.0126037e-05 5.0372234e-10 4.6781086e-08 4.358073e-08 7.815785e-06 0.00028234906 1.9029576e-09
2.0377956e-07 1.786555e-07 1.5817081e-10 7.807017e-11 7.992332e-13 1.7666146e-10 1.416e-10 4.179279e-06
5.5741544e-05 4.480572e-10 4.7696908e-08 4.571892e-08 2.1731041e-06 5.9849344e-06 6.2113065e-11 6.0490932e-09
5.0381446e-09 1.1390171e-05 1.1878356e-09 2.234894e-10 2.150168e-08 2.1751944e-08 1.1251484e-06 4.0360576e-10
8.6797465e-11 1.6144716e-08 4.590771e-09 9.41018e-06 1.9283314e-05 2.5747354e-10 2.536752e-08 2.3862869e-08
1.698277e-05 2.8665034e-05 2.8027639e-10 2.5031603e-08 2.641957e-08 2.9252162e-05 2.8594142e-05 4.6393803e-10
4.2287187e-08 4.0776193e-08 9.361287e-05 7.770857e-06 7.157127e-10 6.318715e-08 6.0785574e-08 8.5533037e-07
4.0442552e-05 2.724443e-10 2.4860489e-08 2.8037888e-08 0.00021743971 2.1808732e-05 1.6043312e-09 1.4337185e-07
1.157729e-07 5.7389047e-06 8.7073364e-05 5.7066846e-10 5.3372855e-08 5.575101e-08 6.223739e-06 1.666129e-05
1.7573677e-10 1.8810915e-08 1.629188e-08 0.0001416948 2.018825e-05 1.1331536e-09 1.01190764e-07 8.717724e-08
1.9634683e-05 2.3389868e-05 2.4657043e-10 2.0317003e-08 2.2811552e-08 2.5822876e-28 4.5647733e-10 7.1681268e-12
1.452662e-09 7.759263e-11 3.931053e-06 5.9544586e-06 1.3443063e-10 1.274278e-08 1.30691e-08 9.1558545e-11
3.0983058e-06 4.1837513e-11 4.05023e-09 2.9380105e-09 6.255261e-07 2.3312628e-05 1.930825e-10 2.023188e-08
1.9835715e-08 1.5065073e-13 2.144044e-24 9.060136e-12 1.7671081e-09 6.5997746e-10 2.767448e-06 4.237772e-06
6.573723e-11 7.809574e-09 5.804577e-09 1.6260948e-27 0.0 1.4244888e-11 2.7315572e-09 1.142512e-09
2.09007e-05 4.675747e-06 2.0617884e-10 1.7997396e-08 1.707233e-08 6.642258e-07 1.6791073e-05 1.0288885e-10
1.1102853e-08 1.0353055e-08 3.382203e-05 0.00010654667 8.2451773e-10 7.742013e-08 7.901205e-08 7.2186296e-05
5.3160737e-05 6.624863e-10 5.838924e-08 5.2845934e-08 1.5811695e-05 1.5262014e-05 2.7081518e-10 2.7784163e-08
2.344507e-08 0.00029012453 0.00018957825 2.6125218e-09 2.4475318e-07 2.3460463e-07 3.7153643e-06 6.9673945e-07
4.6245837e-11 5.641689e-09 3.6847885e-09 1.0767801e-30 5.664406e-12 7.1881984e-12 1.4611036e-09 9.0395946e-10
9.026005e-14 1.787157e-08 1.3953585e-11 2.548429e-09 6.313376e-10 7.577336e-06 2.1089878e-05 2.662877e-10
2.693304e-08 2.8157295e-08 2.9723938e-07 1.8332878e-07 8.364386e-11 9.171629e-09 4.94033e-09 3.2132916e-12

exp_avg f4 [128]
00000000: da41 b036 064f 89b7 879a 6c36 b385 a936
00000010: e806 ee36 9ca3 3f36 a4dd db36 4879 2eb7
00000020: 8226 84b6 1902 9136 51b3 33b5 a783 22b7
00000030: aac1 eab6 18df 7934 9415 15b7 b459 d436
00000040: 0c15 4c37 fb43 9eb7 b03a 9835 e890 e936
00000050: 2e6f 5436 3c92 2637 711a 50b5 b5d7 f636
00000060: a9d2 3636 0718 b1b6 76a5 43b7 772d b2b6
00000070: 42c8 17b7 7584 6e37 907f 1ab7 465b 2637
00000080: a0b1 33b5 3042 7a34 b30d e336 687d 7d35
00000090: d28c d6b6 4164 af35 481d 0a36 05fb 0eb6
000000a0: 88a4 5fb6 0e72 b335 5785 1737 1492 ec35
000000b0: 30a6 0137 a0bd 5bb7 5b92 d7b4 bc83 90b6
000000c0: 7277 2ab5 e962 9837 b2dd 3fb7 e943 e5b4
000000d0: 9e5b fa36 7472 7bb6 8ff5 5cb7 ab8f c0b6
000000e0: 4e6f 2037 108a bdb3 0dd1 0a37 21c9 59b6
000000f0: fd2c afb6 98e2 63b7 9796 9b36 4d8b c2b4
00000100: a0e6 fbb6 75d9 72b6 33af bdb5 2c1a 93b6
00000110: 58a8 5637 10d2 2037 3fe5 2434 4a6a 0337
00000120: 9420 bbb7 d5f3 f3b6 c03b 8db7 d606 0cb7
00000130: c3c5 dfb5 f425 66b5 5b57 1eb6 c68a 65b5
00000140: 1698 efb6 b2f2 26b7 dbfc 9035 c418 1436
00000150: e11e f035 d509 f6b3 58f7 d2b7 852b a1b6
00000160: 5092 ffb5 1031 36b7 9471 3b36 f815 aeb4
00000170: 25b4 a7b5 446b fa36 e6b5 1db7 7f30 6a37
00000180: 4cae 7136 ce04 6536 74b1 91b6 8aea 3fb7
00000190: 6e0c 1136 2145 b736 7f2c c9b7 8804 6234
000001a0: aaa5 99b6 0cd6 76b7 ca34 39b7 01df 5337
000001b0: 0e18 4035 2218 dcb5 c439 2b36 9411 3d37
000001c0: e544 4437 963b d2b5 42f1 1b37 def0 fe36
000001d0: 653b b6b6 444f 98b6 6e6b 0f36 f8d1 a0b6
000001e0: db3a a0b6 8117 44b7 6e4e 56b5 cf81 4f37
000001f0: 31b0 74b6 8f2d 92b5 de4d b2b6 3b41 3635
5.252875e-06 -1.636847e-05 3.5256687e-06 5.052157e-06 7.0937567e-06 2.855645e-06 6.552511e-06 -1.0399446e-05
-3.9383895e-06 4.321581e-06 -6.6943636e-07 -9.686605e-06 -6.996289e-06 2.3271093e-07 -8.886116e-06 6.328535e-06
1.2164248e-05 -1.8866724e-05 1.1341963e-06 6.9608104e-06 3.1655177e-06 9.928419e-06 -7.7524516e-07 7.356483e-06
2.7242734e-06 -5.277808e-06 -1.166143e-05 -5.310106e-06 -9.0469275e-06 1.42167455e-05 -9.208816e-06 9.915622e-06
-6.6941175e-07 2.3307143e-07 6.766722e-06 9.4432335e-07 -6.3940906e-06 1.3067694e-06 2.0580646e-06 -2.1305761e-06
-3.332536e-06 1.3369734e-06 9.031347e-06 1.7625885e-06 7.727693e-06 -1.3097568e-05 -4.0153358e-07 -4.3068703e-06
-6.350375e-07 1.816587e-05 -1.1436105e-05 -4.2703985e-07 7.4612462e-06 -3.7468535e-06 -1.3170195e-05 -5.738771e-06
9.562658e-06 -8.826112e-08 8.274114e-06 -3.2452592e-06 -5.2206437e-06 -1.3583012e-05 4.636891e-06 -3.623667e-07
-7.507231e-06 -3.6187387e-06 -1.4132587e-06 -4.383988e-06 1.279459e-05 9.585652e-06 1.535709e-07 7.832956e-06
-2.2307308e-05 -7.27035e-06 -1.6836333e-05 -8.346242e-06 -1.6672351e-06 -8.5736906e-07 -2.3594682e-06 -8.551109e-07
-7.14046e-06 -9.950878e-06 1.0802427e-06 2.2068134e-06 1.789038e-06 -1.1457056e-07 -2.514913e-05 -4.8032402e-06
-1.9041563e-06 -1.0859469e-05 2.7931283e-06 -3.242601e-07 -1.2494899e-06 7.463068e-06 -9.400281e-06 1.3958778e-05
3.6013253e-06 3.4126456e-06 -4.341995e-06 -1.1439095e-05 2.1613919e-06 5.4618727e-06 -2.3981787e-05 2.1049539e-07
-4.579041e-06 -1.4712579e-05 -1.103915e-05 1.2628502e-05 7.156058e-07 -1.6398301e-06 2.551461e-06 1.1269371e-05
1.1698551e-05 -1.5663561e-06 9.294892e-06 7.5978305e-06 -5.430937e-06 -4.5391807e-06 2.1371193e-06 -4.792815e-06
-4.7752233e-06 -1.1687983e-05 -7.983534e-07 1.2368385e-05 -3.646139e-06 -1.0891107e-06 -5.3138783e-06 6.7895206e-07

exp_avg_sq f4 [128]
00000000: f597 5d2e 21bf 2131 f3f4 0630 cba7 882d
00000010: df30 0432 36b2 3130 903c 5030 ce78 3430
00000020: df00 4630 2d06 8e2f 0bd0 6230 1753 a230
00000030: 910a ee31 5ef0 572f e223 d32f 6f88 542f
00000040: baae 9630 fa81 b931 3a47 602c a737 b130
00000050: 4571 1c2f 9088 0330 eda6 5d2f cdea 2a30
00000060: 3ffa 8430 4d07 ba30 ae15 fc30 3238 5630
00000070: b58a 9831 fafe dc30 2977 0230 ae27 5a31
00000080: 25fa 7130 fc49 862d 058e ac2f 61ef aa2e
00000090: 006c 0230 8681 d52d 375d 1c2f b55f 2a2e
000000a0: ca66 ef2f e4c6 e52f 99f0 3531 0560 2031
000000b0: 2a9a 3130 236f 1032 4036 dd2e 52ea cf2d
000000c0: ab88 0a2e 8812 3030 d6c9 162f c106 e32d
000000d0: 5e5a 222e 8ee4 fb30 a7f1 9030 53c2 de2f
000000e0: 66c2 8d2f cd5b e62f df80 f92e 7006 c22c
000000f0: dd80 f12f de8e b030 45fc ea30 2945 632d
00000100: acac 062f 4bf3 1930 a370 722e 0365 ac2e
00000110: 519e ee31 0b97 9531 9ab8 a52d bcf0 5e2e
00000120: be08 2531 7392 3531 03e9 6630 b3c7 5b2e
00000130: 185a 282d 752f 2f2f cafd 002f 9d04 fe2d
00000140: c215 3e31 6538 8730 a534 8d2e 6e99 872f
00000150: 5cb2 232f f3fa bd2e 96ea fd30 74da 0930
00000160: bb2c 1c31 cc85 b92e 3115 cb31 d34b 222f
00000170: 3fa1 2130 0bb1 7131 4273 272e 906b 0032
00000180: 00b7 432d ccfa af2d 3282 5431 85e2 d630
00000190: bd16 422f 07d9 c42d fec6 2e31 9234 9031
000001a0: ff2c 0b30 73c4 9e30 39db 9130 34d5 1330
000001b0: 7e17 1f31 7652 3431 b000 cb2f 2305 ae30
000001c0: bb57 2c31 5e4c 1a2e 1c8a 332e 74b0 d52f
000001d0: de90 dc30 f444 482f c1e2 872f 9510 f82f
000001e0: 8476 a631 3413 472f dbed df2c 2a4f 8f2f
000001f0: 74db 1f32 15aa 682f 683b d92d 5768 7e2d
5.0384547e-11 2.3537228e-09 4.909701e-10 1.5535925e-11 7.694523e-09 6.464548e-10 7.5756024e-10 6.565529e-10
7.203322e-10 2.5834038e-10 8.251397e-10 1.1810667e-09 6.927913e-09 1.9639532e-10 3.8406173e-10 1.9329759e-10
1.0963597e-09 5.3989853e-09 3.1871853e-12 1.2894262e-09 1.4228359e-10 4.785159e-10 2.0159137e-10 6.217931e-10
9.675388e-10 1.3535356e-09 1.8341575e-09 7.7932605e-10 4.4395514e-09 1.6079575e-09 4.746306e-10 3.174573e-09
8.8030766e-10 1.5266892e-11 3.138753e-10 7.773227e-11 4.74472e-10 2.4272816e-11 1.4221234e-10 3.873853e-11
4.3546883e-10 4.1796178e-10 2.647573e-09 2.3337645e-09 6.4611305e-10 8.407173e-09 1.0059553e-10 2.3637235e-11
3.1498953e-11 6.405476e-10 1.3714127e-10 2.5809911e-11 3.6914798e-11 1.8327613e-09 1.0546061e-09 4.051964e-10
2.578588e-10 4.1901985e-10 1.1346101e-10 5.5145263e-12 4.3929207e-10 1.2846291e-09 1.709744e-09 1.2918813e-11
1.2248574e-10 5.6006816e-10 5.512447e-11 7.839598e-11 6.94471e-09 4.3536423e-09 1.8840308e-11 5.069077e-11
2.401563e-09 2.6422213e-09 8.400464e-10 4.9972203e-11 9.569699e-12 1.5933017e-10 1.1731696e-10 2.8878505e-11
2.7661007e-09 9.838571e-10 6.421289e-11 2.4665375e-10 1.488813e-10 8.6393025e-11 1.8474846e-09 5.015075e-10
2.2726414e-09 8.436593e-11 5.9104868e-09 1.4760752e-10 5.8800603e-10 3.5170753e-09 3.8073773e-11 7.4750375e-09
1.1125101e-11 2.0006573e-11 3.0924068e-09 1.563493e-09 1.7652275e-10 2.2379e-11 2.5433446e-09 4.196928e-09
5.063185e-10 1.1551847e-09 1.0612445e-09 5.378127e-10 2.31509e-09 2.624032e-09 3.6925973e-10 1.2661626e-09
2.5079163e-09 3.5083374e-11 4.0822554e-11 3.8869852e-10 1.604828e-09 1.8214391e-10 2.4717475e-10 4.512272e-10
4.8447095e-09 1.8105767e-10 6.3644485e-12 2.6067798e-10 9.304916e-09 2.1160702e-10 2.4696425e-11 1.44613965e-11
