results/ppo/My Behavior/My Behavior-635.pt (torch, 146703 bytes, 10 tensors)

network_body._body_endoder.seq_layers.0.weight f4 [128, 4]
00000000: ec62 7f3e 7ad0 f7bd 39ac 0bbf 8281 1d3f
00000010: 6c1b d8bd 3d00 4b3f 6f85 7b3e 47b5 c03e
00000020: 32aa 0ebe 2e28 60be 1ffd 84be c5f3 eebd
00000030: dcd1 333e af70 61be 5378 b33e a53d 033f
00000040: 3afc 58bc 6ab6 11bf de71 843e c479 9dbe
00000050: 9ba1 083f 5dac d63e b114 26bf 3e8d c13d
00000060: 4df7 4a3f 8232 6ebf d104 573e 793b cfbe
00000070: 7061 00bf 97fb 333f 6019 2f3f 24c0 54bc
00000080: 545e ff3e 3ca0 1a3f 46e3 39bf 9e56 30bf
00000090: 5e4c 523f c982 c93e c1a1 54be c8dd de3e
000000a0: 38a8 b2bd 4b8d 883e 3316 99be ca5d cebe
000000b0: d523 7c3d a594 fbbe 6474 13be 7e50 563e
000000c0: ff22 283d 0ad6 233e ab2c a7bc b00c da3c
000000d0: 3d1e 0abf dad3 553f 7341 173e d03c 02bd
000000e0: a1dd 5d3d d2d1 dfbe 1ab9 db3f 0a7a c53d
000000f0: 08af 56be a7d4 9bbf 7902 a83e a9f1 2e3f
00000100: d61b 923e 1843 3dbe d415 403e 046e 313e
00000110: d623 9e3d 6e0d 913e 3679 c33e 579d a53e
00000120: 4b2f 52bf c01e 45be 7171 b43d 6948 df3e
00000130: 2120 e53d 6d2f 53bc 8a90 e8bd 6d98 253f
00000140: df73 94be a821 863e 81ea 823f 3e92 9fbe
00000150: 18fd 18be c0a1 adbe 646e a8bb 59e5 dfbe
00000160: 1117 823e 8195 2a3f 58d1 18bf 7e5a da3d
00000170: 7485 a53e 6d3f 96bf f258 b93e aa7b d63e
00000180: 3e19 1dbf 692c 863f d329 9bbe 3b56 083f
00000190: edc9 43bf dce7 26bf ef6c e03e 9848 3e3e
000001a0: fac4 093f f6da b03e 0abc 583d b0e5 703e
000001b0: 18ad 5b3e 78ab 48be 35ea 0cbe 9d22 9cbf
000001c0: 0899 9f3e ad34 61be 312b b0bd 9cbf a2bd
000001d0: 7b57 17bf 5628 32bf 9c4a f13c 4da5 94bd
000001e0: 154a 3ebe a794 a23f 6c3d 50be 6321 9fbf
000001f0: 898f 743e c159 c6bc 8483 f6bd 9854 bbbe
00000200: 1491 1f3e 6258 90bf 248e bbbd 6ef7 51bf
00000210: f007 d3bc 84df 86be 5b6d 12be 7262 4b3f
00000220: 5530 92bd 6e69 973e 258b 293f 60cb 48be
00000230: 7887 cf3d a50b c73e 7301 c93d f37a 92be
00000240: 5fa6 5e3f 880f e8bc 8040 803e 7503 5fbe
00000250: 2103 0cbf ea82 343e 4c21 dd3e bb90 71be
00000260: 6592 a7be 3a98 24bf bb3b 52be abc2 2a3f
00000270: ecbb 5fbd f312 23be 12d5 a7be d295 873f
00000280: 77c2 f03e 2c1c 063f 5c8d 00bf c660 23be
00000290: b634 543f d07e 493f 663e 33bf 8864 1fbf
000002a0: bc8e 103e 6e75 663e 6c3e 20bf 4c6a 75be
000002b0: 8965 cc3e c74b 9c3e 60d0 003f 5c94 033f
000002c0: 44dc 653f 9085 d13d ab01 3b3e 205d 363e
000002d0: 4310 623c d5c6 3b3f 78f7 053f 4263 c2be
000002e0: a611 20bf 0d74 c63e 0196 febe ecf3 80be
000002f0: 779e 60bc 4c6c 253d 96cd c1bd 59c9 18bc
00000300: c880 613d efcd 8d3e 8d31 22bf 03e5 a6be
00000310: fe0b 1e3f 6459 1cbf 3fcc f3bd d46b 96bf
00000320: 4680 d3bb 5d00 0c3f 0970 f2be 1f4d c4be
00000330: a9d4 ec3e 5aa1 123f d0cd 0e3e 2831 b43e
00000340: 85d1 a83d dbe5 86bd 5aa7 0f3e 79a6 f4be
00000350: 70f6 2a3e 49bc 82bf b84c 713e d0a2 86be
00000360: 6c9d 8abe a205 2fbe 482a f5be 6d44 aa3e
00000370: 5c25 d5be 32a8 8ebe 22ce 35bb 1f07 42bf
00000380: 3861 96bf a0d8 52bf 8b76 3f3f 3351 cfbe
00000390: bd4f 6ebf 028b 38bf a52d f83e cd7b a1be
000003a0: e23e 0abe 5faa 82bf c081 9dbe 36ed 6d3e
000003b0: 7d9e 103e a997 c9be 46ef 8e3e 493d 24bf
000003c0: ef83 3a3e e2da 68bf 37e4 ffbe 3441 a0bd
000003d0: 3ec5 8d3e 5208 0e3f 76c9 dfbe 0757 95be
000003e0: 27c3 033f d6e0 fcbd 18cb b5bd db09 0d3f
000003f0: 85d3 20bf 68e8 05bf 6839 c9bc a6e8 3bbf
0.2494008 -0.121003106 -0.54559666 0.6152574 -0.10552105 0.7929724 0.2456262 0.37638304
-0.13932112 -0.21890327 -0.25974366 -0.11667589 0.17560524 -0.22015642 0.35052738 0.5126594
-0.013243729 -0.56918967 0.25868124 -0.30756962 0.5337159 0.41928378 -0.6487532 0.09450768
0.792836 -0.9304582 0.20997931 -0.40475062 -0.5014868 0.7030577 0.68398094 -0.012985263
0.49876654 0.6040075 -0.72612417 -0.6888217 0.8214778 0.39357594 -0.20764829 0.4352858
-0.087234914 0.26670298 -0.2989975 -0.4030593 0.06155761 -0.49136844 -0.14399868 0.20929143
0.041049 0.15999618 -0.020407042 0.026617378 -0.5395239 0.83526385 0.1477106 -0.031796277
0.05416644 -0.43714768 1.7165864 0.09642418 -0.20965207 -1.2174271 0.32814386 0.68337494
0.28536862 -0.18482625 0.18758327 0.17327124 0.07721679 0.2833056 0.38178414 0.32346603
-0.82103413 -0.19250011 0.088107 0.43609932 0.11187769 -0.012889725 -0.11355694 0.6468571
-0.28994653 0.26197553 1.0227815 -0.3116626 -0.14940298 -0.33912468 -0.0051401127 -0.43729666
0.25408223 0.66634375 -0.59694433 0.10661791 0.3232838 -1.1738106 0.36200672 0.41891223
-0.6136664 1.0482303 -0.30305347 0.5325658 -0.7647999 -0.6519754 0.4383311 0.1858238
0.5381619 0.34542054 0.052913703 0.23525119 0.21452749 -0.1959666 -0.13761218 -1.2198063
0.3117144 -0.2199275 -0.08601988 -0.07946703 -0.5911786 -0.695928 0.029454522 -0.07258091
-0.18582948 1.2701615 -0.2033593 -1.2432064 0.2388288 -0.02421272 -0.12036803 -0.36587977
0.15582687 -1.1276972 -0.091579705 -0.8201817 -0.02576062 -0.26342404 -0.14299528 0.7944709
-0.07138125 0.29572624 0.6622794 -0.19608831 0.101332605 0.38876072 0.098147295 -0.28609428
0.8697261 -0.028327718 0.2504921 -0.21778663 -0.54692274 0.17628065 0.43189466 -0.23590367
-0.32728878 -0.6429478 -0.20530598 0.6670329 -0.054622576 -0.15925197 -0.32779747 1.0592597
0.47023365 0.52386737 -0.502157 -0.15954885 0.8289293 0.78709126 -0.7001709 -0.62262774
0.14116949 0.22505733 -0.6259525 -0.2396633 0.39921215 0.30526564 0.50317955 0.51398253
0.89789224 0.10230553 0.18262355 0.17808962 0.013797822 0.7335027 0.5233073 -0.37966353
-0.6252693 0.38760415 -0.4972382 -0.25186098 -0.013709656 0.040386483 -0.094630405 -0.009325349
0.055054456 0.27696177 -0.6335686 -0.32596597 0.6173705 -0.610739 -0.11904191 -1.1751657
-0.0064545004 0.54688054 -0.473511 -0.3834009 0.46255997 0.5727745 0.13945699 0.35193753
0.08243088 -0.0658681 0.14028683 -0.4778326 0.16695571 -1.021371 0.23564422 -0.2629609
-0.27073228 -0.17091992 -0.4788382 0.3325533 -0.41630065 -0.27862698 -0.0027741273 -0.75792116
-1.1748419 -0.82361794 0.7479026 -0.40491638 -0.9309042 -0.7208711 0.48472324 -0.31539765
-0.1350055 -1.0208243 -0.30763054 0.2323502 0.14122958 -0.3937352 0.27916926 -0.64156014
0.18214391 -0.9095899 -0.49978802 -0.078249365 0.27689546 0.55481446 -0.4370839 -0.2916796
0.51469654 -0.123475716 -0.08876628 0.55093163 -0.62822753 -0.5230775 -0.024563506 -0.7340187

network_body._body_endoder.seq_layers.0.bias f4 [128]
00000000: 0000 0000 0000 0000 0000 0000 0000 0000
00000010: 0000 0000 0000 0000 0000 0000 0000 0000
00000020: 0000 0000 0000 0000 0000 0000 0000 0000
00000030: 0000 0000 0000 0000 0000 0000 0000 0000
00000040: 0000 0000 0000 0000 0000 0000 0000 0000
00000050: 0000 0000 0000 0000 0000 0000 0000 0000
00000060: 0000 0000 0000 0000 0000 0000 0000 0000
00000070: 0000 0000 0000 0000 0000 0000 0000 0000
00000080: 0000 0000 0000 0000 0000 0000 0000 0000
00000090: 0000 0000 0000 0000 0000 0000 0000 0000
000000a0: 0000 0000 0000 0000 0000 0000 0000 0000
000000b0: 0000 0000 0000 0000 0000 0000 0000 0000
000000c0: 0000 0000 0000 0000 0000 0000 0000 0000
000000d0: 0000 0000 0000 0000 0000 0000 0000 0000
000000e0: 0000 0000 0000 0000 0000 0000 0000 0000
000000f0: 0000 0000 0000 0000 0000 0000 0000 0000
00000100: 0000 0000 0000 0000 0000 0000 0000 0000
00000110: 0000 0000 0000 0000 0000 0000 0000 0000
00000120: 0000 0000 0000 0000 0000 0000 0000 0000
00000130: 0000 0000 0000 0000 0000 0000 0000 0000
00000140: 0000 0000 0000 0000 0000 0000 0000 0000
00000150: 0000 0000 0000 0000 0000 0000 0000 0000
00000160: 0000 0000 0000 0000 0000 0000 0000 0000
00000170: 0000 0000 0000 0000 0000 0000 0000 0000
00000180: 0000 0000 0000 0000 0000 0000 0000 0000
00000190: 0000 0000 0000 0000 0000 0000 0000 0000
000001a0: 0000 0000 0000 0000 0000 0000 0000 0000
000001b0: 0000 0000 0000 0000 0000 0000 0000 0000
000001c0: 0000 0000 0000 0000 0000 0000 0000 0000
000001d0: 0000 0000 0000 0000 0000 0000 0000 0000
000001e0: 0000 0000 0000 0000 0000 0000 0000 0000
000001f0: 0000 0000 0000 0000 0000 0000 0000 0000
0.0 0.0 0.0 0.0 0.0 0.0 0.0 0.0
0.0 0.0 0.0 0.0 0.0 0.0 0.0 0.0
0.0 0.0 0.0 0.0 0.0 0.0 0.0 0.0
0.0 0.0 0.0 0.0 0.0 0.0 0.0 0.0
0.0 0.0 0.0 0.0 0.0 0.0 0.0 0.0
0.0 0.0 0.0 0.0 0.0 0.0 0.0 0.0
0.0 0.0 0.0 0.0 0.0 0.0 0.0 0.0
0.0 0.0 0.0 0.0 0.0 0.0 0.0 0.0
0.0 0.0 0.0 0.0 0.0 0.0 0.0 0.0
0.0 0.0 0.0 0.0 0.0 0.0 0.0 0.0
0.0 0.0 0.0 0.0 0.0 0.0 0.0 0.0
0.0 0.0 0.0 0.0 0.0 0.0 0.0 0.0
0.0 0.0 0.0 0.0 0.0 0.0 0.0 0.0
0.0 0.0 0.0 0.0 0.0 0.0 0.0 0.0
0.0 0.0 0.0 0.0 0.0 0.0 0.0 0.0
0.0 0.0 0.0 0.0 0.0 0.0 0.0 0.0

network_body._body_endoder.seq_layers.2.weight f4 [128, 128]
00000000: 9512 b7bc 399e bfbb 9d28 efbd 7685 4bbd
00000010: 089d 9a3d 523b cd3c 66d6 cabd de67 6e3d
00000020: 8d76 aeb9 d0a5 003e aaf2 103c 32ba dd3d
00000030: f7ba 8c3c 1a63 7cbc a50d c5bc 1384 92bd
00000040: 4a07 0fbe b830 a93c a74b 0b3c 07ea a13c
00000050: 6ce9 0dbe eccd c4bd ef7b f93b ed12 dc3d
00000060: e8fd 0fbe c792 81bc e76d fe3c 1b8c 823d
00000070: 80db 1bbd 18ec 2b3d c250 6bbc bd70 a9bd
00000080: dbd0 a53c 57f1 52bd ac8d 16be ff42 bd3d
00000090: 79ac a63d fb45 623d 71bb 9a3b fef9 16bd
000000a0: de2d f6bd 8027 f73c 3c89 a23c 66fa e43c
000000b0: ddb3 5b3d 9ba9 6f3e 9f61 d53b 2761 fc3d
000000c0: 233a e23d e295 1f3e 2676 c03d 1da3 0c3e
000000d0: 86a8 aebd 5421 cb3c 46aa 0ebd f29e 903c
000000e0: 4e5e c4bd 2b0b fbbb 002f a5bd 299c e23d
000000f0: 2700 d73c c6a7 21be 5ab3 383c 24f5 533d
00000100: 05ea 17be 2eea 283d 2c34 0b3e 4d0b 68be
00000110: c365 703d 38ee 3b3e a9f2 863d 93ae 56be
00000120: 4293 16bd c43c 1bba 8d90 163e d429 d3bd
00000130: cf06 78bb b3d0 d3be 2bc7 633d 5234 ed3c
00000140: eb1d 8fbd 3d4b a93d fd31 04be a454 813d
00000150: 333e 7e3d b037 443d b92f bf3d ad6e 0ebe
00000160: 4a41 52bd a432 9c3c 0517 94bd e6dd 4dbd
00000170: a873 e03d 7de4 423d 6955 39bd c6d9 8d3b
00000180: 5551 a2bd 0545 2b3e 9b7d 323e 87e9 13be
00000190: 803f ea3a 8109 56bd e763 2a3e 62e8 6dbb
000001a0: 8a90 bbbc 859d a0bd 3774 abbc 9e1e c2bd
000001b0: f0fc 973d 951a a43c 5ffc b9bc d5d3 7c3d
000001c0: 70e3 d53d e5fb 44bc 9573 e7bc 3371 193d
000001d0: a8aa 94bd f2a0 7e3d 5c4b 5bbc 66bb ccbd
000001e0: fc80 e83d ae24 70bc 391e 10be 2d0d 503d
000001f0: df81 02be 4d70 1f3d 19c9 66bd 313b 473d
00000200: f537 febc 0a79 0abe a23b 2abe 3ae7 773d
00000210: 0d67 12bd f8c1 393d c0ec c0bd ee6e 0ebd
00000220: 3cdc a3bb 4289 913c 6fb0 a5bc 399e 2c3e
00000230: dda2 b23d 4108 d33d 29ab 7cbd 7ab5 ccbd
00000240: 06ad 993d 603c 10bd dae5 c4bc f589 4cbd
00000250: 96d6 c9bc 3ffc 503e bf18 69bd 0593 21be
00000260: 0355 9d3d 3ce0 9f3c 1859 71be 3dff f93c
00000270: 4c6e 85bd b108 073e 1711 1e3d c871 55bc
00000280: 76f9 953c 3889 123d 5cf6 76bd 02a4 6bbc
00000290: 8fb2 8b3c a056 abbc 43fe b63c c2f4 b43c
000002a0: d7bd f0bd 0857 443d affb 7b3d 93e7 ae3c
000002b0: d049 7dbc 2c38 523e b769 113d dd47 5a3d
000002c0: 7376 42be 064e 4dbc 3bc9 e5bc 8260 03be
000002d0: 39b3 ffbc 31e0 643d d6ce 0e3c 14c1 393c
000002e0: 468c 90bd 5757 c9bd 5b74 1e3d c381 c43d
000002f0: 811b fdbd 4383 a2bd ae62 363e e155 a13c
00000300: 6ee9 30bd 98fc cc3d fe77 383d 6430 b53d
00000310: 5cbd 97be 4168 47bd e470 3a3d 4ae6 37bd
00000320: 688d ccbd d6f0 9d3d d5b1 e43d 38d0 53bd
00000330: d3ac 793d 8f24 c5ba f886 1cbe 88ec 2bbd
00000340: ae47 cf3d 8104 27bc b2c1 e8bd 2bb0 9bbd
00000350: 757b 48bd 33c7 303e cb9c 653d 125f d4bc
00000360: 9e1b e3bd 7487 813d 42ef 18be 9a4f e9bc
00000370: 0f59 d0bd 7670 07bd 3a6b 3b3d 5c72 81bd
00000380: 140a ffbc ec08 113c c397 e23d 5f3a 2f3c
00000390: 9536 cf3d d17e 243e b006 a03c 0421 25bc
000003a0: f1c3 013d 38a7 6d3d 2ba1 06bd f25c 4abd
000003b0: 1252 20bc c2aa d4bd b9f1 a9bd d34b 153e
000003c0: 1095 4ebd 3c80 6dbd cb18 4b3d 6883 ef3d
000003d0: c202 01bd cdf3 8b3d ba97 9f3d b92d 133d
000003e0: 9edc 00bd 5df8 003e 26a4 dfbc fb4a bc3c
000003f0: c333 f3bb 535e 9b3c 8da6 233e 1042 833d
-0.022347728 -0.005847719 -0.11677668 -0.049687825 0.075494826 0.0250527 -0.099041745 0.058204524
-0.00033276193 0.12563252 0.008846918 0.108265296 0.017178996 -0.015404487 -0.024054358 -0.071540974
-0.13967624 0.020653114 0.008501924 0.019764913 -0.13858575 -0.09609589 0.007613651 0.10745797
-0.14061701 -0.01581706 0.031058265 0.06374379 -0.03805113 0.041973203 -0.014362516 -0.08273456
0.020241192 -0.05149969 -0.14702481 0.09241294 0.08138365 0.05524252 0.004722052 -0.036859505
-0.12020467 0.030170202 0.01984083 0.02795143 0.053638328 0.23404543 0.0065118815 0.12323218
0.11046245 0.1558452 0.09397535 0.13734098 -0.08528237 0.024796166 -0.034830354 0.017653916
-0.095883 -0.0076612434 -0.08065605 0.110649414 0.02624519 -0.15786657 0.0112732295 0.051747456
-0.14835365 0.041238956 0.1359412 -0.22660561 0.058690798 0.18352592 0.065892525 -0.20965032
-0.03676153 -0.00059218355 0.14703579 -0.103107125 -0.0037845855 -0.41370162 0.055609863 0.028955612
-0.06988128 0.08266304 -0.12909694 0.06314972 0.062071037 0.04790467 0.09335274 -0.13909407
-0.051331796 0.019067116 -0.07230953 -0.050260447 0.1095956 0.047581185 -0.04524747 0.004328939
-0.07925669 0.16725548 0.17430727 -0.14444552 0.0017871708 -0.052255157 0.16639672 -0.003630184
-0.02289607 -0.078425445 -0.020929439 -0.09478496 0.07421291 0.020032207 -0.022703348 0.061725456
0.10443771 -0.012022947 -0.028253356 0.03746147 -0.072591126 0.06216521 -0.013384666 -0.09996681
0.11352727 -0.014657183 -0.14074029 0.050793815 -0.12744854 0.038925458 -0.056344125 0.048640434
-0.031032542 -0.13522735 -0.1662431 0.06052325 -0.035742808 0.045351 -0.094201565 -0.03477376
-0.005000619 0.017765645 -0.020225732 0.16857232 0.0872247 0.10304309 -0.06168667 -0.099955514
0.07503705 -0.035213828 -0.024035383 -0.049936254 -0.024638455 0.20408724 -0.056908365 -0.1577874
0.0768223 0.019516103 -0.23569143 0.030517215 -0.06515178 0.1318691 0.038590517 -0.013027616
0.018307429 0.035775393 -0.06029354 -0.014382364 0.017052917 -0.02091533 0.022338038 0.022089366
-0.11754959 0.047934562 0.06151932 0.021350658 -0.015459493 0.2052924 0.03550121 0.05329119
-0.18990497 -0.012530809 -0.028050056 -0.12829784 -0.03121339 0.055877868 0.008716306 0.011337537
-0.07058005 -0.09831112 0.038685184 0.095950626 -0.123587616 -0.079351924 0.17811081 0.01969427
-0.043191366 0.10009116 0.04503631 0.088471204 -0.29636657 -0.04868341 0.045517817 -0.044897355
-0.099879086 0.077119514 0.11166731 -0.051712245 0.060955834 -0.0015040803 -0.15285861 -0.04197362
0.10121094 -0.010193945 -0.113650694 -0.07601961 -0.048945863 0.17263488 0.056057733 -0.02592424
-0.11089252 0.06324664 -0.1493502 -0.02848034 -0.101732366 -0.033066235 0.045756556 -0.063206404
-0.031132735 0.008852225 0.110641025 0.010695069 0.101178326 0.16064002 0.019534439 -0.010078672
0.031681005 0.0580208 -0.032868546 -0.049405046 -0.009785192 -0.10384132 -0.08298058 0.14579706
-0.050435126 -0.057983622 0.04958419 0.11694986 -0.03149677 0.06833611 0.077926114 0.035932276
-0.031460397 0.12594743 -0.027299952 0.022984972 -0.007421942 0.018965876 0.15981503 0.06409085

network_body._body_endoder.seq_layers.2.bias f4 [128]
00000000: 0000 0000 0000 0000 0000 0000 0000 0000
00000010: 0000 0000 0000 0000 0000 0000 0000 0000
00000020: 0000 0000 0000 0000 0000 0000 0000 0000
00000030: 0000 0000 0000 0000 0000 0000 0000 0000
00000040: 0000 0000 0000 0000 0000 0000 0000 0000
00000050: 0000 0000 0000 0000 0000 0000 0000 0000
00000060: 0000 0000 0000 0000 0000 0000 0000 0000
00000070: 0000 0000 0000 0000 0000 0000 0000 0000
00000080: 0000 0000 0000 0000 0000 0000 0000 0000
00000090: 0000 0000 0000 0000 0000 0000 0000 0000
000000a0: 0000 0000 0000 0000 0000 0000 0000 0000
000000b0: 0000 0000 0000 0000 0000 0000 0000 0000
000000c0: 0000 0000 0000 0000 0000 0000 0000 0000
000000d0: 0000 0000 0000 0000 0000 0000 0000 0000
000000e0: 0000 0000 0000 0000 0000 0000 0000 0000
000000f0: 0000 0000 0000 0000 0000 0000 0000 0000
00000100: 0000 0000 0000 0000 0000 0000 0000 0000
00000110: 0000 0000 0000 0000 0000 0000 0000 0000
00000120: 0000 0000 0000 0000 0000 0000 0000 0000
00000130: 0000 0000 0000 0000 0000 0000 0000 0000
00000140: 0000 0000 0000 0000 0000 0000 0000 0000
00000150: 0000 0000 0000 0000 0000 0000 0000 0000
00000160: 0000 0000 0000 0000 0000 0000 0000 0000
00000170: 0000 0000 0000 0000 0000 0000 0000 0000
00000180: 0000 0000 0000 0000 0000 0000 0000 0000
00000190: 0000 0000 0000 0000 0000 0000 0000 0000
000001a0: 0000 0000 0000 0000 0000 0000 0000 0000
000001b0: 0000 0000 0000 0000 0000 0000 0000 0000
000001c0: 0000 0000 0000 0000 0000 0000 0000 0000
000001d0: 0000 0000 0000 0000 0000 0000 0000 0000
000001e0: 0000 0000 0000 0000 0000 0000 0000 0000
000001f0: 0000 0000 0000 0000 0000 0000 0000 0000
0.0 0.0 0.0 0.0 0.0 0.0 0.0 0.0
0.0 0.0 0.0 0.0 0.0 0.0 0.0 0.0
0.0 0.0 0.0 0.0 0.0 0.0 0.0 0.0
0.0 0.0 0.0 0.0 0.0 0.0 0.0 0.0
0.0 0.0 0.0 0.0 0.0 0.0 0.0 0.0
0.0 0.0 0.0 0.0 0.0 0.0 0.0 0.0
0.0 0.0 0.0 0.0 0.0 0.0 0.0 0.0
0.0 0.0 0.0 0.0 0.0 0.0 0.0 0.0
0.0 0.0 0.0 0.0 0.0 0.0 0.0 0.0
0.0 0.0 0.0 0.0 0.0 0.0 0.0 0.0
0.0 0.0 0.0 0.0 0.0 0.0 0.0 0.0
0.0 0.0 0.0 0.0 0.0 0.0 0.0 0.0
0.0 0.0 0.0 0.0 0.0 0.0 0.0 0.0
0.0 0.0 0.0 0.0 0.0 0.0 0.0 0.0
0.0 0.0 0.0 0.0 0.0 0.0 0.0 0.0
0.0 0.0 0.0 0.0 0.0 0.0 0.0 0.0

action_model._continuous_distribution.mu.weight f4 [1, 128]
00000000: 2a6a d73a ea29 0fbd aa1a b4bc fb48 e23b
00000010: 82e9 e2bb 7b51 1d3c b5b4 9439 a378 82bb
00000020: 0f24 9bbc b73e 623c 0ffb b6bb e86c c03c
00000030: fb70 1a3b 3b59 20bc 1bf2 f3bb 0b49 c03b
00000040: dda9 c13c c08c 2b3c 217d b2bc 11e9 4bbc
00000050: 4d9f d0bc 7446 01bd 20f3 6ebc 7214 ebbc
00000060: 71ad afbc d039 cb3c a7cc 9a3c cd05 91bc
00000070: 409f 9dbc 83e0 65bc 12dd babc 056c 37bc
00000080: d8cc a13c 1b78 83bc 4f63 59bc 3be2 263c
00000090: f330 4dbb 40db 423c 45f3 aebc edee 92bb
000000a0: fe4b 82bc 2519 59bc f5a6 16bc 13cd 05bd
000000b0: 1a62 093c eda3 1f3c 6331 34bc 45f5 dabc
000000c0: 72bc 843c 2444 9ebb 10d6 0c3b bd1a d63c
000000d0: 5ad1 073d d88d 6abc 85ec d53c 0fee e6bc
000000e0: 274f da3c b96f 1aba b5e1 193d a32b 393a
000000f0: af3f a3bb fb7e d4bc 5fb6 e23c 8983 47bc
00000100: 48b3 9bbc 4f6b 1cbc c7d9 68bc e5d4 8f3b
00000110: db88 44bc f39a d8bc e335 a13c 2fb7 d5bc
00000120: e13e 82bb 6da4 c03c cdd5 52bc 29b7 903b
00000130: fb58 15bc bff6 1bbb 4df0 ef3c 7761 b73c
00000140: 5df9 77bc e8f1 ecbc 8e79 92bc 0b0d d4bb
00000150: fe02 47bc 21df 3fbc c78e 373d 2281 8ebc
00000160: 5fb3 dc3c 7743 b0bc 9d07 60bc 31b9 bf3c
00000170: 7291 523b e330 423c 558b db3c 325e 0bbd
00000180: e349 c4bb 7d90 a7bc 5bb2 783a 770b 8d3c
00000190: d814 e73b 0d71 64ba a7a2 33bc 952e 93bc
000001a0: 8dfc d8bc 2fac 8abc b362 6bbb 9ffd a83b
000001b0: 65fe 163c 0aec 7cbc 15a1 75bc ca3e f4bc
000001c0: 8dd1 aabc 5ca7 2a3c 0a9b b63c 8a64 c43c
000001d0: 7f11 92bb abb4 3cba dfc4 04bd 529c bcbc
000001e0: 47e9 a8bc efa3 693c 5dc8 59bc 1095 76bc
000001f0: 3a7e 6fbc 235b 9f3c d529 b13c 7f01 e63b
0.0016434838 -0.03495208 -0.02198537 0.0069056726 -0.006924809 0.009601946 0.00028363397 -0.003981666
-0.018938093 0.013808898 -0.0055841277 0.02348943 0.0023565877 -0.009786899 -0.0074446327 0.0058680824
0.023640567 0.010470569 -0.021788182 -0.012445704 -0.025466586 -0.03156133 -0.014584333 -0.028696273
-0.021445008 0.02480784 0.018896414 -0.017702961 -0.019240975 -0.014030579 -0.022810493 -0.011195187
0.019750997 -0.016048482 -0.013268306 0.0101857735 -0.0031309694 0.011893094 -0.021356234 -0.0044840486
-0.015905377 -0.013250624 -0.009195079 -0.032666277 0.008385206 0.009743673 -0.010998103 -0.026728282
0.016203139 -0.0048299003 0.0021489896 0.026135797 0.033158638 -0.014316045 0.026113758 -0.028189687
0.02664907 -0.0005891282 0.037568767 0.00070636923 -0.004981957 -0.025939455 0.027674852 -0.0121773565
-0.019006386 -0.009547069 -0.014212078 0.0043893927 -0.0119955195 -0.026441073 0.019679016 -0.026088325
-0.003974781 0.023515904 -0.012868357 0.0044163656 -0.009115453 -0.0023798195 0.029289389 0.022385342
-0.015135136 -0.028923944 -0.017880227 -0.0064712814 -0.0121467095 -0.011710913 0.044813897 -0.01739556
0.026941 -0.021516545 -0.01367369 0.023403736 0.003213015 0.011852476 0.026799837 -0.03402538
-0.0059902533 -0.02045464 0.0009487026 0.01721738 0.0070520453 -0.00087143556 -0.010964072 -0.017966548
-0.026487613 -0.016927807 -0.0035916984 0.005157187 0.009215926 -0.0154371355 -0.014992018 -0.029815096
-0.020851875 0.010415878 0.022290725 0.023973722 -0.004457652 -0.00071985525 -0.032414313 -0.023023758
-0.020619048 0.014260276 -0.013292399 -0.015050188 -0.014617497 0.019452637 0.021626392 0.0070192213

network_body._body_endoder.seq_layers.0.weight f4 [128, 4]
00000000: 7028 44bf 0759 29bf 44f9 f83d ffdd 10bf
00000010: 8134 ccbb 573f e23e bd6a a93e dd5c 323f
00000020: a9b0 f7bd dbce 323f adad c9be 5b59 c6be
00000030: 5dde 843f faef e4be 1377 a5bd e9a6 16be
00000040: eb8c 133f 0b61 90bf 3dd9 133e 00f0 acbc
00000050: f09f 8abf 3af3 0f3f 0fc1 e9be 0b04 a7bb
00000060: bd87 1b3e 61dd 78bd f680 e63d 2868 a4bd
00000070: 0448 503f 448e e3bd 587c abbc c723 be3e
00000080: 10e1 d2be 6547 a73d 44b9 62bf 3a89 003e
00000090: 31fe 57be cdac 70bf 8e0e 00bb a470 a83e
000000a0: 1a43 bbbe 21f5 d9be 9b6d 1c3f 440c ca3e
000000b0: 0d0b 043f 1490 d8bd 0e30 4f3e a97d 483f
000000c0: 1c56 36be a870 b83e d3db 39bf 82a5 5a3f
000000d0: 7fae a9be 531f c93e d7a9 9bbe 1d16 6abe
000000e0: b7d3 2d3e 22b8 3a3f 4936 123e c358 4b3e
000000f0: 3de9 41be 7f25 3bbf bd82 3cbe 5d81 d43e
00000100: a0e3 4f3d 1f0a e53c 6316 64be 4ce7 a5be
00000110: 2f80 123e 03c0 903e c326 033f 5fed 08bf
00000120: 96aa a23e c096 65bf 4a3c cdbe 5fe9 c4be
00000130: 96c3 85bf 0faf 063f 552e 9b3f cc9b 7dbe
00000140: 8386 58bf 2384 31be 24b9 0d3e 8112 eb3e
00000150: 14ee 493f 3984 f53d 2ee8 ea3f 2557 d43e
00000160: 1ae4 e5be e1a0 91be e137 3ebf 488a 3fbf
00000170: 2172 17be 4f70 b03e 05c2 1cbe 8403 f13d
00000180: cfaf f9be 3150 c83c b315 cfbd 481c 6e3f
00000190: 527f 7c3e 721f ba3d 21b9 c23d 7c3d 84bd
000001a0: ebb3 90bf 6f2c 263e 366b d8be 99d4 f23e
000001b0: c4da f0bd 5006 c63d 4129 15bd 70b7 033f
000001c0: fd8b 2d3f 162b 403d 3680 803d 0433 5a3f
000001d0: 5003 a6be 8aff 14bf 3ce6 2fbf 532a 363f
000001e0: b4f3 1abe cc50 ddbe 8da1 5f3d 2678 77bf
000001f0: b3ff 99be 9c84 423e 3dde a13e 8d8c ce3e
00000200: 39fe 07bb cefc 23bf 236e 2fbe f63e 763e
00000210: 46dd 0a3f 4f73 343f ac4a 23bf 3fba 69bf
00000220: e3b8 143e add0 1bbe c97f ec3e 6f7b 3abf
00000230: aa3f 14bf a9f3 ad3e bc8f 873f f0c1 c0be
00000240: ef83 bebe d91e 6b3e 0393 dfbe 6363 943e
00000250: 4775 683e f8a8 413f e6d8 313f fd37 27be
00000260: 0d9a e53e 4974 343d deed f33e e7be 83be
00000270: a10b 8b3e 7f58 edbd 2578 31bf fd26 0d3f
00000280: f02e 04be ee9b 8a3e 4f67 7bbf d432 163f
00000290: 0d17 f2be 2543 143f 8ef5 2e3c 959d 24be
000002a0: 1498 0cbe c330 9e3e 72e9 d8be d0b8 bc3e
000002b0: 4668 06bf d8e9 59bf 88be 00be e1ff bfbe
000002c0: 9826 3a3e 774d f43e 5e03 a03e a96c c53e
000002d0: b3ef 3ebd c624 b9be 4c7f 8b3f 461e 5a3e
000002e0: a3a6 06bf 48d6 2c3e 3069 f63e ac00 c2be
000002f0: 7fca 5d3f 8aab 4dbf 78d6 3dbf 379e 38be
00000300: 591b 3f3f 5b14 203f 455f 293f 8e58 b23e
00000310: 0412 95be c9b8 8dbe 9e2d 093f b2ad e13e
00000320: f26c 49bf 0358 c63e 594d bb3e 5be4 ae3e
00000330: 6b79 633f b017 cfbd b025 adbe 1b99 32be
00000340: ecdf 153f bdaf 273f 134d 49be 655b 393e
00000350: b6b0 9339 a6f7 8ebe d059 653f 94e5 823f
00000360: 6444 fcbe 06eb 0a3f 24bb 073e 3cfc 9ebe
00000370: 2f8e 96be 437a 4d3c 2497 363e bccc 313f
00000380: 54ad 263f f432 a9bc 8e0c 923e 5454 5e3d
00000390: 0fdd 62bd 7bcb 753d f677 9cbe 03b5 363f
000003a0: fbb7 50bf 0122 eb3d 9af2 653e 85fc ee3d
000003b0: cac7 4ebe b657 333e c2b0 203f 5a85 bc3e
000003c0: 78e1 463e fbcb 2b3d b689 e33e e5eb 8a3f
000003d0: c602 3b3e d588 593e f0f0 09bf 2f5a 81bf
000003e0: 4238 26bd 5e8f 893e 8f35 2cbd 4cb3 013f
000003f0: a767 4a3f 9d7b 2a3e 4bea a13e 1776 683e
-0.766242 -0.6615147 0.12156919 -0.5658874 -0.006231845 0.4418895 0.33089247 0.6967295
-0.12094242 0.69846886 -0.39390317 -0.38740048 1.038036 -0.44714338 -0.08079352 -0.14712109
0.576369 -1.1279615 0.14438339 -0.021110535 -1.0830059 0.5623051 -0.45655105 -0.0050969175
0.15188499 -0.060758 0.11255066 -0.08027679 0.8135989 -0.111111194 -0.020933315 0.3713667
-0.41187334 0.08167914 -0.8856394 0.12552348 -0.2109306 -0.94013673 -0.0019539925 0.32898438
-0.36574632 -0.4256983 0.61104745 0.39462483 0.5157936 -0.10574356 0.20233175 0.7831674
-0.17806286 0.3602345 -0.7260105 0.85408795 -0.33140942 0.3928171 -0.30403015 -0.22859998
0.16975294 0.72937214 0.1427852 0.19858079 -0.1893663 -0.7310409 -0.18409248 0.41504946
0.05075419 0.027958928 -0.22274165 -0.32403028 0.1430671 0.28271493 0.5123102 -0.534872
0.31770772 -0.8968315 -0.4008506 -0.38459298 -1.0450313 0.5261087 1.2123514 -0.24766463
-0.8458025 -0.17335562 0.13840157 0.45912555 0.78878903 0.1198811 1.8352106 0.41472736
-0.4490059 -0.28443053 -0.74304014 -0.74820375 -0.1478963 0.34460685 -0.15308388 0.11768249
-0.48766944 0.0244523 -0.10111561 0.93011904 0.24657944 0.09088029 0.09507967 -0.0645704
-1.1304907 0.16227888 -0.42269295 0.47427824 -0.11760476 0.09669173 -0.036416296 0.5145178
0.6779173 0.04691609 0.06274454 0.85234094 -0.32424402 -0.5820242 -0.68710685 0.7115833
-0.15132028 -0.43225706 0.054597426 -0.96667707 -0.30077896 0.18995899 0.31614867 0.40341607
-0.0020750894 -0.64057624 -0.17131858 0.24047455 0.54243886 0.70488447 -0.63785815 -0.91299814
0.14523654 -0.15216322 0.46191242 -0.72844595 -0.57909644 0.3397496 1.0590739 -0.37647963
-0.37210032 0.22960986 -0.4366685 0.28982076 0.22700988 0.7564845 0.69471586 -0.16329952
0.44844094 0.04405621 0.47642416 -0.25731584 0.2715731 -0.11589145 -0.6932395 0.55137616
-0.1290853 0.2707209 -0.9820451 0.5867131 -0.4728321 0.57914954 0.010678662 -0.16075738
-0.13729888 0.30896577 -0.42365605 0.3685975 -0.5250286 -0.8512244 -0.12572682 -0.37499908
0.18178785 0.4771535 0.3125257 0.38559464 -0.046615314 -0.36160868 1.0898223 0.21300611
-0.5259802 0.16878617 0.48127127 -0.37891138 0.8663711 -0.8033987 -0.7415538 -0.18029104
0.74651104 0.6253106 0.66160995 0.34833187 -0.29115307 -0.27680042 0.5358523 0.44077832
-0.7868186 0.38739023 0.3658245 0.34158596 0.88857144 -0.1011194 -0.33817816 -0.17441218
0.585448 0.6550253 -0.19658308 0.1810127 0.00028169685 -0.27923316 0.8959017 1.0226312
-0.49270928 0.5426487 0.13254982 -0.31051815 -0.29405352 0.0125413565 0.17831093 0.69453025
0.6510823 -0.02065418 0.28525203 0.05427964 -0.0553866 0.060008507 -0.30560273 0.7136995
-0.8153073 0.11481095 0.22455826 0.11669258 -0.20193401 0.17513928 0.6276971 0.3682049
0.19421947 0.041942578 0.44441003 1.0853239 0.18262777 0.21243604 -0.53883266 -1.0105647
-0.040580995 0.26867193 -0.042043265 0.5066421 0.7906441 0.16648717 0.31624064 0.22701298

network_body._body_endoder.seq_layers.0.bias f4 [128]
00000000: 0000 0000 0000 0000 0000 0000 0000 0000
00000010: 0000 0000 0000 0000 0000 0000 0000 0000
00000020: 0000 0000 0000 0000 0000 0000 0000 0000
00000030: 0000 0000 0000 0000 0000 0000 0000 0000
00000040: 0000 0000 0000 0000 0000 0000 0000 0000
00000050: 0000 0000 0000 0000 0000 0000 0000 0000
00000060: 0000 0000 0000 0000 0000 0000 0000 0000
00000070: 0000 0000 0000 0000 0000 0000 0000 0000
00000080: 0000 0000 0000 0000 0000 0000 0000 0000
00000090: 0000 0000 0000 0000 0000 0000 0000 0000
000000a0: 0000 0000 0000 0000 0000 0000 0000 0000
000000b0: 0000 0000 0000 0000 0000 0000 0000 0000
000000c0: 0000 0000 0000 0000 0000 0000 0000 0000
000000d0: 0000 0000 0000 0000 0000 0000 0000 0000
000000e0: 0000 0000 0000 0000 0000 0000 0000 0000
000000f0: 0000 0000 0000 0000 0000 0000 0000 0000
00000100: 0000 0000 0000 0000 0000 0000 0000 0000
00000110: 0000 0000 0000 0000 0000 0000 0000 0000
00000120: 0000 0000 0000 0000 0000 0000 0000 0000
00000130: 0000 0000 0000 0000 0000 0000 0000 0000
00000140: 0000 0000 0000 0000 0000 0000 0000 0000
00000150: 0000 0000 0000 0000 0000 0000 0000 0000
00000160: 0000 0000 0000 0000 0000 0000 0000 0000
00000170: 0000 0000 0000 0000 0000 0000 0000 0000
00000180: 0000 0000 0000 0000 0000 0000 0000 0000
00000190: 0000 0000 0000 0000 0000 0000 0000 0000
000001a0: 0000 0000 0000 0000 0000 0000 0000 0000
000001b0: 0000 0000 0000 0000 0000 0000 0000 0000
000001c0: 0000 0000 0000 0000 0000 0000 0000 0000
000001d0: 0000 0000 0000 0000 0000 0000 0000 0000
000001e0: 0000 0000 0000 0000 0000 0000 0000 0000
000001f0: 0000 0000 0000 0000 0000 0000 0000 0000
0.0 0.0 0.0 0.0 0.0 0.0 0.0 0.0
0.0 0.0 0.0 0.0 0.0 0.0 0.0 0.0
0.0 0.0 0.0 0.0 0.0 0.0 0.0 0.0
0.0 0.0 0.0 0.0 0.0 0.0 0.0 0.0
0.0 0.0 0.0 0.0 0.0 0.0 0.0 0.0
0.0 0.0 0.0 0.0 0.0 0.0 0.0 0.0
0.0 0.0 0.0 0.0 0.0 0.0 0.0 0.0
0.0 0.0 0.0 0.0 0.0 0.0 0.0 0.0
0.0 0.0 0.0 0.0 0.0 0.0 0.0 0.0
0.0 0.0 0.0 0.0 0.0 0.0 0.0 0.0
0.0 0.0 0.0 0.0 0.0 0.0 0.0 0.0
0.0 0.0 0.0 0.0 0.0 0.0 0.0 0.0
0.0 0.0 0.0 0.0 0.0 0.0 0.0 0.0
0.0 0.0 0.0 0.0 0.0 0.0 0.0 0.0
0.0 0.0 0.0 0.0 0.0 0.0 0.0 0.0
0.0 0.0 0.0 0.0 0.0 0.0 0.0 0.0

network_body._body_endoder.seq_layers.2.weight f4 [128, 128]
00000000: 83d6 a5bc 6e8c 083c 8b50 87bd b527 8e3d
00000010: 7651 303d f4f9 fe3c f5be 01bd d8ed 903d
00000020: a0c8 383d 89a5 213e 6aaf 313d e0db a53d
00000030: 840d 343d 9343 1d3d a326 463e 65c5 183d
00000040: adc4 5f3d 9515 b83c f9e3 d2bd 3363 acbd
00000050: 0c7e d03d 0e12 bcbd 0cfe 903c 90f2 c63d
00000060: 10c9 253c 6620 ee3d 17e9 ae3d 785d e63d
00000070: 5fd6 183e 08c2 7abd 6e92 3fbc a863 c7bb
00000080: dbec ac3c 7b5b 383e dd83 253d 4d23 e3bb
00000090: e6a9 dfbc 2f9e 77bb 07ff c8bd edb1 09bd
000000a0: f1f9 c2bd 1f8b 2abd 367a 7f3d 95ad 92bd
000000b0: 63ed 283e 625e 84bc 06d5 55bc 6b2e f83c
000000c0: 3367 b43d 65da a73d cf79 6e3c f027 933d
000000d0: b67d c73c 721a bebc 072e 26bd c44b 973d
000000e0: 71b9 063e 082b a13d 66bb cb3c 6246 eebb
000000f0: 640f d93d 76e5 d8bc 2a72 f93c b38f bd3c
00000100: f328 e93c 4938 bfbc 146f 65bc 7d60 14be
00000110: f54a 843c dcdb f0bd 407b 933d 1f8f 0039
00000120: 51e2 8bbb b828 9e3d d25d 273d 5b33 12bd
00000130: dab7 9fbd 2b29 4dbc 1722 493e 39d9 7abb
00000140: 4ab4 193e b38b 98bd 9307 76bd 0334 30be
00000150: df96 efbd fa10 163e 51da 6f3c adc6 04bd
00000160: 33e4 ff3d ed12 9cbd 0114 a1bd 2048 8bbc
00000170: f15d 04be 473a c2bd ba52 de3c 816f 243c
00000180: 4079 27b8 dd4c 18bd 0587 dfbd 9dfa b8bb
00000190: e22e 0f3d 80ce 41bd 5d9c 853d 1841 a63d
000001a0: 7c88 edbd eb10 bebd af8a 26bc 4708 1bbe
000001b0: e40d 9dbd 9a1f 253e 6540 0dbc 963b 113e
000001c0: ce6d 84bd f1ad 9cbd 98ef f3bd ff2a df3d
000001d0: 5231 d1b9 a7ea 813c fc92 09bd 0f40 ca3c
000001e0: 340c 06be 6514 083d b66f b7bd 3a75 f53d
000001f0: 031b 7f3d 9410 26bd 352c 7fbc 91bf 18be
00000200: 6f21 a63c c2e6 c0bd 75b4 8d3e 67c1 33bc
00000210: 4f8b e6bb 2e8a e3bd 5eb7 e13d ccae 80bb
00000220: fa1f 023e 2f05 503d d220 4ebb c515 97bd
00000230: 2cbd a93d 4042 fc3d 05e7 18be 9766 983d
00000240: 392e bf3d 473d 6cbc 0fbe d43d 4368 633d
00000250: 2039 a83d cb07 eabd f9c2 213c b441 eabc
00000260: 6f41 443d 43d8 9c3d cbf8 ab3d 47eb 0dbe
00000270: c085 323e 4141 b23b 38e5 e23d 2895 2ebd
00000280: b343 203d ac5f 50bd 5946 09be a29d 00bc
00000290: 4403 093e 27b6 dfbc 9479 39bd 7025 053b
000002a0: 2da7 bc3c 6b26 463d 189c 1dbe 5476 8cbd
000002b0: 93c6 90bd dc86 0e3c a145 acbd bc85 83bd
000002c0: b756 203e aba4 973d 0b03 58b8 d2dd 22be
000002d0: 2137 e1b9 eea0 fcbd dc28 afbb 50e9 b83c
000002e0: a34f a3bd 5b47 9cbd ef17 a13d fb1c 4e3e
000002f0: 9b56 693d 3f6b b43e cb3a 5bbd 764a 43bd
00000300: 996e d0bb 1673 1fbd 9726 d93c 920e 04bd
00000310: f65c 4cbd d88c 973a 04f7 e9bc 9ba5 b6bc
00000320: 3c36 22bd 669b 4b3d 8530 063d 89fe c63c
00000330: 6f34 98bd 9888 fbbb 651b 443c 0a47 c63d
00000340: fa94 7d3d 8397 a83c f6b9 cfbc 7ae5 b53c
00000350: 3c3a 1a3d 4d55 8abd 4f5c c4bd 82c1 41bd
00000360: c0ed 173d 2fc4 a7bb a1ab afbd a935 8ebd
00000370: 7c6c 39bd e6d9 263d c30e b3bd 0d43 0fbd
00000380: ce3f a7bd eefe 82bd 3558 713d b594 4f3d
00000390: de22 363d 2dd0 103d a2ca 8ebd 25c7 2e3d
000003a0: ce56 0e3d 5577 a23d c919 c03d bdb3 493d
000003b0: 8c20 1ebc 484b a4bc e275 823d 3620 cd3c
000003c0: a672 463e 6263 a0bb 1858 adbd a645 223e
000003d0: acf3 b93d 2012 cdbd 327d b4bd 42a3 1a3d
000003e0: aa79 8abd 68e5 173c b0c4 e2bd 6b47 b3bc
000003f0: 4d22 21bd cd67 90bd 4aed 92bd 991f a43d
-0.020243889 0.008334262 -0.06607159 0.06941167 0.043046437 0.031125046 -0.03167625 0.07076615
0.045113206 0.15785803 0.04338018 0.080985785 0.043958202 0.038394522 0.19350676 0.037297625
0.054630924 0.022471229 -0.102973886 -0.08417358 0.101802915 -0.09183131 0.017699264 0.09714234
0.010118738 0.11627273 0.08540552 0.112482965 0.14925526 -0.0612202 -0.011692626 -0.006084878
0.021109035 0.18003647 0.040408958 -0.0069316984 -0.027302694 -0.0037783494 -0.098142676 -0.03361695
-0.09520329 -0.041636582 0.06237241 -0.071620144 0.16496806 -0.016158286 -0.013051277 0.030295571
0.08808746 0.08195952 0.014555409 0.07185352 0.024351936 -0.02320597 -0.04057124 0.07387498
0.13156678 0.07869536 0.024869632 -0.007271574 0.10598639 -0.026476603 0.030449945 0.02313981
0.028461909 -0.023342269 -0.014003534 -0.14489932 0.016149024 -0.11760685 0.072012424 0.00012260348
-0.0042689224 0.0772261 0.04086096 -0.035693508 -0.07798739 -0.012522022 0.1964191 -0.0038276447
0.15010181 -0.074485205 -0.060065817 -0.17207341 -0.11698698 0.14654914 0.014639453 -0.032416034
0.124946974 -0.07620797 -0.078651436 -0.017002165 -0.12926461 -0.09483772 0.027139056 0.01003635
-3.9928826e-05 -0.037182678 -0.10914425 -0.00564511 0.03495682 -0.047316074 0.065239646 0.081178844
-0.11598298 -0.092805706 -0.010164901 -0.15139876 -0.07668665 0.16125336 -0.00862131 0.14182886
-0.06466256 -0.07650364 -0.11910933 0.10896873 -0.00039900333 0.015858961 -0.03358744 0.024688749
-0.13090593 0.033222575 -0.08956854 0.1198525 0.06228162 -0.040543154 -0.015574505 -0.14916827
0.020279614 -0.094190136 0.2767674 -0.010971404 -0.00703565 -0.1111034 0.11021303 -0.0039270874
0.1270751 0.050786193 -0.0031452668 -0.07377199 0.08288035 0.12317324 -0.14931877 0.074414425
0.09334988 -0.0144189065 0.10387813 0.055519354 0.08214021 -0.11427268 0.009873145 -0.028595783
0.047913965 0.07658436 0.08397063 -0.13859282 0.17433834 0.005439908 0.11078876 -0.042622715
0.039127063 -0.05087249 -0.13405742 -0.007850083 0.13380152 -0.027308537 -0.04528196 0.0020316504
0.023028934 0.048376482 -0.15391576 -0.06858507 -0.07069125 0.008699145 -0.08411718 -0.06421992
0.15658079 0.07404455 -5.1501247e-05 -0.1590493 -0.00042956418 -0.123353824 -0.005345447 0.02257219
-0.07974174 -0.076307975 0.07865893 0.20128243 0.05696736 0.35238072 -0.053522866 -0.047678433
-0.0063608405 -0.038928114 0.026507659 -0.032240458 -0.049893342 0.001156236 -0.028560169 -0.022295764
-0.039602503 0.049708746 0.032761116 0.024291294 -0.07431876 -0.0076761954 0.011969422 0.096815184
0.061909653 0.020580059 -0.025357228 0.02220415 0.037653193 -0.06754551 -0.09587919 -0.047303684
0.03709197 -0.0051198225 -0.085776575 -0.069438286 -0.045269474 0.040735148 -0.0874305 -0.034976054
-0.08166467 -0.0639628 0.05892201 0.050678927 0.044466846 0.035354782 -0.06972243 0.042670388
0.034750752 0.07932917 0.09379918 0.049243677 -0.0096513145 -0.020055428 0.063701406 0.025039773
0.19379672 -0.00489466 -0.08464068 0.15846881 0.0907968 -0.10013223 -0.088129416 0.03775335
-0.06761487 0.009271003 -0.110726714 -0.02188464 -0.039339352 -0.070510484 -0.071741655 0.08013839

network_body._body_endoder.seq_layers.2.bias f4 [128]
00000000: 0000 0000 0000 0000 0000 0000 0000 0000
00000010: 0000 0000 0000 0000 0000 0000 0000 0000
00000020: 0000 0000 0000 0000 0000 0000 0000 0000
00000030: 0000 0000 0000 0000 0000 0000 0000 0000
00000040: 0000 0000 0000 0000 0000 0000 0000 0000
00000050: 0000 0000 0000 0000 0000 0000 0000 0000
00000060: 0000 0000 0000 0000 0000 0000 0000 0000
00000070: 0000 0000 0000 0000 0000 0000 0000 0000
00000080: 0000 0000 0000 0000 0000 0000 0000 0000
00000090: 0000 0000 0000 0000 0000 0000 0000 0000
000000a0: 0000 0000 0000 0000 0000 0000 0000 0000
000000b0: 0000 0000 0000 0000 0000 0000 0000 0000
000000c0: 0000 0000 0000 0000 0000 0000 0000 0000
000000d0: 0000 0000 0000 0000 0000 0000 0000 0000
000000e0: 0000 0000 0000 0000 0000 0000 0000 0000
000000f0: 0000 0000 0000 0000 0000 0000 0000 0000
00000100: 0000 0000 0000 0000 0000 0000 0000 0000
00000110: 0000 0000 0000 0000 0000 0000 0000 0000
00000120: 0000 0000 0000 0000 0000 0000 0000 0000
00000130: 0000 0000 0000 0000 0000 0000 0000 0000
00000140: 0000 0000 0000 0000 0000 0000 0000 0000
00000150: 0000 0000 0000 0000 0000 0000 0000 0000
00000160: 0000 0000 0000 0000 0000 0000 0000 0000
00000170: 0000 0000 0000 0000 0000 0000 0000 0000
00000180: 0000 0000 0000 0000 0000 0000 0000 0000
00000190: 0000 0000 0000 0000 0000 0000 0000 0000
000001a0: 0000 0000 0000 0000 0000 0000 0000 0000
000001b0: 0000 0000 0000 0000 0000 0000 0000 0000
000001c0: 0000 0000 0000 0000 0000 0000 0000 0000
000001d0: 0000 0000 0000 0000 0000 0000 0000 0000
000001e0: 0000 0000 0000 0000 0000 0000 0000 0000
000001f0: 0000 0000 0000 0000 0000 0000 0000 0000
0.0 0.0 0.0 0.0 0.0 0.0 0.0 0.0
0.0 0.0 0.0 0.0 0.0 0.0 0.0 0.0
0.0 0.0 0.0 0.0 0.0 0.0 0.0 0.0
0.0 0.0 0.0 0.0 0.0 0.0 0.0 0.0
0.0 0.0 0.0 0.0 0.0 0.0 0.0 0.0
0.0 0.0 0.0 0.0 0.0 0.0 0.0 0.0
0.0 0.0 0.0 0.0 0.0 0.0 0.0 0.0
0.0 0.0 0.0 0.0 0.0 0.0 0.0 0.0
0.0 0.0 0.0 0.0 0.0 0.0 0.0 0.0
0.0 0.0 0.0 0.0 0.0 0.0 0.0 0.0
0.0 0.0 0.0 0.0 0.0 0.0 0.0 0.0
0.0 0.0 0.0 0.0 0.0 0.0 0.0 0.0
0.0 0.0 0.0 0.0 0.0 0.0 0.0 0.0
0.0 0.0 0.0 0.0 0.0 0.0 0.0 0.0
0.0 0.0 0.0 0.0 0.0 0.0 0.0 0.0
0.0 0.0 0.0 0.0 0.0 0.0 0.0 0.0

value_heads.value_heads.extrinsic.weight f4 [1, 128]
00000000: 3c36 33be f41f af3d 9406 37bd afd5 07be
00000010: 04df acbd 16c4 a3bd 52fc 31be d915 30be
00000020: cc49 c8bd 4e91 e0bd 95f4 3fbe 90bd b4bd
00000030: 2c9a c53d fbe8 c9bd d44c 1b3e 845d 9dbd
00000040: cc2b f13d a0bc e2bb 2a7b 2abe b03a 52bd
00000050: ad5c ccbd a8c1 20be f43c d13d 5069 db3d
00000060: d0c0 a8bd 0e78 f1bd 6293 05be 9aa1 92bd
00000070: 20d8 3bbc e0d4 573d 6cab b0bd e8e3 46bd
00000080: 3e76 48be 8740 52be 3670 263e a649 16be
00000090: 22d6 29be e476 4bbe b0f5 8dbc e78e debd
000000a0: 96ec 2c3e e01e 303e c661 3bbe 5805 30bd
000000b0: 5e61 b3bd 986c 983c 3c0a 113e a02f 1b3e
000000c0: 40a8 38bc a8d3 cd3d 4d4f bcbd 220d 03be
000000d0: 38fe ac3c d0b6 9bbc 28e0 0a3e 0c75 c23d
000000e0: 7092 1dbd 6804 3cbd 3876 d4bc 6c9d 03be
000000f0: 682b e63d f266 043e 30ae fa3d e406 ab3d
00000100: b098 4b3d 1a57 c5bd 80f1 653b 88f7 32bd
00000110: ace8 23be e0bd 093c ad1b 56be 3e2f 323e
00000120: 34f1 433e a1d2 11be 0471 593e fc6b 343e
00000130: a8ba 173e b850 273d b845 7a3d ac0b 213e
00000140: 8ce5 893d 65d4 15be 88b2 933d 1000 2fbd
00000150: 82a7 56be e62d 55be fc55 59be 7055 6bbd
00000160: 1e50 043e 1c2c 183e 128e 58be cfd8 19be
00000170: b83d 43be 40e3 613b 2211 083e a041 debc
00000180: c0be 523e 60c7 9c3b 7659 07be c869 d73d
00000190: 3c56 573e 08ee 2cbe 7468 a4bd 20bf 793d
000001a0: 3c26 09be 86e2 1b3e 2093 8abd 408d 753c
000001b0: b029 a43d bbc1 ffbd bc8a b93d 80e5 82ba
000001c0: 2c40 d43d 017b 13be 9829 4d3e 5a27 043e
000001d0: d2da 4ebe 5066 513d b8af 493d 5832 b93d
000001e0: 604b 013e 8acd 21be d411 fc3d c0ec 23be
000001f0: 964d 243e 08b3 373d 0874 41bd 283e 86bd
-0.17501158 0.085510164 -0.044684008 -0.13265108 -0.08440974 -0.07996385 -0.17381409 -0.17195834
-0.09779701 -0.10965215 -0.18745644 -0.08825219 0.096485466 -0.098588906 0.15166026 -0.07683852
0.11775932 -0.0069194585 -0.16648546 -0.0513255 -0.09978614 -0.15698874 0.10216704 0.10713446
-0.08239901 -0.11790477 -0.13044503 -0.07159729 -0.011465102 0.052693248 -0.08626446 -0.048557192
-0.19576356 -0.20532428 0.16253743 -0.14676532 -0.16585591 -0.19869572 -0.017329067 -0.108671
0.16887125 0.17199278 -0.18299016 -0.042973846 -0.08758806 0.018606469 0.1416406 0.15154886
-0.011270583 0.10050136 -0.09194813 -0.12797979 0.021117315 -0.01900807 0.13562071 0.09494981
-0.03846973 -0.04590264 -0.025935277 -0.1285302 0.11238748 0.12929896 0.12240255 0.08350924
0.04970616 -0.09635754 0.0035086572 -0.043693095 -0.16006726 0.008407086 -0.20908995 0.17400834
0.1913498 -0.14240505 0.21234518 0.17619318 0.14817297 0.040848464 0.061101645 0.15727109
0.06733236 -0.14631803 0.072117865 -0.04272467 -0.20962337 -0.2081829 -0.21224207 -0.057454526
0.12921187 0.14860576 -0.21147946 -0.15024112 -0.19066513 0.0034467727 0.13287786 -0.027130902
0.20580578 0.0047845095 -0.1321772 0.10518223 0.2102899 -0.16887677 -0.08027735 0.060973287
-0.13393492 0.1522313 -0.06766343 0.01498729 0.08015764 -0.12488123 0.090596646 -0.0009986609
0.10363802 -0.14402391 0.20035398 0.12905636 -0.20200661 0.051122963 0.049239844 0.090428054
0.1262641 -0.15801063 0.12308088 -0.16008282 0.16045222 0.044848472 -0.047229797 -0.06554824
