results/ppo/My Behavior/My Behavior-10368.pt (torch, 449247 bytes, 30 tensors)

network_body._body_endoder.seq_layers.0.weight f4 [128, 10]
-0.18828817 -0.10154235 -0.16485165 -0.38954842 0.4694682 -0.5620513 -0.3744465 -0.069429144
0.46923915 -0.14775427 -0.1176512 0.08659116 -0.27342013 -0.07658084 -0.40254182 0.36963043
0.00026794046 0.122980446 -0.41627052 0.15862042 -0.20557751 0.48913637 -0.15179482 -0.053382672
-0.35760882 0.5391132 0.17442615 0.04118092 0.13100341 -0.031245349 0.09010668 0.11441036
-0.31298444 -0.37418157 0.3805311 -0.18934332 -0.44729283 -0.3505408 0.24216312 -0.29710644
-0.13915846 0.38361165 -0.07857336 -0.20694084 -0.3967539 -0.293467 0.19045821 -0.57882845
0.17197935 0.038982563 -0.31443095 -0.6615287 0.3513709 0.17926905 -0.19910482 0.35193184
0.035034772 0.40593848 0.39355958 0.39816496 -0.2878962 0.39853898 0.17638908 -0.27110332
0.51186067 0.11813817 0.34617397 -0.028695269 -0.42322478 -0.11204581 0.27549127 0.18656726
0.20858589 -0.064033896 -0.105842285 -0.27842543 -0.16292384 -0.19936009 -0.1413668 0.28624523
-0.22647262 -0.57154894 -0.41573852 -0.3206996 -0.4966584 0.24369821 0.2592451 -0.32007065
0.2522358 0.187271 -0.117867745 -0.03482591 0.35707948 -0.48821765 -0.067173764 -0.42350975
-0.31348267 -0.21964666 -0.0115975095 -0.2986228 0.16129293 -0.28999814 -0.3531494 -0.3036782
0.62091047 -0.0017921622 -0.5686803 -0.045256376 -0.19175921 0.023407234 -0.27844724 0.3070392
-0.028283665 -0.1295624 0.1976001 0.06585405 0.18105334 0.3228178 -0.035748884 0.32585055
-0.51423734 0.025491357 -0.14518262 0.113111004 -0.23702893 -0.17223781 0.25836048 -0.336809
-0.110350125 -0.31021613 0.007945505 0.38774624 -0.195605 -0.27927414 -0.15836693 -0.40209535
-0.06679621 -0.12381846 -0.07923999 -0.34492502 -0.26667652 -0.33109707 0.03711829 0.16365738
-0.37746915 -0.52058 -0.15046279 0.06476187 -0.13667868 -0.09849277 -0.21158263 0.27713966
0.476805 0.36790955 -0.61614466 0.20067859 -0.45124245 -0.21272863 0.33042508 0.36184406
-0.13563246 0.08334438 -0.00901501 0.12599371 -0.07505629 -0.17784259 -0.5919377 -0.19454953
-0.5571127 0.09113094 0.009631924 0.18183967 0.5290598 -0.4000857 -0.5824608 0.17228769
-0.16875471 0.16310753 -0.27118632 -0.2337054 0.47638643 0.31306246 0.4274209 -0.30707175
-0.16384101 0.059047095 -0.19249573 -0.025578307 -0.07758152 0.10217787 0.021953497 0.5311884
0.15468471 -0.11726914 0.31153238 0.04157135 -0.20754907 -0.16831344 0.18567425 0.10547467
-0.46548933 -0.056626424 0.13517998 -0.2256758 0.031110857 -0.13221072 -0.3362922 0.20648149
0.08941463 0.14008032 -0.16995844 -0.31037828 -0.014227083 0.17619038 -0.12567656 -0.1784852
0.5742064 -0.2643963 0.29470968 -0.1427697 0.30644968 -0.28173366 -0.7109616 -0.46039462
0.38002625 0.0049030073 0.105425715 0.038176417 -0.21110582 -0.12653656 -0.30182445 0.4319594
0.044204116 0.45258233 0.22656475 -0.028478783 -0.09976615 0.29195455 0.075574 -0.12467523
-0.76526517 -0.40265164 -0.46841925 0.24082804 0.58048344 -0.3762081 -0.15505774 0.11984241
0.20773703 -0.04441666 -0.034550525 -0.11370386 -0.2553178 -0.24549772 -0.34030512 -0.23712249
00000000: 9dce 40be 70f5 cfbd dfce 28be e472 c7be
00000010: 235e f03e 98e2 0fbf 74b7 bfbe de30 8ebd
00000020: 1d40 f03e e54c 17be 1df3 f0bd b556 b13d
00000030: b9fd 8bbe 6ad6 9cbd f619 cebe 3340 bd3e
00000040: 5c7a 8c39 2cdd fb3d 6921 d5be 646d 223e
00000050: e982 52be 1570 fa3e 1a70 1bbe caa7 5abd
00000060: 8118 b7be 5303 0a3f c59c 323e 53ad 283d
00000070: c225 063e 3ff6 ffbc da89 b83d fb4f ea3d
00000080: 7f3f a0be ba94 bfbe f9d4 c23e 37e3 41be
00000090: 9103 e5be 157a b3be 9cf9 773e 561e 98be
000000a0: 8e7f 0ebe bf68 c43e 12eb a0bd 4de8 53be
000000b0: 5423 cbbe 4e41 96be 7a07 433e 1a2e 14bf
000000c0: 5b1b 303e 2eac 1f3d 18fd a0be f259 29bf
000000d0: e3e6 b33e 4e92 373e 22e2 4bbe 6930 b43e
000000e0: 9f80 0f3d 2bd7 cf3e a480 c93e 47dc cb3e
000000f0: 2167 93be 4d0d cc3e 579f 343e 0ece 8abe
00000100: 4d09 033f 6df2 f13d b73d b13e 5712 ebbc
00000110: ebb0 d8be 4678 e5bd 310d 8d3e 7d0b 3f3e
00000120: 8a97 553e 3424 83bd d7c3 d8bd c78d 8ebe
00000130: 82d5 26be 0d25 4cbe 75c2 10be bc8e 923e
00000140: 70e8 67be 0851 12bf aedb d4be bd32 a4be
00000150: 034a febe 068c 793e c6bb 843e 4de0 a3be
00000160: 0d25 813e f8c3 3f3e a564 f1bd 9da5 0ebd
00000170: 1fd3 b63e aaf7 f9be 6692 89bd 45d6 d8be
00000180: cd80 a0be 0eeb 60be 7b03 3ebc 16e5 98be
00000190: f929 253e a37a 94be 00d0 b4be b67b 9bbe
000001a0: fdf3 1e3f fce6 eaba 0895 11bf c05e 39bd
000001b0: 875c 44be 87c0 bf3c a390 8ebe 3e34 9d3e
000001c0: 25b3 e7bc 01ac 04be ae57 4a3e 7dde 863d
000001d0: 0c66 393e 6048 a53e 6c6d 12bd e2d5 a63e
000001e0: 0fa5 03bf 40d3 d03c c1aa 14be bea6 e73d
000001f0: b6b7 72be 1c5f 30be d347 843e 3b72 acbe
00000200: 3fff e1bd a6d4 9ebe dd2d 023c ad86 c63e
00000210: ad4c 48be 05fd 8ebe f12a 22be 71df cdbe
00000220: 74cc 88bd 8894 fdbd 9348 a2bd 039a b0be
00000230: d389 88be 8e85 a9be 5909 183d cd95 273e
00000240: a343 c1be bb44 05bf eb12 1abe dfa1 843d
00000250: 7ff5 0bbe 94b6 c9bd 1ea9 58be 40e5 8d3e
00000260: c91f f43e a45e bc3e a8bb 1dbf b07e 4d3e
00000270: 4009 e7be 89d5 59be 7a2d a93e a043 b93e
00000280: 3ce3 0abe 75b0 aa3d b1b3 13bc 7f04 013e
00000290: 1db7 99bd 5e1c 36be 3b89 17bf fe37 47be
000002a0: f09e 0ebf dca2 ba3d 38cf 1d3c 2e34 3a3e
000002b0: 7770 073f 08d8 ccbe 271c 15bf 2f6c 303e
000002c0: 09ce 2cbe a905 273e efd8 8abe 7850 6fbe
000002d0: ece8 f33e b949 a03e ead6 da3e 8238 9dbe
000002e0: f0c5 27be 5edb 713d 9a1d 45be 9989 d1bc
000002f0: 0fe3 9ebd a242 d13d d2d7 b33c f7fb 073f
00000300: ab65 1e3e ce2a f0bd 2c81 9f3e b846 2a3d
00000310: be87 54be 5c5a 2cbe 6421 3e3e 1b03 d83d
00000320: 9e54 eebe 1cf1 67bd 9f6c 0a3e 8f17 67be
00000330: 32dc fe3c 3f62 07be 7e2e acbe e26f 533e
00000340: 041f b73d 3771 0f3e 9609 2ebe e7e9 9ebe
00000350: b618 69bc 406b 343e 5bb1 00be d3c4 36be
00000360: 31ff 123f f45e 87be 30e4 963e 3832 12be
00000370: f9e6 9c3e 653f 90be 9401 36bf d8b8 ebbe
00000380: cd92 c23e 68a9 a03b 70e9 d73d e05e 1c3d
00000390: 202c 58be cd92 01be bc88 9abe c829 dd3e
000003a0: 600f 353d dfb8 e73e 9700 683e 564c e9bc
000003b0: 3252 ccbd 117b 953e 8bc6 9a3d ba55 ffbd
000003c0: 6be8 43bf 5b28 cebe a6d4 efbe a09b 763e
000003d0: 909a 143f 599e c0be 75c7 1ebe f06f f53d
000003e0: 04b9 543e 3eee 35bd da84 0dbd 92dd e8bd
000003f0: 04b9 82be c163 7bbe 793c aebe 3dd0 72be

network_body._body_endoder.seq_layers.0.bias f4 [128]
-0.00036454364 -0.00020540325 -0.0006053777 -0.00044790164 -0.00027076827 -0.00029085658 0.00020839703 0.00023345301
7.455226e-05 0.00018307932 -0.0009900299 0.000112954665 0.00024619536 -0.00025657716 0.0002876501 0.00024393543
0.0006561878 0.00020118765 0.00023183656 -0.0009737757 -0.00033047993 -0.0013729552 -0.00037227865 -0.0006275044
-0.00013739179 0.0005074354 -0.00039451488 -0.00037869494 -0.0002027713 0.00049697346 0.0017063796 0.00024075943
-0.00028429693 0.0003737248 -0.00044469562 0.00018492837 -0.002401889 -0.0005859258 -0.0005177056 -0.00018048652
-0.0004379475 -0.00037696853 -0.0010803987 0.00023627863 -0.00030032167 -0.0014993504 -0.00046923003 -0.0005520458
-0.0005611189 -0.001976326 -0.00037260694 -0.00028361255 0.00021058007 0.00015266756 0.00010045135 -0.0008475874
0.0001961048 -0.0003147092 -0.00017851623 0.00017516501 2.4984323e-05 0.00022233502 0.0002910987 0.00017220217
0.00021650249 -0.00096258754 -6.880161e-05 -0.00040309786 -0.0004894524 0.00049310894 -0.0017389763 -0.00045958476
-0.00035314314 5.398514e-06 0.00014167832 -0.00015131984 0.00017751458 -0.00042145493 0.00029800695 5.0377894e-05
-0.0007591564 0.00027013628 0.00039852626 0.0020790775 -0.0004133018 -0.00039561297 0.0003816552 0.00016127496
0.00021835288 -7.031074e-05 4.020878e-05 -5.403629e-05 -1.3381448e-05 -0.0004060886 7.645761e-05 -0.00039316047
0.00015009519 -0.00012238939 0.0002627037 6.700571e-05 0.00011191949 -0.0007396184 0.00020962881 -0.004260704
-0.0006240247 -0.00027316203 -0.0004738048 0.0006510853 -0.00013085791 -0.0011052003 -0.00031342142 -0.00042134305
0.00017400565 0.0002571181 0.00031839608 -0.00035879225 -0.0025895904 0.0023944874 -0.00037297825 -0.0021451716
0.00037310174 -0.00037834328 -0.0002501085 0.0016614195 -5.118164e-05 -0.0009966632 0.00023523602 -8.349314e-05
00000000: 3820 bfb9 8461 57b9 36b2 1eba 57d4 eab9
00000010: e7f5 8db9 1c7e 98b9 2785 5a39 11cb 7439
00000020: f158 9c38 fbf8 3f39 e4c3 81ba 13e2 ec38
00000030: c813 8139 3485 86b9 becf 9639 ebc8 7f39
00000040: 0504 2c3a e6f5 5239 2719 7339 fb44 7fba
00000050: 4444 adb9 bbf4 b3ba 652e c3b9 1c7f 24ba
00000060: d410 10b9 6a05 053a e4d6 ceb9 938b c6b9
00000070: 029f 54b9 5347 023a 99a8 df3a 5e74 7c39
00000080: b00d 95b9 7ef0 c339 0926 e9b9 55e9 4139
00000090: 0369 1dbb d198 19ba a2b6 07ba fb40 3db9
000000a0: 529c e5b9 dca3 c5b9 2a9c 8dba 90c1 7739
000000b0: 7e74 9db9 da85 c4ba fd02 f6b9 2bb7 10ba
000000c0: 0d18 13ba 4085 01bb 755a c3b9 d5b1 94b9
000000d0: 28cf 5c39 6315 2039 68a9 d238 a130 5eba
000000e0: 7ba1 4d39 8eff a4b9 1630 3bb9 80ac 3739
000000f0: 6d95 d137 9a22 6939 9b9e 9839 2b91 3439
00000100: f204 6339 2856 7cba 9549 90b8 e156 d3b9
00000110: 984e 00ba fb43 013a 5dee e3ba 6cf4 f0b9
00000120: 1226 b9b9 e224 b536 7c8f 1439 9cab 1eb9
00000130: 3523 3a39 b9f6 dcb9 d13d 9c39 da4c 5338
00000140: 2002 47ba 14a1 8d39 4af1 d039 2241 083b
00000150: 6eb0 d8b9 466a cfb9 e518 c839 eb1b 2939
00000160: a8f5 6439 cb73 93b8 d9a5 2838 06a5 62b8
00000170: e280 60b7 4ae8 d4b9 de57 a038 1b21 ceb9
00000180: df62 1d39 a755 00b9 7ebb 8939 6b85 8c38
00000190: 52b6 ea38 f3e2 41ba cecf 5b39 609d 8bbb
000001a0: 9795 23ba 3037 8fb9 0169 f8b9 98ad 2a3a
000001b0: e736 09b9 5edc 90ba b652 a4b9 b5e7 dcb9
000001c0: 4975 3639 cfcd 8639 66ee a639 481c bcb9
000001d0: 1eb6 29bb d5ec 1c3b 4b8c c3b9 0296 0cbb
000001e0: de9c c339 605c c6b9 ff20 83b9 fdc3 d93a
000001f0: deab 56b8 78a2 82ba b0a9 7639 0a19 afb8

network_body._body_endoder.seq_layers.2.weight f4 [128, 128]
0.0062479884 -0.0051080394 0.06431523 0.14372952 -0.11668951 0.01299769 0.057108227 0.27756122
0.17326048 0.010951837 0.03949247 0.0006509306 -0.011918334 -0.16615689 0.059319388 -0.11826988
0.032679025 0.11594914 0.16497055 -0.010606003 -0.08612508 -0.061731506 -0.20005938 -0.031304974
0.16959576 0.0411765 -0.014083994 0.02991933 0.09450793 0.053240966 0.12754568 0.028205523
-0.08575889 0.12828341 -0.046449356 0.06276679 0.0008074897 -0.09414498 -0.049858924 0.034917228
-0.04491066 0.068969704 -0.13517946 -0.2097742 -0.06174668 0.023310238 -0.04373557 -0.115954004
0.08566172 0.040468205 0.058397617 -0.015672663 -0.026113776 0.023690991 0.07152604 0.07908704
-0.20301901 0.025165163 0.25647402 -0.13646652 0.037545595 -0.0006586827 0.09352955 -0.11923711
-0.12575707 -0.026486352 -0.039233364 0.08801609 -0.031143125 0.038826104 -0.0019309589 0.06786097
0.06556226 -0.021202415 -0.08884785 0.09531614 0.07689891 0.059463616 -0.06966057 0.07769833
-0.10167688 0.016861212 -0.087458834 0.025382088 0.00049593206 0.13898195 -0.14176458 0.16159274
0.037992474 -0.11310219 0.044447657 0.16084823 0.020738542 -0.16269088 -0.023335297 0.08105402
0.044788707 -0.10437538 -0.07970666 -0.056610025 -0.048519313 0.108364545 0.05303584 0.04477849
0.087161295 -0.120204486 0.05404199 0.17999288 -0.09959803 -0.11041192 -0.062005363 0.13836597
0.00958506 0.15775551 0.15756407 0.042737804 -0.10967847 0.123938605 0.07462654 0.066950634
0.0409314 0.11335608 0.11011222 -0.015356048 0.13931713 0.032753758 -0.055720266 -0.023633808
0.08248638 0.17419887 0.020269739 -0.074423455 -0.057009812 -0.025168832 -0.07287296 -0.030968092
0.14357853 0.019138992 -0.15332669 0.12997362 -0.007922471 0.21413496 0.058146767 0.1114057
0.016359735 0.006743039 -0.057872385 -0.022673182 0.10891884 0.13023838 -0.05694725 0.13481577
-0.07989096 0.03962935 0.00022848693 0.1005763 -0.14758278 -0.00796072 -0.047865335 0.094773285
0.0033774436 0.11112121 -0.02286291 -0.06401443 0.20959376 -0.058085915 -0.007884361 -0.013238145
-0.11351356 0.069723904 0.044657715 -0.09678262 0.032365683 0.040877726 0.0644094 -0.03715986
0.084541745 -0.07021277 0.038952 -0.24253084 -0.09992523 -0.06615133 0.007900425 0.12867577
-0.0061453995 0.058830965 -0.09302859 0.045641016 -0.0045436737 0.04576884 -0.049406383 -0.105546735
0.12481753 0.0570138 -0.056607682 -0.05259303 0.16521429 -0.12280409 -0.06547277 -0.17110753
0.1275255 0.063934505 -0.11781671 -0.06606281 0.07027983 0.08322077 -0.1333286 -0.0072269025
0.04252907 0.09414058 -0.12160233 0.06994701 0.01406755 -0.06315229 0.05810125 0.037139036
-0.12419084 -0.03858801 0.07608097 -0.06415972 -0.04146705 -0.025682015 0.044203483 0.09649428
0.027673563 0.1265097 0.044741455 -0.002731079 -0.13016471 0.18841459 0.05254034 0.099157296
-0.2364857 -0.039823443 -0.12362204 0.017749248 -0.12201852 -0.022047283 -0.16461657 -0.05306938
-0.10069312 0.015877472 -0.0954093 -0.060388632 -0.17624705 -0.09439007 -0.02026237 0.09061505
-0.03154243 -0.20104322 -0.00402196 0.07046347 -0.0968603 0.061697606 -0.011492288 -0.1553326
00000000: edbb cc3b 5761 a7bb b4b7 833d d52d 133e
00000010: e9fa eebd 43f4 543c 51ea 693d 811c 8e3e
00000020: 326b 313e 556f 333c dbc2 213d 37a3 2a3a
00000030: 1e45 43bc 0825 2abe e3f8 723d 7b37 f2bd
00000040: 71da 053d be76 ed3d 0aee 283e cdc4 2dbc
00000050: 5962 b0bd 2dda 7cbd 5edc 4cbe a539 00bd
00000060: 83aa 2d3e b1a8 283d 8dc0 66bc 6219 f53c
00000070: 608d c13d 3313 5a3d 569b 023e 450f e73c
00000080: 5ba2 afbd ba5c 033e ae41 3ebd e08b 803d
00000090: b7ad 533a 15cf c0bd df38 4cbd 5e05 0f3d
000000a0: 3df4 37bd fd3f 8d3d 7c6c 0abe 0ccf 56be
000000b0: 16ea 7cbd 1df5 be3c 1224 33bd 4b79 edbd
000000c0: 696f af3d fdc1 253d 5732 6f3d f563 80bc
000000d0: 8fec d5bc 9c13 c23c 3f7c 923d 63f8 a13d
000000e0: 37e4 4fbe 2c27 ce3c 9050 833e e1bd 0bbe
000000f0: 69c9 193d 73ab 2cba 6c8c bf3d 9632 f4bd
00000100: 76c6 00be e8f9 d8bc 2ab3 20bd c841 b43d
00000110: de1f ffbc 1f08 1f3d 3b18 fdba b1fa 8a3d
00000120: 8245 863d b0b0 adbc ddf5 b5bd 1c35 c33d
00000130: 2d7d 9d3d 1f90 733d 33aa 8ebd 4d20 9f3d
00000140: f83b d0bd 8620 8a3c 9e1d b3bd 19ee cf3c
00000150: 7001 023a 4951 0e3e bc2a 11be 9178 253e
00000160: ff9d 1b3d 1fa2 e7bd bf0e 363d 66b5 243e
00000170: e0e3 a93c 7098 26be aa29 bfbc a6ff a53d
00000180: 5d74 373d c2c2 d5bd 3f3d a3bd eadf 67bd
00000190: 30bc 46bd 3bee dd3d 1c3c 593d a669 373d
000001a0: 9f81 b23d c52d f6bd 225b 5d3d 0e50 383e
000001b0: 0dfa cbbd a51f e2bd 56f9 7dbd cfaf 0d3e
000001c0: a80a 1d3c a98a 213e 7a58 213e d60d 2f3d
000001d0: 1b9f e0bd 86d3 fd3d cdd5 983d 6a1d 893d
000001e0: afa7 273d 3c27 e83d 8482 e13d ef97 7bbc
000001f0: 26a9 0e3e ce28 063d ef3a 64bd b09b c1bc
00000200: 9fee a83d 3061 323e b90c a63c 536b 98bd
00000210: 1f83 69bd de2e cebc 6b3e 95bd ccb0 fdbc
00000220: 4006 133e 60c9 9c3c ac01 1dbe ce17 053e
00000230: 40cd 01bc 3246 5b3e 4e2b 6e3d ac28 e43d
00000240: da04 863c b6f4 dc3b 980b 6dbd 1cbd b9bc
00000250: d710 df3d 365d 053e 8541 69bd 250d 0a3e
00000260: df9d a3bd 6352 223d fe95 6f39 f2fa cd3d
00000270: f11f 17be ae6d 02bc 710e 44bd 7f18 c23d
00000280: 1a58 5d3b 8493 e33d ff4a bbbc ff19 83bd
00000290: bf9f 563e 7feb 6dbd 682d 01bc cee4 58bc
000002a0: cc79 e8bd 68cb 8e3d 02eb 363d f735 c6bd
000002b0: e191 043d 676f 273d 13e9 833d f034 18bd
000002c0: 3924 ad3d b6cb 8fbd 228c 1f3d 015a 78be
000002d0: 99a5 ccbd 597a 87bd c970 013c 95c3 033e
000002e0: 595f c9bb bdf8 703d c685 bebd 13f2 3a3d
000002f0: 19e3 94bb 1b78 3b3d 595e 4abd e328 d8bd
00000300: 55a0 ff3d 4d87 693d 75dd 67bd ca6b 57bd
00000310: ef2d 293e b680 fbbd 9616 86bd d036 2fbe
00000320: 0b96 023e 18f0 823d e349 f1bd f04b 87bd
00000330: dfee 8f3d a76f aa3d 4b87 08be a7cf ecbb
00000340: f632 2e3d c7cc c03d a40a f9bd 6140 8f3d
00000350: 957b 663c fd55 81bd 94fb 6d3d 1a1f 183d
00000360: c457 febd 760e 1ebd 57d0 9b3d 2c66 83bd
00000370: 5ad9 29bd 1763 d2bc b60e 353d cb9e c53d
00000380: abb3 e23c c28b 013e d142 373d e7fb 32bb
00000390: e649 05be c1ef 403e 8a34 573d fb12 cb3d
000003a0: 4f29 72be e81d 23bd 8d2d fdbd df66 913c
000003b0: d9e4 f9bd 819c b4bc 3f91 28be 475f 59bd
000003c0: 3238 cebd 7911 823c f365 c3bd 125a 77bd
000003d0: 1b7a 34be 954f c1bd 45fd a5bc 6294 b93d
000003e0: a332 01bd 46de 4dbe a5ca 83bb 274f 903d
000003f0: b15e c6bd a1b6 7c3d 264a 3cbc 820f 1fbe

network_body._body_endoder.seq_layers.2.bias f4 [128]
-0.00022803509 -0.00041742605 -8.5886866e-05 -0.00046043194 0.00018415565 1.6027416e-05 0.00024894884 0.00022197963
0.00023998106 0.0002013571 0.00018871849 -0.0005313843 7.392478e-05 0.00031089972 0.00021502633 0.0004275959
0.00018407521 -0.0006153729 -0.00043561892 0.00020707773 0.00014811603 0.0002695555 0.00023848838 -1.7997731e-06
-0.00037305587 0.00020310472 0.0007551946 -0.0009773672 0.00015116832 0.0019678553 -0.00017243398 -0.00090549065
-6.0864484e-05 0.00016961906 6.420619e-05 -0.0006091874 0.00017058464 0.00013693636 0.0002103677 -0.00048284986
-0.00030937945 -0.00030757763 9.447315e-06 -0.0001558293 -0.00061169994 1.4055395e-06 -0.00047419165 -6.179201e-05
-0.0003823777 0.0010376881 0.00020466768 -0.0007249816 -0.00033804623 0.00028564018 -0.0036098599 -0.00047353117
5.9108417e-05 -0.00038381323 0.0001851596 -0.00048558012 0.00020345219 -0.00040040954 -0.0003111033 0.00017975832
0.0002141579 -0.00025553224 -0.00051198417 0.00025596068 7.462083e-06 0.00018492732 -0.0005281952 0.0002630475
0.0006298019 -0.0003055482 -0.00066155865 0.00011318084 1.4780904e-05 0.00023343379 0.0011032894 0.00023734175
-0.00085215934 -0.0003307906 -0.00017785095 -0.00033086963 0.0007958748 0.00023784024 -0.00043304224 -0.00033716034
-0.00035417857 -0.004541323 -0.0005455083 -0.0008114969 0.00018138738 -0.0009121683 -0.00057636347 -0.0018796828
-0.00042869413 -0.0003107968 0.000202349 -0.0010587784 0.00020895677 -0.0003410407 0.000120732606 -0.00041951277
-0.00031003368 0.00017993982 -0.00021333154 0.0004020672 0.0002750465 -8.4173495e-05 -0.0023704204 -0.00037122305
0.00016669893 -0.0003687597 -0.00046429774 8.1618775e-05 -0.00043873666 6.445251e-05 -0.0005866737 0.00024596226
0.00021432826 0.00025541536 -0.00015262158 -0.00049703254 0.00022948609 0.000107688335 0.0001711999 9.44288e-06
00000000: b41c 6fb9 fad9 dab9 291e b4b8 2166 f1b9
00000010: e819 4139 9d72 8637 5985 8239 34c3 6839
00000020: 6da3 7b39 6323 5339 bce2 4539 994c 0bba
00000030: 1008 9b38 4100 a339 b178 6139 f32e e039
00000040: 5004 4139 fa50 21ba c863 e4b9 0123 5939
00000050: 984f 1b39 2053 8d39 bd12 7a39 bc8f f1b5
00000060: b696 c3b9 82f8 5439 40f8 453a 001b 80ba
00000070: f082 1e39 22f7 003b 65cf 34b9 735e 6dba
00000080: be48 7fb8 c5db 3139 70a6 8638 e0b1 1fba
00000090: f7de 3239 9396 0f39 2696 5c39 0327 fdb9
000000a0: 3534 a2b9 5f42 a1b9 e97f 1e37 1c66 23b9
000000b0: 7d5a 20ba f8a5 bc35 ed9c f8b9 5596 81b8
000000c0: de79 c8b9 0903 883a 109c 5639 b10c 3eba
000000d0: cc3b b1b9 fac1 9539 6693 6cbb 4744 f8b9
000000e0: 2eeb 7738 8a3a c9b9 6727 4239 7695 feb9
000000f0: c855 5539 0fee d1b9 941b a3b9 827d 3c39
00000100: 938f 6039 f5f8 85b9 ad36 06ba 7632 8639
00000110: ce62 fa36 0de9 4139 9476 0aba a3e9 8939
00000120: 4a19 253a fc31 a0b9 736c 2dba 805b ed38
00000130: 80fb 7737 e8c5 7439 409c 903a f1de 7839
00000140: 7263 5fba f66d adb9 807d 3ab9 9278 adb9
00000150: 41a2 503a c164 7939 f209 e3b9 e5c4 b0b9
00000160: 0bb1 b9b9 61cf 94bb 7100 0fba a3ba 54ba
00000170: ce32 3e39 941e 6fba 1917 17ba b05f f6ba
00000180: 5ac2 e0b9 71f2 a2b9 a52d 5439 b5c6 8aba
00000190: 681b 5b39 b5cd b2b9 d331 fd38 0df2 dbb9
000001a0: 048c a2b9 3aae 3c39 c0b1 5fb9 8ccc d239
000001b0: 1e34 9039 4d86 b0b8 0e59 1bbb b7a0 c2b9
000001c0: e7cb 2e39 1756 c1b9 fd6c f3b9 bf2a ab38
000001d0: 3d06 e6b9 ae2a 8738 01cb 19ba 7ff4 8039
000001e0: 4ebd 6039 45e9 8539 0b09 20b9 4a4b 02ba
000001f0: 34a2 7039 bcd6 e138 2084 3339 dc6c 1e37

action_model._continuous_distribution.mu.weight f4 [1, 128]
-0.0018865238 -0.006879786 -0.019573806 -0.018289316 -0.025756147 0.0030333386 -0.021233035 -0.0125713
-0.0179476 0.009691468 0.040087715 -0.0036133812 0.007942307 0.038215086 -0.011277278 0.013559526
-0.007731141 -0.0017865711 0.004496152 -0.010570376 -0.015813272 -0.035782907 -0.02299449 0.018986851
-0.004917215 0.025333844 0.033890415 0.0065228054 -0.014727495 -0.019698245 -0.0019262873 -0.00094771385
-0.027125629 -0.017754776 -0.0038241416 -0.0009812271 0.005768967 -0.0060773054 -0.01094464 -0.0032660132
0.027376415 0.031655457 -0.008246894 -0.0019679312 0.008183688 -0.0032484077 0.005271387 0.026729994
0.029142255 0.00032872413 0.007921791 -0.031212352 0.018927557 0.0012055832 -4.9058253e-05 0.0039301794
0.0037509867 0.02994864 0.030235244 0.0043605943 0.016999338 -0.031136872 0.026484279 0.009620946
-0.010712397 0.0072136666 0.06483761 -0.011544211 0.0035673499 -0.02737256 0.0028685317 -0.042536385
-0.004286286 0.033578772 0.004973496 0.022080729 -0.003427094 -0.019064227 0.015760079 -0.021302717
0.007909885 0.022347 -0.01928457 0.030188853 0.0154866045 0.0017327301 0.013526506 -0.018702323
0.01002764 -0.00018777941 0.0029749994 0.0011937493 -0.0077292146 0.0008977321 0.011216391 -0.00018769644
0.0051024957 0.030987885 -0.024222167 -0.00899623 -0.011433086 0.013098128 0.005484043 0.01951523
-0.012616287 -0.008653412 0.0018411517 -0.0010938547 0.015864482 -0.015911827 0.00035254922 -0.01381634
-0.00878571 0.015615423 0.0041110576 -0.036269963 0.037755292 -0.041265097 -0.021329492 -0.024183657
-0.018673675 -0.02838493 -0.016388029 -0.018250324 -0.013286673 -0.009711322 -0.010281665 -0.004474424
00000000: 3c45 f7ba d46f e1bb 3f59 a0bc 7ad3 95bc
00000010: 8efe d2bc faca 463b e7f0 adbc dbf7 4dbc
00000020: d806 93bc f7c8 1e3c 0433 243d 7ace 6cbb
00000030: 7320 023c 6c87 1c3d 55c4 38bc c628 5e3c
00000040: 8355 fdbb 612b eaba 7554 933b 5f2f 2dbc
00000050: d68a 81bc 1991 12bd f15e bcbc 508a 9b3c
00000060: 9720 a1bb ec88 cf3c add0 0a3d 42bd d53b
00000070: 974b 71bc 375e a1bc 7a7b fcba 0070 78ba
00000080: 9136 debc 7772 91bc 739e 7abb 859c 80ba
00000090: 9a09 bd3b 2224 c7bb 2651 33bc 9c0a 56bb
000000a0: 8144 e03c 27a9 013d fb1d 07bc 68f8 00bb
000000b0: e014 063c 3de3 54bb 99bb ac3b dcf8 da3c
000000c0: bdbb ee3c 9b58 ac39 66ca 013c 0cb1 ffbc
000000d0: f70d 9b3c a904 9e3a e6c3 4db8 bcc8 803b
000000e0: 1dd3 753b da56 f53c e7af f73c 51e3 8e3b
000000f0: 3242 8b3c c112 ffbc 8ff5 d83c 2ca1 1d3c
00000100: 0d83 2fbc 9f60 ec3b 95c9 843d ee23 3dbc
00000110: 33ca 693b 6b3c e0bc fafd 3b3b a23a 2ebd
00000120: f973 8cbb e589 093d b5f8 a23b a5e2 b43c
00000130: 1999 60bb 952c 9cbc 481b 813c 0983 aebc
00000140: 7698 013c 0e11 b73c adfa 9dbc 9d4e f73c
00000150: 87bb 7d3c c61c e33a 479e 5d3c 9d35 99bc
00000160: f84a 243c a7e6 44b9 35f8 423b 9477 9c3a
00000170: 5a45 fdbb c855 6b3a f4c4 373c 61d0 44b9
00000180: d632 a73b 4eda fd3c 916d c6bc ec64 13bc
00000190: d751 3bbc 8899 563c 7db3 b33b 67de 9f3c
000001a0: 8bb4 4ebc 0ac7 0dbc cd52 f13a ac5f 8fba
000001b0: 3bf6 813c 8559 82bc 5bd6 b839 ee5d 62bc
000001c0: f0f1 0fbc d5d7 7f3c 0db6 863b d08f 14bd
000001d0: 4ba5 1a3d 9705 29bd 30bb aebc ce1c c6bc
000001e0: 89f9 98bc 8387 e8bc 3040 86bc b481 95bc
000001f0: 59b0 59bc 3d1c 1fbc 6e74 28bc 309e 92bb

exp_avg f4 [128, 10]
-1.9121164e-06 4.8436115e-05 0.0001075129 0.0 3.396995e-05 0.0 2.794548e-05 -0.00028966076
4.8436115e-05 -0.00022019297 -4.0612207e-08 1.0287522e-06 2.283512e-06 0.0 9.840943e-07 0.0
5.640308e-07 -6.1522132e-06 1.0287522e-06 -4.676769e-06 -2.401644e-07 6.083641e-06 1.3503771e-05 0.0
2.9146086e-06 0.0 3.6502556e-06 -3.6381767e-05 6.083641e-06 -2.7656568e-05 -1.4867164e-06 3.7660237e-05
8.359387e-05 0.0 2.5340943e-05 0.0 2.1834156e-05 -0.00022521816 3.7660237e-05 -0.00017120544
-2.5717231e-06 6.514469e-05 0.0001446008 0.0 5.558725e-05 0.0 3.6452024e-05 -0.0003895821
6.514469e-05 -0.00029615103 -3.7821135e-08 9.580533e-07 2.1265764e-06 0.0 7.653316e-07 0.0
5.4208067e-07 -5.7294124e-06 9.580533e-07 -4.35536e-06 9.0766974e-07 -2.2992364e-05 -5.103578e-05 0.0
-2.0970861e-05 0.0 -1.2718772e-05 0.00013750009 -2.2992364e-05 0.00010452441 7.321896e-07 -1.8547213e-05
-4.116897e-05 0.0 -1.6546239e-05 0.0 -1.0300158e-05 0.000110917135 -1.8547213e-05 8.431665e-05
4.5248282e-07 -1.1461851e-05 -2.5441837e-05 0.0 -1.9458312e-05 0.0 -5.31393e-06 6.854511e-05
-1.1461851e-05 5.210634e-05 1.6027924e-06 -4.0600527e-05 -9.012041e-05 0.0 -3.8864637e-05 0.0
-2.2254835e-05 0.00024280231 -4.0600527e-05 0.0001845722 -3.6186528e-08 9.1664606e-07 2.0346658e-06 0.0
4.048642e-07 0.0 5.5460214e-07 -5.48178e-06 9.1664606e-07 -4.167119e-06 3.699816e-08 -9.372058e-07
-2.0803045e-06 0.0 -8.743211e-07 0.0 -5.167308e-07 5.604734e-06 -9.372058e-07 4.260586e-06
2.4646263e-06 -6.243182e-05 -0.00013857927 0.0 -5.103535e-05 0.0 -3.520434e-05 0.0003733589
-6.243182e-05 0.0002838184 -1.0700815e-06 2.710638e-05 6.0167717e-05 0.0 2.1931362e-05 0.0
1.5311278e-05 -0.0001621035 2.710638e-05 -0.00012322716 8.3310326e-08 -2.1103442e-06 -4.6843015e-06 0.0
-1.9126608e-06 0.0 -1.1686585e-06 1.2620415e-05 -2.1103442e-06 9.593745e-06 1.4951436e-06 -3.7873666e-05
-8.406757e-05 0.0 -3.1792988e-05 0.0 -2.1265625e-05 0.00022649439 -3.7873666e-05 0.0001721753
3.7034152e-07 -9.38118e-06 -2.082328e-05 0.0 -5.2297946e-06 0.0 -5.5592573e-06 5.610193e-05
-9.38118e-06 4.264733e-05 1.8236177e-06 -4.61943e-05 -0.00010253688 0.0 -3.8490456e-05 0.0
-2.5983469e-05 0.00027625385 -4.61943e-05 0.00021000119 1.2406277e-06 -3.142657e-05 -6.975712e-05 0.0
-2.847359e-05 0.0 -1.7404527e-05 0.00018793913 -3.142657e-05 0.00014286698 -4.6872643e-07 1.18733715e-05
2.6355161e-05 0.0 3.821551e-06 0.0 7.3672777e-06 -7.100591e-05 1.18733715e-05 -5.3976968e-05
-1.6538536e-07 4.1894086e-06 9.299178e-06 0.0 3.192367e-06 0.0 2.3875423e-06 -2.5053772e-05
4.1894086e-06 -1.904526e-05 -1.8626592e-07 4.7183316e-06 1.0473221e-05 0.0 -3.5222383e-06 0.0
3.4954887e-06 -2.8216855e-05 4.7183316e-06 -2.144979e-05 -3.5619763e-07 9.022893e-06 2.0027988e-05 0.0
6.4586498e-06 0.0 5.1893935e-06 -5.3959284e-05 9.022893e-06 -4.101854e-05 -4.7115586e-07 1.1934913e-05
2.6491736e-05 0.0 5.264676e-06 0.0 7.243345e-06 -7.137389e-05 1.1934913e-05 -5.4256718e-05
-3.7511107e-08 9.5019715e-07 2.1091405e-06 0.0 9.675117e-07 0.0 5.143066e-07 -5.682437e-06
9.5019715e-07 -4.3196515e-06 -3.4780655e-08 8.8103207e-07 1.9556255e-06 0.0 3.9044035e-06 0.0
00000000: e951 00b6 e227 4b38 8c78 e138 0000 0000
00000010: f57a 0e38 0000 0000 766c ea37 9cdd 97b9
00000020: e227 4b38 9ae3 66b9 986d 2eb3 a813 8a35
00000030: 703e 1936 0000 0000 3915 8435 0000 0000
00000040: e767 1735 1c6f ceb6 a813 8a35 24ed 9cb6
00000050: f2ef 80b4 1422 cc36 418e 6237 0000 0000
00000060: 9898 4336 0000 0000 eaf6 7436 a098 18b8
00000070: 1422 cc36 0700 e8b7 308b c7b5 5ff5 1d38
00000080: 1e4f af38 0000 0000 4393 d437 0000 0000
00000090: 7e28 b737 8a28 6cb9 5ff5 1d38 9c85 33b9
000000a0: de95 2cb6 4a9e 8838 fb9f 1739 0000 0000
000000b0: 5b26 6938 0000 0000 10e4 1838 d340 ccb9
000000c0: 4a9e 8838 b844 9bb9 c770 22b3 7696 8035
000000d0: 4eb6 0e36 0000 0000 3071 4d35 0000 0000
000000e0: 8083 1135 473f c0b6 7696 8035 4224 92b6
000000f0: 97a6 7335 badf c0b7 400f 56b8 0000 0000
00000100: 95ea afb7 0000 0000 b662 55b7 e62d 1039
00000110: badf c0b7 1e34 db38 b08b 4435 d695 9bb7
00000120: d8ac 2cb8 0000 0000 c7cc 8ab7 0000 0000
00000130: d7ce 2cb7 2f9c e838 d695 9bb7 28d3 b038
00000140: c4ec f234 464c 40b7 ee6b d5b7 0000 0000
00000150: 683a a3b7 0000 0000 504e b2b6 e0bf 8f38
00000160: 464c 40b7 c28c 5a38 871f d735 7c4a 2ab8
00000170: 07ff bcb8 0000 0000 9602 23b8 0000 0000
00000180: e5af bab7 c098 7e39 7c4a 2ab8 b989 4139
00000190: 826b 1bb3 700f 7635 4b8b 0836 0000 0000
000001a0: 1d5c d934 0000 0000 f8df 1435 22f0 b7b6
000001b0: 700f 7635 48d3 8bb6 e8e7 1e33 4b94 7bb5
000001c0: 5c9b 0bb6 0000 0000 e3b2 6ab5 0000 0000
000001d0: 78b5 0ab5 4c10 bc36 4b94 7bb5 28f6 8e36
000001e0: f565 2536 d4ed 82b8 974f 11b9 0000 0000
000001f0: ca0e 56b8 0000 0000 5fa8 13b8 62bf c339
00000200: d4ed 82b8 76cd 9439 b89f 8fb5 8262 e337
00000210: 985c 7c38 0000 0000 3ef9 b737 0000 0000
00000220: b870 8037 54fa 29b9 8262 e337 8a36 01b9
00000230: 56e8 b233 709f 0db6 d82d 9db6 0000 0000
00000240: 435b 00b6 0000 0000 cdda 9cb5 45bc 5337
00000250: 709f 0db6 d2f4 2037 beac c835 8ada 1eb8
00000260: 6f4d b0b8 0000 0000 7659 05b8 0000 0000
00000270: 9563 b2b7 207f 6d39 8ada 1eb8 f589 3439
00000280: 5ad3 c634 dc63 1db7 a7ad aeb7 0000 0000
00000290: 987b afb6 0000 0000 a889 bab6 fd4e 6b38
000002a0: dc63 1db7 39e0 3238 07c3 f435 c0c0 41b8
000002b0: 1109 d7b8 0000 0000 d070 21b8 0000 0000
000002c0: 13f7 d9b7 2ad6 9039 c0c0 41b8 c433 5c39
000002d0: a583 a635 06d0 03b8 924a 92b8 0000 0000
000002e0: 92da eeb7 0000 0000 f0ff 91b7 8711 4539
000002f0: 06d0 03b8 90ce 1539 45a5 fbb4 be33 4737
00000300: 4715 dd37 0000 0000 e03a 8036 0000 0000
00000310: 6f34 f736 02e9 94b8 be33 4737 5465 62b8
00000320: c894 31b4 bf92 8c36 aa03 1c37 0000 0000
00000330: 733c 5636 0000 0000 aa39 2036 912a d2b7
00000340: bf92 8c36 62c3 9fb7 6300 48b4 2952 9e36
00000350: 24b6 2f37 0000 0000 985f 6cb6 0000 0000
00000360: 0a94 6a36 3cb3 ecb7 2952 9e36 13ef b3b7
00000370: 6e3b bfb4 0861 1737 c701 a837 0000 0000
00000380: 61b7 d836 0000 0000 8d20 ae36 5752 62b8
00000390: 0861 1737 520b 2cb8 2bf3 fcb4 103c 4837
000003a0: 923a de37 0000 0000 39a7 b036 0000 0000
000003b0: dc0b f336 91ae 95b8 103c 4837 b591 63b8
000003c0: e61b 21b3 0d11 7f35 c28a 0d36 0000 0000
000003d0: 73db 8135 0000 0000 e10e 0a35 c3ab beb6
000003e0: 0d11 7f35 86f1 90b6 bc61 15b3 1080 6c35
000003f0: 643d 0336 0000 0000 9202 8336 0000 0000

exp_avg_sq f4 [128, 10]
3.0833995e-11 1.9785144e-08 9.748158e-08 0.0 3.4701556e-10 0.0 8.199803e-09 7.075872e-07
1.9785144e-08 4.0889174e-07 2.857582e-14 1.8336152e-11 9.034236e-11 0.0 2.8695075e-13 0.0
7.63041e-12 6.5576594e-10 1.8336152e-11 3.7894587e-10 2.098259e-13 1.3463831e-10 6.63364e-10 0.0
1.6720227e-12 0.0 5.6726512e-11 4.815144e-09 1.3463831e-10 2.782516e-09 1.6890798e-11 1.0838267e-08
5.3400203e-08 0.0 1.7921727e-10 0.0 4.5071764e-09 3.876148e-07 1.0838267e-08 2.2399e-07
8.415602e-11 5.4000115e-08 2.660591e-07 0.0 8.827114e-10 0.0 2.2446036e-08 1.9312363e-06
5.4000115e-08 1.1159988e-06 1.5991574e-14 1.0261259e-11 5.0557305e-11 0.0 1.7069462e-13 0.0
4.2620287e-12 3.6697897e-10 1.0261259e-11 2.1206527e-10 1.2251562e-11 7.861424e-09 3.873328e-08 0.0
1.2918881e-10 0.0 3.2653726e-09 2.8115238e-07 7.861424e-09 1.6246884e-07 7.558392e-12 4.8499693e-09
2.389584e-08 0.0 8.018937e-11 0.0 2.014498e-09 1.7345216e-07 4.8499693e-09 1.00232356e-07
1.2115739e-11 7.774267e-09 3.830388e-08 0.0 1.06371016e-10 0.0 3.249458e-09 2.7803532e-07
7.774267e-09 1.6066765e-07 4.242544e-11 2.722299e-08 1.341279e-07 0.0 4.4913726e-10 0.0
1.1304156e-08 9.735909e-07 2.722299e-08 5.626065e-07 3.7719584e-15 2.4203402e-12 1.1925035e-11 0.0
3.8654704e-14 0.0 1.0101297e-12 8.655997e-11 2.4203402e-12 5.0020193e-11 2.0695058e-14 1.3279333e-11
6.542737e-11 0.0 2.3607527e-13 0.0 5.4944547e-12 4.749161e-10 1.3279333e-11 2.744386e-10
6.9822426e-11 4.4802732e-08 2.207434e-07 0.0 7.726633e-10 0.0 1.8575939e-08 1.6023043e-06
4.4802732e-08 9.259199e-07 1.3126276e-11 8.422697e-09 4.1498687e-08 0.0 1.4238481e-10 0.0
3.4949894e-09 3.0122553e-07 8.422697e-09 1.7406842e-07 1.211082e-13 7.771111e-11 3.8288311e-10 0.0
1.0980681e-12 0.0 3.246114e-11 2.7792244e-09 7.771111e-11 1.6060236e-09 2.8599888e-11 1.8351601e-08
9.0418474e-08 0.0 3.1209707e-10 0.0 7.6099935e-09 6.5631843e-07 1.8351601e-08 3.792651e-07
6.763198e-13 4.339719e-10 2.1381832e-09 0.0 7.434152e-12 0.0 1.80446e-10 1.5520376e-08
4.339719e-10 8.96872e-09 4.075594e-11 2.615173e-08 1.2884976e-07 0.0 4.6005288e-10 0.0
1.0828205e-08 9.352787e-07 2.615173e-08 5.404671e-07 2.2954116e-11 1.4728894e-08 7.256937e-08 0.0
2.4218624e-10 0.0 6.1174648e-09 5.2675745e-07 1.4728894e-08 3.0439602e-07 4.423571e-13 2.838459e-10
1.3985102e-09 0.0 6.0931776e-12 0.0 1.1650127e-10 1.0151334e-08 2.838459e-10 5.8661254e-09
2.73647e-13 1.7559007e-10 8.6513413e-10 0.0 2.9583037e-12 0.0 7.290516e-11 6.279726e-09
1.7559007e-10 3.6288499e-09 4.357705e-13 2.7961947e-10 1.3776874e-09 0.0 3.1282713e-12 0.0
1.174321e-10 1.0000185e-08 2.7961947e-10 5.778784e-09 1.1099933e-12 7.1224576e-10 3.5092402e-09 0.0
1.2040467e-11 0.0 2.957427e-10 2.5472437e-08 7.1224576e-10 1.4719694e-08 6.60473e-13 4.2380363e-10
2.0880835e-09 0.0 9.632905e-12 0.0 1.7349502e-10 1.5156722e-08 4.2380363e-10 8.758575e-09
2.6782426e-14 1.7185392e-11 8.4672554e-11 0.0 2.8210163e-13 0.0 7.13421e-12 6.146106e-10
1.7185392e-11 3.551635e-10 4.4663196e-13 2.8658892e-10 1.4120257e-09 0.0 3.2475635e-12 0.0
00000000: fe9b 072e fef3 a932 1157 d133 0000 0000
00000010: 19c6 be2f 0000 0000 1ddf 0c32 06f1 3d35
00000020: fef3 a932 a785 db34 adb1 0029 5849 a12d
00000030: 3aaa c62e 0000 0000 f689 a12a 0000 0000
00000040: 503c 062d 6d41 3430 5849 a12d e453 d02f
00000050: 333e 6c2a 5109 142f 1758 3630 0000 0000
00000060: f750 eb2b 0000 0000 607c 792e 7472 a531
00000070: 5109 142f 8a36 3f31 b292 942d 3433 3a32
00000080: 255a 6533 0000 0000 2d0d 452f 0000 0000
00000090: 8bdd 9a31 5f19 d034 3433 3a32 e781 7034
000000a0: a10f b92e c1ed 6733 e2d6 8e34 0000 0000
000000b0: 4ba3 7230 0000 0000 5bcf c032 639a 0136
000000c0: c1ed 6733 6dc9 9535 0f0a 9028 9a84 342d
000000d0: 775a 5e2e 0000 0000 602f 402a 0000 0000
000000e0: f1f4 952c b3bf c92f 9a84 342d 112b 692f
000000f0: 2188 572d e90e 0732 b15b 2633 0000 0000
00000100: 6b0b 0e2f 0000 0000 0b65 6031 4af1 9634
00000110: e90e 0732 1873 2e34 f9f7 042d c8a4 a631
00000120: 8243 cd32 0000 0000 9a56 b02e 0000 0000
00000130: 6c6f 0a31 2b3e 3a34 c8a4 a631 523f d733
00000140: 7024 552d 968f 0532 9083 2433 0000 0000
00000150: 8fe9 e92e 0000 0000 124d 5f31 e244 9534
00000160: 968f 0532 fd83 2c34 cd96 3a2e fdd7 e932
00000170: cc04 1034 0000 0000 73ea f62f 0000 0000
00000180: 3434 4232 54ac 8235 fdd7 e932 0606 1735
00000190: 2de6 8727 f950 2a2c 95c9 512d 0000 0000
000001a0: d715 2e29 0000 0000 c229 8e2b ee58 be2e
000001b0: f950 2a2c bbfd 5b2e 8e67 ba28 cd9c 692d
000001c0: 56e0 8f2e 0000 0000 08e6 842a 0000 0000
000001d0: a651 c12c 408b 0230 cd9c 692d cddf 962f
000001e0: 888a 992e 206d 4033 7c05 6d34 0000 0000
000001f0: 5963 5430 0000 0000 ec90 9f32 c20e d735
00000200: 206d 4033 bb8c 7835 7eeb 662d 6ab3 1032
00000210: 4a3c 3233 0000 0000 c38d 1c2f 0000 0000
00000220: 812c 7031 1fb8 a134 6ab3 1032 90e7 3a34
00000230: 105b 082a 77e3 aa2e 027e d22f 0000 0000
00000240: 138a 9a2b 0000 0000 ffc3 0e2e a2fc 3e31
00000250: 77e3 aa2e efba dc30 3991 fb2d 99a3 9d32
00000260: 152c c233 0000 0000 c293 ab2f 0000 0000
00000270: 1bbd 0232 dc2d 3035 99a3 9d32 cc9d cb34
00000280: fa5d 3e2b 1d94 ee2f 51ef 1231 0000 0000
00000290: 72c8 022d 0000 0000 0967 462f ab51 8532
000002a0: 1d94 ee2f d914 1a32 1c3f 332e 43a4 e032
000002b0: f459 0a34 0000 0000 b0ea fc2f 0000 0000
000002c0: f306 3a32 dd0f 7b35 43a4 e032 9e14 1135
000002d0: 13e8 c92d 5c0a 7d32 6fd7 9b33 0000 0000
000002e0: af24 852f 0000 0000 ca31 d231 7f66 0d35
000002f0: 5c0a 7d32 df6b a334 6006 f92a c20b 9c2f
00000300: b435 c030 0000 0000 7762 d62c 0000 0000
00000310: 3118 002f 0a66 2e32 c20b 9c2f fc8e c931
00000320: b00c 9a2a 3610 412f 67ce 6d30 0000 0000
00000330: 102c 502c 0000 0000 f551 a02e 0ec5 d731
00000340: 3610 412f 675f 7931 2651 f52a f1b8 992f
00000350: 1159 bd30 0000 0000 ed21 5c2c 0000 0000
00000360: 331e 012f 47cd 2b32 f1b8 992f b98e c631
00000370: b937 9c2b d7c7 4330 3527 7131 0000 0000
00000380: 71d1 532d 0000 0000 1696 a22f 7bce da32
00000390: d7c7 4330 e6e1 7c32 18e8 392b 0ffd e82f
000003a0: f47d 0f31 0000 0000 bf76 292d 0000 0000
000003b0: 82c2 3e2f fc31 8232 0ffd e82f 9f78 1632
000003c0: 123c f128 102a 972d 6932 ba2e 0000 0000
000003d0: 21cf 9e2a 0000 0000 4003 fb2c 60f1 2830
000003e0: 102a 972d d240 c32f 736e fb2a ce8d 9d2f
000003f0: 3d11 c230 0000 0000 e786 642c 0000 0000

exp_avg f4 [128]
3.1865864e-05 6.7681134e-07 4.002397e-06 2.4776451e-05 4.2858315e-05 6.302988e-07 -1.5126535e-05 -1.22021165e-05
-7.5407124e-06 -2.6710883e-05 6.030564e-07 -6.1658227e-07 -4.107358e-05 1.7833145e-05 -1.3883842e-06 -2.4916877e-05
-6.17183e-06 -3.039098e-05 -2.0675348e-05 7.811429e-06 2.7561873e-06 3.1041714e-06 5.9361128e-06 7.851914e-06
6.251306e-07 5.79631e-07 2.9919143e-05 1.2931594e-08 2.0416128e-06 -9.653929e-06 -6.7149585e-07 -2.5387412e-06
1.2488891e-05 -2.5666434e-06 2.4667029e-06 -1.36907975e-05 7.823229e-07 1.209972e-07 1.307888e-07 3.459186e-06
4.9808652e-05 7.795205e-05 5.2331563e-07 -2.3311134e-06 3.2898129e-06 6.125318e-06 1.34787315e-05 1.1297423e-05
5.699151e-07 1.6519421e-06 4.9199993e-05 2.6454318e-06 -1.7131815e-05 -1.3698592e-05 -1.295328e-05 7.5563446e-07
-2.0377385e-05 1.4443519e-06 6.986752e-07 -5.2668784e-05 -2.1851292e-08 -2.2358053e-07 -1.1360322e-06 -5.023468e-07
-4.03726e-05 8.01974e-07 -8.783312e-06 1.1852386e-05 1.1613222e-06 1.01510125e-07 6.6707815e-07 4.3852444e-07
2.7604646e-08 1.1019954e-06 -4.226073e-05 6.5827226e-07 -1.1676793e-06 3.202494e-06 -1.03782995e-05 -6.625927e-06
2.5720623e-05 -2.310946e-06 -9.645657e-07 -4.1783034e-07 4.1207335e-05 2.577651e-05 -3.0180004e-06 -3.496223e-07
-3.4720745e-07 7.054252e-06 -6.704445e-06 -3.318999e-06 -1.34469265e-05 2.2791162e-06 -2.076647e-06 1.081182e-05
-5.7622486e-07 7.741305e-06 -3.970694e-07 -5.840411e-07 -1.2242786e-05 1.3053457e-05 -4.3317465e-07 2.7249328e-07
1.3508892e-05 -1.8106778e-06 2.6860345e-05 6.706614e-08 1.03855406e-07 6.917131e-08 4.5005527e-05 1.949297e-05
-1.3364334e-05 -9.384572e-05 -6.1521914e-06 3.0453062e-05 1.0839474e-05 -2.6280347e-06 5.1126506e-08 8.135591e-06
-1.5026187e-05 4.1528907e-05 2.4815818e-06 -1.7152424e-06 -5.6549707e-06 9.655329e-06 -2.7106222e-05 -2.5113843e-07
00000000: b6a7 0538 1fae 3535 544c 8636 06d7 cf37
00000010: c4c2 3338 ce31 2935 f9c7 7db7 b1b7 4cb7
00000020: 3a06 fdb6 2f11 e0b7 b8e1 2135 3683 25b5
00000030: 6c46 2cb8 6398 9537 8558 bab5 9604 d1b7
00000040: 9e17 cfb6 22f0 feb7 f96f adb7 d50d 0337
00000050: f0f6 3836 4251 5036 d22e c736 b7bb 0337
00000060: a6ce 2735 f097 1b35 dffa fa37 c029 5e32
00000070: a402 0936 4ff7 21b7 d840 34b5 3e5f 2ab6
00000080: 6187 5137 993e 2cb6 a289 2536 87b1 65b7
00000090: d200 5235 75eb 0134 f46e 0c34 5d24 6836
000000a0: a2e9 5038 307a a338 fa79 0c35 3970 1cb6
000000b0: 8ec6 5c36 1588 cd36 b622 6237 108a 3d37
000000c0: 44fc 1835 4cb8 dd35 175c 4e38 2c88 3136
000000d0: 4bb6 8fb7 01d3 65b7 ea51 59b7 ced6 4a35
000000e0: 1af0 aab7 8edb c135 988c 3b35 ade8 5cb8
000000f0: 80b3 bbb2 5911 70b4 c579 98b5 02d9 06b5
00000100: c055 29b8 3c47 5735 0a5c 13b7 9cd9 4637
00000110: bade 9b35 c8fd d933 4311 3335 576e eb34
00000120: 421f ed32 46e8 9335 1d41 31b8 20b4 3035
00000130: 28b9 9cb5 6eea 5636 751e 2eb7 4854 deb6
00000140: 9ec2 d737 c015 1bb6 3a76 81b5 2a52 e0b4
00000150: 0ad6 2c38 a23a d837 da88 4ab6 b9b3 bbb4
00000160: d467 bab4 90b3 ec36 bef6 e0b6 f8bb 5eb6
00000170: 1c9a 61b7 ebf2 1836 865c 0bb6 6a64 3537
00000180: dfad 1ab5 a7e0 0137 ce2c d5b4 00c7 1cb5
00000190: 5e66 4db7 2c00 5b37 128f e8b4 314b 9234
000001a0: 40a4 6237 6a06 f3b5 2752 e137 0006 9033
000001b0: 1d07 df33 548b 9433 51c4 3c38 d684 a337
000001c0: 6137 60b7 0acf c4b8 ec6e ceb6 7475 ff37
000001d0: 30db 3537 4b5d 30b6 3096 5b33 197e 0837
000001e0: fb18 7cb7 532f 2e38 4089 2636 4837 e6b5
000001f0: d4bf bdb6 53fd 2137 2b62 e3b7 34d4 86b4

exp_avg_sq f4 [128]
8.563516e-09 7.936353e-12 5.827491e-11 4.691077e-09 2.337263e-08 4.441336e-12 3.4026235e-09 2.0991908e-09
3.3649012e-09 1.17828085e-08 1.0475851e-12 5.7476354e-12 1.9391763e-08 3.6455576e-09 3.3635338e-11 7.943041e-09
1.878341e-10 1.1319133e-08 6.37504e-09 1.2285573e-10 7.599987e-11 1.2102642e-10 3.0827815e-10 1.8343302e-10
7.438275e-12 1.2404297e-10 6.988782e-09 3.145119e-12 5.5002086e-11 3.1185618e-10 5.911937e-12 7.25413e-11
2.068987e-09 4.657756e-11 3.417255e-11 3.1576632e-09 2.6637332e-13 3.1541366e-14 1.148647e-13 1.7613021e-10
1.8036776e-08 5.1213586e-08 4.5435156e-13 6.8259676e-11 1.2304419e-10 1.1788216e-10 1.0146147e-09 1.0804824e-09
9.740754e-13 8.3335086e-13 2.1778956e-08 6.1051525e-11 2.8075924e-09 2.4820646e-09 3.443972e-09 1.5232343e-12
5.918187e-09 2.8731417e-11 9.023228e-12 4.78532e-08 3.3084567e-15 7.025936e-13 1.5791321e-11 3.2462821e-12
2.3450061e-08 2.264147e-12 2.6635836e-09 1.3943116e-09 6.743983e-12 1.2388584e-12 3.6558365e-13 1.3801979e-12
4.5542116e-15 1.7212943e-11 3.510645e-08 1.578395e-11 1.8263715e-11 6.155493e-11 6.8055894e-10 1.9600588e-09
2.359668e-09 7.5583234e-11 5.990868e-12 2.2702986e-13 1.2324189e-08 5.6312213e-09 6.279926e-11 7.457147e-13
1.3919184e-12 1.2946482e-09 1.2227434e-09 1.0773641e-09 7.2459114e-09 4.4313185e-11 7.301426e-11 8.140081e-10
8.898533e-12 1.3950509e-09 1.5248178e-12 1.54213e-11 2.355122e-09 7.3476303e-10 2.3509007e-12 1.5172839e-14
8.800442e-10 2.0539602e-10 4.7662008e-09 1.1250485e-11 2.96256e-13 1.2241172e-14 2.0351264e-08 3.4929173e-09
2.8244345e-09 1.0642898e-07 3.3353442e-10 8.181524e-09 1.2796332e-10 3.157873e-12 7.409964e-12 6.244755e-11
2.4172475e-09 1.3019517e-08 9.340128e-11 1.208553e-12 1.3705543e-09 2.793186e-10 9.3941726e-09 6.5659977e-12
00000000: be1e 1332 289e 0b2d dc25 802e 262f a131
00000010: f5c4 c832 0044 9c2c 96d3 6931 5b41 1031
00000020: f83b 6731 576d 4a32 3b6f 932b 193a ca2c
00000030: f092 a632 5485 7a31 06ee 132e dd75 0832
00000040: 9986 4e2f 1376 4232 720b db31 d014 072f
00000050: 2020 a72e e911 052f 4b7a a92f ceaf 492f
00000060: 03db 022d fe62 082f fa21 f031 6d51 5d2c
00000070: d8e6 712e db71 ab2f ff01 d02c 1f85 9f2e
00000080: 012e 0e31 acd9 4c2e df4a 162e 33fe 5831
00000090: 71f4 952a b80c 0e29 7f53 012a 3fa8 412f
000000a0: 4aef 9a32 eff5 5b33 f6c6 ff2a c81a 962e
000000b0: dc49 072f e19c 012f 9572 8b30 1880 9430
000000c0: c416 892b 4291 6a2b 6e14 bb32 f440 862e
000000d0: b0ef 4031 f190 2a31 ffaa 6c31 4d60 d62b
000000e0: ec58 cb31 66b9 fc2d 02bd 1e2d 2687 4d33
000000f0: 4166 6e27 34c3 452b e5e6 8a2d d26f 642c
00000100: 3b6f c932 3f53 1f2c 420a 3731 faa1 bf30
00000110: 6648 ed2c 945a ae2b 28ce cd2a df3e c22b
00000120: 3015 a427 1a68 972d f3c7 1633 4cd6 8a2d
00000130: 3ba6 a02d 585c 872e 1412 3b30 b8b1 0631
00000140: b827 2231 9435 a62e f1c8 d22c e79c 7f2a
00000150: 5bba 5332 bf7c c131 d718 8a2e 68e6 512b
00000160: 25e5 c32b 62ef b130 750d a830 6112 9430
00000170: b6f7 f831 36e4 422e 608f a02e bac0 5f30
00000180: 6e8b 1c2d fdbb bf30 5a99 d62b aea5 872d
00000190: bfd7 2131 5af8 4930 106e 252c 2faa 8828
000001a0: 9be7 7130 d7d5 612f f2c3 a331 aeeb 452d
000001b0: fdc6 a62a 7184 5c28 e7d0 ae32 0d08 7031
000001c0: fa17 4231 f38d e433 cc5c b72f b98e 0c32
000001d0: 79b2 0c2f 2f37 5e2c 835b 022d d852 892e
000001e0: ab1c 2631 71ac 5f32 3f64 cd2e b616 aa2b
000001f0: 185e bc30 998e 992f 0264 2132 4005 e72c

exp_avg f4 [128, 128]
-2.1144115e-06 -1.6176998e-08 5.5472634e-07 -3.692066e-06 -2.0684538e-06 3.1451073e-09 -2.3309096e-06 8.7400764e-08
7.379191e-07 -2.5147924e-06 3.1403883e-07 3.8378708e-08 -1.8255582e-06 -1.359801e-06 3.2746547e-07 1.0488285e-06
8.965387e-08 1.0164792e-06 -2.3533175e-11 -2.2119605e-06 1.2381153e-07 -1.4577136e-06 2.152228e-07 7.427755e-08
2.619278e-07 4.778191e-07 -1.5400396e-06 9.7943214e-08 1.654887e-07 -2.6830108e-07 -3.1487097e-08 1.3434646e-07
-3.3159615e-06 1.2267006e-07 1.1006287e-07 4.897649e-07 1.6014704e-07 2.6209338e-07 8.236236e-09 9.756184e-08
-1.8212104e-06 -1.9112235e-06 1.828831e-07 1.8961629e-08 1.7867654e-07 2.4786792e-07 -6.184906e-07 9.848341e-07
1.238044e-07 1.5417564e-07 -1.3025874e-06 8.7672845e-08 -4.58501e-07 -4.619809e-07 -6.1462765e-07 7.8928224e-08
-7.952524e-07 -2.0356538e-08 1.5438144e-07 -2.6869452e-06 1.4724051e-07 1.4388293e-08 1.297236e-07 9.140125e-08
-1.3818128e-06 8.010974e-08 -2.5170898e-06 -8.6714226e-07 1.0402164e-07 1.8352753e-07 1.2405408e-07 5.5990355e-08
2.2338391e-09 -1.7448633e-06 -2.5896497e-06 2.3693761e-07 2.6210856e-08 1.14509334e-07 -1.40151e-06 -2.0470961e-06
-7.565127e-07 2.4121707e-07 1.839505e-07 1.2793008e-07 7.367926e-07 -2.5538652e-06 -6.830311e-08 8.925619e-08
1.2076683e-08 1.0368706e-07 -2.7193482e-06 -2.3500479e-07 -2.42723e-06 2.4911799e-08 9.8057725e-08 9.385275e-09
1.5652759e-07 -2.113571e-06 7.594242e-09 -2.0084116e-08 -7.741987e-07 -3.4404366e-06 1.454772e-07 1.7450358e-07
-2.9471134e-06 -6.4345177e-06 -2.0269745e-06 1.7926695e-07 -7.013398e-09 2.35287e-09 -1.2643623e-06 -2.0909688e-06
-4.331171e-06 -2.185012e-06 9.2116636e-08 -2.861097e-06 -1.8067014e-06 1.6536066e-07 1.8592272e-07 -4.249655e-06
-2.421336e-06 -1.3977982e-06 4.165095e-09 1.4886771e-07 -1.5433577e-06 -1.7349234e-06 -1.1678853e-06 -3.3871714e-09
2.1649284e-06 -9.270885e-08 2.9565967e-08 6.412383e-06 7.239773e-06 -2.363237e-08 3.0251895e-06 2.3623845e-07
-3.718307e-07 6.502717e-06 -3.9086973e-07 -6.61533e-08 6.134939e-06 4.0577916e-06 -4.007255e-07 8.2530556e-07
-1.4017843e-07 9.3657786e-07 8.9734306e-07 3.268768e-06 -2.5150638e-07 4.8674374e-06 -3.0957509e-07 -3.227629e-07
-3.0859812e-07 -1.2085384e-07 5.1985235e-06 -1.4926668e-07 -2.4663376e-07 -8.609827e-08 -6.2191354e-08 -2.0273339e-07
4.4026087e-06 -1.8335632e-07 -3.3911795e-07 -5.6292244e-08 -3.8038428e-07 -3.536315e-07 -1.4054315e-08 -2.2998103e-07
3.7819646e-06 4.7954977e-06 -3.7080673e-07 -2.1196652e-07 -3.1503646e-07 -4.1201707e-07 5.928157e-07 7.8895823e-10
-3.4273012e-07 -3.7742507e-07 4.62749e-06 -3.0862992e-07 8.799567e-07 1.2562202e-06 2.0965233e-06 -2.2554033e-07
2.2824129e-06 -9.6897914e-08 -3.558795e-07 4.3285527e-06 -3.7393735e-07 -2.6421894e-08 -2.0454905e-07 -1.5173514e-07
2.2134102e-06 -1.8060645e-07 5.6209556e-06 4.4835942e-06 -3.3526823e-07 -3.820536e-07 -2.336923e-07 -7.875313e-08
-2.386921e-09 1.3201945e-06 4.27249e-06 -3.6957084e-07 -1.0769407e-07 -3.4548492e-07 4.5970514e-06 6.722994e-06
3.2570601e-06 -3.379664e-07 -3.1449895e-07 -2.268722e-07 2.548453e-06 4.8578827e-06 -2.2466031e-07 -2.8873507e-07
-3.3132046e-08 -1.9315789e-07 6.2470017e-06 1.214009e-06 4.7234053e-06 -2.0809968e-07 -1.4913228e-07 -2.3294821e-07
-3.7376435e-07 4.9408773e-06 -1.340525e-08 -8.634158e-08 5.160772e-06 7.800499e-06 -3.643263e-07 -3.8343904e-07
6.8785366e-06 1.2338089e-05 5.4425395e-06 -2.6310573e-07 -2.0116945e-08 -1.1603011e-08 4.780828e-06 5.1736506e-06
7.262027e-06 4.6830082e-06 -3.1411776e-07 5.5467663e-06 3.2930932e-06 -3.824851e-07 -3.0695796e-07 8.7064145e-06
4.557114e-06 1.1831913e-06 -6.907806e-08 -3.750149e-07 3.3964207e-06 6.2723047e-06 3.5924877e-06 -5.585103e-08
00000000: 50e5 0db6 98f5 8ab2 81e8 1435 36c5 77b6
00000010: c4cf 0ab6 5021 5831 b96c 1cb6 14b1 bb33
00000020: 6a15 4635 cec3 28b6 2b99 a834 d6d5 2433
00000030: b405 f5b5 6882 b6b5 83ce af34 79c5 8c35
00000040: bc87 c033 f66d 8835 0000 cfad 3171 14b6
00000050: 0ef1 0434 a8a6 c3b5 fe17 6734 8482 9f33
00000060: 159f 8c34 7b43 0035 5cb3 ceb5 da54 d233
00000070: 30b1 3134 050b 90b4 6e3c 07b3 e040 1034
00000080: c987 5eb6 4ab7 0334 b45b ec33 6378 0335
00000090: e2f4 2b34 d7b5 8c34 597f 0d32 3083 d133
000000a0: 5070 f4b5 9242 00b6 865e 4434 10e1 a232
000000b0: 3cda 3f34 b512 8534 5a06 26b5 a42e 8435
000000c0: 18ef 0434 7a8b 2534 90d4 aeb5 a846 bc33
000000d0: e627 f6b4 2c06 f8b4 e4fc 24b5 407f a933
000000e0: 5479 55b5 80dc aeb2 0cc4 2534 5e51 34b6
000000f0: 2a19 1e34 6230 7732 274a 0b34 5e48 c433
00000100: ba76 b9b5 cc08 ac33 46eb 28b6 90c5 68b5
00000110: 8062 df33 aa0f 4534 ba33 0534 0c7a 7033
00000120: 1d82 1931 0c31 eab5 d8c9 2db6 ea68 7e34
00000130: 4826 e132 2ce8 f533 841b bcb5 d860 09b6
00000140: 2813 4bb5 9f80 8134 ee83 4534 275d 0934
00000150: 00c8 4535 1263 2bb6 08ae 92b3 1cad bf33
00000160: d079 4f32 90aa de33 0c7e 36b6 a055 7cb4
00000170: 7ee3 22b6 a0fd d532 ce93 d233 e03c 2132
00000180: fa11 2834 e0d6 0db6 d477 0232 7085 acb2
00000190: 88d2 4fb5 40e2 66b6 7834 1c34 2e5f 3b34
000001a0: 06c7 45b6 16e8 d7b6 2807 08b6 867c 4034
000001b0: 80fa f0b1 20b0 2131 28b3 a9b5 9252 0cb6
000001c0: 7a54 91b6 38a2 12b6 a8d1 c533 4601 40b6
000001d0: ca7d f2b5 fe8d 3134 0ca2 4734 4298 8eb6
000001e0: 3c7e 22b6 fb9b bbb5 901c 8f31 72d8 1f34
000001f0: 5e25 cfb5 84db e8b5 3cc0 9cb5 c0c3 68b1
00000200: 3049 1136 3b17 c7b3 40f8 fd32 f329 d736
00000210: 2ded f236 2200 cbb2 5c04 4b36 bba8 7d34
00000220: 06a0 c7b4 ea31 da36 bad8 d1b4 2910 8eb3
00000230: bada cd36 2a28 8836 4b23 d7b4 918a 5d35
00000240: f483 16b4 2469 7b35 f2e0 7035 025d 5b36
00000250: c606 87b4 f852 a336 ad33 a6b4 3248 adb4
00000260: 67ad a5b4 0dc4 01b4 fa6e ae36 1d46 20b4
00000270: 1669 84b4 06e5 b8b3 0f8e 85b3 eeae 59b4
00000280: 1fba 9336 9ae0 44b4 0410 b6b4 fac5 71b3
00000290: 9e37 ccb4 beda bdb4 8873 71b2 b4f0 76b4
000002a0: a8cd 7d36 03e9 a036 4a13 c7b4 ea98 63b4
000002b0: 4822 a9b4 3233 ddb4 fc21 1f35 00de 5830
000002c0: 7800 b8b4 e8a0 cab4 d645 9b36 c6b1 a5b4
000002d0: 2a36 6c35 669b a835 ffb1 0c36 0e2c 72b4
000002e0: 8e2b 1936 3116 d0b3 b50f bfb4 fc3d 9136
000002f0: 8fc1 c8b4 5cf6 e2b2 04a2 5bb4 a3ec 22b4
00000300: 198a 1436 b9ec 41b4 a49b bc36 c871 9636
00000310: eafe b3b4 0c1d cdb4 daec 7ab4 fe1e a9b3
00000320: 2907 24b1 8a31 b135 695c 8f36 6e69 c6b4
00000330: 7145 e7b3 167b b9b4 5f40 9a36 1496 e136
00000340: de93 5a36 c071 b5b4 68d8 a8b4 289a 73b4
00000350: 1706 2b36 e500 a336 283a 71b4 7203 9bb4
00000360: 124d 0eb3 d666 4fb4 569d d136 08f1 a235
00000370: be7d 9e36 0172 5fb4 2b21 20b4 5120 7ab4
00000380: c8a9 c8b4 d0c9 a536 ea4c 66b2 c96a b9b3
00000390: b22a ad36 e3de 0237 a098 c3b4 76db cdb4
000003a0: 2ece e636 b0ff 4e37 0f9f b636 fa40 8db4
000003b0: a1cd acb2 9556 47b2 006b a036 5299 ad36
000003c0: 56ac f336 bc22 9d36 04a4 a8b4 5c1e ba36
000003d0: e9fe 5c36 5a58 cdb4 fbcb a4b4 c411 1237
000003e0: 50e9 9836 25ce 9e35 1158 94b3 a855 c9b4
000003f0: 10ee 6336 b076 d236 7816 7136 dbe0 6fb3
