results/ppo/My Behavior/My Behavior-20480.pt (torch, 449247 bytes, 30 tensors)

network_body._body_endoder.seq_layers.0.weight f4 [128, 10]
00000000: b20a 0abd d6c8 3cbd 6c62 9dbe 75b3 583f
00000010: 8889 0fbe eca8 1bbf 3934 14be 5b98 efbd
00000020: d7be da3d ede9 ccbd 0507 0a3f 3e7b 41be
00000030: b5ce dcbc ee77 293e 4dce c4be 4572 763e
00000040: cdcf b8be fdd7 1b3f ea41 003e ac81 383e
00000050: 4ded 61bd a608 48be beb2 973e 32d0 3d3e
00000060: 23e8 dbbe 5206 80be 1fe7 10be 73d1 99bd
00000070: 0fc9 f63e 2a37 ad3e c9a0 df3d e683 0b3e
00000080: d7e8 d2bd 2516 043e 1943 e2bc a4d0 bc3e
00000090: 346d f3bd fc15 18be e658 a0bc ad29 ffbe
000000a0: ccf6 603f d486 93be 72e8 863e ebcc 94bd
000000b0: 1bed a83d 22af 85bc 3d80 2ebe ab74 9e3e
000000c0: cab6 bf3e 65c0 8a3f 8452 bcbe cf31 143f
000000d0: 9b0d 2a3f 93bb c3be 00a6 563e 0859 393e
000000e0: 05b8 9f3d e742 853e 716f b23d 1fdd fc3e
000000f0: fa6d 76be 98d9 7dbe 5cf2 403e a000 abbe
00000100: b9ac 233e ed05 aabd 1330 173f 1e1a ddbd
00000110: 2eab 9b3e ab54 9ebb 2f4a 3d3e e573 5fbc
00000120: 2d5f bb3e 0829 0ebe bfed 17be 4a87 893e
00000130: 0a33 35be 3fab 193e 1843 f03e 4a7f a33e
00000140: 5a6a f03e 906d 67be e194 b73e 820f 69be
00000150: 4c78 343e e466 c83d d11e 183e e2f4 a13d
00000160: 250c a63e feed 1abe 1d49 873e ad26 67b9
00000170: 65a2 033f e4f1 38be 4d67 ebbd 2ec8 e9bd
00000180: 08ee 5a3d be34 a9be 5022 433e 74d4 d43e
00000190: d97e 4abe 5db1 bd3d 1a6e 353f cea9 acbe
000001a0: ee09 92bd 7679 b0bc 2b25 6f3e 090e 69be
000001b0: 9bfa a73e d248 12bd 85df c73d f88b de3c
000001c0: 4175 09bf 6b9c debd 76d1 833d d771 a4be
000001d0: e078 92be dba5 adbe ab86 0c3e 4229 a93e
000001e0: 852a 2a3e 4d5a ad3d e0cf 92bb 2edd a6bd
000001f0: 9d22 b3bd 7fa2 62bd 399f 9cbe 7b22 c83e
00000200: 935a 7a3e 28c1 a6bb 1ec4 b73e 1978 0f3e
00000210: c632 773d f0f4 2a3f 83fb bebe d025 84bd
00000220: 526d 0abe a6f8 48be 7abd 423f 454d c53e
00000230: fe39 413b 801e 33be e0b8 90be 6df8 aebe
00000240: cff3 0bbe a9d0 e9be 61f1 04be 76de 303e
00000250: 512e 453f c841 0bbf 5322 053f 5fa3 8b3e
00000260: b39d be3e 0a33 fabd dfa3 debd d952 ccbc
00000270: f770 263e f444 4ebe c6f9 89be 6709 76be
00000280: 25c8 08be 1b1b d0bd 5abe 77bc 1ddc ef3d
00000290: 190b 98bd 2414 c03e a572 fc3d 046f f9bd
000002a0: 82b5 8c3e e37d 253f f076 37be 499d bbbe
000002b0: 1022 003f 794f 37bd 24f7 973e a52d 3abe
000002c0: c9e6 55be 833d 7bbd 79ca 143f 5efb 49bc
000002d0: 7264 11bf babe ad3e 384e 06bd a698 91be
000002e0: 292d 7fbe 7531 60be d426 d23d e5c8 b3bd
000002f0: f26f 1fbe db3c 6b3e e1eb 66be b5a3 b8be
00000300: c9ff 6cbe d92e 97be 46dc 65be e8af 463e
00000310: c568 43bd 432c c93d 6a41 bcbc 8e25 bbbe
00000320: 33d7 9bbd f75d ed3e 1b08 2d3e 087e 97bd
00000330: e658 6d3d f9b1 43bf 8038 1fbe c948 99bd
00000340: bbda 39be 0b9b ad3e 2cc9 b73e 6878 e8be
00000350: 9770 24bd 6f17 1ebe 2b4e 2abf 1028 8bbd
00000360: 10ec 81bd abce cfbe 431e 23bd 4017 eb3e
00000370: 28da 993e 5d6c 0ebe 4548 0f3f 0d22 9cbe
00000380: 4de5 18be 609f c6bd e28e 633c 1d2d 13bf
00000390: 738f bb3d 4f64 2cbd 0485 51be 8bbb e93e
000003a0: b1df 323f 7a14 3abe 69a6 f33e 2ce8 e13d
000003b0: ee83 a83e 0732 573f 0430 18be 4fe5 1dbe
000003c0: af12 883e e368 bd3e 966e 68bd 8668 643c
000003d0: 1a5a 1d3f 7d69 fa3e e8eb 0fbe 49bc 90be
000003e0: dab4 6bbe 5670 f63d e464 ecbd 44c1 0f3c
000003f0: fed6 323e bf92 803e d21b c73d b61c b4be
-0.033701606 -0.04608997 -0.30739152 0.8464883 -0.14017308 -0.6080463 -0.14473046 -0.116989814
0.10680931 -0.10005555 0.5391696 -0.1889467 -0.026954034 0.16549656 -0.38438645 0.24067028
-0.3609604 0.60876447 0.12525144 0.18018216 -0.05515795 -0.19534549 0.29628557 0.18536451
-0.42950544 -0.25004822 -0.14150666 -0.075106524 0.4820027 0.3383115 0.10919339 0.13624534
-0.10298317 0.12899072 -0.027619885 0.3687793 -0.11886063 -0.14852136 -0.01957364 -0.49836484
0.8787658 -0.28813803 0.26349217 -0.072656475 0.08248349 -0.016318861 -0.17041107 0.30948386
0.37444144 1.0839964 -0.36781704 0.578885 0.6642701 -0.38229045 0.20961761 0.18100369
0.07798771 0.26027605 0.08712662 0.49387452 -0.2406539 -0.24790037 0.18842453 -0.33398914
0.15983857 -0.083019115 0.5905773 -0.10795997 0.30404037 -0.0048318706 0.1848533 -0.013638471
0.3659605 -0.1388284 -0.14836787 0.2686103 -0.17695251 0.15006731 0.46926188 0.3193305
0.4695614 -0.22600389 0.35855773 -0.22759822 0.17624015 0.0978525 0.14855506 0.07908036
0.3243114 -0.1512985 0.26422969 -0.00022044285 0.5141967 -0.18061024 -0.114943124 -0.11415134
0.05344966 -0.33048052 0.19056058 0.4156834 -0.19774951 0.09262345 0.70871127 -0.337233
-0.071308 -0.021542292 0.23354022 -0.2275926 0.32808384 -0.035713978 0.0975943 0.027166352
-0.5369454 -0.10869678 0.06436436 -0.32118103 -0.28607845 -0.339156 0.13723247 0.3303929
0.16617782 0.08464489 -0.004480347 -0.081476554 -0.08746836 -0.05533075 -0.30590227 0.39088807
0.24448614 -0.005088944 0.35891813 0.14010657 0.060351156 0.66779995 -0.37301263 -0.06452525
-0.13518265 -0.19626102 0.7607037 0.38535514 0.002948403 -0.17492104 -0.28266048 -0.3417391
-0.13667224 -0.45667008 -0.12982704 0.17272362 0.770238 -0.5439725 0.520055 0.2727308
0.3722969 -0.12216766 -0.108711 -0.024941849 0.1625403 -0.20143491 -0.26948375 -0.24027024
-0.13357599 -0.1016142 -0.015121067 0.11711905 -0.07423992 0.37515366 0.12326554 -0.12179378
0.2748223 0.6464521 -0.17916465 -0.36643437 0.50051975 -0.044753525 0.2968074 -0.18181475
-0.20888819 -0.06133796 0.5812145 -0.012327997 -0.5679389 0.33934575 -0.03278944 -0.28436774
-0.24919571 -0.21893866 0.10261312 -0.08778552 -0.15570047 0.22972433 -0.22550918 -0.360624
-0.2314445 -0.2952793 -0.22447309 0.1940304 -0.047707338 0.098228954 -0.02298041 -0.3655209
-0.07609405 0.46360752 0.16897623 -0.073970854 0.05794611 -0.7644344 -0.15548897 -0.07484586
-0.18149845 0.3390735 0.3589567 -0.45404363 -0.040146437 -0.15438627 -0.66525525 -0.06794751
-0.063438535 -0.40587363 -0.03982378 0.45916176 0.30049253 -0.13908525 0.5596965 -0.3049473
-0.14931221 -0.09698367 0.013889046 -0.5749071 0.0915822 -0.04208785 -0.20460898 0.45650896
0.69872576 -0.18171874 0.47587898 0.110306114 0.32913154 0.8406071 -0.14862067 -0.15419506
0.26576754 0.36994085 -0.056746088 0.013940936 0.6146561 0.48908606 -0.14054835 -0.2826865
-0.23018208 0.12033145 -0.11542681 0.008774105 0.17464826 0.25111958 0.09722103 -0.35178155

network_body._body_endoder.seq_layers.0.bias f4 [128]
00000000: 8433 beb9 4ae7 bdb9 fe04 a4b9 dabe cab9
00000010: c21d 01b9 20b3 ac39 22bd deb9 c814 03ba
00000020: 05af 22ba 813a ba39 314e d0b9 df9f ceb9
00000030: a3b4 b9b9 7ada 9139 30a6 d0b9 763c 7b39
00000040: 60bc 71ba 0dcc 6039 4a2c e63a 4e5e c4b9
00000050: 3425 57b9 4436 1d3a 216d a239 fa85 04ba
00000060: 5bab b139 e8b2 4a38 f663 57b8 1e7d 8439
00000070: b272 0cba c2d4 9939 d335 9d39 d883 d8b9
00000080: 53b7 59b8 89b1 a139 88c5 9bb9 535c 9939
00000090: 3e92 6439 6574 4939 a263 9b39 8a1f 9739
000000a0: 7811 86b9 f1b6 9e39 2496 d5b9 38a2 c5b9
000000b0: 8acb a038 3b41 0dbb 9afc c239 60e3 abb9
000000c0: d604 8f39 b09a 12ba 5c7c c2b9 98c8 a5ba
000000d0: c85e 2739 79bc 0b39 3de6 b0b9 229c 9b39
000000e0: 7819 d9b9 0dcf 3eba 453e a0ba 2162 27bb
000000f0: 4702 d2b9 be8e 1b39 68a4 0fba 2e1e ac39
00000100: 3954 6f39 7b91 d1b9 28ed a539 a976 63b9
00000110: 4a36 b439 e904 1dbb 411b 01ba dc17 c7b9
00000120: 28c7 c038 115c b9b9 91c1 8839 f709 d9b9
00000130: 0896 8aba c534 3dba 078a c3b9 5213 90ba
00000140: def9 afb9 68af a739 3563 b239 fa77 39b9
00000150: a474 f6b9 1720 c538 5716 d5b9 e70e a9b8
00000160: 4057 b939 b33c c3b9 7390 45b9 1177 c2b9
00000170: b8f8 9fb9 dd48 3c39 272a 66b9 5c8f bd39
00000180: 9289 c739 ca3d acb9 7ba2 4f39 eb0b c9b9
00000190: e23c 01ba 58ee 08ba 3f7d c239 3b6d 9eb9
000001a0: 2ad6 7539 e5ca d8b9 82ac 8f39 60f9 7e39
000001b0: 2159 f1b9 5a81 fbb9 1bd3 9239 49cb 3c39
000001c0: e82c ce39 ba56 02ba 339b b439 3531 5c39
000001d0: c34e df39 b170 6db9 5f68 f9b9 7f33 a339
000001e0: f2da e9b9 b133 bdb9 8f03 9139 0b5c 84bb
000001f0: 45f1 3639 de55 c139 0542 8239 01d7 9e39
-0.00036278006 -0.00036221213 -0.00031284237 -0.00038670638 -0.00012313484 0.00032939855 -0.00042484055 -0.000500035
-0.00062058895 0.00035520273 -0.0003973111 -0.00039410495 -0.00035420535 0.00027819333 -0.0003979667 0.00023959749
-0.00092214905 0.0002143832 0.0017560807 -0.00037454296 -0.00020517857 0.0005997161 0.00030980355 -0.00050553645
0.0003388774 4.8327172e-05 -5.135309e-05 0.00025270222 -0.0005357667 0.0002934095 0.00029985476 -0.00041296962
-5.1907566e-05 0.00030840587 -0.00029711076 0.0002925122 0.00021798254 0.00019212214 0.00029638136 0.00028824463
-0.00025571487 0.0003027241 -0.0004073839 -0.0003769563 7.6673066e-05 -0.0021553773 0.00037190766 -0.0003278507
0.00027278689 -0.0005592508 -0.00037095218 -0.0012648283 0.0001596167 0.00013326285 -0.00033740877 0.00029680232
-0.0004140844 -0.0007278778 -0.0012225589 -0.0025540667 -0.00040056018 0.00014835128 -0.00054795155 0.00032828882
0.00022824192 -0.00039971978 0.00031647948 -0.00021692611 0.00034372724 -0.0023959226 -0.00049250206 -0.00037974014
9.192369e-05 -0.00035354545 0.0002608416 -0.0004139689 -0.0010573277 -0.0007217641 -0.00037296137 -0.0010992086
-0.00033564767 0.0003198341 0.0003402472 -0.0001768767 -0.0004700768 9.399669e-05 -0.0004064317 -8.061324e-05
0.00035350956 -0.00037238523 -0.00018841196 -0.00037091275 -0.00030512153 0.00017956221 -0.00021950212 0.000361557
0.00038058736 -0.00032852433 0.00019801587 -0.00038346587 -0.0004930032 -0.0005223504 0.0003709588 -0.0003021749
0.00023444803 -0.000413499 0.00027403614 0.00024316227 -0.00046033508 -0.00047970825 0.00028004576 0.00018004807
0.0003932484 -0.000497203 0.00034447908 0.00020999166 0.00042592557 -0.00022644062 -0.00047570743 0.0003112815
-0.0004460435 -0.00036087402 0.00027659207 -0.0040392927 0.00017446752 0.00036875805 0.0002484472 0.000302963

network_body._body_endoder.seq_layers.2.weight f4 [128, 128]
00000000: 6a1e 8cbd b04b d8bd 6ddd c4bc 917c 913d
00000010: 8f81 c13d 926a 333d 587e 1bbd 47be a8bd
00000020: cebe d63d 0bfe 30be 73e5 2e3d 763d f63d
00000030: 7bbf 26bd 6165 6dbd 2b6c ccbd 3223 10bc
00000040: dff0 35be b8dc abbd 34f7 fabc 2d11 8a3c
00000050: e682 cd3c ca55 36be c48f 08be 0815 da3d
00000060: 68bd 8e3d c114 4dbd 682f 1dbd b3d5 aebd
00000070: 16e5 19bd 7da9 ca3d 54b5 d63d 50a8 71bc
00000080: 856d fb3c 75f6 793e b9fd 863d 36d6 3dbd
00000090: e8e1 243c 1bca d0bd c755 adbd 614d f6bd
000000a0: 434a c3bc 0cc9 ec3d 101a 183e df2e 2cbc
000000b0: 1d70 a3bb a423 f23d 1a7a 023d f935 9bbc
000000c0: f7c4 9e3c 7209 883d 5700 88bc 029a 59bd
000000d0: f221 203e ecfa 023e 2189 d53d 9b38 583d
000000e0: 2e7e 523e 5023 3abb 7807 d53d 431b cbbd
000000f0: 6888 f73d c357 86bd 1cf7 de3d 2de4 0f3d
00000100: 4774 05bd 0fd2 15be c88b 9bbc f39b 03ba
00000110: 4bb4 afbd 5c92 41be 305b bdbc de2e 09bd
00000120: 9464 c2bd 9346 193e ff2c 65bc 370c b43d
00000130: fb92 6abd dcb4 cb3c 22b7 e63d 2cf3 42bd
00000140: 481c 3c37 270c f5bd 7c30 f43d 7d15 5c3d
00000150: 2243 50bd 25f1 1cbc 608f cbbb 6bf8 1ebd
00000160: df91 a3bd 1a6f 923d 7c13 193e bcef c4bd
00000170: 1942 e2bd 617f 07bd d98a 63bd f69d cabd
00000180: f6d2 43bd de47 463d 478e b3bc a904 a23d
00000190: 95da ff3d 402a 0b3d 75ae c1b8 15cc 10be
000001a0: a925 233c 1542 a73b 8941 46bd 8440 a43d
000001b0: 7d7a a33d 3588 a7bd 28d9 5fbc 2de4 ebbd
000001c0: b1a2 023d 6d1f 3fbd 7ae3 86bd 8647 a5bc
000001d0: 8831 ef3b 9e88 36bd 114f 84bd 975f d9bd
000001e0: 94e3 3c3e 04e1 d13d 93f3 75bc e65d 0ebc
000001f0: 95b7 2fbe b13f 6d3b dbbc e13c 67d1 1e3d
00000200: 1fc4 02bd a174 533d 4494 12be abf8 943c
00000210: 8cda 233d 2098 723d 3195 413d a5ca 893d
00000220: d86a 43bc 8b8c 153e e5d3 9abc 9f9a 85bd
00000230: 03a9 c53b 9c6e d9bd 5d85 9cbd 1b94 c7bd
00000240: fa27 073e fb81 2fbd f3de 12be d0c1 7abd
00000250: 46da f3bd 8371 c8bd fd52 3f3d 2836 66bc
00000260: 0d7e 54be a2ce cfbd b569 263d 7b4b b6bd
00000270: b482 643e 28df af3d 6034 a8bb 7e7f bebd
00000280: 41e4 233c 648e 77bd 53be 1b3e 1737 bcbc
00000290: 5fa8 28bb 4191 afbb ca29 573d 83db 37bd
000002a0: 241a fc3d a29a 6c3d 38f4 5cbd d1c5 2abd
000002b0: c284 95bc bd01 3bbd ecd0 67bc 650b 8ebc
000002c0: b0a2 13bb c18c 853d 3d51 173e f6e3 233d
000002d0: 1578 af3d 49be ce3d 1f9b 4d3d b05b c9bc
000002e0: e7b8 2a3d 4829 f13d 2183 d63d 6817 b93d
000002f0: 7cca 70bd 255c 7fbc 20d9 553d 8336 c5bd
00000300: 01e6 1c3d de8c 243d cb3e 82be 55b2 fbbd
00000310: 754c 643d c25a 19be b750 593c 4eeb acbd
00000320: 433d 76bd e1e7 a03d 4ace 453d 240e 143e
00000330: ec89 b53d df64 ae3d f7be 44bd ed9b 85bc
00000340: 26c2 3ebc a526 383d 4213 ebbc c041 5abc
00000350: edb7 e83c c8bb 0dbe b2b0 6b3e 2f07 ef3d
00000360: cf17 23be 7d88 c73c 797b 6cbb 0fe5 0dbd
00000370: ae7f 8fbc 7b97 843c f999 763d 163d 7f3d
00000380: ad90 d8bd f61c bd3c ce80 363e c83c 23bc
00000390: 8d35 9c3d f5ae 0d3e 267b 863b 92ca 66bd
000003a0: 3eef fdbc 75c3 8c3c d09a bebb 469c a23d
000003b0: 8371 bc3c 5dc7 8cbd c6cc 03be 98b2 70bd
000003c0: e350 f1bd f7a4 3e3e 3c07 11bd 943d e6bd
000003d0: ac49 15be 7d15 b0bc 7974 693d f83a b6bd
000003e0: 44a3 113c a2a4 40bb f634 c13c 2ea9 21bd
000003f0: 00f1 b53d 30c3 9fbd 7bd2 953d 1891 2c3d
-0.068417385 -0.10561311 -0.024031365 0.07103837 0.094485395 0.043802805 -0.037962288 -0.082394175
0.10485612 -0.1728441 0.04269929 0.120234415 -0.040709954 -0.05795801 -0.09981569 -0.008797454
-0.17767666 -0.08391708 -0.030635454 0.016853893 0.025086831 -0.17806163 -0.13336092 0.10648543
0.0696972 -0.05006862 -0.03837529 -0.08536854 -0.03757199 0.098956086 0.10483804 -0.0147496015
0.030691871 0.24410422 0.065913625 -0.046346866 0.010063626 -0.101947986 -0.08463626 -0.120264776
-0.023839122 0.11561784 0.14853692 -0.010509222 -0.00498773 0.11823204 0.031854726 -0.018946635
0.01938103 0.066424266 -0.016601725 -0.05312539 0.15637949 0.12791032 0.10426546 0.05278836
0.20555946 -0.0028402396 0.10401815 -0.09917309 0.12086564 -0.06559708 0.10886976 0.035129715
-0.032581594 -0.14630912 -0.018987551 -0.00050204917 -0.0857931 -0.18903488 -0.02311477 -0.03349196
-0.0949184 0.14968328 -0.013987779 0.08791392 -0.057269078 0.024866514 0.112653986 -0.047595188
1.1212258e-05 -0.119652085 0.1192331 0.05373143 -0.050845273 -0.009578978 -0.00621216 -0.03881113
-0.07986807 0.07150097 0.14948839 -0.09616038 -0.110477634 -0.033080462 -0.055552337 -0.0989341
-0.04780861 0.04840838 -0.021918429 0.07911045 0.12492863 0.03397584 -9.235452e-05 -0.14140351
0.009957709 0.005104313 -0.048402343 0.08020118 0.07982347 -0.08180276 -0.013662614 -0.115181305
0.031893436 -0.04666083 -0.065863565 -0.020175707 0.0072996058 -0.044563882 -0.06460393 -0.106139354
0.18446189 0.102479964 -0.015011686 -0.008689379 -0.17159875 0.0036201293 0.027555874 0.03877392
-0.031925317 0.051624898 -0.14314371 0.01818498 0.040003344 0.05922711 0.04726142 0.067281045
-0.011927329 0.14604394 -0.018899867 -0.06523632 0.0060321107 -0.106168 -0.076426245 -0.09745046
0.13198844 -0.04284857 -0.14342861 -0.06121999 -0.11906867 -0.09787276 0.046710003 -0.014050998
-0.2075121 -0.10146834 0.040628154 -0.089011155 0.22315484 0.085874856 -0.0051331967 -0.09301661
0.01000315 -0.06043853 0.15209322 -0.022975488 -0.0025735123 -0.005357892 0.052530088 -0.044887077
0.123096734 0.057764657 -0.053943843 -0.04169256 -0.01825178 -0.045655955 -0.014148932 -0.017339418
-0.002252739 0.06520987 0.14777084 0.040012322 0.08567826 0.10094888 0.050196763 -0.024579853
0.041680243 0.11775452 0.104742296 0.090376675 -0.058786854 -0.015585934 0.05220902 -0.09629538
0.038305286 0.040173404 -0.25438532 -0.122898735 0.055736978 -0.14976028 0.013263873 -0.08443318
-0.060117017 0.078567274 0.048292436 0.14458519 0.08864197 0.085153334 -0.04803368 -0.016309703
-0.011642968 0.04495873 -0.028695706 -0.01332134 0.028408015 -0.13841164 0.23016623 0.11671292
-0.15927051 0.024357075 -0.0036084338 -0.034642275 -0.017516937 0.016185513 0.060205434 0.062314115
-0.1057447 0.023085099 0.17822573 -0.009963222 0.076274015 0.13836272 0.004104036 -0.05634553
-0.030997869 0.017183045 -0.005816795 0.07939963 0.023003345 -0.06873963 -0.12871084 -0.05876407
-0.11783006 0.18617617 -0.03540729 -0.11242214 -0.14578885 -0.021494621 0.056995843 -0.08897966
0.008889023 -0.0029395004 0.023584824 -0.039467983 0.08883858 -0.07800901 0.073155366 0.04213056

network_body._body_endoder.seq_layers.2.bias f4 [128]
00000000: 0595 cab9 1130 8839 f27a 7b39 2330 cab9
00000010: f64e 8a39 be7a a039 26c2 af39 a934 dcb9
00000020: d61b a339 431f 7538 37a6 94b8 b12f 9e39
00000030: a8c5 1fba 0c10 e2b9 4fe1 d0b9 ab44 cdb9
00000040: 1e08 e2b9 c82c e6b9 a639 8d39 ea12 deb9
00000050: ed58 09ba c60c deb9 20c3 9639 1bdf 83ba
00000060: 5c13 8d39 66e1 f2b9 4c05 ccb8 aba9 e0b9
00000070: c225 8739 75fd 14ba ddb5 34ba 305d 8539
00000080: 70c0 6d39 d18f 9339 f821 b836 b900 8339
00000090: c166 8239 bc1b 73b9 f596 9939 f2e3 9e39
000000a0: 8776 8a39 4c78 9339 eeef f9b9 4e40 05ba
000000b0: bda7 81b8 9ad8 e7b9 6aaf 01ba c7bc e2b9
000000c0: 23db 8d3a 69cb 7c39 c419 c5b9 8a8b c4b9
000000d0: 2f9e 43ba 9941 ddb9 f2fe a339 d2cf 9239
000000e0: 1b5e 9339 6b95 ebb9 f171 ecb9 efd1 0e39
000000f0: 41c0 13ba 14d1 a5b9 3083 0eba d8d1 9d39
00000100: afc1 d2b9 dc10 c0ba f8f0 e339 897e b439
00000110: b423 9b39 7e97 dfb9 f917 4139 3b63 8b39
00000120: 9141 9839 ff98 a139 b3db 5839 b6f8 ab39
00000130: 15ff c4b9 ee25 8c39 7dc7 a139 f884 f0b9
00000140: f1c3 4439 6037 3b39 67c9 7039 fe46 923a
00000150: e38a 7e39 e97d c9b9 3770 a239 fa1f 12b9
00000160: 0062 a1b9 6874 af39 7e9d 3bba 0eff 5439
00000170: 866e ab39 aae0 e6b9 6b59 d0b9 2394 0cba
00000180: 459a eab9 c103 60ba bcf0 ae39 75ea 033a
00000190: 8fef cf39 5036 d8b9 1306 8c39 c1e3 5ebb
000001a0: 9164 74ba 7ebb 8e39 a87e 36b9 1663 d8b9
000001b0: b73c b9b9 19db 7d39 3cbc 8f39 0bbc ad39
000001c0: 6fe0 9d39 b852 bfb9 eaad d8b9 f19f 8039
000001d0: 4e82 f739 f1a1 b2b9 8ab8 98b9 19ec c8b9
000001e0: ae0d 7939 2f3e e4b9 f061 cdb9 9e02 9239
000001f0: 53f4 c8b9 2645 4c3a 92b3 1a39 5aa6 8a39
-0.0003863947 0.00025975754 0.00023983026 -0.00038564307 0.00026380242 0.00030609028 0.00033523253 -0.00042000905
0.00031110522 5.8441667e-05 -7.08815e-05 0.0003017164 -0.0006094822 -0.00043118035 -0.0003984072 -0.0003915181
-0.00043112127 -0.00043902383 0.00026936567 -0.00042357232 -0.0005239386 -0.00042352657 0.0002875561 -0.0010060997
0.0002690804 -0.00046325772 -9.728465e-05 -0.00042851022 0.00025777338 -0.000568352 -0.0006893555 0.00025437167
0.0002267377 0.00028145176 5.487582e-06 0.00024986806 0.0002487209 -0.00023184618 0.00029294906 0.0003030594
0.0002640972 0.00028127653 -0.00047671743 -0.00050831295 -6.182443e-05 -0.00044221134 -0.0004947098 -0.0004324673
0.0010822754 0.00024108369 -0.00037593965 -0.00037487998 -0.0007462231 -0.0004220128 0.00031279732 0.00028002128
0.0002810814 -0.00044934018 -0.0004509832 0.00013620382 -0.0005636253 -0.00031627028 -0.00054364186 0.0003010172
-0.00040198627 -0.0014653462 0.0004347635 0.0003442655 0.00029590505 -0.00042646745 0.00018414845 0.00026586078
0.0002904055 0.00030822304 0.0002068121 0.00032800966 -0.00037574084 0.0002673114 0.00030856943 -0.00045875437
0.0001876501 0.00017854339 0.00022963212 0.0011160073 0.00024275067 -0.00038431518 0.00030982654 -0.00013935557
-0.0003078133 0.0003346533 -0.0007156952 0.00020312911 0.00032698008 -0.00044036406 -0.00039739473 -0.000536265
-0.00044746898 -0.0008545481 0.00033367227 0.000503219 0.00039660602 -0.00041239196 0.00026707407 -0.0034010264
-0.0009322847 0.00027224043 -0.00017404056 -0.00041272555 -0.00035331186 0.0002420958 0.0002741533 0.00033137234
0.0003011259 -0.0003649199 -0.00041328307 0.00024533228 0.00047208596 -0.0003407146 -0.00029129192 -0.0003832288
0.00023751587 -0.0004353388 -0.00039173616 0.0002784924 -0.00038329008 0.00077922863 0.0001475348 0.00026445353

action_model._continuous_distribution.mu.weight f4 [1, 128]
00000000: 06f7 e0bc 8399 413c 0128 163c 6a23 f33b
00000010: 36c7 453c 95c0 693c 22d5 2c3d 7c4c bd3c
00000020: 60f8 9d3c 5293 d73c 51db ca3a b053 0a3c
00000030: 4e1e e6ba d144 c0bb 2391 1dbc 9a40 35bc
00000040: 93bb f53b 7f12 40bc 54b9 633c 8d45 c93b
00000050: 21de e03a e0ea a6bc 61e1 ea3c ec10 aabc
00000060: 5c00 f53c 6d2e a3bb 312a 8cbb 5aa1 c1bb
00000070: 7e2f 9ebc 6c06 1abb 9e52 61bc 865e 6c3c
00000080: e17b c03b 828c 073c 85ef 00bb ee98 ac3c
00000090: 461b 6e3c 7d16 9d3c e4e9 343c fab6 f7bc
000000a0: 6cf9 cb3b bfb8 233c 4f57 6fbb 19cc bdbb
000000b0: 3e11 883b 6a73 87bc 8449 8abb f5cd 14bd
000000c0: 0adb da3b 33a6 2fbc 93da 8bbc 49ab d3bc
000000d0: 2e1b 833a 695b 71bc adee 603c 7be8 233d
000000e0: e89a 053d 1288 24bc 69ce 2dbc 0cc6 aa3c
000000f0: 976f 18bb 213e 64bb 790d 2e3b 2b27 2c3c
00000100: 5d6c 06bd 9217 043c 5472 57bc 4a83 6bbb
00000110: 01a5 263c c955 25bc a6ae eb3b 5698 563c
00000120: 38a5 88bc d742 72ba cdca e23b 9976 a3bc
00000130: 9447 88bc 76e6 8bbc 3f80 95bb 648e 85bc
00000140: d893 cd3b 552d de3b c967 d13b e1f6 f039
00000150: a555 503c c059 84bc cf7e a03c ed7c 933c
00000160: a4e0 963a 2563 c9bc 4d24 9c3a 636e a93c
00000170: 7565 f63c e4ef 0ebc 4b05 3bbc 4b68 79bc
00000180: bb5e 22bc 769b 2fba df96 023d 3cb4 42bc
00000190: 7056 d6bc d759 753c 4a06 363c 8e2f f5b8
000001a0: 032c 123a 02f7 e23b 52c6 73ba 8000 70bc
000001b0: e1ef 2a3c 5f56 d53c 497a 873c 2b12 213d
000001c0: 2bd9 2d3c d868 f0bc b6f8 7d3a ce96 743c
000001d0: 7281 18bc 9b8f 193c 5bd3 f83c 0079 4cbc
000001e0: e3f4 473c 5338 05bb 649b af3c c037 a8bc
000001f0: be47 5dbc be21 bdbc 5329 f23b b938 cc3c
-0.02746154 0.011816385 0.009164811 0.007419993 0.012071421 0.014267107 0.042195447 0.02310776
0.019283473 0.026315365 0.0015476738 0.008442804 -0.0017556639 -0.0058675786 -0.009617123 -0.0110627655
0.007499167 -0.01172316 0.013899166 0.0061423243 0.0017156043 -0.020375669 0.028671922 -0.020760022
0.029907398 -0.0049798996 -0.0042774905 -0.005909127 -0.019309755 -0.0023502363 -0.013752608 0.014426833
0.0058741425 0.008273246 -0.0019674015 0.021069016 0.01453287 0.019175762 0.011042092 -0.030238617
0.0062248018 0.009992777 -0.0036520546 -0.0057921526 0.004152446 -0.016534526 -0.0042201895 -0.03632923
0.0066789435 -0.010720777 -0.017071998 -0.025838511 0.0010002607 -0.014731267 0.01372878 0.040016633
0.032618433 -0.010042207 -0.010608294 0.02084639 -0.0023259872 -0.003482707 0.0026558323 0.010507385
-0.032818187 0.00806226 -0.013149817 -0.0035936409 0.010171176 -0.010091254 0.0071924506 0.013097843
-0.016680345 -0.00092415273 0.0069211484 -0.019954013 -0.016635694 -0.017077666 -0.0045624073 -0.016303249
0.006273728 0.0067803063 0.006390546 0.00045960306 0.012715732 -0.016156077 0.019591717 0.018003905
0.001151104 -0.024583409 0.0011912674 0.02068252 0.030077675 -0.008724187 -0.011414836 -0.015222619
-0.009910281 -0.00066988857 0.031882163 -0.011883792 -0.026164263 0.014975033 0.011109898 -0.00011691368
0.0005576016 0.0069264183 -0.00092992664 -0.014648557 0.010433168 0.026042162 0.016537802 0.039323967
0.010610859 -0.029346868 0.0009688245 0.014928533 -0.009308206 0.009372617 0.03037422 -0.0124800205
0.012204382 -0.0020327761 0.0214364 -0.020534396 -0.013505874 -0.023087379 0.00739018 0.024929391

exp_avg f4 [128, 10]
00000000: 5e7f 7db6 0eab c838 d6b5 5e39 0000 0000
00000010: 0000 0000 0000 0000 c204 8438 8e01 16ba
00000020: 0eab c838 e00f e4b9 1215 14b2 7b71 6a34
00000030: fe18 0235 0000 0000 0000 0000 0000 0000
00000040: 343d 1a34 0e41 afb5 7b71 6a34 5a39 85b5
00000050: ce97 d0b5 2c1f 2538 6342 b738 0000 0000
00000060: 0000 0000 0000 0000 fb43 d937 35de 76b9
00000070: 2c1f 2538 c6a9 3bb9 b4e3 3bb6 a2bb 9438
00000080: fa11 2539 0000 0000 0000 0000 0000 0000
00000090: 86b3 4338 925d deb9 a2bb 9438 7209 a9b9
000000a0: a471 13b0 c06e 6932 6889 0133 0000 0000
000000b0: 0000 0000 0000 0000 fe92 1932 9e7f aeb3
000000c0: c06e 6932 4aa6 84b3 d03d ac34 8f58 08b7
000000d0: 9c52 97b7 0000 0000 0000 0000 0000 0000
000000e0: 0c67 b3b6 a1d8 4b38 8f58 08b7 7cf5 1a38
000000f0: 3ec6 2ab6 462f 8738 a408 1639 0000 0000
00000100: 0000 0000 0000 0000 e2df 3138 241c cab9
00000110: 462f 8738 a0a3 99b9 3cfb 54b4 8498 a836
00000120: 681d 3b37 0000 0000 0000 0000 0000 0000
00000130: 1ed6 5d36 cd0f fcb7 8498 a836 7c9c bfb7
00000140: 8dad 00b5 f4b8 4b37 9d19 e237 0000 0000
00000150: 0000 0000 0000 0000 2907 0637 134a 98b8
00000160: f4b8 4b37 8688 67b8 2e5a 8536 711f d3b8
00000170: 3050 6ab9 0000 0000 0000 0000 0000 0000
00000180: 81e5 8ab8 42d2 1d3a 711f d3b8 a0f1 ef39
00000190: d263 9eb6 29c3 fa38 4727 8b39 0000 0000
000001a0: 0000 0000 0000 0000 aef9 a438 fb73 3bba
000001b0: 29c3 fa38 547f 0eba 26ad 5cb4 e0af ae36
000001c0: 11e0 4137 0000 0000 0000 0000 0000 0000
000001d0: eed9 6536 9795 02b8 e0af ae36 c088 c6b7
000001e0: 566e b1b4 4074 0c37 c4e1 9b37 0000 0000
000001f0: 0000 0000 0000 0000 d5ce b836 f2fc 51b8
00000200: 4074 0c37 bca0 1fb8 067b ec35 9e32 3bb8
00000210: 96c2 cfb8 0000 0000 0000 0000 0000 0000
00000220: 1250 f6b7 b7ef 8b39 9e32 3bb8 acc0 5439
00000230: 4631 0eb6 521e 6138 a5d8 f938 0000 0000
00000240: 0000 0000 0000 0000 b11a 1438 9048 a8b9
00000250: 521e 6138 a6d9 7fb9 afcb 0c36 2ae8 5eb8
00000260: 5064 f7b8 0000 0000 0000 0000 0000 0000
00000270: 3fa6 12b8 5aa1 a639 2ae8 5eb8 2f56 7d39
00000280: b7bd c3b3 c2f2 1a36 ddf7 ab36 0000 0000
00000290: 0000 0000 0000 0000 1ae1 cb35 6ea8 67b7
000002a0: c2f2 1a36 cc19 30b7 342a 0236 9713 4eb8
000002b0: 73b6 e4b8 0000 0000 0000 0000 0000 0000
000002c0: a493 07b8 8b0c 9a39 9713 4eb8 7335 6a39
000002d0: 929c bb32 5883 14b5 81d3 a4b5 0000 0000
000002e0: 0000 0000 0000 0000 7469 c3b4 6909 5e36
000002f0: 5883 14b5 7cc9 2836 1a1c 09b6 5e12 5938
00000300: 5aea f038 0000 0000 0000 0000 0000 0000
00000310: 70cf 0e38 a644 a2b9 5e12 5938 6eb4 76b9
00000320: 74ca 9db3 53d0 f935 88a0 8a36 0000 0000
00000330: 0000 0000 0000 0000 e659 a435 70be 3ab7
00000340: 53d0 f935 54f5 0db7 6518 ab34 4f70 07b7
00000350: cf50 96b7 0000 0000 0000 0000 0000 0000
00000360: 7535 b2b6 637d 4a38 4f70 07b7 84ed 1938
00000370: c8ad 6136 9aa5 b2b8 2445 46b9 0000 0000
00000380: 0000 0000 0000 0000 d80f 6bb8 638b 053a
00000390: 9aa5 b2b8 da08 cb39 08ec aeb3 c877 0a36
000003a0: 78ad 9936 0000 0000 0000 0000 0000 0000
000003b0: ce31 b635 c804 4fb7 c877 0a36 e05e 1db7
000003c0: d7e9 a636 de20 04b9 4aa4 92b9 0000 0000
000003d0: 0000 0000 0000 0000 6cda adb8 6a8a 453a
000003e0: de20 04b9 6c2a 163a 2950 d8b3 aa3b 2b36
000003f0: bf0a be36 0000 0000 0000 0000 0000 0000
-3.7774075e-06 9.5686046e-05 0.00021239309 0.0 0.0 0.0 6.295137e-05 -0.00057222776
9.5686046e-05 -0.00043499377 -8.619525e-09 2.1834232e-07 4.846514e-07 0.0 0.0 0.0
1.4364633e-07 -1.305745e-06 2.1834232e-07 -9.925964e-07 -1.5541389e-06 3.9368097e-05 8.7384855e-05 0.0
0.0 0.0 2.5900072e-05 -0.00023543167 3.9368097e-05 -0.00017896955 -2.7997712e-06 7.092139e-05
0.00015742323 0.0 0.0 0.0 4.6658817e-05 -0.00042412855 7.092139e-05 -0.0003224123
-5.363978e-10 1.3587567e-08 3.0160123e-08 0.0 0.0 0.0 8.939194e-09 -8.12572e-08
1.3587567e-08 -6.176977e-08 3.208247e-07 -8.126851e-06 -1.803907e-05 0.0 0.0 0.0
-5.346612e-06 4.8600723e-05 -8.126851e-06 3.6945086e-05 -2.5447366e-06 6.446107e-05 0.00014308334 0.0
0.0 0.0 4.2408596e-05 -0.0003854941 6.446107e-05 -0.00029304344 -1.9835437e-07 5.0245453e-06
1.1152915e-05 0.0 0.0 0.0 3.3056199e-06 -3.0048099e-05 5.0245453e-06 -2.2841843e-05
-4.7936265e-07 1.2142806e-05 2.6953227e-05 0.0 0.0 0.0 7.9886895e-06 -7.261722e-05
1.2142806e-05 -5.520184e-05 3.974207e-06 -0.000100671205 -0.00022345851 0.0 0.0 0.0
-6.623101e-05 0.00060204056 -0.000100671205 0.00045765657 -4.7203876e-06 0.000119572804 0.0002654141 0.0
0.0 0.0 7.866636e-05 -0.00071507663 0.000119572804 -0.00054358435 -2.0552088e-07 5.2060786e-06
1.1555866e-05 0.0 0.0 0.0 3.425051e-06 -3.113373e-05 5.2060786e-06 -2.3667119e-05
-3.30491e-07 8.371717e-06 1.858257e-05 0.0 0.0 0.0 5.5077057e-06 -5.0065057e-05
8.371717e-06 -3.805825e-05 1.7619175e-06 -4.4631415e-05 -9.9067736e-05 0.0 0.0 0.0
-2.936277e-05 0.00026690747 -4.4631415e-05 0.00020289671 -2.118833e-06 5.367242e-05 0.000119135984 0.0
0.0 0.0 3.5310808e-05 -0.0003209752 5.367242e-05 -0.00024399775 2.0980185e-06 -5.3145144e-05
-0.000117965625 0.0 0.0 0.0 -3.496394e-05 0.00031782204 -5.3145144e-05 0.00024160066
-9.114904e-08 2.3089092e-06 5.125052e-06 0.0 0.0 0.0 1.5190192e-06 -1.38078885e-05
2.3089092e-06 -1.0496424e-05 1.9396075e-06 -4.913247e-05 -0.00010905871 0.0 0.0 0.0
-3.232401e-05 0.00029382514 -4.913247e-05 0.0002233589 2.1840865e-08 -5.5325427e-07 -1.2280508e-06 0.0
0.0 0.0 -3.6398308e-07 3.3086055e-06 -5.5325427e-07 2.515123e-06 -2.0430948e-06 5.1753937e-05
0.00011487743 0.0 0.0 0.0 3.404863e-05 -0.00030950195 5.1753937e-05 -0.00023527603
-7.347708e-08 1.8612576e-06 4.131409e-06 0.0 0.0 0.0 1.2245116e-06 -1.1130804e-05
1.8612576e-06 -8.461375e-06 3.186898e-07 -8.072776e-06 -1.7919023e-05 0.0 0.0 0.0
-5.3110366e-06 4.827733e-05 -8.072776e-06 3.6699246e-05 3.3628767e-06 -8.518547e-05 -0.00018908508 0.0
0.0 0.0 -5.604312e-05 0.00050943176 -8.518547e-05 0.00038725772 -8.14544e-08 2.0633324e-06
4.5799497e-06 0.0 0.0 0.0 1.3574552e-06 -1.2339275e-05 2.0633324e-06 -9.380019e-06
4.974408e-06 -0.00012600745 -0.00027969695 0.0 0.0 0.0 -8.289967e-05 0.0007535579
-0.00012600745 0.0005728367 -1.0072865e-07 2.5515715e-06 5.6636923e-06 0.0 0.0 0.0

exp_avg_sq f4 [128, 10]
00000000: 2af2 882d d8a0 2b32 4a67 5333 0000 0000
00000010: 0000 0000 0000 0000 f991 9431 4bd0 bf34
00000020: d8a0 2b32 8caf 5d34 3dae b624 0df2 6429
00000030: 8400 8d2a 0000 0000 0000 0000 0000 0000
00000040: d62f c628 3ddf ff2b 0df2 6429 31dc 932b
00000050: 7633 3e2c d65e ee30 80ce 1232 0000 0000
00000060: 0000 0000 0000 0000 7a58 4e30 e533 8533
00000070: d65e ee30 6ff2 1933 848b 132d 58e9 b831
00000080: dec3 e332 0000 0000 0000 0000 0000 0000
00000090: a011 2031 bea8 4e34 58e9 b831 e0d7 ee33
000000a0: 3903 d120 1bf9 8225 8c53 a126 0000 0000
000000b0: 0000 0000 0000 0000 04c1 e224 8160 1228
000000c0: 1bf9 8225 462c a927 690f 002a fe7d a02e
000000d0: c2af c52f 0000 0000 0000 0000 0000 0000
000000e0: 20ee 0a2e 285e 3331 fe7d a02e 384d cf30
000000f0: be5d f52c dac0 9931 ca62 bd32 0000 0000
00000100: 0000 0000 0000 0000 bf18 0531 1cd6 2b34
00000110: dac0 9931 e898 c633 631c 3429 92b9 e12d
00000120: bf04 0b2f 0000 0000 0000 0000 0000 0000
00000130: 2366 432d c245 7c30 92b9 e12d b9c7 1130
00000140: 6741 8b2a cd85 2e2f f7f7 5630 0000 0000
00000150: 0000 0000 0000 0000 6413 972e 630c c331
00000160: cd85 2e2f a26c 6131 9cf3 972d 286f 3e32
00000170: 5391 6a33 0000 0000 0000 0000 0000 0000
00000180: 79d9 a431 d3d4 d434 286f 3e32 04fa 7534
00000190: 29a8 d22d e200 8432 7398 a233 0000 0000
000001a0: 0000 0000 0000 0000 b189 e431 4b87 1335
000001b0: e200 8432 fd80 aa34 d941 4c29 89fc ff2d
000001c0: e9a7 1d2f 0000 0000 0000 0000 0000 0000
000001d0: 5098 5d2d f00b 8f30 89fc ff2d f152 2530
000001e0: f1b2 062a edcf a82e 4def cf2f 0000 0000
000001f0: 0000 0000 0000 0000 e921 122e 98aa 3c31
00000200: edcf a82e 620c da30 69b8 762c 139a 1a31
00000210: 5f6e 3e32 0000 0000 0000 0000 0000 0000
00000220: ccd4 8530 e2c8 ac33 139a 1a31 7db1 4733
00000230: e35e a62c 4981 5031 ca69 8032 0000 0000
00000240: 0000 0000 0000 0000 197e b430 0507 e933
00000250: 4981 5031 b5a8 8633 8dff b62c f557 6531
00000260: 4a3f 8d32 0000 0000 0000 0000 0000 0000
00000270: 1088 c630 9228 0034 f557 6531 021e 9433
00000280: f536 0028 8baf a02c cbec c52d 0000 0000
00000290: 0000 0000 0000 0000 0819 0b2c 8695 332f
000002a0: 8baf a02c 388d cf2e 9e36 a12c a20a 4a31
000002b0: 74dd 7832 0000 0000 0000 0000 0000 0000
000002c0: bde5 ae30 c8cd e133 a20a 4a31 167c 8233
000002d0: e2ab 0726 f107 aa2a a16f d12b 0000 0000
000002e0: 0000 0000 0000 0000 0030 132a 4807 3e2d
000002f0: f107 aa2a 5d9f db2c a7f8 9e2c 4b3b 4731
00000300: 6967 7532 0000 0000 0000 0000 0000 0000
00000310: 0e77 ac30 daa9 de33 4b3b 4731 84ab 8033
00000320: a6a6 f127 d76c 972c b184 ba2d 0000 0000
00000330: 0000 0000 0000 0000 d614 032c 073c 292f
00000340: d76c 972c 1797 c32e 0731 d329 a356 842e
00000350: 1402 a32f 0000 0000 0000 0000 0000 0000
00000360: 271e e52d 24e7 1331 a356 842e c0ef aa30
00000370: 34a5 5c2d 3043 0a32 184e 2a33 0000 0000
00000380: 0000 0000 0000 0000 c25f 6f31 0b86 9a34
00000390: 3043 0a32 9f96 3234 92df 0028 df82 a12c
000003a0: 17f1 c62d 0000 0000 0000 0000 0000 0000
000003b0: f4cf 0b2c b981 342f df82 a12c 309e d02e
000003c0: 5af6 f02d 5ffe 9632 9cfc b933 0000 0000
000003d0: 0000 0000 0000 0000 33b5 0232 8bc0 2835
000003e0: 5ffe 9632 6308 c334 5c14 8a28 860c 2d2d
000003f0: 4227 552e 0000 0000 0000 0000 0000 0000
1.5568952e-11 9.990082e-09 4.9221207e-08 0.0 0.0 0.0 4.323962e-09 3.5728075e-07
9.990082e-09 2.0646092e-07 7.922509e-17 5.0836116e-14 2.504699e-13 0.0 0.0 0.0
2.2003161e-14 1.8180801e-12 5.0836116e-14 1.0506094e-12 2.702919e-12 1.7343733e-09 8.545271e-09 0.0
0.0 0.0 7.5068096e-10 6.202735e-08 1.7343733e-09 3.584358e-08 8.386961e-12 5.381633e-09
2.6515348e-08 0.0 0.0 0.0 2.3293083e-09 1.9246633e-07 5.381633e-09 1.1122006e-07
3.540811e-19 2.2720206e-16 1.1194265e-15 0.0 0.0 0.0 9.833886e-17 8.125554e-15
2.2720206e-16 4.6954924e-15 1.137403e-13 7.298338e-11 3.5958975e-10 0.0 0.0 0.0
3.1589065e-11 2.610145e-09 7.298338e-11 1.5083179e-09 6.9737263e-12 4.4748107e-09 2.204742e-08 0.0
0.0 0.0 1.9368114e-09 1.6003509e-07 4.4748107e-09 9.247907e-08 3.999265e-14 2.5661948e-11
1.2643663e-10 0.0 0.0 0.0 1.1107146e-11 9.17762e-10 2.5661948e-11 5.3034516e-10
2.4736742e-13 1.5872743e-10 7.8205126e-10 0.0 0.0 0.0 6.8701295e-11 5.676655e-09
1.5872743e-10 3.280356e-09 1.7274897e-11 1.108473e-08 5.4614542e-08 0.0 0.0 0.0
4.797752e-09 3.9642927e-07 1.108473e-08 2.2908358e-07 2.3948914e-11 1.5367224e-08 7.571443e-08 0.0
0.0 0.0 6.651327e-09 5.4958645e-07 1.5367224e-08 3.175882e-07 4.5354213e-14 2.9102292e-11
1.433872e-10 0.0 0.0 0.0 1.2596216e-11 1.0408012e-09 2.9102292e-11 6.0144517e-10
1.1963674e-13 7.6766905e-11 3.7823114e-10 0.0 0.0 0.0 3.3226675e-11 2.7454572e-09
7.6766905e-11 1.5865107e-09 3.506107e-12 2.249753e-09 1.1084551e-08 0.0 0.0 0.0
9.737504e-10 8.0459145e-08 2.249753e-09 4.6494723e-08 4.7285383e-12 3.0341474e-09 1.4949268e-08 0.0
0.0 0.0 1.3132563e-09 1.0851185e-07 3.0341474e-09 6.270549e-08 5.201123e-12 3.3373884e-09
1.6443341e-08 0.0 0.0 0.0 1.4445067e-09 1.1935688e-07 3.3373884e-09 6.8972454e-08
7.117344e-15 4.5669627e-12 2.2501464e-11 0.0 0.0 0.0 1.9766983e-12 1.6333077e-10
4.5669627e-12 9.4383557e-11 4.581959e-12 2.9400913e-09 1.44858525e-08 0.0 0.0 0.0
1.2725462e-09 1.05148104e-07 2.9400913e-09 6.076168e-08 4.707048e-16 3.0203577e-13 1.4881326e-12 0.0
0.0 0.0 1.3072876e-13 1.0801866e-11 3.0203577e-13 6.2420472e-12 4.518236e-12 2.8992015e-09
1.428439e-08 0.0 0.0 0.0 1.2548484e-09 1.03685764e-07 2.8992015e-09 5.991663e-08
6.7071618e-15 4.3037618e-12 2.1204679e-11 0.0 0.0 0.0 1.8627786e-12 1.5391786e-10
4.3037618e-12 8.894412e-11 9.378787e-14 6.018055e-11 2.9651004e-10 0.0 0.0 0.0
2.6047676e-11 2.1522704e-09 6.018055e-11 1.2437269e-09 1.2542235e-11 8.047934e-09 3.9652235e-08 0.0
0.0 0.0 3.483351e-09 2.8782264e-07 8.047934e-09 1.6632337e-07 7.1539064e-15 4.590425e-12
2.261706e-11 0.0 0.0 0.0 1.9868525e-12 1.6416991e-10 4.590425e-12 9.4868446e-11
2.7394243e-11 1.7577973e-08 8.660683e-08 0.0 0.0 0.0 7.608196e-09 6.2865064e-07
1.7577973e-08 3.6327683e-07 1.5329907e-14 9.836692e-12 4.846546e-11 0.0 0.0 0.0

exp_avg f4 [128]
00000000: c404 8438 303d 1a34 f843 d937 84b3 4338
00000010: f892 1932 0a67 b3b6 e2df 3138 28d6 5d36
00000020: 2907 0637 87e5 8ab8 aaf9 a438 f5d9 6536
00000030: d6ce b836 1050 f6b7 b01a 1438 39a6 12b8
00000040: 1de1 cb35 a493 07b8 6f69 c3b4 72cf 0e38
00000050: e659 a435 7235 b2b6 cd0f 6bb8 d031 b635
00000060: 68da adb8 814e e135 ed03 0ab7 f0a2 d2b4
00000070: 8e1d d733 92f5 63b6 7a26 dbb4 b012 2d38
00000080: e303 deb6 d0c1 23b6 120e c534 ea79 5cb6
00000090: 2065 84b8 b091 09b8 5acb 9eb6 1b46 50b7
000000a0: fc81 5835 7e32 93b6 6b82 7bb6 e0c9 1035
000000b0: bafc 92b7 40ef 82b4 6cf2 36b7 3ce6 5b38
000000c0: 2cdd 5fb5 5a24 e2b1 ebb0 3438 8e33 c2b2
000000d0: 7e0e 31b8 747d 06b8 3634 5836 8e71 f9b7
000000e0: 208f 2e36 c7cb 8535 40f0 f336 015f 9b33
000000f0: 9950 b238 b61b abb7 1282 1538 f02f 6bb6
00000100: b0ff 50b8 675f 9836 50b9 d6b6 c29f 86b6
00000110: f44f 86b8 e077 ad34 b890 0236 7b66 84b3
00000120: 62d3 1bb7 c8b0 aa38 38d2 b6b8 c2f2 2135
00000130: 8003 5737 2236 7337 72f5 2437 2cee 40b2
00000140: 2949 c737 ae58 d3b6 aa51 c5b7 7070 c934
00000150: 92ac d935 06a3 0534 4cfc bb35 7fca 40b4
00000160: c518 05b7 26de 2338 b717 ca34 9040 1f38
00000170: be07 2b38 10bc 1db5 104a 0f31 8764 d4b7
00000180: 82b2 1bb7 af06 33b3 268e 35b8 398c a338
00000190: 20de 1b37 1b9b 0536 b216 a1b4 e5a6 8e31
000001a0: 90be deb7 d051 1238 405c f4b7 c669 48b8
000001b0: 0434 9935 6ba4 c137 0a3f 0136 c066 b1b7
000001c0: 08c5 cdb7 b7df b737 3c68 c1b6 e8b8 a2b6
000001d0: 04c9 9bb8 ba10 4d34 a898 da35 0b20 90b8
000001e0: 7230 4c38 60ee 3838 dab0 85b7 dcee 9e33
000001f0: 525c 1cb8 98da a0b6 ca5c 8fb7 f252 87b7
6.295138e-05 1.4364628e-07 2.5900066e-05 4.665881e-05 8.939189e-09 -5.346611e-06 4.2408596e-05 3.3056222e-06
7.9886895e-06 -6.6231056e-05 7.866633e-05 3.4250527e-06 5.507706e-06 -2.9362767e-05 3.5310804e-05 -3.496392e-05
1.5190195e-06 -3.232401e-05 -3.6398293e-07 3.4048637e-05 1.2245116e-06 -5.3110352e-06 -5.604308e-05 1.3574554e-06
-8.289964e-05 1.6786654e-06 -8.226355e-06 -3.92341e-07 1.00170936e-07 -3.3968577e-06 -4.0819924e-07 4.126382e-05
-6.616568e-06 -2.4401706e-06 3.6704347e-07 -3.2853518e-06 -6.3130865e-05 -3.2799027e-05 -4.73244e-06 -1.2414089e-05
8.065542e-07 -4.3868195e-06 -3.7477828e-06 5.3937947e-07 -1.7522241e-05 -2.4388464e-07 -1.0904489e-05 5.242809e-05
-8.339582e-07 -6.5815984e-09 4.3080112e-05 -2.2608017e-08 -4.2213585e-05 -3.2064927e-05 3.22169e-06 -2.9735991e-05
2.601133e-06 9.968579e-07 7.269933e-06 7.235031e-08 8.502714e-05 -2.0397692e-05 3.5645506e-05 -3.5045632e-06
-4.9829192e-05 4.5410593e-06 -6.39927e-06 -4.0121095e-06 -6.40451e-05 3.2310982e-07 1.9455747e-06 -6.16537e-08
-9.287936e-06 8.13916e-05 -8.7175926e-05 6.0330433e-07 1.28158135e-05 1.44965325e-05 9.832309e-06 -1.1230025e-08
2.3756716e-05 -6.2986137e-06 -2.3522258e-05 3.7520977e-07 1.6217984e-06 1.2445898e-07 1.4006014e-06 -1.7955061e-07
-7.933185e-06 3.906912e-05 3.7642687e-07 3.7968683e-05 4.0776788e-05 -5.8760725e-07 2.0851338e-09 -2.5319181e-05
-9.280282e-06 -4.1682764e-08 -4.328615e-05 7.798564e-05 9.290437e-06 1.9908828e-06 -3.00051e-07 4.1517176e-09
-2.65532e-05 3.4885306e-05 -2.9130024e-05 -4.7782225e-05 1.1414527e-06 2.3083956e-05 1.9259192e-06 -2.1147891e-05
-2.4529654e-05 2.1919475e-05 -5.7639827e-06 -4.849502e-06 -7.428418e-05 1.9098198e-07 1.6286695e-06 -6.8724235e-05
4.868251e-05 4.4091023e-05 -1.5937188e-05 7.4008966e-08 -3.727928e-05 -4.7938192e-06 -1.7090137e-05 -1.6131879e-05

exp_avg_sq f4 [128]
00000000: f891 9431 d72f c628 7c58 4e30 a011 2031
00000010: 03c1 e224 1fee 0a2e c018 0531 2366 432d
00000020: 6313 972e 7bd9 a431 b189 e431 4d98 5d2d
00000030: ea21 122e cad4 8530 167e b430 1088 c630
00000040: 0919 0b2c bfe5 ae30 0030 132a 1077 ac30
00000050: d514 032c 281e e52d c15f 6f31 f4cf 0b2c
00000060: 34b5 0232 cdcc 952c f823 cb2e 04c4 462a
00000070: a17b 3628 797a 6f2d 254f 552a 773c f830
00000080: bd70 a12e 6a7e f12c fb5b 252a 4ba1 552d
00000090: 3d57 a431 6960 b730 b48d e12d 444a 452f
000000a0: 5e13 522b b3ba c12d 5a0d 1d2e fb64 b02a
000000b0: cf2e e42f b83e 042c 0fad 0c2f cf64 5531
000000c0: 2684 612b 886c fb24 7e52 0b31 e844 c126
000000d0: 4a1a 1831 2f51 b430 0546 4a2d c5ca 8730
000000e0: bea7 ff2c d2bd 642b 36e9 402e ec45 0629
000000f0: d474 0532 6c9a 1030 eca0 a730 3ea0 732d
00000100: ea06 4c31 410e c22d efe9 4c2e 84ca ce2d
00000110: ab44 9931 9135 bc29 db9b 862c 12c2 f127
00000120: d5df fc2e c4b7 f931 f2d5 1832 b87e d92a
00000130: e6cb 0f2f 76e2 4f2f 8f00 e62e 20f2 d625
00000140: 3ed3 2b30 303a 442e ff8c 2f30 ee8c 522a
00000150: 90a1 3a2c cd5b 0229 7a96 0b2c 46f6 8329
00000160: 5d3d 9a2e b5f0 e230 b76a 3e2a b563 d830
00000170: 4060 ff30 255b fe2a 2333 9326 eb7b 4130
00000180: de4b cb2e 592f 4c27 9bf5 1e31 631b df31
00000190: 57c7 d52e 8d58 8a2c 3d1c da29 b8f4 a323
000001a0: ab88 6630 3ff6 b130 9699 8830 8c9b 3a31
000001b0: 03ac bc2b f012 1130 6d01 cc2c f97f 1530
000001c0: 3c08 3730 2622 0530 5b0b 1f2e da2d fb2d
000001d0: 2dab c731 0d6a 2e29 6fde 3c2c d901 b831
000001e0: 2f18 2b31 7711 1331 38b0 9e2f eff7 3128
000001f0: 0a75 ec30 601a dd2d e625 c32f 3b49 a02f
4.3239616e-09 2.2003163e-14 7.506811e-10 2.3293083e-09 9.833885e-17 3.158906e-11 1.9368116e-09 1.1107146e-11
6.870129e-11 4.797753e-09 6.651327e-09 1.2596213e-11 3.322668e-11 9.737502e-10 1.313256e-09 1.4445067e-09
1.9766985e-12 1.2725464e-09 1.3072876e-13 1.2548487e-09 1.8627784e-12 2.6047678e-11 3.4833507e-09 1.9868525e-12
7.608197e-09 4.257572e-12 9.2377606e-11 1.7653939e-13 1.0129837e-14 1.36127715e-11 1.8945659e-13 1.806156e-09
7.341459e-11 6.8636668e-12 1.4686856e-13 1.21434625e-11 4.782946e-09 1.3342404e-09 2.5642467e-11 1.794343e-10
7.4633865e-13 2.202447e-11 3.5709526e-11 3.133395e-13 4.1506218e-10 1.8793144e-12 1.2794409e-10 3.1052882e-09
8.011945e-13 1.0903776e-16 2.0274054e-09 1.3410742e-15 2.2133855e-09 1.3119797e-09 1.1497918e-11 9.880173e-10
7.266159e-12 8.12653e-13 4.386288e-11 2.9814625e-14 7.7681825e-09 5.260634e-10 1.2196586e-09 1.3848532e-11
2.9689837e-09 2.2061577e-11 4.6592005e-11 2.3509424e-11 4.4606927e-09 8.3581694e-14 3.8258125e-12 6.710135e-15
1.1499394e-10 7.2677455e-09 8.89621e-09 3.8634872e-13 1.3078214e-10 1.8906995e-10 1.0459288e-10 3.7287153e-16
6.250963e-10 4.461692e-11 6.3864997e-10 1.8700642e-13 2.6521875e-12 2.8945423e-14 1.983662e-12 5.86029e-14
7.0140095e-11 1.6512077e-09 1.6912414e-13 1.5744407e-09 1.8581048e-09 4.5182708e-13 1.0214035e-15 7.038909e-10
9.244848e-11 2.8336354e-15 2.3131637e-09 6.4932677e-09 9.7215284e-11 3.932027e-12 9.686043e-14 1.7776138e-17
8.386773e-10 1.2948432e-09 9.938954e-10 2.715498e-09 1.3405946e-12 5.2777605e-10 5.798187e-12 5.4387744e-10
6.6586714e-10 4.8433646e-10 3.61625e-11 2.8555758e-11 5.8111227e-09 3.8727746e-14 2.6839882e-12 5.355315e-09
2.4897522e-09 2.1401243e-09 2.8865244e-10 9.879236e-15 1.7204524e-09 2.5136504e-11 3.5497222e-10 2.9155864e-10

exp_avg f4 [128, 128]
00000000: 321c 4f38 1e00 0bb5 b776 83b7 4f02 003a
00000010: e6cf a7b3 f4d4 b3b7 fea2 7639 9815 e9b7
00000020: d099 3339 c2e3 6039 c831 203a ea67 f9b7
00000030: 846a 52b7 b66f 1738 ea00 4d39 2fb4 0a3a
00000040: da6c 82b7 ce47 8139 0c97 abb7 29f2 7e37
00000050: b910 e4b7 1a71 a5b7 fac3 513a ee24 4ab7
00000060: 1a95 1739 d220 dfb7 98db 013a 9e52 37b6
00000070: 4a25 40b5 4381 9fb7 5020 c6b5 f1cb e839
00000080: 903f 0d38 9482 d3b7 5c4f b5b5 a7a0 00b7
00000090: 3470 0a3a e8e2 5a38 5e52 e9b7 0ae4 af37
000000a0: 7c68 feb7 c9cf 45b7 2248 413a 8288 8fb5
000000b0: 7f18 c139 8c1d 2138 c823 df37 c052 9639
000000c0: e095 05b7 868a 44b5 b80f a639 28dd eeb6
000000d0: e87d ad39 674d 033a a4e2 04b7 b008 063a
000000e0: 02d8 d8b7 4e01 dcb7 d6f8 6539 2425 51b7
000000f0: 6e62 6e39 0688 e739 7e18 273a e2af 55b7
00000100: 78d0 4839 89b5 13b7 9658 bfb7 421f e339
00000110: 8c73 ab39 82e7 e8b7 ea4b e9b7 c0c2 89b6
00000120: 6c62 6737 7caa 8739 ce0b 7d39 6c4e dfb5
00000130: 9649 1239 da04 7038 18ad f1b7 ceef 81b5
00000140: fd8c 6f36 1af0 7cb7 bfeb 0a35 421c fcb7
00000150: 52ca e1b7 229c ffb7 7e85 60b7 6a92 ffb7
00000160: 02cc e9b7 42e7 9837 107b fab7 b0b8 3836
00000170: 4cd7 8539 aa51 ffb7 04a7 ffb7 c8f3 d537
00000180: 422b c5b7 c29c 93b5 6ac0 ad38 cae0 5c39
00000190: 8e23 7839 181e 0fb7 6c88 3db5 58b1 70b2
000001a0: c512 d237 68d6 353a 1694 4d39 bc0d 2b39
000001b0: f674 0fb7 ca41 8339 0504 c1b7 b0c9 b439
000001c0: 246a 5d37 e546 5238 06d7 9fb7 b8b3 afb7
000001d0: c2c0 e538 4429 38b6 ea7e 3bb7 533b 0b3a
000001e0: 4031 fa39 7a49 bcb6 2a87 6f39 7bb9 37b7
000001f0: ba07 8b39 98bd 75b7 f6bb 8536 afe9 5838
00000200: 4f6c 77b7 1213 2634 f41d 9d36 def3 18b9
00000210: ea83 c832 dce3 d636 3c57 93b8 583f 0b37
00000220: 0290 56b8 285e 86b8 1869 3fb9 d702 1537
00000230: 0b68 7b36 3dfa 34b7 2ef0 74b8 e9bc 25b9
00000240: adce 9b36 a67a 9ab8 ebc7 cc36 0c3c 98b6
00000250: 7e42 0837 829e c536 6ea6 7ab9 0d82 7136
00000260: ae23 35b8 544c 0537 7229 1bb9 5b0f 5b35
00000270: 4e8d 6534 be99 be36 83c1 ec34 2414 0bb9
00000280: febc 28b7 afbd fc36 f0a1 d834 56b4 1936
00000290: 986b 25b9 62c7 82b7 9866 0b37 9c3a d2b6
000002a0: a7fe 1737 8b60 6c36 aef0 66b9 467d ab34
000002b0: e2b9 e6b8 12e7 3fb7 ac5b 05b7 e69c b3b8
000002c0: bca0 1f36 cfc2 6a34 ac6a c6b8 329d 0e36
000002d0: f04d cfb8 63e4 1cb9 a4c5 1e36 b128 20b9
000002e0: a48b 0137 8776 0337 0e5b 89b8 dda5 7936
000002f0: 6a69 8eb8 e053 0ab9 96a7 47b9 9359 7f36
00000300: 58f5 6fb8 ce7a 3036 8b9d e436 5aaf 07b9
00000310: 9fdf ccb8 2e1b 0b37 da5f 0b37 d490 a435
00000320: 6e38 8ab6 1c19 a2b8 a22f 97b8 e465 0535
00000330: 80bc 2eb8 f854 8fb7 1065 1037 0a27 9b34
00000340: c2e2 8eb5 2d20 9736 75f4 27b4 869f 1637
00000350: cfe3 0637 b6b6 1837 f920 8636 edb0 1837
00000360: 94af 0b37 d19e b6b6 0ca6 1537 3a2c 5cb5
00000370: 60eb 9fb8 0f8a 1837 1cbd 1837 dcbc ffb6
00000380: 4491 eb36 6656 b034 3c9f cfb7 20f4 83b8
00000390: 1a3c 94b8 76fc 2a36 9c7e 6234 fbc7 8f31
000003a0: f20c fbb6 7445 59b9 aba7 75b8 0d66 4cb8
000003b0: 3a65 2b36 60d3 9cb8 b091 e636 ec05 d8b8
000003c0: b05f 84b6 132d 7bb7 b400 bf36 f4f2 d136
000003d0: 0649 09b8 9e0c 5c35 ca02 6036 c45e 26b9
000003e0: 8678 15b9 1535 e135 341c 8fb8 dc42 5b36
000003f0: 8e20 a6b8 fed3 9236 5ef0 9fb5 f89c 81b7
4.9378905e-05 -5.1781706e-07 -1.5671698e-05 0.00048831565 -7.81436e-08 -2.1437627e-05 0.00023521108 -2.778582e-05
0.0001712807 0.00021447151 0.00061109336 -2.9731502e-05 -1.25417755e-05 3.6105244e-05 0.00019550664 0.00052911317
-1.5547896e-05 0.00024658296 -2.0455125e-05 1.5195962e-05 -2.7187505e-05 -1.97222e-05 0.000800192 -1.2048737e-05
0.00014456027 -2.6598955e-05 0.00049536815 -2.7317215e-06 -7.1579836e-07 -1.901447e-05 -1.4761554e-06 0.00044402436
3.3676217e-05 -2.5213965e-05 -1.3508647e-06 -7.666799e-06 0.0005281002 5.2186573e-05 -2.781412e-05 2.0967815e-05
-3.0327814e-05 -1.1790494e-05 0.00073731143 -1.0694059e-06 0.0003683008 3.841291e-05 2.6600334e-05 0.00028671883
-7.962313e-06 -7.321727e-07 0.000316737 -7.1186987e-06 0.0003309094 0.0005008787 -7.920582e-06 0.0005112989
-2.5849793e-05 -2.6226651e-05 0.0002193184 -1.2466018e-05 0.00022734117 0.000441611 0.0006374194 -1.273674e-05
0.00019151147 -8.80415e-06 -2.2810225e-05 0.00043320103 0.0003270175 -2.776436e-05 -2.7811115e-05 -4.10559e-06
1.3791589e-05 0.00025876227 0.00024132358 -1.6637619e-06 0.00013951058 5.7224977e-05 -2.8810042e-05 -9.681041e-07
3.5695841e-06 -1.50762735e-05 5.175206e-07 -3.00539e-05 -2.6916303e-05 -3.0471074e-05 -1.33825215e-05 -3.0466548e-05
-2.7870763e-05 1.82275e-05 -2.9859628e-05 2.752564e-06 0.00025528145 -3.0436397e-05 -3.0476142e-05 2.5505098e-05
-2.3504374e-05 -1.0997976e-06 8.285123e-05 0.00021064575 0.00023664368 -8.530471e-06 -7.0606507e-07 -1.4010162e-08
2.5042691e-05 0.0006936551 0.0001960549 0.00016312947 -8.550696e-06 0.00025035284 -2.3009265e-05 0.00034482544
1.3197339e-05 5.0133927e-05 -1.9054405e-05 -2.0945314e-05 0.00010955475 -2.7442156e-06 -1.1175618e-05 0.0005311269
0.0004772041 -5.6113904e-06 0.00022843169 -1.09508355e-05 0.00026517903 -1.4647281e-05 3.9855904e-06 5.1716048e-05
-1.4747565e-05 1.5466892e-07 4.6824516e-06 -0.00014586697 2.3343052e-08 6.4042233e-06 -7.025755e-05 8.299794e-06
-5.1155694e-05 -6.407156e-05 -0.0001825433 8.881753e-06 3.7462476e-06 -1.0787099e-05 -5.8397818e-05 -0.00015806001
4.64342e-06 -7.366137e-05 6.1029473e-06 -4.5369434e-06 8.121713e-06 5.8895102e-06 -0.00023903858 3.5987498e-06
-4.3186992e-05 7.945189e-06 -0.00014797391 8.16062e-07 2.1378693e-07 5.680339e-06 4.4099224e-07 -0.00013263576
-1.00575835e-05 7.5322673e-06 4.035096e-07 2.2903746e-06 -0.00015775708 -1.5590052e-05 8.308933e-06 -6.2653107e-06
9.059592e-06 3.5222936e-06 -0.0002202417 3.194238e-07 -0.00011001878 -1.1438287e-05 -7.948762e-06 -8.56461e-05
2.3786406e-06 2.1863819e-07 -9.461245e-05 2.1251149e-06 -9.885046e-05 -0.000149624 2.3658877e-06 -0.00015273948
7.721512e-06 7.835805e-06 -6.549629e-05 3.7200437e-06 -6.7907225e-05 -0.00013191951 -0.0001904055 3.80501e-06
-5.7210535e-05 2.6297525e-06 6.81327e-06 -0.00012939927 -9.769131e-05 8.291374e-06 8.307363e-06 1.2261103e-06
-4.1192898e-06 -7.729439e-05 -7.2091134e-05 4.969463e-07 -4.1660387e-05 -1.7086495e-05 8.606599e-06 2.8899404e-07
-1.064582e-06 4.5038964e-06 -1.564202e-07 8.977839e-06 8.040063e-06 9.102447e-06 3.9973497e-06 9.1011e-06
8.325926e-06 -5.4425113e-06 8.919753e-06 -8.2020745e-07 -7.625553e-05 9.09205e-06 9.1039365e-06 -7.6215783e-06
7.020457e-06 3.2845418e-07 -2.4750472e-05 -6.2920386e-05 -7.068385e-05 2.5478926e-06 2.109395e-07 4.184583e-09
-7.48189e-06 -0.00020720606 -5.8568705e-05 -4.8732432e-05 2.5539907e-06 -7.478031e-05 6.8714944e-06 -0.00010300786
-3.945046e-06 -1.49712605e-05 5.6923254e-06 6.256969e-06 -3.2731354e-05 8.1974747e-07 3.3380225e-06 -0.00015866297
-0.00014254646 1.6779255e-06 -6.8240246e-05 3.267246e-06 -7.9215606e-05 4.375818e-06 -1.1916379e-06 -1.5451093e-05
