results/ppo/My Behavior/My Behavior-29499979.onnx (onnx, 269768 bytes, 11 tensors)

action_model._continuous_distribution.mu.weight f4 [1, 128]
0	0xbc915f1f	-0.017745553
1	0xbcf08359	-0.029359506
2	0xbcf87b70	-0.030332297
3	0x3b959f9d	0.0045661465
4	0xbdbd7f51	-0.09252799
5	0x3db654da	0.08902903
6	0xbc158f69	-0.00912843
7	0x3d5a159b	0.05324326
8	0xbd1c5482	-0.03816653
9	0x3d2faba0	0.042888284
10	0xbd780f92	-0.060561724
11	0xbd01e8b9	-0.031716082
12	0xbdef1c8e	-0.11675368
13	0xbd2ee1e0	-0.04269588
14	0xbd2ccea9	-0.042189274
15	0x3caad4cb	0.02085342
16	0x3d713a43	0.058893453
17	0x3e02c838	0.1277169
18	0x3d8f6fb2	0.07003726
19	0x3ad45c8f	0.0016201901
20	0x3dabf266	0.08395843
21	0x3d815e88	0.063168585
22	0x3bf4e63b	0.0074737347
23	0x3d14bae7	0.036311056
24	0xbd1ad3fe	-0.037799828
25	0xbc14f951	-0.009092645
26	0x3d3c136c	0.04591696
27	0xbd346084	-0.044037357
28	0x3e322752	0.17397812
29	0xbd9dbb81	-0.07701779
30	0xbdc96f6c	-0.09835705
31	0x3d4c2624	0.04984106
32	0x3e04cdac	0.12969083
33	0xbbe67cae	-0.007033906
34	0xbb35ce0a	-0.0027741217
35	0xbb08884c	-0.0020833192
36	0xbd04e919	-0.03244886
37	0xbda7890b	-0.08180436
38	0x3d763c3a	0.06011603
39	0xbd354fcd	-0.044265557
40	0xbcc74fdb	-0.02433007
41	0x3c9aece5	0.018911788
42	0xbd53c944	-0.051705614
43	0xbbff1d41	-0.0077854698
44	0xbd7e4338	-0.062075824
45	0xbda3de8d	-0.080014326
46	0x3d2e36bd	0.04253267
47	0xbd578226	-0.052614354
48	0xbc9cd687	-0.019145263
49	0x3d4533cc	0.0481451
50	0x3ca8ee7f	0.020621536
51	0x3da55994	0.08073726
52	0xbd23161d	-0.03981601
53	0x3d8639ef	0.06554019
54	0x3db73034	0.08944741
55	0x3d67e393	0.056613516
56	0xbc3d0f42	-0.011539282
57	0xbd065b24	-0.032801762
58	0xbd00232f	-0.031283554
59	0xbca07483	-0.019586807
60	0xbdf341f3	-0.11877813
61	0xbd86b3c8	-0.06577259
62	0xbd719e83	-0.05898906
63	0xbd249dda	-0.0401896
64	0xbd334c26	-0.043773793
65	0xbd386d78	-0.045026273
66	0xbd494e92	-0.049147196
67	0x3d01d3e3	0.03169621
68	0xbdbfc332	-0.093634024
69	0xbc30f10c	-0.010799658
70	0xbc8f90e0	-0.017525136
71	0xbe1ded31	-0.15422513
72	0xbd797256	-0.060900055
73	0xbd172fa9	-0.036910687
74	0x3e2fcf57	0.17168938
75	0x3db370db	0.0876176
76	0x3bf2e6df	0.007412776
77	0x3db593fd	0.08866117
78	0xbd37e471	-0.044895593
79	0xbd07b036	-0.033127032
80	0xbc3f2ad5	-0.011667927
81	0xbd3b8769	-0.045783434
82	0xbccb414a	-0.024811406
83	0xbc8c3c99	-0.017118739
84	0x3decda48	0.11565071
85	0x3d9f116d	0.077669956
86	0x3d6d6e98	0.0579668
87	0xbbf422b1	-0.0074504246
88	0xbd512908	-0.05106452
89	0x3dbd5e3b	0.09246489
90	0xbdc20558	-0.094736755
91	0x3d476801	0.04868317
92	0x3d25dd03	0.040493976
93	0xbc4f830b	-0.01266552
94	0x3d359f0e	0.04434114
95	0xbd839d67	-0.064265065
96	0x3d3b3425	0.045704026
97	0x3dc16705	0.094434775
98	0xbd9bd344	-0.07608655
99	0x3ddb4df2	0.10708226
100	0xbd4c088f	-0.04981285
101	0xbd313262	-0.04326094
102	0x3d2c5c8f	0.04208046
103	0xbd3c5422	-0.045978673
104	0x3d83e5da	0.06440325
105	0xbcc93e28	-0.024565771
106	0xbc9a76d3	-0.018855488
107	0x3d776810	0.060401976
108	0xbd82fe6c	-0.06396183
109	0xbd8f068a	-0.06983669
110	0x3c7a550b	0.015279065
111	0x3d321b84	0.043483272
112	0x3d7833d2	0.060596295
113	0x3c5ff9d8	0.013670407
114	0xbd6151d7	-0.05500969
115	0x3d5e1c55	0.05422624
116	0xbcfa5a2a	-0.030560572
117	0xbc0d68e4	-0.008630965
118	0xbd6878c4	-0.056755796
119	0x3b2f9862	0.0026793708
120	0xbd65f066	-0.056137465
121	0x3cf79d9d	0.030226523
122	0xbcede49a	-0.02903967
123	0xbcf21b48	-0.029554024
124	0x3dc43c30	0.09581792
125	0xbd8836b7	-0.06651061
126	0xbd9fc38e	-0.07800971
127	0xbd66b486	-0.056324504

network_body._body_endoder.seq_layers.0.bias f4 [128]
0	0xbd50dd2e	-0.050992183
1	0xbdd13f41	-0.10217143
2	0xbd7720bc	-0.060333952
3	0xbdff009f	-0.1245129
4	0xbc97dd91	-0.018538268
5	0xbc826540	-0.01591742
6	0x3853b95b	5.0478946e-05
7	0xbd96f50a	-0.07370956
8	0xbbbe1b62	-0.005801604
9	0xbcb4d22c	-0.022072874
10	0xbe09ee06	-0.13469705
11	0xbe3edd2d	-0.1863906
12	0xbdbc268f	-0.09187042
13	0xbd8985cd	-0.067149736
14	0xbd998212	-0.07495512
15	0xbd4d5274	-0.05012746
16	0xbe26c8a2	-0.16287473
17	0xbe61690c	-0.22012728
18	0xbe1365a3	-0.1439424
19	0xbe3d01f8	-0.18457782
20	0xbd3679fe	-0.044549935
21	0xbdfc98c9	-0.12333829
22	0xbce576d2	-0.02801076
23	0x3e262092	0.16223362
24	0x3b2bdb34	0.0026223185
25	0xbddee8e2	-0.108842626
26	0xbdbc8942	-0.09205867
27	0xbdeacbfa	-0.11464687
28	0xbdf5ef82	-0.12008573
29	0xbd91581d	-0.070968844
30	0xbe53f124	-0.20697457
31	0xbdfa6bcb	-0.12227591
32	0xbd3fde8c	-0.046843097
33	0xbd974553	-0.073862694
34	0xbda40595	-0.08008877
35	0xbd7ad39a	-0.061236955
36	0xbd5b9358	-0.053607315
37	0xbd3859ec	-0.04500763
38	0xbc3ba487	-0.011452801
39	0xbdfc21de	-0.12311147
40	0xbda026ef	-0.07819926
41	0xbcebb016	-0.028770488
42	0xbbe4bb70	-0.006980352
43	0xbab88279	-0.001407697
44	0x3d0b91c0	0.034074545
45	0xbe54e4c6	-0.20790395
46	0xbe11151f	-0.14168213
47	0x3e065896	0.1311973
48	0xbd0e7779	-0.034781907
49	0x3d360fd3	0.044448685
50	0xbcc349db	-0.023838928
51	0xbe062f17	-0.13103901
52	0xbe319bfe	-0.17344663
53	0x3d98b700	0.074567795
54	0xbd9d01cc	-0.07666358
55	0xbd93d282	-0.072178856
56	0xbe18cbe6	-0.14921531
57	0xbd6cec1d	-0.057842363
58	0xbca820b0	-0.0205234
59	0xbdf2ad28	-0.11849433
60	0xbd869bb3	-0.06572666
61	0xbe17d418	-0.14827001
62	0xbda10ac8	-0.078633845
63	0xbdec209a	-0.11529656
64	0xbd9ba668	-0.07600099
65	0xbda039ff	-0.07823562
66	0xbe3cf3f2	-0.18452433
67	0xbe1b716a	-0.15179983
68	0x3e8a0164	0.26954186
69	0x3e81dc81	0.25363544
70	0xbe0d8e82	-0.13823894
71	0xbdb91330	-0.09036863
72	0xbda87ada	-0.08226557
73	0xbd28fd8c	-0.041257426
74	0xbe07bc49	-0.13255419
75	0xbcbfe7ec	-0.023426019
76	0xbe85bc6f	-0.26120326
77	0xbda16fa8	-0.07882625
78	0x3d0dcdae	0.03461998
79	0xbd096c23	-0.033550393
80	0xbd3b0bfb	-0.045665722
81	0xbd9d0384	-0.07666686
82	0xbd2e14d5	-0.042500336
83	0xbde9adc8	-0.11410099
84	0xbe20f62e	-0.1571891
85	0xbd0710f1	-0.03297514
86	0x3ca579a4	0.020199604
87	0xbd9b03c1	-0.075690754
88	0xbe5b1e43	-0.21398263
89	0xbe275d54	-0.16344196
90	0xbe0c312f	-0.13690637
91	0xbc39d673	-0.011342633
92	0xbe1deef2	-0.15423182
93	0xbd1a1c6e	-0.03762477
94	0xbd1d3b60	-0.038386703
95	0xbdd72c4f	-0.10506498
96	0x3e15c6aa	0.14626566
97	0xbd8900c4	-0.06689599
98	0xbda2bfc9	-0.07946736
99	0x3aa86bab	0.001284947
100	0x3dde46ea	0.108533695
101	0xbca6c4ab	-0.02035745
102	0xbc76d40a	-0.0150652025
103	0xbd98a7c6	-0.07453875
104	0xbe027a3c	-0.12741941
105	0x3dddda74	0.10832682
106	0xbdb70aa2	-0.08937575
107	0x3d1e8d0f	0.038708743
108	0xbdc12ef9	-0.094327874
109	0xbc47b3f3	-0.012188899
110	0xbdac6538	-0.084177434
111	0xbe45459a	-0.19264832
112	0xbaf646f6	-0.0018789459
113	0xbd7debb9	-0.06199238
114	0xbb9d2c02	-0.004796506
115	0x3cecb808	0.028896347
116	0x3d836ea4	0.064175874
117	0xbdd1c05f	-0.1024177
118	0xbd5d1880	-0.053978443
119	0xbcca6c67	-0.024709893
120	0x3d76c958	0.06025061
121	0xbdad1544	-0.08451322
122	0xbd9b5836	-0.07585184
123	0xbe258e07	-0.1616746
124	0xbdcc3773	-0.099715136
125	0xbdb71326	-0.08939199
126	0xbd582fba	-0.05277989
127	0xbd9d6f8d	-0.07687292

network_body._body_endoder.seq_layers.0.weight f4 [128, 3]
0	0xbf7268e6	-0.9469131
1	0xbc1589cc	-0.009127092
2	0x3e7b2f0a	0.24529663
3	0xbf084371	-0.5322791
4	0x3d53815e	0.051637046
5	0xbf508a3a	-0.81460917
6	0x3f26c499	0.65143734
7	0x3b9ba79d	0.0047502057
8	0x3e3d48c8	0.18484795
9	0xbe837f0c	-0.25682867
10	0xbe83cea3	-0.2574359
11	0xbfb6ea97	-1.4290341
12	0xbf88349c	-1.0641055
13	0xbefd17de	-0.49432272
14	0x3f880592	1.06267
15	0xbf85d5c7	-1.0455865
16	0xbf09f719	-0.53892666
17	0xbea7e88b	-0.32794604
18	0xbf752e09	-0.9577337
19	0xbe14d1f5	-0.14533217
20	0x3e76fd3e	0.24120042
21	0x3f30aaf6	0.69010866
22	0xbe9c5400	-0.30532837
23	0x3f0e1655	0.55502826
24	0xbfded2bf	-1.7408065
25	0x3e934969	0.28766945
26	0x3f39c1ec	0.72561526
27	0xbee6f174	-0.4510609
28	0xbee525fe	-0.44755548
29	0x3f251ebd	0.6450003
30	0x3de91747	0.11381393
31	0x3f7536d1	0.9578677
32	0x3cb21e61	0.021743001
33	0x3f0a36af	0.5398969
34	0x3f079dfa	0.5297543
35	0x3d8c23df	0.06842779
36	0x3eb0e21e	0.34547514
37	0x3f00142b	0.50030774
38	0x3f081bac	0.53167224
39	0x3efdc469	0.49563912
40	0xbd75a505	-0.059971828
41	0x3ebf75f6	0.37394685
42	0xbf858f13	-1.0434288
43	0xbeeb51e6	-0.4596092
44	0x3edc4a02	0.43025213
45	0x3dc7f2fc	0.097631425
46	0x3f1c6796	0.6109556
47	0xbf74cad9	-0.9562202
48	0x3f13e6ef	0.5777425
49	0xbf1c6372	-0.6108924
50	0xbea76de7	-0.32701036
51	0xbf6d9e14	-0.92819333
52	0x3f4c4e2c	0.7980678
53	0x3ed7de6b	0.4216188
54	0xbc8ac013	-0.016937291
55	0x3e147f42	0.1450167
56	0xbf003855	-0.50085956
57	0x3efefe23	0.49803266
58	0x3d944e0c	0.07241449
59	0xbf15408b	-0.5830161
60	0xbf8a22ff	-1.079193
61	0xbe6cd4e1	-0.23128082
62	0xbea7ff24	-0.32811844
63	0x3e7e3011	0.24823023
64	0x3ed063cc	0.4070114
65	0xbf483947	-0.782124
66	0x3dc9b3ec	0.098487705
67	0x3ece4030	0.40283346
68	0xbf3a5c24	-0.72796845
69	0x3fb60f98	1.4223509
70	0xbcaa6e0a	-0.020804424
71	0x3da45493	0.08023944
72	0x3fe18e95	1.7621638
73	0xbdb6f197	-0.08932798
74	0x3ed32cf8	0.41245246
75	0x3ebac295	0.3647658
76	0x3f1ee0ae	0.62061584
77	0x3d075f91	0.033050124
78	0xbf9aa335	-1.2081057
79	0xbf13b476	-0.57697237
80	0xbf4552bb	-0.7707936
81	0xbeaacaae	-0.33357757
82	0xbd9d5537	-0.07682269
83	0xbf4637a8	-0.77428675
84	0xbf03d855	-0.5150197
85	0xbfdde0cc	-1.7334228
86	0xbedcffbd	-0.43163863
87	0xbe9548a7	-0.29156992
88	0xbf62983c	-0.8851354
89	0xbd2adff1	-0.041717473
90	0x3f27323d	0.6531103
91	0x3d309eca	0.043120183
92	0xbe876b9d	-0.2644929
93	0x3ecd3a25	0.40083423
94	0x3f051db5	0.51998454
95	0x3c41f3e4	0.011837933
96	0x3f87c701	1.0607606
97	0xbbe747ca	-0.0070581185
98	0x3f2273d9	0.6345802
99	0x3def2e0d	0.11678705
100	0xbf8d54ba	-1.1041481
101	0x3fb674ff	1.4254454
102	0xbf325594	-0.6966183
103	0xbdb82218	-0.08990878
104	0xbf115d35	-0.5678285
105	0xbf6a3625	-0.9148887
106	0x3ea4c876	0.3218419
107	0x3e8fc377	0.28078815
108	0xbd38f288	-0.04515317
109	0xbf319281	-0.6936417
110	0xbe8db060	-0.27673626
111	0xbf9f244c	-1.2432952
112	0x3ed9c773	0.4253498
113	0xbe33bf98	-0.17553556
114	0xbfa4a755	-1.2863566
115	0x3f524c0c	0.8214729
116	0xbd139dce	-0.036039166
117	0xbe828e3a	-0.25499135
118	0xbe6fd893	-0.2342246
119	0xbe95998e	-0.29218715
120	0x3ffc5f5e	1.9716604
121	0x3f7a6088	0.97803545
122	0x3f0933e3	0.535948
123	0xbf1af73c	-0.605335
124	0x3e3bde00	0.18346405
125	0xbf0aa32d	-0.54155236
126	0x3f081a23	0.5316488
127	0xbe5cbcdb	-0.21556418
128	0x3f777050	0.9665575
129	0xbf88a95e	-1.0676687
130	0xbecc994b	-0.39960703
131	0xba6a3ed1	-0.0008935752
132	0x3f525d89	0.82173973
133	0xbda7544a	-0.08170374
134	0x3bb2c08b	0.005455082
135	0x3f52155a	0.8206383
136	0x3fa06b8a	1.2532818
137	0xbea24908	-0.31696343
138	0xbe9afa81	-0.30269244
139	0xbb8ab1ef	-0.004232637
140	0xbf4c1fa1	-0.7973576
141	0xbf5fbe27	-0.87399524
142	0xbd911754	-0.070845276
143	0xbb9cdaaf	-0.0047868113
144	0xbf9f0a5f	-1.242504
145	0x3e2ca7b2	0.16860846
146	0x3e94c48f	0.29056212
147	0xbfa64b28	-1.2991686
148	0xbe951e5c	-0.29124725
149	0x3e803fda	0.25048715
150	0x3eda39dc	0.42622268
151	0xbe987668	-0.29777837
152	0xbe3a39cf	-0.18186115
153	0xbfb09136	-1.3794315
154	0x3fad9dd7	1.3563794
155	0x3ed1ea50	0.4099908
156	0x3e84c8d9	0.25934485
157	0xbf6e0d85	-0.9298938
158	0xbe2b0a19	-0.1670307
159	0x3fc32756	1.5246379
160	0xbb1d4655	-0.002399822
161	0x3e377e3b	0.17919247
162	0x3f3d283e	0.7388953
163	0x3e89008d	0.26758233
164	0xbde4a994	-0.11165157
165	0x3af3e53b	0.0018607745
166	0xbf0cefed	-0.550536
167	0x3e27abbf	0.1637411
168	0xbf0c28e6	-0.54749906
169	0xbc74edb8	-0.014949255
170	0xbf6f5ebb	-0.9350392
171	0x3f91a59d	1.1378666
172	0xbf3741b4	-0.7158463
173	0x3f01afba	0.5065876
174	0x3fae58b5	1.3620821
175	0x3e24b003	0.16082768
176	0x3f0e0f9e	0.5549258
177	0x3f4c44cb	0.7979247
178	0x3de17252	0.11008133
179	0xbf01ca5a	-0.5069939
180	0x3d26c73c	0.04071735
181	0x3ea55e8e	0.32298702
182	0xbeebdc7f	-0.46066663
183	0x3f12f0d9	0.57398754
184	0xbe999397	-0.29995415
185	0xbf577f87	-0.84178966
186	0x3e10618e	0.14099714
187	0x3da19d31	0.0789131
188	0x3f39bdf1	0.7255545
189	0x3f8cc7f8	1.0998526
190	0x3f842285	1.0323035
191	0xbda54149	-0.08069093
192	0x3fd1a90d	1.6379715
193	0x3f239b75	0.63909084
194	0x3f3c9bec	0.7367542
195	0xbde373f5	-0.111061014
196	0xbf74084a	-0.9532515
197	0x3e749c0d	0.23887654
198	0x3f554d07	0.8332066
199	0xbd8c5318	-0.068517864
200	0xbe3e0a4e	-0.18558618
201	0x3f393378	0.7234416
202	0x3e6c030f	0.23048042
203	0xbf098f8f	-0.5373468
204	0xbfb878a9	-1.4411823
205	0xbdbc41cb	-0.091922365
206	0x3c626cb3	0.013819861
207	0x3fe1c359	1.763774
208	0xbd1efdee	-0.038816385
209	0x3ca0a4ac	0.019609772
210	0x3f29f6df	0.6639232
211	0x3d927f73	0.07153215
212	0xbe59642d	-0.2122962
213	0x3f410fc5	0.7541469
214	0x3f681551	0.90657526
215	0x3dedc63d	0.116100766
216	0xbf6a6b15	-0.91569644
217	0x3e4ff1ec	0.2030713
218	0x3f4bf3e6	0.79669034
219	0x3f495307	0.78642315
220	0xbe1011eb	-0.14069335
221	0x3f123f1e	0.5712756
222	0xbc5627c2	-0.013071002
223	0xbe72685b	-0.23672621
224	0xbe463d87	-0.19359408
225	0xbfbb52ee	-1.4634683
226	0xbf216d4b	-0.6305739
227	0x3f7a52ce	0.977826
228	0xbed7bcd1	-0.42136243
229	0x3e80b775	0.25139967
230	0xbe03e6c3	-0.12880997
231	0xbf3f26eb	-0.7466876
232	0x3e1e8e5b	0.15483992
233	0xbf373032	-0.71557915
234	0xbfac86f4	-1.3478684
235	0x3eade443	0.33963212
236	0xbdec2b9a	-0.11531754
237	0xbf86292e	-1.0481317
238	0xbe8c5972	-0.2741199
239	0x3f415091	0.7551356
240	0x3f4757e6	0.778685
241	0xbf305abc	-0.6888845
242	0x3e14960a	0.1451036
243	0x3ed9d391	0.42544225
244	0x3e63987a	0.22226134
245	0xbcd259fb	-0.025677672
246	0xbf8f4083	-1.1191562
247	0x3d88c8d8	0.06678933
248	0xbeb6fdcf	-0.35740516
249	0x3e708b32	0.23490599
250	0xbf1514a1	-0.582346
251	0x3e263f17	0.16235004
252	0xbdf59d9e	-0.11992954
253	0xbefdc2da	-0.49562722
254	0xbf25da20	-0.6478596
255	0x3f77ac50	0.96747303

network_body._body_endoder.seq_layers.2.bias f4 [128]
0	0xbdc99596	-0.098429844
1	0xbd4b6ab6	-0.049662314
2	0xbdc999a7	-0.0984376
3	0x3c956030	0.018234342
4	0xbd88f018	-0.06686419
5	0xbdcf0563	-0.10108449
6	0xbc672050	-0.014106825
7	0xbd225bc4	-0.039638296
8	0xbcf62b9f	-0.030050097
9	0xbc09b7b9	-0.008405619
10	0xbdb653d5	-0.089027084
11	0xbb57ce5c	-0.0032929396
12	0x3cb5a032	0.022171114
13	0xbd2e9e02	-0.042631157
14	0x3c9c3f5b	0.019073179
15	0xbcb6aecb	-0.022300145
16	0xbdb97861	-0.090561636
17	0x3bfb2247	0.0076639983
18	0xbe1ad876	-0.15121636
19	0xbc572dda	-0.01313349
20	0xbc6f5a73	-0.014608967
21	0xbd656682	-0.056005962
22	0xbdb3a936	-0.08772509
23	0xbe14212a	-0.14465776
24	0xbd979559	-0.07401533
25	0x3c27ac7a	0.010233993
26	0xbde5ad0d	-0.112146474
27	0xbd493b57	-0.049128857
28	0xbca5cd2d	-0.020239437
29	0xbca54c82	-0.020178083
30	0xbdd302ab	-0.10303243
31	0xba3211b5	-0.00067927997
32	0xbd89f9c1	-0.0673709
33	0xbd3a42a7	-0.04547372
34	0xbc8289e5	-0.015934894
35	0xbcc93329	-0.024560528
36	0xbcd5de54	-0.02610699
37	0xbdc06084	-0.09393409
38	0xbdee3487	-0.116311125
39	0xbcc59034	-0.024116613
40	0xbcee09dc	-0.029057436
41	0xbddb83b1	-0.107184775
42	0xbdc8a8c9	-0.09797818
43	0xbdf0a3ae	-0.117499694
44	0xbda80a78	-0.08205122
45	0xbd61ebcd	-0.055156518
46	0x3c9bcb76	0.019017916
47	0xbcb6de59	-0.02232282
48	0xbbc6fd4d	-0.0060726763
49	0x3c13a25b	0.0090108765
50	0xbd74109b	-0.05958615
51	0xbd945f6c	-0.07244763
52	0xbd1e53ef	-0.038654264
53	0xbdbe4327	-0.09290152
54	0xbcbb7e84	-0.022887476
55	0xbd3cfe8d	-0.046141196
56	0xbad25126	-0.0016045913
57	0xbdd09849	-0.10185296
58	0xbce03701	-0.027369978
59	0xbda2a5f6	-0.07941811
60	0x3b0aac4a	0.0021159821
61	0x3d992331	0.07477415
62	0x3b22cd79	0.002484171
63	0xbd0b04c7	-0.033940103
64	0xbda4d764	-0.08048895
65	0xbc5a88ed	-0.01333831
66	0x3cfb49cb	0.030674836
67	0xb9544224	-0.00020242535
68	0xbc04f43a	-0.008114869
69	0xbd2f8ecc	-0.04286079
70	0xbbbb2c71	-0.005712085
71	0xbd34361e	-0.043996923
72	0x3c39ef95	0.011348625
73	0x3bdefb74	0.006804878
74	0x3d149f75	0.036284883
75	0xbda61b14	-0.081106335
76	0xbd2a75ce	-0.041616254
77	0xbd86d439	-0.06583447
78	0xbd65dfcd	-0.056121636
79	0x3d5c62b5	0.05380507
80	0xbc647c48	-0.013945647
81	0xbc8963a0	-0.016771138
82	0xbde36d14	-0.111047894
83	0x3c265582	0.010152223
84	0xbb23653a	-0.0024932162
85	0xbd9deb23	-0.077108644
86	0xbdc04b83	-0.09389403
87	0xbdda4ce2	-0.106591955
88	0xbcfba72e	-0.030719366
89	0xbd21ed72	-0.039533086
90	0xbde59994	-0.11210933
91	0xbb90f9d6	-0.004424314
92	0xbd6a673d	-0.057227362
93	0xbd01ecc2	-0.03171993
94	0xbd9f02b1	-0.07764185
95	0x3c2a8a2d	0.01040892
96	0xbd9fbe9f	-0.0780003
97	0xbc1806c3	-0.009278956
98	0xbc5c4d9e	-0.01344624
99	0xbdef7ec3	-0.116941
100	0x3cde3d2f	0.027128784
101	0xbd8c46eb	-0.06849464
102	0xbd8a1512	-0.067423
103	0xbd9a5e31	-0.07537497
104	0xbda2f8e5	-0.07957629
105	0xbd62f050	-0.05540496
106	0xbd4546dc	-0.04816328
107	0xbd85fd59	-0.06542463
108	0xbd5b92bf	-0.053606745
109	0xbda33b65	-0.07970313
110	0x3bc9da51	0.0061600585
111	0xbdc07cc3	-0.093987964
112	0x3ca92e62	0.020652
113	0xbcaf4abd	-0.021397943
114	0xbda560fc	-0.08075139
115	0xbd9c16c7	-0.07621532
116	0x3c0b2471	0.008492575
117	0xbda0bc6c	-0.078484386
118	0xbd889055	-0.06668154
119	0xbe091a48	-0.13388932
120	0xbc93a57f	-0.01802325
121	0x3c7a5963	0.0152801005
122	0xbdceca3b	-0.10097166
123	0xbcdbe1b7	-0.026841028
124	0xbb99b5a8	-0.0046908446
125	0xbc5e16c5	-0.013555233
126	0xbe1e0151	-0.1543019
127	0x3b92c148	0.0044786073

network_body._body_endoder.seq_layers.2.weight f4 [128, 128]
0	0x3d098d51	0.033582035
1	0xbdca2c22	-0.09871699
2	0xbd33ad25	-0.043866295
3	0xbdba3842	-0.090927616
4	0x3ce06f94	0.027396955
5	0xbc8255ff	-0.015910147
6	0xbd195a61	-0.037439708
7	0xbe0394f9	-0.12849797
8	0xbcbb009f	-0.022827445
9	0xbd63ae3d	-0.05558609
10	0xbe227309	-0.15864195
11	0x3c14450f	0.009049668
12	0x3c77702e	0.015102429
13	0x3d9a2347	0.0752626
14	0xbdf2f8f3	-0.118638895
15	0xbda76a72	-0.081746
16	0xbd0ad775	-0.033896882
17	0xbe2c3918	-0.16818655
18	0x3d25e2e3	0.04049958
19	0x3cec8992	0.028874192
20	0x3c5e1d2c	0.01355676
21	0xbda7ebfa	-0.08199306
22	0xbe6f7d2b	-0.23387592
23	0x3e292313	0.16517286
24	0xbd354408	-0.044254333
25	0xbe12db6a	-0.14341512
26	0x3cfced7e	0.030874964
27	0x3d5284d5	0.05139621
28	0xbdd8be30	-0.105831504
29	0x3db7c5eb	0.08973297
30	0xbc8d33bd	-0.017236585
31	0xb8d55c94	-0.000101738755
32	0x3e10b634	0.14132005
33	0xbc420e54	-0.011844236
34	0x3d465c7b	0.04842804
35	0x3b3ed73e	0.0029119994
36	0xbdcc213e	-0.09967278
37	0x3c3cce0d	0.011523736
38	0xbe080407	-0.13282786
39	0x3d176357	0.036959972
40	0xbd7eb29c	-0.062182054
41	0xbc9f1e5e	-0.01942366
42	0x3c2cee83	0.0105549125
43	0xbe0ee2f4	-0.13953763
44	0xbdc3b8b3	-0.09556713
45	0xbd247c5f	-0.040157672
46	0xbe4bc58b	-0.19899575
47	0xbdde0725	-0.108412065
48	0xbdbc5e78	-0.09197706
49	0xbe80028b	-0.2500194
50	0x3d7477fc	0.05968474
51	0xbde12e21	-0.109951265
52	0xbc565068	-0.013080694
53	0x3e1b3fe4	0.15161091
54	0xbe32251a	-0.17396966
55	0x3d82dabc	0.063893765
56	0xbdd946d3	-0.10609212
57	0xbda2f8f5	-0.07957641
58	0x3d84810b	0.064699255
59	0x3dc6106d	0.09671102
60	0xbcb96621	-0.022631707
61	0xbd99b131	-0.075045
62	0xbe60c279	-0.21949185
63	0xbdc20836	-0.09474222
64	0x3d49f8f7	0.049309697
65	0xbe28df9b	-0.16491549
66	0xbe1ae4c7	-0.15126334
67	0x3d6a38e8	0.057183176
68	0x3e084f39	0.13311471
69	0xbe06e679	-0.13173856
70	0x3c2a3059	0.010387504
71	0xb9a64219	-0.00031711234
72	0xbdba6399	-0.09101028
73	0x3d614794	0.054999903
74	0xbdd24c26	-0.102684304
75	0xbccd5547	-0.025065077
76	0xbd4337f8	-0.047660798
77	0xbdd13159	-0.102144904
78	0xbe597989	-0.21237768
79	0x3ba80631	0.005127691
80	0xbe088e82	-0.13335612
81	0xbd45f778	-0.048331708
82	0x3e28e5c9	0.16493906
83	0x3c073e34	0.0082545765
84	0xbdee1f45	-0.11627058
85	0xbd0a163d	-0.033712614
86	0xbe2b9a86	-0.16758165
87	0xbe2b428f	-0.16724609
88	0xbc5373ba	-0.012906009
89	0xbdc311ff	-0.09524917
90	0xbcd13938	-0.02553998
91	0xbdb1ce51	-0.0868193
92	0xbe6c6130	-0.23083949
93	0x3c54cefc	0.012988802
94	0xbdf04678	-0.11732191
95	0xbe0c9fb8	-0.13732803
96	0xbda057d3	-0.07829251
97	0xbd46338e	-0.04838901
98	0x3c3d3837	0.011549047
99	0x3dcc9bd9	0.09990663
100	0xbddcac12	-0.10775007
101	0xbc95ef24	-0.018302508
102	0xbd1bfb73	-0.038081598
103	0xbd9acb62	-0.075583234
104	0xbde54834	-0.11195412
105	0x3e11152a	0.1416823
106	0xbdffbe4b	-0.124874674
107	0xbd19e94e	-0.037576012
108	0xbe6a1f18	-0.22863424
109	0x3d0cd675	0.03438421
110	0xbe05fa85	-0.13083847
111	0x3e3bd212	0.18341854
112	0xbe0f2bda	-0.13981572
113	0xbe303c37	-0.1721047
114	0xbd382724	-0.044959202
115	0xbe015711	-0.1263087
116	0xbd8daf49	-0.069181986
117	0xbe4c57e3	-0.19955401
118	0xbe2371b2	-0.1596134
119	0xbc3a559f	-0.011372953
120	0xbe421b6d	-0.18955775
121	0xbcd2aa49	-0.025715964
122	0xbdceedfa	-0.10103984
123	0xbdc43ca9	-0.095818825
124	0xbe2ed0a4	-0.17071778
125	0xbe5870d7	-0.21136795
126	0x3df1faf1	0.118154414
127	0xbb25bb52	-0.0025288654
128	0xbe373d73	-0.17894535
129	0x3deb0498	0.114754856
130	0x3e4f95bf	0.20271967
131	0x3db4374e	0.08799611
132	0xbd025f0e	-0.031828932
133	0xbe6c976d	-0.2310464
134	0xbdc0c538	-0.094126165
135	0x3e21fb83	0.158186
136	0xbe327bd5	-0.1743005
137	0x3e0953d3	0.13410883
138	0xbced8d5c	-0.02899807
139	0xbd62be69	-0.05535737
140	0xbe87e02f	-0.26538226
141	0x3d39e2b0	0.0453822
142	0x3d909747	0.07060104
143	0x3d2d29f5	0.04227634
144	0x3d6e79ad	0.058221508
145	0x3d6fb7c7	0.058524873
146	0x3d87ebc8	0.066367686
147	0xbe368291	-0.17823245
148	0xbcf2f2bd	-0.029656762
149	0x3e16326c	0.14667672
150	0x3dda9e2a	0.10674699
151	0x3edadedc	0.42748153
152	0x3dab2fe7	0.08358746
153	0xbd24fba4	-0.040279046
154	0xbe14cd24	-0.1453138
155	0x3bdef4ac	0.0068040695
156	0xbd9f9afb	-0.07793232
157	0xbde04fc0	-0.10952711
158	0xbe1e2647	-0.15444289
159	0xbbb5dcc9	-0.0055500013
160	0x3d758231	0.059938613
161	0x3d71c831	0.059028808
162	0x3d7faab2	0.062418647
163	0xbe8af4ca	-0.27139884
164	0xbe77bd5a	-0.24193326
165	0x3d7793ce	0.060443692
166	0xbdef1112	-0.11673178
167	0xbd687c0e	-0.056758933
168	0xbd9d749c	-0.07688257
169	0x3e1f5023	0.15557913
170	0x3cdbdef8	0.026839718
171	0xbdde1e7f	-0.108456604
172	0x3d8fd5f9	0.07023234
173	0x3d787ba9	0.060664807
174	0x3cd9bec3	0.02658022
175	0xbe5be819	-0.21475257
176	0xbdfb2a4a	-0.122639254
177	0x3b394654	0.0028270679
178	0x3d200668	0.03906861
179	0x3da66316	0.08124368
180	0xbdea1e53	-0.11431565
181	0x3e71c136	0.2360886
182	0x3c1451ce	0.009052707
183	0xbd6cd564	-0.057820693
184	0x3c2b2975	0.010446896
185	0x3dc6139d	0.0967171
186	0x3cd8fe2e	0.02648839
187	0xbc85527b	-0.016274681
188	0x3d9db618	0.07700747
189	0x3dad99da	0.084766105
190	0xbd1e27fa	-0.038612343
191	0x3d8ea080	0.06964207
192	0xbe78e93d	-0.24307723
193	0xbd9d6b20	-0.07686448
194	0x3dd6f343	0.10495617
195	0x3e3881dc	0.18018287
196	0xbe500d83	-0.20317654
197	0x3e10c53d	0.1413774
198	0x3d95c263	0.07312467
199	0xbddc23b8	-0.10749
200	0xbc9b08e9	-0.018925147
201	0x3ddf607e	0.10907076
202	0xbd9512ba	-0.072789624
203	0x3d982a89	0.07429988
204	0xbd2872c5	-0.041125078
205	0x3c4012f7	0.011723272
206	0xbe8a8d87	-0.27061102
207	0x3c03e8f1	0.008051143
208	0x3ce0dfd6	0.027450483
209	0xbad1b0c2	-0.0015998113
210	0xbc78bafc	-0.015181299
211	0xbcdfa7c9	-0.027301686
212	0x3c64993c	0.01395255
213	0x3d5995f3	0.05312152
214	0xbd89c0eb	-0.06726249
215	0xbd574b01	-0.052561764
216	0x3d4e6f5b	0.050399166
217	0xbda3e929	-0.08003456
218	0xbcc602d9	-0.02417128
219	0xbe28b438	-0.16474998
220	0x3c3c5f31	0.011497305
221	0x3cbbdcf1	0.022932502
222	0xbd4a65d5	-0.04941352
223	0xbb11de79	-0.0022257848
224	0xbdb71527	-0.08939581
225	0xbd982534	-0.07428971
226	0x3da012f6	0.078161165
227	0x3d797f1e	0.060912244
228	0xbe20e4c4	-0.15712267
229	0xbd0527aa	-0.03250853
230	0x3e52bc16	0.20579562
231	0x3dcbdb71	0.099539645
232	0x3c0696a0	0.008214623
233	0x3e857468	0.26065373
234	0xbdd497b7	-0.103805
235	0x3e4fec7b	0.20305054
236	0xbcc453b6	-0.023965698
237	0x3e3ff3a9	0.18745293
238	0xbd6c2718	-0.05765447
239	0xbcbc8bbf	-0.023015855
240	0xbc0698f9	-0.008215182
241	0xbde751b1	-0.11294878
242	0x3deccaf2	0.11562146
243	0xbd74e761	-0.059790973
244	0xbc14aa18	-0.009073757
245	0x3d95f31d	0.07321761
246	0xbe79634d	-0.24354286
247	0x3df93df8	0.12170023
248	0xbdb8af8f	-0.0901786
249	0xbc819c9f	-0.015821753
250	0x3d7debd2	0.061992474
251	0xba1144a1	-0.00055415375
252	0x3dae272a	0.08503564
253	0xbdc9ba0c	-0.09849939
254	0x3e2f87b6	0.17141613
255	0x3d9ec5ae	0.07752548

network_body._body_endoder.seq_layers.4.bias f4 [128]
0	0xbd7ed08b	-0.0622106
1	0x3cc5c772	0.024142954
2	0x3cd24b3c	0.02567064
3	0x3c4873c6	0.012234634
4	0xbd2e8fc4	-0.042617574
5	0xbd95ae36	-0.07308619
6	0x3d1ee74b	0.038794797
7	0x3ceb92af	0.028756468
8	0x3d2d337c	0.042285427
9	0xbe073b58	-0.13206232
10	0xbd7f3108	-0.06230262
11	0xbcc2678b	-0.023731014
12	0x3d354809	0.04425815
13	0x3d69661b	0.05698214
14	0xbd138871	-0.036018793
15	0x3d5f21c4	0.05447556
16	0x3c3de207	0.011589534
17	0xbd82a3fc	-0.06378934
18	0x3c7e45de	0.015519587
19	0xbdf1f4ef	-0.118142955
20	0xbd89d520	-0.067301035
21	0xbd122adf	-0.035685416
22	0x3d5142ed	0.051089216
23	0xbce66d58	-0.028128311
24	0x3df3d63d	0.11906097
25	0xbde80c75	-0.11330501
26	0xbe14e1ea	-0.14539304
27	0xbcc6e09b	-0.024277022
28	0xbdd90e06	-0.10598378
29	0x3b7bcfb3	0.003842336
30	0xbacb6eb7	-0.0015520666
31	0xbd9fc1a2	-0.078006044
32	0xbdf35419	-0.11881275
33	0xbb9ab870	-0.0047216937
34	0x3c8845a3	0.016634768
35	0xbd78dd39	-0.06075785
36	0x3c020880	0.007936597
37	0xbbda6e99	-0.0066660163
38	0xbd468cd0	-0.048474133
39	0xbcfd663f	-0.030932544
40	0xbc8218a5	-0.015880892
41	0xbd622f5d	-0.05522095
42	0xb9e4279e	-0.00043517066
43	0xbd764c2d	-0.06013124
44	0x3d962b87	0.07332521
45	0xbd986663	-0.07441404
46	0xbc24f2b0	-0.010067627
47	0xbceff6ae	-0.02929243
48	0xbd9c7586	-0.07639603
49	0xbbea98af	-0.0071593146
50	0xbdd062d7	-0.10175102
51	0x3d9f89b2	0.07789935
52	0x3ce991ea	0.02851196
53	0xbdc879cc	-0.09788856
54	0xbc003fff	-0.007827758
55	0xbc596524	-0.013268743
56	0xbc9c9a83	-0.019116646
57	0xbd9ee392	-0.07758249
58	0x3d2196e0	0.039450526
59	0xbd83c060	-0.06433177
60	0xbd8c4b70	-0.06850326
61	0xbd032f13	-0.032027315
62	0xbcf8851c	-0.030336909
63	0xbc844cd6	-0.01614992
64	0x3dd4d952	0.10393013
65	0xbd18dc82	-0.037319668
66	0xbce85686	-0.02836157
67	0xbb9220a0	-0.0044594556
68	0xbcd4d26f	-0.025979249
69	0xbc643701	-0.01392913
70	0x3ceff323	0.029290741
71	0xbd3a0f59	-0.045424793
72	0xbd7b54e5	-0.06136026
73	0xbc756826	-0.014978444
74	0x3cb0326a	0.021508414
75	0xbcecfabb	-0.028928151
76	0xbc9b8ee5	-0.018989036
77	0xbdfb4716	-0.12269418
78	0x3c1f6494	0.00972857
79	0xbd3ff887	-0.046867874
80	0xbbecb48a	-0.0072236704
81	0xbb0a52a9	-0.0021106398
82	0x3b991031	0.0046711196
83	0xbd45ebe2	-0.04832066
84	0xbbb23dee	-0.0054395115
85	0xbbe853fd	-0.0070900903
86	0xbc4eef17	-0.012630246
87	0xbd42c44c	-0.047550485
88	0xbd4db06e	-0.050217085
89	0xbceb37c3	-0.028713113
90	0xbd8ac7cf	-0.06776392
91	0x3cda4ed8	0.026648924
92	0xbd5dfac3	-0.054194223
93	0xbd8a5394	-0.067542225
94	0xbdf94d85	-0.12172989
95	0xbd905581	-0.070475586
96	0x3d3d8b76	0.04627558
97	0xbda21993	-0.07915034
98	0x3d6df200	0.058092117
99	0xbd2b7113	-0.041855883
100	0x3cc8ab0f	0.02449563
101	0xbd93c18a	-0.07214649
102	0x3d8b06e6	0.06788425
103	0xbd480fd4	-0.04884322
104	0x3c2b2033	0.010444689
105	0xbd7478ff	-0.059685703
106	0xbd743a63	-0.059625994
107	0x3c554d89	0.013018974
108	0xbcdb8590	-0.026797086
109	0xbd8f4e9a	-0.06997414
110	0x3cae1ccd	0.021253968
111	0xbcf246e7	-0.029574824
112	0x3cbc3d12	0.02297834
113	0xbceef057	-0.029167337
114	0xbc80475c	-0.015659027
115	0xbd323206	-0.043504737
116	0xbda9940e	-0.08280192
117	0x3d003be3	0.031307112
118	0xbcd0c68b	-0.025485298
119	0xbd46c80f	-0.048530634
120	0xbd2c23ff	-0.042026516
121	0x3cb9e6d2	0.022693072
122	0xbc74a507	-0.014931924
123	0x3cc45c59	0.023969816
124	0x3c17fa45	0.0092759775
125	0xbd983ff2	-0.074340716
126	0xbddd84d5	-0.10816351
127	0xbce85f30	-0.028365701

network_body._body_endoder.seq_layers.4.weight f4 [128, 128]
0	0xbddfbc7f	-0.10924625
1	0xbd441a4f	-0.047876652
2	0xbc0cbb44	-0.0085895695
3	0x3dbd9f99	0.092589565
4	0x3b4397fe	0.0029845233
5	0x3e059769	0.1304604
6	0x3d313aad	0.04326885
7	0xbdceffcf	-0.10107385
8	0xbe37ca67	-0.17948304
9	0x3c782484	0.015145425
10	0xbcbddeb5	-0.023177484
11	0xbdba41bd	-0.0909457
12	0xbe185368	-0.14875567
13	0xbc1657d3	-0.009176212
14	0xbc8699af	-0.016430704
15	0x3c3c99c8	0.011511274
16	0xbd98489f	-0.074357264
17	0xbdbcbb3e	-0.09215401
18	0x3e0aabc2	0.13542083
19	0x3d58cf26	0.052931927
20	0x3dc16714	0.09443489
21	0xbdddda9f	-0.10832714
22	0x3d528bd0	0.051402867
23	0x3cad5164	0.021156974
24	0x3d0c334b	0.034228604
25	0xbe4ec3be	-0.20191857
26	0xbd8a6796	-0.06758039
27	0x3d708378	0.05871913
28	0x3d08235a	0.03323684
29	0xbd187760	-0.03722322
30	0xbe1935d4	-0.1496194
31	0x3d90e64b	0.07075175
32	0xbd88e5f4	-0.06684485
33	0x3d9fdbde	0.07805608
34	0xbddf7140	-0.109102726
35	0xbd60f41a	-0.054920293
36	0xbe381c9a	-0.1797966
37	0x3e0eb316	0.13935503
38	0x3d04bc8b	0.03240637
39	0xbe139bbd	-0.14414878
40	0xbbe7fde4	-0.0070798267
41	0xbdf7ad0c	-0.12093553
42	0x3d0f0651	0.034918133
43	0x3e44f18f	0.19232772
44	0x3c63ec32	0.013911294
45	0x3ce54634	0.027987577
46	0xbe85cff6	-0.26135224
47	0xbdaf0675	-0.085461535
48	0x3db747e6	0.089492604
49	0x3e28aa4b	0.16471212
50	0xbcbbcaba	-0.022923816
51	0xbce71b0b	-0.028211137
52	0x3e84f126	0.25965232
53	0xbc5420dd	-0.012947288
54	0x3e099c40	0.13438511
55	0xbe91b0fc	-0.2845534
56	0x3d76201c	0.060089216
57	0xbc5b5a4a	-0.013388226
58	0x3d6351a7	0.05549779
59	0xbd195a77	-0.03743979
60	0xbdaf653b	-0.0856423
61	0xbd8bf377	-0.068335466
62	0x3dfb3dcc	0.12267646
63	0x3bfd1b91	0.0077242334
64	0xbdc0d51c	-0.094156474
65	0xbd7f66bf	-0.062353846
66	0xbc6db8cc	-0.014509391
67	0xbd3b7069	-0.0457615
68	0xbd25ec7d	-0.040508736
69	0xbe19c8bf	-0.15017985
70	0xbed35e5a	-0.41282922
71	0xbe5b7c05	-0.21434028
72	0xbcc68efb	-0.0242381
73	0x3dab3038	0.08358806
74	0x3d99c36a	0.075079754
75	0x3d462ec8	0.048384458
76	0xbe0b5e95	-0.13610299
77	0x3d6b695d	0.05747353
78	0xbbf74afd	-0.007546781
79	0xbe1e4695	-0.15456612
80	0xbd941e37	-0.072323255
81	0xbe97a132	-0.2961517
82	0x3d804871	0.06263817
83	0xbd7b2bec	-0.061321184
84	0x3d58b824	0.052909985
85	0xbc9979de	-0.018734869
86	0x3c9ddef2	0.019271348
87	0xbcfaedfe	-0.030631062
88	0xbe33be24	-0.17553002
89	0xbdc67462	-0.09690167
90	0x3dc79cec	0.09746727
91	0xbce50662	-0.027957145
92	0x3c0854e2	0.008321019
93	0x3cbcde59	0.023055242
94	0x3b9cd93c	0.0047866385
95	0x3d46fb9d	0.0485798
96	0x3e4ab3f8	0.19795215
97	0x3e7dcda7	0.24785481
98	0x3dcc5e8b	0.0997897
99	0x3bd43320	0.006475821
100	0xbd95ec83	-0.07320502
101	0x3e155539	0.14583291
102	0x3e64e5c8	0.2235328
103	0xbd8dc780	-0.06922817
104	0xbd815b92	-0.06316294
105	0xbdba7285	-0.09103874
106	0xbd238498	-0.039921373
107	0xbe1b5324	-0.15168434
108	0xbdcfa2ed	-0.101384975
109	0x3c2ef45e	0.010678379
110	0x3e1be27c	0.15223116
111	0xbcd29124	-0.025703974
112	0x3c8ad30f	0.016946344
113	0x3c93fd2f	0.018065063
114	0xbbd81d94	-0.006595323
115	0xbd60852c	-0.054814503
116	0x3e0c80a4	0.13720948
117	0x3df6fb26	0.120596215
118	0x3d4a26b3	0.049353313
119	0xbd0ed8b1	-0.03487462
120	0xbe1b9821	-0.15194751
121	0xbda9a0df	-0.08282637
122	0xbd33edc4	-0.043927923
123	0x3d762ad8	0.060099453
124	0xbe146e81	-0.14495279
125	0xbe12cda7	-0.14336263
126	0x3e1134bb	0.14180271
127	0xbe3dc328	-0.18531477
128	0xbe0702bd	-0.13184638
129	0x3da1c079	0.07898039
130	0x3dd4fb63	0.10399511
131	0xbde83732	-0.11338653
132	0xbe4300f0	-0.19043326
133	0xbb15bd2b	-0.0022848349
134	0xbdac4fd8	-0.084136665
135	0xbd446e04	-0.04795648
136	0xbd3db255	-0.04631265
137	0x3e01b100	0.12665176
138	0xbe77f78a	-0.24215522
139	0x3dfae5de	0.12250875
140	0x3dcf33a4	0.101172715
141	0xbd9a80e6	-0.07544117
142	0x3d6f1638	0.0583708
143	0xbe4e8d66	-0.20171127
144	0xbea32296	-0.31862324
145	0x3e13a617	0.14418827
146	0x3c938162	0.01800603
147	0x3d138fdb	0.036025863
148	0xbdf04bf1	-0.11733235
149	0x3d367a37	0.044550147
150	0xbbceb22e	-0.006307862
151	0x3e016ca9	0.12639107
152	0xbd8d3683	-0.06895163
153	0x3c9182c4	0.01776255
154	0x3dbcc7d5	0.092178024
155	0xbea47872	-0.32123142
156	0xbda36188	-0.07977587
157	0xbd0b7d54	-0.03405507
158	0x3e0e5496	0.13899454
159	0x3e5c32e7	0.21503793
160	0xbd262641	-0.040563826
161	0xbe385199	-0.17999877
162	0xbda1146c	-0.07865223
163	0xbd9a31fa	-0.075290635
164	0xbdba5e77	-0.09100049
165	0x3d2ebc4c	0.042660043
166	0xbd5ec971	-0.05439133
167	0x3e0b5d02	0.13609698
168	0x3d882145	0.06646971
169	0x3dca91ac	0.09891066
170	0x3d85a1b9	0.06524987
171	0x3d5f6579	0.05454013
172	0x3db30e1b	0.08742925
173	0x3e1ef4c8	0.15523064
174	0xbe1966c3	-0.14980607
175	0x3e171a1e	0.14756057
176	0xbd877763	-0.06614568
177	0x3dda06cd	0.106458284
178	0x3dafab75	0.08577625
179	0x3daba1bd	0.083804585
180	0xbe00edb6	-0.1259068
181	0x3d827de2	0.063716665
182	0x3d9b7a1a	0.075916484
183	0xbdf21003	-0.1181946
184	0xbda7edcc	-0.08199653
185	0x3e2f94ca	0.17146602
186	0x3e50de35	0.20397265
187	0x3d89a588	0.06721026
188	0x3e2d16de	0.16903254
189	0xbd9a403e	-0.075317845
190	0xbe2b3b37	-0.16721807
191	0xbd64da2a	-0.05587212
192	0x3da4f1bc	0.0805392
193	0x3af2521b	0.0018487604
194	0x3d6acbd0	0.057323277
195	0x3c5fb05b	0.013652886
196	0xbcaa8226	-0.020814013
197	0x3b678cf5	0.003533182
198	0x3dc101e4	0.09424189
199	0xbe33394f	-0.1750233
200	0x3e6e95a1	0.23299266
201	0x3d43d13b	0.04780696
202	0x3b2d55e2	0.0026448895
203	0x3deac254	0.114628464
204	0x3dbaa9d5	0.09114424
205	0x3cecd849	0.028911727
206	0xbc343c4c	-0.011000704
207	0x3b3f4974	0.0029188069
208	0xbb9337c7	-0.004492733
209	0x3dd6890d	0.10475359
210	0x3dafdfe6	0.08587627
211	0x3e101281	0.14069559
212	0xbd041a08	-0.032251388
213	0xbbbfae0c	-0.0058496054
214	0xbe12c796	-0.14333948
215	0x3cde6433	0.027147388
216	0xbd97cf21	-0.074125536
217	0x3d5e0d82	0.0542121
218	0xbd0b4a7b	-0.034006577
219	0x3ca4180f	0.020031003
220	0xbdffacea	-0.124841526
221	0xbd882fb1	-0.066497214
222	0x3d909710	0.07060063
223	0x3d450dcd	0.048108865
224	0xbe359d35	-0.17735751
225	0xbe40875f	-0.1880164
226	0xbc495b64	-0.012289856
227	0xbdab220c	-0.08356103
228	0x3c465087	0.01210416
229	0x3e054166	0.13013229
230	0x3e8d54a4	0.27603638
231	0xbe5060a8	-0.20349371
232	0xbcc20f9d	-0.023689086
233	0xbcd70760	-0.026248634
234	0xbe771997	-0.24130856
235	0x3d8698ad	0.06572089
236	0xbdbaa5b2	-0.09113635
237	0x3e115038	0.14190757
238	0x3e1828ea	0.14859357
239	0xbd7fa76d	-0.06241553
240	0x3d6dbc1a	0.058040716
241	0x3cb49864	0.022045322
242	0x3ccbf9f6	0.024899464
243	0x3b5150c1	0.0031939002
244	0xbe00623b	-0.12537472
245	0x3d92c330	0.07166135
246	0xbe6a116f	-0.22858213
247	0x3dc759aa	0.09733899
248	0xbcc9c02d	-0.02462777
249	0x3ae3b134	0.0017371536
250	0x3e599556	0.21248373
251	0xbdcd637a	-0.10028739
252	0x3cc0c9d9	0.023533748
253	0xbe9bcfae	-0.30431885
254	0xbc18998e	-0.009313954
255	0xbd794914	-0.06086071

network_body._body_endoder.seq_layers.6.bias f4 [128]
0	0xbcae43d5	-0.02127258
1	0xbd7acda5	-0.061231274
2	0xbdbd3e0c	-0.0924035
3	0x3c623d62	0.01380858
4	0xbca59461	-0.020212354
5	0xbc30e5c7	-0.010796971
6	0xbdc2874a	-0.094984606
7	0x3d760771	0.06006569
8	0x3c0b1b2a	0.008490363
9	0xbe0a28a9	-0.13492073
10	0xbda30e20	-0.079616785
11	0xbc76660d	-0.015038979
12	0xbd105c9e	-0.035244577
13	0xbe0b1ffa	-0.13586417
14	0xbda1fc99	-0.07909507
15	0xbdc4b39d	-0.09604571
16	0xbdbc0f73	-0.09182634
17	0x3d4b7124	0.049668446
18	0xbd8b1de1	-0.06792808
19	0xbcfdfe64	-0.031005092
20	0xbcc8aaea	-0.02449556
21	0xbd7a933e	-0.061175577
22	0x3d4989ca	0.04920367
23	0xbdd19d11	-0.10235036
24	0x3cf294f2	0.029612038
25	0xbc30e2a2	-0.010796221
26	0xbe081641	-0.13289739
27	0xbd8e8f10	-0.06960881
28	0xbd008bc1	-0.03138328
29	0xbd4f0029	-0.050537262
30	0xbd7b222b	-0.061311882
31	0xbd34958d	-0.044087935
32	0xbd6080a6	-0.05481019
33	0x3ca98c5d	0.020696813
34	0xbcfd43e0	-0.030916154
35	0xbd79df1f	-0.0610038
36	0x3cd9381e	0.026516017
37	0xbde86680	-0.11347675
38	0xbcfa8952	-0.030583058
39	0xbb6de5a9	-0.0036300218
40	0xbb1031f6	-0.0022002435
41	0xbdc29ff4	-0.09503165
42	0x3c866121	0.016403737
43	0x3c79929d	0.015232709
44	0xbc96cb57	-0.018407507
45	0xbd711cc7	-0.058865335
46	0x3b7ac42a	0.0038263896
47	0xbe2fa158	-0.17151392
48	0xbd52c115	-0.05145367
49	0xbdc1a23a	-0.094547704
50	0x3ca98456	0.020692986
51	0x3d0e19a4	0.03469242
52	0x3d7d763d	0.06188034
53	0xbdac9dc2	-0.084285274
54	0x3a4aca7e	0.0007735862
55	0x3dc0a48e	0.09406386
56	0x3b4eadb5	0.0031536643
57	0x3dad84f9	0.08472628
58	0x3e0dff18	0.13866842
59	0xbd8aa141	-0.06769038
60	0x3d0d6313	0.034518313
61	0xbe0a0814	-0.13479644
62	0xbe40edcb	-0.18840711
63	0xbb1134c4	-0.0022156695
64	0xbdb20c25	-0.08693723
65	0xbb426482	-0.0029661958
66	0x3c4002f1	0.011719451
67	0x3d810f3c	0.06301734
68	0x3cc07f66	0.023498248
69	0xbd99e17a	-0.07513709
70	0xbd7c4387	-0.061587837
71	0xbd4e7308	-0.05040267
72	0xbd955828	-0.07292205
73	0xbdbb8abb	-0.0915732
74	0xbd0d782f	-0.034538444
75	0xbd79de7a	-0.061003186
76	0x3d821aee	0.06352793
77	0xbd9f8fd2	-0.077911034
78	0xbdf71208	-0.12063986
79	0x3c9630de	0.018333849
80	0x3cbb3449	0.02285208
81	0xbcb0f6b9	-0.021602022
82	0x3d4289f9	0.047494862
83	0x3a529157	0.00080325216
84	0x3dc45885	0.09587196
85	0xbc2fe27e	-0.010735152
86	0xbdd86b17	-0.10567301
87	0x3c84f53a	0.016230214
88	0xbd9c1e84	-0.07623008
89	0x3c78e33e	0.0151908975
90	0xbd207bf7	-0.039180722
91	0xbd1cad9f	-0.038251515
92	0xbac879f8	-0.0015295139
93	0xbc936fd6	-0.017997663
94	0x3d8e47c1	0.0694728
95	0xbda71365	-0.08157996
96	0xbccacba6	-0.02475531
97	0xbd364d3a	-0.044507243
98	0xbd63bffd	-0.055603016
99	0x3dabd32c	0.08389887
100	0xbcc65b23	-0.02421338
101	0xbd45d560	-0.048299193
102	0x3dba9a70	0.09111488
103	0x3d777cb1	0.06042165
104	0xbc31de25	-0.010856186
105	0x3d8adcb6	0.067803785
106	0xbcf5041e	-0.02990919
107	0xbe0ffdae	-0.14061615
108	0xbd3411b2	-0.043962188
109	0xbd848c65	-0.06472091
110	0x3dce36e6	0.10069065
111	0xbcd18ad2	-0.02557889
112	0x3ce97e93	0.028502738
113	0x3cdc2016	0.026870769
114	0x3d4baf03	0.04972745
115	0xbd6fdfd8	-0.058563083
116	0xbd4a8f0e	-0.049452834
117	0xbdbe1276	-0.09280865
118	0x3b53a7fc	0.0032296171
119	0xbde151ca	-0.11001928
120	0xbdd37183	-0.10324385
121	0xbc991621	-0.01868731
122	0xbcc4acce	-0.024008181
123	0xbdad296a	-0.08455165
124	0xbd13d2e3	-0.03608979
125	0xbdcae437	-0.0990681
126	0xbd65b09b	-0.056076627
127	0xbc66a85a	-0.014078224

network_body._body_endoder.seq_layers.6.weight f4 [128, 128]
0	0x3e656c02	0.22404483
1	0xbdf03a13	-0.11729827
2	0x3d10e5b0	0.035375297
3	0xbd0ce842	-0.034401186
4	0xbe5649c8	-0.20926583
5	0x3e2dfed9	0.16991748
6	0xbe9e4a3c	-0.3091601
7	0xbd4db60a	-0.050222434
8	0x3dad412d	0.08459697
9	0xbd7993c6	-0.060931943
10	0xbd62ca41	-0.055368666
11	0x3d55ec90	0.052227557
12	0xbe1191d0	-0.1421578
13	0x3c03b06c	0.008037668
14	0xbc400649	-0.0117202485
15	0x3ce15db7	0.027510507
16	0xbe0484d0	-0.12941289
17	0xbe84cf53	-0.25939426
18	0xbdf0bbdf	-0.117545836
19	0xbe034220	-0.12818193
20	0x3c7b529d	0.015339521
21	0x3d26df65	0.04074039
22	0xbdf10621	-0.11768747
23	0xbe3d2504	-0.18471152
24	0x3dc1ac62	0.094567075
25	0xbd2c8432	-0.04211826
26	0xbd8a82e1	-0.067632444
27	0xbe07f10f	-0.1327555
28	0xbd643f27	-0.05572429
29	0x3d2f2c69	0.042766962
30	0x3cbf0a92	0.02332047
31	0xbced3da4	-0.028960057
32	0xbcd992d0	-0.026559263
33	0xbccaa897	-0.024738593
34	0xbe1617f3	-0.14657573
35	0x3e6d4328	0.2317015
36	0xbde63b4d	-0.112417795
37	0x3df66b58	0.12032193
38	0xbd3891d8	-0.045060962
39	0xbe142960	-0.14468908
40	0xbeb66b60	-0.35628796
41	0xbbd92414	-0.0066266153
42	0xbcf2e28d	-0.029649043
43	0xba3fc101	-0.00073148316
44	0xbd8d035a	-0.06885405
45	0x3db2eb82	0.08736326
46	0xbdd310cf	-0.1030594
47	0xbd82b6dc	-0.06382534
48	0xbe1e8d92	-0.15483692
49	0x3dbfbebb	0.09362551
50	0xbe52cf7a	-0.20586959
51	0x3defa9ce	0.117023095
52	0xbe9bc297	-0.30421898
53	0xbd83735f	-0.0641849
54	0xbdc17d21	-0.094476946
55	0xbdd6efa2	-0.10494925
56	0xbd50e3a6	-0.050998352
57	0x3ddf2101	0.10894967
58	0x3d5ceb2b	0.05393521
59	0x3d8201db	0.0634801
60	0xbe1ff54c	-0.15620917
61	0xbe0c1bb6	-0.13682446
62	0xbe4f4d71	-0.20244385
63	0xbe5b3275	-0.21405967
64	0xbb4ba719	-0.003107494
65	0xbd8e8842	-0.06959583
66	0x3d6776f2	0.05650992
67	0xbcc6147a	-0.024179686
68	0xbeb734b5	-0.357824
69	0xbd98fbb0	-0.074698806
70	0xbc26ceb8	-0.0101811215
71	0xbd92a7d1	-0.07160915
72	0xbac2baa6	-0.0014856651
73	0x3e08a93a	0.13345805
74	0xbdbf4a9d	-0.09340403
75	0x3c497515	0.012295981
76	0x3de6dcec	0.11272606
77	0xbe926293	-0.2859083
78	0xbdd1f07e	-0.10250948
79	0xbe3b564e	-0.18294641
80	0xbe651ebb	-0.22375004
81	0x3ba751a2	0.005106167
82	0xbd72ca6f	-0.059275087
83	0x3d54ca24	0.05195059
84	0xbe22a72b	-0.15884082
85	0x3d3736a2	0.044729836
86	0x3dee903c	0.11648604
87	0xbd40aedd	-0.047041763
88	0xbdd78f63	-0.10525396
89	0xbd7ff150	-0.062485993
90	0xbe19bf21	-0.15014316
91	0x3df08542	0.11744167
92	0xbe1c9ee9	-0.15294994
93	0xbcc00ea8	-0.023444489
94	0xbe60302e	-0.21893379
95	0x3ec93b9e	0.39303297
96	0xbec88c0f	-0.39169356
97	0x3cb3c88f	0.02194622
98	0xbc862327	-0.016374184
99	0xbe740c14	-0.23832732
100	0xbea640d9	-0.3247135
101	0xbb130f98	-0.0022439715
102	0xbeac7cbc	-0.33688915
103	0xbe2078e5	-0.15671118
104	0xbd172e5e	-0.036909454
105	0x3e4c8771	0.19973542
106	0x3e0c94bd	0.13728614
107	0xbdcf3cc5	-0.10119013
108	0xbdb7368c	-0.08945951
109	0xbd56751a	-0.05235777
110	0xbe682a8e	-0.22672483
111	0x3e13619c	0.14392704
112	0xbe706356	-0.23475394
113	0x3aec517a	0.0018029653
114	0xbe00cc5f	-0.12577961
115	0x3e4843d3	0.19557123
116	0xbd8fb44c	-0.07016811
117	0x3e3ef019	0.18646277
118	0xbc9a0ab0	-0.018803924
119	0xbe129fa1	-0.14318706
120	0xbd67a6cc	-0.056555554
121	0x3eb99bcb	0.36251673
122	0xbe708715	-0.2348903
123	0xbdfd5cad	-0.12371192
124	0xbea3fc27	-0.32028314
125	0xbd17ed39	-0.037091468
126	0x3c8bfec8	0.017089263
127	0x3e139693	0.14412908
128	0x3d872639	0.06599087
129	0xbdb2f21c	-0.08737585
130	0xbdf6bf88	-0.120482504
131	0x3dc3fc46	0.09569602
132	0xbdf4def6	-0.11956589
133	0xbe3326a3	-0.17495207
134	0xbe8a69fd	-0.27033988
135	0xbe3a27be	-0.18179223
136	0x3dfb6db3	0.12276783
137	0xbcf75949	-0.030193942
138	0x3c595b17	0.013266346
139	0xbd608fe6	-0.054824732
140	0xbe1f1374	-0.15534765
141	0x3db86d7a	0.09005256
142	0xbe32698c	-0.17423075
143	0x3c8fc09e	0.017547902
144	0x3b881c78	0.0041537844
145	0x3993102c	0.00028050074
146	0xbd8a34d1	-0.06748355
147	0xbe56042d	-0.2090003
148	0xbd1fc80b	-0.039009135
149	0x3dae9304	0.08524135
150	0x3e0f42fa	0.13990393
151	0xbcc468b8	-0.023975715
152	0x3e14670e	0.14492437
153	0xbcc994f0	-0.024607152
154	0xbd9a8935	-0.075457014
155	0xbdf3db79	-0.119070955
156	0x3c970562	0.018435184
157	0x3d9414f9	0.07230563
158	0x3e86e0c8	0.2634337
159	0xbec888b1	-0.39166787
160	0xbe090450	-0.13380551
161	0xbdce65ae	-0.100779876
162	0x3c8b8058	0.017028973
163	0x3db1a389	0.0867377
164	0x3b9d90be	0.0048085144
165	0x3cfa54fd	0.030558104
166	0xbe8f26ab	-0.2795919
167	0xbd44c245	-0.048036832
168	0x3d2e010f	0.04248148
169	0xbd5b433c	-0.053530917
170	0x3c851487	0.01624514
171	0xbd656554	-0.056004837
172	0x3d1a6053	0.03768952
173	0x3bc2cce2	0.005944834
174	0xbd7935fb	-0.060842495
175	0xbe1987df	-0.14993237
176	0xbe3b0006	-0.18261728
177	0xba966659	-0.0011474594
178	0xbe287753	-0.16451769
179	0x3de53205	0.11191181
180	0xbe042f39	-0.12908639
181	0xbe81f42c	-0.253816
182	0x3da403fc	0.080085725
183	0x3dfc88b7	0.12330764
184	0xbdc0b82f	-0.0941013
185	0x3e4943ec	0.19654816
186	0xbe11f554	-0.14253742
187	0xbcb039b5	-0.021511892
188	0x3d571a85	0.052515525
189	0x3d9bbf54	0.07604852
190	0xbbc0c606	-0.0058829812
191	0x3e042616	0.12905154
192	0x3e1452a8	0.14484656
193	0xbdf74e4d	-0.120754816
194	0xbd854a11	-0.06508268
195	0xbd6c3948	-0.057671815
196	0x3b5290e0	0.003212981
197	0xbd8d0445	-0.0688558
198	0xbdadfa78	-0.08495039
199	0xbdc34252	-0.09534134
200	0x3dfeeee0	0.124479055
201	0xbd9789a6	-0.07399301
202	0xbe1dff9d	-0.1542954
203	0xbce4f3bf	-0.027948258
204	0x3d5712a9	0.05250803
205	0xbe20e451	-0.15712096
206	0xbe670207	-0.22559367
207	0xbe59214c	-0.21204108
208	0xbe3d784b	-0.1850292
209	0x3d0a0e74	0.03370519
210	0xbdce5fb6	-0.10076849
211	0xbd966ba6	-0.07344751
212	0xbd3f4b02	-0.046702392
213	0xbcb709f2	-0.02234361
214	0x3e77ff0d	0.24218388
215	0xbe8df13c	-0.2772311
216	0xbde274bd	-0.11057422
217	0xbdb7b77c	-0.08970544
218	0xbd8e6345	-0.06952528
219	0xbdb999fc	-0.09062573
220	0x3c8032fd	0.015649313
221	0xbd89ce29	-0.06728775
222	0x3d8a21cd	0.06744728
223	0x3e71513d	0.23566146
224	0xbe1f0857	-0.15530525
225	0xbe359875	-0.17733939
226	0x3e0fdd81	0.14049341
227	0xbe30ed2c	-0.17277974
228	0xbd73fad9	-0.0595654
229	0x3e044501	0.12916948
230	0xbe1f18a4	-0.15536743
231	0x3d86bce9	0.065790005
232	0x3e3d69b7	0.18497358
233	0x3e074d02	0.1321297
234	0x3e2d99f7	0.16953264
235	0x3e416e46	0.18889722
236	0xbe240fc9	-0.16021647
237	0xbcdc942f	-0.026926128
238	0x3d3967ce	0.04526501
239	0x3e08c781	0.13357355
240	0xbdc4ec0b	-0.09615334
241	0xbdd57d06	-0.10424237
242	0x3d3ae963	0.04563273
243	0x3ca41a39	0.020032035
244	0xbd903f53	-0.07043328
245	0x3d90a45b	0.07062598
246	0xbe0f66b3	-0.1400402
247	0xbd3ec9df	-0.046579238
248	0xbe3bf10a	-0.18353668
249	0x3e224c6b	0.15849464
250	0xbce1d2c5	-0.027566323
251	0xbed990d2	-0.42493302
252	0x3d1fe367	0.039035227
253	0xbd99de03	-0.075130485
254	0x3d61f373	0.055163812
255	0xbd1d5db2	-0.038419433

network_body._body_endoder.seq_layers.8.bias f4 [128]
0	0xbe1d059c	-0.15334171
1	0xbe3f5746	-0.18685636
2	0xbd8cca49	-0.0687452
3	0xbe1d18d0	-0.15341496
4	0xbd00bb7f	-0.03142881
5	0xbc957982	-0.018246416
6	0xbdfb5c27	-0.12273436
7	0x3d6c0f3f	0.057631727
8	0x3bb4dfde	0.005519851
9	0x3bfd3b83	0.0077280416
10	0x3d54dff5	0.051971395
11	0xbd299039	-0.041397307
12	0x3be8618f	0.007091708
13	0xbd33d05c	-0.04389988
14	0x3cb92faf	0.022605745
15	0xbc51e695	-0.012811323
16	0xbd1176c5	-0.035513658
17	0xbd12b282	-0.03581477
18	0x3d822474	0.06354609
19	0xbe01773d	-0.12643142
20	0xbcf9762d	-0.030451858
21	0xbcdd180c	-0.026989006
22	0xbc71a90d	-0.0147497775
23	0xbd24fd7d	-0.040280808
24	0xbd7445ba	-0.05963681
25	0xbcc74915	-0.02432684
26	0xbd87a369	-0.06622965
27	0xbd910f36	-0.070829794
28	0xbc4947aa	-0.012285152
29	0xbd19bd0a	-0.037533797
30	0xbd2e019c	-0.042482004
31	0x3cd1f600	0.025629997
32	0xbd62ca07	-0.05536845
33	0xbdd37b52	-0.10326256
34	0xbcaeb768	-0.02132769
35	0xbd3bab90	-0.04581791
36	0x38b17f4b	8.463728e-05
37	0xbc7fd287	-0.0156141585
38	0xbd5e72c3	-0.054308664
39	0xbc9dbd49	-0.019255297
40	0xbd53b229	-0.05168358
41	0xbe0478b2	-0.12936667
42	0xbbd56f60	-0.006513521
43	0xbc095992	-0.008383172
44	0x3c082036	0.008308461
45	0x3beb011a	0.007171762
46	0xbe0f7f0b	-0.14013307
47	0xbb4e8646	-0.0031513139
48	0xbd7b0459	-0.061283443
49	0xbd06e353	-0.032931637
50	0xbda7ed20	-0.08199525
51	0xbd278f8e	-0.04090839
52	0xbcdb48f8	-0.026768193
53	0xbd7e23a0	-0.062045693
54	0x3ddbd3f4	0.10733786
55	0x3cece390	0.028917104
56	0xbd2f7d77	-0.042844262
57	0xbd197679	-0.0374665
58	0x3be12138	0.006870415
59	0xbd1ff6c4	-0.039053693
60	0x3c4fff9d	0.01269522
61	0xbcb5f454	-0.022211231
62	0xbdd16212	-0.102237836
63	0xbd1dc849	-0.038521085
64	0xbd192bd0	-0.0373953
65	0x3d21c05d	0.039490093
66	0xbcad9516	-0.021189254
67	0xbdc5d2d9	-0.096593566
68	0xbc33a5ce	-0.010964824
69	0xbbb1050a	-0.005402212
70	0xbdf5e86f	-0.12007224
71	0x3ae0dd7d	0.0017155852
72	0xbd176c80	-0.036968708
73	0xbc3ebdbb	-0.011641915
74	0x3cb7fca6	0.02245934
75	0xbd07772f	-0.033072647
76	0xbd4fbd83	-0.05071784
77	0x3dd4311a	0.10360928
78	0xbe02ed3a	-0.12785807
79	0xbdca3251	-0.09872878
80	0xbc90cb90	-0.017675191
81	0x3d6434ef	0.055714544
82	0x3b95095a	0.004548234
83	0xbdb7d959	-0.08977003
84	0xbd745355	-0.059649784
85	0x3d497788	0.04918626
86	0xbde6e843	-0.11274769
87	0xbd7a3801	-0.061088566
88	0xbd161e0e	-0.036649756
89	0xbc95c029	-0.018280106
90	0x3ca7eca3	0.02049858
91	0xbd3d337e	-0.046191685
92	0x3db6cd84	0.08925918
93	0x3b03e98e	0.0020128223
94	0xbd22c78f	-0.039741095
95	0xbd9310e1	-0.07180954
96	0xbcd711ad	-0.026253546
97	0x3c9ec101	0.01937914
98	0x3ca37b7c	0.019956343
99	0xbe061ae0	-0.1309619
100	0xbc0a5664	-0.008443449
101	0xbdb541b9	-0.08850426
102	0xbdd2686c	-0.10273823
103	0xbe13328a	-0.14374748
104	0xbd05973f	-0.032614943
105	0xbd44fe80	-0.048094273
106	0xbd5871db	-0.052842956
107	0x3b10dfc1	0.0022106024
108	0x3d163a4b	0.036676686
109	0xbdac7560	-0.08420825
110	0xbdd0570a	-0.101728514
111	0xbd9b2c9f	-0.0757687
112	0xbd6eb0a6	-0.058273934
113	0xbcbe1434	-0.023202993
114	0xbcb8cda7	-0.022559
115	0xbd81dc52	-0.06340851
116	0x3bde5c21	0.006785885
117	0xbe228fa7	-0.15875112
118	0xbdb324e4	-0.08747271
119	0xbca44421	-0.020052018
120	0x3bd50858	0.006501239
121	0xbbfc064a	-0.0076911794
122	0xbcd3c015	-0.025848428
123	0xbd84bf80	-0.06481838
124	0xba91c5ee	-0.001112161
125	0x3b99f079	0.004697856
126	0xbd98d96f	-0.07463347
127	0x3d01c106	0.031678222
