results/ppo/My Behavior/My Behavior-22519028.onnx (onnx, 269768 bytes, 11 tensors)

action_model._continuous_distribution.mu.weight f4 [1, 128]
0.082579225 -0.025036782 0.023362216 -0.039389063 -0.013166905 -0.011420414 0.031792607 0.030385934
0.039428085 0.099980935 0.03910294 0.04974984 0.06352204 0.10903671 0.025970848 0.063449115
0.0567177 0.06399313 0.008267168 0.03820361 0.057594493 0.025141243 0.009883485 0.028580178
0.019862326 0.016681926 0.09812267 0.016937384 0.0072236396 0.0010981063 0.07620367 -0.0046909293
0.06660034 -0.0021924113 -0.039488144 0.030200515 0.037541512 0.036223117 0.04700992 0.015695464
0.051544826 0.057573948 0.109900236 0.005340548 0.052937783 0.016605537 0.020425169 -0.009088027
0.0046585947 0.01628732 0.08955608 0.0818767 0.07595261 0.025252126 -0.051678322 0.0445982
0.087074704 0.02770399 -0.027522031 0.064429946 0.028859269 0.041810937 0.003680499 -0.05806839
0.054169513 0.047698375 0.05732701 0.03829851 0.03375293 -0.017284421 -0.05155717 0.019168079
0.09312475 -0.00033089743 -0.012086491 0.02707333 -0.06794357 -0.002683117 0.02017762 -0.008342566
0.021649692 -0.021426484 0.015091946 0.015663005 0.032504622 -0.023146456 0.0023272377 0.09960831
0.020300603 0.05223269 0.015557362 0.027826348 0.045029175 -0.00011721419 0.032154564 -0.031034088
0.03298281 0.06862219 0.016940808 0.090887755 0.025273595 0.06301191 0.04576939 0.088370435
0.046466827 0.05467997 0.02070958 -0.04620938 0.0039007019 -0.045521844 0.03756183 0.04387461
0.0659989 0.08684114 0.016817868 0.05130431 0.043907072 0.049600936 -0.0146830315 -0.028436484
0.004046213 0.04433376 0.02567145 0.025952378 0.028003743 0.052851703 0.0454608 0.06369722
00000000: 4c1f a93d f019 cdbc 1e62 bf3c 6d56 21bd
00000010: 01ba 57bc b01c 3bbc f738 023d eceb f83c
00000020: 587f 213d cec2 cc3d 682a 203d 7dc6 4b3d
00000030: d817 823d a34e df3d d1c0 d43c 9cf1 813d
00000040: d250 683d d50e 833d 0473 073c 637b 1c3d
00000050: 34e8 6b3d 02f5 cd3c 57ee 213c fa20 ea3c
00000060: 51b6 a23c 89a8 883c 8af4 c83d 45c0 8a3c
00000070: 48b4 ec3b 55ee 8f3a ab10 9c3d 5eb6 99bb
00000080: c265 883d 8fae 0fbb 52be 21bd 1267 f73c
00000090: 21c5 193d b15e 143d 798d 403d c693 803c
000000a0: ab20 533d a9d2 6b3d 6013 e13d c4ff ae3b
000000b0: 4ad5 583d 5608 883c af52 a73c f3e5 14bc
000000c0: 20a7 983b fc6c 853c 2e69 b73d f9ae a73d
000000d0: 0b8d 9b3d 8cdd ce3c a6ac 53bd 9aac 363d
000000e0: 3954 b23d 7af3 e23c e275 e1bc d9f3 833d
000000f0: 466a ec3c f241 2b3d 8734 713b 1fd9 6dbd
00000100: dae0 5d3d 5f5f 433d bacf 6a3d e6de 1c3d
00000110: 8340 0a3d 0f98 8dbc 9c2d 53bd 6006 9d3c
00000120: 30b8 be3d 4d7c adb9 6b06 46bc e3c8 dd3c
00000130: 0026 8bbd 3cd7 2fbb 894b a53c 42af 08bc
00000140: b25a b13c 9886 afbc 3644 773c b44f 803c
00000150: 9123 053d a39d bdbc 9284 183b 71ff cb3d
00000160: 734d a63c f2f1 553d 4ee4 7e3c 15f4 e33c
00000170: 8370 383d e4d0 f5b8 81b4 033d 333b febc
00000180: fc18 073d ca89 8c3d 73c7 8a3c 5c23 ba3d
00000190: 920a cf3c 630c 813d af78 3b3d 8ffb b43d
000001a0: 0054 3e3d 1bf8 5f3d 23a7 a93c 0c46 3dbd
000001b0: eba2 7f3b 1d75 3abd 6fda 193d ddb5 333d
000001c0: 6e2a 873d c5d9 b13d a0c5 893c 7824 523d
000001d0: e7d7 333d 5a2a 4b3d 1991 70bc a1f3 e8bc
000001e0: 1896 843b 5197 353d ef4c d23c 159a d43c
000001f0: 1b68 e53c 077b 583d 1b35 3a3d b073 823d

network_body._body_endoder.seq_layers.0.bias f4 [128]
-0.00852762 -0.04984275 -0.14219163 -0.061973736 -0.09453584 0.016864417 -0.049342345 -0.0063444
-0.041167073 -0.10299329 -0.081538275 -0.13034965 -0.14774458 -0.058945514 -0.09849605 -0.01711909
0.008906387 -0.028840821 -0.00013287859 0.011431806 -0.10347528 -0.17534862 -0.09997095 -0.08482274
0.015664449 -0.08186717 -0.07792664 -0.20996548 -0.06767035 -0.10399783 -0.20180666 -0.1310807
-0.021830173 -0.00815956 0.009335678 -0.0969007 -0.07621542 -0.04117713 -0.12265752 -0.114561066
-0.0067151766 -0.054598793 -0.12218767 -0.09098786 -0.043874152 -0.07966828 -0.043446984 0.054642305
0.03137448 -0.006431851 -0.06902312 -0.039268296 0.026457878 -0.01857213 -0.14782974 -0.1138826
-0.017076325 -0.061138738 -0.14364521 0.015966196 -0.017619805 0.019680921 -0.058818273 -0.00051323435
-0.088529155 -0.010440699 -0.1219507 -0.06233505 -0.047626145 -0.053016808 -0.047306836 -0.15925823
0.023423338 -0.09584297 -0.067015074 -0.02902521 -0.11103761 -0.14652248 -0.06533638 -0.13774528
-0.082647406 -0.06518631 0.011941107 -0.049311418 -0.078547955 -0.03120356 -0.031623576 0.008270469
-0.1411906 -0.11532437 -0.0958942 -0.13760811 -0.04757651 -0.06485345 0.006877024 -0.03417546
-0.059988663 -0.10987294 -0.075889386 -0.029094795 -0.11419104 -0.07368645 -0.07025504 -0.114724554
-0.0007520672 -0.18480377 -0.12100402 -0.09127253 -0.10750083 -0.019877184 -0.07135299 -0.06648186
-0.12487248 -0.08584874 -0.12508588 -0.11557872 -0.08201783 0.052723132 -0.08220569 -0.04105868
-0.083637536 -0.096933305 -0.109972216 -0.14257917 -0.010861245 -0.03135045 -0.11744836 -0.15421548
00000000: 6eb7 0bbc e927 4cbd af9a 11be 2cd8 7dbd
00000010: 029c c1bd 3f27 8a3c 331b 4abd afe4 cfbb
00000020: ce9e 28bd 25ee d2bd 8afd a6bd 617a 05be
00000030: 5b4a 17be da70 71bd 4cb8 c9bd 553d 8cbc
00000040: 18ec 113c 9643 ecbc 5355 0bb9 784c 3b3c
00000050: d9ea d3bd 978e 33be 92bd ccbd 8bb7 adbd
00000060: bb52 803c faa9 a7bd 0198 9fbd 3101 57be
00000070: c196 8abd d0fc d4bd 68a6 4ebe 053a 06be
00000080: 31d5 b2bc adaf 05bc acf4 183c e073 c6bd
00000090: d516 9cbd 5aa9 28bd de33 fbbd fe9e eabd
000000a0: fc0a dcbb fca2 5fbd 873d fabd d857 babd
000000b0: 62b5 33bd 2029 a3bd 77f5 31bd 9cd0 5f3d
000000c0: 8782 003d 47c2 d2bb fe5b 8dbd cbd7 20bd
000000d0: 31be d83c 9424 98bc ae60 17be 483b e9bd
000000e0: a6e3 8bbc 9d6c 7abd bb17 13be 8acb 823c
000000f0: 6957 90bc e239 a13c 6eeb 70bd 938a 06ba
00000100: c64e b5bd 770f 2bbc 4ac1 f9bd 0a53 7fbd
00000110: a213 43bd 2728 59bd d0c4 41bd 9714 23be
00000120: 4de2 bf3c 5249 c4bd 333f 89bd 47c6 edbc
00000130: b067 e3bd fd09 16be 14cf 85bd 190d 0dbe
00000140: 0b43 a9bd 6680 85bd a2a4 433c c5fa 49bd
00000150: c0dd a0bd 9c9e ffbc b987 01bd dc80 073c
00000160: 4594 10be 2f2f ecbd 2e64 c4bd 24e9 0cbe
00000170: 96df 42bd e3d1 84bd a958 e13b 91fb 0bbd
00000180: acb6 75bd 1005 e1bd e56b 9bbd 3558 eebc
00000190: fedc e9bd ece8 96bd e0e1 8fbd b5f4 eabd
000001a0: 6026 45ba 333d 3dbe f5d0 f7bd 18ed babd
000001b0: 6529 dcbd 7ad5 a2bc 8421 92bd a427 88bd
000001c0: 25bd ffbd 77d1 afbd 8316 00be 89b4 ecbd
000001d0: f7f8 a7bd 36f4 573d 755b a8bd 252d 28bd
000001e0: 284a abbd f884 c6bd 1d39 e1bd 4600 12be
000001f0: 5df3 31bc 5469 00bd c488 f0bd aaea 1dbe

network_body._body_endoder.seq_layers.0.weight f4 [128, 3]
-0.011939668 0.87192863 -0.15606266 0.107085705 0.25127476 -0.25385928 0.054776758 -0.21229467
-0.13945018 0.42281017 -0.08128964 0.122392446 -0.17562555 -0.40648863 -0.51897335 0.17139038
0.71020895 0.058116317 -0.06775026 0.26697424 0.011925132 0.18040194 0.5160115 0.033129092
0.4025712 -0.47720128 -0.020743554 -0.26438004 -0.48545304 0.3055473 -0.75216603 -0.13674599
-0.37285644 0.22437774 -0.9536115 0.1954643 -1.0816256 0.006145952 -0.07454353 0.018508907
0.009050971 0.19993874 -0.015649382 -0.055976626 0.36323452 0.8704529 -0.80238277 0.13965614
0.015850581 0.83070487 -0.1079147 0.022989715 0.015283988 0.9316603 -0.26877722 0.479127
-1.5643295 0.16008037 0.8139393 -0.09410942 0.014390547 0.08193558 -0.07843689 0.0004885758
-0.16747397 -1.000233 -0.49479032 -0.9005187 0.080369554 -0.7912004 -0.059355184 0.3551482
1.0210795 -1.1192535 0.83808154 0.16522081 0.39656734 -0.11787842 -0.4723301 0.7962766
-0.7280837 -0.4810505 -0.5214922 0.40129036 0.4623497 0.3709282 -0.008836575 -0.24746302
-0.6004683 -0.31128088 -0.53880906 -0.64824 0.2136015 0.06038665 -0.3261853 -0.501827
0.5291545 -0.19576806 -0.6806633 0.8862266 0.5613322 -0.4287792 0.2869158 -0.554815
-0.67579395 0.010430945 -0.16866727 0.48885667 0.22726433 0.24108534 0.6839913 -0.019717839
-0.0006532931 0.20917499 -0.8252148 0.027443562 -0.32310498 -0.76554143 -1.2547275 0.35690162
0.15773849 1.3420876 -1.0821916 -0.038946435 -0.26322627 0.6321739 -0.1156715 -0.21606566
-0.16517098 0.3166519 -0.799912 -0.059258785 0.1590924 -0.7749264 0.26422408 0.4338489
0.48318666 0.20536475 0.3205493 -0.07503289 0.4599066 -0.03163412 0.3648507 -2.1871083
-0.10823501 0.7928896 0.18736695 -0.13605788 0.26280573 -0.982181 -0.75496566 0.25098374
-0.7530622 0.30485356 -0.08550125 -0.9792134 0.15231246 0.76318884 -0.7560691 0.52753866
0.9354861 0.08505919 0.059449486 -1.009013 -0.84830356 -0.45404148 -0.022158865 -0.95688057
0.7124496 -0.17731075 -0.17411372 0.07697752 -0.93874073 0.27423203 -0.031154465 -0.4053208
-0.717379 0.58988893 -0.27231175 -0.19221051 -0.2313575 0.73639184 0.577731 0.6578798
0.35354877 -0.23668537 0.29104707 -0.10836703 -0.9972437 0.29300413 -0.32919493 -0.032391228
-0.42278868 0.13435328 -0.40908185 0.04003513 0.13956356 0.2655414 0.61301893 -0.24583022
-0.55808777 0.49110985 0.3541556 -0.48440164 0.29386133 0.4332569 -0.007867242 -0.485204
0.66517836 -0.5164066 -0.6636322 1.2394274 -0.2524573 -0.2898359 0.11605282 0.3697749
-0.3225631 0.57051843 0.48017505 1.00078 -0.6910905 1.3084621 -0.6418132 -0.26128155
-0.45008042 0.07604798 0.19568029 -0.15184171 -1.2251974 0.043848768 0.0915914 -0.26034775
-0.5136436 0.09818601 -1.0317464 -0.041527327 -0.0918543 -0.19684632 -0.78738135 0.030699885
-1.3668554 -0.7896144 0.60855377 0.1618686 -0.53993344 -0.3654744 0.5351744 0.45014378
0.2583307 0.18606472 -0.39027616 -0.37195957 -0.226872 0.38788652 0.9576499 0.7594335
00000000: 999e 43bc b736 5f3f e4ce 1fbe c04f db3d
00000010: 16a7 803e d8f9 81be 985d 603d c663 59be
00000020: 07cc 0ebe 937a d83e 2f7b a6bd e4a8 fa3d
00000030: 2fd7 33be 471f d0be 70db 04bf f680 2f3e
00000040: 41d0 353f 600b 6e3d a6c0 8abd d9b0 883e
00000050: a161 433c 49bb 383e 5419 043f 5fb2 073d
00000060: d01d ce3e ba53 f4be 63ee a9bc d25c 87be
00000070: 4d8d f8be b270 9c3e f48d 40bf 2407 0cbe
00000080: 0ae7 bebe 47c3 653e e21f 74bf cb27 483e
00000090: b572 8abf fb63 c93b 47aa 98bd fe9f 973c
000000a0: 864a 143c bebc 4c3e 2233 80bc bf47 65bd
000000b0: e0f9 b93e 00d6 5e3f f568 4dbf 0502 0f3e
000000c0: 14d9 813c 13a9 543f 6202 ddbd ed54 bc3c
000000d0: b169 7a3c 4a81 6e3f 2b9d 89be 2250 f53e
000000e0: f33b c8bf 1cec 233e 535e 503f 71bc c0bd
000000f0: 54c6 6b3c d7cd a73d 85a3 a0bd c413 003a
00000100: 4c7e 2bbe a307 80bf 2855 fdbe 6588 66bf
00000110: cb98 a43d 1c8c 4abf 6c1e 73bd fcd5 b53e
00000120: bcb2 823f b343 8fbf 838c 563f a52f 293e
00000130: e00a cb3e 3e6a f1bd 40d5 f1be c9d8 4b3f
00000140: b263 3abf 404c f6be 8380 05bf ee75 cd3e
00000150: 1ab9 ec3e 4dea bd3e 48c7 10bc f266 7dbe
00000160: 4ab8 19bf 3560 9fbe 64ef 09bf 0ef3 25bf
00000170: 5aba 5a3e fe57 773d c201 a7be bc77 00bf
00000180: ab76 073f 6c77 48be f33f 2ebf bfdf 623f
00000190: 78b3 0f3f f388 dbbe a1e6 923e 5b08 0ebf
000001a0: d500 2dbf 8ee6 2a3c 1db7 2cbe 6c4b fa3e
000001b0: fbb7 683e 13df 763e 0e1a 2f3f 4e87 a1bc
000001c0: c241 2bba f831 563e 4741 53bf 52d1 e03c
000001d0: 046e a5be 86fa 43bf e99a a0bf cfbb b63e
000001e0: 3386 213e 87c9 ab3f 4185 8abf 4c86 1fbd
000001f0: 98c5 86be 26d6 213f 2ee5 ecbd 5140 5dbe
00000200: 9522 29be 3320 a23e 08c7 4cbf 57b9 72bd
00000210: 1ee9 223e 9461 46bf 6148 873e 7121 de3e
00000220: 3e64 f73e 234b 523e 0a1f a43e d8aa 99bd
00000230: e178 eb3e c792 01bd b6cd ba3e 95f9 0bc0
00000240: 51aa ddbd d0fa 4a3f 1fdd 3f3e c252 0bbe
00000250: 798e 863e 3770 7bbf 6e45 41bf f180 803e
00000260: afc8 40bf c415 9c3e 481b afbd bbad 7abf
00000270: ccf7 1b3e 5860 433f bf8d 41bf c60c 073f
00000280: 047c 6f3f 8333 ae3d 4e81 733d 5727 81bf
00000290: 6c2a 59bf 2078 e8be 8286 b5bc 20f6 74bf
000002a0: 1963 363f f390 35be de4a 32be 64a6 9d3d
000002b0: 5051 70bf 2468 8c3e a637 ffbc 3586 cfbe
000002c0: 26a6 37bf f602 173f 726c 8bbe d5d2 44be
000002d0: fbe8 6cbe 2d84 3c3f 2ee6 133f d06a 283f
000002e0: 5804 b53e a65d 72be 1f04 953e 89ef ddbd
000002f0: 5d4b 7fbf a304 963e 3d8c a8be aaac 04bd
00000300: c277 d8be e893 093e 2d73 d1be e0fb 233d
00000310: c0e9 0e3e 0bf5 873e cfee 1c3f ebba 7bbe
00000320: d7de 0ebf c072 fb3e e253 b53e 7e03 f8be
00000330: fe74 963e d9d3 dd3e 9be5 00bc a96c f8be
00000340: 2149 2a3f 3933 04bf cde3 29bf 8fa5 9e3f
00000350: 1542 81be 5f65 94be 1aad ed3d 2353 bd3e
00000360: fe26 a5be 7f0d 123f 81d9 f53e 8f19 803f
00000370: 4feb 30bf b07b a73f df4d 24bf b2c6 85be
00000380: f170 e6be 0bbf 9b3d 6a60 483e 657c 1bbe
00000390: 45d3 9cbf c49a 333d 4694 bb3d 4d4c 85be
000003a0: 267e 03bf bf15 c93d 4410 84bf 8f18 2abd
000003b0: 1b1e bcbd 1592 49be d391 49bf 537e fb3c
000003c0: 1ef5 aebf 2b24 4abf 2eca 1b3f e2c0 253e
000003d0: 1439 0abf 761f bbbe 3101 093f 3f79 e63e
000003e0: ec43 843e c087 3e3e 47d2 c7be 7c71 bebe
000003f0: 2251 68be 1099 c63e 8b28 753f 3c6a 423f

network_body._body_endoder.seq_layers.2.bias f4 [128]
-0.059084218 -0.051329173 -0.034869995 0.016584845 -0.0470311 -0.053865355 -0.058941364 -0.13113752
-0.121604495 -0.042770647 -0.050638203 -0.046091482 -0.06511327 -0.048682224 -0.022104336 0.019828053
-0.11408443 0.019601045 -0.10427355 -0.0040095868 -0.14588752 0.02798347 0.022274464 0.029004041
0.011435179 -0.05411867 -0.016359502 -0.057134207 -0.037241668 -0.09018859 -0.04890652 0.011737464
-0.08650984 -0.08341862 -0.08084296 -0.13411002 -0.051501438 -0.051657964 -0.05032043 -0.11447729
-0.06886881 0.034605518 -0.055057783 0.050929405 -0.10826868 -0.13690445 0.040630803 -0.03007054
-0.07162941 -0.106108226 -0.053972956 0.017224658 -0.06821947 -0.064730175 -0.08756366 -0.08510543
-0.12189138 -0.046216443 -0.075633645 -0.058156814 -0.005013943 -0.014290403 -0.007472273 -0.10487029
-0.09313286 -0.08175189 -0.043421116 -0.05791422 0.00747455 -0.028013252 -0.122088045 -0.08872577
-0.01331038 -0.048417 -0.095000535 -0.046628658 -0.07501059 -0.13198508 -0.036712408 -0.04757685
-0.09452021 -0.019394305 -0.06995109 -0.032753836 -0.01732237 -0.0022983057 -0.015027986 0.0073503056
-0.057868056 -0.099467024 -0.007183832 -0.104310006 -0.108947314 0.02015834 -0.006900105 -0.10833547
-0.057536002 -0.08972991 -0.054367047 -0.08479962 0.0133258505 -0.027244156 -0.058426253 -0.06377874
-0.08927758 -0.085037716 -0.09778289 -0.011015338 -0.004683203 -0.0069528236 -0.09861475 -0.10089381
0.035981607 -0.09004354 -0.046552278 -0.06026028 -0.0092030605 -0.0023023596 -0.05575771 -0.02471647
-0.07058571 -0.053523824 -0.06544069 -0.075195126 -0.09270176 -0.027150039 -0.05667758 0.00056468294
00000000: 4b02 72bd 8a3e 52bd d7d3 0ebd f1dc 873c
00000010: afa3 40bd eba1 5cbd 806c 71bd ea48 06be
00000020: c70b f9bd 4630 2fbd 016a 4fbd 6cca 3cbd
00000030: 1b5a 85bd 0367 47bd 2714 b5bc 716e a23c
00000040: 19a5 e9bd 5f92 a03c 5f8d d5bd da62 83bb
00000050: 8a63 15be 973d e53c f078 b63c e299 ed3c
00000060: 9e5a 3b3c 8aab 5dbd 5d04 86bc 8f05 6abd
00000070: b88a 18bd ccb4 b8bd 3452 48bd 7e4e 403c
00000080: 122c b1bd 62d7 aabd fe90 a5bd 2354 09be
00000090: 2cf3 52bd 4d97 53bd cc1c 4ebd 1273 eabd
000000a0: 170b 8dbd 84be 0d3d 4584 61bd 5a9b 503d
000000b0: f8bb ddbd ae30 0cbe 7c6c 263d 7e56 f6bc
000000c0: 71b2 92bd 454f d9bd bf12 5dbd ba1a 8d3c
000000d0: a6b6 8bbd 4191 84bd 9454 b3bd c14b aebd
000000e0: 30a2 f9bd 744d 3dbd d0e5 9abd d735 6ebd
000000f0: 014c a4bb 4b22 6abc f8d9 f4bb 3cc6 d6bd
00000100: 71bc bebd 896d a7bd 57da 31bd 7637 6dbd
00000110: 12ed f43b 0c7c e5bc 4c09 fabd dbb5 b5bd
00000120: c813 5abc e750 46bd a48f c2bd b1fd 3ebd
00000130: 279f 99bd 1927 07be c05f 16bd f1df 42bd
00000140: d093 c1bd cee0 9ebc 8442 8fbd e328 06bd
00000150: a5e7 8dbc 2c9f 16bb f137 76bc d5da f03b
00000160: 0e07 6dbd 5eb5 cbbd 5a66 ebbb 7ca0 d5bd
00000170: c51f dfbd 1a23 a53c 471a e2bb fdde ddbd
00000180: dfaa 6bbd 51c4 b7bd fbaf 5ebd 6cab adbd
00000190: ab54 5a3c 232f dfbc 5e50 6fbd 6e9e 82bd
000001a0: 2ad7 b6bd 4128 aebd 6542 c8bd ad79 34bc
000001b0: 8e75 99bb 83d4 e3bb 88f6 c9bd 6aa1 cebd
000001c0: 7361 133d bf68 b8bd 9aad 3ebd 7cd3 76bd
000001d0: 6fc8 16bc 2fe3 16bb 3262 64bd 327a cabc
000001e0: 3e8f 90bd cc3b 5bbd c505 86bd e7ff 99bd
000001f0: 6cda bdbd c269 debc c026 68bd 3b07 143a

network_body._body_endoder.seq_layers.2.weight f4 [128, 128]
-0.16642481 -0.14424455 0.022639448 -0.050600406 -0.08770768 -0.05141448 -0.17444782 0.13545005
-0.113935106 -0.012956943 -0.2030368 -0.04840239 0.017536353 0.026721988 -0.042820677 -0.13635102
0.06529737 -0.10998438 0.09500284 0.058450103 -0.101764634 -0.08114055 -0.05899667 0.008897555
-0.16566744 -0.07563837 -0.033284172 -0.054350793 -0.103725575 -0.1598542 -0.16096696 -0.10614752
-0.037120886 -0.0076322705 0.07242085 0.019339895 -0.043547466 -0.075097844 0.008837424 0.008154164
-0.025709156 0.15517783 0.046472456 -0.1602453 0.114205346 -5.812187e-05 0.11327215 0.010840511
-0.18325022 0.07504827 0.0863165 -0.21000938 -0.067360364 -0.06837462 -0.057748836 0.04538777
-0.00019827389 -0.11316672 -0.08523409 -0.003966598 -0.26986232 -0.24292623 -0.13172846 -0.02312066
-0.06571293 -0.01721023 -0.114951424 -0.18653294 -0.0715016 0.027752673 -0.14541759 -0.05654003
-0.10764142 -0.027235115 -0.21246628 -0.008371158 -0.0011966507 -0.074909575 0.01171722 0.020607123
-0.09221309 -0.022637045 -0.09241547 -0.088497676 -0.013951209 -0.1436756 -0.0062401653 0.049213495
0.005245185 -0.036561057 0.103013 0.01851927 -0.09407953 0.04595533 -0.027167484 -0.06364802
-0.07601709 0.04813254 0.060442258 0.048532568 0.03609056 0.0044677067 0.018874586 -0.17701976
-0.0036913285 -0.1728417 -0.04538923 -0.17850572 -0.10931837 0.0812289 -0.08239992 -0.13459863
-0.13404919 -0.073828824 0.019784965 0.026470328 -0.20778829 -0.07892556 -0.06976275 -0.065194465
-0.021424297 0.15858969 -0.080716155 -0.20526436 -0.15765303 -0.14016137 -0.024690263 -0.042662494
-0.015168258 -0.008558294 0.10533856 -0.23505858 0.13917845 -0.0066285687 0.29370943 0.21567838
-0.075844094 0.13906404 0.032713953 0.044887427 -0.05180621 -0.0043471963 0.027469048 -0.07059511
0.07040325 0.12384499 0.026502714 0.10243218 0.05312497 -0.03685062 0.07695899 0.08525133
-0.0015245877 0.025760826 -0.14338396 0.107470915 0.079202145 -0.045297615 -0.026615124 -0.17638712
-0.21054526 -0.14293721 0.096420914 0.1266891 0.16755712 0.103554666 -0.104309075 -0.0045259497
0.022763435 -0.020802561 0.044739556 0.08820412 0.009700631 -0.054607652 -0.18950303 -0.037010573
0.058133744 0.1679488 -0.01381009 -0.06155727 -0.09413039 0.051258802 0.028099323 -0.02276712
-0.17331682 0.21671546 0.06438219 -0.040469438 0.09531579 0.017823927 -0.10939754 0.18594229
-0.03243421 0.061104044 -0.1730311 0.014190005 -0.057412785 -0.14178044 0.15966067 -0.058348473
-0.0038761748 -0.30400047 -0.011294552 0.11152409 -0.1637096 0.20402749 -0.119765975 -0.039701335
0.0061220517 0.057700075 0.036454286 -0.0023533565 -0.040985808 -0.1868901 0.1372984 0.2076626
-0.1004377 0.028802654 0.05503088 -0.101456426 -0.036116216 -0.20389219 -0.123506196 -0.057645716
-0.0136685 -0.007598983 -0.10725625 -0.004901135 0.026132578 -0.12082485 0.08795888 0.12533867
0.18736073 -0.037132934 0.0772061 -0.106416166 -0.06567042 -0.02854579 0.027535172 0.0054749716
0.008008999 0.005647161 -0.15057369 0.067852266 -0.06975857 -0.11970341 -0.027082112 0.015082233
0.10906933 -0.11577233 -0.065671556 0.02166912 0.0078237755 0.14653046 -0.04390344 -0.0335481
00000000: 446b 2abe d8b4 13be 5d76 b93c 5f42 4fbd
00000010: 16a0 b3bd fd97 52bd 73a2 32be 6bb3 0a3e
00000020: cf56 e9bd 5c49 54bc e1e8 4fbe 9641 46bd
00000030: 66a8 8f3c 12e8 da3c bc64 2fbd 9a9f 0bbe
00000040: a1ba 853d 7e3f e1bd d990 c23d 6069 6f3d
00000050: fa69 d0bd 042d a6bd 7ea6 71bd 0dc7 113c
00000060: baa4 29be 4ae8 9abd fc54 08bd f09e 5ebd
00000070: 136e d4bd d2b0 23be 86d4 24be df63 d9bd
00000080: 120c 18bd 2018 fabb 6251 943d b36e 9e3c
00000090: d45e 32bd e6cc 99bd d8ca 103c 0b99 053c
000000a0: 029c d2bc f0e6 1e3e e759 3e3d 5817 24be
000000b0: 7ee4 e93d e2c7 73b8 3bfb e73d 669c 313c
000000c0: f2a5 3bbe e8b2 993d b5c6 b03d b30c 57be
000000d0: 3bf4 89bd fe07 8cbd 0b8a 6cbd 87e8 393d
000000e0: bee7 4fb9 f4c3 e7bd 368f aebd 3cfa 81bb
000000f0: 652b 8abe a7c1 78be d3e3 06be 8a67 bdbc
00000100: 8094 86bd 78fc 8cbc a76b ebbd 7e02 3fbe
00000110: 6e6f 92bd 9359 e33c 59e8 14be 8596 67bd
00000120: 1b73 dcbd 2d1c dfbc c390 59be 2e27 09bc
00000130: efd8 9cba 316a 99bd 95f9 3f3c 45d0 a83c
00000140: 37da bcbd 5371 b9bc 5244 bdbd 453e b5bd
00000150: 9d93 64bc b21f 13be 4d7a ccbb 1794 493d
00000160: cddf ab3b 0cc1 15bd 7bf8 d23d b9b5 973c
00000170: c5ac c0bd a83b 3c3d 588e debc e559 82bd
00000180: d9ae 9bbd a026 453d 4d92 773d 16ca 463d
00000190: b2d3 133d d765 923b e09e 9a3c ab44 35be
000001a0: 37ea 71bb 6afd 30be 0fea 39bd 34ca 36be
000001b0: 4fe2 dfbd 565b a63d 4ac1 a8bd 39d4 09be
000001c0: 3144 09be 9133 97bd 1414 a23c 4dd8 d83c
000001d0: 74c6 54be b9a3 a1bd c6df 8ebd ad84 85bd
000001e0: 0282 afbc 5665 223e 834e a5bd d230 52be
000001f0: cc6f 21be 7686 0fbe 3c43 cabc debe 2ebd
00000200: 4984 78bc 1638 0cbc bebb d73d 32b3 70be
00000210: cc84 0e3e 7734 d9bb 1561 963e cbda 5c3e
00000220: 2654 9bbd ce66 0e3e 11ff 053d e1db 373d
00000230: c032 54bd ed72 8ebb c506 e13c 2b94 90bd
00000240: 942f 903d 71a2 fd3d 381c d93c f6c7 d13d
00000250: 9299 593d adf0 16bd ad9c 9d3d 4098 ae3d
00000260: add4 c7ba 5e08 d33c 3fd3 12be b619 dc3d
00000270: bc34 a23d fe89 39bd f607 dabc d39e 34be
00000280: 2d99 57be 225e 12be 5478 c53d caba 013e
00000290: 1894 2b3e 7814 d43d ff9f d5bd 6b4e 94bb
000002a0: 627a ba3c 226a aabc d340 373d 5da4 b43d
000002b0: 65ef 1e3c 46ac 5fbd 150d 42be 6698 17bd
000002c0: a61d 6e3d c5fa 2b3e b743 62bc 7a23 7cbd
000002d0: 6fc7 c0bd c0f4 513d 8d30 e63c 1c82 babc
000002e0: f779 31be a8ea 5d3e cfda 833d 48c3 25bd
000002f0: ed34 c33d 7c03 923c d10b e0bd a867 3e3e
00000300: bcd9 04bd 3c48 7a3d 112f 31be 327d 683c
00000310: ab29 6bbd e42e 11be 167e 233e cffe 6ebd
00000320: 6c07 7ebb f3a5 9bbe c90c 39bc be66 e43d
00000330: 7da3 27be 95ec 503e dd47 f5bd de9d 22bd
00000340: 7e9b c83b ea56 6c3d 1751 153d c53a 1abb
00000350: bce0 27bd 1e60 3fbe f497 0c3e 81a5 543e
00000360: 48b2 cdbd 8bf3 eb3c 0f68 613d 63c8 cfbd
00000370: 99ee 13bd 1dc9 50be d1f0 fcbd ea1d 6cbd
00000380: d8f1 5fbc e400 f9bb 2aa9 dbbd b399 a0bb
00000390: fd13 d63c 0573 f7bd c923 b43d c858 003e
000003a0: 7edb 3f3e b418 18bd 3b1e 9e3d b8f0 d9bd
000003b0: 377e 86bd dcd8 e9bc 7191 e13c 6467 b33b
000003c0: 2d38 033c d20b b93b fd2f 1abe 21f6 8a3d
000003d0: 95dd 8ebd 1027 f5bd 4edb ddbc 781b 773c
000003e0: be5f df3d 0b1a edbd cf7e 86bd 7083 b13c
000003f0: 4b2f 003c 150c 163e 18d4 33bd bc69 09bd

network_body._body_endoder.seq_layers.4.bias f4 [128]
-0.07342589 -0.0049045696 -0.058711722 -0.026105016 -0.0635676 -0.053976063 -0.05294865 -0.009154628
-0.027152805 -0.12635921 -0.087384 0.047497857 -0.11045555 0.030115753 -0.0659455 -0.030772047
-0.073887035 -0.11630424 -0.01666915 -0.04538597 -0.10812154 -0.07379667 -0.039173003 -0.090602
0.0018619739 -0.062839784 -0.044242833 -0.00497606 -0.081577435 -0.032469228 0.028994119 -0.096543044
-0.119396634 0.04196594 -0.052182768 -0.06515069 -0.021400409 -0.011379427 -0.04910336 -0.07505495
-0.083773606 -0.07529971 -0.053641982 -0.05167579 -0.042673837 -0.12121599 -0.0438327 -0.15350997
-0.026604328 0.038839813 -0.08661218 -0.04936828 -0.05431566 -0.015617051 -0.02744477 -0.025606241
-0.08102497 -0.06691895 0.0139155 0.0011601977 0.059864193 -0.06968043 -0.122564204 -0.031578757
-0.034468647 -0.07369352 -0.10865697 -0.13198046 -0.07796461 -0.031445097 -0.080556065 -0.100681536
-0.067968465 -0.08839952 -0.07038189 0.044627935 -0.02074305 -0.04676724 -0.06577581 0.044669554
-0.027405491 -0.084297456 -0.008919423 -0.0658622 -0.031034527 -0.041366853 -0.03098626 -0.0144352
-0.030835055 0.024146162 0.06666452 0.0010485284 -0.026805643 -0.08716856 -0.013646859 -0.057265226
-0.11874596 0.0014373136 -0.04782928 -0.07547112 0.014992214 -0.008653541 -0.03810961 -0.046152905
-0.036605436 0.0081520695 -0.073170766 -0.07712116 -0.053785678 -0.09770621 -0.07979173 -0.12486702
-0.10382006 -0.03760097 -0.023295043 -0.049692232 -0.10580137 -0.03069375 -0.12455708 -0.09794596
0.036213804 -0.082171775 -0.048749626 0.0018415219 -0.029717077 0.053979244 -0.112204395 -0.05207942
00000000: 5060 96bd 83b6 a0bb b47b 70bd 30da d5bc
00000010: bb2f 82bd 0116 5dbd afe0 58bd 4bfd 15bc
00000020: 8f6f debc 4f64 01be 62f6 b2bd 1d8d 423d
00000030: 8536 e2bd 50b5 f63c 6f0e 87bd a915 fcbc
00000040: 1652 97bd eb30 eebd be8d 88bc a4e6 39bd
00000050: d36e ddbd b522 97bd df73 20bd 8b8d b9bd
00000060: 7a0d f43a 25b2 80bd f937 35bd 370e a3bb
00000070: 1212 a7bd 74fe 04bd 1385 ed3c 5cb8 c5bd
00000080: 3986 f4bd 7ae4 2b3d 99bd 55bd ba6d 85bd
00000090: e94f afbc c770 3abc 9b20 49bd 69b6 99bd
000000a0: 7f91 abbd bc36 9abd b2b7 5bbd fea9 53bd
000000b0: c3ca 2ebd 1740 f8bd eb89 33bd b831 1dbe
000000c0: 52f1 d9bc 7f16 1f3d ba61 b1bd 6536 4abd
000000d0: 197a 5ebd a9de 7fbc dbd3 e0bc 2ec4 d1bc
000000e0: 6bf0 a5bd cd0c 89bd d6fd 633c c611 983a
000000f0: 2834 753d 9db4 8ebd f102 fbbd ba58 01bd
00000100: ff2e 0dbd a1ec 96bd 8c87 debd e325 07be
00000110: e9ab 9fbd 93cc 00bd 94fa a4bd 1f32 cebd
00000120: 0d33 8bbd cf0a b5bd 6124 90bd c8cb 363d
00000130: 54ed a9bc 018f 3fbd 78b5 86bd 6cf7 363d
00000140: 7b81 e0bc 25a4 acbd c622 12bc c3e2 86bd
00000150: 1f3c febc 4a70 29bd e6d6 fdbc 9e81 6cbc
00000160: cc99 fcbc 2cce c53c 6887 883d c66e 893a
00000170: 8297 dbbc 6e85 b2bd 1397 5fbc f18e 6abd
00000180: 1531 f3bd 3e64 bc3a a3e8 43bd 9a90 9abd
00000190: e7a1 753c 95c7 0dbc d318 1cbd d40a 3dbd
000001a0: 95ef 15bd 4290 053c 8eda 95bd b3f1 9dbd
000001b0: 5f4e 5cbd 321a c8bd d969 a3bd 48ba ffbd
000001c0: 9d9f d4bd 7a03 1abd 3fd5 bebc 158a 4bbd
000001d0: 64ae d8bd 7671 fbbc c817 ffbd e497 c8bd
000001e0: ed54 143d ad49 a8bd b0ad 47bd 395f f13a
000001f0: 3a71 f3bc 5719 5d3d 6bcb e5bd 3b51 55bd

network_body._body_endoder.seq_layers.4.weight f4 [128, 128]
-0.019698545 -0.036363315 -0.14220421 0.088060334 0.0024716498 -0.2186429 -0.0039767805 0.0273529
-0.0056599095 0.024695374 -0.08635042 -0.25788382 -0.007907652 0.12295482 0.04625291 -0.21860616
0.008567155 -0.08576626 0.20853 -0.042185828 0.05489898 -0.20061874 -0.021277623 0.08977145
0.07491512 0.033904385 -0.03512964 0.172233 0.035296027 -0.059456233 0.337734 0.00029697875
0.11646112 0.0092164995 -0.018240716 0.20364182 0.06893314 0.11508912 -0.09923604 -0.11260731
0.06673388 0.026675073 -0.017127575 0.010826899 0.15823983 -0.037728317 0.037010748 0.058356576
-0.057227537 -0.012143014 -0.06373541 0.12234747 0.15998167 0.0037623243 0.016011184 0.058872975
-0.05631415 -0.22214052 0.14825295 0.04874321 0.2268464 0.086630754 0.14791073 -0.032601602
0.03516976 0.19794683 -0.019150881 0.15261209 0.08510283 -0.018658744 -0.025721509 -0.002846445
-0.0689098 0.004038416 -0.16865785 0.0814892 0.12297028 -0.00043741043 -0.09802535 0.04318502
-0.04006844 0.03053771 0.0043630176 -0.13415521 0.10699201 -0.08586787 0.07128601 -0.15247056
0.049116485 -0.008994015 0.019546205 -0.038733836 0.03605293 -0.055376593 0.015099862 -0.15316023
-0.098679885 0.15972495 -0.24494937 0.1148277 -0.120918006 -0.1155035 -0.032634787 -0.048837386
-0.044050653 -0.031070957 -0.064071536 0.09504956 -0.14296217 -0.014091398 -0.1920649 -0.054369867
-0.007383518 0.0898388 -0.024992868 -0.12783192 0.0013036589 0.03824251 0.12185719 -0.017261026
-0.104745656 -0.11914867 -0.14720114 -0.08347778 -0.043483675 -0.23777488 -0.04291123 -0.04180072
0.18045634 0.16071293 -0.17619748 0.22306964 0.0049121343 -0.053916626 0.051755935 0.053726338
-0.051225923 -0.09321644 0.114994705 0.030595971 0.102591865 0.11648294 -0.01668856 0.100380644
-0.003993677 -0.18145536 -0.11875909 -0.12200039 -0.038660243 0.09147309 -0.10802706 -0.09243362
0.14548141 0.15905352 0.1238848 -0.16796082 0.1916627 -0.08589809 0.14395888 -0.013032249
-0.08793695 0.15360102 0.17143734 0.184329 0.05779122 0.055798348 0.14907455 -0.088889755
0.07427312 0.045066096 -0.025728505 0.08589088 -0.07835372 0.10787645 -0.1100668 0.087537214
0.12837699 0.0074231336 0.008075672 0.0035358819 0.17477874 0.008467245 -0.1632692 0.0729185
-0.029503686 -0.0008041918 0.06445568 0.014125487 0.019377273 -0.1701154 -0.122072875 0.18703024
-0.004890177 0.055847436 0.016457854 0.114759006 -0.039413758 -0.06445836 0.1141131 -0.0583525
0.09552057 0.007122028 0.20832783 0.036137655 -0.013651127 0.12351961 -0.11427947 -0.0074902466
-0.00090680853 0.10545733 -0.06448102 0.11163184 0.043350827 -0.1959575 -0.060528744 -0.15256247
0.0068514347 0.0753353 0.020852271 0.14902738 -0.058973864 0.11259846 0.018576644 0.05736656
0.08766974 0.1233183 -0.22041306 0.009866737 -0.15080187 -0.076864995 0.22911268 0.021773832
-0.042082947 -0.005946295 0.070386805 -0.061876904 -0.2836447 -0.07508975 0.032272305 -0.019145234
-0.16471328 0.020172598 0.13645764 0.058078047 0.05936655 -0.016195292 -0.012373625 0.10975475
-0.0931179 0.012529342 0.003631053 0.07825646 0.15370582 -0.017421395 0.19564535 -0.11238239
00000000: d85e a1bc b3f1 14bd fb9d 11be fa58 b43d
00000010: 67fb 213b ede3 5fbe a74f 82bb 3013 e03c
00000020: c376 b9bb f44d ca3c 7dd8 b0bd 5909 84be
00000030: 198f 01bc bdcf fb3d b173 3d3d 4bda 5fbe
00000040: 415d 0c3c 39a6 afbd e388 553e 0ccb 2cbd
00000050: c1dd 603d 006f 4dbe 694e aebc 18da b73d
00000060: 196d 993d 53df 0a3d 19e4 0fbd d95d 303e
00000070: 9192 103d 6188 73bd 79eb ac3e d0b3 9b39
00000080: 2b83 ee3d cd00 173c 8e6d 95bc 7b87 503e
00000090: d12c 8d3d d8b3 eb3d 443c cbbd a99e e6bd
000000a0: c6ab 883d af85 da3c 214f 8cbc 4e63 313c
000000b0: 9f09 223e 0289 1abd 9598 173d 4e07 6f3d
000000c0: 6c67 6abd 7ef3 46bc b687 82bd 4f91 fa3d
000000d0: 3cd2 233e 5491 763b e329 833c ca24 713d
000000e0: aba9 66bd ce78 63be 9fcf 173e f6a6 473d
000000f0: 6c4a 683e 776b b13d e975 173e 4289 05bd
00000100: 2b0e 103d 93b2 4a3e 4fe2 9cbc 5846 1c3e
00000110: 644a ae3d 39da 98bc eab5 d2bc 6c8b 3abb
00000120: 9520 8dbd b054 843b a5b4 2cbe cfe3 a63d
00000130: d8d7 fb3d 3c54 e5b9 84c1 c8bd c7e2 303d
00000140: ce1e 24bd 382a fa3c a5f7 8e3b fc5f 09be
00000150: a01e db3d 7edb afbd 66fe 913d 3e21 1cbe
00000160: 5e2e 493d a25b 13bc 5d1f a03c 5fa7 1ebd
00000170: 3dac 133d 91d2 62bd 6965 773c 09d6 1cbe
00000180: ae18 cabd f08e 233e 02d4 7abe c92a eb3d
00000190: dca3 f7bd 198d ecbd 0eac 05bd b609 48bd
000001a0: 756e 34bd 8588 febc f037 83bd 58a9 c23d
000001b0: ad64 12be 9bdf 66bc a9ac 44be f0b2 5ebd
000001c0: 70f1 f1bb 68fd b73d d8bd ccbc 5fe6 02be
000001d0: 89df aa3a 2ea4 1c3d 4390 f93d ff66 8dbc
000001e0: e484 d6bd 3804 f4bd e5bb 16be 66f6 aabd
000001f0: f01b 32bd 427b 73be b0c3 2fbd 3b37 2bbd
00000200: 8cc9 383e ee91 243e 1d6d 34be 5e6c 643e
00000210: f8f5 a03b aed7 5cbd 08fe 533d 2610 5c3d
00000220: 46d2 51bd 43e8 bebd 5882 eb3d 67a4 fa3c
00000230: af1b d23d 9c8e ee3d 72b6 88bc 5e94 cd3d
00000240: 64dd 82bb 6fcf 39be f737 f3bd 57db f9bd
00000250: 345a 1ebd 3e56 bb3d 4b3d ddbd d64d bdbd
00000260: 14f9 143e edde 223e 50b7 fd3d ecfd 2bbe
00000270: 3a43 443e 56eb afbd f569 133e 3785 55bc
00000280: 4a18 b4bd 9649 1d3e 458d 2f3e bec0 3c3e
00000290: 7cb6 6c3d cf8c 643d 00a7 183e d50b b6bd
000002a0: 811c 983d 3a97 383d 96c4 d2bc 8fe7 af3d
000002b0: ea77 a0bd 54ee dc3d b46a e1bd b646 b33d
000002c0: 4275 033e c23d f33b d34f 043c 41ba 673b
000002d0: 33f9 323e 33ba 0a3c 0b30 27be 4b56 953d
000002e0: b7b1 f1bc 66d0 52ba 5701 843d 966e 673c
000002f0: 16bd 9e3c bb32 2ebe 5801 fabd db84 3f3e
00000300: c73d a0bb 48c0 643d 9fd2 863c c506 eb3d
00000310: 5270 21bd bf02 84bd 21b4 e93d 0803 6fbd
00000320: 4aa0 c33d e75f e93b e453 553e 1405 143d
00000330: faa8 5fbc d9f7 fc3d 5b0b eabd be70 f5bb
00000340: e4b6 6dba 03fa d73d a00e 84bd 3c9f e43d
00000350: a390 313d 15a9 48be fdec 77bd 5639 1cbe
00000360: 0082 e03b 6549 9a3d 62d2 aa3c a29a 183e
00000370: 948e 71bd 059a e63d 0c2e 983c 33f9 6a3d
00000380: 318c b33d 4e8e fc3d f6b3 61be 18a8 213c
00000390: ce6b 1abe 656b 9dbd 849c 6a3e 095f b23c
000003a0: 2b5f 2cbd 23d9 c2bb f526 903d a372 7dbd
000003b0: e139 91be a8c8 99bd f72f 043d 77d6 9cbc
000003c0: 99aa 28be 0141 a53c 8dbb 0b3e 3fe3 6d3d
000003d0: 572a 733d fdab 84bc bfba 4abc 19c7 e03d
000003e0: 99b4 bebd df47 4d3c f6f6 6d3b ec44 a03d
000003f0: 0f65 1d3e 50b7 8ebc 4157 483e bd28 e6bd

network_body._body_endoder.seq_layers.6.bias f4 [128]
-0.052226104 0.051554594 -0.011764771 -0.045675334 -0.11076571 -0.07986927 -0.044331916 0.058061685
-0.0077524683 -0.058622755 -0.109052666 -0.102208346 -0.08934032 -0.048219066 -0.027819905 -0.070626654
0.0073730573 -0.15439266 -0.07303053 -0.031684574 -0.07646345 -0.105126604 -0.04297314 -0.028647458
-0.096661195 -0.007193996 -0.090615794 -0.012271535 -0.09484288 -0.11197907 -0.051689297 -0.011920391
-0.13503553 -0.068533234 -0.033484124 -0.03797163 0.012446436 0.050230812 -0.032110143 -0.0049805874
-0.06822611 0.10138002 -0.071467385 -0.079218924 0.001760424 -0.043612912 -0.071970806 -0.02892907
-0.08752757 0.024263972 -0.07198352 -0.15864204 -0.0066865683 -0.10170456 0.05140827 0.02114356
-0.155287 -0.076046675 -0.07106286 -0.067911245 -0.062086552 -0.08453479 -0.020500254 -0.121561825
-0.048981357 0.024622796 -0.03625932 0.0055848076 -0.015813613 0.08493592 0.0077964077 -0.08621362
-0.08659475 -0.1471239 -0.04788523 -0.0927388 -0.07680474 -0.10307177 -0.058921136 0.061217766
0.03513936 0.02927253 -0.0662315 0.02301824 -0.056260027 -0.034130093 0.022845779 0.054141723
-0.020345911 -0.066105574 0.04288389 -0.05419052 -0.025739484 -0.0057301964 -0.056580186 0.06756838
-0.10340818 -0.11411568 -0.1293882 -0.13322073 -0.073719874 -0.030181343 -0.10276256 -0.035071462
-0.091021456 -0.058439292 -0.061462685 -0.08246086 0.01566547 -0.025301576 -0.0036669357 -0.10021825
0.014109293 0.009174207 0.016397795 0.019724807 -0.015958024 -0.0494212 -0.11323832 -0.024121432
-0.11110446 0.025706762 0.01681814 0.04055642 -0.08496975 -0.17623605 -0.028950287 -0.07472913
00000000: 0aeb 55bd e92a 533d 07c1 40bc 0f16 3bbd
00000010: 22d9 e2bd 8092 a3bd 6295 35bd 17d2 6d3d
00000020: 6b08 febb 6a1e 70bd 0157 dfbd 9c52 d1bd
00000030: 0ff8 b6bd 5b81 45bd 92e6 e3bc b5a4 90bd
00000040: b099 f13b 1c19 1ebe 0891 95bd afc7 01bd
00000050: df98 9cbd 9e4c d7bd 9a04 30bd 13ae eabc
00000060: 4ef6 c5bd 9dbb ebbb c694 b9bd 8c0e 49bc
00000070: fc3c c2bd 4855 e5bd 28b8 53bd be4d 43bc
00000080: c146 0abe 275b 8cbd a626 09bd 2488 1bbd
00000090: 23ec 4b3c d3be 4d3d ed85 03bd 3234 a3bb
000000a0: 21ba 8bbd 54a0 cf3d 7e5d 92bd 883d a2bd
000000b0: 07be e63a 74a3 32bd 6e65 93bd a8fc ecbc
000000c0: a841 b3bd 3dc5 c63c 196c 93bd 0f73 22be
000000d0: 001b dbbb 7b4a d0bd 7a91 523d 4235 ad3c
000000e0: 8e03 1fbe 5cbe 9bbd 6889 91bd 0d15 8bbd
000000f0: 784e 7ebd 9320 adbd 26f0 a7bc 68f5 f8bd
00000100: ada0 48bd bfb5 c93c a784 14bd c300 b73b
00000110: 8d8b 81bc e2f2 ad3d 0279 ff3b c490 b0bd
00000120: 9758 b1bd a6a7 16be 4e23 44bd d7ed bdbd
00000130: ce4b 9dbd 4b17 d3bd 4a57 71bd 7bbf 7a3d
00000140: 4aee 0f3d f2cc ef3c 61a4 87bd c090 bc3c
00000150: ea70 66bd ffcb 0bbd 1227 bb3c b6c3 5d3d
00000160: 78ac a6bc 5c62 87bd 05a7 2f3d e1f6 5dbd
00000170: 9cdb d2bc 5fc4 bbbb a0c0 67bd 4a61 8a3d
00000180: abc7 d3bd 7bb5 e9bd 577e 04be 046b 08be
00000190: 72fa 96bd dd3e f7bc 2d75 d2bd 18a7 0fbd
000001a0: 7569 babd 0a5e 6fbd 4cc0 7bbd 3de1 a8bd
000001b0: df54 803c 4045 cfbc f950 70bb 3a3f cdbd
000001c0: aa2a 673c 6a4f 163c ab54 863c eb95 a13c
000001d0: 67ba 82bc e26d 4abd 7ee9 e7bd 4f9a c5bc
000001e0: bc8a e3bd fd96 d23c 32c6 893c 7d1e 263d
000001f0: 9f04 aebd 3977 34be 2729 edbc 960b 99bd

network_body._body_endoder.seq_layers.6.weight f4 [128, 128]
0.039241705 0.119234 -0.049001884 -0.022268785 0.06629003 0.016140213 0.055177197 -0.023351569
0.1338742 0.14055026 -0.17188205 -0.053703725 -0.08039484 -0.031095346 0.04115205 -0.28722984
0.15134569 -0.02951978 0.06238544 0.14868735 0.029877707 -0.1692965 -0.11531305 -0.012697065
-0.029472416 -0.22782524 0.18007237 0.034231488 0.04276848 0.055944152 0.006266577 0.0527912
0.009612864 0.00068822625 -0.019944223 0.10271083 0.14641972 -0.08626548 -0.029852662 -0.0114959385
-0.027453676 -0.19591658 -0.2765986 -0.18212435 0.074745394 -0.07592755 -0.113270886 -0.06742419
0.031047702 0.00017390671 -0.19394362 0.10392619 -0.024155276 0.07595887 0.1645621 -0.068371244
0.05078894 -0.09626412 -0.005982276 0.27729926 -0.018360289 0.092807256 -0.010304801 -0.069134265
0.19960958 0.05606422 0.116736464 0.08987402 0.0071959756 0.13355382 -0.27801427 -0.21587308
0.18697791 0.013014896 0.07334545 0.0038349517 0.02146665 -0.034267906 -0.055824623 0.12664473
0.105645925 -0.11995333 0.02161669 -0.01898747 -0.09807362 -0.07341468 0.11565939 0.030992016
-0.26106414 0.028384294 0.2042198 0.13235654 0.043469597 -0.022270374 0.050627843 0.18923974
-0.0030565665 0.00944181 0.019466396 -0.060360707 -0.010746344 -0.040806286 0.10625272 0.09307326
0.20012541 0.0051882416 0.09389113 0.08094718 -0.022310786 -0.12108205 0.15673153 0.10773626
0.024697304 -0.010066251 -0.021048507 -0.070478044 0.016688593 0.0002459846 0.14878014 -0.09263021
0.060326044 -0.23104645 -0.05086508 -0.017585384 0.031211896 -0.08524214 0.082399674 0.17163593
-0.2673419 -0.07807541 0.1317504 -0.13729417 -0.06230692 -0.21306811 -0.08620669 0.01987797
0.091220744 -0.20511378 0.07127257 0.0013811681 -0.16134915 -0.18869728 0.004097654 0.028506972
-0.020876762 0.005647497 -0.019532971 0.13088171 -0.14377297 -0.09030067 -0.19741578 -0.20126909
0.18190162 -0.16326442 -0.045082334 -0.054545138 -0.0097773895 -0.02182791 0.12179395 -0.13209811
-0.08169631 0.08377935 -0.14318451 0.1354271 0.12406674 0.0060039684 0.05973242 0.022874773
0.039627064 -0.01194907 0.03044348 -0.07501796 0.17787313 0.02199078 -0.0068606404 0.011387328
0.037509765 0.14575088 -0.03171206 -0.09047628 -0.19648087 -0.29449582 0.19928505 -0.16333687
-0.14033908 -0.26740468 -0.04589076 0.13738288 -0.0794076 -0.07054783 -0.08960833 -0.04133218
0.13139246 0.05049081 -0.03671346 -0.12837906 0.037441824 -0.05598913 -0.062460214 -0.09358787
0.083890356 -0.029086426 0.22353135 0.30999482 -0.041236605 -0.07362322 -0.1904013 0.12867185
-0.025424166 -0.0437318 -0.00034140862 -0.06254099 -0.05921495 0.08827442 -0.030115416 -0.087579206
-0.10919102 -0.013639543 0.05472488 -0.139485 0.04450533 0.0632197 0.047988124 -0.1579468
0.090040796 0.08581289 -0.00042768323 0.056018755 0.0074536237 -0.1226891 -0.0658921 -0.02933843
-0.09161284 0.0015702564 -0.14643198 -0.22797514 -0.05586288 0.11079359 0.030579101 0.015455262
-0.06710229 0.18595916 0.13066787 -0.21481927 0.14744665 0.1575113 0.05027855 -0.028897846
0.25944263 -0.18246678 -0.008932194 -0.00890314 0.22765225 0.045149878 0.009163205 -0.13460663
00000000: e9bb 203d f530 f43d 33b6 48bd 076d b6bc
00000010: 11c3 873d 7b38 843c 7c01 623d ca4b bfbc
00000020: 5116 093e 68ec 0f3e d901 30be 70f8 5bbd
00000030: 0da6 a4bd abbb febc 0d8f 283d ca0f 93be
00000040: 5dfa 1a3e 77d3 f1bc e087 7f3d 7f41 183e
00000050: 18c2 f43c 105c 2dbe 4029 ecbd 5a07 50bc
00000060: 2370 f1bc 054b 69be e464 383e 5136 0c3d
00000070: 002e 2f3d b225 653d dc57 cd3b 963b 583d
00000080: 467f 1d3c 156a 343a 1162 a3bc 0e5a d23d
00000090: 0def 153e f5ab b0bd 928d f4bc 7659 3cbc
000000a0: 88e6 e0bc 5b9e 48be 559e 8dbe ce7e 3abe
000000b0: 1d14 993d e77f 9bbd 91fa e7bd b215 8abd
000000c0: c057 fe3c ba5a 3639 2899 46be 41d7 d43d
000000d0: 49e1 c5bc 5390 9b3d f882 283e 3906 8cbd
000000e0: 1008 503d 1f26 c5bd f806 c4bb 2bfa 8d3e
000000f0: 5168 96bc bb11 be3d 78d5 28bc 4496 8dbd
00000100: 7466 4c3e 98a3 653d 8713 ef3d df0f b83d
00000110: 38cc eb3b 55c2 083e e357 8ebe d50d 5dbe
00000120: 2377 3f3e 6e3c 553c 2436 963d d053 7b3b
00000130: d4da af3c 815c 0cbd 5ca8 64bd 28af 013e
00000140: e45c d83d 17aa f5bd 7c15 b13c 9c8b 9bbc
00000150: d2da c8bd 705a 96bd d5de ec3d f8e2 fd3c
00000160: 33aa 85be 2e86 e83c ff1e 513e 7988 073e
00000170: 2d0d 323d 5c70 b6bc 245f 4f3d 10c8 413e
00000180: ad50 48bb d2b1 1a3c fe77 9f3c ca3c 77bd
00000190: 6f11 30bc 7e24 27bd 079b d93d 319d be3d
000001a0: aded 4c3e 2002 aa3b fe49 c03d a3c7 a53d
000001b0: 1cc5 b6bc def9 f7bd 3b7e 203e d4a4 dc3d
000001c0: 0052 ca3c ebec 24bc eb6d acbc cb56 90bd
000001d0: 84b6 883c 7ef7 8039 d259 183e e8b4 bdbd
000001e0: 7118 773d 7197 6cbe e757 50bd 390f 90bc
000001f0: 17b0 ff3c 6e93 aebd 29c1 a83d 54c1 2f3e
00000200: 0ae1 88be 00e6 9fbd 94e9 063e d896 0cbe
00000210: 8a35 7fbd 872e 5abe 228d b0bd 20d7 a23c
00000220: f1d1 ba3d 5909 52be 5af7 913d 5008 b53a
00000230: b638 25be dc39 41be 9d45 863b 7487 e93c
00000240: be05 abbc a30e b93b 9c03 a0bc db05 063e
00000250: 3939 13be 8fef b8bd 5d27 4abe 7c19 4ebe
00000260: 6b44 3a3e ca2e 27be 41a8 38bd b96a 5fbd
00000270: 5831 20bc 72d0 b2bc 1b6f f93d ba44 07be
00000280: 6550 a7bd 8294 ab3d f69e 12be 67ad 0a3e
00000290: b416 fe3d f0bc c43b fba9 743d e063 bb3c
000002a0: fd4f 223d 08c6 43bc 9b64 f93c 04a3 99bd
000002b0: 6024 363e 0226 b43c 39cf e0bb ea91 3a3c
000002c0: d7a3 193d b83f 153e 81e4 01bd a14b b9bd
000002d0: 4832 49be 28c8 96be 6111 4c3e c841 27be
000002e0: 0cb5 0fbe 44e9 88be f3f7 3bbd 19ae 0c3e
000002f0: 74a0 a2bd 617b 90bd 9284 b7bd ef4b 29bd
00000300: bf8b 063e 74cf 4e3d da60 16bd cd75 03be
00000310: 995c 193d dc54 65bd 48d6 7fbd ffaa bfbd
00000320: b5ce ab3d a846 eebc 67e5 643e a4b7 9e3e
00000330: b7e7 28bd c5c7 96bd 8ff8 42be 8ec2 033e
00000340: 5746 d0bc 1e20 33bd 17ff b2b9 7e15 80bd
00000350: 608b 72bd 38c9 b43d 9bb4 f6bc ba5c b3bd
00000360: 8b9f dfbd 6478 5fbc 3227 603d 28d5 0ebe
00000370: 394b 363d 5479 813d 328f 443d cebc 21be
00000380: 4f67 b83d abbe af3d ac3a e0b9 ec73 653d
00000390: 873d f43b 6c44 fbbd 70f2 86bd 2657 f0bc
000003a0: 839f bbbd 10d1 cd3a 44f2 15be 5172 69be
000003b0: 7ad0 64bd c0e7 e23d 0681 fa3c 1138 7d3c
000003c0: ed6c 89bd 146c 3e3e cccd 053e 95f9 5bbe
000003d0: 41fc 163e a44a 213e e1f0 4d3d 2dbb ecbc
000003e0: aad5 843e 92d8 3abe 5658 12bc 7ade 11bc
000003f0: ac1d 693e 14ef 383d 4421 163c 52d6 09be

network_body._body_endoder.seq_layers.8.bias f4 [128]
-0.10705749 -0.027791398 -0.1652756 -0.026806388 -0.049321737 -0.10133547 -0.07288194 0.008411157
-0.08088912 -0.14622606 -0.1338443 -0.0024850336 -0.09999263 -0.17072491 0.03720014 -0.01940121
-0.048732504 -0.061205715 -0.08163944 -0.067356415 -0.047626466 -0.07189825 -0.089279614 -0.000821433
-0.09297032 -0.117128246 -0.12436701 -0.09384855 -0.09806934 -0.17219742 -0.034310322 -0.021308143
-0.048332155 -0.16349733 0.032357708 -0.17123686 0.08701981 -0.050992217 -0.10259834 -0.12267352
-0.06106771 -0.100036606 -0.123627804 -0.076470315 -0.041935705 -0.10491384 -0.06173034 -0.12676394
-0.11255735 -0.018160636 -0.048451833 -0.13042292 -0.15393941 0.04160564 0.053213168 -0.10090938
-0.031672418 -0.009769466 -0.042912077 -0.036945205 -0.061014004 -0.0051998342 -0.051936112 -0.022873057
0.023005413 -0.044220697 -0.06407271 0.02050974 -0.07777917 -0.10190615 0.026963428 0.018158874
-0.115389876 0.0047922228 -0.043455444 -0.054431826 -0.00023051936 0.02777451 -0.10327424 -0.11866332
-0.14051068 -0.06376616 -0.0861112 -0.1797134 -0.015190767 -0.086386904 -0.036630936 -0.02293591
-0.113690406 -0.17315371 -0.041008506 -0.07127595 -0.1265278 -0.11938433 -0.07319151 -0.07601543
-0.05032652 -0.14934343 -0.086636536 -0.049167838 -0.020049274 -0.08679908 -0.039852824 -0.09428781
-0.1446435 0.0021459477 -0.062366284 0.0112377675 -0.027735801 0.025505038 0.03177813 -0.09138471
-0.101147994 0.0092955725 -0.06861094 -0.15558992 -0.024399279 -0.14741646 -0.08199698 -0.13420224
-0.034912527 -0.1547717 -0.18469809 -0.06291394 -0.08313882 -0.082007766 -0.0099442005 -0.16046238
00000000: f540 dbbd c9aa e3bc 023e 29be 1299 dbbc
00000010: 9705 4abd f988 cfbd 2043 95bd f3ce 093c
00000020: 32a9 a5bd 49bc 15be 7b0e 09be f2db 22bb
00000030: f0c8 ccbd 83d2 2ebe 2d5f 183d 49ef 9ebc
00000040: bc9b 47bd d8b2 7abd 9432 a7bd 29f2 89bd
00000050: f813 43bd 643f 93bd 3bd8 b6bd 6f55 57ba
00000060: 3967 bebd efe0 efbd 22b4 febd ab33 c0bd
00000070: 94d8 c8bd 8554 30be fb88 0cbd 6a8e aebc
00000080: f0f7 45bd d86b 27be 8489 043d b758 2fbe
00000090: 7137 b23d 37dd 50bd 141f d2bd 413c fbbd
000000a0: 2322 7abd fedf ccbd 9330 fdbd 789c 9cbd
000000b0: c6c4 2bbd 11dd d6bd f4d8 7cbd 68ce 01be
000000c0: 7884 e6bd 9dc5 94bc 6e75 46bd 968d 05be
000000d0: 4ba2 1dbe ad6a 2a3d 0df6 593d 94a9 cebd
000000e0: f0ba 01bd 1c10 20bc 93c4 2fbd db53 17bd
000000f0: d2e9 79bd 5f63 aabb f6ba 54bd 4760 bbbc
00000100: d975 bc3c c320 35bd 8e38 83bd 0b04 a83c
00000110: af4a 9fbd 2cb4 d0bd 68e2 dc3c ebc1 943c
00000120: 8751 ecbd 1408 9d3b 56fe 31bd e8f3 5ebd
00000130: 92b7 71b9 5f87 e33c 7281 d3bd c105 f3bd
00000140: 08e2 0fbe d597 82bd 125b b0bd ca06 38be
00000150: b2e2 78bc 9eeb b0bd 520a 16bd 17e4 bbbc
00000160: 84d6 e8bd 354f 31be 89f8 27bd 20f9 91bd
00000170: 8190 01be c67f f4bd 6ee5 95bd faad 9bbd
00000180: 2e23 4ebd 7ced 18be 7f6e b1bd 3764 49bd
00000190: 603e a4bc b7c3 b1bd b73c 23bd f819 c1bd
000001a0: 6d1d 14be 07a3 0c3b ca73 7fbd 9d1e 383c
000001b0: 3136 e3bc f1ef d03c c929 023d e827 bbbd
000001c0: ae26 cfbd 754c 183c e483 8cbd f752 1fbe
000001d0: ffe0 c7bc 57f4 16be 08ee a7bd 506c 09be
000001e0: 7000 0fbd 797c 1ebe 7f21 3dbe 06d9 80bd
000001f0: b044 aabd b0f3 a7bd 00ed 22bc 4050 24be
