results/ppo/My Behavior/My Behavior-1922.onnx (onnx, 72794 bytes, 6 tensors)

action_model._discrete_distribution.branches.0.bias f4 [2]
00000000: 0000 0000 0000 0000
0.0 0.0

action_model._discrete_distribution.branches.0.weight f4 [2, 128]
00000000: c1e1 333b 71a3 9239 6fbf d7bb f711 273a
00000010: 70cb e23a a6b3 b2bb 9ba7 8cba 528c 51ba
00000020: b646 b0ba 2ac1 9b3c 0d76 ef3b 5176 1a3c
00000030: 8036 4e3b e381 2f39 e243 04bc 6843 5638
00000040: 08b7 fcba 82e6 63bc 9632 a4ba 403c d43a
00000050: 87b9 d53a 14f6 3e3b 63cc 30bb 2870 a8ba
00000060: 120c e83a 6e33 8f3a 1471 3bbb 9bcc 74bb
00000070: cab9 513b 5cd8 a3bb 3802 72bc c32a 81ba
00000080: 0935 1fba 12b8 99bb f2fa 70bb 579b 21bb
00000090: cfae 00bb 481a c13b 2a2b 153b 8bd7 abbb
000000a0: fbcb bf3c a0b3 863c 139f b0bb cbaf 543b
000000b0: cf98 53bc 322b 643c c5ca d2bb a3ff dabb
000000c0: 1338 52bc 0b6f dab9 f4f8 3bba 8bb1 ee3b
000000d0: 608f ad3b 2b45 81bb 16e6 233c 4f46 7dbc
000000e0: 2f3c d9bb 4e4c 3e3a df55 fbbb 0bd2 07bc
000000f0: 5794 533c 1f73 08bc 77ea cbb8 2cbe be3b
00000100: 97d6 4ebb 14a8 8d3b 9cae 13bc 83f3 ccbb
00000110: 630a f1bb cba2 08bc 0faf 96bb 2732 18bc
00000120: af03 1b39 6fb9 51bc cc03 983b 887b 693c
00000130: 538e 9bbb 288f 08bc 57fa 19bc db06 f53b
00000140: 42dd 123b c10c ca3b 3786 86bb d5cd fe3b
00000150: 4e3d 333c 338a fdbb da2b e53a 7709 7b3b
00000160: c6e3 1e3b fd07 373c 84da 1e3c 548c a1bb
00000170: 1f36 87bb 8365 913b 7f34 d137 f80b 24bb
00000180: 3717 243c 92a4 f93b 6b73 84bb d2d5 febb
00000190: cf04 bfbb 83f2 19bc a31f 6dbb faf2 293b
000001a0: 8b8b d13b 63c4 db3b bced b53b 9a25 453c
000001b0: 835d 5bbb c275 b53c a5cb 4e3c 0f8d 6bbb
000001c0: e4df baba 1047 793b a87e e1b9 0f32 e63b
000001d0: a12e 9aba a9a1 2cbb fd66 dabb c738 9a3b
000001e0: 0042 d2ba c813 52bb 677f 1bbc 5193 b03b
000001f0: 8f00 58bc 4ff2 a23b f055 abba 3c32 4539
00000200: da75 59ba 8bc0 ae3a 6fc1 ffba 630d 55bb
00000210: 0825 ffbb 7029 edba 8f22 0dbc 178a 113b
00000220: 8527 dbbb 49be 933c 69a0 b0bb 3ff9 5abc
00000230: 51b8 053b a65a 49bc cf6c 45bb df56 da3b
00000240: 1dba 8b3a 7303 1cbc 7d0c ddba 1abe 413b
00000250: c0a0 233c 5943 aabb fb58 493b 5a72 b13c
00000260: 16e2 8b3b 93e7 053c 006c cbbb 1dd1 8dbb
00000270: 84fc 303b 9741 02bb a8a0 943c 6bed 8a3b
00000280: 3243 e9ba 0ff6 6f3a bb8c a43c af4e 2f3b
00000290: 61da 32bb 63aa 50bb 906c 403b 4edf 34bc
000002a0: eaa6 833b 6662 4a3c f67e a0bb 9f4e c0bb
000002b0: 2282 02bb 6582 debb e665 1dbc 877b d6bb
000002c0: d5bf 6ebb 32bd 69bb 8435 393b e706 713b
000002d0: 2c60 03bc a3f2 00bc 74a1 8339 1f0c 733c
000002e0: b849 3a3c d2b4 efbb 7e09 86bc e5cd 0c39
000002f0: 5082 c738 7386 1ebc ce46 1bbc 13cb 4ebc
00000300: 6a37 5ebb ae81 473b 9ff2 a5bb 7a7a 8abb
00000310: 4c75 953a f352 f73b 627a 5fbc 50c0 933b
00000320: a34b a8bc 651c 89bb e6f3 09bc 493b acbc
00000330: 12ca 3f3c a988 81bc 1e30 8fbc 6844 5b3c
00000340: b3c6 483c 2acd 71bb bbb5 75bc 6abe 723c
00000350: d820 4a3b 96cc 2d3b 5516 6c3c 4400 33bc
00000360: 66c3 873c 5f52 843b 2e1f 493b 6f01 73bb
00000370: 5357 95bb 500c 9e3b 3a22 d5bb 4547 3abc
00000380: 07a0 323b 3b9d 0f3c f268 483b a057 8fba
00000390: 3574 43bc 6bd4 5b3c 73e2 933b 2e71 2a3b
000003a0: 2c15 8abb f74f eebb 7d72 7f3b c384 99bc
000003b0: f84c a83b f749 57b9 6eb1 c33b 8fd8 003b
000003c0: 1f8a 043a e8ff 823c c715 cabb ff03 6ebc
000003d0: eb46 f9ba dfaa e0bb abb7 5fbc cdb6 31bc
000003e0: f3d4 24bc 242a 34ba b42f 253c 6596 373c
000003f0: 695c 30bb 8422 033b d20f 8c3b 8bb2 d33a
0.0027447792 0.00027969063 -0.0065841 0.00063732214 0.0017303061 -0.0054535447 -0.0010731103 -0.00079936266
-0.0013448808 0.019013006 0.007307774 0.009427623 0.003146559 0.00016737687 -0.008072825 5.1084353e-05
-0.0019280622 -0.013909938 -0.0012527283 0.0016192272 0.0016305902 0.0029138373 -0.0026977293 -0.0012850808
0.0017703793 0.0010925361 -0.0028601335 -0.00373534 0.0032001608 -0.0050001573 -0.014771037 -0.0009854663
-0.00060732715 -0.0046911323 -0.0036770669 -0.002465924 -0.0019635444 0.0058930255 0.0022761323 -0.0052442006
0.023412695 0.016443074 -0.005390057 0.0032453414 -0.01291485 0.013926314 -0.0064328634 -0.0066833063
-0.012830752 -0.00041662934 -0.0007170581 0.0072843484 0.0052966326 -0.003945013 0.010003587 -0.015458657
-0.006629489 0.0007259295 -0.0076701487 -0.008289824 0.012913785 -0.008328228 -9.723467e-05 0.00582101
-0.003156101 0.004323015 -0.009013798 -0.006254615 -0.0073559745 -0.008339594 -0.0045985053 -0.009289301
0.00014783324 -0.0128005585 0.0046391245 0.014250644 -0.004747191 -0.008334912 -0.009398065 0.007477624
0.0022409712 0.006166071 -0.004105355 0.007776002 0.010939909 -0.007737422 0.0017484382 0.0038305202
0.002424465 0.011171338 0.009695653 -0.0049300585 -0.004126325 0.00443715 2.4939187e-05 -0.0025031548
0.0100153005 0.0076184953 -0.004042079 -0.007776954 -0.0058294307 -0.009396198 -0.0036182187 0.0025932179
0.0063948086 0.0067067607 0.005552022 0.012032891 -0.0033472485 0.022150878 0.012621795 -0.0035942232
-0.0014257398 0.0038036741 -0.0004300971 0.0070250104 -0.0011763164 -0.0026341474 -0.006665109 0.0047064754
-0.0016041398 -0.0032055248 -0.009490824 0.0053886552 -0.013183727 0.004972733 -0.0013071876 0.00018806098
-0.00082954543 0.0013332529 -0.0019512604 -0.00325092 -0.007786397 -0.0018094014 -0.008614196 0.0022207552
-0.0066880607 0.018035071 -0.005390216 -0.013365089 0.002040405 -0.012289679 -0.003012467 0.006663188
0.0010660324 -0.009522307 -0.0016864684 0.0029562772 0.009987056 -0.0051960167 0.0030723203 0.021660972
0.004268895 0.008172887 -0.006207943 -0.0043279068 0.002700598 -0.001987552 0.018143013 0.004239728
-0.0017796515 0.0009153792 0.020086637 0.002674978 -0.0027290809 -0.003183984 0.0029361583 -0.011039568
0.0040177004 0.012352562 -0.0048979474 -0.0058687474 -0.001991399 -0.0067904466 -0.009606814 -0.0065454873
-0.0036430259 -0.0035665748 0.0028260658 0.0036777796 -0.008018535 -0.007870349 0.0002510656 0.014834433
0.011370115 -0.0073152566 -0.016361948 0.00013428142 9.513332e-05 -0.00967561 -0.00947733 -0.012621659
-0.003390754 0.0030442285 -0.005064323 -0.004226026 0.0011402755 0.00754773 -0.013640018 0.0045090094
-0.020543879 -0.004184293 -0.008419966 -0.021024363 0.011705892 -0.015812235 -0.017478999 0.013383009
0.012254405 -0.003689597 -0.014996941 0.014815906 0.003084233 0.0026519648 0.014409621 -0.010925356
0.016572665 0.0040381397 0.003068875 -0.0037079712 -0.004557529 0.004823245 -0.0065043243 -0.011369531
0.0027256028 0.008765514 0.003058013 -0.0010936148 -0.011929561 0.013417344 0.004513079 0.0026007402
-0.0042139497 -0.007272716 0.0038978152 -0.018740064 0.0051361285 -0.00020531552 0.005972079 0.001966033
0.0005055982 0.015991166 -0.006167147 -0.01452732 -0.0019018328 -0.006856307 -0.01365463 -0.010846806
-0.010060537 -0.00068727345 0.010082174 0.01120529 -0.002691055 0.0020009587 0.004274347 0.0016151232

network_body._body_endoder.seq_layers.0.bias f4 [128]
00000000: 0000 0000 0000 0000 0000 0000 0000 0000
00000010: 0000 0000 0000 0000 0000 0000 0000 0000
00000020: 0000 0000 0000 0000 0000 0000 0000 0000
00000030: 0000 0000 0000 0000 0000 0000 0000 0000
00000040: 0000 0000 0000 0000 0000 0000 0000 0000
00000050: 0000 0000 0000 0000 0000 0000 0000 0000
00000060: 0000 0000 0000 0000 0000 0000 0000 0000
00000070: 0000 0000 0000 0000 0000 0000 0000 0000
00000080: 0000 0000 0000 0000 0000 0000 0000 0000
00000090: 0000 0000 0000 0000 0000 0000 0000 0000
000000a0: 0000 0000 0000 0000 0000 0000 0000 0000
000000b0: 0000 0000 0000 0000 0000 0000 0000 0000
000000c0: 0000 0000 0000 0000 0000 0000 0000 0000
000000d0: 0000 0000 0000 0000 0000 0000 0000 0000
000000e0: 0000 0000 0000 0000 0000 0000 0000 0000
000000f0: 0000 0000 0000 0000 0000 0000 0000 0000
00000100: 0000 0000 0000 0000 0000 0000 0000 0000
00000110: 0000 0000 0000 0000 0000 0000 0000 0000
00000120: 0000 0000 0000 0000 0000 0000 0000 0000
00000130: 0000 0000 0000 0000 0000 0000 0000 0000
00000140: 0000 0000 0000 0000 0000 0000 0000 0000
00000150: 0000 0000 0000 0000 0000 0000 0000 0000
00000160: 0000 0000 0000 0000 0000 0000 0000 0000
00000170: 0000 0000 0000 0000 0000 0000 0000 0000
00000180: 0000 0000 0000 0000 0000 0000 0000 0000
00000190: 0000 0000 0000 0000 0000 0000 0000 0000
000001a0: 0000 0000 0000 0000 0000 0000 0000 0000
000001b0: 0000 0000 0000 0000 0000 0000 0000 0000
000001c0: 0000 0000 0000 0000 0000 0000 0000 0000
000001d0: 0000 0000 0000 0000 0000 0000 0000 0000
000001e0: 0000 0000 0000 0000 0000 0000 0000 0000
000001f0: 0000 0000 0000 0000 0000 0000 0000 0000
0.0 0.0 0.0 0.0 0.0 0.0 0.0 0.0
0.0 0.0 0.0 0.0 0.0 0.0 0.0 0.0
0.0 0.0 0.0 0.0 0.0 0.0 0.0 0.0
0.0 0.0 0.0 0.0 0.0 0.0 0.0 0.0
0.0 0.0 0.0 0.0 0.0 0.0 0.0 0.0
0.0 0.0 0.0 0.0 0.0 0.0 0.0 0.0
0.0 0.0 0.0 0.0 0.0 0.0 0.0 0.0
0.0 0.0 0.0 0.0 0.0 0.0 0.0 0.0
0.0 0.0 0.0 0.0 0.0 0.0 0.0 0.0
0.0 0.0 0.0 0.0 0.0 0.0 0.0 0.0
0.0 0.0 0.0 0.0 0.0 0.0 0.0 0.0
0.0 0.0 0.0 0.0 0.0 0.0 0.0 0.0
0.0 0.0 0.0 0.0 0.0 0.0 0.0 0.0
0.0 0.0 0.0 0.0 0.0 0.0 0.0 0.0
0.0 0.0 0.0 0.0 0.0 0.0 0.0 0.0
0.0 0.0 0.0 0.0 0.0 0.0 0.0 0.0

network_body._body_endoder.seq_layers.0.weight f4 [128, 6]
00000000: c413 28be f957 3abf 0a56 50bf 6f96 d83c
00000010: ee70 8a3e 0a29 0e3d 8d28 793e ab63 21bf
00000020: 866c a4be 22ce c53e ed1f 8bbd 2be9 0f3e
00000030: 555c 143e bd37 f7bd 9f45 363e e183 933e
00000040: 41c6 d03e 307c d0be 9197 c2bd 631a 603f
00000050: 9434 373e 936d 73be 3061 9bbe 347e 86be
00000060: 2214 563d a351 4c3c 2c0d cc3d 0f93 033e
00000070: 826f abbe b8d4 c43e 003c 4bbf 4749 cebe
00000080: 99ff e63d 447e 8a3c e021 1d3f 3031 433f
00000090: 35b4 e3be d2ea cb3e 2c35 98be d110 19be
000000a0: 36b2 8cbe b57c 94be 1506 2e3f 3d16 9dbe
000000b0: 26c1 aabd 33f3 10be ca37 393f ca18 f83e
000000c0: 1cb0 0a3e 0c9a 55be cdb9 16bf fa0f 13bf
000000d0: ab18 663e 6b23 44bf 5133 c13b ca9a 343d
000000e0: b787 1abf a505 4fbf 9686 21bf 053e 5abe
000000f0: c49e 8dbe 2ccd 1cbe b1b2 4cbe 2f8a 86ba
00000100: cdf7 9f3e 4938 29bf 0ba6 d0bc 8eb5 bd3e
00000110: 8033 ee3e 0fa3 82be 9dd2 01be b3bc 9cbe
00000120: f592 59bf 5f8c 163e 3b4a 4ebe 0018 9d3d
00000130: 972f a23d 55c9 433d d184 5fbe 88e7 783d
00000140: b030 2dbf 3c4e fabe 3f3f db3d 1499 a9be
00000150: 743a eabc 9a5a 783d 296f 02bf 1312 833d
00000160: 97a0 a1be f3ac 04bf 4b52 17bf 896e 22bf
00000170: 23b0 a43e 295a 76be c14b ee3d f295 99bd
00000180: a575 aa3e 7fb7 a6be d143 4c3d 18ca 8d3e
00000190: e413 0d3d 8843 023e 54a9 f23e 4396 313f
000001a0: be04 be3d 44ab 19be 5a8d bdbe ee82 82bd
000001b0: 2b52 3b3f aa45 5d3f 2c7c a2be 39cf 72be
000001c0: 8489 3c3f 9acf 19be fae8 313f f7ce 253f
000001d0: fad9 10bf 13b1 ea3e 580a 7a3d 58d2 283d
000001e0: 43ad 75be ec91 293d baf2 43be 7494 fabe
000001f0: 65da c43e 6f04 df3e 3c9d fd3e 8c89 d9bd
00000200: c5bb c23e bc3f 6cbd a9dd 98be 5a6e df3e
00000210: 16af 923d f7e3 003f 17f8 093f f535 09be
00000220: aca6 b5be cce1 f33e b9d4 bfbe 6939 c8bd
00000230: e49d 29be 6045 6b3f b2b8 0ebe 64e6 383f
00000240: 4534 b33e b1d6 b3be 111b 33be c7ee 603e
00000250: da88 863e 4e1f 39be ec03 8c3e 4f5e e7be
00000260: 7d29 80be 0d11 203f cf74 17be b2dc e0be
00000270: ea92 093f b6a0 4cbf c435 3b3e 1826 943e
00000280: b52b 31bf be35 463f 1636 ab3d 689c 963d
00000290: 57ca 763e 10ac 973e 8215 52bf 8f68 63be
000002a0: 0b7d 433e a2d6 4ebe 695f a33d c9a0 6bbe
000002b0: f785 86be b5fe 86be 1f4e b83e d1a9 ccbd
000002c0: 14fd 94be 4b01 a7bd d348 afbe 6064 30be
000002d0: 67f0 003e 1c95 a3be 07b3 c4be 1509 11be
000002e0: 48f1 bf3d 9dc1 363e ce0a 693e 8aff 22bf
000002f0: 0db1 333e 48f1 c03e a974 e13c c09a 77be
00000300: 1a2d a6bd f0b9 493e d4f9 463f 34ea 563e
00000310: 4023 2fbe a93c fc3e 5dcf a53d a0b9 25bf
00000320: 5e04 733d e82a 6dbe e7ed d43e f2f4 1bbe
00000330: 58a4 1b3d f7f5 edbd 20e7 ddbd a44b 07bf
00000340: f3a2 50be 2420 083f d571 003f 7552 c53d
00000350: 18fb 413e 09d1 743f d0ff f6be 419c d7bd
00000360: f9d1 c3be 8675 d7be 60ba 58bf 16d2 21be
00000370: dd76 aa3e 02ed a7be b502 c9b9 6d8a 8f3e
00000380: ce01 7b3e 6880 023f d995 2a3e dd11 a4bc
00000390: 6659 cbbd 9580 063f 93ae 4c3f 99f4 cabe
000003a0: 1e83 773e 8fcb 94bd 0aec b83d 7753 7e3f
000003b0: 34c3 7fbc 664e e3be 94d3 c6bc 4024 45bf
000003c0: defc b13e 9c10 42bf 39eb 2abe d573 38be
000003d0: 167d 87be 2938 d9bd 8660 db3e 3e21 51bd
000003e0: 1e2d 33bd fc2a 55bd 11d9 bd3d 9c22 d53e
000003f0: 4220 e93e 94c4 6bbd 8f59 b53d fbaf 0cbf
-0.1641379 -0.72790486 -0.81381285 0.02643892 0.27039284 0.034707107 0.24331875 -0.63042706
-0.32114047 0.3863383 -0.06793199 0.1405379 0.14488347 -0.12071178 0.17799996 0.28811553
0.40776256 -0.40719748 -0.09501565 0.8754026 0.1789115 -0.23772268 -0.30347586 -0.2626816
0.052265294 0.012470636 0.0996345 0.12849067 -0.3348351 0.38443542 -0.7938843 -0.4029028
0.1127922 0.016905911 0.61379814 0.7624693 -0.44473425 0.3982759 -0.29728067 -0.14947821
-0.27479714 -0.29001394 0.6797803 -0.3068103 -0.083376214 -0.14155273 0.7235075 0.48456413
0.13543743 -0.20859545 -0.5887726 -0.57446253 0.22470348 -0.76616544 0.00589601 0.04409293
-0.60363334 -0.8086799 -0.63095987 -0.21312721 -0.2766019 -0.15312642 -0.1999004 -0.0010264571
0.31243744 -0.6610151 -0.0254698 0.37052578 0.46523666 -0.2551503 -0.12677999 -0.30612716
-0.84989864 0.14701985 -0.20145504 0.07670593 0.07919233 0.047799427 -0.21828009 0.06076768
-0.67652416 -0.48887813 0.107054226 -0.33124602 -0.028592326 0.06063328 -0.50950867 0.06399932
-0.31567833 -0.518264 -0.59109944 -0.63449913 0.32165632 -0.24057831 0.11635543 -0.07499303
0.3329288 -0.3256187 0.049869362 0.27693248 0.034442797 0.12721074 0.47394812 0.69369906
0.09278248 -0.15006739 -0.37021905 -0.06372629 0.73172253 0.86434424 -0.3173536 -0.23711862
0.7364733 -0.150206 0.6949612 0.6476893 -0.56582606 0.45838222 0.06104502 0.041216224
-0.23991875 0.041398928 -0.19135562 -0.48941386 0.38447872 0.4355807 0.49534023 -0.10621938
0.38033882 -0.05767797 -0.29856613 0.4363888 0.07162301 0.50347847 0.5389418 -0.13399489
-0.35478723 0.47633207 -0.37466982 -0.09776575 -0.16564137 0.9190273 -0.13937643 0.7222655
0.35000816 -0.35124734 -0.17490794 0.21966086 0.26276284 -0.18078348 0.27346742 -0.4518914
-0.25031653 0.6252602 -0.14790653 -0.43918377 0.537398 -0.79932725 0.18282229 0.28935313
-0.69207317 0.77425754 0.083599254 0.07354051 0.24100624 0.2962346 -0.8206407 -0.22207855
0.19090669 -0.20199063 0.079771824 -0.23010553 -0.26274082 -0.263662 0.35997102 -0.099933274
-0.29099333 -0.081545435 -0.34235248 -0.1722579 0.12591706 -0.319497 -0.38417837 -0.14163621
0.093721926 0.17847295 0.22758028 -0.6367117 0.17548008 0.37684083 0.027521448 -0.24180126
-0.08114071 0.19699836 0.7772496 0.20987779 -0.1710329 0.4926503 0.08096192 -0.64736366
0.059330337 -0.23160899 0.41587755 -0.15230158 0.037998527 -0.1161918 -0.10835099 -0.52849793
-0.2037466 0.5317404 0.50173694 0.09634868 0.18943441 0.9563146 -0.48242044 -0.1052785
-0.38246134 -0.4208185 -0.84659386 -0.15802798 0.3329381 -0.3279801 -0.00038339724 0.28035298
0.24512407 0.5097718 0.16658725 -0.02002805 -0.09929161 0.5253995 0.7995388 -0.39639738
0.24171111 -0.07265388 0.09029396 0.9934611 -0.015610505 -0.4439575 -0.02427081 -0.7700844
0.34763235 -0.75806594 -0.16691293 -0.18012936 -0.2646262 -0.10606415 0.4284708 -0.051057093
-0.0437442 -0.052042946 0.09269918 0.41627967 0.45532423 -0.05756052 0.088549726 -0.54956025

network_body._body_endoder.seq_layers.2.bias f4 [128]
00000000: 0000 0000 0000 0000 0000 0000 0000 0000
00000010: 0000 0000 0000 0000 0000 0000 0000 0000
00000020: 0000 0000 0000 0000 0000 0000 0000 0000
00000030: 0000 0000 0000 0000 0000 0000 0000 0000
00000040: 0000 0000 0000 0000 0000 0000 0000 0000
00000050: 0000 0000 0000 0000 0000 0000 0000 0000
00000060: 0000 0000 0000 0000 0000 0000 0000 0000
00000070: 0000 0000 0000 0000 0000 0000 0000 0000
00000080: 0000 0000 0000 0000 0000 0000 0000 0000
00000090: 0000 0000 0000 0000 0000 0000 0000 0000
000000a0: 0000 0000 0000 0000 0000 0000 0000 0000
000000b0: 0000 0000 0000 0000 0000 0000 0000 0000
000000c0: 0000 0000 0000 0000 0000 0000 0000 0000
000000d0: 0000 0000 0000 0000 0000 0000 0000 0000
000000e0: 0000 0000 0000 0000 0000 0000 0000 0000
000000f0: 0000 0000 0000 0000 0000 0000 0000 0000
00000100: 0000 0000 0000 0000 0000 0000 0000 0000
00000110: 0000 0000 0000 0000 0000 0000 0000 0000
00000120: 0000 0000 0000 0000 0000 0000 0000 0000
00000130: 0000 0000 0000 0000 0000 0000 0000 0000
00000140: 0000 0000 0000 0000 0000 0000 0000 0000
00000150: 0000 0000 0000 0000 0000 0000 0000 0000
00000160: 0000 0000 0000 0000 0000 0000 0000 0000
00000170: 0000 0000 0000 0000 0000 0000 0000 0000
00000180: 0000 0000 0000 0000 0000 0000 0000 0000
00000190: 0000 0000 0000 0000 0000 0000 0000 0000
000001a0: 0000 0000 0000 0000 0000 0000 0000 0000
000001b0: 0000 0000 0000 0000 0000 0000 0000 0000
000001c0: 0000 0000 0000 0000 0000 0000 0000 0000
000001d0: 0000 0000 0000 0000 0000 0000 0000 0000
000001e0: 0000 0000 0000 0000 0000 0000 0000 0000
000001f0: 0000 0000 0000 0000 0000 0000 0000 0000
0.0 0.0 0.0 0.0 0.0 0.0 0.0 0.0
0.0 0.0 0.0 0.0 0.0 0.0 0.0 0.0
0.0 0.0 0.0 0.0 0.0 0.0 0.0 0.0
0.0 0.0 0.0 0.0 0.0 0.0 0.0 0.0
0.0 0.0 0.0 0.0 0.0 0.0 0.0 0.0
0.0 0.0 0.0 0.0 0.0 0.0 0.0 0.0
0.0 0.0 0.0 0.0 0.0 0.0 0.0 0.0
0.0 0.0 0.0 0.0 0.0 0.0 0.0 0.0
0.0 0.0 0.0 0.0 0.0 0.0 0.0 0.0
0.0 0.0 0.0 0.0 0.0 0.0 0.0 0.0
0.0 0.0 0.0 0.0 0.0 0.0 0.0 0.0
0.0 0.0 0.0 0.0 0.0 0.0 0.0 0.0
0.0 0.0 0.0 0.0 0.0 0.0 0.0 0.0
0.0 0.0 0.0 0.0 0.0 0.0 0.0 0.0
0.0 0.0 0.0 0.0 0.0 0.0 0.0 0.0
0.0 0.0 0.0 0.0 0.0 0.0 0.0 0.0

network_body._body_endoder.seq_layers.2.weight f4 [128, 128]
00000000: ec16 c1bd 79eb 533c 1459 dd3d fdac 4d3d
00000010: c750 75be fb41 35be 9828 733d c6ca da3d
00000020: de55 dabd 7971 22bc ca08 cebc 6039 38bc
00000030: fa6f 2d3e e50f 2b3d 4a70 d7bc e70d 033d
00000040: 77f7 b0bc 8508 60bd 570d f63c 3108 22be
00000050: 43b9 44be becb ca3c 007b 11bd eeaf 8abc
00000060: 8337 5c3d bf7a 103e 5f7a f93d facc 08bc
00000070: ca51 50bd f914 90bd ee02 b13c f572 b43d
00000080: 92b1 5c3d d11d 063e 8046 013e b2f3 c1bd
00000090: e20a 0bbd 25fd 5abc 40e2 f03d 4f83 d33d
000000a0: 2cc1 0cbe f119 0fbd a4e1 37bd b4b9 763d
000000b0: 9293 cbbd 85c1 a73d 50ff 803c 3771 143c
000000c0: 6294 52bd 7844 9cbd addc 0bbe cebd 443e
000000d0: cad6 9dbd 96b9 0e3d 764b 143e 8473 293e
000000e0: cdf0 d8bc 03e5 e6bd 6fba e4bd a217 51bd
000000f0: 7d4e f7bc 48ea d43c cdda 61bb 9adc e5bc
00000100: 4f23 c8bc efcb 8d3d 1077 51bd 7c79 74bd
00000110: d8f7 d8bc 2c82 1a3d 8e4e 35be f104 283e
00000120: 3a8d b0bd 7227 c4bc 0186 4ebd 5faf a13d
00000130: c0c1 6fbd c8c0 9fbd e4c8 883d adac c63d
00000140: df81 7abd b317 95bd 4acb d2bd 849d 063b
00000150: 9c64 833d 9253 44bd 6170 34bd dbd6 b1bc
00000160: 6c40 d43b 3fbb 04be e622 32bc 1409 13be
00000170: 42df 053e 264a a8bd 5500 03be 1ad4 b2bd
00000180: b498 d5bd e909 d73d f420 163d 13ea 44bd
00000190: b72d 56bd 96af 773c ba4c b3bd 44fa e0bc
000001a0: 804a 0dba b206 3b3e 6912 523d 0949 b53c
000001b0: 634d 6dbb a8aa f63c 44ec c4bc 61d3 b53d
000001c0: 7adb b2bc 08fa 1a3e 4c64 8b3b bb41 26be
000001d0: 4714 bf3d 6d4a 903d 57b5 fa3d 5c6a 4a3e
000001e0: edb3 0abc c3de 0a3d 5846 33bd 17c0 303d
000001f0: 9687 373d 25f0 6e3d edbc 3a3d 76f8 f7bd
00000200: c784 413d d996 91bd d95e b63d 820a ddbd
00000210: cd35 c4bc f859 9cbc 97a3 38bd f2c7 60bd
00000220: 62e5 ac3c f677 f73d 8e27 83bd a758 99bd
00000230: 5352 243e 74c6 c83d cd88 433e df23 9a3d
00000240: 5f67 8bbd 5ced aabd 452c 183c 1d99 333d
00000250: f31d 783d 20e4 bc3d eaa9 8d3c a6ce cdbc
00000260: e441 023d 7e13 3b3c aa5a d83d 13c0 e83b
00000270: 39bf 29be 585b 143d 43ed 873d 68fa 85bc
00000280: 022b fabc 72ef 2fbe 7ee8 aa3d 4e03 adbc
00000290: 17e5 34bd 705c 053c 1f85 59bc 10f1 5dba
000002a0: 11b9 2bbd 6251 6cbd 77c9 463d f139 aa3d
000002b0: 157c 4dbd c1dc 99bd 9d6b 8d3d 8d96 183d
000002c0: 02a8 5ebe 9ce4 7dbd 5d7e ffbc 0745 4cbc
000002d0: 5d57 e5bd 7d09 b3bc a4e8 11be 66cc 283d
000002e0: 06b4 cb3d 0e6f ac3d d8de 133e bd26 cfbd
000002f0: dea9 793d 503f b53b 8af5 31be b5c2 023d
00000300: 0ce3 4dbd 7a85 dbbd ad98 d2bd cec7 683d
00000310: 1e9d b33d 7635 093d b130 93bd 6413 35bc
00000320: cf81 ac3d 2003 05bd 39ef 953c 88a6 83bc
00000330: 2e01 1d3e 5d4c 3fbd b8f2 12be 9c1d 333d
00000340: 8913 b53d 5d9c c43c 23ae 16bd 51fc 69bd
00000350: 4183 3cbd d798 a0bd 295b b73d 7337 5a3d
00000360: 5ae0 093d e33c 403e 6976 d8bb 4e11 98bd
00000370: 8064 423e fb5b 35bd 83b4 97bd ee95 04bd
00000380: ebdb 913d 5430 cbbd aad4 c23c 8fbc 2a3d
00000390: 4d20 b9bb 84fe e2bc dc6e 443d f37a 2d3d
000003a0: f003 993d 54c0 2c3d 4c1d 753e bfc9 1a3d
000003b0: 98af 183d 4dc9 12bd 5689 dabd e5b6 113e
000003c0: 9e2b 813e acb4 733c a02a 1dbd 946f ffbc
000003d0: 96ef 593c 4559 d23b 5667 86bc 099e 63bd
000003e0: dc3b 6a3d d7c2 f53d 2549 53be 0302 05bd
000003f0: fdc4 003e 09bc 26be e6fd 143b 9b01 0a3d
-0.094282 0.012934559 0.10808006 0.050213803 -0.23956595 -0.17700951 0.059364885 0.10683207
-0.10660909 -0.009914749 -0.025150675 -0.011244148 0.16937247 0.041763205 -0.02629866 0.03199568
-0.021602375 -0.054695625 0.030035658 -0.15823437 -0.19211297 0.024755355 -0.035517693 -0.016929593
0.053763878 0.14109324 0.121815436 -0.0083496515 -0.05085925 -0.0703525 0.021607842 0.08810989
0.05388028 0.13097312 0.1262455 -0.09470309 -0.033945926 -0.013366018 0.11761904 0.103277795
-0.13745564 -0.03493685 -0.044892922 0.060235694 -0.09940256 0.08191208 0.015746742 0.009060196
-0.05141104 -0.07630247 -0.136584 0.1921303 -0.077069834 0.034844957 0.14481911 0.16547972
-0.02648201 -0.11274149 -0.11168372 -0.05104793 -0.030188793 0.02599062 -0.003446269 -0.028059293
-0.024430899 0.06923663 -0.051138937 -0.05968617 -0.026485369 0.037721798 -0.17705747 0.16408135
-0.08620687 -0.02394459 -0.050420765 0.078947775 -0.058534384 -0.07800442 0.06678942 0.09700904
-0.06115901 -0.07279911 -0.102926806 0.0020540664 0.06415674 -0.04793126 -0.044052485 -0.021708896
0.0064774062 -0.12962054 -0.010872578 -0.14358932 0.13073447 -0.08217268 -0.12793095 -0.087318614
-0.104295164 0.10499937 0.03665252 -0.048074793 -0.05228969 0.015117547 -0.08754869 -0.027463086
-0.00053898245 0.18264273 0.05128709 0.022129552 -0.0036209456 0.030110672 -0.024038441 0.08878208
-0.02183317 0.15134442 0.0042538997 -0.16236012 0.093300395 0.070454456 0.12241619 0.19767135
-0.008465749 0.03390385 -0.043768257 0.04315194 0.04480704 0.05833449 0.04559033 -0.12107937
0.047245767 -0.0710885 0.089048095 -0.1079302 -0.023951435 -0.01908587 -0.045077886 -0.054878183
0.021105472 0.120834276 -0.06404029 -0.07487612 0.16047029 0.09803477 0.19095154 0.07526373
-0.06806826 -0.08346054 0.009287898 0.043847192 0.060575437 0.09223199 0.017292935 -0.025122952
0.03180112 0.0114182215 0.10564168 0.007102975 -0.16576852 0.036219925 0.06637051 -0.016354755
-0.030538086 -0.17181185 0.083451256 -0.02111974 -0.04416379 0.008139715 -0.013276367 -0.0008466402
-0.04192454 -0.0576948 0.048531976 0.08311833 -0.050167162 -0.075128086 0.06905291 0.03725295
-0.21743777 -0.061985597 -0.031188184 -0.012467629 -0.11198304 -0.02185511 -0.14248902 0.041210555
0.09946446 0.084196195 0.14440477 -0.101148106 0.060953014 0.005531229 -0.17378822 0.03192397
-0.050265357 -0.10718818 -0.10283027 0.056831174 0.08770202 0.03349825 -0.071870215 -0.011051986
0.084231965 -0.032473683 0.018302547 -0.01607062 0.15332481 -0.046703685 -0.14350402 0.04372941
0.08841617 0.024000341 -0.036787163 -0.057125393 -0.04602361 -0.07841652 0.08952934 0.053275537
0.033661224 0.18773226 -0.0066059125 -0.074251756 0.1898365 -0.044277173 -0.07407477 -0.032369547
0.07122024 -0.09921327 0.023783047 0.04168373 -0.0056496025 -0.027709253 0.047957286 0.04235358
0.07471454 0.042175606 0.23936957 0.037790056 0.037276834 -0.035836507 -0.10670726 0.14229925
0.2522859 0.0148746185 -0.03837073 -0.031181134 0.013301751 0.006419333 -0.016406696 -0.055570636
0.057185993 0.120000534 -0.20633371 -0.03247262 0.12575145 -0.16282667 0.0022734343 0.033692937
