results/ppo/My Behavior/My Behavior-2816.pt (torch, 152847 bytes, 10 tensors)

network_body._body_endoder.seq_layers.0.weight f4 [128, 10]
00000000: 533e 1bbf 15cf e0bc c272 403e 37f5 98be
00000010: b739 a33d 3195 debc c28a aa3f 6348 8ebe
00000020: f1e7 b13e 0a13 14be 0aa2 45be e386 a63e
00000030: ecd6 df3d 736a 893e 9cd5 97bc a2bd 94be
00000040: 6f09 803e dc02 b9be bd67 953e f898 cabe
00000050: 53c6 0d3e af43 0f3e e970 e53e 13a2 b5bd
00000060: 9abc 7cbe 7714 4cbe 1c2c 833e dc75 1dbf
00000070: ea19 203f 6296 783e 9ee8 34be e75a 193e
00000080: aa88 61bd 6afb 89bc 9bcf e83d 3288 cf3e
00000090: 1333 23be 1f95 c9be 00b1 983d bb45 8cbe
000000a0: ef53 073e 678a dd3e 722e 233e 5665 243f
000000b0: 0c31 933e 026f 5f3e 1435 46bf d4ad 993b
000000c0: ff79 593e fc9d 90be 3209 003e 20e9 c3be
000000d0: 9574 ae3e 49d4 823d 9ff3 cf3e 4bd4 9a3e
000000e0: d320 46be 1713 d93d b67f 9f3e f7d0 b03b
000000f0: 76d9 2ebf 2c2c f13e 7bab b33e 8666 26bd
00000100: 170c 843d 8088 d6bd 67e7 053f cd59 b2bc
00000110: 13b1 f63e 85d5 5f3e 8f8e 12bf fb03 e2be
00000120: 45d1 43bc 9f12 af3e b479 95be edd0 d63d
00000130: 18af bdbd 3d5d 9b3e c635 d5bd f8cf 103d
00000140: e69c 77be 7274 b4be ef04 55be da02 a73e
00000150: cce8 93bd f4ee 083e 41b1 b33e fc7f 04be
00000160: aadd 0ebf 6d2c bb3d 269f 06be 55b3 ba3c
00000170: c090 53be 0f44 3b3f bf23 54be a2fa 773e
00000180: f443 b0bd 2baf 07bf 3c3f 2f3f a624 053d
00000190: c53a 7f3f bbd6 ee3d b78e 5dbc cc9f c43e
000001a0: 85cb a0be dd1c e03e 0aa7 923e 90d1 86bf
000001b0: 4925 143d 9d92 93bc d0f3 623e 98e4 1e3d
000001c0: 7312 023c 45fb e43d 88c6 4d3d 2f57 a33e
000001d0: d834 0f3f b4d7 4bbe b54d 523e 08de c33d
000001e0: 6f7a ab3d c7fd 573e 899d a63e e647 b9be
000001f0: 5338 093d fd72 5e3e 1cdd 963e 498c eabe
00000200: cde4 95bc 5bf5 afbe 4f4e 9ebe 58fa 7bbe
00000210: 2c60 9fbe ba2b ab3e b57c a5bd 7a20 803d
00000220: a34b 6b3e b997 87be d79d 943d 28c9 a93e
00000230: 39ed aabe 3f8e ad3e b9a2 823e 27ab ffbe
00000240: 180c 5cbe 7ea9 763e af52 f2be d17e 893d
00000250: 39c3 0a3e bfad 0ebe 6375 263f 242a 7bbf
00000260: 4476 99be 71f8 533e 06f5 e0bd a561 28be
00000270: ca13 11bf 72ed 853e f313 6d3d b0b9 49be
00000280: e814 773e 8520 903e 8ba1 3fbf b9bf 993e
00000290: 0b1a ab3d 582e 82be 895a 29be 98cb 9ebe
000002a0: 50c3 17be bd9b 32be c4f8 d93e fa01 da3d
000002b0: 0707 983e a2ec fc3d 645c 0ebf 82b3 863e
000002c0: 5e76 3dbe 2be4 d1bd 9fcb 3b3d 1e83 37bc
000002d0: 2cc3 a03e af0f 2b3e 78c4 db3e 7bb2 09bf
000002e0: ba9a 9c3d 8add 01bd dc1d ff3d 77a8 57bf
000002f0: 2339 14bf 047b d2bd ae8d 0c3e bc4c cb3d
00000300: dd5d 69bd da6b 923e 4337 08be 86d3 2dbe
00000310: 310c 253e 9630 ca3e 38bd 78be 2d41 a4be
00000320: 83df 34bd 7bbf 09bf e213 f63c 40d5 023f
00000330: a29b cfbe bd5e 7f3e d701 093f b5ae 96bc
00000340: 7e1e 4f3e 7640 f03e 32bf 0bbe 5043 a03e
00000350: c606 4ebf f2ad b23c d202 a43c 959b 90bd
00000360: a837 89be f42f d63d 07a5 be3e 3c03 a93d
00000370: 0bcb 32be 34cf b43e 1d4f d3be fdbd 26bf
00000380: 2b01 fabe 7b2a 843e e132 debe cde7 57be
00000390: fd95 b6be d0ce 0fbe e859 6fbe 0189 56bb
000003a0: 4e05 7abe 064f 40be a96e b9be d798 87be
000003b0: 2728 82be 5efe 10bd c43c aabc 9d01 243c
000003c0: 41dd b03e 640e 323e 36b1 82be 01bf 03bd
000003d0: efd5 9e3d dd76 213f 6a4a 1e3f 2be8 283e
000003e0: 97d9 4bbe 437a d4be 29bf 523e 50e1 fc3e
000003f0: 3730 413d 031e 31be 3fbb c73d a542 6b3d
-0.60641974 -0.027442494 0.18793777 -0.29874584 0.079699926 -0.02717075 1.3323596 -0.27789602
0.3474727 -0.14460388 -0.19300094 0.32524785 0.10929665 0.26839027 -0.018534474 -0.29050928
0.25007197 -0.36134994 0.2918071 -0.3956983 0.13845186 0.13990663 0.44812706 -0.08868804
-0.24681321 -0.19929682 0.2561959 -0.61507964 0.6253954 0.24276116 -0.17666861 0.14976083
-0.055061974 -0.016843516 0.113677226 0.40533596 -0.15937452 -0.39371583 0.07455635 -0.2739695
0.13215612 0.43269655 0.15935686 0.64217126 0.28748357 0.2181969 -0.7742474 0.0046899114
0.21237944 -0.28245533 0.12503508 -0.38263798 0.3407332 0.063881464 0.40615556 0.30240092
-0.19348459 0.10599344 0.31152123 0.0053960043 -0.6830057 0.47104013 0.35091767 -0.040625118
0.064476185 -0.10475254 0.52306217 -0.021771336 0.48181972 0.21858795 -0.5724878 -0.44143662
-0.011951749 0.34193894 -0.29194415 0.10489068 -0.09261912 0.30344573 -0.10410647 0.035354584
-0.24180946 -0.3524509 -0.20802663 0.32619363 -0.07222137 0.13372403 0.35096171 -0.12939447
-0.5580698 0.09139333 -0.13146648 0.02279059 -0.20660686 0.73150724 -0.20716761 0.24216703
-0.08606711 -0.5300166 0.68455863 0.032505654 0.9969905 0.1166205 -0.013522795 0.38403165
-0.31405273 0.4377202 0.28643066 -1.0532703 0.03616837 -0.018014247 0.2216332 0.038792223
0.007938969 0.11180738 0.050238162 0.31902453 0.5594001 -0.19906503 0.20537455 0.095638335
0.08372962 0.21092902 0.32542065 -0.36187667 0.03350098 0.21723552 0.29465568 -0.45810154
-0.018297577 -0.3436688 -0.3091912 -0.24607217 -0.3112806 0.33431798 -0.080804266 0.062561944
0.22978072 -0.26482943 0.07256668 0.33161283 -0.33384112 0.33897588 0.25514773 -0.49935266
-0.21488988 0.24088094 -0.47328708 0.067136414 0.13551034 -0.13933466 0.6502287 -0.98111176
-0.29973042 0.20700242 -0.109842345 -0.16443498 -0.5667082 0.2615772 0.057880353 -0.1969974
0.24129069 0.2814981 -0.7485587 0.30029085 0.08354577 -0.25425982 -0.16538443 -0.31014705
-0.148206 -0.17442222 0.42572606 0.10644908 0.2969286 0.123498216 -0.55609727 0.2630883
-0.18502185 -0.10248598 0.045848485 -0.011200694 0.31398904 0.16705202 0.4292333 -0.53787965
0.07646699 -0.031705417 0.12456867 -0.8424143 -0.57899684 -0.102773696 0.13725922 0.09926745
-0.05697428 0.2859791 -0.1330233 -0.16975221 0.16117932 0.39490193 -0.24290931 -0.32080975
-0.04415847 -0.538078 0.030038778 0.51106644 -0.40548426 0.24938484 0.5351843 -0.018393854
0.20226476 0.4692418 -0.13647154 0.31301355 -0.80479085 0.02181146 0.020020876 -0.07060925
-0.26800275 0.10458365 0.3723528 0.0825257 -0.17460267 0.35314333 -0.41271296 -0.6513365
-0.48829016 0.2581366 -0.43398193 -0.21084519 -0.35661307 -0.14043736 -0.2337414 -0.003273547
-0.24416086 -0.18780145 -0.3621724 -0.26483795 -0.2542126 -0.035398833 -0.020780928 0.01001015
0.34543803 0.17388302 -0.25525826 -0.032164577 0.07755648 0.63071996 0.61832297 0.16494815
-0.19907223 -0.41499528 0.20580734 0.4939065 0.047165122 -0.17296605 0.09752511 0.057436604

network_body._body_endoder.seq_layers.0.bias f4 [128]
00000000: 0000 0000 0000 0000 0000 0000 0000 0000
00000010: 0000 0000 0000 0000 0000 0000 0000 0000
00000020: 0000 0000 0000 0000 0000 0000 0000 0000
00000030: 0000 0000 0000 0000 0000 0000 0000 0000
00000040: 0000 0000 0000 0000 0000 0000 0000 0000
00000050: 0000 0000 0000 0000 0000 0000 0000 0000
00000060: 0000 0000 0000 0000 0000 0000 0000 0000
00000070: 0000 0000 0000 0000 0000 0000 0000 0000
00000080: 0000 0000 0000 0000 0000 0000 0000 0000
00000090: 0000 0000 0000 0000 0000 0000 0000 0000
000000a0: 0000 0000 0000 0000 0000 0000 0000 0000
000000b0: 0000 0000 0000 0000 0000 0000 0000 0000
000000c0: 0000 0000 0000 0000 0000 0000 0000 0000
000000d0: 0000 0000 0000 0000 0000 0000 0000 0000
000000e0: 0000 0000 0000 0000 0000 0000 0000 0000
000000f0: 0000 0000 0000 0000 0000 0000 0000 0000
00000100: 0000 0000 0000 0000 0000 0000 0000 0000
00000110: 0000 0000 0000 0000 0000 0000 0000 0000
00000120: 0000 0000 0000 0000 0000 0000 0000 0000
00000130: 0000 0000 0000 0000 0000 0000 0000 0000
00000140: 0000 0000 0000 0000 0000 0000 0000 0000
00000150: 0000 0000 0000 0000 0000 0000 0000 0000
00000160: 0000 0000 0000 0000 0000 0000 0000 0000
00000170: 0000 0000 0000 0000 0000 0000 0000 0000
00000180: 0000 0000 0000 0000 0000 0000 0000 0000
00000190: 0000 0000 0000 0000 0000 0000 0000 0000
000001a0: 0000 0000 0000 0000 0000 0000 0000 0000
000001b0: 0000 0000 0000 0000 0000 0000 0000 0000
000001c0: 0000 0000 0000 0000 0000 0000 0000 0000
000001d0: 0000 0000 0000 0000 0000 0000 0000 0000
000001e0: 0000 0000 0000 0000 0000 0000 0000 0000
000001f0: 0000 0000 0000 0000 0000 0000 0000 0000
0.0 0.0 0.0 0.0 0.0 0.0 0.0 0.0
0.0 0.0 0.0 0.0 0.0 0.0 0.0 0.0
0.0 0.0 0.0 0.0 0.0 0.0 0.0 0.0
0.0 0.0 0.0 0.0 0.0 0.0 0.0 0.0
0.0 0.0 0.0 0.0 0.0 0.0 0.0 0.0
0.0 0.0 0.0 0.0 0.0 0.0 0.0 0.0
0.0 0.0 0.0 0.0 0.0 0.0 0.0 0.0
0.0 0.0 0.0 0.0 0.0 0.0 0.0 0.0
0.0 0.0 0.0 0.0 0.0 0.0 0.0 0.0
0.0 0.0 0.0 0.0 0.0 0.0 0.0 0.0
0.0 0.0 0.0 0.0 0.0 0.0 0.0 0.0
0.0 0.0 0.0 0.0 0.0 0.0 0.0 0.0
0.0 0.0 0.0 0.0 0.0 0.0 0.0 0.0
0.0 0.0 0.0 0.0 0.0 0.0 0.0 0.0
0.0 0.0 0.0 0.0 0.0 0.0 0.0 0.0
0.0 0.0 0.0 0.0 0.0 0.0 0.0 0.0

network_body._body_endoder.seq_layers.2.weight f4 [128, 128]
00000000: 944f a0bd 5bbb c6bd b74c f0bd 8ce9 69bd
00000010: dfe3 173d f99b cabd 1afd 033e 438d 2c3d
00000020: 115e 183c 004d eabd c031 dabc 5476 033e
00000030: 792b 863d 0f06 acbd c485 9abc 4b09 fabb
00000040: 2d18 fa3d d843 29be e879 53bc ff4c 693c
00000050: f085 36be 46b1 b9bc 7569 053c e94a 21be
00000060: 1315 28be 6cb1 e9bc 08cc b3bd 7a7b b53c
00000070: 8adc 9bbb ddd7 903d 82f7 973c 32fe 81bc
00000080: aec4 f33c 1b00 2c3d 89b2 bc3c 09c2 06be
00000090: ae4d eb3d be22 31bb 706a 1bbb 9d6d acbd
000000a0: 3b94 aa3d 7a07 763d f40e 103d fca1 133d
000000b0: 75a7 293e aace 623d 8b9a 203c ce28 9abd
000000c0: f07d 1cbd e0e7 043d eeee 30be e5f6 35bd
000000d0: 9670 42be 0656 ebbd 8ba4 e43d 63d8 4a3c
000000e0: 390f 433c 4ded 153e 8bfa 40bd 979f 263b
000000f0: 9a31 a0bd 1b8f 80bd c925 06ba 124f 97bd
00000100: 4e47 52bd 097b 013e eefe 3bbe 38ef 77bd
00000110: d137 1c3d 7227 d3bd 8e7e 053d 4b65 12be
00000120: bed5 01be ae2b 0b3e bbd2 043d 9fd6 6b3d
00000130: de3c 233e b562 c2bc 26db ab3d 1d3a 33bc
00000140: 35da 86bd 879a 52bd 9d3a bb3b 8899 28bd
00000150: acee 2bbd 60bc 01bd 3cc7 423d 8be9 413d
00000160: 8aa1 03be 9cab 81b9 d374 bfbc 24be cfbd
00000170: 8691 a9bd c935 f1bd ef00 6dbd cb35 16bd
00000180: 7613 b7bd 55b4 88bd a8af e5bd 9423 7a3d
00000190: 2b0e 963c 7dfc d73d c24c d5bc bdab 783d
000001a0: c23b f63d 289a fa3b e220 7fbd a784 bebd
000001b0: 3e03 f73c 5b93 ab3e 37c0 42be 7567 d63c
000001c0: 777d 0b3e de5d 413c b1d8 c03d d85a 933d
000001d0: 4de0 40bd e189 04bd 97a9 e53c 9c42 ed3c
000001e0: 48fb 29bd 0bc5 72bd d4a3 fbbc e258 c5ba
000001f0: 8d9d 163e f912 543e 6670 b13b dc31 c538
00000200: 66cd 3f3d 7b93 8fbd 09eb a43d 2201 11bd
00000210: 9c1f 133e a5f9 31be 0730 e1bd 9f69 e2bd
00000220: 7f81 033d 5db8 05be 393b 813c 6314 bf3d
00000230: 878e 983d 575e 11be 77db 25bd a0c6 9ebd
00000240: 99c2 04bc b50b 393d 9eba 3b3e b53b 703d
00000250: 795b 87bd 8afd 663e 473d 903d 7235 03bd
00000260: 2386 a5bd 5d96 46bc afe8 163d a5f0 0a3e
00000270: dcb7 c0bc b18b 01bd c819 503e 79f1 d13c
00000280: 459f 193d 60ad 023d 75ec 6cbd ddba ad3d
00000290: 803d a2bd 3244 59bd dd9e 3d3d 008f ffbc
000002a0: 22a1 2a3d 0f7e 673e f50a da3d 6b73 f8bd
000002b0: 8351 083e 7c25 c03d d8ed e5bd 9854 ce3c
000002c0: acf1 bfbd fa97 36bd cced 873d 65df c7bc
000002d0: c036 d5bd b5fd 3a3d 3222 033e 9581 f23d
000002e0: c414 9dbd 513e 21bd 9cfa 78be 892f 44bd
000002f0: 15e3 debd 5b32 603a 9a3a 07be 8422 283d
00000300: 3507 46be 7c7d 28bc 6ac8 033b 70af b2bd
00000310: 2c6b 00bc 8b4c c5bb 1e4c 33bc 9897 c2bb
00000320: 61c0 e2bc af6d acbd 449c 8b3d ae7d 1cbc
00000330: 7b0f 86bd 018e 1b3e 4262 1fbe 5eae 463d
00000340: f4f7 0e3e 7e27 7fbc e322 0bbc 89a7 8cbd
00000350: 84a3 2abd 8617 0f3e 3a2f 473d ea50 b1bd
00000360: 3c1a 72bd 35fd 773d b2eb 2f3c 5a30 6abd
00000370: 19bc a8bc d19e dbbd 5f45 5bbe 625e cc3d
00000380: 306c fbbd c744 3a3c 509c f0bd d706 953c
00000390: dc07 49be 16bd 8e3d ba4e a7bb 5d52 d83d
000003a0: 25e5 653c c1b2 f1bd ee25 1b3d e898 653d
000003b0: 8f9e 6abd a57e 223d d798 06be 3bcf 163e
000003c0: 47a4 ad3d 8b20 01bd 20bd 853d c313 3b3d
000003d0: 62de f03b 89a6 4cbd 3967 833d 05da d9bc
000003e0: fe08 8dbd 8475 a2bd 045c 973d b03e 5cbd
000003f0: 8dea ae3c 3353 203d 3d92 023e 8a4f 4dbc
-0.07827678 -0.09703704 -0.11733382 -0.057107493 0.03708255 -0.09893031 0.1288952 0.042126905
0.009299771 -0.11440468 -0.02663505 0.12838107 0.065512605 -0.08399593 -0.018862613 -0.0076305023
0.122116424 -0.16529787 -0.012907483 0.014239549 -0.1782453 -0.022667538 0.008142819 -0.15751232
-0.16414289 -0.028526984 -0.0877915 0.022153605 -0.004756515 0.07072423 0.018550638 -0.01586828
0.02975687 0.041992288 0.023034351 -0.13159956 0.114894256 -0.0027028765 -0.0023714565 -0.084193446
0.08329054 0.060065724 0.03517051 0.036043152 0.16567786 0.05537287 0.009802471 -0.07527314
-0.03820604 0.032447696 -0.17278644 -0.04442491 -0.1898826 -0.11491017 0.111641966 0.012380692
0.011905485 0.14641304 -0.047113936 0.0025424713 -0.07821961 -0.06277295 -0.0005117325 -0.07388128
-0.051337533 0.1264459 -0.18358967 -0.06053087 0.03813917 -0.10310258 0.032591395 -0.14296453
-0.12679192 0.13590881 0.03242753 0.057577725 0.15941188 -0.023728708 0.083914086 -0.010939148
-0.065845884 -0.0514169 0.0057137744 -0.041162044 -0.041975662 -0.03167379 0.047553286 0.047341865
-0.12854591 -0.00024732656 -0.023371136 -0.10143688 -0.082797095 -0.11777837 -0.05786222 -0.036672395
-0.08939259 -0.066750206 -0.112151444 0.061069086 0.018317303 0.10546205 -0.026037578 0.060710657
0.12023117 0.0076477714 -0.06228722 -0.09302645 0.030152913 0.3351086 -0.19018637 0.026172379
0.1362208 0.011802165 0.094163306 0.071950614 -0.04708891 -0.032358054 0.028034968 0.028962426
-0.041499406 -0.059269946 -0.030717768 -0.0015056396 0.14708538 0.20710362 0.0054150103 9.402979e-05
0.046826743 -0.070105515 0.08052642 -0.03540147 0.14367527 -0.17380388 -0.109954886 -0.11055302
0.03210592 -0.1305861 0.01577531 0.0933006 0.0744906 -0.14196144 -0.0404925 -0.077527285
-0.008103036 0.04517718 0.18332908 0.05865069 -0.06609244 0.22557655 0.07042938 -0.03203339
-0.08082225 -0.01212081 0.036842998 0.13568361 -0.023525171 -0.03162736 0.20322335 0.025627838
0.037505407 0.031903625 -0.05784269 0.08482907 -0.079218864 -0.05304355 0.046294082 -0.031196117
0.041657574 0.22606681 0.10646621 -0.12131389 0.13312344 0.093821496 -0.11227006 0.025186822
-0.09372267 -0.04457853 0.06637153 -0.024398515 -0.10410833 0.04565211 0.12806013 0.11841122
-0.07669976 -0.03936607 -0.2431435 -0.047896896 -0.10883156 0.00085524254 -0.13205948 0.04104854
-0.19338687 -0.010283824 0.002010847 -0.08724868 -0.007838052 -0.0060210875 -0.010943441 -0.0059384815
-0.027679624 -0.08419358 0.06816915 -0.009551449 -0.065459214 0.15190889 -0.15564826 0.048506133
0.13961774 -0.0155733805 -0.008492204 -0.06867892 -0.041659847 0.13973817 0.048629023 -0.08658011
-0.05910705 0.06054421 0.0107373465 -0.057175018 -0.020597504 -0.10723651 -0.21413182 0.099789396
-0.122764945 0.011368937 -0.11748564 0.018191738 -0.19631904 0.06969659 -0.0051058205 0.105625845
0.014031683 -0.11801673 0.03787797 0.056054026 -0.05728012 0.03967156 -0.13144241 0.1472749
0.08478599 -0.031525176 0.06530213 0.045673143 0.007350729 -0.049963508 0.064161725 -0.026593218
-0.06886481 -0.079325706 0.073905975 -0.05377072 0.021352077 0.039141845 0.12751098 -0.012531171

network_body._body_endoder.seq_layers.2.bias f4 [128]
00000000: 0000 0000 0000 0000 0000 0000 0000 0000
00000010: 0000 0000 0000 0000 0000 0000 0000 0000
00000020: 0000 0000 0000 0000 0000 0000 0000 0000
00000030: 0000 0000 0000 0000 0000 0000 0000 0000
00000040: 0000 0000 0000 0000 0000 0000 0000 0000
00000050: 0000 0000 0000 0000 0000 0000 0000 0000
00000060: 0000 0000 0000 0000 0000 0000 0000 0000
00000070: 0000 0000 0000 0000 0000 0000 0000 0000
00000080: 0000 0000 0000 0000 0000 0000 0000 0000
00000090: 0000 0000 0000 0000 0000 0000 0000 0000
000000a0: 0000 0000 0000 0000 0000 0000 0000 0000
000000b0: 0000 0000 0000 0000 0000 0000 0000 0000
000000c0: 0000 0000 0000 0000 0000 0000 0000 0000
000000d0: 0000 0000 0000 0000 0000 0000 0000 0000
000000e0: 0000 0000 0000 0000 0000 0000 0000 0000
000000f0: 0000 0000 0000 0000 0000 0000 0000 0000
00000100: 0000 0000 0000 0000 0000 0000 0000 0000
00000110: 0000 0000 0000 0000 0000 0000 0000 0000
00000120: 0000 0000 0000 0000 0000 0000 0000 0000
00000130: 0000 0000 0000 0000 0000 0000 0000 0000
00000140: 0000 0000 0000 0000 0000 0000 0000 0000
00000150: 0000 0000 0000 0000 0000 0000 0000 0000
00000160: 0000 0000 0000 0000 0000 0000 0000 0000
00000170: 0000 0000 0000 0000 0000 0000 0000 0000
00000180: 0000 0000 0000 0000 0000 0000 0000 0000
00000190: 0000 0000 0000 0000 0000 0000 0000 0000
000001a0: 0000 0000 0000 0000 0000 0000 0000 0000
000001b0: 0000 0000 0000 0000 0000 0000 0000 0000
000001c0: 0000 0000 0000 0000 0000 0000 0000 0000
000001d0: 0000 0000 0000 0000 0000 0000 0000 0000
000001e0: 0000 0000 0000 0000 0000 0000 0000 0000
000001f0: 0000 0000 0000 0000 0000 0000 0000 0000
0.0 0.0 0.0 0.0 0.0 0.0 0.0 0.0
0.0 0.0 0.0 0.0 0.0 0.0 0.0 0.0
0.0 0.0 0.0 0.0 0.0 0.0 0.0 0.0
0.0 0.0 0.0 0.0 0.0 0.0 0.0 0.0
0.0 0.0 0.0 0.0 0.0 0.0 0.0 0.0
0.0 0.0 0.0 0.0 0.0 0.0 0.0 0.0
0.0 0.0 0.0 0.0 0.0 0.0 0.0 0.0
0.0 0.0 0.0 0.0 0.0 0.0 0.0 0.0
0.0 0.0 0.0 0.0 0.0 0.0 0.0 0.0
0.0 0.0 0.0 0.0 0.0 0.0 0.0 0.0
0.0 0.0 0.0 0.0 0.0 0.0 0.0 0.0
0.0 0.0 0.0 0.0 0.0 0.0 0.0 0.0
0.0 0.0 0.0 0.0 0.0 0.0 0.0 0.0
0.0 0.0 0.0 0.0 0.0 0.0 0.0 0.0
0.0 0.0 0.0 0.0 0.0 0.0 0.0 0.0
0.0 0.0 0.0 0.0 0.0 0.0 0.0 0.0

action_model._continuous_distribution.mu.weight f4 [1, 128]
00000000: 3fcc 0dba 3f74 ee3b ab72 f53c 4b87 87bc
00000010: d5ac 153c 5075 afbc aab4 953b 4836 f03c
00000020: 98a0 123c d760 0a3d d7c4 a5bc 043f 9f3a
00000030: 81f0 babc a03c 7cbb 4645 8fbb d1c6 033c
00000040: 4375 a23c a109 043d e43c b4ba 9f1c 903b
00000050: 6fd0 3b3c bc41 8e3b 9cb7 843b 5bf0 473d
00000060: 0248 75bc 3847 5d3c 6f59 8abb db7e 23ba
00000070: 1b10 c13a a3d6 9abc 2f23 19bc 2b44 573c
00000080: c01a 85bb f806 54bc fdaf 18bc ca5e d2bb
00000090: 5f6b b4bc a871 edbc aa3c 6b3b 57c4 353c
000000a0: d2ad cd3c 9efb 183d 2d32 df3b 4b35 af3c
000000b0: 1510 bcb9 9278 613c b2a8 4938 8b11 8bbb
000000c0: 5b1c 0c3c 3f8e c5ba bae3 c4bb e5ec 5cbb
000000d0: ad6d 813c aee0 453c b319 003c 27bb 97bb
000000e0: 4d6d cfbc 9bab b33b 8b7f aabc 3858 c7bc
000000f0: c5dd 213b cb84 103c f017 103d 930e cabc
00000100: bbce 243c 304f 5bbc ba63 04bb 0073 93b9
00000110: 6810 e0bb 2763 10bc 410a 8e3c 3a71 b63c
00000120: 88f8 b43c 0182 983c 17ff 423c 6554 60bc
00000130: 89b6 ac39 a5fb 03bc 1fec 4f3c fdcd 5e3a
00000140: d204 a7bc 9b50 763c 2692 2ebd 1fb2 51bc
00000150: bfff c5bb bbd9 3e3b 8760 ee3b bb5b fcbc
00000160: 5d04 9abc b56e eb3b 93fa eabc e3b9 a1bc
00000170: faa6 663b 635f 0f3d 8724 e9bb 8863 d03c
00000180: 4b20 113c fb71 89bc c406 a43c f2c8 8b3c
00000190: 2874 aabb 44d7 bf3c 6b92 6aba e341 b13c
000001a0: 7fc3 50bc c3a0 9e3b 14c3 393b f78f 3f3b
000001b0: 8d63 edbb c5d2 5c3b 4f11 2cbc 5b9c 21bb
000001c0: 1de3 9bbc 856b bf3b 1a58 473b 65d0 cdbb
000001d0: 6b28 4e3c e416 4bbc 106a 083b 2f3c 003a
000001e0: 0283 763c 6d0b 51bc f8e4 443b 6788 cc3b
000001f0: 378f 10bc 92da 823a c026 383c 13d4 83bc
-0.0005409158 0.007277041 0.029961905 -0.016544005 0.009135445 -0.021418244 0.004568656 0.029322758
0.008949421 0.03378376 -0.020235462 0.0012149517 -0.02281976 -0.0038488284 -0.0043722717 0.008043007
0.019831305 0.032235745 -0.0013751057 0.004397943 0.011463269 0.0043413322 0.0040502083 0.048813205
-0.014970781 0.013505749 -0.004222087 -0.00062368595 0.0014729531 -0.018901175 -0.009346767 0.013138811
-0.0040620267 -0.012941115 -0.009319303 -0.006419991 -0.022023855 -0.02898486 0.0035894313 0.011094174
0.025107298 0.037349336 0.0068114013 0.021387717 -0.00035870136 0.013761656 4.8079244e-05 -0.0042440346
0.008551682 -0.00150723 -0.0060085924 -0.0033710536 0.015799368 0.012077494 0.007818627 -0.0046304646
-0.025320673 0.0054831035 -0.02081277 -0.024334058 0.0024698835 0.008820723 0.03517908 -0.024665153
0.010059054 -0.013385579 -0.0020201043 -0.00028123707 -0.0068378933 -0.008812702 0.017338874 0.022270788
0.022091165 0.018616678 0.0119016385 -0.013691996 0.00032942396 -0.008055602 0.012690573 0.00084993226
-0.02038804 0.015033866 -0.042619847 -0.012798815 -0.00604245 0.0029121477 0.0072746905 -0.03080546
-0.018800909 0.007184828 -0.028683936 -0.019741958 0.003519474 0.035003077 -0.00711495 0.025438085
0.008857797 -0.016777983 0.020022757 0.017063592 -0.005201835 0.023418076 -0.00089482096 0.021637863
-0.012741922 0.0048409416 0.0028345035 0.0029230097 -0.0072445334 0.0033694964 -0.010502174 -0.0024659846
-0.019029194 0.0058416747 0.0030417503 -0.006280946 0.012582879 -0.012395594 0.0020815171 0.00048917806
0.015045883 -0.012759072 0.0030043703 0.0062418464 -0.008823208 0.0009983352 0.0112397075 -0.016092336

network_body._body_endoder.seq_layers.0.weight f4 [128, 10]
00000000: 709a c53d cd25 03bf 4630 d3be c91b a6bd
00000010: 8aa1 2f3f b3cd e0bc a9a8 973d a436 0fbe
00000020: 2264 f43e 29a2 12be 0ad1 e83e 7f0b eebe
00000030: 2fea b7be fb66 46bd 6c98 9a3e 080d 1f3d
00000040: f5cc abbe 2b1e 94bd e689 843e cae1 f9bd
00000050: 1e97 0c3e cdea 22bf 2794 e33d 1c4b 5abe
00000060: 99a5 ccbd 9410 433f f973 3e3f 5a33 743e
00000070: c5a7 d2be 0289 643d 9bbc db3e 4b26 c2bc
00000080: ff47 d23c afda 343d 5913 ed3e e677 be3e
00000090: ee74 e3be 3bf2 7bbe 9b66 a13e 9083 703e
000000a0: 0f1f 2b3f dc9b c1bc 456a 9dbe 8f7b b0be
000000b0: f65a ad3e c5b1 633e 52b1 12bf 81e2 35be
000000c0: e912 8ebd bd4c 763e 6102 0b3f 9431 7fbe
000000d0: 530c 9f3e 7b67 983e 8b37 a5be 7663 863c
000000e0: 1659 f23d dd9c aa3e 19cd 1e3d 3ffb 273f
000000f0: e5c6 aeb8 a66c b53e 935b bebe aedb 8a3e
00000100: 146c 8abd 1cbf eb3d f8b2 98be 1116 8dbe
00000110: 3da7 f3bc f6b0 89be 860c 5abe 0213 eabe
00000120: 1d9b b83e b6ec 04bf 310c 0fbf e258 f13e
00000130: a0bc 943e 2948 14be e905 23be 3109 403d
00000140: 0049 ecbe d999 c73e 7a8a 5d3d 0974 f3bd
00000150: 1cff 923e da67 c73e 5d46 b5bd 0f26 723c
00000160: 18ce 133e a1f5 b93e 4945 91bd 7e24 f93e
00000170: f6d3 f23e a040 62be 9916 ae3d 307a a93d
00000180: 967f 713e c7f8 d1bd c723 c13e 4d5f 033e
00000190: e727 f73e 30ec d2be a5a9 463f 3e3b 973c
000001a0: 5839 c93d a5fb 38be 89fa a53e 1a24 2ebe
000001b0: 3cc6 04bf 9178 163f 7c51 47be cc11 383e
000001c0: a36d 833d 1145 7bbe 4045 64be 598e d2be
000001d0: 8d36 053e 090f 01bf 7b4e c0bc 124c 59bd
000001e0: 21f0 3cbf d500 c03d 868c f4be d318 90be
000001f0: 1b54 2d3e f838 eb3e be89 2a3f df81 9abe
00000200: e821 c2bd 398d 533e 8b40 7dbd af14 0dbf
00000210: d4e8 ebbe cbd5 d9be c14f 373f d40c 5f3b
00000220: 3aa9 8f3e 4386 6b3d 5c95 7dbd a902 a13d
00000230: 0f13 a7be 4fef b33e abee 8c3e 3253 18ba
00000240: a6e0 82be 1b99 873d 7335 27be 2c19 a8be
00000250: d32c 1a3d 6239 083f 2f23 e9bc 99c8 eabe
00000260: 2ced 1dbe c3ab 4a3e 87a8 353d ea33 f3bc
00000270: 5e9f 603e 63d9 1fbe 0adc 53bd ff77 1c3d
00000280: a963 0b3f c9fd c8be a1d2 683e 17a8 11bf
00000290: 9a69 b13e abeb 033f 0364 803d 1173 a53e
000002a0: 7642 3a3d f167 173f dc06 0fbd 2369 1f3d
000002b0: 5594 d1be d869 023d e32a 6abe a7d8 a83e
000002c0: b9b2 19bf ec75 f9be 7e2c 1abe 1dfc b5be
000002d0: 483b c2be c0bf 86be d1bb 9fbe 5d96 a2ba
000002e0: e3a2 25bd 9849 dd3e 8958 313e d42e b6be
000002f0: 7fdf cfbe e389 c8be 8391 14bf e298 9bbe
00000300: 5e35 bd3d 6830 bebe cddc 393f 31b1 033b
00000310: fe81 ea3e 7c30 f3be f352 5dbd 6b80 fb3e
00000320: eca3 57bd 82c5 533e f4d5 293e 37cc 05bc
00000330: 85f5 2bbe 5761 25bd 437f 933e 2de1 dc3e
00000340: de1a ffbd 64db bb3e a4be bd3e f81f cdbe
00000350: 1021 993e da6f 00bd 1d0e 0c3e 7af0 c5be
00000360: 77f3 c6be 9ffc a3be 9ec6 5b3e f448 1c3e
00000370: dc62 0ebe ee50 ef3d c8b2 99be 6443 cabd
00000380: 27a6 243d 6e22 cbbe 1d3c 4ebe 33a1 6a3e
00000390: bb50 81be a0ff bd3d 9ae9 4dbe e41f 5d3e
000003a0: 326d 003e 6312 f4bd 3f15 42bd 4465 963e
000003b0: 933d d23e 01e4 803e 423c 013e 00d0 903e
000003c0: 90ce 0b3c 47a5 843d 6e30 1a3d 0db9 993e
000003d0: bad1 8a3e acfb 5bbc 1c10 dd3e 66cc d1be
000003e0: d301 3cbf 8ec6 593e 8e6b 55bf 9c22 993d
000003f0: 9433 133e 93f3 debe 5f7e c93d d3d7 883e
0.09648597 -0.51229554 -0.41247767 -0.08110768 0.68605864 -0.027441835 0.07405216 -0.13985687
0.47732645 -0.14319672 0.45471984 -0.46493146 -0.35920855 -0.048438054 0.30194414 0.038830787
-0.33554807 -0.072323166 0.25886458 -0.12201269 0.13729522 -0.6363953 0.11112242 -0.21317714
-0.09992523 0.7619717 0.7439571 0.23847714 -0.41143623 0.055794723 0.42917332 -0.0236999
0.025669096 0.044153865 0.46303824 0.3720085 -0.44425148 -0.24604122 0.31523594 0.23487687
0.66844267 -0.02363389 -0.3074514 -0.34469268 0.3385846 0.22235782 -0.5730182 -0.17762186
-0.069372006 0.24052711 0.54300505 -0.24921256 0.3106409 0.2976645 -0.32268938 0.016404849
0.11833398 0.33322802 0.038769815 0.65617746 -8.3340135e-05 0.35434455 -0.3717924 0.27120727
-0.067588955 0.115110606 -0.29824042 -0.27555898 -0.029742831 -0.26892823 -0.2129384 -0.45717627
0.36055842 -0.5192369 -0.5587798 0.47138125 0.2905016 -0.14480652 -0.15920223 0.046883766
-0.46149445 0.38984564 0.05408714 -0.11887366 0.28710258 0.3894642 -0.08851311 0.014779582
0.14434087 0.36320212 -0.07093293 0.48660654 0.47427338 -0.22094965 0.08500404 0.082752585
0.23583826 -0.10252529 0.37722608 0.12829323 0.4827263 -0.41195822 0.77602607 0.018460866
0.098253906 -0.18064745 0.32417706 -0.17005959 -0.5186498 0.5877772 -0.19464678 0.17975539
0.06417396 -0.24538065 -0.22292042 -0.41124228 0.1300909 -0.50413567 -0.023474922 -0.053051062
-0.7380391 0.09375159 -0.4776346 -0.2814394 0.16926615 0.459419 0.6661643 -0.3017721
-0.09479123 0.20659341 -0.06182913 -0.55109686 -0.4607607 -0.42545924 0.7160607 0.0034034746
0.28058797 0.05750109 -0.06191002 0.078618355 -0.32631728 0.35143515 0.2752584 -0.0005810737
-0.25562018 0.066209994 -0.16328983 -0.32831705 0.037640404 0.5321256 -0.02845916 -0.4585617
-0.15422505 0.19792084 0.044350173 -0.02968784 0.21935794 -0.1561027 -0.051723517 0.038200375
0.54448944 -0.39256123 0.22736599 -0.5689711 0.3465088 0.51531476 0.06269076 0.3231435
0.04547354 0.59142977 -0.03491865 0.038918626 -0.4093348 0.03183922 -0.22867922 0.32977793
-0.60038334 -0.4872278 -0.15056035 -0.3554391 -0.37935853 -0.2631817 -0.3119798 -0.0012404431
-0.040438544 0.4322021 0.1731893 -0.35582602 -0.406002 -0.391677 -0.58034533 -0.30390078
0.092386946 -0.37146306 0.7260254 0.0020094628 0.458023 -0.47497928 -0.054034185 0.49121413
-0.052646562 0.20680812 0.16585523 -0.008166364 -0.16792877 -0.040376034 0.2880803 0.43140545
-0.124562964 0.3669082 0.3705951 -0.40063453 0.29908037 -0.03135667 0.13677259 -0.38660032
-0.38857624 -0.32028672 0.21462485 0.15262204 -0.139049 0.11685358 -0.30019212 -0.09876135
0.040197518 -0.39674705 -0.20140119 0.22913055 -0.25256905 0.09277272 -0.20108643 0.21594197
0.12541655 -0.119175695 -0.047383543 0.29374135 0.41062602 0.25173953 0.12620643 0.2828369
0.008533135 0.06476837 0.037643842 0.30023995 0.27113134 -0.0134267025 0.43176353 -0.40976256
-0.73440284 0.21267149 -0.8336724 0.07477304 0.14375144 -0.43545207 0.098385565 0.2672716

network_body._body_endoder.seq_layers.0.bias f4 [128]
00000000: 0000 0000 0000 0000 0000 0000 0000 0000
00000010: 0000 0000 0000 0000 0000 0000 0000 0000
00000020: 0000 0000 0000 0000 0000 0000 0000 0000
00000030: 0000 0000 0000 0000 0000 0000 0000 0000
00000040: 0000 0000 0000 0000 0000 0000 0000 0000
00000050: 0000 0000 0000 0000 0000 0000 0000 0000
00000060: 0000 0000 0000 0000 0000 0000 0000 0000
00000070: 0000 0000 0000 0000 0000 0000 0000 0000
00000080: 0000 0000 0000 0000 0000 0000 0000 0000
00000090: 0000 0000 0000 0000 0000 0000 0000 0000
000000a0: 0000 0000 0000 0000 0000 0000 0000 0000
000000b0: 0000 0000 0000 0000 0000 0000 0000 0000
000000c0: 0000 0000 0000 0000 0000 0000 0000 0000
000000d0: 0000 0000 0000 0000 0000 0000 0000 0000
000000e0: 0000 0000 0000 0000 0000 0000 0000 0000
000000f0: 0000 0000 0000 0000 0000 0000 0000 0000
00000100: 0000 0000 0000 0000 0000 0000 0000 0000
00000110: 0000 0000 0000 0000 0000 0000 0000 0000
00000120: 0000 0000 0000 0000 0000 0000 0000 0000
00000130: 0000 0000 0000 0000 0000 0000 0000 0000
00000140: 0000 0000 0000 0000 0000 0000 0000 0000
00000150: 0000 0000 0000 0000 0000 0000 0000 0000
00000160: 0000 0000 0000 0000 0000 0000 0000 0000
00000170: 0000 0000 0000 0000 0000 0000 0000 0000
00000180: 0000 0000 0000 0000 0000 0000 0000 0000
00000190: 0000 0000 0000 0000 0000 0000 0000 0000
000001a0: 0000 0000 0000 0000 0000 0000 0000 0000
000001b0: 0000 0000 0000 0000 0000 0000 0000 0000
000001c0: 0000 0000 0000 0000 0000 0000 0000 0000
000001d0: 0000 0000 0000 0000 0000 0000 0000 0000
000001e0: 0000 0000 0000 0000 0000 0000 0000 0000
000001f0: 0000 0000 0000 0000 0000 0000 0000 0000
0.0 0.0 0.0 0.0 0.0 0.0 0.0 0.0
0.0 0.0 0.0 0.0 0.0 0.0 0.0 0.0
0.0 0.0 0.0 0.0 0.0 0.0 0.0 0.0
0.0 0.0 0.0 0.0 0.0 0.0 0.0 0.0
0.0 0.0 0.0 0.0 0.0 0.0 0.0 0.0
0.0 0.0 0.0 0.0 0.0 0.0 0.0 0.0
0.0 0.0 0.0 0.0 0.0 0.0 0.0 0.0
0.0 0.0 0.0 0.0 0.0 0.0 0.0 0.0
0.0 0.0 0.0 0.0 0.0 0.0 0.0 0.0
0.0 0.0 0.0 0.0 0.0 0.0 0.0 0.0
0.0 0.0 0.0 0.0 0.0 0.0 0.0 0.0
0.0 0.0 0.0 0.0 0.0 0.0 0.0 0.0
0.0 0.0 0.0 0.0 0.0 0.0 0.0 0.0
0.0 0.0 0.0 0.0 0.0 0.0 0.0 0.0
0.0 0.0 0.0 0.0 0.0 0.0 0.0 0.0
0.0 0.0 0.0 0.0 0.0 0.0 0.0 0.0

network_body._body_endoder.seq_layers.2.weight f4 [128, 128]
00000000: 9073 f33c 6cba b23d 3150 37bd 4d87 3fbe
00000010: bdcd 34bd 857b 873d 7d76 a13d 543d 403d
00000020: d905 843d b6b6 853d 3c9d e93c a9b4 14be
00000030: e4bc 18be 9154 a93d 7f25 bb3d 236e 3abd
00000040: 2d2c 0f3e 24ae 093c e843 e1bc 2712 373c
00000050: c966 8dbd 48f5 84bd ecb0 a63b 1f19 0d3e
00000060: 9130 073e 283a bfbd c113 6d3c 4e93 35be
00000070: 0fe6 233d 0f74 05bd 1837 283d 41ce 143e
00000080: ddb1 edbd ab58 27bd a6fd fa3d b294 a03c
00000090: f0b9 01be 6718 bd3d 55f1 ea3c 0b0c 01bd
000000a0: 8ea7 fc3b 28cd 93bc fc93 453d 217a b5bd
000000b0: d97c 393e 7dd8 493e 43de dc3d b5fa 26be
000000c0: c305 633d a33c 2e3d d82b a9bd aedd 1cbe
000000d0: 2c00 5b3d 63e1 613e 66d4 2cbd 4c18 3b3e
000000e0: 1237 c23d e8dc 2fbd 84a6 fd3c 2768 97bd
000000f0: 2710 183d 80d2 d7bd fb00 f03c 12ab 013c
00000100: eab1 91bd 7714 13bd 1bc0 99bd 63d9 0fbd
00000110: 6823 9c3d b862 5fbd 4b2b b93d 1aa1 2e3d
00000120: 723a 5bbe cb42 023d 5af3 9d3d ccf4 1e3d
00000130: f52f 9a3b 76cd bd3c 17d4 103c f641 93bd
00000140: 83e2 52be b169 84bd f030 df3d 1e2d 643d
00000150: c45f 813d b787 91bd 1621 d33d 967c 263d
00000160: d0c5 e43d 6a02 483d cb30 6dbd 3f55 6abc
00000170: b47a a2bc 581b 8ebd d7ee d9bc 5ef2 68bc
00000180: 6bf5 13be 88c1 c7bb 4789 c63d 0ab4 8bbc
00000190: 2fa4 92bd 2648 d23d 23c8 b5bd b039 59be
000001a0: 901d 403d 0bcc 29bd 6677 93bd 6ba6 7fbd
000001b0: 3045 7cbe 8f93 b73c fcc5 08be 16f3 f9bd
000001c0: 490b ee3b ebc7 9f3d 79ae cabd 49cc a8bc
000001d0: a467 113e 91dc 1ebd 3db5 eb3c 2fd0 2fbd
000001e0: f0b7 363c 6bfe 24bd dfe7 e0bd cb95 b93c
000001f0: eb81 49be 8bb7 073d 5592 123d 7d2d d33d
00000200: 9f37 bebd 7fe8 23bb 7155 543d 57ea 9d3d
00000210: a9df 70bd ce35 423d c7c8 9f3d 6080 abbc
00000220: f8ad c03d 2437 fbbc 22d6 acbd 1818 413e
00000230: 351e e43d 6a35 e13d a5c1 e33d 7c91 6d3d
00000240: af29 bebc 1254 ec3d 350e 2b3d 4cc4 2a3e
00000250: f3a9 01be 012a c53d 74f6 eb3b 1a6e 123d
00000260: c91e 90bc 7d0d be3d 3d2b 5dbd 399d 243c
00000270: 094a 1a3d 63ab aebd a78e 773d 4db3 88bc
00000280: a6a3 7b3d e6b0 ac3d 2461 e2bd 8764 aa3c
00000290: 19d0 efbd 0aa4 e1bc 5597 03bd f26c 92bd
000002a0: 01a6 083d 9874 db3c f56c e9bd 76f5 073e
000002b0: 61c8 fbbd aa5f cc3d 6ddb f53c e9c3 313d
000002c0: af7d 9bbd 8f39 1dbd b499 90bd c006 88bd
000002d0: 43b9 9b3d 4d23 27bc e89f 1dbe 0468 41bd
000002e0: 6695 3b3d 0fe1 d13d 3879 d83d eefd 233e
000002f0: 9507 3cbd 4cb2 4c3e 3c84 66be b075 923c
00000300: 2b50 003d 9f5f 68bd 3cb5 1b3d 0fc0 0e3d
00000310: eaf5 cc3d 2305 af3c 9770 e2bc 676e db3c
00000320: 32fd 5e3d fa3f 213d dd57 46bd 8b21 073d
00000330: a7a8 74bd ed01 d83d 2de2 b5bd 5be4 d5bc
00000340: 5bb3 863d c60d a9bd f0ca 4abc c4d2 18be
00000350: 59aa 523c f734 17bd 704d db3d cfe7 05bd
00000360: bde7 38bd ec85 503e d50f dc3c 0d10 db3d
00000370: c905 a2bd b2b2 e9bc 19c7 29bd 65c2 17bc
00000380: a1b4 0d3e 949c 8cbd c58f 993d 084a 00bd
00000390: d9b4 773d ffd7 fdbc 983c ed3d ae35 373e
000003a0: 4bf7 eabd 788f 06be d141 883d d174 5bbb
000003b0: 3854 493d e0ef fb3d 519a f4bc 9acb 24bd
000003c0: bfc9 363c 0bad be3d a0f2 37bc d45b a83c
000003d0: a3ff e53c 802c 93bd 41d4 233d d535 8abc
000003e0: 02e7 9cbc 2162 6a3e 9863 853d b0cd 34be
000003f0: c77a e0bc 43a0 be3b 82cc 2dbd 2db9 883c
0.02971819 0.087269634 -0.04475421 -0.18703957 -0.04414152 0.06615356 0.07883928 0.046933487
0.06446428 0.0652899 0.028517358 -0.14522041 -0.14915806 0.08268083 0.09138011 -0.04551519
0.13981695 0.008403335 -0.0274982 0.011173761 -0.0690437 -0.06492096 0.0050870087 0.13779114
0.1320212 -0.09337264 0.014470042 -0.17731974 0.040014323 -0.032581385 0.041068166 0.14531805
-0.1160619 -0.040856045 0.12255411 0.019602153 -0.12668586 0.0923317 0.02867953 -0.031505626
0.0077104038 -0.018042162 0.048236832 -0.08861185 0.18114032 0.1971149 0.107845806 -0.16306575
0.055425417 0.042538296 -0.08260316 -0.15318939 0.05346696 0.22058634 -0.042194746 0.18270987
0.0948316 -0.042935282 0.03096319 -0.07392912 0.03712478 -0.105381966 0.029297343 0.0079143215
-0.071140125 -0.03590819 -0.07507344 -0.035119426 0.07623941 -0.054537505 0.090414606 0.042634107
-0.21409014 0.03180198 0.07712431 0.038807675 0.004705424 0.02316926 0.008839629 -0.071903154
-0.2059422 -0.064654715 0.10898006 0.05570709 0.06317094 -0.07105964 0.10309045 0.04064616
0.11170542 0.048830427 -0.05790786 -0.014302551 -0.0198339 -0.06938809 -0.026603146 -0.014217941
-0.14449088 -0.006096069 0.09694152 -0.017053623 -0.07160222 0.102676675 -0.08876064 -0.21213412
0.046903193 -0.041454356 -0.07200508 -0.062414568 -0.24635768 0.022409229 -0.13356775 -0.12204568
0.007264529 0.07801803 -0.09896559 -0.020605223 0.14199692 -0.038784567 0.028772945 -0.04292315
0.011152253 -0.040281694 -0.10981726 0.022654435 -0.19678466 0.033134025 0.035784084 0.103114106
-0.09287953 -0.0025010405 0.051839296 0.077107124 -0.05880705 0.047414593 0.07801967 -0.020935237
0.09408182 -0.030665942 -0.0843928 0.18856847 0.11138574 0.10996516 0.11120919 0.058000073
-0.023213236 0.11539473 0.041761596 0.16676444 -0.12662487 0.09627152 0.0072010104 0.035749532
-0.017592805 0.092799164 -0.053996313 0.01004725 0.03766826 -0.08528783 0.06043878 -0.01668706
0.061435364 0.08432178 -0.11053684 0.020799888 -0.11709613 -0.02754404 -0.032126743 -0.07149686
0.03336144 0.026788995 -0.11397735 0.1327723 -0.122940786 0.09979184 0.030011857 0.043399725
-0.075923316 -0.03838497 -0.070605665 -0.066419125 0.07603695 -0.010201287 -0.1539303 -0.047218338
0.045796774 0.10248005 0.10569996 0.16014835 -0.04590567 0.1998989 -0.22511381 0.017878383
0.031326454 -0.056731816 0.038014635 0.03485113 0.10007842 0.021364754 -0.027641578 0.026786042
0.054440685 0.039367653 -0.048423637 0.032990973 -0.059731152 0.10547242 -0.0888103 -0.026109865
0.06577178 -0.0825458 -0.012377486 -0.1492415 0.012857997 -0.036915746 0.107081294 -0.032691773
-0.045142878 0.20363587 0.026863018 0.10696421 -0.0791126 -0.028527591 -0.04144964 -0.009262656
0.13838436 -0.068658024 0.07498125 -0.0313206 0.060475204 -0.030986784 0.11583823 0.17891571
-0.11472949 -0.13140666 0.066531785 -0.0033486376 0.049152583 0.12301612 -0.02985874 -0.040233232
0.011156498 0.09310349 -0.01122728 0.0205516 0.028075999 -0.07186222 0.039997343 -0.016871372
-0.019153122 0.22888996 0.065131366 -0.17656589 -0.027402295 0.0058174445 -0.042431362 0.016689861

network_body._body_endoder.seq_layers.2.bias f4 [128]
00000000: 0000 0000 0000 0000 0000 0000 0000 0000
00000010: 0000 0000 0000 0000 0000 0000 0000 0000
00000020: 0000 0000 0000 0000 0000 0000 0000 0000
00000030: 0000 0000 0000 0000 0000 0000 0000 0000
00000040: 0000 0000 0000 0000 0000 0000 0000 0000
00000050: 0000 0000 0000 0000 0000 0000 0000 0000
00000060: 0000 0000 0000 0000 0000 0000 0000 0000
00000070: 0000 0000 0000 0000 0000 0000 0000 0000
00000080: 0000 0000 0000 0000 0000 0000 0000 0000
00000090: 0000 0000 0000 0000 0000 0000 0000 0000
000000a0: 0000 0000 0000 0000 0000 0000 0000 0000
000000b0: 0000 0000 0000 0000 0000 0000 0000 0000
000000c0: 0000 0000 0000 0000 0000 0000 0000 0000
000000d0: 0000 0000 0000 0000 0000 0000 0000 0000
000000e0: 0000 0000 0000 0000 0000 0000 0000 0000
000000f0: 0000 0000 0000 0000 0000 0000 0000 0000
00000100: 0000 0000 0000 0000 0000 0000 0000 0000
00000110: 0000 0000 0000 0000 0000 0000 0000 0000
00000120: 0000 0000 0000 0000 0000 0000 0000 0000
00000130: 0000 0000 0000 0000 0000 0000 0000 0000
00000140: 0000 0000 0000 0000 0000 0000 0000 0000
00000150: 0000 0000 0000 0000 0000 0000 0000 0000
00000160: 0000 0000 0000 0000 0000 0000 0000 0000
00000170: 0000 0000 0000 0000 0000 0000 0000 0000
00000180: 0000 0000 0000 0000 0000 0000 0000 0000
00000190: 0000 0000 0000 0000 0000 0000 0000 0000
000001a0: 0000 0000 0000 0000 0000 0000 0000 0000
000001b0: 0000 0000 0000 0000 0000 0000 0000 0000
000001c0: 0000 0000 0000 0000 0000 0000 0000 0000
000001d0: 0000 0000 0000 0000 0000 0000 0000 0000
000001e0: 0000 0000 0000 0000 0000 0000 0000 0000
000001f0: 0000 0000 0000 0000 0000 0000 0000 0000
0.0 0.0 0.0 0.0 0.0 0.0 0.0 0.0
0.0 0.0 0.0 0.0 0.0 0.0 0.0 0.0
0.0 0.0 0.0 0.0 0.0 0.0 0.0 0.0
0.0 0.0 0.0 0.0 0.0 0.0 0.0 0.0
0.0 0.0 0.0 0.0 0.0 0.0 0.0 0.0
0.0 0.0 0.0 0.0 0.0 0.0 0.0 0.0
0.0 0.0 0.0 0.0 0.0 0.0 0.0 0.0
0.0 0.0 0.0 0.0 0.0 0.0 0.0 0.0
0.0 0.0 0.0 0.0 0.0 0.0 0.0 0.0
0.0 0.0 0.0 0.0 0.0 0.0 0.0 0.0
0.0 0.0 0.0 0.0 0.0 0.0 0.0 0.0
0.0 0.0 0.0 0.0 0.0 0.0 0.0 0.0
0.0 0.0 0.0 0.0 0.0 0.0 0.0 0.0
0.0 0.0 0.0 0.0 0.0 0.0 0.0 0.0
0.0 0.0 0.0 0.0 0.0 0.0 0.0 0.0
0.0 0.0 0.0 0.0 0.0 0.0 0.0 0.0

value_heads.value_heads.extrinsic.weight f4 [1, 128]
00000000: cb8a bdbd 281c 2e3e b87c a43d f252 0dbe
00000010: 1c9b 38be e86b 5a3d 0898 cb3d 42db c9bd
00000020: eaa3 0f3e 4e53 08be 1089 05be c6f3 1e3e
00000030: 9eb2 593e d851 e23c 6878 e23d cee7 a6bd
00000040: 48e0 3abd 005f 8bbc a82b b8bd 439a 00be
00000050: a4e3 333e ee97 3a3e 44af e63d 50b1 93bc
00000060: e0a4 84bc e40a a53d d21c 4c3e 8cbd 21be
00000070: 76f7 33be 3171 cebd f352 12be 1654 2a3e
00000080: 3037 75bc 1026 5dbc f828 213e 386a 2a3e
00000090: 1c87 403e 88dd cb3d 50ce 3b3e e224 333e
000000a0: 68fb be3d 6071 423e 928d 5bbe 5171 4bbe
000000b0: f035 8b3d 9075 473e a4d3 2abd 2017 d83d
000000c0: 98df ba3c c8bb c63c 4644 39be 648c 57be
000000d0: 64e1 b93d a470 583e 58c9 b63d 5cc4 163e
000000e0: 4336 49be d87a e53d 7c47 88bd 0c0c c53d
000000f0: b3f1 44be 484a 293d 2ef3 e5bd ab4f efbd
00000100: 4c19 8dbd ce06 bbbd 0c2d e0bd 36ec 133e
00000110: aa17 153e f4f8 293e 8029 223e 8076 41be
00000120: 4e10 453e 32ce 003e 28ac 443e 14a3 d23d
00000130: c275 a7bd 4d4e 17be b483 97bd 9c19 b33d
00000140: 2a6c 243e 96f6 3dbe b856 503e 9f2d e1bd
00000150: b6c8 acbd 742f bcbd 6595 4dbe b08d 32be
00000160: e857 553e ace3 7cbd 0813 023e 8c80 243e
00000170: e82e 28be 003b 28bc a82d 8c3c 4065 cc3b
00000180: 808d d93b 0282 23be 54b1 19be 28d7 b33d
00000190: 3447 fb3d 182c d03c f8d9 66bd 28cf 2ebe
000001a0: 0ba6 58be a020 cfbd fe63 563e 88ac 983c
000001b0: 367f 07be 8010 7ebc 50d9 bd3d 088f 663d
000001c0: 42e4 46be a829 383e c028 853d 285a e1bd
000001d0: 8a66 96bd 3acb 2ebe aa32 533e 489c 443d
000001e0: e2d7 d2bd bce1 55bd 08b0 4d3d a70a ccbd
000001f0: 8ce3 81bd d66c abbd 00db f1bb 1b2c 2ebe
-0.09254988 0.17002928 0.08031601 -0.13801172 -0.1802792 0.053325564 0.09941107 -0.09856273
0.14027372 -0.13313028 -0.13040566 0.1552268 0.21259543 0.027626917 0.11058122 -0.08149682
-0.045624048 -0.017013073 -0.08992702 -0.12558846 0.17567307 0.18222019 0.11263898 -0.018028885
-0.0161919 0.08058718 0.19932869 -0.15794963 -0.17574868 -0.10080183 -0.14289455 0.16633639
-0.014966771 -0.013497844 0.15738285 0.16642082 0.1880154 0.09954363 0.1834042 0.17494538
0.09325296 0.18988562 -0.21440724 -0.19867446 0.06797397 0.1947844 -0.041705742 0.10551286
0.022811696 0.024259463 -0.1809245 -0.21049649 0.09076193 0.21136719 0.08925122 0.14723343
-0.19649605 0.11205071 -0.066542596 0.096214384 -0.19232826 0.041330606 -0.112280235 -0.11685117
-0.068895906 -0.09132157 -0.10946092 0.14445576 0.14559808 0.16598874 0.15836143 -0.1889286
0.19244501 0.12578657 0.19206297 0.10285011 -0.081767574 -0.14775963 -0.07398167 0.08745119
0.16056886 -0.18551096 0.2034558 -0.1099503 -0.0843672 -0.091887385 -0.2007652 -0.17436862
0.20834315 -0.061740562 0.12702572 0.16064662 -0.16424143 -0.010267973 0.017111614 0.006237656
0.0066391826 -0.15967563 -0.15009052 0.08781272 0.1226944 0.02541165 -0.056360215 -0.17071211
-0.2115709 -0.101136446 0.20936581 0.018636957 -0.13232121 -0.015506864 0.09269965 0.05628875
-0.19423011 0.1798464 0.06501913 -0.11003524 -0.073437765 -0.17069712 0.20624796 0.048000604
-0.10295083 -0.05221723 0.050216705 -0.09962969 -0.06342229 -0.08370368 -0.007380843 -0.17009012
