results/ppo/My Behavior/My Behavior-0.pt (torch, 148551 bytes, 10 tensors)

network_body._body_endoder.seq_layers.0.weight f4 [128, 6]
0	0x3e5450b3	0.2073391
1	0x3f01a95f	0.50649065
2	0xbe9d3b05	-0.3070909
3	0xb989bfba	-0.00026273524
4	0xbeb452fd	-0.35219565
5	0x3e771565	0.24129255
6	0x3f45a954	0.772115
7	0xbf345dcc	-0.7045562
8	0xbed5e2bf	-0.41774556
9	0x3d62d76f	0.055381235
10	0xbdf374a2	-0.1188748
11	0xbc2adafd	-0.010428187
12	0x3e005862	0.12533715
13	0x3f440b17	0.7657942
14	0x3ecb7d04	0.39743817
15	0xbf5c0b88	-0.85955095
16	0xbdbe978b	-0.09306248
17	0xbecc1a8a	-0.39863998
18	0xbeb39083	-0.3507119
19	0x3c876296	0.016526502
20	0xbeb0567c	-0.34440982
21	0xbf8dc38f	-1.1075305
22	0x3b7504ae	0.0037386823
23	0xbe8c9e58	-0.27464557
24	0x3caff602	0.02147961
25	0x3e84dfca	0.25951988
26	0x3ec1696a	0.37775737
27	0x3e829f7f	0.2551231
28	0xbe77f5a9	-0.24214806
29	0xbedf7f12	-0.43651634
30	0xbe9ce870	-0.30646086
31	0x3e93a627	0.28837702
32	0x3f00ba5f	0.5028438
33	0x3f05d464	0.5227721
34	0xbf2a1640	-0.664402
35	0xbeb62210	-0.35572863
36	0xbec79752	-0.38982636
37	0x3e91df0c	0.28490484
38	0xbd3b034c	-0.04565744
39	0x3dddf15c	0.10837051
40	0x3e87c78e	0.26519436
41	0x3efaf3c7	0.49014112
42	0xbf3a30b9	-0.72730595
43	0xbecb532b	-0.3971189
44	0xbe0010c0	-0.1250639
45	0x3de2e53d	0.1107888
46	0xbedb54b3	-0.42838058
47	0xbd85dbfd	-0.065361
48	0xbcd062d5	-0.025437752
49	0x3e4d73d8	0.20063722
50	0x3f190b83	0.5978319
51	0xbe834527	-0.25638697
52	0x3da75e50	0.081722856
53	0xbd29c78a	-0.04145006
54	0xbf0704c8	-0.5274167
55	0xbb529498	-0.0032132026
56	0x3b9dbd5d	0.0048138336
57	0x3e0a3eb9	0.1350049
58	0x3d98ccb5	0.0746092
59	0xbc85c678	-0.016329989
60	0x3dd896d6	0.10575645
61	0xbdaca3d8	-0.08429688
62	0xbee803c7	-0.45315382
63	0xbecbfa50	-0.3983941
64	0xbf34b2a3	-0.7058508
65	0xbf02b007	-0.51049846
66	0x3c61aac9	0.0137736285
67	0x3e24dcf1	0.16099907
68	0x3f21724f	0.63065046
69	0xbe4965c1	-0.19667722
70	0x3f08b836	0.53406084
71	0x3ed04b96	0.40682667
72	0xbcd8c9de	-0.026463445
73	0xbe8c3b2b	-0.27388892
74	0x3e0ea60b	0.13930528
75	0xbda1dacf	-0.079030626
76	0x3e4427c7	0.19155799
77	0xbe588331	-0.21143796
78	0x3eed8526	0.46390647
79	0x3d804a6c	0.06264195
80	0x3dc5efbd	0.09664867
81	0xbf1d70c7	-0.6150021
82	0x3e9204bc	0.28519237
83	0xbee7303c	-0.45153987
84	0xbf2e2793	-0.68029135
85	0xbe07841a	-0.13233986
86	0x3f5dd338	0.8665042
87	0x3e13f4e2	0.14448884
88	0xbebd4510	-0.36966753
89	0x3c8304bd	0.01599347
90	0x3e215c0f	0.15757774
91	0xbe855d32	-0.26047665
92	0x3ed3eb48	0.41390443
93	0x3e8bf802	0.27337652
94	0xbe358242	-0.1772547
95	0x3eb1a5a4	0.34696686
96	0x3eacace5	0.33725658
97	0xbd424bfe	-0.047435753
98	0xbed05348	-0.4068854
99	0xbeb992bc	-0.36244762
100	0xbdbfb347	-0.09360366
101	0x3eb6eb94	0.35726607
102	0xbd6cf727	-0.05785289
103	0xbde55981	-0.11198712
104	0x3f63ddbf	0.8901023
105	0xbe480664	-0.19533688
106	0xbe92159d	-0.28532115
107	0xbe23972e	-0.15975639
108	0xbdc7a4a1	-0.09748197
109	0x3e8499bf	0.2589855
110	0x3e4c3d47	0.1994525
111	0x3da9b711	0.0828687
112	0x3e0d2691	0.13784243
113	0x3f099ebf	0.5375785
114	0xbdd75ee6	-0.10516147
115	0x3e47356e	0.19453976
116	0x3e02469b	0.12722246
117	0xbe83a3dc	-0.25710952
118	0x3ed4df75	0.41576734
119	0x3e5bd448	0.21467698
120	0x3f173a9c	0.59073806
121	0xbdeb520d	-0.11490259
122	0x3e9973d1	0.29971173
123	0xbf2b6028	-0.669436
124	0x3dbe9373	0.093054675
125	0x3e91273a	0.2835024
126	0xbe97c86e	-0.29645103
127	0x3ebdfd37	0.3710725
128	0xbdb0c00e	-0.086303815
129	0xbdc92ab3	-0.09822597
130	0xbe8aa977	-0.27082416
131	0xbee4e9d1	-0.44709638
132	0xbf3cd966	-0.73769224
133	0xbdfd005c	-0.12353584
134	0x3e70f494	0.23530799
135	0x3ee90245	0.45509544
136	0xbe40d152	-0.1882985
137	0x3e92a608	0.28642297
138	0x3ec8741b	0.3915108
139	0xbae76f42	-0.0017657059
140	0xbdac378e	-0.08409034
141	0xbe25f172	-0.16205385
142	0x3f44b081	0.76831824
143	0xbeaa675e	-0.33281988
144	0xbe555297	-0.20832287
145	0x3f117481	0.56818396
146	0xbeafb786	-0.34319705
147	0xbf00c2e6	-0.5029739
148	0x3debc034	0.11511269
149	0xbe09e946	-0.13467893
150	0xbf2df2dd	-0.67948705
151	0xbee897b4	-0.4542824
152	0xbdf453da	-0.11930056
153	0xbe82b793	-0.2553068
154	0x3ef0be2f	0.470201
155	0x3e86693c	0.26252162
156	0x3ea72d3b	0.32651696
157	0xbf25d197	-0.64772934
158	0x3de06867	0.10957413
159	0xbcea1530	-0.028574556
160	0xbf2d0b0c	-0.6759498
161	0xbebb8a7c	-0.36629093
162	0xbcf22c5d	-0.02956217
163	0x3eaf660b	0.3425754
164	0x3ed09209	0.40736416
165	0x3ea371b4	0.31922686
166	0xbed6d9ad	-0.41962948
167	0x3f0e763a	0.5564915
168	0x3f6c0851	0.9220019
169	0xbe66365b	-0.22481672
170	0x3ebcfdc5	0.3691236
171	0xbf35990f	-0.70936674
172	0xbd8e5418	-0.06949633
173	0xbe0b3dee	-0.13597843
174	0xbdd37807	-0.10325628
175	0xbe86f3bf	-0.2635784
176	0xbd4e305a	-0.05033908
177	0x3e25dc76	0.1619738
178	0xbdc6924f	-0.09695875
179	0x3e0a0c1e	0.13481185
180	0xbe0680a1	-0.13135006
181	0x3f493b41	0.7860604
182	0x3db9b814	0.09068313
183	0xbe9b3e99	-0.30321196
184	0x3e182bb6	0.14860424
185	0xbf07a46a	-0.5298525
186	0xbdac8507	-0.084238105
187	0x3e90e07a	0.28296262
188	0x3f5b201c	0.8559587
189	0xbf347fc4	-0.70507455
190	0x3cb640c3	0.022247678
191	0x3e4326a7	0.19057713
192	0x3e0ba6b2	0.13637808
193	0xbdceb6c5	-0.10093454
194	0x3eb0747c	0.3446387
195	0xbf1d63c8	-0.6148038
196	0x3e7d979a	0.24764863
197	0xbe64eff9	-0.22357167
198	0xbf2d318c	-0.6765373
199	0x3db991f9	0.09061045
200	0xbe638b7c	-0.22221178
201	0xbb4c3231	-0.0031157846
202	0xbc84f882	-0.016231779
203	0xb8fb9147	-0.00011995673
204	0x3ed7a06a	0.42114574
205	0xbe29fbfa	-0.16600028
206	0xbeb1c2fc	-0.34719074
207	0xbe9c0a12	-0.30476433
208	0x3c9b6279	0.018967854
209	0xbd8a34fc	-0.06748387
210	0x3e46f925	0.19430979
211	0xbe959eae	-0.29222625
212	0x3ee4cd0d	0.4468769
213	0xbaec287a	-0.0018017434
214	0xbea562f6	-0.32302064
215	0x3dd16743	0.10224774
216	0xbee198bf	-0.4406185
217	0x3e4732a4	0.19452912
218	0x3f190d75	0.5978616
219	0xbf3ff310	-0.7498026
220	0x3e7b0e16	0.24517092
221	0xbe2b28ee	-0.16714832
222	0xbe2a69a3	-0.1664186
223	0xbec18f43	-0.37804613
224	0x3f277a96	0.65421426
225	0x3f26b5a8	0.65120935
226	0xbea9a6fc	-0.3313521
227	0x3eaeee07	0.34165975
228	0xbcb61122	-0.022224966
229	0xbe2288db	-0.15872519
230	0x3e7baa04	0.24576575
231	0xbea6bd06	-0.32566088
232	0x3e438450	0.19093442
233	0x3f0b2c8a	0.54364836
234	0x3f03d34c	0.5149429
235	0xbf253be1	-0.6454449
236	0x3ee25820	0.4420786
237	0x3f1e1c8c	0.6176231
238	0x3cd33383	0.025781399
239	0x3df4b384	0.119483024
240	0x3d80fbaf	0.06298005
241	0x3f1f58b5	0.6224473
242	0xbf358ef9	-0.70921284
243	0x3dd87e19	0.10570926
244	0xbe850500	-0.25980377
245	0xbe29f4a6	-0.16597232
246	0x3ed7225b	0.420184
247	0x3efbbc11	0.4916692
248	0xbf05c67d	-0.52255994
249	0x3e963174	0.29334605
250	0x3ed697df	0.41912743
251	0xbe595762	-0.2122474
252	0xbf5f4552	-0.8721515
253	0x3efe3c7a	0.49655515
254	0xbf0a57a4	-0.5403998
255	0x3ea2930d	0.31752816

network_body._body_endoder.seq_layers.0.bias f4 [128]
0	0x00000000	0.0
1	0x00000000	0.0
2	0x00000000	0.0
3	0x00000000	0.0
4	0x00000000	0.0
5	0x00000000	0.0
6	0x00000000	0.0
7	0x00000000	0.0
8	0x00000000	0.0
9	0x00000000	0.0
10	0x00000000	0.0
11	0x00000000	0.0
12	0x00000000	0.0
13	0x00000000	0.0
14	0x00000000	0.0
15	0x00000000	0.0
16	0x00000000	0.0
17	0x00000000	0.0
18	0x00000000	0.0
19	0x00000000	0.0
20	0x00000000	0.0
21	0x00000000	0.0
22	0x00000000	0.0
23	0x00000000	0.0
24	0x00000000	0.0
25	0x00000000	0.0
26	0x00000000	0.0
27	0x00000000	0.0
28	0x00000000	0.0
29	0x00000000	0.0
30	0x00000000	0.0
31	0x00000000	0.0
32	0x00000000	0.0
33	0x00000000	0.0
34	0x00000000	0.0
35	0x00000000	0.0
36	0x00000000	0.0
37	0x00000000	0.0
38	0x00000000	0.0
39	0x00000000	0.0
40	0x00000000	0.0
41	0x00000000	0.0
42	0x00000000	0.0
43	0x00000000	0.0
44	0x00000000	0.0
45	0x00000000	0.0
46	0x00000000	0.0
47	0x00000000	0.0
48	0x00000000	0.0
49	0x00000000	0.0
50	0x00000000	0.0
51	0x00000000	0.0
52	0x00000000	0.0
53	0x00000000	0.0
54	0x00000000	0.0
55	0x00000000	0.0
56	0x00000000	0.0
57	0x00000000	0.0
58	0x00000000	0.0
59	0x00000000	0.0
60	0x00000000	0.0
61	0x00000000	0.0
62	0x00000000	0.0
63	0x00000000	0.0
64	0x00000000	0.0
65	0x00000000	0.0
66	0x00000000	0.0
67	0x00000000	0.0
68	0x00000000	0.0
69	0x00000000	0.0
70	0x00000000	0.0
71	0x00000000	0.0
72	0x00000000	0.0
73	0x00000000	0.0
74	0x00000000	0.0
75	0x00000000	0.0
76	0x00000000	0.0
77	0x00000000	0.0
78	0x00000000	0.0
79	0x00000000	0.0
80	0x00000000	0.0
81	0x00000000	0.0
82	0x00000000	0.0
83	0x00000000	0.0
84	0x00000000	0.0
85	0x00000000	0.0
86	0x00000000	0.0
87	0x00000000	0.0
88	0x00000000	0.0
89	0x00000000	0.0
90	0x00000000	0.0
91	0x00000000	0.0
92	0x00000000	0.0
93	0x00000000	0.0
94	0x00000000	0.0
95	0x00000000	0.0
96	0x00000000	0.0
97	0x00000000	0.0
98	0x00000000	0.0
99	0x00000000	0.0
100	0x00000000	0.0
101	0x00000000	0.0
102	0x00000000	0.0
103	0x00000000	0.0
104	0x00000000	0.0
105	0x00000000	0.0
106	0x00000000	0.0
107	0x00000000	0.0
108	0x00000000	0.0
109	0x00000000	0.0
110	0x00000000	0.0
111	0x00000000	0.0
112	0x00000000	0.0
113	0x00000000	0.0
114	0x00000000	0.0
115	0x00000000	0.0
116	0x00000000	0.0
117	0x00000000	0.0
118	0x00000000	0.0
119	0x00000000	0.0
120	0x00000000	0.0
121	0x00000000	0.0
122	0x00000000	0.0
123	0x00000000	0.0
124	0x00000000	0.0
125	0x00000000	0.0
126	0x00000000	0.0
127	0x00000000	0.0

network_body._body_endoder.seq_layers.2.weight f4 [128, 128]
0	0x3d881f1e	0.0664656
1	0x3d6ebe5f	0.05828702
2	0x3cc8cb3e	0.024510976
3	0x3d399b4e	0.045314126
4	0x3b67371a	0.0035280646
5	0xbdd57c84	-0.1042414
6	0x3beec544	0.0072866995
7	0x3cc2b4ee	0.023767915
8	0xbdd852da	-0.10562678
9	0xbe573683	-0.21016888
10	0x3dd2f095	0.10299794
11	0x3b928f6f	0.004472665
12	0x3ba26e6a	0.00495701
13	0xbe4f0f69	-0.20220722
14	0xbd2bd878	-0.041954488
15	0x3da4dc98	0.080498874
16	0x3d56c486	0.052433513
17	0xbd63832b	-0.055545013
18	0x3cc903f6	0.024538022
19	0xbdc75ada	-0.097341254
20	0x3d73da0f	0.05953413
21	0xbdfba8ab	-0.1228803
22	0x3d88ac3e	0.066734776
23	0xbcaa1db5	-0.020766119
24	0x3d71900e	0.058975272
25	0xbcc95c15	-0.024580041
26	0xbdd7afe1	-0.10531593
27	0xbcee5a11	-0.029095681
28	0xbaf86452	-0.0018950796
29	0xbd1addd2	-0.0378092
30	0xbd52adbd	-0.05143522
31	0x3c409265	0.011753653
32	0x3de1e330	0.11029661
33	0x3d9dec35	0.077110685
34	0xbdf26b14	-0.1183683
35	0x3d83c3d4	0.064338356
36	0xbdc2c648	-0.095104754
37	0x3d116627	0.03549781
38	0xbcf87838	-0.030330762
39	0xbe1fc3b7	-0.15602003
40	0x3c0a3224	0.008434806
41	0x3d973445	0.073830165
42	0xbd310294	-0.04321535
43	0xbe25c7c3	-0.16189484
44	0x3d2fbb2b	0.042903107
45	0xbe0eb5af	-0.13936494
46	0xbd0cd194	-0.034379557
47	0xbd778de0	-0.060438037
48	0xbb618f76	-0.0034417785
49	0x3e11645e	0.14198443
50	0x3e03eac0	0.12882519
51	0xbe280932	-0.16409758
52	0x3da33dad	0.07970748
53	0x3d7aaeed	0.06120198
54	0x3dff4cbf	0.1246581
55	0xbde50f03	-0.11184504
56	0x3cb1ced9	0.021705078
57	0x3dcba425	0.099434175
58	0x3d83fa87	0.06444269
59	0xbd47acf2	-0.048748918
60	0xbd4835cb	-0.048879426
61	0xbc506ac2	-0.012720766
62	0xbc62cc37	-0.013842634
63	0x3b91c61d	0.004448666
64	0x3c4466b5	0.011987378
65	0x3e0289ae	0.12747833
66	0xbe2224a8	-0.15834296
67	0x3d9e1209	0.07718284
68	0x3cc28af0	0.023747891
69	0x3cc070d0	0.023491293
70	0xbc07a72f	-0.008279606
71	0x3c43c8ea	0.011949757
72	0x3d8ea40b	0.069648825
73	0xbddb8afa	-0.10719867
74	0xbbfb060d	-0.0076606334
75	0xbd57fe46	-0.05273273
76	0x3ddf3d22	0.10900332
77	0xbd8dbce3	-0.06920793
78	0x3da20538	0.07911152
79	0x3e428ce5	0.1899906
80	0xbdbf06cd	-0.09327469
81	0x3cb9294d	0.022602702
82	0x3d8d7276	0.06906597
83	0xbc8a43b1	-0.01687798
84	0xbe3383d9	-0.17530765
85	0x3dae54e8	0.08512288
86	0x3d8c3bcd	0.068473436
87	0xbd74651f	-0.05966675
88	0xbd72783e	-0.059196703
89	0x3d056613	0.03256805
90	0xbd0d1334	-0.03444214
91	0xbcb231b8	-0.021752223
92	0xbc035c07	-0.0080175465
93	0xbe465830	-0.19369578
94	0x3dd8d920	0.10588288
95	0xbd847c06	-0.06468968
96	0x3d239bec	0.03994362
97	0x3be24c94	0.0069061015
98	0xbd6856e9	-0.05672351
99	0xbdef91ce	-0.11697732
100	0xbde15c1a	-0.11003895
101	0xbdd24e46	-0.10268836
102	0xbc6d6572	-0.0144895185
103	0x3d86144b	0.06546839
104	0xbd5d700c	-0.054061934
105	0x3e005211	0.12531306
106	0xbd682ee6	-0.05668535
107	0xbda10b53	-0.07863488
108	0x3e0fac58	0.14030588
109	0xbd0f7cf3	-0.03503127
110	0xbd9d4eac	-0.07681021
111	0xbd0be1e6	-0.03415098
112	0x3e5bd452	0.21467713
113	0xbcefa331	-0.02925262
114	0x3d960f85	0.07327179
115	0x3d6c36d5	0.05766948
116	0x3d2cc2b8	0.042177886
117	0xbbbf1c19	-0.005832207
118	0x3d9f3236	0.07773249
119	0xbd73b0ac	-0.05949466
120	0x3c16f4d4	0.009213645
121	0xbd7f822c	-0.06238
122	0x3dec48c9	0.1153732
123	0xbdba24cf	-0.09089052
124	0x3dde2016	0.10845964
125	0x3d4d23fe	0.050083153
126	0xbbb72c37	-0.0055899876
127	0xbd406aa5	-0.046976704
128	0xbd9c5693	-0.076337
129	0x3ae08a3d	0.0017131042
130	0x3d886ae7	0.06661015
131	0xbe21c629	-0.15798248
132	0xbbfd4f1b	-0.0077303774
133	0x3d42e833	0.047584724
134	0xbbf16b96	-0.0073675616
135	0xbe1106a5	-0.14162691
136	0x3d139dbc	0.0360391
137	0x3da1b4d2	0.07895817
138	0xbc9b2919	-0.018940495
139	0x3d0537e6	0.032524012
140	0x3e034fb3	0.12823372
141	0x3d531c82	0.05154086
142	0xbd60d240	-0.05488801
143	0xbe0257b1	-0.12728764
144	0x3ccc37a0	0.024928868
145	0xbbcd5606	-0.0062663583
146	0xbe3789bf	-0.1792364
147	0x3df7e702	0.12104608
148	0x3d35d65e	0.04439389
149	0x3d5156fe	0.051108353
150	0x3d8ae846	0.06782584
151	0xbcbcc373	-0.023042416
152	0xbd63ff10	-0.05566317
153	0x3daafb67	0.083487324
154	0x399a8421	0.00029471613
155	0x3dc3f3ac	0.09567961
156	0xbd6c7a70	-0.057733953
157	0xbde2380b	-0.110458456
158	0xbce24f53	-0.027625715
159	0x3b574272	0.0032846
160	0xbdd4d25f	-0.103916876
161	0x3bede235	0.007259632
162	0xbb851943	-0.0040618493
163	0x3cfac34c	0.030610703
164	0x3d155354	0.03645642
165	0xbd5e2837	-0.05423757
166	0xbdb14c11	-0.08657087
167	0x3ce35476	0.027750235
168	0xbd59c2fd	-0.05316447
169	0xbd944480	-0.07239628
170	0xbe171f81	-0.14758112
171	0x3e47f666	0.19527587
172	0x3d2dc909	0.04242805
173	0xbd085958	-0.03328833
174	0xbd32b07e	-0.043625347
175	0x3e08646f	0.13319562
176	0x3d0333d5	0.032031853
177	0xbd1f5a99	-0.03890476
178	0xbd7afebb	-0.061278086
179	0xbda35dd8	-0.07976884
180	0x3e1b181a	0.15145913
181	0x3d9b301e	0.07577537
182	0xbc2453df	-0.010029762
183	0x3dc69059	0.09695501
184	0x3da9dc02	0.08293916
185	0xbcd93802	-0.026515964
186	0xbd884684	-0.06654075
187	0xbc9ddebc	-0.019271247
188	0xbe08ed2c	-0.13371724
189	0x3d3a7b8c	0.04552798
190	0xbda60c92	-0.08107866
191	0x3deed860	0.11662364
192	0xbc92b64e	-0.017909195
193	0x3de0abbc	0.10970256
194	0xbe297df0	-0.16551948
195	0x3d9b30bb	0.07577654
196	0x3d033ca8	0.03204027
197	0x3d907502	0.070535675
198	0xbcd086ca	-0.025454897
199	0xbd66eee9	-0.056380186
200	0xbd19c4b5	-0.03754111
201	0xbccb816c	-0.024841987
202	0xbe451a58	-0.1924833
203	0xbd6e3783	-0.05815841
204	0xbbcb4737	-0.006203558
205	0xbd2b8d18	-0.041882604
206	0xbd2e4c00	-0.042552948
207	0xbbb15f75	-0.0054129907
208	0x3d98a2f6	0.07452957
209	0x3d969a66	0.07353668
210	0x3dfb21c1	0.122622974
211	0xbdea26d5	-0.11433188
212	0xbcb33755	-0.02187697
213	0xbe0695cf	-0.13143085
214	0xbe7ec641	-0.24880315
215	0xbcba5d74	-0.02274964
216	0x3bdbdc2f	0.0067095975
217	0x3cdcb32b	0.026940903
218	0xbd8f2bfd	-0.06990812
219	0xbd66a610	-0.056310713
220	0x3d44cf3b	0.048049193
221	0xbcd8d10e	-0.026466873
222	0xbe1aea9c	-0.15128559
223	0xbdae8b5a	-0.08522673
224	0xbcab8c57	-0.020940943
225	0x3e181715	0.14852555
226	0x3a85aece	0.0010199191
227	0x3c34176e	0.010991914
228	0xbcbc63b7	-0.022996766
229	0xbc91e7c7	-0.017810715
230	0x3d912ab4	0.07088223
231	0xbad9dd2b	-0.0016621699
232	0xbdb5ecfb	-0.08883091
233	0xbdfe2100	-0.12408638
234	0x3c1305b6	0.00897353
235	0x3d20339e	0.039111726
236	0xbdc5aa0c	-0.096515745
237	0x3d81c003	0.063354515
238	0xbce012ea	-0.027352769
239	0x3df249c1	0.11830474
240	0xbd9788b0	-0.07399118
241	0x3c55ba4c	0.013044905
242	0xbd9ac988	-0.0755797
243	0x3bb46509	0.0055052084
244	0x3d835c55	0.06414095
245	0xbd0de663	-0.034643542
246	0x3dafe5f4	0.08588782
247	0x3c8249df	0.015904365
248	0xbe256a7a	-0.16153899
249	0xbd5efae1	-0.054438476
250	0x3e1e2139	0.15442361
251	0x3d6cebd6	0.0578421
252	0xbd508859	-0.05091128
253	0xbd918fce	-0.07107507
254	0x3c29675a	0.010339582
255	0xbe4ac488	-0.19801533

network_body._body_endoder.seq_layers.2.bias f4 [128]
0	0x00000000	0.0
1	0x00000000	0.0
2	0x00000000	0.0
3	0x00000000	0.0
4	0x00000000	0.0
5	0x00000000	0.0
6	0x00000000	0.0
7	0x00000000	0.0
8	0x00000000	0.0
9	0x00000000	0.0
10	0x00000000	0.0
11	0x00000000	0.0
12	0x00000000	0.0
13	0x00000000	0.0
14	0x00000000	0.0
15	0x00000000	0.0
16	0x00000000	0.0
17	0x00000000	0.0
18	0x00000000	0.0
19	0x00000000	0.0
20	0x00000000	0.0
21	0x00000000	0.0
22	0x00000000	0.0
23	0x00000000	0.0
24	0x00000000	0.0
25	0x00000000	0.0
26	0x00000000	0.0
27	0x00000000	0.0
28	0x00000000	0.0
29	0x00000000	0.0
30	0x00000000	0.0
31	0x00000000	0.0
32	0x00000000	0.0
33	0x00000000	0.0
34	0x00000000	0.0
35	0x00000000	0.0
36	0x00000000	0.0
37	0x00000000	0.0
38	0x00000000	0.0
39	0x00000000	0.0
40	0x00000000	0.0
41	0x00000000	0.0
42	0x00000000	0.0
43	0x00000000	0.0
44	0x00000000	0.0
45	0x00000000	0.0
46	0x00000000	0.0
47	0x00000000	0.0
48	0x00000000	0.0
49	0x00000000	0.0
50	0x00000000	0.0
51	0x00000000	0.0
52	0x00000000	0.0
53	0x00000000	0.0
54	0x00000000	0.0
55	0x00000000	0.0
56	0x00000000	0.0
57	0x00000000	0.0
58	0x00000000	0.0
59	0x00000000	0.0
60	0x00000000	0.0
61	0x00000000	0.0
62	0x00000000	0.0
63	0x00000000	0.0
64	0x00000000	0.0
65	0x00000000	0.0
66	0x00000000	0.0
67	0x00000000	0.0
68	0x00000000	0.0
69	0x00000000	0.0
70	0x00000000	0.0
71	0x00000000	0.0
72	0x00000000	0.0
73	0x00000000	0.0
74	0x00000000	0.0
75	0x00000000	0.0
76	0x00000000	0.0
77	0x00000000	0.0
78	0x00000000	0.0
79	0x00000000	0.0
80	0x00000000	0.0
81	0x00000000	0.0
82	0x00000000	0.0
83	0x00000000	0.0
84	0x00000000	0.0
85	0x00000000	0.0
86	0x00000000	0.0
87	0x00000000	0.0
88	0x00000000	0.0
89	0x00000000	0.0
90	0x00000000	0.0
91	0x00000000	0.0
92	0x00000000	0.0
93	0x00000000	0.0
94	0x00000000	0.0
95	0x00000000	0.0
96	0x00000000	0.0
97	0x00000000	0.0
98	0x00000000	0.0
99	0x00000000	0.0
100	0x00000000	0.0
101	0x00000000	0.0
102	0x00000000	0.0
103	0x00000000	0.0
104	0x00000000	0.0
105	0x00000000	0.0
106	0x00000000	0.0
107	0x00000000	0.0
108	0x00000000	0.0
109	0x00000000	0.0
110	0x00000000	0.0
111	0x00000000	0.0
112	0x00000000	0.0
113	0x00000000	0.0
114	0x00000000	0.0
115	0x00000000	0.0
116	0x00000000	0.0
117	0x00000000	0.0
118	0x00000000	0.0
119	0x00000000	0.0
120	0x00000000	0.0
121	0x00000000	0.0
122	0x00000000	0.0
123	0x00000000	0.0
124	0x00000000	0.0
125	0x00000000	0.0
126	0x00000000	0.0
127	0x00000000	0.0

action_model._discrete_distribution.branches.0.weight f4 [1, 128]
0	0xbb06ddd4	-0.0020578997
1	0xbc06288e	-0.00818838
2	0x3c278e27	0.010226763
3	0xbbca25f1	-0.0061690737
4	0x3bf5a908	0.0074969567
5	0xbc4756e9	-0.012166717
6	0xbbff4158	-0.007789772
7	0xbc1a36cf	-0.009412481
8	0x3b1bd4f5	0.0023778055
9	0x3c65a71a	0.014016891
10	0xbc28b37d	-0.0102967
11	0xbb67dfd7	-0.0035381222
12	0xbbe79a77	-0.007067974
13	0x3bc755fd	0.0060832486
14	0x3b9747b3	0.0046167015
15	0x3b9fbcf2	0.004874819
16	0xbb1a59de	-0.00235521
17	0xbbb785db	-0.0056006736
18	0xbbfc0eb2	-0.0076921815
19	0x3c0fbe3b	0.008773382
20	0xbac31e1b	-0.0014886291
21	0xbb77b505	-0.0037797105
22	0x3ad437f5	0.0016190993
23	0x3bc8a921	0.0061236774
24	0x3c0b127f	0.0084882965
25	0x3c2030a0	0.009777218
26	0xbc3147de	-0.010820357
27	0x3aa773a9	0.0012775558
28	0xbc907c50	-0.017637402
29	0xbba57a6b	-0.0050499937
30	0xbca2d2a7	-0.019875837
31	0x3c48a0a0	0.012245327
32	0xbaf57a03	-0.0018728379
33	0xbc5ff8b7	-0.013670138
34	0xbc335b30	-0.010947034
35	0x3b150a90	0.0022741891
36	0xbad76ba5	-0.0016435279
37	0x3c2367e1	0.009973497
38	0x3c57a277	0.013161293
39	0x3bee9682	0.0072811255
40	0x3c28c28b	0.010300289
41	0x3be55a2d	0.006999275
42	0xbb8206ac	-0.0039680805
43	0x3bde4903	0.006783606
44	0x3bc38edf	0.0059679593
45	0xbc815482	-0.015787367
46	0x3ac111f7	0.0014730085
47	0x3a2a60c9	0.00064994075
48	0xba8c2216	-0.0010691311
49	0xbb8f4cca	-0.0043731676
50	0x3cadb460	0.021204174
51	0xbc0b05db	-0.008485283
52	0x3a998504	0.0011712615
53	0x3aaac007	0.0013027199
54	0x3bf4bcaf	0.007468782
55	0xbc01108b	-0.007877479
56	0xbb7f9b12	-0.0039002341
57	0xbbde391b	-0.00678171
58	0x3bae382a	0.005316754
59	0xbb8ede53	-0.004359999
60	0xbba2a43b	-0.0049634255
61	0x3c81fb4b	0.015866896
62	0xbc20dd67	-0.009818411
63	0xbb767a5a	-0.0037609548
64	0xbbd5e6a7	-0.00652774
65	0x3af4dac3	0.0018680919
66	0x3b447b6f	0.0029980799
67	0xbb7a78bb	-0.0038218934
68	0x3c0fde4d	0.008781028
69	0xbada18a2	-0.0016639421
70	0xb8f504c3	-0.00011683397
71	0x3c729007	0.014804847
72	0xbb537f23	-0.0032271824
73	0x3b1bec02	0.0023791795
74	0xbad77250	-0.0016437266
75	0x3c252a44	0.010080878
76	0x3c3e2fc9	0.011608073
77	0x3bfb4ed3	0.0076693087
78	0x3c04eeff	0.008113622
79	0x3b1377a5	0.0022501734
80	0xbc3cb072	-0.011516677
81	0x3c0d35fa	0.008618826
82	0x3c510d38	0.012759499
83	0xbcafb5ef	-0.021449057
84	0x3b1ca303	0.0023900873
85	0x3b227f22	0.0024795015
86	0x3c038186	0.008026486
87	0xbb540195	-0.0032349576
88	0xba5b7e82	-0.0008373038
89	0x3c8754e8	0.016519979
90	0xbb59404d	-0.0033149899
91	0xbc4d6632	-0.012536572
92	0xbbd2267b	-0.0064132786
93	0x3c880323	0.016603058
94	0xbb9b0c6f	-0.004731707
95	0xbc3c20dc	-0.011482444
96	0x3ada1b75	0.0016640263
97	0x3be48aa7	0.0069745365
98	0x398c64cd	0.00026777983
99	0xbb1ece7e	-0.0024231966
100	0x3b8ef29f	0.004362419
101	0x3b31c3aa	0.0027124682
102	0x3b971ecb	0.004611825
103	0x39891de3	0.00026152944
104	0x3c9116e7	0.017711116
105	0x3c0b985e	0.008520214
106	0xb9480fa6	-0.00019079316
107	0xb9051318	-0.00012690981
108	0xbc26315d	-0.010143605
109	0x3bb4d762	0.0055188397
110	0x3ae24d3b	0.0017265448
111	0x3b23468b	0.0024913873
112	0x3bc21c06	0.005923751
113	0x3be60052	0.007019081
114	0xbb9ce2b3	-0.004787767
115	0xbb98eb86	-0.0046667485
116	0xba7befa0	-0.0009610597
117	0xbbdfd1b2	-0.0068304176
118	0xbc0ed863	-0.008718583
119	0xbc1e95ed	-0.0096793
120	0xbbe9ed63	-0.0071388944
121	0xbab4a2ad	-0.0013781391
122	0xbbb1328a	-0.005407636
123	0x3c3ff2f5	0.01171564
124	0xbc65ed25	-0.01403359
125	0xbb8b901e	-0.0042591235
126	0xba972291	-0.0011530687
127	0xbc3067c8	-0.010766931

network_body._body_endoder.seq_layers.0.weight f4 [128, 6]
0	0xbf1fa4cd	-0.6236084
1	0x3f95a3b8	1.1690588
2	0xbeac6f30	-0.3367858
3	0x3e04bcca	0.12962642
4	0xbea45bd4	-0.3210131
5	0xbc5f9790	-0.013646975
6	0x3d8de69f	0.06928753
7	0xbf07538f	-0.52861875
8	0xbe9b3970	-0.3031726
9	0x3f824b7b	1.0179285
10	0xbdfb793e	-0.122789845
11	0x3ed31646	0.4122793
12	0x3eac80f5	0.33692136
13	0xbdd05ed0	-0.10174334
14	0xbf30c78c	-0.69054484
15	0xbe7d0186	-0.24707612
16	0x3f02871a	0.509874
17	0x3e38555e	0.18001315
18	0x3d2ad132	0.04170341
19	0x3db2da4b	0.08733042
20	0xbf1715bf	-0.59017557
21	0x3f1bdbc1	0.6088219
22	0x3e3b0127	0.18262158
23	0xbebaff8b	-0.3652309
24	0xbcb26a8b	-0.02177932
25	0x3d1b2f97	0.037887182
26	0xbd951a63	-0.072804235
27	0x3d0bfd92	0.03417737
28	0xbe0c2f20	-0.13689852
29	0xbf0eee83	-0.5583269
30	0x3e371a8a	0.17881218
31	0x3df654f0	0.12027919
32	0xbe4bdd4d	-0.19908638
33	0x3f516579	0.8179546
34	0x3f37da1d	0.7181719
35	0x3f99e7a1	1.2023813
36	0x3e08d8da	0.13363972
37	0xbe3e1784	-0.18563658
38	0x3ebfdd15	0.3747336
39	0x3f02d721	0.5110951
40	0xbef7e73f	-0.48418614
41	0xbef84eb6	-0.48497552
42	0x3e5a652c	0.21327657
43	0xbe8d3303	-0.2757798
44	0xbe8e2016	-0.27758855
45	0xbee08343	-0.43850145
46	0xbf16778a	-0.5877615
47	0xbe0b80cc	-0.13623351
48	0xbf2594a8	-0.64679956
49	0xbe9eb3cd	-0.30996552
50	0xbe6581d0	-0.22412801
51	0x3eaacf72	0.33361393
52	0x3d93b3f0	0.07212055
53	0x3eb2a7a5	0.34893528
54	0xbea903b1	-0.3301063
55	0x3d8f9d94	0.070124775
56	0x3eb8b401	0.36074832
57	0xbda4a5fc	-0.080394715
58	0xbf3cc28d	-0.7373436
59	0x3de72208	0.11285788
60	0xbed954bc	-0.4244746
61	0x3f16a201	0.5884095
62	0x3ec9eb96	0.3943755
63	0xbdc8c910	-0.09803975
64	0xbe587d90	-0.21141648
65	0xbe5ef40f	-0.21772788
66	0x3e673fd5	0.22582944
67	0x3f6011ba	0.8752705
68	0xbe5078d0	-0.20358586
69	0xbec16d21	-0.3777857
70	0x3d46bdac	0.04852073
71	0x3f158c77	0.5841746
72	0x3e6ebe36	0.23314747
73	0x3e94ba7c	0.29048526
74	0xbee26ddb	-0.44224438
75	0x3eca1e6e	0.3947634
76	0x3eae4be9	0.3404229
77	0xbe9d7662	-0.3075438
78	0xbe7c3bfd	-0.24632259
79	0xbecb1e50	-0.39671564
80	0x3d3dd43a	0.046344973
81	0xbde1a333	-0.11017456
82	0x3d8f4872	0.0699624
83	0x3e53facf	0.20701145
84	0x3ddb3ef4	0.10705367
85	0xbf792d52	-0.9733478
86	0xbe8a93cf	-0.27065894
87	0x3ef8bf92	0.48583657
88	0x3e9ac9cb	0.3023208
89	0xbda3ce0b	-0.07998284
90	0xbf6167d5	-0.8804906
91	0x3e932511	0.28739217
92	0xbebb24f9	-0.36551645
93	0x3e255f59	0.16149653
94	0x3ee04689	0.43803814
95	0xbdfb478d	-0.122695066
96	0xbf1a8416	-0.603578
97	0x3eaf70da	0.34265786
98	0xbeb9b978	-0.36274314
99	0xbe47eaba	-0.19523135
100	0x3dbfd731	0.093672164
101	0xbe422070	-0.18957686
102	0xbc2b1a46	-0.010443276
103	0xbe2f1bed	-0.17100497
104	0xbc8d3f6f	-0.017242162
105	0x3f1031cd	0.5632599
106	0xbf0b01bd	-0.5429953
107	0xbf60bd31	-0.87788683
108	0xbec3cf00	-0.38243866
109	0x3f2603d9	0.6484962
110	0xbe723fef	-0.23657201
111	0xbea2ca6f	-0.3179507
112	0x3dd827bb	0.10554453
113	0xbf095b86	-0.5365528
114	0xbe689174	-0.22711736
115	0xbe7b9d56	-0.24571738
116	0x3e885a05	0.2663118
117	0x3da0cd0b	0.07851609
118	0xbe5286a5	-0.20559175
119	0xbeb5f30f	-0.35537001
120	0x3eb931b8	0.36170745
121	0xbd30cfcf	-0.04316693
122	0xbf0dc21d	-0.5537432
123	0x3da759e1	0.0817144
124	0x3d5ccb86	0.053905033
125	0xbea19941	-0.31562236
126	0x3def41b3	0.11682453
127	0xbe8a16dc	-0.26970565
128	0x3d4a6cd7	0.049420204
129	0x3f0b8dfe	0.5451354
130	0xbf2699a4	-0.65078187
131	0xbeb450c6	-0.35217875
132	0x3e5ea7b4	0.21743661
133	0x3d99e930	0.0751518
134	0x3dca1ee6	0.09869175
135	0xbe3d536c	-0.18488854
136	0x3dbb9108	0.09158522
137	0xbe45202a	-0.19250551
138	0xbe96101e	-0.2930917
139	0x3d01be54	0.03167565
140	0x3e31df14	0.17370254
141	0xbce3dc7a	-0.027815092
142	0x3e82f245	0.25575462
143	0xbf0e6688	-0.556252
144	0x3e1be9f6	0.15225968
145	0xbf0c0ba0	-0.5470524
146	0xbe8f19ca	-0.27949363
147	0xbec7dfeb	-0.39038023
148	0x3e4251c8	0.1897651
149	0x3ec76da5	0.3895084
150	0x3e885305	0.2662584
151	0xbeb5dd63	-0.35520467
152	0x3ec27295	0.37978044
153	0x3e9ab8ac	0.30219018
154	0x3dd1be10	0.1024133
155	0x3d8cd53d	0.068766095
156	0x3dfe1826	0.1240695
157	0xbef94008	-0.48681664
158	0xbdd42560	-0.10358691
159	0xbeee7c60	-0.46579266
160	0x3e398619	0.1811756
161	0xbe1f4b2c	-0.1555602
162	0x3ee23e94	0.44188368
163	0xbeb5f230	-0.35536337
164	0xbe112a3b	-0.14176266
165	0x3f228b23	0.63493556
166	0xbf197929	-0.599505
167	0x3dcf777a	0.1013021
168	0x3df8f773	0.12156572
169	0x3e09b7a3	0.13448958
170	0xbea506a0	-0.32231617
171	0xbda9bcb1	-0.08287943
172	0xbea60d1d	-0.3243188
173	0xbf124df9	-0.57150227
174	0x3d1d8af0	0.03846258
175	0x3c950ee7	0.018195583
176	0xbe237100	-0.15961075
177	0xbe4653b9	-0.19367875
178	0x3f2d3298	0.67655325
179	0xbf409c54	-0.7523854
180	0x3f43b173	0.7644264
181	0xbf310cca	-0.6916014
182	0x3e79d933	0.24399261
183	0xbe6d5008	-0.23175061
184	0xbf76ce67	-0.96408695
185	0x3e7353c4	0.23762423
186	0xbf3283aa	-0.69732153
187	0xbdf7fd4c	-0.121088594
188	0x3e273076	0.1632708
189	0x3ecfff03	0.40624246
190	0xbe9f43b7	-0.3110635
191	0xbe916a50	-0.28401423
192	0xbe73c06f	-0.23803876
193	0xbee7ae4a	-0.4525016
194	0xbf043a98	-0.51651907
195	0x3ea7d3d5	0.32778803
196	0x3add70af	0.0016894544
197	0x3e9e18dc	0.3087834
198	0x3f105cfe	0.56391895
199	0xbdfde244	-0.12396672
200	0x3e91338a	0.28359634
201	0xbe8185f7	-0.2529752
202	0x3e0617f5	0.13095076
203	0x3e1e5d5e	0.15465304
204	0x3ef376dc	0.4755162
205	0xbef33826	-0.47503775
206	0xbde866e8	-0.11347753
207	0x3f458f26	0.7717155
208	0xbdcab326	-0.09897451
209	0x3dcb3547	0.09922271
210	0x3f65e19e	0.8979739
211	0xbbfd130b	-0.0077232174
212	0xbf192721	-0.5982533
213	0x3e15ffa4	0.146483
214	0xbfa09ad2	-1.2547247
215	0x3e43adf9	0.19109334
216	0xbf3d926f	-0.74051565
217	0x3dc34748	0.0953508
218	0xbe151c77	-0.1456164
219	0x3f64ac5c	0.893255
220	0x3e821994	0.2541014
221	0x3e217edd	0.15771051
222	0x3f0e6bf8	0.556335
223	0xbe2bcc02	-0.16777042
224	0x3ba1ddc0	0.0049397647
225	0xbd7f02b6	-0.062258445
226	0xbefebcce	-0.49753422
227	0x3e9bcab1	0.3042808
228	0xbe12aace	-0.1432297
229	0x3df823d8	0.12116212
230	0xbed2fc38	-0.41208053
231	0x3ea6ee78	0.32603812
232	0x3ea842a1	0.32863334
233	0x3f48a6c8	0.7837949
234	0x3d868cf1	0.06569851
235	0x3e01aa0a	0.12662521
236	0x3e871d03	0.26389322
237	0xbea01895	-0.31268755
238	0x3e06f986	0.13181123
239	0xbeddea1e	-0.4334268
240	0x3e09fae3	0.13474612
241	0x3e5c8f77	0.21539102
242	0x3e746ef1	0.23870446
243	0x3efffc7c	0.49997318
244	0xbe09654d	-0.1341755
245	0x3e773d89	0.24144568
246	0x3d6ca08c	0.057770297
247	0xbf1195d4	-0.56869245
248	0xbde4f162	-0.111788526
249	0x3ecdffbd	0.40234175
250	0x3ee123f2	0.43972737
251	0xbea176f6	-0.31536072
252	0xbec3cf6f	-0.38244197
253	0x3ea2e863	0.31817922
254	0x3dfd551d	0.1236975
255	0xbbb0a283	-0.0053904667

network_body._body_endoder.seq_layers.0.bias f4 [128]
0	0x00000000	0.0
1	0x00000000	0.0
2	0x00000000	0.0
3	0x00000000	0.0
4	0x00000000	0.0
5	0x00000000	0.0
6	0x00000000	0.0
7	0x00000000	0.0
8	0x00000000	0.0
9	0x00000000	0.0
10	0x00000000	0.0
11	0x00000000	0.0
12	0x00000000	0.0
13	0x00000000	0.0
14	0x00000000	0.0
15	0x00000000	0.0
16	0x00000000	0.0
17	0x00000000	0.0
18	0x00000000	0.0
19	0x00000000	0.0
20	0x00000000	0.0
21	0x00000000	0.0
22	0x00000000	0.0
23	0x00000000	0.0
24	0x00000000	0.0
25	0x00000000	0.0
26	0x00000000	0.0
27	0x00000000	0.0
28	0x00000000	0.0
29	0x00000000	0.0
30	0x00000000	0.0
31	0x00000000	0.0
32	0x00000000	0.0
33	0x00000000	0.0
34	0x00000000	0.0
35	0x00000000	0.0
36	0x00000000	0.0
37	0x00000000	0.0
38	0x00000000	0.0
39	0x00000000	0.0
40	0x00000000	0.0
41	0x00000000	0.0
42	0x00000000	0.0
43	0x00000000	0.0
44	0x00000000	0.0
45	0x00000000	0.0
46	0x00000000	0.0
47	0x00000000	0.0
48	0x00000000	0.0
49	0x00000000	0.0
50	0x00000000	0.0
51	0x00000000	0.0
52	0x00000000	0.0
53	0x00000000	0.0
54	0x00000000	0.0
55	0x00000000	0.0
56	0x00000000	0.0
57	0x00000000	0.0
58	0x00000000	0.0
59	0x00000000	0.0
60	0x00000000	0.0
61	0x00000000	0.0
62	0x00000000	0.0
63	0x00000000	0.0
64	0x00000000	0.0
65	0x00000000	0.0
66	0x00000000	0.0
67	0x00000000	0.0
68	0x00000000	0.0
69	0x00000000	0.0
70	0x00000000	0.0
71	0x00000000	0.0
72	0x00000000	0.0
73	0x00000000	0.0
74	0x00000000	0.0
75	0x00000000	0.0
76	0x00000000	0.0
77	0x00000000	0.0
78	0x00000000	0.0
79	0x00000000	0.0
80	0x00000000	0.0
81	0x00000000	0.0
82	0x00000000	0.0
83	0x00000000	0.0
84	0x00000000	0.0
85	0x00000000	0.0
86	0x00000000	0.0
87	0x00000000	0.0
88	0x00000000	0.0
89	0x00000000	0.0
90	0x00000000	0.0
91	0x00000000	0.0
92	0x00000000	0.0
93	0x00000000	0.0
94	0x00000000	0.0
95	0x00000000	0.0
96	0x00000000	0.0
97	0x00000000	0.0
98	0x00000000	0.0
99	0x00000000	0.0
100	0x00000000	0.0
101	0x00000000	0.0
102	0x00000000	0.0
103	0x00000000	0.0
104	0x00000000	0.0
105	0x00000000	0.0
106	0x00000000	0.0
107	0x00000000	0.0
108	0x00000000	0.0
109	0x00000000	0.0
110	0x00000000	0.0
111	0x00000000	0.0
112	0x00000000	0.0
113	0x00000000	0.0
114	0x00000000	0.0
115	0x00000000	0.0
116	0x00000000	0.0
117	0x00000000	0.0
118	0x00000000	0.0
119	0x00000000	0.0
120	0x00000000	0.0
121	0x00000000	0.0
122	0x00000000	0.0
123	0x00000000	0.0
124	0x00000000	0.0
125	0x00000000	0.0
126	0x00000000	0.0
127	0x00000000	0.0

network_body._body_endoder.seq_layers.2.weight f4 [128, 128]
0	0x3bbc1299	0.0057395217
1	0x3e0a38b6	0.13498196
2	0x3df339a1	0.11876226
3	0xbd0ae77c	-0.033912167
4	0x3d147daa	0.036252655
5	0xbcce96cd	-0.025218392
6	0xbd8ca9ec	-0.068683475
7	0x3e441cdd	0.19151635
8	0x3d653b3e	0.0559647
9	0xbc6c58e1	-0.014425487
10	0xbe2242cb	-0.15845792
11	0x3d1086ba	0.035284735
12	0x3c319099	0.010837697
13	0x3d049e49	0.032377515
14	0x3ccea9b5	0.025227407
15	0xbd662689	-0.056189094
16	0xbccb1bac	-0.024793468
17	0x3de1c56f	0.110239856
18	0xbd7faa79	-0.062418435
19	0xbdac4db9	-0.08413262
20	0x3c90ac7a	0.017660368
21	0xbd936f44	-0.071989566
22	0xbd7eefe4	-0.062240496
23	0xbd735276	-0.059404813
24	0x3d0e9fa5	0.034820218
25	0xbd7f9134	-0.062394336
26	0x3d7ed955	0.062218983
27	0xbd1cf544	-0.03831984
28	0xbd15d304	-0.036578193
29	0x3d286449	0.041111264
30	0xbe02ad34	-0.12761384
31	0xbd89cc69	-0.06728441
32	0x3db9903c	0.09060714
33	0xbad75ff3	-0.0016431793
34	0x3dd003bc	0.10156962
35	0x3d951f60	0.07281375
36	0x3c8ff8b4	0.017574646
37	0x3d919e1e	0.071102366
38	0x3e2bf691	0.16793276
39	0x3c43561e	0.011922387
40	0xbe088370	-0.1333139
41	0xbcb118d9	-0.021618294
42	0xbda68745	-0.08131269
43	0x3d3634d3	0.04448397
44	0x3d00f797	0.03148612
45	0xbd232598	-0.039830774
46	0x3e31cb34	0.17362672
47	0xbda50f92	-0.080596104
48	0x3e12f4e7	0.14351235
49	0x3d1a6c29	0.037700806
50	0xbe20f920	-0.15720034
51	0xbcedaeb5	-0.02901397
52	0xbcbe3879	-0.023220288
53	0xbca1eac4	-0.019765265
54	0xbcf53be5	-0.029935787
55	0x3de4d922	0.11174227
56	0x3d884347	0.06653457
57	0xbddf5c0e	-0.1090623
58	0xbdc417ea	-0.09574874
59	0x3d99eb2f	0.07515561
60	0x3d64def5	0.05587669
61	0x3bdaf741	0.006682307
62	0xbcb4fcba	-0.022093166
63	0xbd24b6a8	-0.040213257
64	0x3c22abdf	0.009928673
65	0x3cbb4e0c	0.022864364
66	0x3de9ac9c	0.11409876
67	0x3e814e45	0.25255027
68	0x3da17229	0.078831024
69	0x3e3c4cd0	0.18388677
70	0x3dd506c1	0.10401679
71	0xb889ee0b	-6.577008e-05
72	0xbe1484a6	-0.14503726
73	0x3df35d02	0.11882974
74	0xbd32d895	-0.04366358
75	0xbcf63326	-0.030053686
76	0x3d6d18f1	0.057885114
77	0xbdc3c745	-0.09559492
78	0xbbc60e92	-0.0060442174
79	0x3e399363	0.1812263
80	0xbdf6a88f	-0.12043869
81	0xba23327f	-0.0006225481
82	0xbd3702a3	-0.04468025
83	0xbcbf2cca	-0.023336787
84	0x3d3f98ed	0.0467767
85	0xbd967f25	-0.0734847
86	0xbdfa9a3c	-0.12236449
87	0xbdb47616	-0.088115856
88	0x3c4761af	0.012169286
89	0x3c8cf231	0.01720533
90	0xbd08d169	-0.033402834
91	0x3db80285	0.089848556
92	0xbe023fb2	-0.1271961
93	0xbd73accb	-0.05949096
94	0x3d85ca9f	0.065327875
95	0x3cac526d	0.021035397
96	0x3e089a17	0.1334003
97	0xbcb1a6d8	-0.021686003
98	0x3bfe840e	0.007767207
99	0xbd0bd88e	-0.03414207
100	0xbdaa404f	-0.08313047
101	0x3d809bb0	0.06279695
102	0xbc469bab	-0.012122075
103	0xbcc06903	-0.023487573
104	0x3dc1b88f	0.0945903
105	0x3dad4e6d	0.08462224
106	0x3b9ece91	0.004846402
107	0x3e80fec4	0.2519437
108	0x3da42cf6	0.08016388
109	0x3c0bf9df	0.008543461
110	0xbdfd646e	-0.12372671
111	0x3db5865b	0.08863517
112	0xbdcc2da1	-0.099696405
113	0x3d0b1f18	0.0339652
114	0xbc8549d9	-0.016270565
115	0x3d63d0fc	0.055619225
116	0xbdb779e2	-0.08958794
117	0x3c25a520	0.01011017
118	0xbd842720	-0.06452775
119	0xbe3205bc	-0.17385
120	0x3d2de605	0.04245569
121	0xbe751f2e	-0.23937675
122	0xbdfb2b04	-0.12264064
123	0x3d0f626a	0.035005964
124	0xbe03adef	-0.12859319
125	0x3cd948ff	0.026524065
126	0x3ca329d0	0.019917399
127	0x3b965a80	0.004588425
128	0xbd7a1290	-0.06105286
129	0x3bbeea04	0.0058262367
130	0xbde0f558	-0.109842956
131	0xbd11cf07	-0.035597827
132	0x3de991ec	0.114047855
133	0x3e29bab3	0.16575126
134	0x3d35ff8c	0.04443316
135	0x3d9539cb	0.07286414
136	0xbd1e17f0	-0.038597047
137	0x3d64f0cb	0.0558937
138	0x3d5088f1	0.050911848
139	0xbbe85601	-0.0070903306
140	0xbda078f8	-0.07835573
141	0xbd6bdcbf	-0.057583567
142	0x3e52fed8	0.20605028
143	0xbd67a98f	-0.056558188
144	0x3dbd37eb	0.09239181
145	0xbd62b12e	-0.055344753
146	0xbd499288	-0.04921201
147	0x3da87dc9	0.082271166
148	0x3dd4eb45	0.103964366
149	0xbdf25436	-0.11832468
150	0xbbbd2a3f	-0.0057728584
151	0xbd4e291a	-0.050332166
152	0xbcf0631f	-0.02934414
153	0xbe0c9bd3	-0.13731317
154	0x3c5cdca3	0.013480338
155	0xbe3a4237	-0.18189321
156	0x3d53b898	0.051689714
157	0xbd290c9b	-0.041271787
158	0xbd17b7ae	-0.037040405
159	0x3e3814d5	0.17976697
160	0x3d9bf683	0.07615378
161	0xbd1e7092	-0.038681574
162	0xbd705107	-0.058671024
163	0xbd7b570e	-0.06136232
164	0xbd976fef	-0.073943965
165	0x3b3f39d5	0.0029178758
166	0x3d2e7dc6	0.042600416
167	0x3d3bcb27	0.045848038
168	0x3de08192	0.109622136
169	0x3df12b85	0.11775879
170	0xbe0a2015	-0.13488801
171	0xbd0c8749	-0.034308705
172	0xbc09ed18	-0.008418344
173	0x3ca7663c	0.020434491
174	0xbddea66b	-0.108715855
175	0x3d60bd17	0.05486783
176	0x3d47b880	0.048759937
177	0xbd3fee05	-0.046857852
178	0x3c9109fa	0.017704953
179	0x3d646558	0.05576071
180	0x3d4fe668	0.050756842
181	0xbdef12d5	-0.11673514
182	0x3c3c7ae9	0.011503913
183	0x3dedb87f	0.116074555
184	0xbb6973d2	-0.0035622013
185	0x3cafd1d7	0.021462364
186	0xbdc3937c	-0.09549615
187	0xbdb17b4e	-0.08666097
188	0xbdcaaedf	-0.09896635
189	0xbd91abb3	-0.07112827
190	0xbdd81cb7	-0.10552352
191	0xbe73ef55	-0.23821767
192	0xbd87a5c5	-0.06623415
193	0x3ac40a28	0.001495664
194	0x3bc4198e	0.0059844917
195	0xbde6c5d8	-0.112682045
196	0x3d7200d8	0.059082836
197	0xbd06be27	-0.032896187
198	0xbbeea2ed	-0.007282606
199	0x3dde028c	0.108403295
200	0x3dd6b80a	0.104843214
201	0x3cb97a72	0.022641394
202	0x3dcd4a56	0.10023944
203	0xbbce0c77	-0.006288107
204	0xbd5442d9	-0.051821563
205	0xbd5cc6d1	-0.053900544
206	0x3d592830	0.05301684
207	0x3d2a1caa	0.041531242
208	0xbd569e25	-0.052396912
209	0xbdaf7c7f	-0.085686676
210	0x3de654e9	0.11246664
211	0xbd9098b5	-0.070603766
212	0xbe11481c	-0.14187664
213	0x3ce02e4f	0.027365832
214	0xbd97c57a	-0.074107125
215	0x3d6eab1e	0.05826866
216	0x3d5ca7f7	0.05387112
217	0xbd8b227c	-0.06793687
218	0x3bf35346	0.0074256985
219	0x3cc4ee5c	0.02403944
220	0x3cb49bd6	0.022046965
221	0xbd370b01	-0.04468823
222	0xbd180ca7	-0.03712144
223	0x3dadc6ce	0.084851846
224	0x3db236b2	0.087018386
225	0x3ac0737e	0.0014682857
226	0x3e5a1a62	0.21299127
227	0x3dc31a23	0.095264696
228	0xbd9c5c9b	-0.076348506
229	0xbc57a15e	-0.0131610315
230	0x3b463ff7	0.0030250528
231	0x3d60e18e	0.054902606
232	0xbdcd86d8	-0.10035485
233	0xbc96640f	-0.018358259
234	0xbc3ca9db	-0.011515106
235	0xbd55e501	-0.05222035
236	0x3e4da320	0.20081758
237	0x3e0016c2	0.12508681
238	0x3e303ac0	0.17209911
239	0x3d5031ea	0.05082885
240	0xbcf99172	-0.030464862
241	0xbd522c68	-0.05131188
242	0x3d76cf5c	0.060256347
243	0x3d2195b2	0.0394494
244	0xbd24e9db	-0.040262084
245	0xbdb0ff68	-0.08642465
246	0x3bc34899	0.005959582
247	0xbc7c3d07	-0.015395409
248	0x3e221e19	0.15831794
249	0xbe77f4e3	-0.2421451
250	0xbd8816f9	-0.06645007
251	0x3dca96d4	0.098920494
252	0x3e483d94	0.1955474
253	0xbca25b11	-0.019818814
254	0xbd8f7bc1	-0.07006026
255	0xbbddc9df	-0.0067684497

network_body._body_endoder.seq_layers.2.bias f4 [128]
0	0x00000000	0.0
1	0x00000000	0.0
2	0x00000000	0.0
3	0x00000000	0.0
4	0x00000000	0.0
5	0x00000000	0.0
6	0x00000000	0.0
7	0x00000000	0.0
8	0x00000000	0.0
9	0x00000000	0.0
10	0x00000000	0.0
11	0x00000000	0.0
12	0x00000000	0.0
13	0x00000000	0.0
14	0x00000000	0.0
15	0x00000000	0.0
16	0x00000000	0.0
17	0x00000000	0.0
18	0x00000000	0.0
19	0x00000000	0.0
20	0x00000000	0.0
21	0x00000000	0.0
22	0x00000000	0.0
23	0x00000000	0.0
24	0x00000000	0.0
25	0x00000000	0.0
26	0x00000000	0.0
27	0x00000000	0.0
28	0x00000000	0.0
29	0x00000000	0.0
30	0x00000000	0.0
31	0x00000000	0.0
32	0x00000000	0.0
33	0x00000000	0.0
34	0x00000000	0.0
35	0x00000000	0.0
36	0x00000000	0.0
37	0x00000000	0.0
38	0x00000000	0.0
39	0x00000000	0.0
40	0x00000000	0.0
41	0x00000000	0.0
42	0x00000000	0.0
43	0x00000000	0.0
44	0x00000000	0.0
45	0x00000000	0.0
46	0x00000000	0.0
47	0x00000000	0.0
48	0x00000000	0.0
49	0x00000000	0.0
50	0x00000000	0.0
51	0x00000000	0.0
52	0x00000000	0.0
53	0x00000000	0.0
54	0x00000000	0.0
55	0x00000000	0.0
56	0x00000000	0.0
57	0x00000000	0.0
58	0x00000000	0.0
59	0x00000000	0.0
60	0x00000000	0.0
61	0x00000000	0.0
62	0x00000000	0.0
63	0x00000000	0.0
64	0x00000000	0.0
65	0x00000000	0.0
66	0x00000000	0.0
67	0x00000000	0.0
68	0x00000000	0.0
69	0x00000000	0.0
70	0x00000000	0.0
71	0x00000000	0.0
72	0x00000000	0.0
73	0x00000000	0.0
74	0x00000000	0.0
75	0x00000000	0.0
76	0x00000000	0.0
77	0x00000000	0.0
78	0x00000000	0.0
79	0x00000000	0.0
80	0x00000000	0.0
81	0x00000000	0.0
82	0x00000000	0.0
83	0x00000000	0.0
84	0x00000000	0.0
85	0x00000000	0.0
86	0x00000000	0.0
87	0x00000000	0.0
88	0x00000000	0.0
89	0x00000000	0.0
90	0x00000000	0.0
91	0x00000000	0.0
92	0x00000000	0.0
93	0x00000000	0.0
94	0x00000000	0.0
95	0x00000000	0.0
96	0x00000000	0.0
97	0x00000000	0.0
98	0x00000000	0.0
99	0x00000000	0.0
100	0x00000000	0.0
101	0x00000000	0.0
102	0x00000000	0.0
103	0x00000000	0.0
104	0x00000000	0.0
105	0x00000000	0.0
106	0x00000000	0.0
107	0x00000000	0.0
108	0x00000000	0.0
109	0x00000000	0.0
110	0x00000000	0.0
111	0x00000000	0.0
112	0x00000000	0.0
113	0x00000000	0.0
114	0x00000000	0.0
115	0x00000000	0.0
116	0x00000000	0.0
117	0x00000000	0.0
118	0x00000000	0.0
119	0x00000000	0.0
120	0x00000000	0.0
121	0x00000000	0.0
122	0x00000000	0.0
123	0x00000000	0.0
124	0x00000000	0.0
125	0x00000000	0.0
126	0x00000000	0.0
127	0x00000000	0.0

value_heads.value_heads.extrinsic.weight f4 [1, 128]
0	0x3dc9cce0	0.0985353
1	0xbe5c1709	-0.21493162
2	0x3d507078	0.05088851
3	0xbde3c884	-0.1112223
4	0xbe408a29	-0.18802704
5	0xbc8f7ae8	-0.017514661
6	0x3e4c7f5c	0.19970459
7	0xbd4ffff4	-0.050781205
8	0x3d756620	0.059911847
9	0x3dfd75d8	0.123759925
10	0x3d502000	0.050811768
11	0xbde9bef1	-0.11413372
12	0x3da5acc0	0.0808959
13	0xbe45643d	-0.19276519
14	0xbe0123c8	-0.12611306
15	0xbd525340	-0.051348925
16	0x3dfa5998	0.1222412
17	0x3e37c0e2	0.17944673
18	0x3d7e4328	0.062075764
19	0x3e35a0f8	0.17737186
20	0x3dc8e540	0.09809351
21	0xbcdc7100	-0.026909351
22	0x3e5b2e32	0.21404341
23	0x3ca293e8	0.019845918
24	0x3d955ea4	0.07293442
25	0xbe1117a7	-0.14169179
26	0x3d48c010	0.04901129
27	0xbd94302e	-0.07235752
28	0x3dd0feec	0.102048725
29	0xbe49acce	-0.19694826
30	0x3e09bcc6	0.13450918
31	0x3e5b60b6	0.21423611
32	0x3e3a1826	0.18173274
33	0x3ccebbc8	0.025236025
34	0xbe1b73d7	-0.15180908
35	0x3c86a5e0	0.016436517
36	0x3e58691c	0.21133846
37	0xbde2ed5f	-0.11080431
38	0xbe12eb68	-0.14347613
39	0xbdfc825a	-0.1232955
40	0x3d9057f8	0.07048029
41	0x3c514050	0.012771681
42	0xbe57fae1	-0.21091796
43	0x3d471448	0.048603326
44	0xbe2212ad	-0.15827437
45	0xbde7086e	-0.11280905
46	0x3e492b36	0.1964539
47	0x3de36cb8	0.11104721
48	0xbd44b894	-0.04802759
49	0xbcf82588	-0.030291334
50	0x3e31f9c4	0.17380434
51	0xbc58e5d0	-0.013238385
52	0x3e506f46	0.20354947
53	0xbddff53b	-0.10935446
54	0x3e0f7fee	0.14013645
55	0x3e1a8534	0.15089875
56	0x3e41c9ec	0.18924683
57	0x3e132226	0.14368495
58	0x3e1a95a4	0.15096146
59	0xbe33885d	-0.17532487
60	0x3da7e49c	0.08197901
61	0xbe0ed2e4	-0.13947636
62	0x3e475038	0.19464195
63	0x3e2d472a	0.16921678
64	0xbd82b182	-0.06381513
65	0x3ddef4a4	0.10886505
66	0xbdf7d69c	-0.1210148
67	0x3da5c76c	0.08094677
68	0x3d254e98	0.040358156
69	0xbd0cfbcc	-0.03441982
70	0xbdc4a13b	-0.09601065
71	0x3d028ce8	0.03187266
72	0xbd4816e8	-0.04884997
73	0xbd414ee8	-0.04719439
74	0xbe4e8340	-0.20167255
75	0xbd698698	-0.057013124
76	0xbd855620	-0.06510568
77	0xbe486196	-0.19568476
78	0x3d4c6538	0.049901217
79	0x3b1f6240	0.0024320036
80	0x3e1a8b82	0.1509228
81	0x3d9914e8	0.07474691
82	0xbe00da14	-0.1258319
83	0xbe290390	-0.16505265
84	0x3c917f00	0.017760754
85	0x3e3849c2	0.17996886
86	0xbe248853	-0.16067629
87	0x3e45a4b8	0.19301116
88	0x3cadcfb0	0.021217197
89	0x3e43ca32	0.191201
90	0x3e23f144	0.16010004
91	0xbe2e5455	-0.17024358
92	0x3d68cec8	0.056837827
93	0xbe5a652d	-0.21327658
94	0x3d53a9e8	0.051675707
95	0xbe3e880a	-0.18606582
96	0x3dc804b4	0.09766522
97	0xbe595f8b	-0.21227853
98	0x3da9b36c	0.08286175
99	0x3dbd1568	0.092325985
100	0x3dcc5d84	0.09978774
101	0xbe58d181	-0.2117367
102	0xbd722e68	-0.059126288
103	0xbd487ae8	-0.048945338
104	0x3dbecb90	0.0931617
105	0xbd4c8f44	-0.049941316
106	0xbda6ffda	-0.081542686
107	0xbe1706e4	-0.14748722
108	0xbe3aa29d	-0.18226095
109	0x3cea0670	0.028567523
110	0xbe01df10	-0.12682748
111	0xbc9ccbd8	-0.019140169
112	0x3e108e38	0.14116752
113	0x3e3fd7d4	0.18734676
114	0xbe310de6	-0.17290458
115	0xbc8f5278	-0.017495379
116	0xbdc23576	-0.09482853
117	0x3d67d9d0	0.056604207
118	0xbba2b5a0	-0.004965499
119	0x3d9a45e4	0.07532862
120	0xbe16d298	-0.14728773
121	0x3e4a318e	0.19745466
122	0x3d31cf08	0.04341033
123	0x3e29f7ba	0.16598406
124	0x3e0e8194	0.13916618
125	0x3dc469b0	0.09590471
126	0xbdc90b39	-0.09816594
127	0xbe32b2b3	-0.17450981
