results/newOne/War Behaviour/War Behaviour-1862.onnx (onnx, 71258 bytes, 6 tensors)

action_model._discrete_distribution.branches.0.bias f4 [2]
0.0 0.0
00000000: 0000 0000 0000 0000

action_model._discrete_distribution.branches.0.weight f4 [2, 128]
-0.0058467877 -0.017098445 -0.0069661564 -0.008546281 -0.0053122286 -0.0041266 0.0064454614 0.002879568
-0.015599119 -0.0016745812 -0.010362505 -9.098878e-05 0.006075829 -0.016658522 -0.0077388585 0.012912096
0.00012327962 -0.0070175542 0.004749387 0.0016055851 0.0003178795 0.0070488523 0.0021996226 0.006710016
0.015188101 0.020328932 -0.008864443 -0.0054554273 0.013047608 0.006102969 -0.013574575 -0.0033557327
-0.006810255 0.0027824754 -0.009981596 -0.012387164 0.005117359 -0.020271499 -0.015667375 -0.0041693687
0.0031295717 0.0015933219 0.005052389 -0.005319906 0.00626016 0.009503773 -0.010175764 -0.010154248
0.011179569 0.0044639185 0.012752843 0.0017118057 0.002944967 -0.01303335 -0.00042318887 0.00016305753
0.010302796 0.016099516 0.00024211644 0.011789326 0.014250337 0.0077240737 0.0020201034 -0.00050342985
0.011297709 -0.001149719 -0.0073184757 -0.0093650995 0.010816815 -0.00710825 0.0052692196 -0.0016259315
-0.0005283035 0.007911485 0.008886198 0.0034784824 -0.0018176103 0.007467837 -0.009573054 -0.022827007
0.008813041 0.014099275 -0.0022651 -0.021117495 -0.006180831 0.004725691 -0.019006765 0.0033575743
0.0043569664 -0.008324338 0.00073551066 -6.969384e-05 0.007281409 0.009458529 0.010735113 -0.0016395753
-0.0075860205 -0.0147758275 -0.00061705033 -0.01483382 -0.0015656836 -0.0017252018 0.006181031 -0.009922627
-0.00051710696 0.004038166 0.010884672 0.00050993805 -0.0021070102 -0.0007924437 -0.00014104502 -0.009080283
-0.00497785 0.0038204861 0.0044807205 0.0006653505 0.004658898 -0.014933421 -0.013309883 -0.0022491
-0.005661041 0.0053280443 -0.0019465525 0.033356663 0.0015488247 -0.00430401 -0.006575825 0.004310304
0.00042734385 0.005084486 0.00034994748 0.0013456981 0.0024238143 0.0028284907 8.437113e-05 0.001993119
0.0011852294 -0.0025823067 0.0035113913 -0.009950638 -0.0018483362 0.0066308575 -0.00083381654 -0.008475764
-0.00080386456 0.011541847 0.015452685 -0.00034792558 -0.0025148455 -0.009657868 0.020054774 -0.0028074195
-0.0038401708 0.0060684658 -0.004188395 0.00742158 0.0063830004 -0.0040896847 -0.0026804905 -0.0028044821
-0.00020053548 0.007955879 0.0026708688 0.0065583386 -0.00056043244 -0.00031316988 0.00046842892 -0.008286504
-0.00485992 -0.006161612 -0.0012631648 0.011102356 0.0076868194 -0.0055130157 0.0053265686 -0.0007852837
-0.0029236912 4.1755367e-05 0.0049848654 -0.0021502383 0.0005888631 -0.013539811 0.008563505 0.009926594
-0.018088922 0.020495988 0.005946573 -0.007975583 -0.0058034076 -0.008648237 -0.001851883 -0.013477854
-0.011865116 -0.020759484 0.012304185 0.008791006 -0.0034309214 -0.00217065 0.0065880613 0.0054704766
-0.013930102 -0.0066331946 0.0021346416 -0.0023577602 -0.005325981 0.010592969 -0.0023906336 -0.013777727
0.003141102 0.009256378 0.0005971698 -0.00730396 -0.007672012 0.007048217 0.00079347193 0.0010243215
-0.0098993685 -0.014517467 0.007218069 0.0037183897 -0.014690061 -0.0068436763 0.0047317958 0.006680193
0.009901164 0.004327114 0.0025163684 -0.004968804 0.0050317976 0.00063101685 -0.0027197865 -0.0028645794
0.025932943 -0.018162886 0.0047347117 0.0013667118 -0.006614081 -0.013784485 -0.0059124487 -0.0059972145
0.018375589 -0.004453615 0.007062383 0.0072530396 0.010555184 -0.008707463 0.008209988 -0.0015475544
0.018100029 -0.004449135 0.01144925 0.0038842894 -0.022647625 -0.0038114085 -0.008545031 0.017236125
00000000: 6996 bfbb 0a12 8cbc 5b44 e4bb b305 0cbc
00000010: 3412 aebb 6e38 87bb 7334 d33b 22b7 3c3b
00000020: 7293 7fbc 9f7d dbba 7fc7 29bc 3bd1 beb8
00000030: bf17 c73b 7477 88bc 4096 fdbb 428d 533c
00000040: 9f44 0139 83f3 e5bb bfa0 9b3b 7f72 d23a
00000050: 10a9 a639 0ffa e63b 8b27 103b b2df db3b
00000060: 83d7 783c dc88 a63c 2b3c 11bc 71c3 b2bb
00000070: a2c5 553c 6afb c73b e567 5ebc daeb 5bbb
00000080: 8f28 dfbb 315a 363b d989 23bc 88f3 4abc
00000090: 85af a73b 6a10 a6bc de58 80bc 339f 88bb
000000a0: 8019 4d3b 03d7 d03a 838e a53b 9b52 aebb
000000b0: 0722 cd3b b7b5 1b3c 3fb8 26bc 015e 26bc
000000c0: 832a 373c 1046 923b 4df1 503c ab5e e03a
000000d0: 5900 413b d589 55bc 73df ddb9 6cfa 2a39
000000e0: 0fcd 283c 22e3 833c a3e0 7d39 0428 413c
000000f0: 3f7a 693c 3a1a fd3b b663 043b 9bf8 03ba
00000100: 071a 393c 2bb2 96ba d3cf efbb 1370 19bc
00000110: 0339 313c 53ec e8bb 6ba9 ac3b 351d d5ba
00000120: d97d 0aba 2c9f 013c 6a97 113c 40f7 633b
00000130: e23c eeba c2b4 f43b 4cd8 1cbc b4ff babc
00000140: 9364 103c a500 673c 1272 14bb 99fe acbc
00000150: 9288 cabb f8d9 9a3b 13b4 9bbc c00a 5c3b
00000160: e2c4 8e3b ce62 08bc 49cf 403a 9828 92b8
00000170: e398 ee3b f2f7 1a3c 54e2 2f3c 05e7 d6ba
00000180: 2794 f8bb 5016 72bc 8cc1 21ba 8d09 73bc
00000190: a037 cdba 2b20 e2ba 3f8a ca3b 8492 22bc
000001a0: 768e 07ba 9752 843b a055 323c 5dad 053a
000001b0: c415 0abb ffbb 4fba 7ce5 13b9 78c5 14bc
000001c0: 3b1d a3bb 1f61 7a3b 02d3 923b eb6a 2e3a
000001d0: aba9 983b 4fab 74bc b211 5abc a365 13bb
000001e0: 4180 b9bb e096 ae3b 7723 ffba ffa0 083d
000001f0: ef01 cb3a a708 8dbb 057a d7bb 733d 8d3b
00000200: 1f0d e039 c39b a63b 2879 b739 2362 b03a
00000210: dbd8 1e3b 335e 393b 68f0 b038 fd9e 023b
00000220: b359 9b3a eb3b 29bb 5f1f 663b 0008 23bc
00000230: df43 f2ba aa47 d93b 7b94 5aba eedd 0abc
00000240: 70ba 52ba 041a 3d3c 422d 7d3c c869 b6b9
00000250: 1bd0 24bb 093c 1ebc e949 a43c affc 37bb
00000260: 60ab 7bbb fbd9 c63b ce3e 89bb ba30 f33b
00000270: 7d28 d13b c302 86bb 2bab 2fbb 67cb 37bb
00000280: d546 52b9 6059 023c be09 2f3b 55e7 d63b
00000290: fce9 12ba f330 a4b9 7797 f539 1ec4 07bc
000002a0: f73f 9fbb 59e7 c9bb c790 a5ba a8e6 353c
000002b0: b7e1 fb3b 87a6 b4bb 7f8a ae3b 7fdb 4dba
000002c0: 669b 3fbb 7c22 2f38 1558 a33b 03eb 0cbb
000002d0: ef5d 1a3a 15d6 5dbc f14d 0c3c 27a3 223c
000002e0: 382f 94bc 34e7 a73c 78db c23b 05ac 02bc
000002f0: 832a bebb 56b1 0dbc e2ba f2ba 38d2 5cbc
00000300: e765 42bc cb0f aabc 7e97 493c 2708 103c
00000310: 4fd9 60bb 7741 0ebb aae0 d73b af41 b33b
00000320: 153b 64bc 455b d9bb 58e5 0b3b a784 1abb
00000330: 9185 aebb 228e 2d3c 2dac 1cbb fabb 61bc
00000340: f2da 4d3b 10a8 173c 638b 1c3a 0f56 efbb
00000350: 8065 fbbb bbf4 e63b 0001 503a 8742 863a
00000360: f630 22bc abda 6dbc 8d85 ec3b 3ab0 733b
00000370: 95ae 70bc eb40 e0bb 2e0d 9b3b 85e5 da3b
00000380: 7e38 223c 77ca 8d3b a8e9 243b 59d1 a2bb
00000390: c7e1 a43b d36a 253a 723e 32bb abbb 3bbb
000003a0: 5371 d43c 55ca 94bc a425 9b3b 3d23 b33a
000003b0: efba d8bb 52d8 61bc 37bd c1bb 4884 c4bb
000003c0: 6788 963c a1ef 91bb 906b e73b e8aa ed3b
000003d0: a7ef 2c3c bfa9 0ebc 2f83 063c 4fd7 caba
000003e0: 8346 943c 0dca 91bb a395 3b3c 908f 7e3b
000003f0: 8387 b9bc d3c8 79bb 7500 0cbc c632 8d3c

network_body._body_endoder.seq_layers.0.bias f4 [128]
0.0 0.0 0.0 0.0 0.0 0.0 0.0 0.0
0.0 0.0 0.0 0.0 0.0 0.0 0.0 0.0
0.0 0.0 0.0 0.0 0.0 0.0 0.0 0.0
0.0 0.0 0.0 0.0 0.0 0.0 0.0 0.0
0.0 0.0 0.0 0.0 0.0 0.0 0.0 0.0
0.0 0.0 0.0 0.0 0.0 0.0 0.0 0.0
0.0 0.0 0.0 0.0 0.0 0.0 0.0 0.0
0.0 0.0 0.0 0.0 0.0 0.0 0.0 0.0
0.0 0.0 0.0 0.0 0.0 0.0 0.0 0.0
0.0 0.0 0.0 0.0 0.0 0.0 0.0 0.0
0.0 0.0 0.0 0.0 0.0 0.0 0.0 0.0
0.0 0.0 0.0 0.0 0.0 0.0 0.0 0.0
0.0 0.0 0.0 0.0 0.0 0.0 0.0 0.0
0.0 0.0 0.0 0.0 0.0 0.0 0.0 0.0
0.0 0.0 0.0 0.0 0.0 0.0 0.0 0.0
0.0 0.0 0.0 0.0 0.0 0.0 0.0 0.0
00000000: 0000 0000 0000 0000 0000 0000 0000 0000
00000010: 0000 0000 0000 0000 0000 0000 0000 0000
00000020: 0000 0000 0000 0000 0000 0000 0000 0000
00000030: 0000 0000 0000 0000 0000 0000 0000 0000
00000040: 0000 0000 0000 0000 0000 0000 0000 0000
00000050: 0000 0000 0000 0000 0000 0000 0000 0000
00000060: 0000 0000 0000 0000 0000 0000 0000 0000
00000070: 0000 0000 0000 0000 0000 0000 0000 0000
00000080: 0000 0000 0000 0000 0000 0000 0000 0000
00000090: 0000 0000 0000 0000 0000 0000 0000 0000
000000a0: 0000 0000 0000 0000 0000 0000 0000 0000
000000b0: 0000 0000 0000 0000 0000 0000 0000 0000
000000c0: 0000 0000 0000 0000 0000 0000 0000 0000
000000d0: 0000 0000 0000 0000 0000 0000 0000 0000
000000e0: 0000 0000 0000 0000 0000 0000 0000 0000
000000f0: 0000 0000 0000 0000 0000 0000 0000 0000
00000100: 0000 0000 0000 0000 0000 0000 0000 0000
00000110: 0000 0000 0000 0000 0000 0000 0000 0000
00000120: 0000 0000 0000 0000 0000 0000 0000 0000
00000130: 0000 0000 0000 0000 0000 0000 0000 0000
00000140: 0000 0000 0000 0000 0000 0000 0000 0000
00000150: 0000 0000 0000 0000 0000 0000 0000 0000
00000160: 0000 0000 0000 0000 0000 0000 0000 0000
00000170: 0000 0000 0000 0000 0000 0000 0000 0000
00000180: 0000 0000 0000 0000 0000 0000 0000 0000
00000190: 0000 0000 0000 0000 0000 0000 0000 0000
000001a0: 0000 0000 0000 0000 0000 0000 0000 0000
000001b0: 0000 0000 0000 0000 0000 0000 0000 0000
000001c0: 0000 0000 0000 0000 0000 0000 0000 0000
000001d0: 0000 0000 0000 0000 0000 0000 0000 0000
000001e0: 0000 0000 0000 0000 0000 0000 0000 0000
000001f0: 0000 0000 0000 0000 0000 0000 0000 0000

network_body._body_endoder.seq_layers.0.weight f4 [128, 3]
0.8161 0.24762703 0.486076 -0.86341655 0.751913 0.368514 -0.7118834 -0.18941559
0.31986123 0.09266237 0.16009076 -1.1443393 0.17304806 0.8063649 0.27679917 0.029278034
-0.07497274 -0.26468503 -0.04058781 0.5508716 -0.46192235 0.43082345 1.3577002 -0.99991846
-0.3390251 -0.3288605 0.03354393 0.36505827 0.4310156 -0.2958734 -0.15643528 -0.10286227
1.6708877 1.2425203 0.24268468 -1.3799555 0.49410644 0.12863784 1.094045 -0.19543032
0.7103382 0.5020859 0.6398262 0.2218749 0.5671067 -0.18625605 0.23320922 0.28657654
0.5093151 -0.33370623 0.080771044 0.15793005 0.4192083 -0.3281074 -0.021164734 -0.20669739
0.46731663 -0.8017141 1.3748522 0.5445044 -1.0635879 -0.5062376 -0.9128028 -0.40695205
-0.28265545 0.11176128 0.24929832 -0.20372522 0.2673775 0.6538966 0.7937608 0.45249715
-0.9579908 1.1920613 0.08799591 -0.6928823 -0.6884967 -0.43538618 -0.39042348 -0.27719566
-0.004617639 0.16897742 -0.7657106 -0.5041172 1.5326071 -0.14763458 -0.021482559 0.53231066
0.09002951 -0.3033284 -0.52748895 0.39611137 0.31628615 -0.45625108 -0.34931433 0.19472572
0.54613876 0.21288921 -0.26284635 0.047102913 -0.11970784 1.0656781 0.31606784 -0.41403162
0.5075808 -0.29528975 0.4800226 0.7081012 0.013902313 0.43602931 0.15391435 -0.06853305
-0.3535328 -0.007748442 -0.54767954 0.22252098 0.6031635 -0.37474588 -0.1962841 0.021048503
-0.06024974 -0.26443043 0.35377055 -0.13291685 -0.9790769 0.49085522 -0.16179499 0.19091474
-0.5159404 0.91719127 -0.5171174 0.47618538 0.5754855 -0.20862594 -0.4274626 0.7391956
-0.32293642 -0.6373301 0.6129595 0.7959572 -0.72914386 -0.56586325 0.10582635 -0.010382026
-0.93471146 -0.38289917 1.1745446 -0.32156646 -0.42391104 -0.24483943 -0.27333075 -0.66612244
-0.074326396 0.046446227 0.23994523 -0.375343 -0.10807114 0.08960413 -0.2163259 -0.24982236
0.2585717 0.18054503 -0.13087544 -1.4733636 0.8885796 0.10303056 0.2962244 0.53116995
0.19060984 0.4440717 0.85309166 -0.020893041 0.5411642 0.053143684 0.28631526 0.041260958
-0.36886343 -0.4024675 0.30028325 0.28797534 -0.48626134 0.03739611 -0.08531453 0.13868892
0.46128058 0.6227554 0.94795686 -0.1240975 0.48488694 -0.01553328 -1.1218925 0.15399891
0.6599451 -0.14651674 -0.05091231 -0.57675445 -0.036738954 -0.11058441 -0.5577308 0.7879684
-0.29201 0.6900025 0.3813234 -0.119348854 0.42300195 0.063245595 -0.6626957 0.30757034
0.49446788 -0.68257564 -0.8233856 0.17522214 0.34396935 0.024744624 0.10102223 0.45540848
-0.3468498 -0.79948694 0.23270606 -0.6623817 0.534754 0.42999676 0.07560726 -0.0090254415
0.36824405 0.24303545 0.9605161 0.8305373 -0.12790813 0.20931286 -0.47524917 -0.08587221
-0.6042866 -0.5141321 -0.04475959 0.26988035 1.1507227 0.32192633 0.20990194 0.038016982
1.0450894 -0.7858161 -0.17413418 0.13474894 0.23705079 0.9225244 -0.3445402 -1.0451221
0.11755309 0.45925567 -0.6273421 -0.591619 0.6618007 1.06383 0.39277148 0.115751505
00000000: eeeb 503f f191 7d3e f4de f83e de08 5dbf
00000010: 5f7d 403f dead bc3e fe3d 36bf 29f6 41be
00000020: dac4 a33e c5c5 bd3d d5ee 233e b679 92bf
00000030: 8333 313e ee6d 4e3f 9fb8 8d3e 7dd8 ef3c
00000040: 4f8b 99bd cc84 87be 673f 26bd ec05 0d3f
00000050: 1681 ecbe e494 dc3e 1fc9 ad3f a8fa 7fbf
00000060: b394 adbe 6760 a8be 5c65 093d ebe8 ba3e
00000070: 14ae dc3e b87c 97be 9230 20be 74a9 d2bd
00000080: a6df d53f e80a 9f3f 5582 783e 62a2 b0bf
00000090: 85fb fc3e a3b9 033e ab09 8c3f e31e 48be
000000a0: b9d8 353f b488 003f a6cb 233f 2c33 633e
000000b0: e82d 113f e8b9 3ebe 66ce 6e3e 29ba 923e
000000c0: 7962 023f 8bdb aabe 4a6b a53d 6ab8 213e
000000d0: 78a2 d63e b1fd a7be aa61 adbc 7ba8 53be
000000e0: 2044 ef3e 233d 4dbf 28fb af3f a464 0b3f
000000f0: a623 88bf ca98 01bf 72ad 69bf 055c d0be
00000100: 37b8 90be 19e3 e43d 0f48 7f3e 589d 50be
00000110: b4e5 883e c465 273f e833 4b3f b5ad e73e
00000120: e33e 75bf 7795 983f 3337 b43d bc60 31bf
00000130: 5241 30bf f0ea debe 96e5 c7be 97ec 8dbe
00000140: 904f 97bb 6b08 2d3e 9c05 44bf d30d 01bf
00000150: 782c c43f 852d 17be 31fc afbc 8345 083f
00000160: 6461 b83d dc4d 9bbe 8409 07bf 1ccf ca3e
00000170: 42f0 a13e be99 e9be 54d9 b2be 2e66 473e
00000180: c0cf 0b3f a1ff 593e cc93 86be fcee 403d
00000190: 6229 f5bd 2468 883f a5d3 a13e f4fb d3be
000001a0: d1f0 013f 3830 97be 86c5 f53e 1f46 353f
000001b0: 87c6 633c 3c3f df3e b99b 1d3e 0e5b 8cbd
000001c0: 4002 b5be a4e6 fdbb ba34 0cbf 8adc 633e
000001d0: ec68 1a3f b1de bfbe b3fe 48be e96d ac3c
000001e0: 6ec8 76bd 6d63 87be 6a21 b53e 5b1b 08be
000001f0: c9a4 7abf 6051 fb3e 96ad 25be 277f 433e
00000200: ac14 04bf 0ccd 6a3f ce61 04bf 92ce f33e
00000210: 0553 133f 0aa2 55be 61dc dabe ec3b 3d3f
00000220: ec57 a5be 1128 23bf eaea 1c3f dac3 4b3f
00000230: 2ca9 3abf 6adc 10bf 7cbb d83d 6019 2abc
00000240: 4049 6fbf 5c0b c4be 7a57 963f 5ca4 a4be
00000250: de0a d9be 30b7 7abe 02f2 8bbe 0087 2abf
00000260: 7038 98bd 663e 3e3d 34b4 753e f52c c0be
00000270: 6754 ddbd 5f82 b73d 8984 5dbe 6fd1 7fbe
00000280: 8363 843e cce0 383e 3604 06be 2e97 bcbf
00000290: f479 633f b001 d33d b9aa 973e c1fa 073f
000002a0: 3a2f 433e 5e5d e33e 3764 5a3f e227 abbc
000002b0: bd89 0a3f 31ad 593d ea97 923e 4001 293d
000002c0: abdb bcbe 3810 cebe babe 993e 8171 933e
000002d0: 3ff7 f8be aa2c 193d 62b9 aebd 7804 0e3e
000002e0: f82c ec3e e66c 1f3f 4dad 723f d526 febd
000002f0: 1a43 f83e 4c7f 7ebc 2c9a 8fbf e4b1 1d3e
00000300: 29f2 283f 7c08 16be 6d89 50bd 2ea6 13bf
00000310: 967b 16bd 147a e2bd 72c7 0ebf 4cb8 493f
00000320: 5682 95be 01a4 303f d23c c33e 2c6d f4bd
00000330: b693 d83e e886 813d 6da6 29bf dc79 9d3e
00000340: e52a fd3e 47bd 2ebf 66c9 52bf 6f6d 333e
00000350: c01c b03e 3db5 ca3c bee4 ce3d 4d2b e93e
00000360: 4c96 b1be 2dab 4cbf 7f4a 6e3e d991 29bf
00000370: a3e5 083f 8928 dc3e fbd7 9a3d 72df 13bc
00000380: 7c8a bc3e 49de 783e 62e4 753f 189e 543f
00000390: 59fa 02be 1c56 563e dc53 f3be c5dd afbd
000003a0: 87b2 1abf 299e 03bf d555 37bd c22d 8a3e
000003b0: e24a 933f 87d3 a43e 89f0 563e b2b7 1b3d
000003c0: 7dc5 853f 3e2b 49bf 3b50 32be a0fb 093e
000003d0: 71bd 723e 8f2a 6c3f 9367 b0be 90c6 85bf
000003e0: adbf f03d 8f23 eb3e 7e99 20bf 5874 17bf
000003f0: c56b 293f 952b 883f 5819 c93e 200f ed3d

network_body._body_endoder.seq_layers.2.bias f4 [128]
0.0 0.0 0.0 0.0 0.0 0.0 0.0 0.0
0.0 0.0 0.0 0.0 0.0 0.0 0.0 0.0
0.0 0.0 0.0 0.0 0.0 0.0 0.0 0.0
0.0 0.0 0.0 0.0 0.0 0.0 0.0 0.0
0.0 0.0 0.0 0.0 0.0 0.0 0.0 0.0
0.0 0.0 0.0 0.0 0.0 0.0 0.0 0.0
0.0 0.0 0.0 0.0 0.0 0.0 0.0 0.0
0.0 0.0 0.0 0.0 0.0 0.0 0.0 0.0
0.0 0.0 0.0 0.0 0.0 0.0 0.0 0.0
0.0 0.0 0.0 0.0 0.0 0.0 0.0 0.0
0.0 0.0 0.0 0.0 0.0 0.0 0.0 0.0
0.0 0.0 0.0 0.0 0.0 0.0 0.0 0.0
0.0 0.0 0.0 0.0 0.0 0.0 0.0 0.0
0.0 0.0 0.0 0.0 0.0 0.0 0.0 0.0
0.0 0.0 0.0 0.0 0.0 0.0 0.0 0.0
0.0 0.0 0.0 0.0 0.0 0.0 0.0 0.0
00000000: 0000 0000 0000 0000 0000 0000 0000 0000
00000010: 0000 0000 0000 0000 0000 0000 0000 0000
00000020: 0000 0000 0000 0000 0000 0000 0000 0000
00000030: 0000 0000 0000 0000 0000 0000 0000 0000
00000040: 0000 0000 0000 0000 0000 0000 0000 0000
00000050: 0000 0000 0000 0000 0000 0000 0000 0000
00000060: 0000 0000 0000 0000 0000 0000 0000 0000
00000070: 0000 0000 0000 0000 0000 0000 0000 0000
00000080: 0000 0000 0000 0000 0000 0000 0000 0000
00000090: 0000 0000 0000 0000 0000 0000 0000 0000
000000a0: 0000 0000 0000 0000 0000 0000 0000 0000
000000b0: 0000 0000 0000 0000 0000 0000 0000 0000
000000c0: 0000 0000 0000 0000 0000 0000 0000 0000
000000d0: 0000 0000 0000 0000 0000 0000 0000 0000
000000e0: 0000 0000 0000 0000 0000 0000 0000 0000
000000f0: 0000 0000 0000 0000 0000 0000 0000 0000
00000100: 0000 0000 0000 0000 0000 0000 0000 0000
00000110: 0000 0000 0000 0000 0000 0000 0000 0000
00000120: 0000 0000 0000 0000 0000 0000 0000 0000
00000130: 0000 0000 0000 0000 0000 0000 0000 0000
00000140: 0000 0000 0000 0000 0000 0000 0000 0000
00000150: 0000 0000 0000 0000 0000 0000 0000 0000
00000160: 0000 0000 0000 0000 0000 0000 0000 0000
00000170: 0000 0000 0000 0000 0000 0000 0000 0000
00000180: 0000 0000 0000 0000 0000 0000 0000 0000
00000190: 0000 0000 0000 0000 0000 0000 0000 0000
000001a0: 0000 0000 0000 0000 0000 0000 0000 0000
000001b0: 0000 0000 0000 0000 0000 0000 0000 0000
000001c0: 0000 0000 0000 0000 0000 0000 0000 0000
000001d0: 0000 0000 0000 0000 0000 0000 0000 0000
000001e0: 0000 0000 0000 0000 0000 0000 0000 0000
000001f0: 0000 0000 0000 0000 0000 0000 0000 0000

network_body._body_endoder.seq_layers.2.weight f4 [128, 128]
-0.03940664 -0.028266104 -0.15214103 -0.042531624 -0.02180402 0.17145848 0.034728914 0.13028286
0.02850766 0.026671281 0.097490475 0.06803532 -0.102945365 0.016160484 -0.09398455 -0.022745091
-0.013655802 -0.11445683 -0.14171642 -0.207471 0.10296794 -0.057846464 -0.10415022 -0.06551887
-0.063660085 0.10626802 -0.019829229 -0.042891398 0.039973613 -0.029620498 0.032799877 0.037352003
-0.08747497 0.0385223 -0.10455775 -0.057535104 0.056019794 0.09155404 0.11846929 -0.10668425
0.0798956 -0.06488364 -0.13344912 0.033241365 0.005095671 -0.076951474 0.004360195 0.058452792
-0.103519 -0.031560708 0.08728118 0.032753054 -0.15479922 -0.22360277 0.05030126 -0.012427652
-0.07055068 -0.08322601 -0.06451978 0.020184295 -0.1860897 -0.13679646 -0.0037026082 -0.047150802
0.009896595 0.080051556 0.0751012 -0.019963387 0.082031704 -0.18215013 -0.057809684 -0.0022387458
-0.033626348 -0.10277015 -0.052078485 0.034872953 0.0308166 -0.064492635 0.019155458 0.12423507
0.116010346 0.007415748 -0.04152478 -0.06338314 0.080346264 -0.0078272885 -0.026568433 -0.010771223
-0.06631755 0.15042712 0.06670165 0.05413961 0.028274959 0.07684425 0.04158876 -0.070640124
0.023383373 0.10097506 0.024287147 -0.19663477 0.12877636 -0.11128911 -0.039075606 -0.032988913
0.003244241 -0.05345898 0.21280418 0.014772628 -0.011320899 -0.028832601 0.12400648 0.07950177
-0.049658034 -0.064248264 -0.05798958 0.13070446 -0.005116382 0.022296958 0.025706759 0.031854782
-0.058113374 -0.047288332 -0.13697025 -0.048479874 -0.10301942 0.033900715 0.028689114 -0.00858407
0.029172827 -0.15974954 -0.19616431 0.03670399 0.080191165 0.09596057 -0.18795842 -0.10873991
-0.008036712 -0.00079608243 -0.07392358 -0.06980605 0.196332 -0.1368092 -0.047232673 0.043742407
0.12804753 -0.06235557 0.0902636 0.084188834 -0.08465048 -0.01383227 -0.06544137 0.03377349
0.09463889 -0.031208945 0.061621167 0.21124195 0.0036260919 0.005460229 0.022747464 0.15754843
0.05384931 -0.077249624 -0.1973281 -0.090362534 0.06846326 0.12914202 -0.00727496 -0.12502225
-0.014135836 0.19992866 0.07312313 0.011605782 -0.12309331 0.06510935 0.04237084 -0.020075528
0.122628 0.05801522 -0.013838811 0.008674638 -0.12202817 -0.06999916 0.09176975 -0.099727124
0.046117965 -0.0024737194 0.18352288 -0.022311833 0.03595083 -0.010072625 0.036644712 -0.24759391
-0.12727208 0.07540229 -0.016008437 -0.020403316 0.05555601 0.047556054 -0.09515413 0.07878307
0.044012837 0.07056792 0.025179274 0.02252994 -0.024593426 0.01253003 -0.07716645 -0.040988524
0.032726046 0.003096997 0.1264152 0.002284874 -0.033456765 0.012070017 0.1669345 0.093307525
-0.08717381 -0.13580978 0.20069955 0.13025892 -0.12862031 0.088754505 0.11046223 -0.04231189
0.0083505465 0.091862805 0.08453024 0.04346177 0.015278719 -0.10809033 0.082932115 -0.054091956
-0.123534106 -0.025753705 -0.04369944 -0.058883157 -0.018608991 0.20271471 0.08683275 -0.07166313
0.03652124 -0.14499414 0.15791056 0.00072505587 -0.045063578 -0.028803535 0.17497729 -0.07046295
-0.023738243 -0.09161334 0.002489587 0.01062818 -0.0060023307 -0.07634872 0.13638751 -0.12386929
00000000: db68 21bd 518e e7bc dcca 1bbe a435 2ebd
00000010: 589e b2bc d092 2f3e e83f 0e3d df68 053e
00000020: e588 e93c bb7d da3c 16a9 c73d 1a56 8b3d
00000030: 05d5 d2bd fe62 843c f97a c0bd ea53 babc
00000040: 96bc 5fbc 5868 eabd 1c1e 11be 4773 54be
00000050: dbe0 d23d 6af0 6cbd b64c d5bd c22e 86bd
00000060: 3860 82bd 0ca3 d93d e870 a2bc e4ae 2fbd
00000070: 5fbb 233d b0a6 f2bc 2a59 063d 6afe 183d
00000080: 1426 b3bd 8fc9 1d3d 6022 d6bd eea9 6bbd
00000090: 0375 653d af80 bb3d 07a0 f23d 467d dabd
000000a0: 4ea0 a33d b7e1 84bd e3a6 08be 1928 083d
000000b0: 96f9 a63b bc98 9dbd f7df 8e3b 326c 6f3d
000000c0: c501 d4bd cd45 01bd 7ac0 b23d 1128 063d
000000d0: b083 1ebe 20f8 64be b208 4e3d 5a9d 4bbc
000000e0: e07c 90bd 6672 aabd f222 84bd 8959 a53c
000000f0: 4c8e 3ebe 5f14 0cbe 75a7 72bb 3321 41bd
00000100: 5425 223c 12f2 a33d a8ce 993d 428a a3bc
00000110: 3d00 a83d 9085 3abe d9c9 6cbd ecb7 12bb
00000120: c8bb 09bd 2879 d2bd 4050 55bd f1d6 0e3d
00000130: 1873 fc3c b714 84bd e8eb 9c3c f56e fe3d
00000140: d596 ed3d ceff f23b e315 2abd 05cf 81bd
00000150: 958c a43d 073e 00bc 0ba6 d9bc c979 30bc
00000160: 7fd1 87bd 9109 1a3e e09a 883d 7fc1 5d3d
00000170: e3a0 e73c 8560 9d3d fa58 2a3d c5ab 90bd
00000180: 7d8e bf3c 03cc ce3d d7f5 c63c a05a 49be
00000190: f3dd 033e 8beb e3bd be0d 20bd 621f 07bd
000001a0: 559d 543b cef7 5abd 57e9 593e e508 723c
000001b0: 4b7b 39bc 5932 ecbc 1cf7 fd3d d3d1 a23d
000001c0: 3966 4bbd 9894 83bd 7b86 6dbd 64d7 053e
000001d0: 53a7 a7bb 1ca8 b63c fb96 d23c 297a 023d
000001e0: 4a08 6ebd 69b1 41bd ee41 0cbe d592 46bd
000001f0: d8fb d2bd 7adb 0a3d 6f05 eb3c 33a4 0cbc
00000200: dafb ee3c 6295 23be 4cdf 48be ec56 163d
00000210: 443b a43d fa86 c43d 2c78 40be 08b3 debd
00000220: 6aac 03bc 30b0 50ba 3f65 97bd 79f6 8ebd
00000230: 410b 493e b617 0cbe 0c77 41bd 3d2b 333d
00000240: e41e 033e 8e68 7fbd 1fdc b83d 326b ac3d
00000250: 3b5d adbd bfa0 62bc 2006 86bd 1256 0a3d
00000260: 09d2 c13d e7a9 ffbc 7a66 7c3d cf4f 583e
00000270: baa3 6d3b b8eb b23b e458 ba3c 6054 213e
00000280: 1891 5c3d 0d35 9ebd 6110 4abe fe0f b9bd
00000290: 7736 8c3d ce3d 043e ca62 eebb d505 00be
000002a0: fe99 67bc 19ba 4c3e 94c1 953d 2e26 3e3c
000002b0: 5818 fcbd 0d58 853d 0c8d 2d3d 6f75 a4bc
000002c0: 6424 fb3d 5ea1 6d3d 2ebc 62bc 1220 0e3c
000002d0: e8e9 f9bd b85b 8fbd c7f1 bb3d bc3d ccbd
000002e0: 31e6 3c3d 201e 22bb 6ced 3b3e 4ec7 b6bc
000002f0: 2d41 133d a707 25bc c418 163d 4289 7dbe
00000300: 9d53 02be 846c 9a3d 2024 83bc db24 a7bc
00000310: b38e 633d 23ca 423d 2be0 c2bd 0559 a13d
00000320: ce46 343d ea85 903d c444 ce3c b590 b83c
00000330: 2778 c9bc c14a 4d3c 7209 9ebd 95e3 27bd
00000340: bf0b 063d fdf6 4a3b fc72 013e d3bd 153b
00000350: f609 09bd 52c1 453c e1f0 2a3e 0418 bf3d
00000360: 2f88 b2bd b811 0bbe 2f84 4d3e 9862 053e
00000370: 0bb5 03be ecc4 b53d 063a e23d 3b4f 2dbd
00000380: bbd0 083c 9122 bc3d 311e ad3d f804 323d
00000390: 9853 7a3c 775e ddbd 50d8 a93d 878f 5dbd
000003a0: 73ff fcbd 6ff9 d2bc 2ffe 32bd 772f 71bd
000003b0: e271 98bc 7294 4f3e 5ed5 b13d 1ec4 92bd
000003c0: 4c97 153d 5879 14be 4eb3 213e ad11 3e3a
000003d0: 9694 38bd 64f5 ebbc 3f2d 333e e14e 90bd
000003e0: b476 c2bc c69f bbbd 5728 233b d121 2e3c
000003f0: 33af c4bb b85c 9cbd 2ba9 0b3e 2faf fdbd
