results/newOne/War Behaviour/War Behaviour-160101.onnx (onnx, 71258 bytes, 6 tensors)

action_model._discrete_distribution.branches.0.bias f4 [2]
0	0x387388c2	5.806308e-05
1	0xb8738aba	-5.8064914e-05

action_model._discrete_distribution.branches.0.weight f4 [2, 128]
0	0xbb8e477e	-0.0043420186
1	0x39d8afbc	0.00041329663
2	0xbc38be7c	-0.011275884
3	0x3b8a02d9	0.0042117652
4	0x3beea6fa	0.0072830888
5	0x3c41aba8	0.011820711
6	0x3b5d668f	0.0033783054
7	0xbc718da5	-0.014743243
8	0x3ad5ca62	0.0016310925
9	0x3c76b776	0.015058389
10	0x3a091a28	0.0005230033
11	0x3bc8aee1	0.006124363
12	0xbc0251ef	-0.007954105
13	0x397f9576	0.00024374374
14	0x3a903d18	0.0011004535
15	0x3b76011e	0.0037537287
16	0x3b1869dc	0.0023256456
17	0xbc145d8a	-0.009055505
18	0xbbb281ae	-0.005447588
19	0x3c86bf02	0.016448501
20	0xbc1ffa24	-0.009764228
21	0x3c83cfa4	0.016090222
22	0xbb98ba7b	-0.004660902
23	0xbab7d0cf	-0.0014024022
24	0x3ba3fc68	0.0050044544
25	0xbbae9f1f	-0.0053290273
26	0xbbec7f23	-0.0072173043
27	0x3a01a6d4	0.0004945819
28	0xbaf06308	-0.001834006
29	0x3b940401	0.004517079
30	0xbb339305	-0.0027400863
31	0xbb900169	-0.0043946994
32	0x3c3e2236	0.011604836
33	0x3b070e37	0.0020607838
34	0xbc948938	-0.018131837
35	0xbb6b1388	-0.0035869796
36	0xbb9ef48e	-0.0048509305
37	0x3c0fdab1	0.008780167
38	0x3c295a4b	0.010336469
39	0xbc108af0	-0.008822188
40	0x3bac73f3	0.0052628457
41	0xbb829856	-0.003985445
42	0x3c4f72ee	0.012661679
43	0xbb498b28	-0.003075311
44	0x3c22c948	0.0099356845
45	0xbb1f7a8a	-0.0024334514
46	0x3c391d49	0.011298486
47	0x3bb2a09a	0.005451274
48	0xb99654e3	-0.00028673475
49	0xbbc9fc6f	-0.0061641256
50	0x3c3db422	0.011578592
51	0xbc1e192a	-0.009649554
52	0xbbf5dee3	-0.007503377
53	0x3c19ef01	0.009395362
54	0x3b1c4821	0.0023846703
55	0xbc591910	-0.013250604
56	0xba84967e	-0.0010115651
57	0x3c598dc5	0.013278429
58	0x3c6aad08	0.01432348
59	0x3c2282e6	0.009918904
60	0x3bc2bade	0.0059426865
61	0xbc4af3b3	-0.012387204
62	0x3c0f25e1	0.008737058
63	0xbc29323b	-0.010326917
64	0x3bd21868	0.006411601
65	0xbc5f6bfc	-0.013636585
66	0x3c8ca94e	0.017170575
67	0x398194ba	0.00024715607
68	0xbc65a6a9	-0.014016786
69	0xbc803aa3	-0.01565296
70	0x3b11fda0	0.0022276416
71	0x3b6ae695	0.0035843004
72	0x3b8fdd2d	0.00439038
73	0x3c048e66	0.008090591
74	0x3b515b04	0.0031945119
75	0xbbef7537	-0.0073076743
76	0x3c2c151d	0.010503081
77	0x3908aef6	0.00013035149
78	0x3b554208	0.0032540578
79	0x3bdb8532	0.0066992277
80	0x3ae7c25b	0.0017681824
81	0x3ba8617d	0.0051385746
82	0xbb47873c	-0.0030445596
83	0xbc2918df	-0.010320871
84	0x3c34faa9	0.01104609
85	0xbc8bb2ca	-0.017053027
86	0xbb66be1c	-0.003520853
87	0xbba00ef2	-0.004884594
88	0xbb9e14f7	-0.0048242765
89	0xbc31fc73	-0.010863411
90	0x3c141e00	0.009040356
91	0x3d03b7cd	0.032157708
92	0xbb1a269a	-0.0023521543
93	0x3ab08566	0.001346749
94	0xbbd622bf	-0.006534904
95	0x3c2b811b	0.010467793
96	0xbc9d6286	-0.019212019
97	0xbb59c9bc	-0.0033231815
98	0x3c2ef96c	0.010679584
99	0x3a0a37f1	0.0005272618
100	0x3b30e61e	0.002699263
101	0xbc58f90b	-0.01324297
102	0x3a93e509	0.0011283468
103	0xbb045602	-0.0020192866
104	0x3c8c8a7f	0.017155884
105	0xb93329df	-0.00017086368
106	0xb55749c0	-8.020106e-07
107	0x3b5a405b	0.003330252
108	0xbc80e232	-0.015732858
109	0x3bf9228a	0.0076029943
110	0xbcbf20f7	-0.023331149
111	0x3c4847d5	0.012224157
112	0x3c78337c	0.015148994
113	0xbbe88732	-0.0070961947
114	0x3c2e303e	0.010631619
115	0xb864b120	-5.4524397e-05
116	0x3c11e12e	0.008903785
117	0xbc76788e	-0.015043391
118	0x3b422978	0.0029626768
119	0x3b653448	0.003497379
120	0xbbaeb254	-0.005331317
121	0xbb22df41	-0.0024852308
122	0x3b8ffe42	0.0043943236
123	0x3c3b0e4b	0.011416982
124	0xbc63c057	-0.013900838
125	0xba905fc7	-0.0011014872
126	0x3c234c6f	0.009966954
127	0xbbeb8bad	-0.0071882815
128	0x3b899960	0.004199192
129	0x3b91d5d2	0.004450538
130	0x3c5f9777	0.013646952
131	0x3aac2eac	0.0013136468
132	0x3b9eaeea	0.0048426287
133	0x39fbdb64	0.0004803791
134	0x3c76c494	0.015061516
135	0x3c2db3f7	0.010601989
136	0xb7f88ad6	-2.9628554e-05
137	0xbc95b240	-0.018273473
138	0xbb176da7	-0.002310613
139	0x3bf48716	0.0074623926
140	0xbb9a842e	-0.004715464
141	0xbb95d9e0	-0.004573092
142	0xbcd57f7d	-0.026061768
143	0xbc90cc71	-0.01767561
144	0xbbbd6276	-0.0057795597
145	0x3c6fda88	0.014639504
146	0x3c82575e	0.0159108
147	0x3b8d15ee	0.0043055927
148	0x3b155061	0.0022783505
149	0x3b34bff0	0.0027580224
150	0x3ba14a73	0.004922205
151	0xba0b0dc0	-0.0005304478
152	0x3b7aed9f	0.0038288606
153	0xba8299f9	-0.00099641
154	0xbc58c309	-0.013230094
155	0x3b97c5c2	0.004631729
156	0xbbdc5909	-0.006724481
157	0xbbc46e84	-0.00599462
158	0x3c2480fb	0.010040517
159	0xbcfb2bfb	-0.03066062
160	0x3c3cf99e	0.011534123
161	0x3c4ea8c5	0.01261348
162	0xbc7cbee5	-0.015426372
163	0x3c15d88b	0.009145866
164	0x3a28d9c3	0.00064411404
165	0xbb3c983e	-0.0028777267
166	0x3bfba0c3	0.0076790764
167	0x3b676952	0.0035310579
168	0x3aa7ba3c	0.0012796591
169	0xbba718b9	-0.0050993827
170	0x3b885f46	0.004161748
171	0xbc0cbbdb	-0.00858971
172	0x3c9f1467	0.019418908
173	0xbc42df9f	-0.011894136
174	0x39b7e7ad	0.00035077092
175	0xbc45475b	-0.012040938
176	0x3c4e2da3	0.012584123
177	0xbc04c3d0	-0.008103326
178	0x3c1208ef	0.008913263
179	0x3bf95af1	0.007609718
180	0x3bc597f1	0.0060300757
181	0xbaa72aea	-0.0012753878
182	0x3b922f4a	0.0044612037
183	0x3b9e40af	0.004829488
184	0xbb3b142e	-0.0028545964
185	0xba4c7191	-0.0007798905
186	0x3b074d10	0.0020645298
187	0xbadbdfed	-0.0016775109
188	0x38e31d01	0.00010829606
189	0xbc32f9e0	-0.010923833
190	0x3bc1f89d	0.0059195296
191	0x3b88614b	0.004161989
192	0xbc8fd068	-0.01755543
193	0xbc3ed585	-0.011647587
194	0xbb80c004	-0.00392914
195	0x3c3abd29	0.011397638
196	0xbb3910eb	-0.0028238844
197	0xbc7327c5	-0.014841025
198	0x3b66d83c	0.00352241
199	0x3c4b987e	0.012426494
200	0x3a198569	0.00058563665
201	0xbb2910b6	-0.0025797314
202	0xbc0c973b	-0.008580978
203	0xbbe12a17	-0.0068714726
204	0xbc4b7638	-0.012418322
205	0x3c08153d	0.008305845
206	0x3a767c88	0.0009402712
207	0x3b0963f1	0.002096411
208	0xbb95a6c2	-0.004566998
209	0xbbc38c7f	-0.005967676
210	0x3c0e8c78	0.008700483
211	0x3b492e52	0.0030697775
212	0xbb023951	-0.001987059
213	0xbbead338	-0.0071662925
214	0xbb6109e3	-0.0034338168
215	0xbbd87117	-0.0066052782
216	0xbbc83195	-0.0061094263
217	0xbc0352f9	-0.008015388
218	0x3c26041b	0.010132815
219	0xbc510fcb	-0.012760113
220	0x3bf3525b	0.007425589
221	0x39ff935d	0.00048747184
222	0x36fba9a4	7.5001317e-06
223	0x3be7b255	0.0070708194
224	0xbc651e23	-0.013984236
225	0xbc7ef4f2	-0.015561329
226	0xbbee282f	-0.007267974
227	0x3cb2dff1	0.0218353
228	0x3b91ac90	0.00444562
229	0x3bac0476	0.005249555
230	0x3b8ed7af	0.0043592076
231	0x3c10c142	0.008835139
232	0xbc30ff8e	-0.0108031165
233	0xbc477cda	-0.012175763
234	0xbc3a23ab	-0.011361043
235	0xbb8ce1ae	-0.004299364
236	0x3c0922b6	0.008370092
237	0xbc03526c	-0.008015256
238	0x3ab0926a	0.0013471369
239	0xbb531593	-0.0032208904
240	0xbbe86609	-0.0070922417
241	0x3c4a3754	0.012342293
242	0x3ab10a40	0.0013507083
243	0xbbaeb913	-0.005332121
244	0x3bffe7c5	0.0078096115
245	0x3c389b6d	0.011267525
246	0x3ad7e0ed	0.0016470231
247	0x3c5358b8	0.01289957
248	0x3c6bc256	0.014389595
249	0x3c6fd5c5	0.014638369
250	0x3abf783a	0.0014607974
251	0xbbcc4d06	-0.006234768
252	0xbc4eb60c	-0.012616646
253	0x3ba8b5c6	0.005148622
254	0xbc0fe2c7	-0.008782095
255	0xbc11c35b	-0.008896674

network_body._body_endoder.seq_layers.0.bias f4 [128]
0	0xbb720f88	-0.0036935527
1	0xb96f118b	-0.00022799351
2	0xbb0bf8af	-0.0021357944
3	0xbbb0ddba	-0.0053975256
4	0x3aaa6640	0.0013000444
5	0xba445e45	-0.0007490854
6	0xbac1d214	-0.001478734
7	0x3a7173f5	0.00092106994
8	0x3b9ef4c6	0.0048509566
9	0xbb547ae7	-0.0032421888
10	0xbb9db16f	-0.0048124115
11	0xbb84273e	-0.0040329983
12	0x3b855157	0.0040685344
13	0x3a51230a	0.00079779385
14	0xbc693c85	-0.01423562
15	0x3afbed6b	0.0019220536
16	0xbc394533	-0.011308002
17	0x3b8ac073	0.0042343675
18	0xbbce2db2	-0.0062920684
19	0xbbb72408	-0.005589012
20	0x3ba9e916	0.0051852567
21	0xbb3376c4	-0.0027384022
22	0x389bf452	7.436484e-05
23	0x3acbc32f	0.001554584
24	0x3c23fbf4	0.010008801
25	0xbb9fd259	-0.0048773703
26	0xbada176b	-0.0016639059
27	0x3accfc0d	0.0015639082
28	0xbc174837	-0.009233526
29	0xbbd46e63	-0.0064828857
30	0xbb776dc3	-0.0037754632
31	0x395dc766	0.00021150484
32	0x3a1fd34e	0.00060968555
33	0xb9ca805e	-0.00038624083
34	0xbb4e4fa6	-0.003148058
35	0x3b853835	0.0040655383
36	0xbbd54100	-0.0065079927
37	0xbc16dc5e	-0.009207813
38	0x3a94dde0	0.0011357628
39	0xbb3a9af2	-0.0028473702
40	0xbad43eeb	-0.0016193067
41	0xbb05ceaf	-0.0020417382
42	0x3b354dc3	0.0027664758
43	0xbae8c8fa	-0.0017760091
44	0x39e2be02	0.00043247646
45	0xbbb7ebb8	-0.0056128167
46	0x3b846b94	0.0040411446
47	0xbbf42dcc	-0.0074517485
48	0xbaf02f03	-0.0018324557
49	0x3b778b3c	0.00377722
50	0xbb81e13e	-0.0039636185
51	0xba892cb2	-0.0010465591
52	0xbb2c899f	-0.0026327146
53	0xbbff5eb3	-0.0077932714
54	0xbaec9035	-0.0018048348
55	0xbb622910	-0.0034509338
56	0xbad61624	-0.0016333503
57	0x39a2dd06	0.00031063723
58	0xbbc97a60	-0.0061486214
59	0xbb5d4291	-0.00337616
60	0xbc060094	-0.008178849
61	0xbba955e0	-0.005167708
62	0xbb1dadbf	-0.002405986
63	0xbb09eb7f	-0.0021044908
64	0x3b73e1bf	0.0037213413
65	0xba0ae18e	-0.00052978925
66	0xbc21c067	-0.009872532
67	0xbb8f323c	-0.004370002
68	0xb9a4f5ec	-0.00031463744
69	0xbbeb2212	-0.0071756924
70	0xbbccf96b	-0.006255319
71	0xbb318f2d	-0.0027093396
72	0x3b28b0e0	0.0025740191
73	0xbc64ffd8	-0.0139770135
74	0xbb88e896	-0.004178117
75	0x3bc35375	0.0059608766
76	0xbacc6789	-0.0015594821
77	0xb9a116db	-0.00030725342
78	0x3a718507	0.0009213243
79	0x3b326ef3	0.0027226775
80	0x3b321cfc	0.002717792
81	0xba346f66	-0.0006883055
82	0xbcbc2d9e	-0.02297097
83	0xbb5e2c47	-0.0033900903
84	0xbb5d26d3	-0.0033745065
85	0x3b5aa560	0.0033362731
86	0xbb03289d	-0.002001322
87	0xba9a0604	-0.001175106
88	0xbb51e4fd	-0.0032027357
89	0xbb48bbbb	-0.0030629474
90	0x3b88d186	0.0041753678
91	0xbb9a9a87	-0.004718128
92	0x3b679c2c	0.0035340888
93	0xb9f3639f	-0.00046422795
94	0xbac2a5b5	-0.001485041
95	0x3a60b335	0.0008571626
96	0x3a84225f	0.0010081044
97	0xba9223da	-0.0011149601
98	0xb95bc8e7	-0.0002096031
99	0xbbd88255	-0.0066073337
100	0xbb898b9e	-0.004197552
101	0xbbd4f51c	-0.006498946
102	0xbb61fccb	-0.0034482952
103	0xbb8d9784	-0.0043210406
104	0x3c23ed9e	0.010005383
105	0xbb05418b	-0.0020333256
106	0xbb97645f	-0.0046201195
107	0xbb6a97ce	-0.003579605
108	0xbc568ee7	-0.013095594
109	0xbaf304ea	-0.0018540893
110	0xbc1815cd	-0.009282541
111	0xbb2427a1	-0.0025048035
112	0xbb453701	-0.00300926
113	0x3af0cbe6	0.0018371313
114	0x3b43ef18	0.002989715
115	0x3ae82fe4	0.0017714468
116	0x39ca9eed	0.0003864685
117	0x3b93c744	0.0045098383
118	0xb9c09505	-0.00036732122
119	0xba7dd685	-0.000968315
120	0x3a65e7b5	0.0008770184
121	0x3ab23a2a	0.0013597657
122	0x3ba01b5e	0.004886075
123	0xbb968271	-0.0045931865
124	0xbb1a0360	-0.0023500547
125	0x3aeafbd3	0.0017927833
126	0xbaf0c93f	-0.0018370523
127	0xbb83a2ab	-0.0040171943

network_body._body_endoder.seq_layers.0.weight f4 [128, 3]
0	0x3f2f2360	0.6841335
1	0xbcc6f48b	-0.024286529
2	0xbebf9bf2	-0.37423664
3	0xbe265a23	-0.16245322
4	0x3effd5c5	0.4996778
5	0xbeb8c5f3	-0.36088523
6	0xbf1f3df7	-0.62203926
7	0xbeb0a478	-0.3450048
8	0x3e39dc30	0.18150401
9	0xbf41af31	-0.75657946
10	0x3ee71d5e	0.45139593
11	0x3f314687	0.6924824
12	0x3e048d7c	0.12944597
13	0x3cdfdf6e	0.02732822
14	0x3e2badb7	0.16765486
15	0xbeb7b827	-0.35882685
16	0x3f1228d1	0.5709353
17	0xbda182bd	-0.078862645
18	0x3d62f79b	0.055411916
19	0xbe830873	-0.25592384
20	0x3eea2ce5	0.45737377
21	0x3eaa1bcf	0.3322434
22	0xbccd24e4	-0.025042005
23	0x3d81540d	0.063148595
24	0x3eb28443	0.34866533
25	0xbe6f3909	-0.23361601
26	0x3e1c6be3	0.1527553
27	0x3e0d82c6	0.13819417
28	0x3cb46534	0.022020914
29	0xbf2b0cf1	-0.6681662
30	0x3d642acf	0.055704888
31	0xbee2effd	-0.44323722
32	0x3e62a5ef	0.22133611
33	0x3e341ed3	0.17589884
34	0x3efc8ad3	0.49324664
35	0xbf31d688	-0.69467974
36	0x3d95aa10	0.073078275
37	0x3e21778e	0.15768263
38	0x3e245c6f	0.16050886
39	0xbf97f03a	-1.1870186
40	0xbd50ee53	-0.051008534
41	0x3f97c9d1	1.1858464
42	0xbf33b39b	-0.7019593
43	0x3eb12544	0.34598744
44	0x3e3344ed	0.17506762
45	0x3efbe749	0.49199894
46	0xbeadc657	-0.33940384
47	0x3f13bf43	0.5771372
48	0x3f4a87cd	0.79113466
49	0x3f0afb48	0.54289675
50	0x3e176fa6	0.14788684
51	0x3eeef8c2	0.46674162
52	0xbec357bf	-0.38152882
53	0x3f92341f	1.1422156
54	0x3edc1b5c	0.42989624
55	0x3d20e859	0.039284084
56	0x3f0eea8b	0.55826634
57	0xbe47d60c	-0.19515246
58	0xbf45fa06	-0.7733463
59	0x3f919b28	1.1375475
60	0x3e4206ae	0.1894786
61	0xbe56ac7d	-0.20964237
62	0xbeeb936a	-0.46010906
63	0xbf2a52ed	-0.66532785
64	0x3dcab3c5	0.098975696
65	0x3eefe884	0.46857083
66	0xbf0db9dd	-0.5536173
67	0x3f38c071	0.7216864
68	0x3eb0ba41	0.345171
69	0x3dd96015	0.10614029
70	0x3f141366	0.578421
71	0xbd7746b5	-0.060370166
72	0xbf189b99	-0.59612423
73	0x3ec3d296	0.38246602
74	0x3d626c42	0.055279024
75	0xbdd457c4	-0.103683025
76	0x3ef979bd	0.4872569
77	0x3efce173	0.49390754
78	0x3e375923	0.17905097
79	0xbf1a667b	-0.6031262
80	0xbe70bc49	-0.23509325
81	0xbf0b7afb	-0.5448453
82	0x3f34b96b	0.70595425
83	0x3e62ee0b	0.22161119
84	0x3eb60668	0.35551763
85	0xbd9ce794	-0.076613575
86	0xbecb3510	-0.3968892
87	0x3f4c8ab3	0.7989914
88	0x3cc9a187	0.024613155
89	0x3e314945	0.17313106
90	0xbe2083c4	-0.15675265
91	0x3e9ea18f	0.30982634
92	0x3f67de12	0.9057323
93	0xbce65d6e	-0.028120723
94	0xbec28f43	-0.37999925
95	0xbe86dd07	-0.26340505
96	0xbf137ec5	-0.5761531
97	0x3d90d38a	0.07071598
98	0xbf8c39ab	-1.0955099
99	0xbe7c37e4	-0.24630696
100	0x3f2fd79a	0.68688357
101	0x3d409c12	0.04702384
102	0xbf458027	-0.7714867
103	0xbf825726	-1.0182846
104	0xbc992e25	-0.018698761
105	0xbf621840	-0.8831825
106	0x3f612721	0.8795033
107	0xbf1ed2d6	-0.6204046
108	0x3fa75041	1.3071367
109	0xbe54d890	-0.20785737
110	0xbf727b15	-0.9471906
111	0xbed302de	-0.41213125
112	0xbf6123b6	-0.87945116
113	0x3e203116	0.15643725
114	0x3eb59e14	0.35472167
115	0xbdbcedcb	-0.09225043
116	0xbcf83a0b	-0.030301115
117	0x3e9c63ee	0.3054499
118	0x3db64740	0.089003086
119	0xbf916c4e	-1.1361177
120	0x3f06fb1c	0.5272691
121	0xbda4ca8d	-0.08046446
122	0x3f144f0a	0.57933104
123	0x3ee61912	0.44941002
124	0x3d7ffdf1	0.062498037
125	0x3ee1aaa4	0.440755
126	0xbf525521	-0.82161146
127	0xbf79ac35	-0.9752839
128	0x3ee52cf8	0.4476087
129	0x3eb0ae6f	0.34508082
130	0xbee404a0	-0.4453478
131	0xbece4a2c	-0.40290964
132	0xbeaa1633	-0.33220062
133	0x3c2057df	0.009786575
134	0x3ecf7b61	0.40523818
135	0xbd47acd4	-0.048748806
136	0xbe8a5f09	-0.2702563
137	0xbea3cf3a	-0.3199404
138	0xbec88a05	-0.391678
139	0x3e830af8	0.25594306
140	0xbc476550	-0.012170151
141	0xbf9c5296	-1.2212703
142	0xbef1db8a	-0.47237808
143	0x3d7935da	0.060842372
144	0xbf338042	-0.7011758
145	0x3f00621c	0.50149703
146	0x3fa14ce0	1.2601585
147	0xbecc58ac	-0.399114
148	0xbd825b93	-0.06365123
149	0x3e60d4e2	0.21956208
150	0x3ee9ed20	0.45688725
151	0x3f41ee7d	0.7575453
152	0xbf3d0b03	-0.7384493
153	0x3cb1fc6a	0.021726806
154	0x3f08e2f3	0.534713
155	0xbd5d9097	-0.05409297
156	0x3eb4444f	0.35208365
157	0xbda66ec5	-0.08126596
158	0x3c1fed29	0.009761133
159	0x3f76fefe	0.9648284
160	0x3f85add6	1.0443676
161	0x3f85c7ff	1.0451659
162	0x3f9669d7	1.175105
163	0x3cd860d7	0.026413364
164	0x3e6ef5bd	0.23335929
165	0xbe6285d9	-0.22121371
166	0x3de89827	0.11357146
167	0x3e4892e7	0.19587289
168	0x3eb99205	0.36244217
169	0xbe21e95d	-0.15811677
170	0x3eb85c22	0.36007792
171	0xbd0efb4f	-0.034907635
172	0xbf3bc496	-0.7334684
173	0x3f9f906e	1.2465951
174	0x3f4e18ec	0.8050678
175	0xbe28dbcc	-0.16490096
176	0xbe5787ae	-0.21047851
177	0x3eb7bf5f	0.35888192
178	0xbf0169bf	-0.5055198
179	0x3f6d091f	0.9259204
180	0xbd8899f2	-0.06669988
181	0xbf7abce0	-0.9794445
182	0x3effc69c	0.49956214
183	0x3e507b1e	0.20359465
184	0xbfbab7e7	-1.4587373
185	0x3ec55a2f	0.38545367
186	0x3f0625f4	0.5240166
187	0xbe77526f	-0.2415254
188	0xbe85e7bf	-0.2615337
189	0xbef609da	-0.4805439
190	0xbf00f073	-0.50366896
191	0xbf684bbf	-0.9074058
192	0x3ef705de	0.48246664
193	0xbefee480	-0.49783707
194	0x3f85b1af	1.044485
195	0xbe080135	-0.1328171
196	0x3e096c35	0.13420184
197	0x3e687434	0.22700578
198	0xbf2f8f50	-0.6857805
199	0x3ef54823	0.47906598
200	0xbe891402	-0.26773077
201	0x3ee0f3ec	0.43936098
202	0xbe88b27d	-0.26698676
203	0xbf2bc3d0	-0.6709566
204	0x3f6476cd	0.89243776
205	0xbedd4bfe	-0.4322204
206	0xbda11af8	-0.07866472
207	0x3eb5a366	0.35476226
208	0xbedb0ff7	-0.42785618
209	0x3e593f1b	0.21215479
210	0x3ea34f2f	0.3189635
211	0xbfc834fd	-1.5641171
212	0xbdf79d77	-0.12090581
213	0xbe776ab6	-0.241618
214	0xbf42cb82	-0.7609178
215	0xbf0ae3c6	-0.54253805
216	0x3ce90c1e	0.02844816
217	0xbf69fe8b	-0.91404027
218	0x3e48f4a4	0.19624573
219	0x3f86f6e6	1.0544097
220	0xbf222784	-0.63341546
221	0x3ed1144c	0.40835798
222	0xbf63e527	-0.89021534
223	0x3df90d9e	0.121608004
224	0xbeec4a22	-0.4615031
225	0xbefda680	-0.49541092
226	0x3e91a71f	0.28447816
227	0xbf1a04f8	-0.6016383
228	0x3f7ff25b	0.9997918
229	0xbf22a336	-0.6353029
230	0x3cfeb7ca	0.031093497
231	0x3e99f809	0.30072048
232	0xbf98d835	-1.1940981
233	0x3eef60b8	0.46753478
234	0x3ca4db46	0.020124089
235	0xbf0150cb	-0.50513905
236	0xbef610de	-0.48059744
237	0xbf00b566	-0.5027679
238	0xbd881ae0	-0.06645751
239	0xbf000767	-0.50011295
240	0xbf0b25b8	-0.5435443
241	0x3e98ed1b	0.29868397
242	0x3edff0ba	0.43738347
243	0xbeb5f14e	-0.35535663
244	0x3edf9dfb	0.43675217
245	0x3ee54caf	0.44785067
246	0x3f906c96	1.1283138
247	0x3dab4a11	0.083637364
248	0xbebee965	-0.3728744
249	0xbf33f669	-0.7029787
250	0x3df97163	0.1217983
251	0xbee8a4bc	-0.45438182
252	0xbb849b01	-0.004046798
253	0xbf42b8b5	-0.7606309
254	0x3f9243c7	1.1426934
255	0x3f82c2b1	1.0215665

network_body._body_endoder.seq_layers.2.bias f4 [128]
0	0xbb1531be	-0.0022765244
1	0xbb5de8d8	-0.003386071
2	0xbb2e25d5	-0.0026572843
3	0xbb9abf89	-0.00472254
4	0xbbda5286	-0.0066626696
5	0xbb37c332	-0.002803993
6	0xbb0d6293	-0.0021573647
7	0x3a2653fb	0.00063449115
8	0xbc022dad	-0.00794546
9	0xba9149e4	-0.0011084643
10	0xbb81e822	-0.00396444
11	0xbb90edea	-0.004422893
12	0xbaca6100	-0.0015440285
13	0xbc2ea971	-0.010660515
14	0xbab5abd5	-0.0013860414
15	0xbb52fd22	-0.0032194336
16	0xba9cfb57	-0.001197676
17	0xba5e17f1	-0.00084721955
18	0xbab32f78	-0.0013670763
19	0xba74896a	-0.00093283376
20	0xbba34f4f	-0.0049838196
21	0xbb1b201b	-0.002367026
22	0xbab1f2ea	-0.0013576422
23	0xbb8e5a63	-0.004344271
24	0xbc12743d	-0.008938846
25	0xba94c7aa	-0.0011351008
26	0xbc320fee	-0.010868056
27	0xb9b71874	-0.000349227
28	0xba9a55ca	-0.0011774835
29	0xbaa2fe6a	-0.001243544
30	0xb993f090	-0.00028217258
31	0xb9f64534	-0.00046972337
32	0xbb689060	-0.0035486445
33	0xbb03e1f2	-0.0020123688
34	0xbbe10320	-0.0068668276
35	0x3a606a14	0.0008560729
36	0xbbcb24ad	-0.0061994405
37	0xb98ba4e4	-0.00026635
38	0xbb690fe3	-0.0035562448
39	0xbba8a606	-0.0051467447
40	0xbb3783aa	-0.0028002062
41	0xbb957ec0	-0.004562229
42	0xbad9e8da	-0.0016625181
43	0xbb8d73b4	-0.0043167714
44	0xba647f10	-0.00087164436
45	0xbaea03fc	-0.0017853971
46	0xbb33144f	-0.0027325337
47	0xbaf9525b	-0.0019021736
48	0x3b22a76e	0.0024819034
49	0xbbc05348	-0.005869303
50	0xbb0021ce	-0.00195514
51	0xbac25904	-0.0014827554
52	0xb9f5770b	-0.00046818735
53	0xbb84fe07	-0.0040586027
54	0xbb77880f	-0.0037770306
55	0xbb0d867f	-0.0021595058
56	0xbbdba0c3	-0.006702514
57	0xbaab3343	-0.0013061542
58	0xb89ac430	-7.379835e-05
59	0xba7ba0d2	-0.0009598854
60	0xbbaad766	-0.005213666
61	0xbc4bd30f	-0.012440457
62	0xbb708e91	-0.003670607
63	0x3a22b809	0.0006207233
64	0x3bb768db	0.0055972165
65	0xbb1e6a3f	-0.0024172214
66	0x39432ede	0.00018614109
67	0xbaa0ddd4	-0.0012273141
68	0xb84e149f	-4.9133432e-05
69	0xbbff7fa9	-0.0077972007
70	0xbc45611d	-0.012047079
71	0xba4e8fec	-0.00078797224
72	0xbb463016	-0.0030241064
73	0xbb1e63f7	-0.002416847
74	0xba3e7796	-0.00072657445
75	0xbbde737c	-0.006788669
76	0x3b9cf366	0.0047897575
77	0x38b50360	8.631381e-05
78	0xbb3e78f8	-0.0029063802
79	0x3b1acff0	0.0023622476
80	0xbacae081	-0.0015478284
81	0xbb509414	-0.0031826543
82	0xba4b8b58	-0.0007764599
83	0xba234a16	-0.0006228996
84	0xbb67539a	-0.0035297633
85	0xb80d8e8b	-3.3749773e-05
86	0xbc0aad0f	-0.008464112
87	0xbb796e8d	-0.0038060278
88	0xbc3dcc84	-0.011584405
89	0xbbabb828	-0.005240459
90	0xbb8e49a0	-0.004342273
91	0xbbcbc4fa	-0.00621855
92	0x3a80cd64	0.0009826836
93	0xbbabdb7a	-0.0052446695
94	0xbba014a0	-0.004885271
95	0xbb8fd4a0	-0.0043893605
96	0xbae9f53a	-0.0017849572
97	0x3b74c3d1	0.003734816
98	0xbaf1feb6	-0.0018462751
99	0x3b6eb26d	0.0036422268
100	0xbb6ad02e	-0.0035829651
101	0xba727f2e	-0.00092505186
102	0xbbb280b5	-0.005447472
103	0xbb0b1c03	-0.0021226413
104	0x3a21d14f	0.0006172852
105	0xbb81da58	-0.003962796
106	0x3964e3a5	0.00021828579
107	0xbb5f4cfa	-0.0034072981
108	0x3bb9a9ac	0.0056659784
109	0xbadab714	-0.0016686642
110	0x3a73f037	0.0009305509
111	0x3b059966	0.0020385622
112	0xbabeeba3	-0.0014566075
113	0x3b869477	0.004107054
114	0xbba48f24	-0.0050219465
115	0xbb0d3c03	-0.0021550662
116	0xbbee4639	-0.007271555
117	0xbb1fe200	-0.002439618
118	0xbb12fcc4	-0.0022428492
119	0xbbaee276	-0.005337055
120	0x38e64d12	0.0001098161
121	0x3b177d5a	0.0023115487
122	0xbb27efee	-0.0025625187
123	0xbba6d002	-0.0050907144
124	0xbb962374	-0.004581863
125	0x3b838e0d	0.0040147365
126	0x3ad76ffd	0.0016436573
127	0xbb3f265c	-0.002916715

network_body._body_endoder.seq_layers.2.weight f4 [128, 128]
0	0x3e2da360	0.16956854
1	0xbe382cf3	-0.17985897
2	0xbd851d25	-0.064996995
3	0xbe0c9e27	-0.13732205
4	0xbc47741f	-0.0121736815
5	0xbd477481	-0.04869509
6	0x3c5598b2	0.013036894
7	0x3d2e495d	0.042550433
8	0x3cc19a50	0.023633152
9	0xbe63196f	-0.22177671
10	0xbe4edee2	-0.2020221
11	0x3e38f25f	0.18061207
12	0x3be66260	0.00703077
13	0xbd816b20	-0.063192606
14	0x3e11edb7	0.14250837
15	0x3dc8a673	0.09797373
16	0xbd643fa2	-0.055724747
17	0xbddb4600	-0.10706711
18	0x3c2971a7	0.010342038
19	0xbdd1a605	-0.10236744
20	0x3deff3bc	0.117164105
21	0x3dab138d	0.083533384
22	0x3cb8c9f9	0.022557246
23	0xbd3ae7a2	-0.04563106
24	0xbd8b23f5	-0.06793968
25	0xbc9d5363	-0.019204801
26	0xbd9014d9	-0.070352264
27	0xbc8507f8	-0.016239151
28	0xbd78017e	-0.060548298
29	0xbcbbedb5	-0.022940496
30	0xbd41eaa8	-0.047342926
31	0x3d65f6e7	0.056143668
32	0x3e2b705c	0.1674208
33	0x3cef119b	0.0291832
34	0xbb6f034c	-0.003647047
35	0x3d9bcc8a	0.07607372
36	0xbdc1cf3d	-0.09463356
37	0xbcd7fa3c	-0.026364438
38	0xbe0f2898	-0.13980329
39	0xbd442176	-0.047883473
40	0x3e64f034	0.22357255
41	0xbd6a86ec	-0.057257578
42	0x3b897df1	0.0041959216
43	0xbc17ce4f	-0.009265496
44	0xbcbc1b9e	-0.022962388
45	0x3d09f48d	0.033680487
46	0x3cdf5cb7	0.02726589
47	0xbdcd15d1	-0.10013927
48	0xbd8c3f3e	-0.06848
49	0x3e2cf740	0.16891193
50	0xbe22ab8d	-0.15885754
51	0x3d53b1db	0.051683288
52	0xbd2cfb45	-0.042231817
53	0xbde91231	-0.11380423
54	0xbd77f405	-0.06053545
55	0xbc147cad	-0.009062928
56	0xbb666ef3	-0.0035161346
57	0x3c5480b5	0.012970139
58	0xbd9ab561	-0.075541265
59	0x3dd72877	0.10505765
60	0xbd5d7664	-0.054067984
61	0x3c041ab3	0.008063006
62	0xbd1a0ae0	-0.037608027
63	0xbcef0f0e	-0.029181983
64	0xbd82d31a	-0.06387921
65	0xbd20b11c	-0.039231405
66	0x3ddaa2df	0.106755964
67	0xba8ed06b	-0.0010895854
68	0x3d3d8e06	0.046278022
69	0xbd721f95	-0.05911215
70	0xbbf4482c	-0.0074548926
71	0x3e5885d7	0.21144806
72	0xbdbb90c2	-0.0915847
73	0x3cbca293	0.02302674
74	0xbd6a7d10	-0.057248175
75	0x3e0c13c7	0.1367942
76	0x3da258e5	0.079271115
77	0xbe37a24e	-0.17933008
78	0xbd47aded	-0.048749853
79	0xbdfd2922	-0.12361361
80	0xbd8f5037	-0.06997722
81	0xbccc34e1	-0.024927558
82	0xbad8c721	-0.0016538837
83	0xbd9a94d1	-0.07547916
84	0xbc84cfae	-0.01621231
85	0x3e10eded	0.14153261
86	0xbd9deb97	-0.07710951
87	0xbc6f656a	-0.014611581
88	0x3bd0d733	0.00637331
89	0x3cdd488a	0.027012128
90	0x3dbabc7a	0.0911798
91	0x3c67203f	0.014106809
92	0xbc0093fe	-0.007847784
93	0xbb87d985	-0.0041458034
94	0x3d800d6b	0.06252559
95	0xbd956352	-0.072943345
96	0xbdcde815	-0.10054032
97	0xbd740c93	-0.059582304
98	0x3df6fa68	0.1205948
99	0xbe0ac8a4	-0.13553101
100	0xbe0d02d6	-0.13770613
101	0xbcb5207d	-0.022110218
102	0x3c5a433f	0.013321697
103	0xbcc29a8e	-0.023755338
104	0x3d90017a	0.07031532
105	0x3d0ca509	0.034337077
106	0xbc8b201c	-0.016983084
107	0x3c1274d1	0.008938984
108	0xbdebd426	-0.115150735
109	0x3cf7e2f8	0.030259594
110	0xbbf284af	-0.007401071
111	0x3c80d19b	0.015724948
112	0xbd6dd66d	-0.05806582
113	0xbd1c8c63	-0.03821982
114	0x3c4bbabd	0.012434659
115	0xbdb56dd5	-0.088588394
116	0x3c5245ba	0.012834007
117	0xbe24ee52	-0.16106537
118	0x3dadb6c5	0.08482126
119	0xbc4c5f1c	-0.012473848
120	0xbb6a1268	-0.0035716537
121	0x3977a60b	0.00023617611
122	0xbd911272	-0.07083596
123	0x3d34c063	0.044128787
124	0xbe07781a	-0.13229409
125	0x3e4241ea	0.18970457
126	0xbda986e3	-0.08277681
127	0xbb8e7fb6	-0.0043487204
128	0xbd869cfb	-0.065729104
129	0x3c72cc57	0.014819226
130	0x3b9e76ab	0.0048359237
131	0xbd3db2b8	-0.046313018
132	0x3d9fde0e	0.078060254
133	0x39927326	0.00027933082
134	0xbdda1271	-0.10648049
135	0xbd82e35c	-0.063910216
136	0xbe393103	-0.18085103
137	0xbd708529	-0.05872074
138	0xbd6fafda	-0.058517314
139	0xbcae65ab	-0.021288713
140	0xbe1056ca	-0.14095607
141	0xbd5dc7f1	-0.054145757
142	0x3ce18b62	0.027532283
143	0xbdd5d32f	-0.10440671
144	0xbdafc4c4	-0.08582452
145	0xbd1b7970	-0.03795761
146	0x3d8a8a19	0.06764621
147	0x3a9f43ce	0.0012150945
148	0xbd0d7ee7	-0.03454485
149	0xbd1dbc94	-0.03850992
150	0x3d6e57a6	0.058189057
151	0x3d87dfd0	0.06634486
152	0xbe0705c2	-0.1318579
153	0x3bfff4da	0.007811171
154	0xbb97059c	-0.004608823
155	0x3ca69ba8	0.020337895
156	0x3ccfabbd	0.025350446
157	0x3db5f3a7	0.088843636
158	0x3b0eff80	0.002181977
159	0xbc72ab02	-0.014811279
160	0x3c3b045d	0.0114146145
161	0xbc99cb67	-0.018773748
162	0x3e1c95da	0.15291539
163	0x3dcb7d14	0.09935966
164	0xbd133d0f	-0.035946902
165	0x3d4646a1	0.0484072
166	0x3dd5db49	0.10442216
167	0x3bb733e4	0.0055909026
168	0xbca4d986	-0.020123255
169	0x3e0b442a	0.13600221
170	0xbce56b71	-0.028005334
171	0x3e29b3f0	0.16572547
172	0x3daa8112	0.083253995
173	0x3dc994ca	0.098428324
174	0xbd957dfe	-0.07299422
175	0x3cbcc194	0.023041524
176	0xbcb6fdba	-0.022337783
177	0xbd68f5fd	-0.056875218
178	0xbdb53cf4	-0.088495165
179	0xbdcfa461	-0.10138775
180	0x3c6e14a2	0.014531286
181	0x3c98e4ce	0.01866379
182	0x3e04b53f	0.12959765
183	0xbdcab12b	-0.09897073
184	0xbe119e0a	-0.14220443
185	0x3db1c322	0.08679797
186	0xbb159210	-0.0022822656
187	0xbda4ab1e	-0.080404505
188	0xbd68d942	-0.05684782
189	0x3e085cfa	0.13316718
190	0xbd05857f	-0.032598015
191	0x3c943778	0.018092856
192	0x3d47b871	0.04875988
193	0x3d4ca64a	0.049963273
194	0xbc833154	-0.016014732
195	0x3ccd8b44	0.025090821
196	0xbd88df07	-0.06683164
197	0xbc9da474	-0.019243456
198	0x3b69d05e	0.0035677175
199	0x3d53ed9c	0.051740274
200	0xbd22498f	-0.039620932
201	0x3d13edb8	0.03611538
202	0x3de4f1c7	0.11178928
203	0xbd532a4c	-0.05155401
204	0x3d524448	0.05133465
205	0x3d10ae86	0.03532269
206	0x3d0cded5	0.034392197
207	0xbb52e3ea	-0.0032179304
208	0x3e0ffdd2	0.14061669
209	0xbdc5f470	-0.096657634
210	0x3e0090c1	0.12555219
211	0x3cffa5b0	0.031206936
212	0x3d93d882	0.0721903
213	0xbe3dc3da	-0.18531743
214	0xbd28dd45	-0.041226644
215	0x3da1c78b	0.07899388
216	0xbbd65b0f	-0.0065416167
217	0x3d57efb5	0.052718837
218	0x3d86670f	0.065626256
219	0x3d893d2d	0.067011215
220	0x3d310a10	0.043222487
221	0x3e3b1104	0.1826821
222	0xbdc2702f	-0.094940536
223	0xbd193e75	-0.03741308
224	0xbd95913f	-0.07303094
225	0x3d90c5d5	0.070689835
226	0xbd0fc2d0	-0.035097897
227	0xbcbc1533	-0.022959327
228	0x3e0f2aad	0.13981123
229	0x3d08727a	0.0333123
230	0x3d12df34	0.035857394
231	0xbcb123de	-0.021623548
232	0xbd2f1e4d	-0.042753506
233	0xbd49b8b0	-0.049248397
234	0xbd6aa139	-0.05728266
235	0x3ce4a225	0.027909348
236	0x3d013bd8	0.031551212
237	0x3d6b6b8f	0.057475623
238	0xbe0dc2e3	-0.13843875
239	0xbdc66615	-0.09687439
240	0x3e1b3193	0.1515563
241	0xbd0f6079	-0.035004113
242	0xbe166cef	-0.14689992
243	0x3db88f27	0.09011679
244	0xbd1f6a88	-0.038919955
245	0x3d9be9f4	0.076129824
246	0xbdbef427	-0.09323912
247	0xbc4da648	-0.012551852
248	0xbcb49e57	-0.022048159
249	0x3d25c162	0.040467627
250	0x3dc7e19f	0.09759831
251	0xbe43b943	-0.1911364
252	0x3e0669b3	0.13126259
253	0xbd234c5c	-0.039867744
254	0x3e87621f	0.26442048
255	0x3df96124	0.12176731
