results/newOne/War Behaviour/War Behaviour-2254.pt (torch, 145991 bytes, 11 tensors)

network_body._body_endoder.seq_layers.0.weight f4 [128, 3]
00000000: 2b15 033f 6474 24bf b80a dd3e da86 fbbe
00000010: e872 483e b52a 923f 54cd 25bc 2044 223f
00000020: 6d66 f23e 567a 19bc e19b e9bd 0411 893e
00000030: e455 853e fe5d 27bf 5437 49be e883 f6be
00000040: ec29 0ebf b0cb db3b 6f6c 863e b5c6 8bbe
00000050: 5097 0dbf 0578 b1be ccf0 53bf 2fed 1d3f
00000060: fe5d 523e 1ee9 7abf 97d5 ebbe 34e6 9cbe
00000070: 98ac 03be 4f5b c4be 4daf 5f3f 2a3f 653f
00000080: 400d fcbe 0130 c8bc 5bc1 353f af27 0e3f
00000090: a318 01bf a0cd 1c3f ddb7 fbbd bbda 6dbf
000000a0: b59d 93be dec4 413f 0b94 40bf f7f5 1d3e
000000b0: 20f2 093f 5e75 57bf c7a4 79bf 65ef 753e
000000c0: 1669 8dbf c459 be3f beb0 08bf ecbd 84bf
000000d0: afe4 053c 9976 f73d 45f7 063f 072d a6bf
000000e0: 764b af3e 7a87 3f3d 6e0d 39bf 2f15 60bf
000000f0: ff02 913e 9e74 5fbf f27d 943d ad54 1dbe
00000100: 9523 61bf c758 903f 40aa 783f b53f cfbd
00000110: c4f6 e0be 1d7a 553f 0462 d4bd 1aa2 ce3d
00000120: b4cc aabd 519f 553f 7373 fe3e ef29 ee3d
00000130: e2fe 6f3f e7ca b13e 48ed b2bd 3a82 c0be
00000140: 2321 053f c1f6 ab3d 7da3 853e 1b93 d13e
00000150: 2e67 6fbf d6fb 90bc 66f3 d93e 6ad7 51be
00000160: bd03 37be 9072 953e 0dcf ea3e fc23 57be
00000170: 1aba 49bf 87e3 783f 7121 2a3f 52f5 1e3f
00000180: acda ab3e 619d 94be 9b0e 71be 51bd ae3c
00000190: f95c 85be d8c6 3c3e 8e9d 803e e6c3 80be
000001a0: e5dc 923f 97b8 0ebe 382f e1bd 713f 713e
000001b0: 6aeb c4be 2ae7 e2bf 4522 79be c06f 9fbf
000001c0: 6735 1b3f 8577 0abc 5ee6 69bf 2b06 413f
000001d0: 768a febe 759e ec3e 7d5b d4bf 4b45 023f
000001e0: 61f8 4bbe 4c8a e33e 7671 b53e a37f 1abe
000001f0: f775 263f cfca edbe e4f7 92be 1dd4 553f
00000200: d5cd 023e 284b 62bd 6c5a 97bd 5ac6 83be
00000210: 2451 9a3e 375c 92bd 0ae2 85be e71a 9b3f
00000220: bf67 513e d63b cfbe e6ca c13d 49f0 693c
00000230: bb6a 99be 22d8 453f dad0 25bf 7237 a2bf
00000240: d5f6 263f bdf0 82bd 907b be3c 0685 dfbe
00000250: ea68 b43f ece9 94be 0c10 a23d 670d 24bf
00000260: db9a 3fbe 5eb2 18bd 7ae2 023e 1099 f0be
00000270: 92e5 50bf 1fef 50bf 7e68 5cbe 22eb 34bf
00000280: b5c4 32bf bcd0 80be d4ff 1d3f 2526 1bbe
00000290: ce43 b53e 0bab 51bf d931 673f e36c 97bf
000002a0: 2a85 3c3f 7a03 c1be 1e13 34bf 940d 213f
000002b0: d732 48bf a830 bebb 7a0a fbbe 593e 26bf
000002c0: 7fcb 16bf 81a5 00be 6f64 aebe 42f9 633e
000002d0: 786b 2abf 2c7c 6e3d c5c8 cd3e 018a 24bf
000002e0: 0172 02bf a634 cc3e 696a db3e 0059 af3e
000002f0: 062a 98be 5fcc d53e 7416 f53e 88e2 76bc
00000300: 83b0 08be 1c67 01bd bc8a 893d 6c64 1c3f
00000310: e126 5f3f 3f9c f53e c313 153f e056 c1bf
00000320: e677 973d ced4 b23d 8672 7abf 88d1 ed3e
00000330: d7e3 893e b71b 623e 890a 83bf ab27 583f
00000340: 576c 6d3e bda4 f53d 6a9f 153f 223e dfbe
00000350: 7e11 dd3e ce45 d1be 78db 763e ec08 73bf
00000360: 085d 873d fdf9 fd3e bf13 9e3d 43c8 c03e
00000370: dfb8 5c3e 469a 193e 1e68 13be 2266 753f
00000380: bd88 ab3e ec4c 523f 96f5 7b3f 9f96 64bf
00000390: be01 4abf adce 413f 23e1 8e3f 0655 18bf
000003a0: c088 58be 73fa 2b3e 2cc1 283e acf7 533f
000003b0: 57de b8be 45c6 12bd 35b5 40bf e151 f73d
000003c0: 69d0 d53e 1ada 7d3e f635 39bf 9605 6ebe
000003d0: 8c23 083e 2f1f e4bd 0330 f93e 16d7 103f
000003e0: 6961 7dbf 25c8 303e b347 d0be 4271 213f
000003f0: 9894 93be fdfb 67be 83c9 c83e af7f 663f
0.51204175 -0.642401 0.4317224 -0.4912632 0.19575083 1.1419283 -0.010119755 0.633852
0.4734377 -0.009367546 -0.11406685 0.26770794 0.26042092 -0.65377796 -0.19650012 -0.4814751
-0.5553272 0.006707631 0.26254603 -0.2730004 -0.5530901 -0.3466188 -0.827893 0.6169004
0.20543668 -0.9801196 -0.46061394 -0.3064438 -0.12858808 -0.38350913 0.8737686 0.89549506
-0.4922886 -0.024436953 0.7099816 0.555293 -0.5042822 0.6125126 -0.122909285 -0.9291188
-0.28831258 0.7569102 -0.75225896 0.1542586 0.5388508 -0.84163463 -0.97517055 0.24017103
-1.1047695 1.4871144 -0.5339469 -1.037046 0.008172198 0.120831676 0.52721053 -1.2982491
0.3423726 0.04676006 -0.7228612 -0.87532324 0.28322598 -0.8728732 0.07250585 -0.15364332
-0.8794492 1.1277093 0.9713478 -0.10119573 -0.43938267 0.83389455 -0.103702575 0.10089512
-0.08339825 0.8344622 0.49697456 0.11629092 0.93748295 0.34725115 -0.08736664 -0.37599355
0.5200369 0.08396674 0.26101294 0.40932545 -0.93516815 -0.01769821 0.4256851 -0.2049233
-0.1787252 0.29188967 0.45861092 -0.2100982 -0.78799593 0.9722218 0.6645728 0.6209308
0.3356527 -0.2902632 -0.23540728 0.021330507 -0.26047495 0.18435228 0.25120205 -0.2514946
1.1473662 -0.13937603 -0.109953344 0.23559357 -0.38460857 -1.7726796 -0.24329479 -1.2455978
0.6062836 -0.008451347 -0.9136714 0.75400037 -0.49715012 0.46214643 -1.659042 0.5088698
-0.19918968 0.4444145 0.35438126 -0.15087752 0.6502375 -0.46443793 -0.2870475 0.83526784
0.12773831 -0.055247456 -0.073902935 -0.25737268 0.3014003 -0.07146495 -0.26149017 1.2117585
0.20449732 -0.4047534 0.09462528 0.01427848 -0.2996424 0.7728292 -0.6477181 -1.267317
0.65220386 -0.063935734 0.023252279 -0.43656176 1.4094517 -0.29084718 0.07913217 -0.6408295
-0.18711416 -0.03727948 0.12781706 -0.46991777 -0.81600296 -0.8161487 -0.21524236 -0.70671284
-0.698314 -0.25159252 0.6171849 -0.1515127 0.35403293 -0.81901616 0.90310436 -1.1830105
0.7364069 -0.37697965 -0.7034167 0.62911344 -0.78202575 -0.00580414 -0.4903143 -0.64938885
-0.5890426 -0.12563135 -0.34061 0.22263053 -0.66570234 0.05822389 0.40192237 -0.6427308
-0.50955206 0.39883918 0.42854622 0.3424759 -0.2971956 0.41757485 0.47868693 -0.015068658
-0.13348584 -0.031592473 0.067159146 0.6109073 0.871687 0.4797077 0.5823328 -1.5104637
0.07395916 0.087319955 -0.97831 0.46448922 0.2693164 0.22080885 -1.023759 0.8443553
0.2318586 0.11994312 0.5844637 -0.4360209 0.43177408 -0.4087357 0.24107158 -0.9493549
0.06609541 0.49604788 0.0771861 0.37652788 0.21554898 0.15000257 -0.14395186 0.9585897
0.3350276 0.82148623 0.9842161 -0.8929233 -0.7890891 0.7570599 1.1162456 -0.59504735
-0.21145916 0.16794758 0.16479939 0.8279979 -0.36107132 -0.035833616 -0.752765 0.12076164
0.41760567 0.2479023 -0.7234796 -0.23244318 0.1329481 -0.1113876 0.48669443 0.56578195
-0.9897676 0.17263849 -0.40679702 0.6306344 -0.28824306 -0.2265472 0.3921624 0.9003858

network_body._body_endoder.seq_layers.0.bias f4 [128]
00000000: 0000 0000 0000 0000 0000 0000 0000 0000
00000010: 0000 0000 0000 0000 0000 0000 0000 0000
00000020: 0000 0000 0000 0000 0000 0000 0000 0000
00000030: 0000 0000 0000 0000 0000 0000 0000 0000
00000040: 0000 0000 0000 0000 0000 0000 0000 0000
00000050: 0000 0000 0000 0000 0000 0000 0000 0000
00000060: 0000 0000 0000 0000 0000 0000 0000 0000
00000070: 0000 0000 0000 0000 0000 0000 0000 0000
00000080: 0000 0000 0000 0000 0000 0000 0000 0000
00000090: 0000 0000 0000 0000 0000 0000 0000 0000
000000a0: 0000 0000 0000 0000 0000 0000 0000 0000
000000b0: 0000 0000 0000 0000 0000 0000 0000 0000
000000c0: 0000 0000 0000 0000 0000 0000 0000 0000
000000d0: 0000 0000 0000 0000 0000 0000 0000 0000
000000e0: 0000 0000 0000 0000 0000 0000 0000 0000
000000f0: 0000 0000 0000 0000 0000 0000 0000 0000
00000100: 0000 0000 0000 0000 0000 0000 0000 0000
00000110: 0000 0000 0000 0000 0000 0000 0000 0000
00000120: 0000 0000 0000 0000 0000 0000 0000 0000
00000130: 0000 0000 0000 0000 0000 0000 0000 0000
00000140: 0000 0000 0000 0000 0000 0000 0000 0000
00000150: 0000 0000 0000 0000 0000 0000 0000 0000
00000160: 0000 0000 0000 0000 0000 0000 0000 0000
00000170: 0000 0000 0000 0000 0000 0000 0000 0000
00000180: 0000 0000 0000 0000 0000 0000 0000 0000
00000190: 0000 0000 0000 0000 0000 0000 0000 0000
000001a0: 0000 0000 0000 0000 0000 0000 0000 0000
000001b0: 0000 0000 0000 0000 0000 0000 0000 0000
000001c0: 0000 0000 0000 0000 0000 0000 0000 0000
000001d0: 0000 0000 0000 0000 0000 0000 0000 0000
000001e0: 0000 0000 0000 0000 0000 0000 0000 0000
000001f0: 0000 0000 0000 0000 0000 0000 0000 0000
0.0 0.0 0.0 0.0 0.0 0.0 0.0 0.0
0.0 0.0 0.0 0.0 0.0 0.0 0.0 0.0
0.0 0.0 0.0 0.0 0.0 0.0 0.0 0.0
0.0 0.0 0.0 0.0 0.0 0.0 0.0 0.0
0.0 0.0 0.0 0.0 0.0 0.0 0.0 0.0
0.0 0.0 0.0 0.0 0.0 0.0 0.0 0.0
0.0 0.0 0.0 0.0 0.0 0.0 0.0 0.0
0.0 0.0 0.0 0.0 0.0 0.0 0.0 0.0
0.0 0.0 0.0 0.0 0.0 0.0 0.0 0.0
0.0 0.0 0.0 0.0 0.0 0.0 0.0 0.0
0.0 0.0 0.0 0.0 0.0 0.0 0.0 0.0
0.0 0.0 0.0 0.0 0.0 0.0 0.0 0.0
0.0 0.0 0.0 0.0 0.0 0.0 0.0 0.0
0.0 0.0 0.0 0.0 0.0 0.0 0.0 0.0
0.0 0.0 0.0 0.0 0.0 0.0 0.0 0.0
0.0 0.0 0.0 0.0 0.0 0.0 0.0 0.0

network_body._body_endoder.seq_layers.2.weight f4 [128, 128]
00000000: 50e5 a8bc 73d2 1b3d 824c 7ebd 6523 783e
00000010: 82dc 4bbd 5241 e73d e13a 5fbd c870 ad3d
00000020: dbe0 0abe 635c efbd 8dd0 e03a 8e8a 173c
00000030: d29b 6f3d 69ba 6f3d 3c02 7dbb 8f8d 223d
00000040: 939e a03b bce7 51bc 3c3f a33d d4e0 b33d
00000050: 56d9 3abc 5ead 423d 8c9d 9ebd 3482 61bd
00000060: 6cc9 bbbd 2ac9 42bd 44a7 013e cb83 9d3d
00000070: f6d2 4cbe fba4 46be 5dc3 06be a86c 8e3c
00000080: 3244 0abd e25d 8e3c 1d4a b63b ac04 83bd
00000090: 0125 29be 4621 9e3d 20ab ac3d dfb3 7b3c
000000a0: 3a5f f23d 1d61 66bb 565b d7bd 4319 153d
000000b0: 252b bcbd 22b8 723d 9992 763c 02d6 153e
000000c0: 8571 3cbb 777a 9f3d e304 673c 0303 29be
000000d0: c746 1b3c b707 eabb 8965 f1bd f50a 1bbd
000000e0: 1590 98bd 7051 c73d e323 85bc 1e64 f1bc
000000f0: 310e 713d e1d2 5f3d 317b b3bc 649e a43c
00000100: b4b8 9b3e e29e cf3d 8924 303e c6f8 6bbe
00000110: e495 803d 61d5 1cbd b72b 5fbd af4a 2cbd
00000120: 497d 013c 477c 1f3e 7b07 673d fcc0 33be
00000130: fec2 513e 1e0a 87bc 84c2 0d3d ba46 c83d
00000140: 841b cdbd 3191 8f3c 7140 8cbc b19e f3bc
00000150: 739e 8d3d 91ea 6fbe 721f 563d 4487 23bd
00000160: 855e d93d 3a26 fd3c 42a4 1b3e de71 62bd
00000170: 8547 103e 8907 88bb cd8f b8bd db45 9dbd
00000180: aeb4 ae3a c40c 9ebd aef9 193d e40a c5bc
00000190: f93a 973c be3a 133e 3a4c 07bd ed72 863d
000001a0: 4a0d 023d 0127 ef3d fb3c 8bbd 4d44 8bbc
000001b0: bfd0 29be a6e8 923c 085d 773d c551 1e3d
000001c0: 88a0 1fbe 8d12 083d bbcd 14bd 96af b13c
000001d0: f328 ecbb 9b35 903d 82e7 b13c 4f25 41be
000001e0: 485f e03c 84cb 6abd 2647 96bc 1d8e 43bd
000001f0: fc5c 1a3e 7972 0abe 451b be3d fe35 253e
00000200: f7e7 aabd 35a0 493d 9f54 943d 23cf 69bc
00000210: e1eb 80bb c658 efbd 916f f03d feca 08be
00000220: dd60 4f3e 17de fe3d 00c5 c2bd 8209 f23d
00000230: 5c63 a5bd a100 103e 070a 743d 5d31 ab3d
00000240: 53ff 6abd 0947 efbd 9943 8e3d d9e9 a7bd
00000250: 7b81 1a3e eae1 36bd 19e4 33be e760 b4bd
00000260: c3e0 abbc 0917 5cbc ad24 0abc 6b94 58bc
00000270: 56a3 cfbc 13d5 b13c 609b 0abc c73b f1ba
00000280: a820 09be b55d dcbd 43db 9a3d bac2 893d
00000290: e7c1 313e 3fec f93d b077 903d a54a 1b3e
000002a0: 1762 cb3d efa0 0fbd 18b7 903d f10d 42bd
000002b0: 310e 83bd a1bc 84bd 8f67 bebd d99e 54bc
000002c0: 3f7a 13bd 4391 413c 6523 3e3e 8cd0 f73c
000002d0: a24b f1bd 1284 8cbc beb3 9dbd 4a92 66bd
000002e0: d0db e43d 20c1 153d 6035 323b 836f 0e3b
000002f0: 9780 3cbb 6da6 853d 3fe6 e63d ce41 c83d
00000300: 2d5e 2e3b db7f b3bd 1ba9 943d f5fd e43d
00000310: 851c 6fbd e864 033d 9935 4ebd ec99 a63d
00000320: d923 07be 7a6a 64bd f297 9fbd 7d4b c33d
00000330: fda0 b6bd e6f2 78bd 7ca3 22bd 5fc6 9abd
00000340: 1561 073d be50 9abd c2b8 72bd 3696 cf3d
00000350: ae0d d8bd b2c4 033c c805 14be 7161 05bd
00000360: a3bc 2bbc 9eae 95bd f107 27bd ce61 143d
00000370: ac7b 853c 3294 2f3d caa4 893d 6442 0a3e
00000380: 8e67 6cbc add3 1cbd a7e2 933d 9740 113d
00000390: 0de7 873d 7638 593d d772 55bc 38a6 d53b
000003a0: 3b50 c23d b6ef 663c a1c3 fd3b 3024 8fbd
000003b0: bfb9 32bd 24ab 2b3d af4c 22be 672f c4bd
000003c0: 0cad 1d3c 278c a13c 6232 d3bd d7f3 b6bd
000003d0: 1ac8 9e3d 3845 8b3d 3357 a2bd 1993 50bd
000003e0: 1d99 03be e10c 1bbe a2af 643d a509 eabc
000003f0: aee7 e7bc 7e4d ee3c 0e82 a43c f8f3 e83d
-0.020617157 0.038042497 -0.062084682 0.24232252 -0.04977084 0.11291756 -0.05449951 0.08468777
-0.13562338 -0.11687543 0.0017151997 0.009249343 0.05849821 0.058527384 -0.0038606068 0.039685782
0.004901716 -0.012811597 0.079710454 0.08783117 -0.011404356 0.047528617 -0.077448934 -0.055055812
-0.091692775 -0.047555126 0.12661463 0.07691153 -0.2000235 -0.19398873 -0.13160463 0.017385796
-0.033756442 0.017378751 0.005563034 -0.063973755 -0.16518022 0.0772119 0.08431077 0.015362709
0.11834569 -0.00351531 -0.10515468 0.036401045 -0.09187917 0.059257634 0.0150496 0.14632419
-0.0028754186 0.0778703 0.014100286 -0.16505055 0.009477324 -0.007142033 -0.117869444 -0.037852246
-0.074493565 0.0973233 -0.016252464 -0.029466685 0.058851425 0.05464447 -0.021909328 0.020095058
0.30414355 0.10137726 0.17201437 -0.23044118 0.06278589 -0.03828943 -0.05448505 -0.04206341
0.007903405 0.15574752 0.05640362 -0.17554086 0.2048454 -0.016484316 0.034609333 0.09779115
-0.10015014 0.017525287 -0.017120572 -0.029738756 0.069149874 -0.23429324 0.052276082 -0.03992392
0.10613731 0.030902017 0.15199378 -0.055284373 0.14089783 -0.004151289 -0.09011803 -0.076793395
0.0013328993 -0.077172786 0.03759163 -0.024053045 0.018460738 0.14377877 -0.03303168 0.06564889
0.031750955 0.11677361 -0.067987405 -0.017000342 -0.16583537 0.017933201 0.060391456 0.0386522
-0.15588582 0.033220816 -0.036329012 0.021690171 -0.00720703 0.070414744 0.021716837 -0.18861888
0.027389184 -0.057322994 -0.018344473 -0.04774295 0.15074533 -0.1352023 0.09282545 0.16133878
-0.08345025 0.04922505 0.07242703 -0.014270577 -0.003934369 -0.11686854 0.117400296 -0.13358685
0.20251794 0.12444704 -0.09510231 0.1181822 -0.08075592 0.1406274 0.059579875 0.08359025
-0.057372402 -0.11683471 0.06946487 -0.081989 0.15088455 -0.044649042 -0.17567481 -0.08807545
-0.020981198 -0.013433226 -0.008431596 -0.013218979 -0.02534644 0.021708047 -0.008459896 -0.0018404656
-0.13391364 -0.10760061 0.07561352 0.06726594 0.17359124 0.122032635 0.070540786 0.15165193
0.099308185 -0.035065588 0.07066172 -0.047376577 -0.06399191 -0.064812906 -0.09297096 -0.012977325
-0.036005255 0.011814418 0.1856819 0.03025081 -0.11782004 -0.01715282 -0.07700299 -0.056291856
0.111747384 0.03656113 0.0027192459 0.0021733947 -0.002876317 0.06525884 0.11274385 0.09778176
0.0026606426 -0.08764621 0.07258817 0.11181251 -0.058376808 0.032078654 -0.050344083 0.08134827
-0.13197269 -0.055765606 -0.07792653 0.095358826 -0.08917425 -0.06077852 -0.039706692 -0.075573675
0.03305157 -0.075349316 -0.05925823 0.10136072 -0.10549484 0.008042501 -0.1445533 -0.03256363
-0.010481986 -0.07308696 -0.040779058 0.036226086 0.016294323 0.04286594 0.06720884 0.13501889
-0.014428986 -0.038287807 0.07220965 0.03546199 0.06635866 0.05303236 -0.013027868 0.006520059
0.09487959 0.0140952375 0.007744268 -0.06989324 -0.043634173 0.04191126 -0.15849565 -0.09579354
0.009623777 0.01972015 -0.10312344 -0.089332275 0.0775301 0.06800312 -0.07926788 -0.050921533
-0.12851377 -0.15141632 0.05583156 -0.028569052 -0.028308716 0.029089686 0.020081546 0.11374658

network_body._body_endoder.seq_layers.2.bias f4 [128]
00000000: 0000 0000 0000 0000 0000 0000 0000 0000
00000010: 0000 0000 0000 0000 0000 0000 0000 0000
00000020: 0000 0000 0000 0000 0000 0000 0000 0000
00000030: 0000 0000 0000 0000 0000 0000 0000 0000
00000040: 0000 0000 0000 0000 0000 0000 0000 0000
00000050: 0000 0000 0000 0000 0000 0000 0000 0000
00000060: 0000 0000 0000 0000 0000 0000 0000 0000
00000070: 0000 0000 0000 0000 0000 0000 0000 0000
00000080: 0000 0000 0000 0000 0000 0000 0000 0000
00000090: 0000 0000 0000 0000 0000 0000 0000 0000
000000a0: 0000 0000 0000 0000 0000 0000 0000 0000
000000b0: 0000 0000 0000 0000 0000 0000 0000 0000
000000c0: 0000 0000 0000 0000 0000 0000 0000 0000
000000d0: 0000 0000 0000 0000 0000 0000 0000 0000
000000e0: 0000 0000 0000 0000 0000 0000 0000 0000
000000f0: 0000 0000 0000 0000 0000 0000 0000 0000
00000100: 0000 0000 0000 0000 0000 0000 0000 0000
00000110: 0000 0000 0000 0000 0000 0000 0000 0000
00000120: 0000 0000 0000 0000 0000 0000 0000 0000
00000130: 0000 0000 0000 0000 0000 0000 0000 0000
00000140: 0000 0000 0000 0000 0000 0000 0000 0000
00000150: 0000 0000 0000 0000 0000 0000 0000 0000
00000160: 0000 0000 0000 0000 0000 0000 0000 0000
00000170: 0000 0000 0000 0000 0000 0000 0000 0000
00000180: 0000 0000 0000 0000 0000 0000 0000 0000
00000190: 0000 0000 0000 0000 0000 0000 0000 0000
000001a0: 0000 0000 0000 0000 0000 0000 0000 0000
000001b0: 0000 0000 0000 0000 0000 0000 0000 0000
000001c0: 0000 0000 0000 0000 0000 0000 0000 0000
000001d0: 0000 0000 0000 0000 0000 0000 0000 0000
000001e0: 0000 0000 0000 0000 0000 0000 0000 0000
000001f0: 0000 0000 0000 0000 0000 0000 0000 0000
0.0 0.0 0.0 0.0 0.0 0.0 0.0 0.0
0.0 0.0 0.0 0.0 0.0 0.0 0.0 0.0
0.0 0.0 0.0 0.0 0.0 0.0 0.0 0.0
0.0 0.0 0.0 0.0 0.0 0.0 0.0 0.0
0.0 0.0 0.0 0.0 0.0 0.0 0.0 0.0
0.0 0.0 0.0 0.0 0.0 0.0 0.0 0.0
0.0 0.0 0.0 0.0 0.0 0.0 0.0 0.0
0.0 0.0 0.0 0.0 0.0 0.0 0.0 0.0
0.0 0.0 0.0 0.0 0.0 0.0 0.0 0.0
0.0 0.0 0.0 0.0 0.0 0.0 0.0 0.0
0.0 0.0 0.0 0.0 0.0 0.0 0.0 0.0
0.0 0.0 0.0 0.0 0.0 0.0 0.0 0.0
0.0 0.0 0.0 0.0 0.0 0.0 0.0 0.0
0.0 0.0 0.0 0.0 0.0 0.0 0.0 0.0
0.0 0.0 0.0 0.0 0.0 0.0 0.0 0.0
0.0 0.0 0.0 0.0 0.0 0.0 0.0 0.0

action_model._discrete_distribution.branches.0.weight f4 [2, 128]
00000000: 53ea 2a3b 896b 98b9 d1a2 b9ba 8594 a53b
00000010: fc47 17ba bfc7 83bb f7d3 e93b fbfa d4bb
00000020: bb90 d2bb eaa7 7f3b 58e3 8e3b 6ed2 06ba
00000030: 6adc c7ba da39 333c c3d3 973b 7bac b33c
00000040: ca86 ed3a 0465 22bc 7e5a 98bb 9fb7 113c
00000050: 4fb0 9f3c b5b8 953b be40 1bbc 941d cb3b
00000060: 7570 a63b e302 ab3c 5df6 6338 9b75 343a
00000070: 07b3 a03b 2a31 49bb d25e 4b3b 412d 88bb
00000080: 3a07 fbbb 7da6 2cbc 9b98 aeb9 5946 123c
00000090: cf38 ddbb c26e 143c 5764 90bc f7b4 70ba
000000a0: b76c 9bbb 01f5 10bb 6077 54bc f33f 93bb
000000b0: c277 0b3c 883f 063b 85d5 c9bb cecd 81ba
000000c0: 1098 f93b f8ae 5cbc 0fdd 39ba 1d58 e53b
000000d0: f5ee 9bba cfb4 62bb fb6c 393c 6f9e db3b
000000e0: a76d 32bb 6777 4ebb 41f8 ae3b e7d0 8cbc
000000f0: 72ad 0cbb 3bb7 3bbb ab53 723c 2b1c c4bb
00000100: 8117 ae3a 012d c43b bd4b 323b 172e 253c
00000110: 178f 383c e7f1 833a d30f 5cbb 8725 ec3b
00000120: 9a70 93bb 623e 19bb 7222 cdba 3aff 14bc
00000130: 9b0d 02bc 4275 db3b fe13 293c 3fee 29bc
00000140: e9a0 913b 6e61 383b 4bd1 843b 029f 5f3c
00000150: 4098 9fbb 20cf cdba 0036 b4bb f857 40bc
00000160: eb3c ad3b 50e7 6fbb 135d e5ba 08fe bf3a
00000170: 984a 52ba 0a32 923b f4ae c739 0591 f1b8
00000180: b380 4abb c998 2fbc 92fb e53b 9303 a3bc
00000190: dddb 0d3c aef3 19bc 6806 a2bc 816a 363c
000001a0: 8861 f53b 13c7 373a 5fd1 103b d366 ddbb
000001b0: 7a6d 393b 33a1 513c 926d 98bc a1b9 ba3b
000001c0: 9d55 cdb9 2ac8 d4ba 208d 1e3b ff51 b83c
000001d0: 8d45 3e3b 7922 a8bb 3559 fabb af64 d439
000001e0: 4de9 603b 574c 643c 4118 4bbc eae0 fd3b
000001f0: 7d08 dfba 579d b8bb 23c7 5bbb 6168 3b3b
00000200: 9adc af3a dddc 5abc b0ec 733b acc8 2cbc
00000210: 64c5 3c3b 975f 463c c689 25b9 34ee 1fbc
00000220: 62df 2cbb ec67 cc3b a4ec 89bb c689 c9bb
00000230: 02c6 033b 89ea 2f3c af13 7f3c e59f 503b
00000240: baad 1bbc ad1e b6ba cfc5 7ebb 8a16 e8bb
00000250: 0570 493c 65ae aabc 1a7b b9bb eb50 cd3b
00000260: 2baa 3dba 4d22 88bb 0b8f f73b e6b3 a4ba
00000270: 2f5a a839 0ebb bebb 3352 9f3b d287 613c
00000280: 9ab2 60b9 2771 14bc 7f47 6f3c edeb 8f3b
00000290: 697b 9cbc 8be2 8d3a eaca e43a 4b51 f2bb
000002a0: 6af1 36bc 99d7 853c f383 883b b882 503c
000002b0: 51da 8b3c 4bc0 4d3c 7bf8 ec3a fb25 81bb
000002c0: b790 043c d6fb cabb fc5d ac3a a76d 793b
000002d0: d443 cb3b c474 a53a 8217 f3ba af15 be39
000002e0: b042 f0bb 1c4d bb3b bb6b 24bb 0ae0 29bb
000002f0: c7b4 1bbc 4874 4f3c a337 37bc 65d0 103c
00000300: 8f5d a23c 81e4 363c 85d0 373c bb3d a2b9
00000310: 8561 ef3b 6b81 10bb dda4 2d3c 5203 6ebb
00000320: 1576 243b 68cc 35bc 7dbc c0bb e297 e8bb
00000330: cb96 6fbb 1f0b e83b 4196 49bc 6788 fc3b
00000340: f4b7 2c3c e7fc e1bb cab7 d33b fb4e 0ebc
00000350: 3084 d9bc b3e9 1ebb b188 41ba ba12 95bc
00000360: 9097 61ba aca3 a5bc 0f3e 35bb ad2f 9a3b
00000370: 31ff 203c 26ab 153c fdd2 5cbc 5150 a43b
00000380: f0ff eb3b af65 a03b 03a5 533a 08bd 87bb
00000390: 3275 0c3b e75c a3ba 69af b03b 5fb4 223a
000003a0: 779f 7cbb 4ded ccbb 8d99 b1bb 7bfe a5bb
000003b0: af0f 8938 406e 3c3c b335 35bc 1504 7b3b
000003c0: 870f 9cbb 2252 71bc 9b64 95ba a4f3 0bbc
000003d0: 3446 093b 9d6a 5dbc 1c94 85bb a087 cbbb
000003e0: a38a d33b 8b8d 03bc 6a3c 5dbb 9bcc f0bb
000003f0: 6047 4ebc ab91 903b 4ebc 133b 7f0a 0a3c
0.002607961 -0.0002907182 -0.0014162903 0.0050531053 -0.00057709194 -0.0040216143 0.007135864 -0.0064996458
-0.0064259446 0.0039009997 0.0043605976 -0.0005143051 -0.0015248184 0.010939086 0.0046333983 0.021932831
0.0018121835 -0.009911779 -0.0046494594 0.008893876 0.01949325 0.004569138 -0.009475885 0.0061985943
0.005079324 0.0208754 5.435046e-05 0.00068839797 0.004904154 -0.003069947 0.003103186 -0.0041557853
-0.0076607736 -0.010537741 -0.00033301566 0.008927905 -0.006751157 0.00905961 -0.01762597 -0.00091822393
-0.0047431844 -0.002211869 -0.012967914 -0.0044937073 0.008512439 0.0020484645 -0.0061594867 -0.0009903254
0.007617004 -0.01346945 -0.000709013 0.0069990293 -0.0011896776 -0.0034592634 0.011317487 0.0067022364
-0.0027226002 -0.0031504275 0.0053396528 -0.017189456 -0.0021465686 -0.002864315 0.014790456 -0.005984803
0.0013282151 0.00598681 0.0027205788 0.010081789 0.011264584 0.0010066599 -0.0033578768 0.007206622
-0.004499507 -0.002338313 -0.0015650524 -0.009094054 -0.007937814 0.006697328 0.010319708 -0.010371744
0.004444231 0.0028134244 0.00405327 0.01364875 -0.0048704445 -0.0015701987 -0.0054996014 -0.011739723
0.005286803 -0.003660638 -0.0017499052 0.0014647851 -0.00080219796 0.0044615315 0.00038086588 -0.000115187875
-0.0030899465 -0.010717579 0.007018515 -0.019899165 0.0086583765 -0.009396477 -0.019778445 0.011133791
0.0074884333 0.00070105604 0.002209745 -0.0067566424 0.0028294013 0.012794781 -0.018606935 0.005698398
-0.00039164434 -0.001623397 0.0024193004 0.022500036 0.0029033155 -0.0051310626 -0.007640029 0.00040510806
0.0034318746 0.013934216 -0.012395919 0.007747759 -0.001701608 -0.0056339907 -0.0033535443 0.002859615
0.0013417185 -0.013358322 0.0037219934 -0.010545891 0.0028804177 0.012107751 -0.00015786951 -0.009761382
-0.0026378264 0.0062379744 -0.004209118 -0.006150457 0.0020107036 0.01073707 0.015568658 0.0031833586
-0.009501869 -0.001389464 -0.0038875227 -0.007082765 0.012294774 -0.02083511 -0.005660427 0.0062657497
-0.0007235135 -0.0041544796 0.007554894 -0.0012565821 0.0003211065 -0.0058206385 0.004862094 0.013765292
-0.00021428839 -0.009060181 0.014604448 0.004392138 -0.019101815 0.0010824961 0.0017455493 -0.007394945
-0.011165956 0.016338157 0.00416612 0.012726478 0.017071875 0.012558053 0.0018079424 -0.003941295
0.008091143 -0.006194572 0.0013150568 0.0038059743 0.006203154 0.00126233 -0.0018546435 0.0003625578
-0.0073321685 0.0057159793 -0.0025088626 -0.0025920891 -0.00950355 0.012662001 -0.011182698 0.008838748
0.019820003 0.011162878 0.0112191485 -0.0003094504 0.0073053264 -0.0022049795 0.0105983885 -0.0036317897
0.0025094796 -0.0110960975 -0.0058818446 -0.007098184 -0.0036558385 0.007081404 -0.01230389 0.00770669
0.010541905 -0.0068966034 0.0064611183 -0.008685823 -0.02655229 -0.0024248182 -0.00073827343 -0.018197406
-0.00086056534 -0.020219646 -0.0027655398 0.0047053904 0.009826467 0.009135043 -0.013478038 0.0050144573
0.007202141 0.004894934 0.00080736 -0.0041424073 0.0021432159 -0.00124636 0.0053920043 0.0006206687
-0.0038547197 -0.0062538744 -0.005419916 -0.005065737 6.5355904e-05 0.011500895 -0.011060166 0.0038301994
-0.004762593 -0.014729055 -0.0011397781 -0.008541975 0.0020946385 -0.013514188 -0.004076494 -0.006211236
0.006455736 -0.008029352 -0.0033757933 -0.0073486096 -0.012590259 0.004411896 0.0022542658 0.008425354

action_model._discrete_distribution.branches.0.bias f4 [2]
00000000: 0000 0000 0000 0000
0.0 0.0

network_body._body_endoder.seq_layers.0.weight f4 [128, 3]
00000000: 5f91 8d3e 4468 423e 36b1 b63e bc5a 173f
00000010: ce2f 3abf e6a3 ef3e 4e0c 813e 10bb a53d
00000020: 490a 083f 3154 a2be 04a2 a7bf 840c 60be
00000030: dfdb 3ebf eb0d ccbe 5e0f 133f bb44 8ebe
00000040: 10b3 65be 8726 8d3f 3ab7 eb3e 6a52 fabe
00000050: 176a 8d3d a9c7 bd3e aa3f 363f 5528 9d3e
00000060: 5dfb eebd 0f9b 2f3e cd9c 12be 6748 99be
00000070: 480c 42be 4193 6cbd a03b 113f f5c5 8dbf
00000080: c1dc e9be 4e85 223f eb33 783e eab2 f73d
00000090: e209 6e3e 135f 583f 821e a53e c5ea 33be
000000a0: 92a3 303e 0ff7 00bf 1b73 63be 6f70 08bf
000000b0: 18cb 253f 5b78 833c 0d65 48bf c354 45bf
000000c0: 3b1f 1e3f 6b74 40bf c6fb 573f 6ce3 f83d
000000d0: 58d7 94bf d2da 4bbf c4ff 453e 61ac 5e3d
000000e0: e1f9 d2bd dbf2 33be 6c50 d13e 2ef0 12bd
000000f0: 10f3 d23e 4eda a0bf 6f8c 8fbc 32a9 45be
00000100: 76c9 6f3f f245 cdbd 0e69 973f 2659 e73e
00000110: 40de 7dbf 99b2 d23d 4b44 923e 8781 683f
00000120: 84b4 0cbf 01b9 773d 6c14 8c3f 82b0 86bc
00000130: 8db3 713d 0462 9abe 676c 893f 1b45 d6be
00000140: 1a9a 873f 9622 d2bc dec6 013d 0a86 1f3f
00000150: 983d bdbe 3d18 5f3d f033 253f 6be1 463e
00000160: 33e0 eebe 483b 833e 1229 063f 1eac d63e
00000170: e416 39bf 6474 2dbf 8025 50bf c44a ca3e
00000180: 695c db3e 1783 4cbf 4611 613f 5e01 c3be
00000190: 480f a43e b5a4 82bf bdc1 2c3f b5b7 a43f
000001a0: 71a0 573f 0d9e 153f 5f83 383e 544f 28be
000001b0: 3b91 28be 3477 c9be 4f90 09bf 8f5c 82be
000001c0: 399b 123f c30f 0a3f 2191 b9bd 815e 1b3f
000001d0: 9005 6a3f a223 213f c86f b2be abe5 f63e
000001e0: ff11 ef3d 9346 623f cf7e 9fbe 79f5 3d3d
000001f0: 9bbb f83e 3095 fdbe e61b 82bd 5406 263d
00000200: fa51 9d3e 268a 35bf e004 09bf f809 16be
00000210: 8095 06bf f566 debe f1ee cfbe 97d7 4abf
00000220: f0ca dbbe 1db2 98bf 41de 8abe 8cfe e0bc
00000230: 1a63 c23d f3b8 4ebf 1e54 c83f 46c0 263f
00000240: 3fcf b03d 9fce 423f 0413 fcbe 5937 3e3f
00000250: dfab 1abf 41dd 3dbf e65e 0fbf 7ab8 513f
00000260: 56ea bfbf ab5d 053f 3098 8a3d b084 573f
00000270: 080a f8bd 49e9 d53d 35eb 7cbe 2c3e 303f
00000280: a4f0 a43e 2aca 92bf cd5a 81bf d3b9 15be
00000290: f60d 8f3e 7bc7 c8bd 4611 b43d a6d2 59bf
000002a0: e417 693e 8e07 19bd 1551 9c3d 9a75 1b3d
000002b0: 7932 4cbc db73 6ebf 0bbe 8d3f ea4f e3be
000002c0: fc6b 563f feba 63be f658 8bbe 67bc d3be
000002d0: ac31 2cbf 9d4f 143f 5ed9 433f b081 f33e
000002e0: b01e 10bf d2ae 86bf b4f2 923e 9cbc 38bf
000002f0: 3aa8 b8be 189b a63f f0d4 00bf ca0b 4ebd
00000300: 24b9 b13e eacc 233f 0437 cfbe 6371 193f
00000310: 85b1 ebbe 4b8d d93d b037 ac3e 5c9f d13d
00000320: 2a85 3b3f 3b52 033c e2a8 9ebe cc2c 283f
00000330: 22e6 b83f 9625 eebe c6a2 883f a66b 913e
00000340: 40ea 55be f567 bb3d 1695 41bf bdf5 17bc
00000350: 29e9 473e 184d 9bbe 0ceb f4bc 9f12 9c3f
00000360: 071b bfbd e699 cfbe 73b9 a23e eec4 573e
00000370: 891f e1be df32 02be 1ab3 14bf b706 e8be
00000380: ded5 8abe 96c4 7cbd 5185 c6bd 273a 0e3f
00000390: 9cde cf3e 816c 17be e721 66be a318 093f
000003a0: 964e c2be 5083 593e 54d1 cabd 4a22 803f
000003b0: d943 2dbf cc51 4dbf ae96 133f f814 c53b
000003c0: b8d7 95bd 4eab fd3e bc03 163f 9316 063f
000003d0: d12c 163e 5b03 053f e529 b23e c164 80bd
000003e0: 3fd5 2a3e 5bd1 643d 9d70 c73e 7a3b c53e
000003f0: b4f2 a33d 1bf3 dd3e 9a31 fb3d f108 863e
0.27649972 0.18985087 0.35682076 0.59122825 -0.72729194 0.46804732 0.252047 0.0809232
0.53140694 -0.31704858 -1.3096318 -0.21879774 -0.74554247 -0.3985437 0.57445323 -0.27786812
-0.22431588 1.1027383 0.46038228 -0.48891002 0.06905001 0.3706639 0.71190894 0.30694833
-0.116690375 0.17148994 -0.14317627 -0.2993805 -0.18949997 -0.05775762 0.56731606 -1.1076037
-0.45676234 0.63484657 0.24238555 0.12094672 0.23245957 0.8452007 0.32249838 -0.17570026
0.17249897 -0.5037698 -0.22211878 -0.5329656 0.6476302 0.0160486 -0.7827919 -0.7708246
0.61766404 -0.7517764 0.8436855 0.12152752 -1.1628218 -0.7963077 0.19335848 0.054363612
-0.10301567 -0.17573111 0.4088167 -0.035873584 0.41201067 -1.2566621 -0.017523019 -0.19302824
0.9366678 -0.10023107 1.1828935 0.45185202 -0.9916725 0.10287971 0.28567728 0.90822643
-0.54962945 0.060479168 1.0943732 -0.016441587 0.059009124 -0.30152905 1.0736207 -0.41849598
1.0593903 -0.025651257 0.031683795 0.623139 -0.36961055 0.054466475 0.64532375 0.19421928
-0.46655425 0.25631166 0.5240642 0.4192819 -0.72300553 -0.67755723 -0.8130722 0.39510167
0.4284394 -0.7988753 0.8791698 -0.3808698 0.3204291 -1.0206515 0.6748312 1.2868563
0.8422919 0.5844429 0.18018864 -0.16436511 -0.16461651 -0.39348757 -0.5373582 -0.25461242
0.572681 0.539303 -0.09060884 0.60691077 0.9141474 0.62944996 -0.34850907 0.48222098
0.11673354 0.8838894 -0.31151435 0.04637668 0.48580632 -0.49527884 -0.063529775 0.04053338
0.30726606 -0.7091392 -0.53523064 -0.1465224 -0.5257187 -0.43437925 -0.40611985 -0.79235214
-0.42928267 -1.1929356 -0.2712269 -0.027465127 0.094915584 -0.8075096 1.565067 0.65137136
0.08633279 0.7609653 -0.49233258 0.74303204 -0.60418504 -0.7416573 -0.5600418 0.81922114
-1.4993389 0.5209605 0.06767309 0.8418684 -0.12111288 0.10444886 -0.246991 0.68844867
0.32214844 -1.1467946 -1.0105835 -0.14621668 0.2794034 -0.09803673 0.08792357 -0.8508705
0.2276302 -0.03736072 0.07632653 0.03795395 -0.0124632055 -0.9314553 1.1073622 -0.44396907
0.8375852 -0.222393 -0.2721631 -0.41354677 -0.67263293 0.5793398 0.7650355 0.4755988
-0.56296825 -1.0522101 0.28700793 -0.72162795 -0.36065847 1.3016081 -0.50324917 -0.05030421
0.34711564 0.6398455 -0.4047166 0.5993864 -0.46033874 0.106226526 0.33636236 0.102354735
0.7325007 0.008015211 -0.30988222 0.65693355 1.4445231 -0.4651305 1.0674675 0.28402442
-0.2089014 0.091506876 -0.7561811 -0.009274897 0.19522537 -0.30332255 -0.029897235 1.2193183
-0.09331327 -0.40547103 0.31782112 0.21071216 -0.43969372 -0.12714718 -0.5808579 -0.45317623
-0.27116293 -0.061710916 -0.09693397 0.55557483 0.40599525 -0.14787485 -0.2247387 0.5355322
-0.3795058 0.21241498 -0.099032074 1.0010464 -0.6768165 -0.8020294 0.57651794 0.0060144626
-0.07316536 0.49544758 0.5859945 0.52378196 0.14665534 0.51958245 0.34797588 -0.06269217
0.1668291 0.05586372 0.38953105 0.3852194 0.08005276 0.43349537 0.1226532 0.26178697

network_body._body_endoder.seq_layers.0.bias f4 [128]
00000000: 0000 0000 0000 0000 0000 0000 0000 0000
00000010: 0000 0000 0000 0000 0000 0000 0000 0000
00000020: 0000 0000 0000 0000 0000 0000 0000 0000
00000030: 0000 0000 0000 0000 0000 0000 0000 0000
00000040: 0000 0000 0000 0000 0000 0000 0000 0000
00000050: 0000 0000 0000 0000 0000 0000 0000 0000
00000060: 0000 0000 0000 0000 0000 0000 0000 0000
00000070: 0000 0000 0000 0000 0000 0000 0000 0000
00000080: 0000 0000 0000 0000 0000 0000 0000 0000
00000090: 0000 0000 0000 0000 0000 0000 0000 0000
000000a0: 0000 0000 0000 0000 0000 0000 0000 0000
000000b0: 0000 0000 0000 0000 0000 0000 0000 0000
000000c0: 0000 0000 0000 0000 0000 0000 0000 0000
000000d0: 0000 0000 0000 0000 0000 0000 0000 0000
000000e0: 0000 0000 0000 0000 0000 0000 0000 0000
000000f0: 0000 0000 0000 0000 0000 0000 0000 0000
00000100: 0000 0000 0000 0000 0000 0000 0000 0000
00000110: 0000 0000 0000 0000 0000 0000 0000 0000
00000120: 0000 0000 0000 0000 0000 0000 0000 0000
00000130: 0000 0000 0000 0000 0000 0000 0000 0000
00000140: 0000 0000 0000 0000 0000 0000 0000 0000
00000150: 0000 0000 0000 0000 0000 0000 0000 0000
00000160: 0000 0000 0000 0000 0000 0000 0000 0000
00000170: 0000 0000 0000 0000 0000 0000 0000 0000
00000180: 0000 0000 0000 0000 0000 0000 0000 0000
00000190: 0000 0000 0000 0000 0000 0000 0000 0000
000001a0: 0000 0000 0000 0000 0000 0000 0000 0000
000001b0: 0000 0000 0000 0000 0000 0000 0000 0000
000001c0: 0000 0000 0000 0000 0000 0000 0000 0000
000001d0: 0000 0000 0000 0000 0000 0000 0000 0000
000001e0: 0000 0000 0000 0000 0000 0000 0000 0000
000001f0: 0000 0000 0000 0000 0000 0000 0000 0000
0.0 0.0 0.0 0.0 0.0 0.0 0.0 0.0
0.0 0.0 0.0 0.0 0.0 0.0 0.0 0.0
0.0 0.0 0.0 0.0 0.0 0.0 0.0 0.0
0.0 0.0 0.0 0.0 0.0 0.0 0.0 0.0
0.0 0.0 0.0 0.0 0.0 0.0 0.0 0.0
0.0 0.0 0.0 0.0 0.0 0.0 0.0 0.0
0.0 0.0 0.0 0.0 0.0 0.0 0.0 0.0
0.0 0.0 0.0 0.0 0.0 0.0 0.0 0.0
0.0 0.0 0.0 0.0 0.0 0.0 0.0 0.0
0.0 0.0 0.0 0.0 0.0 0.0 0.0 0.0
0.0 0.0 0.0 0.0 0.0 0.0 0.0 0.0
0.0 0.0 0.0 0.0 0.0 0.0 0.0 0.0
0.0 0.0 0.0 0.0 0.0 0.0 0.0 0.0
0.0 0.0 0.0 0.0 0.0 0.0 0.0 0.0
0.0 0.0 0.0 0.0 0.0 0.0 0.0 0.0
0.0 0.0 0.0 0.0 0.0 0.0 0.0 0.0

network_body._body_endoder.seq_layers.2.weight f4 [128, 128]
00000000: 74b4 84bc 995e 373d 31d7 0e3c 42b4 e4bd
00000010: 3d96 333e a162 9b3b e649 2f3d ef0e f43d
00000020: 81aa 3fbe a3bf 4d3d 2e1d cdbd b711 88bd
00000030: 85c4 043d 933c 0fbc 3324 88bd 720e a5bc
00000040: cbbc b73d 566f 873d df45 3bbe 5597 3bbd
00000050: 5102 d83c 504b e13d f6e9 453e 545e a5bd
00000060: 3201 013d ae68 20ba 2908 72bc d1b5 ebbc
00000070: a814 19be 56b3 99bd 0b8b 0e3d 1f26 ddbd
00000080: 87c5 b8bb 7796 df3d cbbe bd3d 0d64 173e
00000090: 0464 993d f356 1cbe ff84 393d 7c1d 3fbd
000000a0: 4725 94bd 182f ba3d 7372 fd3d 2735 063c
000000b0: 9fe6 9c3d 6064 eabd f2e6 0bbe b362 203e
000000c0: 3e50 fc3c 8cef 73bc 1040 1fbd 45d1 4abd
000000d0: f854 793d 1a8e 3d3d 1f66 143d 5f78 173e
000000e0: fada af3c bd63 793d 086e 99bd 2799 a3bd
000000f0: 37c2 2bbd 1b9a e33d 987d c53d f6dc 3f3c
00000100: dd1e 0d3e 3959 b83c 1e12 41bc d593 62bd
00000110: 6e27 eb3d 1922 113e ec41 62bd 159a 383c
00000120: 04b7 b3bd 6d76 b0bb 37b0 6abe d552 e23a
00000130: e32f bfbd 4081 0fbe d80b 0ebc 3f48 113d
00000140: 98a1 fa3d 3cdf 073e cc4f 9ebd 615e f6bc
00000150: aad0 0f3e 4ead 293c e310 983d f8a3 9f3d
00000160: 7a77 1abd be69 ecbc a3f3 87bd 4072 02b7
00000170: 1147 63bd 4710 7cbd 4f0d 01be aab6 dabd
00000180: fcfa 523e b8ed 34be 2238 603e c659 583c
00000190: b563 8c3d 8867 fa3c d06c 393d 1cac 773d
000001a0: 8022 adbd c115 27bb 3d1b 9b3c d354 d8bb
000001b0: 274d 763e 15f0 a43c b290 4bbe f745 4bbe
000001c0: 4671 673d 0d32 363d 93e5 a2bd b880 52bd
000001d0: 0bba ac3d bc15 a03b 765d 4cbe 4094 4b3e
000001e0: d9b9 37be e6a8 0d3d 49b8 413e 4104 93bb
000001f0: ba68 3c3e ff70 babd b952 2ebe fe37 b7bc
00000200: 97bf 103d ac50 f4bd 48d1 c73d 3fc9 6ebd
00000210: 4fb8 c6bc 4563 01bd b719 00bc 49e3 9f3d
00000220: d987 5c3e f9d1 3939 ce0e 13bd 38ee 7fbd
00000230: a5ae 3a3c 2240 4bbd 9a59 8b3d 8dd8 0a3d
00000240: 3f3d 16bd ad4c c7bc b5e5 083e 5fba 173e
00000250: e9d1 773d 065f 8b3d 390b 14be f9f0 c4bc
00000260: 0e62 b53d a2c4 b8bc dafc 28be 4a52 1bbd
00000270: 7a95 04be f759 923c ab63 943d 86db 183e
00000280: b39c 8abd f27c 203e b23f 123d d49c f5bd
00000290: c9a9 52bd e732 e2bd ba71 b33c 5116 c2bd
000002a0: 9363 0e3d d02b 803d 9da5 9abb 7bbc d13d
000002b0: c100 083e 52fd 5abd 5c08 84be 0a19 0fbe
000002c0: 7916 5f3c 57e1 91bd e47e 3e3c b991 45bd
000002d0: 4328 e3ba f742 0f3e b262 373d 3f4e 61bd
000002e0: b814 afbd d3c9 233d 960f d8bd e893 35bd
000002f0: 4b7a 58bc 7868 843d b64e 9b3d 1341 183d
00000300: 5173 5a3b 67ad a03d 6646 843d fbcf 9a3b
00000310: 32b7 30bc ceb3 e6bd a9c0 0c3e 2a42 203d
00000320: 278c d3bd 2698 a1bc 0daa 50bb 2d64 cbbd
00000330: 2cb1 abbd a03b 0c3e ab27 013e a956 34bc
00000340: 2ce4 d03c e429 76bd 0dac 013e 0b10 1b3d
00000350: d476 03be f0b6 f43d 03bb 323e b45a 633d
00000360: 400b 3c3d 14a4 1dbd 7137 103e 2cd9 ac3d
00000370: ac2a 91bc e5ed 5abe ca3f 933c 9c40 2bbd
00000380: 6b75 09bc 81f7 1dbd f0ed 00bd 570b 6cbd
00000390: 04c3 92bd ef73 f23d 082b ebbc 16d1 5e3d
000003a0: d86b 813d b00f 8bbc 8da4 4bbd cc5e 10bd
000003b0: 5293 2dbe 9616 c83c c805 ff3d b455 a13d
000003c0: da6f 32bd fdb4 3c3e f425 8b3d 9afd c03d
000003d0: 8a10 24bd 4847 dfbc 52e3 1c3d fae2 7e3d
000003e0: cf28 ccbd aaeb debd 33fe 883c 48be bebd
000003f0: af5e 0c3e 1566 46bc 57f4 c03d b094 d4bb
-0.016199328 0.04476795 0.008718298 -0.11167194 0.1753778 0.004741982 0.042795084 0.11916911
-0.18717386 0.050231587 -0.10015331 -0.06644004 0.032413978 -0.008742469 -0.066475295 -0.02014849
0.08971556 0.066130325 -0.18288372 -0.04579862 0.026368292 0.11000693 0.1932753 -0.08074632
0.03149528 -0.0006119114 -0.014772453 -0.02877322 -0.14949286 -0.07504909 0.03480057 -0.10798287
-0.0056387815 0.10917371 0.092649065 0.1478426 0.074897796 -0.15267543 0.04529285 -0.046658978
-0.072336726 0.09091014 0.12375345 0.008191383 0.07661175 -0.11444926 -0.13662317 0.15662651
0.030799981 -0.014888655 -0.038879454 -0.04951598 0.06087205 0.046278097 0.036230203 0.14792012
0.02146672 0.060886133 -0.0749169 -0.07988196 -0.041933265 0.11113378 0.09643096 0.011710396
0.13781305 0.022503482 -0.011784105 -0.055316765 0.1148213 0.14173163 -0.05523865 0.011267205
-0.08775142 -0.005385211 -0.22918783 0.0017267118 -0.093353055 -0.14014149 -0.008669816 0.03546929
0.12237853 0.13268751 -0.07730064 -0.0300743 0.14044443 0.01035626 0.07425096 0.077949464
-0.037711598 -0.028859016 -0.06638267 -7.775205e-06 -0.055487696 -0.06153896 -0.12602733 -0.10679372
0.20603555 -0.17668808 0.21896413 0.013204997 0.06854955 0.030566946 0.045269787 0.06046687
-0.08453846 -0.0025495144 0.018933887 -0.0066019087 0.24052869 0.020134011 -0.19879416 -0.19850908
0.05650451 0.044481326 -0.07953944 -0.051392287 0.084339224 0.0048854034 -0.19957528 0.19880772
-0.17941989 0.034584902 0.18917955 -0.004486591 0.18399325 -0.091035835 -0.17023744 -0.022365566
0.035338964 -0.119294494 0.09756714 -0.058297392 -0.024257807 -0.03158881 -0.007818631 0.07807023
0.21536197 0.00017721196 -0.03590279 -0.062483042 0.011394178 -0.04962171 0.068041995 0.033897925
-0.036679503 -0.024328554 0.13368876 0.14817189 0.06050292 0.06805234 -0.14457406 -0.024040686
0.08856593 -0.0225547 -0.16502705 -0.037920274 -0.12947646 0.017865164 0.07245573 0.14927492
-0.06768169 0.15672663 0.035705276 -0.11992803 -0.05143145 -0.11044865 0.021904815 -0.09476913
0.03476293 0.062583566 -0.0047194497 0.10241028 0.13281538 -0.05346424 -0.25787628 -0.13974395
0.013616198 -0.07123058 0.011626933 -0.048234675 -0.0017330725 0.13990389 0.044771858 -0.055006262
-0.08548874 0.039987396 -0.10549848 -0.044330508 -0.013212751 0.06465238 0.07583372 0.037171435
0.0033332894 0.07845574 0.0645874 0.0047245002 -0.010785865 -0.11264764 0.13745369 0.0391256
-0.10329466 -0.01972587 -0.003183964 -0.099312164 -0.08383402 0.1369462 0.12612788 -0.0110069895
0.025499426 -0.060098544 0.12663288 0.037857097 -0.12838298 0.11948955 0.17454152 0.055506423
0.045909166 -0.038486555 0.14083649 0.0843986 -0.017720543 -0.21379812 0.017974753 -0.041809663
-0.008389811 -0.038566116 -0.031476915 -0.057628002 -0.071661025 0.11838519 -0.028707042 0.05439862
0.06319398 -0.016975254 -0.049717475 -0.035246655 -0.1695073 0.024424832 0.124522746 0.07877675
-0.0435637 0.18428417 0.06794348 0.09423371 -0.040054835 -0.02725567 0.038302727 0.06222818
-0.09968721 -0.10884793 0.016722774 -0.09313637 0.13707994 -0.012109299 0.09421604 -0.0064874515

network_body._body_endoder.seq_layers.2.bias f4 [128]
00000000: 0000 0000 0000 0000 0000 0000 0000 0000
00000010: 0000 0000 0000 0000 0000 0000 0000 0000
00000020: 0000 0000 0000 0000 0000 0000 0000 0000
00000030: 0000 0000 0000 0000 0000 0000 0000 0000
00000040: 0000 0000 0000 0000 0000 0000 0000 0000
00000050: 0000 0000 0000 0000 0000 0000 0000 0000
00000060: 0000 0000 0000 0000 0000 0000 0000 0000
00000070: 0000 0000 0000 0000 0000 0000 0000 0000
00000080: 0000 0000 0000 0000 0000 0000 0000 0000
00000090: 0000 0000 0000 0000 0000 0000 0000 0000
000000a0: 0000 0000 0000 0000 0000 0000 0000 0000
000000b0: 0000 0000 0000 0000 0000 0000 0000 0000
000000c0: 0000 0000 0000 0000 0000 0000 0000 0000
000000d0: 0000 0000 0000 0000 0000 0000 0000 0000
000000e0: 0000 0000 0000 0000 0000 0000 0000 0000
000000f0: 0000 0000 0000 0000 0000 0000 0000 0000
00000100: 0000 0000 0000 0000 0000 0000 0000 0000
00000110: 0000 0000 0000 0000 0000 0000 0000 0000
00000120: 0000 0000 0000 0000 0000 0000 0000 0000
00000130: 0000 0000 0000 0000 0000 0000 0000 0000
00000140: 0000 0000 0000 0000 0000 0000 0000 0000
00000150: 0000 0000 0000 0000 0000 0000 0000 0000
00000160: 0000 0000 0000 0000 0000 0000 0000 0000
00000170: 0000 0000 0000 0000 0000 0000 0000 0000
00000180: 0000 0000 0000 0000 0000 0000 0000 0000
00000190: 0000 0000 0000 0000 0000 0000 0000 0000
000001a0: 0000 0000 0000 0000 0000 0000 0000 0000
000001b0: 0000 0000 0000 0000 0000 0000 0000 0000
000001c0: 0000 0000 0000 0000 0000 0000 0000 0000
000001d0: 0000 0000 0000 0000 0000 0000 0000 0000
000001e0: 0000 0000 0000 0000 0000 0000 0000 0000
000001f0: 0000 0000 0000 0000 0000 0000 0000 0000
0.0 0.0 0.0 0.0 0.0 0.0 0.0 0.0
0.0 0.0 0.0 0.0 0.0 0.0 0.0 0.0
0.0 0.0 0.0 0.0 0.0 0.0 0.0 0.0
0.0 0.0 0.0 0.0 0.0 0.0 0.0 0.0
0.0 0.0 0.0 0.0 0.0 0.0 0.0 0.0
0.0 0.0 0.0 0.0 0.0 0.0 0.0 0.0
0.0 0.0 0.0 0.0 0.0 0.0 0.0 0.0
0.0 0.0 0.0 0.0 0.0 0.0 0.0 0.0
0.0 0.0 0.0 0.0 0.0 0.0 0.0 0.0
0.0 0.0 0.0 0.0 0.0 0.0 0.0 0.0
0.0 0.0 0.0 0.0 0.0 0.0 0.0 0.0
0.0 0.0 0.0 0.0 0.0 0.0 0.0 0.0
0.0 0.0 0.0 0.0 0.0 0.0 0.0 0.0
0.0 0.0 0.0 0.0 0.0 0.0 0.0 0.0
0.0 0.0 0.0 0.0 0.0 0.0 0.0 0.0
0.0 0.0 0.0 0.0 0.0 0.0 0.0 0.0

value_heads.value_heads.extrinsic.weight f4 [1, 128]
00000000: e6ba 2d3e 6071 d93b d4b3 acbd 4661 17be
00000010: 90a0 473c 9882 743d 4c70 84bd f00c 323e
00000020: 8063 ea3d 0044 a539 6d23 1cbe 3068 0fbe
00000030: aee5 1b3e fcb9 023e 5833 de3d 9452 1bbd
00000040: a0c7 92bc 247d aa3d d0bf 5f3d 50c7 f6bd
00000050: 908a ac3c 901e 533d 482a 75bd d07c d1bc
00000060: 482b c33c 38bb e7bd 4026 9a3d 9a47 9fbd
00000070: c478 dd3d a8bb 6a3d ac5d 25bd a8f8 943d
00000080: 782e 4ebd 3a9f 1b3e 40d5 c23c bb9d 4cbe
00000090: de18 423e a28c 493e 3c23 8c3d 5442 973d
000000a0: 308d 49be 0094 1b3d 0826 913c a04b 2d3e
000000b0: e07c 87bb 9634 383e 0431 273e a4f6 203e
000000c0: a4ee 113e aec4 12be 6636 523e 73ca ecbd
000000d0: 12d6 b3bd 6663 133e 0080 7a37 20e0 42bd
000000e0: 9edd 1cbe b4ef 2a3e 930b 20be 7c6a 26be
000000f0: 34a2 373e 300d af3d a4ca 2cbe f05c 2b3d
00000100: 96c4 263e 24e1 523e 2038 f83c 68cd af3d
00000110: 2021 43bd 3431 023d e0ba 72bc 4c4e 113e
00000120: 3cdc 123e f72b 10be 4492 d73d 26e2 273e
00000130: 8707 03be bb08 23be 2c4b 273e b823 53be
00000140: b0fd 0e3c 822b 05be 9f16 babd cb0c 2fbe
00000150: 6f4f 59be b8a7 263e c075 f13c b408 b43d
00000160: b80f f53d d096 ea3c 4d07 0cbe 885f 4e3e
00000170: 80d3 ec3d 88ad f43d c91a d2bd 404c 0f3b
00000180: ef7d 47be 3446 0b3d 26a5 4a3e 8e14 98bd
00000190: 1823 573d 9807 29be e88b 86bc 1cbd a13d
000001a0: 20bf 843b 32cd 13be 1bb9 47be ea4b 16be
000001b0: 7418 af3d aa25 0ebe c2a5 443e 48c1 2b3d
000001c0: 4c7e 95bd 4a26 493e e036 6cbc 9815 f6bc
000001d0: da81 083e f08f 9abc 9893 fc3d 8afc 28be
000001e0: fc86 e43d 3866 3e3d fa86 463e 521d 3abe
000001f0: e0f5 d33b 20d0 a33c a010 b63d a8a4 9d3d
0.16965827 0.00663583 -0.08432737 -0.147832 0.012184277 0.059694856 -0.064667314 0.17387748
0.11444759 0.00031521916 -0.15247889 -0.14004588 0.15224335 0.1276626 0.10849637 -0.03792055
-0.017917454 0.0832465 0.054626286 -0.120497346 0.021062165 0.05154282 -0.059854776 -0.02557221
0.023824349 -0.11315006 0.07526827 -0.07777329 0.1081405 0.05730787 -0.040372536 0.0727399
-0.050337285 0.15197459 0.023783326 -0.19982044 0.18954799 0.19682553 0.06842658 0.07385698
-0.19682765 0.03798294 0.01771833 0.1692338 -0.0041347593 0.1798881 0.16327292 0.15719086
0.1425119 -0.1433284 0.20528564 -0.115620516 -0.08781065 0.14393386 1.49309635e-05 -0.047577024
-0.15318915 0.16693002 -0.15629415 -0.16251558 0.1793297 0.08547437 -0.16874176 0.04183668
0.16285929 0.20593697 0.0303002 0.085841 -0.047639012 0.031785205 -0.014815062 0.14190024
0.14341825 -0.14079271 0.10525945 0.16394863 -0.1279584 -0.15921299 0.1633727 -0.20619094
0.008727476 -0.13004878 -0.09086346 -0.17094724 -0.21221708 0.16274917 0.029475093 0.087907225
0.11965889 0.028636366 -0.1367466 0.2015363 0.11563778 0.11947161 -0.10259015 0.0021865517
-0.19481634 0.034002498 0.19789562 -0.074257955 0.052523702 -0.16506803 -0.016424134 0.07897398
0.004051104 -0.14433745 -0.19504206 -0.14677396 0.08549586 -0.13881555 0.19203857 0.041932374
-0.0729948 0.19643512 -0.01441738 -0.030039594 0.13330784 -0.018867463 0.12332839 -0.16502586
0.11158559 0.046484202 0.19387427 -0.18175247 0.0064685196 0.019996703 0.0888989 0.07697421
