results/ppo/Move Behavior/Move Behavior-1007343.onnx (onnx, 291429 bytes, 13 tensors)

network_body._body_endoder.seq_layers.0.weight f4 [128, 36]
00000000: a56b 96bc 28d0 a23d ce52 a83e 0341 a33d
00000010: 0785 93be bfd9 753e 1f08 573e d431 bbbe
00000020: ca10 013e 759c bd3d 6e14 743e 7ff0 5ebd
00000030: 75c1 b2bd b235 ccbd 446b 76bd 1d4a 3bbe
00000040: 9e8c b8bd 92a7 023f 878b 373d 6587 aabe
00000050: fe30 573e d986 76bd 5b64 7f3e 09b0 3abe
00000060: 0ee5 813e 44f9 08be a7cb a7bb 4546 c6bc
00000070: fde7 993e 2019 28be 7721 21be 69ea a1bd
00000080: de5d 883e d050 2e3d a73f 23bd faea 273e
00000090: 05b1 41bc 9ab8 863e 9005 353d 8aa9 bc3e
000000a0: debf acba 6f8c bd3e eba5 463e ffa9 b73d
000000b0: ccf0 a4bb d97f fa3d 8bff f83d cce1 9d3e
000000c0: 9f40 353e bd32 6b3e 2cfd e43d 3ce0 b8bd
000000d0: db7b 1b3d bd23 8c3e 61b5 ca3d 5e85 7bbe
000000e0: c0b6 da3d a0d1 2bbe bef5 183e 98de c8be
000000f0: f9fc a6bd 41d6 19be 296c fb3d 4908 27be
00000100: bd67 4abe 91af fabc 57bf 243e 542b c53d
00000110: 6380 553e d59c 203d 50d2 ab3c 1828 87bc
00000120: 6d5d adbe 44b8 033e 5750 28bd bb92 d73e
00000130: 7e94 c9bc c9ba d33d 83dd 603c b04d 8f3e
00000140: 4356 993e c974 75bd 56ec c3bd d5a2 953e
00000150: 8bef f8bd 52bd 1cbe 3238 a53e bce1 803e
00000160: fbba 863d 9282 f5bd 8e4b 03be e85c 263e
00000170: 02d1 cabd ec3e cabb d515 883e 3548 68bd
00000180: bc19 f43c a69a d93d c796 70bc e24d 4b3e
00000190: e4f9 1a3d e46f 7f3e 1721 e7bd 2ce6 10bd
000001a0: bcd1 98be c4bf 2a3e bce6 333d 880c 803c
000001b0: aa82 01bc dd2c 053d da18 663e 8bed b33d
000001c0: 94ec bdbe bb3b 793d af26 99bd ddda ac3b
000001d0: 0d3e 5d3e 2e22 8ebe 32b2 34be f33a 8a3c
000001e0: c477 6dbd 5e49 46be 433a 86be 9b53 823d
000001f0: 0f3b 1b3e b809 8abd ca57 bd3e 4297 00bd
00000200: fb48 a0bc 4802 f8bc 5fcd 12be 913c c9be
00000210: fa7d 82bd b082 febd 58d4 52bd 0a64 8ebd
00000220: 0c0a c23e 971f 4e3e 9e73 d33c e903 823e
00000230: 54a5 8abe 42ea 19be 2267 21be 6c2d c9bc
00000240: 0cec 39be af5c 3cbe e778 10be 81aa 2fbe
00000250: 7a00 183d 437c 463d 2794 bf3d 1f86 37bd
00000260: cc2b 7fbc b468 80be 5300 31be 0f23 39be
00000270: e691 58be 7afc 24bc 2258 2bbe 8079 9d3e
00000280: ec25 8dbe dfce 99be 52a4 e2bc dd87 623e
00000290: 3353 7cbe 01e3 843e 4f6e d6bc 40a3 2b3e
000002a0: 3fd3 203d e202 5c3e 559c 11bd 3318 0b3e
000002b0: 0c08 763e d619 473d c334 ad3c 5b66 08bd
000002c0: 0efb 53be 9192 20be 9bb7 bd3d 962a b9bd
000002d0: 3bdf 243e 36d1 b43d 980a a53c db41 363f
000002e0: 0bb5 18be 65e8 34bd 1999 603e 646e d9bd
000002f0: d5ec 61be abc0 74be aa0a d7bd 2738 99be
00000300: 3170 0dbd efca b2bb 0a6d ccbe 68bf 083b
00000310: 24f8 7cbd 8dda d8be 5b14 6cbb e487 5dbd
00000320: a4dc 483c bf83 acbe 7bde 5cbe 94ef c73d
00000330: 9860 103d 08fc 9abd d88e 84bd a097 d1bd
00000340: 7187 503d d7bc fd3d 5980 3fbd a3f2 483e
00000350: 9a8c 70bb 0056 e2bb 0d8c 1d3e 8c32 313e
00000360: 8cd1 77be 3b68 d13d bf79 863d 2ba8 b53e
00000370: 327f 04be a1ea 80bc 1612 1abd e796 893e
00000380: d0f5 453b e7b4 b7bd bec1 17bd 96d6 0c3d
00000390: 122c 26be 161b 5cbe 8b9f 6c3e 3ab6 9c3e
000003a0: 979c 31be bfee adbb ec1a 013d 1486 ccbc
000003b0: 99f9 32be e07b 8ebd a821 7b3e 3b2a 073d
000003c0: 0364 c73d 7596 d63e c955 f8bd cbdb 973e
000003d0: 2a0c cd3d 8cf6 683c a8b9 25be 9166 e3bc
000003e0: f888 91bd 87ea 973e ef9e 4f3e 73e6 33be
000003f0: 5896 b73d fa60 7abe 1a98 0c3d f64f 9dbe
-0.018361876 0.07949859 0.32875675 0.079713844 -0.2881243 0.24008845 0.20999192 -0.36561453
0.12604061 0.092583574 0.23835918 -0.054428574 -0.08728305 -0.09971179 -0.06016089 -0.1828999
-0.090111956 0.5103694 0.044810798 -0.33306423 0.21014783 -0.060187194 0.24940626 -0.18231215
0.25370067 -0.13376337 -0.005120713 -0.024203429 0.30059806 -0.16415834 -0.15735422 -0.07906038
0.26634115 0.042557538 -0.039855625 0.1639823 -0.01182199 0.26312715 0.044194758 0.36848098
-0.001317974 0.37021205 0.1939923 0.08967971 -0.005033588 0.12231416 0.12158116 0.30836332
0.17700432 0.22968574 0.11181101 -0.09027144 0.037959915 0.27371016 0.098978765 -0.24562594
0.10679388 -0.16779184 0.14937493 -0.39232326 -0.081537195 -0.15023138 0.12276489 -0.16311754
-0.19766136 -0.030601295 0.16088615 0.09627405 0.20849757 0.039212067 0.020974308 -0.01649861
-0.3386034 0.1286326 -0.041092243 0.42104134 -0.02460694 0.10338361 0.0137246875 0.27988958
0.29948625 -0.059925828 -0.09566562 0.29225793 -0.12155064 -0.15306595 0.32269436 0.25172222
0.065786324 -0.11987795 -0.1282179 0.16246378 -0.09903146 -0.0061720517 0.26579157 -0.056709487
0.029797427 0.106252 -0.014684386 0.19853929 0.03783597 0.24945027 -0.11285608 -0.03537576
-0.29847515 0.16674715 0.043921217 0.015630975 -0.007904688 0.032513488 0.22470418 0.08785542
-0.37094557 0.06084798 -0.074780814 0.005275114 0.21605702 -0.27760452 -0.17646101 0.016873812
-0.057975546 -0.19363925 -0.26216325 0.06363603 0.15159248 -0.06740135 0.3698104 -0.03139425
-0.01956605 -0.030274525 -0.14336155 -0.3930402 -0.06371684 -0.124272704 -0.051472038 -0.06952675
0.3789829 0.20129238 0.025811967 0.25393608 -0.2707926 -0.15030769 -0.15761998 -0.024557792
-0.18156451 -0.18394731 -0.1410862 -0.17154886 0.03710983 0.04845835 0.0935443 -0.044805642
-0.015574407 -0.25079882 -0.1728528 -0.1807978 -0.21149406 -0.010069961 -0.16732839 0.3075676
-0.27567995 -0.30040643 -0.027666245 0.2212214 -0.24641113 0.2595444 -0.026175646 0.16761494
0.03926396 0.21485475 -0.03554948 0.1358345 0.24026507 0.048608623 0.021143323 -0.03330074
-0.20701239 -0.1568091 0.092635356 -0.09041326 0.1610078 0.08828966 0.020146653 0.7119424
-0.14912812 -0.04416694 0.21933402 -0.106167585 -0.22063 -0.23901622 -0.10500081 -0.29925653
-0.034530822 -0.0054563205 -0.3992694 0.002086604 -0.061760083 -0.4235424 -0.0036022875 -0.054084674
0.012259636 -0.33694264 -0.21569245 0.09762493 0.03524837 -0.075676024 -0.06472558 -0.10233998
0.050910417 0.12389534 -0.04675326 0.19623809 -0.0036704899 -0.0069072247 0.15385456 0.17304438
-0.2420103 0.102249585 0.0656619 0.35479864 -0.12939146 -0.01573688 -0.037614904 0.26872942
0.003020633 -0.08970051 -0.03705 0.034384333 -0.16227749 -0.21494707 0.23107736 0.30607778
-0.1734489 -0.005308002 0.031519815 -0.024966277 -0.17478026 -0.06957221 0.24524558 0.03299926
0.097358726 0.41911665 -0.12125737 0.29659876 0.10012086 0.014218938 -0.16184103 -0.027758868
-0.07106203 0.29671118 0.20275472 -0.17568378 0.08964223 -0.24451056 0.034324743 -0.30725068

network_body._body_endoder.seq_layers.0.bias f4 [128]
00000000: 378c 483c 4cf2 2c3d f70c e63c 8a6a 01bd
00000010: 0ef1 d93c 5692 b33c 5740 cb3c fb8b 243c
00000020: 0c9e f83b 4bc0 243d 410b 8fbb 2ef2 87bc
00000030: 335f 173c f77e 553c f648 7c3c 2040 fe3b
00000040: 4564 02bc 85dd 673d d38a 823c 5f69 d7ba
00000050: 9a06 91bc a9d3 563c 026e ca3c ac5a 133b
00000060: d0d0 233d 5b98 3abc 8c8a 523b 364b bd3c
00000070: 4be5 413c ace1 bc3c fa2b acbb 1951 713c
00000080: 2b39 f13b 9614 9f3c 1bf0 4f3c 0158 bcbc
00000090: 2a22 1f3d f974 b6bc 5a7c 073c 4033 61bc
000000a0: f7d7 bd3c 24b6 073d 833b ab3c 92df b3bb
000000b0: 5791 963c ee87 253c 5ffc 783a 2658 863c
000000c0: d6a0 9d3b b8fa b63b e159 cc3c dc33 74bc
000000d0: 8dc8 023c 5ebd ba3c ca79 30bb 52fc 87bc
000000e0: c379 1cbc c04e de3c e7c4 19bb b9c8 063d
000000f0: 1b43 c7bc 7622 873c 5658 263a b9a4 103d
00000100: f34b 893c afe0 3b3d 3e7c c5bb 4c45 af3c
00000110: 1fe3 353d 4224 953c 86bb 563d d9c8 7d3c
00000120: 32c5 573d 3205 00bc f0e5 e13c 8542 263d
00000130: 6e03 913c 5607 f1bc 80ed 0a3c 81c4 823c
00000140: d0a6 573c 7d4b 23bd 4440 d03b 22fe 053b
00000150: 274f c03c 294f bf3c 2a7c 8d3b 0f2d cd3c
00000160: d330 ac3c 263d ae3c 611b 093c 8ed4 503c
00000170: 5eec 0e3d 9241 0f3c 637d 913c d81e 343d
00000180: f826 8b3c aeea 3b3d 746f c53c 700b b83a
00000190: e2ba f53a 34bf dc3c 7e67 073b eeaf b23c
000001a0: d1ce 203d 1120 563d b9e6 f93c d9a0 15bd
000001b0: e046 76bc 7782 973c c40c 6d3b cd43 053c
000001c0: 1d8d 2b3d a7d9 ca3c 50ee 75bc e09b d53c
000001d0: 6d6e b9bb f907 a93c eed9 453c 5ff9 573d
000001e0: 31d9 803c 8e39 b03c dd95 2b3d 51bc b43c
000001f0: 43fd c53c 8e95 da3b e536 2a3d e4ce bfbc
0.012240461 0.04222326 0.028082354 -0.031595744 0.026604202 0.021920364 0.024810953 0.01004314
0.0075872 0.040222447 -0.0043653552 -0.016594972 0.009239006 0.013030759 0.015398255 0.007759109
-0.007958476 0.05660774 0.015935337 -0.0016434601 -0.017703343 0.013111987 0.024710659 0.0022484465
0.03999406 -0.011388863 0.0032126037 0.023107152 0.011834453 0.023056827 -0.005254266 0.014728808
0.0073615513 0.019418996 0.012691523 -0.022991182 0.03885094 -0.022272574 0.008269394 -0.013745129
0.02317427 0.033132687 0.0209024 -0.005489298 0.01837985 0.010103209 0.00094980554 0.016399454
0.004810433 0.005584087 0.024945201 -0.014904942 0.007982385 0.022795375 -0.002692806 -0.016599808
-0.009550515 0.02713716 -0.002346331 0.032906268 -0.02432399 0.016495924 0.00063455605 0.03531334
0.016759848 0.04586857 -0.0060267737 0.021395348 0.044406053 0.018205766 0.05242493 0.01548978
0.052678294 -0.007813739 0.027575463 0.04059078 0.01770183 -0.029422443 0.008479476 0.015962841
0.01316233 -0.039866913 0.0063553173 0.0020445664 0.023475243 0.023353176 0.00431778 0.0250459
0.021019375 0.021269392 0.008368344 0.0127459895 0.034893386 0.0087436605 0.017759984 0.043974727
0.016986355 0.045878105 0.024100997 0.0014041495 0.0018747712 0.026946642 0.0020661051 0.021812405
0.039259735 0.052276675 0.030505525 -0.03653035 -0.015031546 0.018494828 0.003617094 0.008133841
0.041882623 0.024761988 -0.015010431 0.026075304 -0.0056589157 0.020633684 0.012075884 0.052728053
0.015728565 0.02151182 0.041890968 0.022062453 0.024168616 0.0066706603 0.041556258 -0.023414083

network_body._body_endoder.seq_layers.2.weight f4 [128, 128]
00000000: 190a 9bbb be9b 423d 754a 8dbd 4892 05be
00000010: 2099 e33b 80e9 1dbc 420f 5abb 8eaa e3bd
00000020: b2d5 81bb 6129 24bc a717 f6bc 7a5a 2ebd
00000030: 377e b43c 8536 273c aa6d 9b3d 374b 973d
00000040: d9b9 0abe abcf e2bd cd9f 303d 3427 473d
00000050: 6870 ca3d aba3 c9bd 2043 a9bd ac78 92bd
00000060: 02e4 273e 2ab1 a83d 2c13 1dbe b047 4f3b
00000070: 0ef2 7d3d 2a22 073e 2150 c63d 289c e23d
00000080: 786b 17be 9b2d a43d 64d6 bb3d d664 4fbd
00000090: 1597 90bd c2e3 ffbd 2671 f53d 330a 75bc
000000a0: 6d6f 4a3e 11a1 8dbc 7bac 41bd dfc8 54be
000000b0: dd55 1cbd 0111 06be 6c78 b3bd c360 fbbd
000000c0: 57a2 79bd 145c e6bd 5c6a 61bd 8baf f6bc
000000d0: e706 943d f647 113e f3e8 b73d 0806 813d
000000e0: 9d65 7bba 9137 d63d 6a47 19bd 233c 883d
000000f0: 3771 613c e9f6 50be 8c70 d7bd d56e f33c
00000100: 525f 37be a389 333e 30df 08bc 93b7 203e
00000110: 84f5 813e 816a 5a3e 3493 fcbc 72c1 60bc
00000120: 56c0 053d 8a1b 3c3d 0acb bcbc 5be5 003e
00000130: cfdd 093d dab0 c9bc 0bc0 34be 6877 35be
00000140: 8376 a93d 8426 6a3d a099 8bbc f371 af3d
00000150: b07c 54bd 53bb 05bd 1d02 ab3c 3af8 cdbd
00000160: 4983 a33d 0a0c 3bbd a887 3fbe 6396 3f3d
00000170: 25a2 0abe 6836 82bd ac7c ab3c 8af9 a3bb
00000180: b185 3cbd f6e4 d4bc ecf8 37bb decb 40bd
00000190: f98c b3bd 2109 9a3d 65be 8abd 7daf 743d
000001a0: 26e8 343e c985 95bc 353f cebc 5630 f9bd
000001b0: 9438 1f3e 0a6e 1b3b a5d6 c13d a285 473d
000001c0: 60e7 26bd a683 1b3d 3e0d 433c c35b 1d3c
000001d0: cdc9 91bd fea2 503d 0ad8 1fbd 79db bd3d
000001e0: c2c8 69bd e743 30be a0bc b13c cbcd f8bc
000001f0: 90da e9bc 21a5 923d 9750 103d 7746 24bd
00000200: 7ec2 1bbe 8a75 b3bc b459 cabb 87d5 463d
00000210: 3751 21bd ff08 813d 508e 8e3d 235a 823c
00000220: 82d5 9d3d f674 04be 3a70 ef3d 8fdb 90bd
00000230: dc0b 91bc 22a3 a0bd 8401 ff3d 20a5 8e3b
00000240: bd64 32be b715 5ebd a1fb 5ebe 7eee 91bd
00000250: 17a4 b93d 43fe cabd 8bd2 463c f0c3 18be
00000260: 208c ae3d 48b1 573d 0afc f83c 97b4 d43c
00000270: 8693 e9bb ca6e 1ebe 11a5 0cbe 085f cdbd
00000280: 7489 2bbb 42e7 fc3c 7e4e 9f3d 5555 84bc
00000290: 28ef 32be 1dd6 25be f875 48bc 8fae 75be
000002a0: 0d88 abbd 7034 d93b 3a61 a93c afa7 b3bd
000002b0: a402 363b eaf6 0a3d b6f0 353e f20d a93d
000002c0: 18d2 21bd 397c 013e e9f4 39bc d501 51bd
000002d0: 5141 f0bb 8ca0 be3b 2a4d bd3d 9172 9abd
000002e0: 0e2c 2d3d 4697 35bd 9416 a73d 4606 36bd
000002f0: 13b3 57bd b22d 383d 251a cabd df07 82bd
00000300: 5c82 663d 693d febd 7ca6 e93d d409 b63d
00000310: eb82 b7bc fa11 27bd 940c 30be cd0f 97bd
00000320: 1f6f ca3b 71c9 d43d 5a2a 833c 7d26 693d
00000330: df95 e63d f6db 163d b2be 64bc 8464 ac3c
00000340: 7804 1e3e 6705 8fbe 90c1 1cbe 9ea2 e73d
00000350: 088a e63c 1c1f 51bb 42ab cbbd 6a1e 4a3d
00000360: 4fbb 9e3c 327f adbd 951f 8e3c 4c9b 10bd
00000370: 5e9e 913e 444e f1bd 7fad 0f3d 25d1 fc3d
00000380: 8ea1 c8bb ad0c 4f3c 8c28 88bd 0268 de3c
00000390: 05b6 09be e3d0 2a3c 7e08 0dbe b32d a03d
000003a0: 33f9 4ebe b035 1c3e 885e 883d d8c9 fbbd
000003b0: d21d 1c3e 08e9 06be ee40 233e b72c 9fbc
000003c0: bd64 873c e6f3 973d 860b 8dbd a1ae fd3d
000003d0: fa57 7bbd f936 bc3c fd63 0f3d 7335 4bbd
000003e0: 7f8e ee3c e19c 7e3d 5cd0 423d 3104 d83c
000003f0: eec1 1d3e ca31 7fbc c015 43ba 80d3 d33d
-0.0047314283 0.04751181 -0.06898967 -0.13044083 0.006945744 -0.00963819 -0.0033273255 -0.11116515
-0.003962242 -0.010019631 -0.030040575 -0.042566754 0.02203284 0.01020587 0.07589276 0.07387393
-0.13547458 -0.11074766 0.043121148 0.04862137 0.09884721 -0.0984567 -0.08264756 -0.071519226
0.16395572 0.08236916 -0.15339345 0.0031628422 0.06199842 0.13196626 0.09683252 0.11064941
-0.1478709 0.08016511 0.09171751 -0.050633274 -0.070600666 -0.12494613 0.11984472 -0.014956045
0.19769068 -0.017288717 -0.04728363 -0.20779751 -0.038167823 -0.13092424 -0.08763203 -0.12274315
-0.060945835 -0.11248031 -0.055033073 -0.030113002 0.07227879 0.14187607 0.089799784 0.062999785
-0.00095900317 0.10459817 -0.03742162 0.06652095 0.013759903 -0.20406689 -0.105195135 0.029715935
-0.17907456 0.17532973 -0.008353993 0.15695028 0.25382626 0.2132969 -0.03083191 -0.013717996
0.03265413 0.0459247 -0.023046035 0.12587492 0.0336588 -0.024620462 -0.17651384 -0.17721331
0.082745574 0.057165638 -0.017041028 0.08566656 -0.051876724 -0.03264935 0.020875031 -0.10057111
0.07984025 -0.04566578 -0.18704093 0.04677428 -0.13538416 -0.063580334 0.020933472 -0.0050041126
-0.046025936 -0.025988083 -0.0028071953 -0.047069423 -0.08767123 0.075212725 -0.06774596 0.05973767
0.17666683 -0.01825227 -0.025176624 -0.121674225 0.15548927 0.0023716711 0.09464768 0.048711427
-0.040748 0.037967347 0.011905013 0.009604397 -0.071185686 0.05093669 -0.03902439 0.09270377
-0.057076223 -0.17213403 0.021696389 -0.030371567 -0.028546602 0.07160402 0.035233106 -0.040106263
-0.15210912 -0.021906633 -0.006175244 0.04854348 -0.039384093 0.06300544 0.06960738 0.015912121
0.07706739 -0.12935242 0.116913274 -0.070731275 -0.01770585 -0.07843615 0.12451461 0.0043531805
-0.17421241 -0.054219928 -0.21775676 -0.07125567 0.09064501 -0.09911778 0.012135158 -0.14918494
0.085228205 0.052659303 0.03039362 0.025965018 -0.007128182 -0.1547195 -0.13734843 -0.100278914
-0.0026174458 0.030871991 0.07778643 -0.01615397 -0.17474043 -0.16194959 -0.012235157 -0.2399237
-0.08375559 0.0066285655 0.020676244 -0.087722175 0.002777257 0.03392688 0.17767605 0.08254613
-0.039507 0.12645043 -0.011349895 -0.051027138 -0.007332005 0.0058174785 0.092432335 -0.07541383
0.042278342 -0.04433372 0.08158603 -0.044439577 -0.052661013 0.044965453 -0.09868268 -0.063491575
0.056276664 -0.12414057 0.114087075 0.08888593 -0.022401294 -0.04078863 -0.17192298 -0.07376061
0.0061777974 0.103899844 0.016011406 0.05692147 0.112590544 0.036830865 -0.013961481 0.021044023
0.15431392 -0.2793381 -0.15308213 0.11310314 0.02814199 -0.0031909412 -0.09944774 0.04934541
0.019376425 -0.08471526 0.017349044 -0.035304353 0.28441137 -0.11782506 0.03507757 0.12344579
-0.0061227744 0.0126372995 -0.06648359 0.027149204 -0.13448341 0.010425779 -0.13772771 0.078212164
-0.2021225 0.15254855 0.066586554 -0.12294358 0.1524575 -0.13174832 0.15942737 -0.019430501
0.016527528 0.07419567 -0.068869635 0.123868234 -0.061363198 0.022975432 0.035007466 -0.04961152
0.029120682 0.06216133 0.04756199 0.026369186 0.1540601 -0.0155758355 -0.00074419007 0.10343075

network_body._body_endoder.seq_layers.2.bias f4 [128]
00000000: cd4a 023d 7f63 ee3c 2759 ecb9 6999 ae3c
00000010: 9191 c73b 47b8 263c f494 0d3d 0728 c33c
00000020: 0d69 48bd a590 403c d78a 623c 318b 9c3b
00000030: 9428 bc3c cc86 3a3c ba77 083c eda7 233d
00000040: c187 ec3b 9a45 eb3c 735c e23c 2259 123d
00000050: 8bfc 8d3c 8b78 253c 5a9f c53c 6340 be3c
00000060: 5f78 34bc bdd8 c63c 64fb df3c 2758 293d
00000070: 922b 4abd d485 f93c 57f2 923c e0f2 3cbc
00000080: 275a 44bc 266d e03b 4f47 643c 12ef 39bc
00000090: 542d 743c ba7a b1ba 2f86 75bc 10ce c23c
000000a0: ddb8 283c 888d b33c 0b8c c1bc 9c0f 303d
000000b0: f4f5 053d d2b4 813c f01c 033c 19b8 703c
000000c0: 9f29 18bc a7d6 833c 5712 03bb d507 ebbc
000000d0: e2ca de3c 954b 503c 1ede fc3c 3f9b 183d
000000e0: 04f8 1b3d b91c 593c f753 723c 5c8d 25bc
000000f0: a699 513c 3b86 803c 5167 0c3c ac70 bc3b
00000100: c147 a63c 7e08 223c 067a 883a fa3f c0bb
00000110: 3132 83bb 6a57 f63c 2f44 0139 1055 62bc
00000120: 54ba 02bd b7e0 4fba 72c3 533c 8d02 943c
00000130: 4bae 8a3c 4a8b da3c 299c cb3b 5900 69bb
00000140: 34eb 5b3d f110 b93c 3d60 2a3d ad1b ea3c
00000150: f0d8 95bd b79d dd3c 3f0b 8b3c d03e ca3c
00000160: 24a4 023d a057 1b3d b76f b73c f214 0b3c
00000170: e59f cbba 2618 623c 1835 9c3c d06f cd3c
00000180: 6752 013d 74e7 4e3c 94df 1e3c 4a41 343b
00000190: f80a be3c ad5b c23b 5d44 3b3c 1783 d33b
000001a0: d79e b83b d270 b83b 6f77 dd3c a532 9f3c
000001b0: 0cf7 8e3b 00f8 2cbc ac0c ebbb 19dd 913c
000001c0: 8f8b 2f3c ac57 6c3c 8aad d93c dfcd f7b9
000001d0: 81fd 1fbc c39c 2b3d d4c0 f7bb 5f3b 7b3c
000001e0: 04a3 d9bb 0226 09bc fefa 3139 3f65 243b
000001f0: 2805 033d 4f43 af3c f10f 963c 3bb9 f73c
0.031809617 0.029100178 -0.0004507985 0.021313386 0.006090351 0.010175771 0.03456588 0.023822797
-0.04892831 0.011753236 0.013827047 0.004777335 0.022968568 0.011384677 0.008329326 0.03995507
0.0072183316 0.028719712 0.027631974 0.035729535 0.017332336 0.01009954 0.024123836 0.023224061
-0.011015027 0.02427327 0.027341552 0.041343834 -0.04935796 0.030459322 0.017937822 -0.011532515
-0.011984385 0.006848949 0.013933017 -0.011348503 0.014903385 -0.0013540604 -0.014985605 0.023779899
0.010297981 0.021918073 -0.023626348 0.042983636 0.032705262 0.015833292 0.008002505 0.01469233
-0.009287267 0.016093565 -0.0019999945 -0.028690258 0.027196351 0.012713333 0.030867632 0.03725743
0.038078323 0.013251477 0.014790527 -0.0101045035 0.01279298 0.015689006 0.008569554 0.005750736
0.020297887 0.00988972 0.0010412342 -0.0058670016 -0.004003786 0.03007098 0.00012327799 -0.013814226
-0.031915978 -0.00079299085 0.012925016 0.018067623 0.016928812 0.026677746 0.006213684 -0.0035553186
0.053691104 0.022591086 0.041595686 0.02857765 -0.07316768 0.027052743 0.016973136 0.024688154
0.031894818 0.037925363 0.022392137 0.0084888805 -0.0015535323 0.013799703 0.019068286 0.02507773
0.031572726 0.012628425 0.00969686 0.0027504736 0.02319859 0.0059313388 0.011429873 0.006454836
0.0056341696 0.0056286836 0.02703449 0.019433329 0.0043629464 -0.010557175 -0.0071731415 0.017805623
0.010714426 0.0144251995 0.026572008 -0.00047264897 -0.00976503 0.041897546 -0.0075608287 0.015333979
-0.0066417474 -0.008370878 0.00016973537 0.0025084761 0.03198734 0.0213944 0.018318148 0.030239692

network_body._body_endoder.seq_layers.4.weight f4 [128, 128]
00000000: fbe3 983d e02b 2ebd 6afb 133d bde9 d33d
00000010: f5d2 523d 77b6 e7bd eea2 3ebd ce61 0d3e
00000020: f43b 88bd 92f1 89bc e5a8 db3c c120 13be
00000030: 7d62 9d3d 8298 fc3c 42c4 bebd 63b7 2f3c
00000040: c58c 91bd 7867 083d a2fa 453d edbb 473d
00000050: ebb8 00be 2159 d7bd 9299 24bd 2716 24bc
00000060: 8850 81bd e9dd 1fbd 1d88 75bc 7c31 d8bc
00000070: 76b0 aeb9 1479 c93d 09cd 263d ba5f c63b
00000080: da01 9b3c 3eb2 12be 0824 c73d 1eaa aa3d
00000090: 26af 2abe 5655 91bc e687 e8bc 7579 773d
000000a0: be6c f6bd 6a57 8d3b 760b 3a3d 8d80 073e
000000b0: dee9 c1bd 6534 773d 5364 f23d b0e4 85bd
000000c0: 2fcd 90bd 908f 4fbd 2842 4abe d58e a73b
000000d0: b37e 26bd a19c 24be 41da 9ebd cb64 49be
000000e0: ddc9 f43c 557e ed3c c69d d53c 6227 d53d
000000f0: 34b6 28bc c627 0b3e 31ad f23d dd06 e9bc
00000100: d04f 47be a35b 44bd 9871 e13d 7c14 41be
00000110: 9261 38bd 929a bc3d b6c6 053c 29f2 16bd
00000120: e05d cc3d 8602 d13d dc5f 263b d8cd fbbd
00000130: a684 d6bd 9de8 0fbe b741 abbd ba46 b3bc
00000140: 3e24 b63c ba0d 1c3e d3b8 9fbc d092 a5bd
00000150: b37a ee38 6302 db3d b9e2 adbd 7f57 32bd
00000160: 8bfa e73b e9af 073e 6abb 383e 53cb 17bb
00000170: f2a4 bbbd 5d7f 1bbe 0418 dd3c 7224 243d
00000180: 8d35 db3c 508e 14be d5ca 1f3c 8306 063e
00000190: 4554 61be 4e9e 88bc e6bc aabc d5c1 f9bc
000001a0: 8840 063d 9fb4 a4bc 7ad0 3d3d c23d 03bd
000001b0: feae 7cbe 718a 2cbe f24c aa3d b95b 1cbe
000001c0: 5caa c73d 3de1 863d 93f3 9abd 5ffb 62bd
000001d0: e7de 99bc dbbd 8dbd 9c55 e6bc e406 24be
000001e0: b6a8 23be 7b7d 81bc ce57 71bd 3241 563d
000001f0: d685 053e 2255 03be 8bff 2f3e 2f9e 0e3d
00000200: f3bc 42bd 9ea8 90bd 1198 bebd c108 39bc
00000210: 9c9a 01be f73b d53d 13d8 eabc 7d59 11be
00000220: e1a5 6bbd 66fa 2dbd 9928 c93b a893 b8bb
00000230: 0508 553c 9883 623d c372 cd3d 490c ae3d
00000240: 1640 c5bb 350c 113b 999a 193c 32d2 123d
00000250: 3983 a63b 258b 0bbe 03c6 78be c679 0f3d
00000260: 83d4 85be e00f 1d3d 35af 36be 554d 453e
00000270: 9a9f 4cbe 0aba 8ebd 3fc1 10bd 83a2 643c
00000280: 08a5 f1bd 6e7f 5d3d 782e 3f3e 2006 aebd
00000290: 410b 91bb 9503 b43d db65 b53c c255 bc3d
000002a0: 61aa e5bd 29fd c43c fff0 88bd 0730 5e3a
000002b0: a88e 763e f546 9fbc 1010 f2bc 8e4e 0dbc
000002c0: 0df1 61bd 6e1d 853c dd52 743d 5119 71bc
000002d0: 4b08 24bd e31a 83bc 67b9 dabd b0ca ed3c
000002e0: 4578 87bb 971a 943d 0b62 563d b910 973d
000002f0: 9ed8 253d 1835 dabc 96bd acbd be67 1bbe
00000300: 545d b3bb 238a f0bd 4a2e 183e cace 64bd
00000310: c591 053d 489f c7bd a38e 93bd f7c2 2c3e
00000320: 8692 03be 1aa8 2fbd 3628 f13d d9e7 6abc
00000330: 24ed 55bd 8a31 563d fce5 873d e271 02be
00000340: d0e2 87bb b29c 9cbd 0c39 153d fb6f bebd
00000350: 6f17 86bc 8784 4dbe 069d 63bd a859 693e
00000360: 5020 093c ade1 6a3e a71c f03d eca0 ecbd
00000370: b386 873d 4dc7 52be f203 6d3d 3751 43bd
00000380: aa74 e23d ed06 2bbd 5351 71bd 688b 543d
00000390: d1cc b73d 585d 2d3e 2f79 80ba 2bae ea3d
000003a0: 1e21 05bd f532 0fbd 7856 11bc d935 8bbd
000003b0: 6b6e 4e3c a06c 9e3d 3292 09be 6905 fc3b
000003c0: 97ba 26bd 513a 633e 621c 4fbd ae69 abbd
000003d0: b404 7abd 44c9 3c3e 9479 3e3d 5ec2 6fbd
000003e0: 456f acbc 2b0c 673d cf4b ca3d 3b9e c8bc
000003f0: 0552 b9ba 9461 503e 2dbd 45bd 4911 d0b9
0.07465359 -0.04252231 0.03612844 0.103473164 0.051470716 -0.11314099 -0.0465421 0.13806841
-0.0665206 -0.016838823 0.026813934 -0.14367963 0.07684801 0.03083444 -0.09314777 0.010724875
-0.07106928 0.0333018 0.048334725 0.048763204 -0.1257054 -0.10515047 -0.04018552 -0.010015047
-0.06314188 -0.03902999 -0.014986065 -0.026390783 -0.0003331934 0.09837547 0.04072288 0.006053892
0.018921781 -0.14325806 0.09723669 0.083332285 -0.16668376 -0.017740887 -0.028385114 0.060418565
-0.1203246 0.004313399 0.045421086 0.13232632 -0.09468435 0.0603527 0.118355416 -0.06537759
-0.07070386 -0.05067402 -0.19751799 0.0051134625 -0.040648174 -0.16075374 -0.077564724 -0.19667356
0.029881412 0.028990904 0.026076209 0.10407902 -0.010297347 0.13589391 0.1184944 -0.028445655
-0.1946404 -0.047938954 0.110079944 -0.1885547 -0.045014925 0.092091694 0.008165052 -0.036852036
0.09978843 0.102055594 0.0025386726 -0.12295121 -0.104745194 -0.14053579 -0.083621435 -0.021884311
0.022234078 0.15239611 -0.01949731 -0.08084643 0.00011371579 0.106938146 -0.084905095 -0.043540474
0.0070794276 0.13250698 0.18040243 -0.0023161962 -0.0916232 -0.15185304 0.02698899 0.04007382
0.026758933 -0.14507413 0.009752949 0.13088422 -0.22004803 -0.016677048 -0.020842027 -0.030487934
0.032776386 -0.020105658 0.046341397 -0.03204132 -0.24676129 -0.16849686 0.083154574 -0.15269364
0.0974929 0.065859295 -0.07565989 -0.055415507 -0.018783046 -0.06920978 -0.028116994 -0.16018254
-0.15982327 -0.015806904 -0.058921628 0.05230827 0.13039336 -0.12825444 0.17187326 0.034818824
-0.047543477 -0.07063411 -0.09306348 -0.011293591 -0.12656635 0.10411828 -0.028667485 -0.14194293
-0.05753124 -0.042475127 0.006138873 -0.0056328364 0.0130024 0.05530128 0.10031655 0.08498437
-0.0060196025 0.002213252 0.009375238 0.03584499 0.005081561 -0.13627298 -0.24294285 0.03502824
-0.26138696 0.038345218 -0.17840274 0.19267781 -0.19982758 -0.06969078 -0.035340544 0.013954761
-0.11799055 0.054076605 0.1867007 -0.08497262 -0.0044263904 0.08789746 0.022143295 0.091960445
-0.11214138 0.024046497 -0.06686591 0.00084757846 0.24077857 -0.019443015 -0.029548675 -0.008624686
-0.055161525 0.016249385 0.059649337 -0.014715509 -0.04004697 -0.016004032 -0.10679894 0.029027313
-0.0041342103 0.07231634 0.052339595 0.073762365 0.040489785 -0.026636645 -0.08434598 -0.15176293
-0.005473772 -0.117450975 0.14861408 -0.055861272 0.03260972 -0.09747177 -0.0720494 0.16871248
-0.12848863 -0.042884924 0.11775248 -0.014337503 -0.052228108 0.052293338 0.06635663 -0.12738755
-0.004146911 -0.07647075 0.036431357 -0.09298702 -0.016368596 -0.20070086 -0.05556967 0.22788107
0.00836952 0.22937651 0.11724215 -0.11554131 0.06617489 -0.2058384 0.05786509 -0.047684874
0.11057408 -0.04175465 -0.058915447 0.05189076 0.089746125 0.16930139 -0.000980174 0.11459001
-0.032502286 -0.034960706 -0.008870713 -0.0679738 0.012599568 0.07735562 -0.13434675 0.0076910746
-0.04070529 0.22190215 -0.050564177 -0.08369766 -0.06103964 0.18436152 0.046502665 -0.058534972
-0.021049151 0.05640809 0.098777406 -0.024489513 -0.0014138824 0.20349723 -0.048276115 -0.0003968573

network_body._body_endoder.seq_layers.4.bias f4 [128]
00000000: 959d 103d 2760 563c 2d1b ce3b 07aa 3f3c
00000010: af1e 023d c03d f53c 361f 0cbc 3b82 2f3c
00000020: ca69 96bc 211a 4b3d 12b2 a03b c938 0a3d
00000030: 105c d53c 3df2 24bc fbe7 c63c 2dd4 7538
00000040: d090 88bc 5c13 2c3c 1725 b43c ff21 8e3b
00000050: c77a 483d e826 f9bc a33a 893c 6b8f a23b
00000060: d928 be3c d261 973c 638b f8bc bfcf acbc
00000070: e6e5 4ebd a76c a8bc 00d3 3cbc 62be 143c
00000080: 55a6 903c c4c4 d9bb c2ee febc bca3 a839
00000090: 5938 333c 0bac c23c 6190 953c ac5a 7ebb
000000a0: de40 133d 5cd5 27bc f102 5dbb 18b2 d8bb
000000b0: fa60 213b 41fa 603c daaa 87bc ce92 b93c
000000c0: 9842 003b a135 423c 4b49 643c d88b 0b3d
000000d0: 6b50 743c 1fff 143c aa2e a7bc f7db 18bd
000000e0: 5b3e 113c 6dc5 083d cc4a 91bc f63a 93bc
000000f0: f3aa 323d 03f3 533c bb97 3a3b 954b 8abc
00000100: 1ec4 083c 47cd b13c 0e86 ffbc e6ff 683c
00000110: 15df 933b 81e5 92bb a205 353c 77fe e13b
00000120: 1e5d 273c 1906 d33c cca1 f93c 3b19 50bc
00000130: 72bc c93c 7954 f3bb ce9e 2cbc 10d0 14bd
00000140: 0f12 4e3c b3da ec3c b885 983c 816a 383c
00000150: 16ea 6dbd ef90 a63c 7e99 2dbc 84d7 0d3c
00000160: 2837 a63c 419f c43c 879d c33c eb41 863c
00000170: 0446 cc3b 39a7 07bc 263e 323b ecfe 933b
00000180: 34f4 993c 9109 a43b 612b b53c 953a 283d
00000190: f0ce 313c ae17 40bb aace d93c 8f60 443c
000001a0: 0a48 9dbb 37fb 903c f32b 0f3d e54b 92bc
000001b0: b713 ac3b 07dc 6d3c d6e2 ed3a 7105 a13b
000001c0: c34f 923c 2868 833c 1764 033d 5a11 8d3b
000001d0: 616e 61bc 8331 dd3a 614c 8bbc 8cb3 163b
000001e0: 965d f93c 2622 eb3c 362c c0ba 200f 83ba
000001f0: fa08 933c 75a8 3a3d cbb1 b1bc 4211 933c
0.035306532 0.013084448 0.0062898607 0.0116982525 0.031767543 0.029936671 -0.008552363 0.010712202
-0.018360991 0.049585465 0.00490404 0.03374556 0.026044875 -0.01006752 0.024280539 5.8610156e-05
-0.016670614 0.0105026625 0.021990342 0.0043375487 0.048945215 -0.03041406 0.016751593 0.0049609444
0.023212837 0.018479262 -0.030339902 -0.021095155 -0.050512217 -0.020559622 -0.011524916 0.009078594
0.017657438 -0.0066457707 -0.031119708 0.0003216545 0.010938727 0.023763677 0.018257322 -0.003881137
0.035950534 -0.01024374 -0.0033723677 -0.0066130273 0.0024624453 0.01373154 -0.01656096 0.02265301
0.0019570943 0.011853606 0.01393349 0.034068912 0.014911751 0.009094029 -0.020407993 -0.03731915
0.008864964 0.033391405 -0.017735861 -0.01797245 0.04362006 0.0129363565 0.0028471786 -0.016881743
0.008347539 0.02170433 -0.031191852 0.014221167 0.0045126774 -0.0044829254 0.011048706 0.0068967897
0.010215072 0.025759744 0.030472659 -0.012701328 0.02462599 -0.0074258414 -0.010535909 -0.036331236
0.012577548 0.028912878 0.01861845 0.011255861 -0.05808457 0.020332782 -0.010595677 0.00865734
0.020289972 0.02400172 0.023878826 0.016388854 0.0062339325 -0.008279615 0.0027197688 0.004516473
0.018793203 0.005006023 0.022115411 0.041071493 0.01085256 -0.002931099 0.026587803 0.011985912
-0.0047998475 0.017697914 0.034954023 -0.017858455 0.0052513736 0.014517791 0.0018149267 0.0049139787
0.017860299 0.016040877 0.032077875 0.004305047 -0.013759227 0.0016875718 -0.017004194 0.0022995202
0.030440133 0.028702807 -0.0014661613 -0.0009999014 0.017948616 0.04557081 -0.021691224 0.017952565

network_body._body_endoder.seq_layers.6.weight f4 [128, 128]
00000000: f635 ff3d 29bb 563d 9282 a23d b45c 37bd
00000010: 0997 5abd 15bf d53d cb8f 81bd 13d3 08be
00000020: a242 c23d 52e8 e43d 16b2 90bd 8b95 c13d
00000030: 3b0d 7bbd 3d3c 1c3c f726 853d 99fb 36bd
00000040: a636 8f3b e112 f93c c347 37be bc99 d1bd
00000050: bde5 af3d 5f29 34bd 6348 d33c e56c b3bd
00000060: 2e16 a73c 29ac b0bd b8f2 9cbd 0e77 27be
00000070: 455c 2fbe 7a53 a4bd 2613 1ebe 29c1 f9bc
00000080: 14cc 90bd 6c8b 06be d820 f6bd ab89 313e
00000090: 4874 e23d 01a0 4cbd 2d63 a03c 5776 983c
000000a0: 83cc 9bbd 600a 93bd 59aa d0bc 2ba1 5d3d
000000b0: dfe3 debd 22bb 05be f891 b93d 0b03 4bbd
000000c0: 324f 043e 2495 413e 6eae f8bc 8d0e 5dbc
000000d0: 3f73 2abc f581 f0bd 39a2 ebbc 5ad4 62be
000000e0: 7e17 b63d 456e 1f3e 7970 89bd ff74 e5bd
000000f0: 5df0 9a3d e33c 12be b1a8 38bd 94f2 c03c
00000100: 74f7 773d 0e95 8ebd 17d6 ee3d b9ba 2ebd
00000110: c036 073e 47a7 e7bc 3b64 1dbe 3983 a93d
00000120: 0364 1bbe 79ac f9bd 865b aa3c 3b50 4f3d
00000130: 2d3d a4bc 970d b1bc 5857 4f3d 9d25 8a3c
00000140: cce2 d13c 7c0c 49be 8787 963d a291 dd3c
00000150: a034 b1bd b59f 423a 1433 c63b 0f51 16be
00000160: 44c5 44be 3847 ecbd adcf 0d3d bb4e ae3d
00000170: e245 053e 10a2 44bc 233a ddbd 4ebc a83c
00000180: 1883 c6bb 1e4f eaba 5ec8 69bd 2a3d fd3d
00000190: 3c31 bb3d d87e 75bc 0d9a 0c3e 0c48 7cbb
000001a0: fd57 95bb 9fcb 9f3d 1f13 993c 889e c43c
000001b0: c0ec 9a3c b323 d2bc 5f3a c6bd dce7 fc3c
000001c0: 3960 073e 5e00 a03d a38e 80be a0cb 173e
000001d0: 6fd9 c2bd 1f07 6cbd 160e 3bbe 6b6b 40bd
000001e0: 91bc 173c ba35 fd3d 2547 ffbd 0fc5 283d
000001f0: ebd6 773d cf9a 1a3d 3df9 c23a 9d32 42bb
00000200: b264 483c cc5a 82bd aeda 333c 0cf8 d5bc
00000210: 97c6 303d a10b 8abd f2d4 453e 6dd9 883c
00000220: 69c6 9e3d 113a d93c 6660 b4bd 7c93 0a3e
00000230: dbb8 ccbd 746f 363e b599 883e 6fd7 aabc
00000240: 0140 9c3c f351 9cbd 2407 cb3d 1511 923c
00000250: 6f6e 393e 722b 553d 770f 70bd 0701 c4bc
00000260: 7ab3 adbd d831 903d 19fd 7c3d 95bb 9cbc
00000270: 4a9b 723d bb7d 9bbd db39 86be dd56 003d
00000280: c93f 013e 6fd6 3abe 0b53 8e3d 8ba9 9dbc
00000290: a1ce 1e3d da61 00bd b709 113e 6497 2b3d
000002a0: b6c7 243d a062 0cbd d791 9e3d 75d4 1dbe
000002b0: 4e5c e6bd 1903 853c bbea f13d da7d 553d
000002c0: 1c08 39be 2b26 82be 8f6a b43d 58ab 593d
000002d0: 1dc5 56be 8689 833c 9015 2ebe 8565 9cbc
000002e0: 79ee d7bd 2ee7 243d 4377 e23b 5de1 79bd
000002f0: d53b 04be 192c 0bbd 80b8 d0bd f8c2 0a3e
00000300: 9b67 493d ac9b d53d c8d8 0cbd fe9d 85bd
00000310: d0e2 753d f611 79bb f105 7a3e 9f2e 65be
00000320: 1487 c33d 1abf 55be d35a bdbd 7153 51bd
00000330: a93f 813d c716 81bd 11c0 c83c 655a b0bd
00000340: c4a4 e33c e1d3 d13d 88b2 c3bd 9282 2abd
00000350: 6a14 9fbd 4fc9 3e3d de21 aebc adde 0a3e
00000360: 0d3d 54bd e162 09be 327d 60bd 8cbc 6bbe
00000370: 9587 1fbd 1ac4 54bc a329 f23c dbae 5bbd
00000380: 9043 423c b03f cb3d 2e21 07be d379 8e3b
00000390: 03ab 8fbd 8aa0 5fbd 4717 f6bb 9aac f4bc
000003a0: 7df4 273d 6f00 a6bd 9581 25bd 019a 3d3d
000003b0: 4c1f 1cbc 9db7 10bc 6fbc 8dbd 53d7 013e
000003c0: 4e1e b63b d2e2 42be 560c 6d3c e4a6 c43d
000003d0: c1a5 003e 237b 513e 15c4 1fbe ba5d 9a3c
000003e0: 49ce b6bc ac0b e43c 0bc6 18be f6f0 f33d
000003f0: 7901 833b 0126 bebd 5826 343c a77b 093e
0.12461464 0.052424584 0.079350606 -0.044766143 -0.053366695 0.10436837 -0.063262545 -0.13361768
0.094853655 0.11177124 -0.07065217 0.09452351 -0.061291914 0.009535846 0.065015726 -0.044673536
0.0043705283 0.03040451 -0.17898469 -0.10234401 0.08588741 -0.043984767 0.025791353 -0.08761004
0.020396318 -0.08626587 -0.076634824 -0.1635401 -0.17125042 -0.080237344 -0.15436992 -0.030487614
-0.07070175 -0.13139123 -0.12017983 0.17337672 0.11057335 -0.04995728 0.01957854 0.018611116
-0.07607367 -0.07179713 -0.025471853 0.05410878 -0.10883307 -0.13059667 0.090610445 -0.04956345
0.12920836 0.18904549 -0.030356612 -0.013492239 -0.010403453 -0.11743537 -0.028763877 -0.22151318
0.088911995 0.15569408 -0.067109056 -0.11203956 0.07565377 -0.14281039 -0.04508275 0.02355317
0.060538724 -0.06962024 0.11661928 -0.04265854 0.13204479 -0.028278006 -0.15370266 0.08276982
-0.1517487 -0.121911 0.020795595 0.050613623 -0.020048702 -0.021612925 0.050620407 0.016863639
0.02562084 -0.19633669 0.073500685 0.027046982 -0.086526155 0.0007424311 0.0060485695 -0.14679359
-0.19215876 -0.115370214 0.034621883 0.085111104 0.1301494 -0.012001529 -0.10802104 0.020597603
-0.006058108 -0.0017876362 -0.05707585 0.12365182 0.0914025 -0.014983855 0.1373064 -0.0038495092
-0.004557608 0.078025095 0.018685875 0.024001375 0.01891172 -0.025651788 -0.09679102 0.030872278
0.132203 0.0781257 -0.25108823 0.1482377 -0.095141284 -0.05762398 -0.18267092 -0.04697744
0.009261266 0.12363763 -0.124647416 0.041203555 0.060507696 0.037745293 0.0014875304 -0.0029632219
0.012231039 -0.063649744 0.01097743 -0.026119255 0.04315814 -0.06740499 0.19319513 0.01670524
0.077526875 0.026516946 -0.08807449 0.13532823 -0.09996196 0.17815953 0.2667977 -0.02085468
0.019073488 -0.07632818 0.09913471 0.017830411 0.18108533 0.052043386 -0.0586085 -0.023926271
-0.08481498 0.07040757 0.06176481 -0.019132415 0.059230126 -0.075923406 -0.26216015 0.03133284
0.12621988 -0.18245862 0.06949433 -0.019245883 0.038771275 -0.03134332 0.14163862 0.041892424
0.04022952 -0.034273744 0.077426605 -0.15413077 -0.112480745 0.016236829 0.118123494 0.052121975
-0.180695 -0.25419745 0.08809387 0.05314192 -0.2097363 0.016056787 -0.17000413 -0.019091377
-0.10543532 0.040259533 0.0069111898 -0.06100594 -0.12913449 -0.0339776 -0.101914406 0.13550937
0.04917107 0.10430083 -0.034386426 -0.06524275 0.06003076 -0.003800509 0.24416329 -0.22381066
0.095472485 -0.2087368 -0.09245839 -0.051104967 0.0631097 -0.063031726 0.024505647 -0.086109914
0.027788527 0.10245491 -0.095555365 -0.041628428 -0.077675655 0.0465787 -0.021256384 0.13561507
-0.051816035 -0.13416626 -0.054806896 -0.23021144 -0.03894766 -0.012986207 0.02956087 -0.053633552
0.0118569285 0.09924257 -0.13196251 0.0043480187 -0.0701504 -0.05459646 -0.007510099 -0.02986746
0.041004647 -0.081055515 -0.040406782 0.046289448 -0.009528946 -0.008832839 -0.069207065 0.12679796
0.005557812 -0.19031838 0.014468273 0.09602144 0.1256323 0.20457129 -0.15602143 0.01884352
-0.022315161 0.027837597 -0.14919297 0.11911194 0.0039979783 -0.092845924 0.01099547 0.13426076

network_body._body_endoder.seq_layers.6.bias f4 [128]
00000000: 4ba2 2a3d 7708 063d d237 d53c 97d6 a5bc
00000010: 14af 08bc 2509 e83c 5ca8 ee3b e403 3dbd
00000020: ffa0 2d3c 4fd9 21bd b1a2 633c 5b4e 873c
00000030: f5e6 363d fb68 f73b 914f 4cbd 8585 663c
00000040: 12eb d33a 0ccc 68bc 0f05 7ebd 3678 d13c
00000050: c951 52bc 006e 3e3c a6cf 8a3b 9a79 a4bc
00000060: 6518 873c 1959 3fbc 009c 1c3d 5a77 29bc
00000070: 6183 073a 9b2a 793c b124 453d 6d00 5c3c
00000080: 702e 293d 323b 11bc 049e e43a ab38 183d
00000090: 449f cb3c 06ba a4bc 5c69 e4bc 0381 e93c
000000a0: c1ab d03c 0d3c 85bb 377a a1bc 1f5b 0b3d
000000b0: 07b7 333c 1e94 593c 6ce0 ec3b 1d79 b03c
000000c0: f49e 1b3d 5aeb 25bc 3ac6 463a 5e3d 2cbd
000000d0: d2b5 0a3d dfb2 893c 5f2e 11bc 1037 733c
000000e0: e2c9 693c a1ee 16bd f491 cebc 2920 4f3d
000000f0: c2f2 bd3b 005b ac3b 77e2 863c 7cca 23bc
00000100: 4eac a43b 8ea7 2f3c 1e86 373c 1704 a43c
00000110: a5ce d93c bee9 953c e8b2 eb3c 807e 87bd
00000120: bc25 7a3c 647e 1cbd 4db7 b9bc 578c 9abc
00000130: b1df 0e3c 3eec f33c 6739 b6bb a846 6c3d
00000140: a7c8 0bbb 157a 2f3c a450 e13c ba20 03bd
00000150: eeae 40bd c4e1 573a a69b 143c 6f3d d73c
00000160: 6725 10bd 805f 103d a98a c93b 4bab d13c
00000170: 29ac 1d3c d77c 483c 4d3f 38bd 5c1c 86bc
00000180: 4756 b33c f3e8 883c 0294 89bd eecd 603c
00000190: d46c 103d 02fb 1c3d 6018 2dbc 1c62 7b3c
000001a0: f479 e63c 74e0 803c a8ef 47bd 33e7 f8bb
000001b0: f515 1fbd 7f05 1abc d5b2 cd3c d386 c13c
000001c0: 9fe8 2fbd 4748 8c3c e8e5 1dba 4db8 b03c
000001d0: f4f9 1abd 50de 793a 19d5 c83c 712f 933c
000001e0: 5443 37bc 9476 ea3c 5221 763c 1bdf a7bc
000001f0: b0ae 483d 4070 533b 5168 ae3c 095d 58bd
0.04165868 0.032722916 0.026027594 -0.020243926 -0.008342523 0.028324673 0.0072832536 -0.04614629
0.0105974665 -0.039513882 0.013893769 0.016516855 0.04465385 0.0075503564 -0.049880568 0.0140699195
0.0016168079 -0.014208805 -0.062016543 0.025570016 -0.012836882 0.011622906 0.0042361794 -0.020077515
0.016491124 -0.011678957 0.03823471 -0.010343397 0.00051694183 0.015207912 0.048130695 0.013427836
0.041304052 -0.008864211 0.0017442112 0.037163418 0.024856217 -0.020108234 -0.02788227 0.0285039
0.025472524 -0.0040659965 -0.019711597 0.034022447 0.01096893 0.013279943 0.0072289016 0.021542126
0.037993386 -0.010126913 0.00075826386 -0.04205071 0.033864804 0.016808925 -0.008861153 0.014844671
0.014269324 -0.036848668 -0.02521608 0.05056778 0.0057967613 0.0052598715 0.016465409 -0.0099970065
0.005025423 0.0107211005 0.01120141 0.020021481 0.026587794 0.018299934 0.028771833 -0.06615925
0.015267786 -0.038206473 -0.022670412 -0.018865747 0.008720324 0.029775735 -0.005561042 0.05768457
-0.0021329315 0.010710259 0.027504273 -0.032013632 -0.047041826 0.0008235241 0.009070313 0.026274411
-0.03519192 0.035247326 0.006150563 0.025594374 0.009623566 0.012236795 -0.044982243 -0.016370945
0.021891726 0.016712641 -0.067176834 0.013720972 0.035260037 0.038325317 -0.0105648935 0.015343215
0.028134324 0.015732028 -0.04881254 -0.0075959205 -0.0388393 -0.009400724 0.025109688 0.02362386
-0.042946454 0.017124308 -0.00060233334 0.021572256 -0.03783603 0.00095317233 0.024515675 0.017966958
-0.011185486 0.028620996 0.015022593 -0.020492127 0.04899472 0.003226295 0.021289976 -0.0528231

network_body._body_endoder.seq_layers.8.weight f4 [128, 128]
00000000: 201c 76bd ec40 c43c ff74 9c3c d933 90bc
00000010: ae86 82bd 2446 823e f60b 183e d088 103c
00000020: f84f a6bd c183 1cbe 90e7 41bd 3eb8 433d
00000030: e176 183d 7415 e7bd a8a6 6cbd 71cc 08be
00000040: eec8 26bd 2228 95bc 088d b5bd 82e3 ea3d
00000050: 79d0 10bd 5583 573d a92f 17bd 2be1 ff3d
00000060: 5291 053d fa6f eb3d 25e0 89bd 93bf 9f3b
00000070: 84cf 41be 3fc0 ce3d b76d b13d 4811 42bd
00000080: e84f 48be b574 edbd 2408 92bc d412 8d3d
00000090: 6e58 3bbd 9f8e 83bd 93f6 dabc d810 c83d
000000a0: 42a0 e4bd 36fc d83b 9400 1fbc 5afe dbbd
000000b0: bcda f63d 97ce 24be 5109 19bc 0426 423e
000000c0: 54b8 4d3e 611e 3cbd a11a 013d 0912 58be
000000d0: 4560 0fbd 44a6 50bd eb36 05be f279 abbc
000000e0: e4e6 acbd 9535 893d f096 55bc 0969 92bd
000000f0: 0c75 6f3c 59bd afbd b8bb 23bd 9f6e 93bd
00000100: ef01 59bd 95b3 6fbd 946f 703d f537 2a3b
00000110: 245c e8bd 916a 13bd 86bc 44bb 7676 eebc
00000120: b835 233e 7f0f 1c3d 12fc f03d ef3b 5abe
00000130: 5004 57be 2bf7 6e3c a7bf adbd 02d1 183b
00000140: e64d 09bd 9216 21bd cc77 4d3c a8b2 c7bc
00000150: f382 163d b6bb 7e3c a78f 1d3e d325 79bc
00000160: 213f 0d3e 2846 e53c 52d2 8ebb 1585 db3d
00000170: 2ff1 56be b43b 253d 4c00 273e 4e7f 503a
00000180: c5d5 473e d343 cbbd 87b5 9bbb 686d efbc
00000190: 54f9 b0ba 8e98 f0bd fe98 27bd fdba 7d3d
000001a0: 0faf 9dbd 0223 9ab9 f2bc f1bb 7825 983c
000001b0: 032e 50be 235a b13c cf2a be3c cdf5 5ebd
000001c0: 1e10 043e 9945 05be 5daf 913d 2d00 63bc
000001d0: 45a9 df3c b9b9 7f3d 1608 1d3e 137b 9abc
000001e0: 0f21 6cbc 2174 25bd ba4d 883d b14f bd3c
000001f0: 6591 293d 336e 0bbe 6698 4a3d 2b52 07bd
00000200: cbc8 66bc 1db5 5abb 0386 1fba 4317 16be
00000210: 6127 29be d18c 21be 29d2 9abc 9809 5ebd
00000220: cd15 7bb9 1ffe 70bd a1b1 cfbd b887 c63d
00000230: 0609 b3bd b514 e43d 9084 25bd 8888 d63d
00000240: 1b73 893d d47b c4bd 134b 4d3c a569 79bd
00000250: 9c65 c0bc e08b c73d 9fbf 60bd 8d09 0ebd
00000260: ce0d 0f3e b4b0 893d c60f 0a3e ef36 94bd
00000270: 036d 0cbd 2249 72be f93f e8bd 4127 60bd
00000280: 4d53 8b3d 870a d03c d9c1 9abd 7d4f b8bd
00000290: a710 ca3b c9c9 783c cca8 143d 25ba 773d
000002a0: 85c6 b8ba 3600 d1bd cfa4 dbbd efab 89bd
000002b0: ee43 233d 9e47 a73d 236a 57bd a7eb 1b3e
000002c0: 84c3 b93c 4345 8cbd fcc5 30bc 9fac 973c
000002d0: e153 5fbe 91c2 6c3d fb21 f13c 599d 1fbd
000002e0: e03e 2ebd 4594 0d3e e0c6 a7bd 1f1c d53d
000002f0: a1da e4bc 63c2 d8bc 5884 2bbd dced f73d
00000300: e57c 8b3d c881 143d 7545 5a3d af86 a0bb
00000310: 75e4 1f3e f274 813d 3bf7 2d3d 9fee c73d
00000320: d46d 8e39 c6a2 1abd 6880 04be 8058 5abc
00000330: bec6 3fbe 977a f33d 9ca4 f4bc 98d8 933d
00000340: f0d5 563c 9409 6abd 79e3 9cbb 02d9 933d
00000350: 0283 d5bd f5f2 d7bd 93a6 c23d 94dc aebd
00000360: d6de 2d3c 12c5 2ebc 3cd4 28be 138d 81bd
00000370: 23f4 8d3d 9598 8bbd 56db a03d f7b1 a43d
00000380: 0122 4ebc 9390 c23d de12 75bd 02dc e4bc
00000390: 673a 3dbc 819c 05be 04b8 8e3d 39ea 40be
000003a0: 58e1 67bc ceee 7ebd e992 5dbd f4ba 333e
000003b0: 242d 293d 4815 cf3d 544c 063d 470d 093e
000003c0: f0c1 813b c566 4fbb 17ac 05be 351c 87be
000003d0: cd07 e2bd a92a 693e 5eac 013e 5c56 e53d
000003e0: b54b e5bd 241f d43d e2e2 bcbd 07d4 d73b
000003f0: d612 733d d259 663c cdd3 4cbd 7c10 0dbe
-0.060085416 0.023956738 0.019098757 -0.017602848 -0.06373344 0.25444138 0.14848313 0.008821681
-0.081207216 -0.15284635 -0.047339976 0.04778313 0.037222747 -0.11283389 -0.057776123 -0.13359238
-0.040718965 -0.018207613 -0.0886479 0.11469175 -0.035355065 0.052615482 -0.036910687 0.12494119
0.03260929 0.11495967 -0.06732205 0.0048751323 -0.18926817 0.10095262 0.086635046 -0.047379762
-0.19561732 -0.11594526 -0.017826147 0.06888357 -0.04573863 -0.06423687 -0.026728904 0.09768838
-0.11163379 0.0066218628 -0.009704728 -0.10741873 0.12053439 -0.16094433 -0.0093406 0.18959814
0.20089847 -0.04592741 0.031519536 -0.2110063 -0.03500392 -0.050939813 -0.13009231 -0.020932171
-0.084424764 0.06699673 -0.013036475 -0.0714894 0.0146153085 -0.08581037 -0.039973944 -0.07198834
-0.05298036 -0.058520872 0.05870016 0.0025973294 -0.113456994 -0.0359903 -0.0030019595 -0.029109221
0.15938461 0.038100716 0.117668286 -0.21311925 -0.20997739 0.014585297 -0.084838204 0.0023317938
-0.033521555 -0.039328165 0.012540769 -0.024377182 0.036745977 0.015547683 0.1538683 -0.015206772
0.13793613 0.027987555 -0.004358568 0.10718743 -0.20990442 0.04034014 0.16308707 0.000795354
0.1951514 -0.09925046 -0.0047518644 -0.029226974 -0.001350204 -0.117478475 -0.04091739 0.061945904
-0.076994054 -0.00029399252 -0.0073772604 0.018572554 -0.20330052 0.021649426 0.023213772 -0.054433633
0.12896773 -0.1301483 0.07113526 -0.013855022 0.027302394 0.06243298 0.15335116 -0.018857514
-0.014412179 -0.040393952 0.0665545 0.023109289 0.041398425 -0.13616256 0.049461745 -0.033037346
-0.014085959 -0.0033372112 -0.0006085338 -0.14657311 -0.16518928 -0.15776373 -0.01889904 -0.054208368
-0.00023945347 -0.0588361 -0.10141302 0.09693855 -0.087419555 0.11136762 -0.040409625 0.1047526
0.06711408 -0.09593931 0.012530106 -0.060891766 -0.023485951 0.09743476 -0.054870244 -0.034677077
0.1397011 0.067231566 0.1348258 -0.0723704 -0.03428365 -0.2366071 -0.11340327 -0.054724935
0.06802998 0.025395645 -0.07556505 -0.08999536 0.006166536 0.015184828 0.03629379 0.060480256
-0.0014097249 -0.10205118 -0.10724794 -0.06722247 0.039859705 0.08167957 -0.052591454 0.15226613
0.022676237 -0.06849148 -0.010789391 0.01851493 -0.21809341 0.05780274 0.029435148 -0.038968418
-0.04254043 0.13826092 -0.08192229 0.10405754 -0.027936282 -0.026459878 -0.04187426 0.12105915
0.06810931 0.03625658 0.053288896 -0.004898868 0.15614493 0.06321134 0.042472105 0.0976231
0.0002716618 -0.03775289 -0.12939608 -0.013326764 -0.18728158 0.118886165 -0.029863648 0.07219046
0.01311253 -0.05713804 -0.004787859 0.07219125 -0.104253784 -0.10544387 0.09504428 -0.08538166
0.01061221 -0.010667102 -0.16487211 -0.06325736 0.06931331 -0.06816212 0.07854335 0.080417566
-0.012581349 0.095002316 -0.059832446 -0.02793694 -0.011549569 -0.13047983 0.06968692 -0.18839349
-0.014152847 -0.06223946 -0.054095183 0.17551786 0.041302815 0.10111481 0.032787636 0.13383971
0.0039598867 -0.0031646949 -0.13053928 -0.26388708 -0.11036644 0.2277018 0.12663409 0.11198112
-0.111960806 0.10357502 -0.09222962 0.006586555 0.059344135 0.014059501 -0.050006676 -0.1377582

network_body._body_endoder.seq_layers.8.bias f4 [128]
00000000: eda3 e73c 9e67 a93a 6e97 34ba e864 a83c
00000010: 40d0 9b3c 6c79 3b3d 0d60 873c 7a99 263d
00000020: 0b51 243c 9b43 e43c fd1b 053d d7de 813c
00000030: b938 0e3d f11c 293d 8ae7 e23c c3a7 bf3c
00000040: 6cde 953c f9b4 783c 51b6 ea3b 542f 25bb
00000050: 3dd4 913c ad0d b33c cdb1 043d 894f 7c3c
00000060: e90f f13c 7cd4 2d3b 60c3 dd3c 627d dc3c
00000070: 631a bbba dfe2 b13c 6c93 183d 29c9 6d3c
00000080: 6e33 823c 51e4 b93b 1dc0 e43c 9e98 c03c
00000090: 0c9c 8abb 3150 1f3c c652 57bb c9c8 0e3d
000000a0: a775 793c 3906 293d f1b1 d53c bc28 893c
000000b0: f594 8d3c f993 bbbb 8668 0e3d e75d f23c
000000c0: 75ec d13c 70bc 113c eafb dd3c 2e2d 053d
000000d0: 97c9 d13c 427c bc3c 4c7e 8d3c 8c12 ab3c
000000e0: c24b fb3c 5df7 403d 49ff ed3c 0d8d 183d
000000f0: 0c17 bb3c eeb9 e6bb 8268 943c 4149 2e3d
00000100: 384c cc3c fa4a 1b3d 8e13 573c f7e4 d53c
00000110: af5f fe3c b695 1a3d 1bf9 993c 724a cd3c
00000120: aeee cb3c f3d5 b63c c059 943c f350 5a3c
00000130: 4d22 003d 025f 6e3c 00f4 a73c 32ef b63b
00000140: 3aae f73b 528f 0e3d d010 ba3c c229 853c
00000150: c3b7 3e3a 85fb e23c 2b45 d2bc c8af d73c
00000160: 2e68 7d3c 0784 d33c 591b 543c a7bf 69bc
00000170: a6e5 0e3d 540d fb3b 6c97 8c3c 123c 683c
00000180: 2a9d a93c 2123 243d f722 d43c 8ee9 c7bc
00000190: 8290 0b3d ec57 02bc 6990 013d 96f0 fa3c
000001a0: 6fd8 763c 1411 123d 0a38 a83c 1939 fc3c
000001b0: 98f3 5d3c 3139 5f3c 87f8 103d 2833 a33c
000001c0: da7c 0bbc f266 7e3c bb77 d63c a728 bb3c
000001d0: 03c2 093d 262b 703c cd61 043d 3fbd 153d
000001e0: 812a e83c d895 983c 6d02 ef3b 3b05 eb3c
000001f0: 70a3 023c ac17 fc3c 9252 a83c 7063 183d
0.028276408 0.0012924557 -0.000688902 0.020555928 0.0190202 0.045770094 0.016525293 0.04067371
0.010029088 0.027864268 0.032497395 0.015853329 0.034722064 0.041287366 0.027698297 0.023395425
0.018294536 0.015179866 0.007162847 -0.0025205212 0.017801398 0.021857107 0.032396127 0.015399822
0.029426532 0.0026524356 0.027070701 0.026915256 -0.0014274832 0.021714626 0.037249967 0.014513292
0.015893664 0.0056729694 0.027923638 0.023510274 -0.004230028 0.009723709 -0.0032855733 0.034859452
0.015225804 0.0412657 0.026085826 0.016743056 0.017282942 -0.005724427 0.03476765 0.029585792
0.025625447 0.008895025 0.027097661 0.03251379 0.02560882 0.02300847 0.017272137 0.020882867
0.030675773 0.047110904 0.029052394 0.03724389 0.022838138 -0.0070412075 0.01811624 0.04255033
0.024938688 0.0379133 0.013127221 0.026110156 0.031051485 0.03774043 0.01879554 0.025059912
0.024894085 0.022318816 0.018109202 0.013324964 0.03128271 0.014549019 0.02050209 0.0055827135
0.007558611 0.03480465 0.022713095 0.016255263 0.00072753074 0.027707824 -0.025667747 0.026328936
0.015466733 0.025819791 0.012945973 -0.014266885 0.03488698 0.007661501 0.017162047 0.014174478
0.020704824 0.040072564 0.025895579 -0.02440336 0.03407336 -0.0079555325 0.03163186 0.030632298
0.01506625 0.03566082 0.020534534 0.030788945 0.013546847 0.013624475 0.035393264 0.019921854
-0.008513654 0.015527474 0.026180139 0.022846533 0.03363229 0.014658725 0.032319833 0.036557432
0.02834058 0.018626139 0.0072939903 0.028689018 0.007973537 0.030773006 0.020547185 0.037204206

action_model._continuous_distribution.log_sigma f4 [1, 2]
00000000: 7f76 a7be 7ab4 9ebe
-0.32707593 -0.30997068
