results/ppo/Move Behavior/Move Behavior-999997.onnx (onnx, 291429 bytes, 13 tensors)

network_body._body_endoder.seq_layers.0.weight f4 [128, 36]
000000 cf 69 96 bc 24 b4 a5 3d a3 e8 a7 3e 48 20 a3 3d
       -0.018361 0.08091 0.32794675 0.079651415
000010 99 79 93 be 20 a5 76 3e 5b 3d 56 3e f8 43 bc be
       -0.2880371 0.24086428 0.20921843 -0.36770606
000020 fe f5 f9 3d 54 24 bf 3d 02 e0 75 3e 55 8f 63 bd
       0.122051224 0.09333101 0.24011233 -0.055556614
000030 71 7c b8 bd 79 79 cf bd 7b d4 81 bd 19 d6 3b be
       -0.0900811 -0.10130591 -0.063393556 -0.1834339
000040 27 0b bd bd 6e 9c 02 3f 78 27 3f 3d 06 0e aa be
       -0.09230643 0.5101994 0.0466685 -0.33213824
000050 e8 3d 5a 3e 6f 5b 75 bd 0d 44 81 3e 92 f7 3a be
       0.21312678 -0.05990165 0.2524723 -0.18258503
000060 ec 76 83 3e cd 40 09 be c1 09 a5 bb fe 35 c6 bc
       0.25676668 -0.13403626 -0.005036563 -0.024195667
000070 b6 bc 99 3e 16 de 27 be 6c 1f 21 be 67 2f a3 bd
       0.30026788 -0.16393313 -0.15734643 -0.07968026
000080 de 5d 88 3e d0 50 2e 3d a7 3f 23 bd fa ea 27 3e
       0.26634115 0.042557538 -0.039855625 0.1639823
000090 09 e3 41 bc e1 1d 88 3e b2 34 32 3d ba cd bc 3e
       -0.011833915 0.26585296 0.043507285 0.36875707
0000a0 0f 62 b9 ba 09 49 be 3e c0 b3 47 3e fe 3a b5 3d
       -0.0014143604 0.37165096 0.19502163 0.088491425
0000b0 28 03 d8 39 96 12 fc 3d d0 21 f9 3d a2 1f 9d 3e
       0.00041201082 0.123082325 0.12164652 0.30688196
0000c0 26 5c 34 3e a7 ec 6a 3e e6 b9 e0 3d 14 9c b5 bd
       0.17613277 0.22941838 0.10972957 -0.0886766
0000d0 5a 64 1c 3d 43 02 8c 3e 3c d8 d1 3d ad d5 7a be
       0.03818164 0.27345476 0.102463216 -0.24495573
0000e0 9a 48 d8 3d e9 0e 2c be 23 49 1b 3e ce 0a c9 be
       0.10560723 -0.16802563 0.15164618 -0.39266056
0000f0 30 56 a2 bd ae 2e 1a be 79 d6 fb 3d 22 06 27 be
       -0.07926595 -0.1505687 0.12296767 -0.16310933
000100 f7 ae 4a be e0 d1 fd bc 7e c1 24 3e 47 3a c5 3d
       -0.19793306 -0.030983865 0.16089436 0.09630256
000110 63 80 55 3e d5 9c 20 3d 50 d2 ab 3c 18 28 87 bc
       0.20849757 0.039212067 0.020974308 -0.01649861
000120 96 5d ad be 6a 05 04 3e c9 b8 28 bd ca 1a d7 3e
       -0.33860463 0.1289269 -0.04119185 0.42012626
000130 24 72 ca bc 4d 9a d1 3d 18 79 7e 3c 74 26 90 3e
       -0.02471263 0.10234509 0.015531801 0.28154337
000140 c2 f3 9b 3e 3c 00 7a bd e9 7b c7 bd b2 b1 95 3e
       0.3045941 -0.06103538 -0.09740431 0.29237133
000150 b3 cc fb bd 03 f1 1c be 20 b5 a6 3e cb ee 80 3e
       -0.12294903 -0.15326314 0.32560062 0.25182185
000160 29 e0 90 3d 38 2e f5 bd d0 90 01 be 2a c4 25 3e
       0.07074005 -0.11971706 -0.12652898 0.16188112
000170 4d 15 d3 bd 5b 44 06 bc 6c d5 86 3e 71 2f 6e bd
       -0.10306797 -0.008195008 0.26334703 -0.058150712
000180 50 13 e0 3c 09 a7 d6 3d a8 5b 6e bc 6b 39 4b 3e
       0.027352959 0.10481078 -0.01454822 0.19846122
000190 5b f0 1b 3d 68 22 7f 3e 07 4a e7 bd a9 1e 11 bd
       0.038071018 0.24915469 -0.112934165 -0.03542963
0001a0 bc d1 98 be c4 bf 2a 3e bc e6 33 3d 88 0c 80 3c
       -0.29847515 0.16674715 0.043921217 0.015630975
0001b0 f9 7d 01 bc d1 8a 08 3d 3e d6 65 3e 6c 3e b3 3d
       -0.007903569 0.03333551 0.22445008 0.087521404
0001c0 a7 c5 bd be ad 19 7d 3d 0d 39 95 bd 49 27 05 3c
       -0.3706486 0.061792064 -0.07286272 0.008127042
0001d0 85 27 5d 3e 7e a1 8d be 38 5c 35 be a8 08 98 3c
       0.21597107 -0.2766227 -0.1771096 0.018558815
0001e0 d1 b3 6e bd 04 33 47 be cc 67 84 be 45 2d 84 3d
       -0.058276955 -0.19453055 -0.2586044 0.06453947
0001f0 10 1d 19 3e 32 77 88 bd 65 72 bd 3e 80 a3 fa bc
       0.14952493 -0.0666336 0.3700134 -0.030595541
000200 7c 8b ae bc 44 f4 00 bd b3 43 12 be cc d3 c9 be
       -0.021306746 -0.03148295 -0.14283638 -0.394194
000210 a8 6a 81 bd cd 6f 00 be aa 85 52 bd 28 0b 8e bd
       -0.06319171 -0.12542649 -0.051397003 -0.06935722
000220 d1 0e c2 3e 67 a4 4e 3e 2a d7 d4 3c bb c3 81 3e
       0.3790193 0.20179902 0.025981504 0.25344643
000230 54 a5 8a be 42 ea 19 be 22 67 21 be 6c 2d c9 bc
       -0.2707926 -0.15030769 -0.15761998 -0.024557792
000240 94 eb 39 be 70 84 3c be c0 2a 10 be a5 b1 2f be
       -0.18156272 -0.18409896 -0.14078808 -0.1715761
000250 3d 24 18 3d dc 05 47 3d 13 47 be 3d 36 50 2e bd
       0.037143935 0.048589572 0.092909 -0.042556964
000260 54 8c 80 bc 6c 2a 80 be ca a6 2d be de 22 37 be
       -0.015691914 -0.25032365 -0.16958156 -0.17884395
000270 55 27 58 be 37 56 0d bc 33 65 28 be 9f c7 9d 3e
       -0.21108754 -0.008626512 -0.16444854 0.3081636
000280 86 85 8b be 3e af 99 be 57 b9 f4 bc 3e 99 63 3e
       -0.27250308 -0.30016512 -0.029873533 0.22226426
000290 ca a3 7a be 17 b9 84 3e 67 dc ea bc 9c 47 2c 3e
       -0.24476543 0.25922462 -0.02866955 0.16824192
0002a0 31 9c 16 3d 3d a7 5c 3e 8a 73 10 bd 8d 60 0b 3e
       0.03677005 0.21548171 -0.035266437 0.1361105
0002b0 84 6a 76 3e 04 5c 47 3d 87 77 af 3c 1c 13 07 bd
       0.2406407 0.048671737 0.0214193 -0.03297721
0002c0 0e fb 53 be 91 92 20 be 9b b7 bd 3d 96 2a b9 bd
       -0.20701239 -0.1568091 0.092635356 -0.09041326
0002d0 59 dd 24 3e 72 50 b4 3d b6 16 a8 3c 09 06 36 3f
       0.16100062 0.08804406 0.020518642 0.7110296
0002e0 89 fd 18 be af ab 35 bd 79 6d 64 3e df 52 db bd
       -0.14940466 -0.044353183 0.22307386 -0.10709166
0002f0 93 41 5d be a3 f4 74 be c3 d0 d7 bd 56 00 99 be
       -0.21607046 -0.23921447 -0.10537865 -0.2988307
000300 28 6c 09 bd 07 83 c5 bb 21 fc cc be 69 dc 1c 3b
       -0.03355041 -0.0060275826 -0.4003611 0.0023935086
000310 fe 8c 83 bd a8 51 d8 be 37 7a 26 bb 92 e2 65 bd
       -0.064233765 -0.422498 -0.0025402436 -0.056124277
000320 b7 b7 33 3c 3c 72 ac be 60 ce 5d be 3d c5 c5 3d
       0.010969094 -0.33680904 -0.21660757 0.09656761
000330 04 a1 0c 3d 5f 26 9d bd f3 a9 84 bd b1 7d d1 bd
       0.034333244 -0.07673334 -0.06477728 -0.10229052
000340 4f 78 4e 3d a1 ee fd 3d 71 4c 3f bd 86 d1 48 3e
       0.050407704 0.123990305 -0.04670376 0.19611177
000350 9a 8c 70 bb 00 56 e2 bb 0d 8c 1d 3e 8c 32 31 3e
       -0.0036704899 -0.0069072247 0.15385456 0.17304438
000360 c5 cf 77 be bc 8a cf 3d 98 70 87 3d 91 6f b5 3e
       -0.24200352 0.10133883 0.066132724 0.3543668
000370 57 9e 04 be 4d e2 8c bc f9 ca 12 bd 6c 37 8a 3e
       -0.12951027 -0.017197752 -0.0358381 0.2699541
000380 1e cf 1d 3c a3 c0 b9 bd b9 5e 23 bd cb d4 11 3d
       0.0096319 -0.09069946 -0.039885256 0.035603326
000390 78 2a 25 be 55 ec 5b be f7 e3 6e 3e 63 81 9c 3e
       -0.16129482 -0.21476872 0.23329149 0.30567464
0003a0 21 bf 2b be fe a5 77 bb 57 3d 08 3d b3 c4 d4 bc
       -0.16772129 -0.0037788148 0.033261623 -0.0259727
0003b0 ef 34 35 be c9 ac 8f bd fb 5a 7a 3e 46 23 05 3d
       -0.17695974 -0.07015378 0.24448769 0.032504342
0003c0 a7 d6 c5 3d 95 55 d6 3e 4f 49 f9 bd f3 d2 97 3e
       0.09660082 0.4186217 -0.12172186 0.2965313
0003d0 24 ea cc 3d 1e a3 69 3c 5c cb 25 be ae 65 e6 bc
       0.10005596 0.014260082 -0.16190857 -0.028124657
0003e0 f8 88 91 bd 87 ea 97 3e ef 9e 4f 3e 73 e6 33 be
       -0.07106203 0.29671118 0.20275472 -0.17568378
0003f0 e7 96 b7 3d 6d b4 7b be 3c d7 11 3d 88 ce 9c be
       0.08964329 -0.24580546 0.035605654 -0.3062632

network_body._body_endoder.seq_layers.0.bias f4 [128]
000000 c8 ac 48 3c ef fa 2c 3d 3a 69 e5 3c c5 b8 00 bd
       0.0122482255 0.042231496 0.028004277 -0.03142621
000010 d2 33 dc 3c 20 fa b3 3c bc b2 ca 3c 5f 7e 26 3c
       0.026880179 0.021969855 0.02474343 0.010161965
000020 55 b1 ed 3b d8 07 26 3d 13 db 7d bb 90 8c 85 bc
       0.0072538056 0.040534824 -0.0038735315 -0.016302377
000030 c8 9c 20 3c 0f 18 53 3c 59 d1 84 3c e0 71 f7 3b
       0.009803005 0.012884154 0.016213106 0.0075514168
000040 49 19 04 bc 02 95 66 3d 7d 93 83 3c c4 29 cb ba
       -0.008062669 0.05629445 0.016061539 -0.0015500118
000050 76 d5 93 bc 95 c3 59 3c e5 3d cc 3c e2 7b 18 3b
       -0.018046122 0.013291259 0.024931857 0.00232672
000060 aa 89 21 3d b7 ef 39 bc ae 7d 6d 3b c8 4f bb 3c
       0.039437927 -0.011348656 0.003623824 0.022865191
000070 62 08 3c 3c 4d fc b9 3c de d4 ae bb da 25 69 3c
       0.011476608 0.022703314 -0.0053354343 0.014230216
000080 15 4f 01 3c a4 91 9d 3c b1 2f 56 3c 81 fe ba bc
       0.00789239 0.019234486 0.013072894 -0.022826435
000090 aa f9 1f 3d 2c 1a b4 bc cd 69 06 3c 4c 62 60 bc
       0.039056458 -0.021985136 0.008203936 -0.013695311
0000a0 1c 0f bc 3c ca 73 09 3d 35 b7 ad 3c 77 ab ca bb
       0.022956423 0.03355769 0.021205524 -0.006184991
0000b0 9b 1f 96 3c 30 37 24 3c af 6c 83 3a df 81 89 3c
       0.018325618 0.010022923 0.0010026897 0.01678556
0000c0 5c b4 b9 3b 62 b4 b7 3b 78 85 ce 3c 3d 45 6b bc
       0.0056672525 0.00560622 0.025210127 -0.014359769
0000d0 30 ca fc 3b d0 43 b9 3c b5 02 32 bb 6a f4 89 bc
       0.0077145323 0.022615343 -0.0027162258 -0.016840179
0000e0 c3 a2 24 bc 12 0a de 3c 33 a0 17 bb 85 ee 07 3d
       -0.010048571 0.027104411 -0.0023136258 0.033186454
0000f0 20 dd c7 bc ce 6a 85 3c dc 3d 42 3a 12 78 10 3d
       -0.024397433 0.01628628 0.00074097305 0.035270758
000100 8d f9 88 3c 47 c8 3c 3d 08 db bd bb 7c c4 b2 3c
       0.016720558 0.046089437 -0.005793933 0.021822207
000110 8d dd 35 3d 07 0e 97 3c ec a2 56 3d 1d cd 7d 3c
       0.04440074 0.018439306 0.05240147 0.015490797
000120 01 75 59 3d 68 73 bb bb 98 9a e2 3c a6 1c 28 3d
       0.0530901 -0.0057205446 0.027661607 0.041042946
000130 d4 9b 8e 3c 21 9c f2 bc b7 4d 0b 3c 84 27 80 3c
       0.017408289 -0.029615464 0.008502415 0.015643843
000140 ae 81 5d 3c 8b cb 22 bd 09 c5 d5 3b 52 0b 22 3b
       0.013519688 -0.039744895 0.0065237326 0.0024725986
000150 42 ab c4 3c a2 b1 c0 3c 2f bb 84 3b e4 a1 d1 3c
       0.024007443 0.023522202 0.0040506343 0.02558989
000160 2f 8d ae 3c 7c 71 ad 3c ab e5 06 3c 41 e7 54 3c
       0.021307556 0.021172278 0.008233468 0.012994588
000170 e4 da 0e 3d 15 9a 0f 3c f8 30 96 3c f6 a6 34 3d
       0.03487672 0.008764763 0.018333897 0.04410454
000180 7b 9c 89 3c 8b 2f 3b 3d 37 42 c9 3c 92 6d 03 3b
       0.016798249 0.045699637 0.024567707 0.0020054323
000190 fb 51 46 3b 14 3c d7 3c ce 6c fe 3a 53 39 ba 3c
       0.0030261267 0.026273765 0.0019411088 0.022732412
0001a0 f8 ec 1e 3d 4d 7d 56 3d 5b 36 f7 3c 41 6f 13 bd
       0.03880021 0.05236559 0.030177286 -0.035994772
0001b0 25 93 7a bc f4 b1 91 3c 2e 5a 6e 3b 7e 99 09 3c
       -0.015293871 0.01778505 0.003636967 0.008398412
0001c0 6e 1b 2a 3d 2f 95 ca 3c 8a 7c 76 bc 27 da d4 3c
       0.041530065 0.02472934 -0.015044341 0.02598293
0001d0 34 0b b4 bb 8e 4b a7 3c 41 07 46 3c 1d 61 55 3d
       -0.0054944996 0.02042177 0.01208669 0.052094568
0001e0 ce 6c 79 3c ae b4 a5 3c bb 7a 2b 3d 93 91 b4 3c
       0.015223695 0.020227756 0.04186509 0.022042071
0001f0 42 23 c7 3c af 85 e6 3b bd 05 2a 3d 20 ea ba bc
       0.024308804 0.0070349793 0.04150938 -0.022816718

network_body._body_endoder.seq_layers.2.weight f4 [128, 128]
000000 f2 46 98 bb d4 22 41 3d 2b 71 8c bd 58 73 05 be
       -0.004647129 0.047152355 -0.068575226 -0.13032281
000010 25 04 f6 3b 1b dc 1b bc 50 1b 62 bb 5d 9f e2 bd
       0.0075078183 -0.009512926 -0.0034501143 -0.110655524
000020 da b2 98 bb 94 b3 22 bc ef 81 f2 bc 6a b8 31 bd
       -0.0046599926 -0.00993051 -0.029602973 -0.04338876
000030 8c 87 b9 3c 2e 85 2a 3c 15 ac 9b 3d 38 9a 97 3d
       0.022647642 0.010407729 0.076011814 0.07402462
000040 4f 75 0a be 16 06 e4 bd c8 3c 33 3d 10 ff 49 3d
       -0.13521312 -0.11133973 0.043759137 0.049315512
000050 9a 40 cb 3d 3f 2a ca bd e6 59 a8 bd 49 e4 91 bd
       0.09924431 -0.09871339 -0.08220272 -0.0712362
000060 3a 05 28 3e 8e 83 a7 3d a9 86 1c be ad 75 85 3b
       0.16408244 0.08179389 -0.15285744 0.004072866
000070 33 64 7d 3d f7 36 07 3e 83 c2 c8 3d dc 23 e3 3d
       0.061863136 0.13204561 0.09802725 0.11090824
000080 13 90 17 be b2 cb a3 3d d3 0e bd 3d 5a 47 50 bd
       -0.14801054 0.07997836 0.09231343 -0.050849296
000090 39 92 90 bd d4 8f ff bd e0 b2 f5 3d 18 a0 71 bc
       -0.0705914 -0.12478605 0.11997008 -0.014747642
0000a0 b0 0b 4b 3e 7d 8b 87 bc c0 3f 43 bd 3a f7 53 be
       0.19828677 -0.016546005 -0.04766822 -0.20699778
0000b0 47 26 1d bd c9 c7 05 be c1 bf b3 bd bc 2c fb bd
       -0.038366582 -0.13064493 -0.087768085 -0.12264392
0000c0 d0 fb 77 bd 64 2f e6 bd 5f 83 5e bd 3a c5 f4 bc
       -0.06054288 -0.11239508 -0.054324504 -0.029879201
0000d0 b5 f5 93 3d 0f eb 10 3e d3 30 b7 3d c3 cd 80 3d
       0.07224599 0.14152168 0.08944859 0.06289246
0000e0 05 3a c2 b9 20 b8 d8 3d e4 8c 1a bd 9d 03 8a 3d
       -0.0003704579 0.10581994 -0.03773202 0.067389704
0000f0 1c fc 5f 3c fa b8 50 be 92 da d5 bd 02 ee f3 3c
       0.013670947 -0.20383063 -0.104420796 0.029776577
000100 f3 e0 36 be 50 0f 33 3e 4e f4 f9 bb c2 d8 20 3e
       -0.17859249 0.1748631 -0.0076280003 0.15707687
000110 12 bf 81 3e ce 3c 5a 3e 37 0a ec bc b1 ac 5e bc
       0.25341088 0.21312258 -0.028813465 -0.0135909775
000120 de 8d 08 3d 1d cd 3e 3d 6c 2c bc bc 4a 9c 01 3e
       0.03333842 0.04658233 -0.0229704 0.12657276
000130 a6 f3 06 3d d4 19 cf bc 74 ec 34 be c7 9e 36 be
       0.032947205 -0.02528087 -0.17668325 -0.17834006
000140 59 c8 a9 3d 5e fc 69 3d 79 47 89 bc a6 21 af 3d
       0.082901664 0.05712544 -0.016757714 0.0855134
000150 0c 76 51 bd 94 89 05 bd 4c a2 b2 3c f2 fa cd bd
       -0.05113797 -0.032601908 0.021805905 -0.1005763
000160 fe 37 a3 3d 5a e6 3d bd 9a eb 3f be 3f 9c 3f 3d
       0.07969664 -0.04636226 -0.18742219 0.046779867
000170 ab 0b 0b be 2a ba 81 bd a4 91 aa 3c 81 a5 a7 bb
       -0.1357867 -0.06334336 0.0208214 -0.005116165
000180 eb 93 39 bd 60 dc d6 bc 5c 88 2c bb 5d 02 3d bd
       -0.04530708 -0.02622813 -0.0026326394 -0.046144832
000190 02 03 b4 bd e2 60 99 3d fe fa 8a bd ee 9a 75 3d
       -0.08789636 0.07489182 -0.06786154 0.059962206
0001a0 5c 81 35 3e 5f 12 94 bc 37 85 ce bc ae 02 fa bd
       0.17725128 -0.018075166 -0.025210006 -0.12207542
0001b0 cc c0 1e 3e 8e 8d 52 3b cc aa c1 3d 75 9c 46 3d
       0.15503234 0.003212783 0.09456405 0.048489053
0001c0 e6 0a 26 bd 60 b0 1a 3d ef 83 41 3c f2 92 13 3c
       -0.040537737 0.03776586 0.011811241 0.009007202
0001d0 ec 65 92 bd f6 9b 4d 3d c3 d7 1f bd 6c 2f be 3d
       -0.07148346 0.050197564 -0.039024126 0.09286389
0001e0 ae a8 6c bd 16 ea 30 be c7 9d b4 3c 30 bd f6 bc
       -0.057778053 -0.17276797 0.02204789 -0.030119509
0001f0 d3 90 e5 bc 87 a3 91 3d 83 23 10 3d e5 7d 26 bd
       -0.02802316 0.071112685 0.035190117 -0.040647406
000200 91 27 1c be 11 e2 b5 bc d8 86 ca bb 05 41 47 3d
       -0.15249468 -0.022202523 -0.0061806254 0.04864599
000210 bb 04 22 bd 0a 0b 81 3d e9 40 8f 3d a4 5e 83 3c
       -0.039555293 0.06300934 0.069948025 0.01603634
000220 a8 db 9c 3d 6a fa 03 be e9 5b ef 3d 6a 47 93 bd
       0.076590836 -0.12888494 0.11687452 -0.071913555
000230 a9 86 93 bc 58 c3 a0 bd a3 14 00 3e de 67 8b 3b
       -0.018008547 -0.07849759 0.12507872 0.0042543253
000240 f9 4c 32 be a7 f3 5d bd cb 55 5f be ab b5 91 bd
       -0.17412175 -0.054187443 -0.21810071 -0.071147285
000250 95 de b9 3d aa d9 ca bd c8 49 44 3c 54 88 18 be
       0.09075657 -0.099047974 0.011980481 -0.14895755
000260 0c c8 ad 3d b2 6d 56 3d b7 9f f6 3c a3 3a d4 3c
       0.084854215 0.052350707 0.030105455 0.025906866
000270 d9 45 ed bb b3 ad 1d be f0 31 0c be a6 b6 cd bd
       -0.0072409925 -0.15398292 -0.13690925 -0.10044603
000280 d5 f6 5e bb 20 74 01 3d 14 8f 9e 3d 47 8e 84 bc
       -0.0034021635 0.031604886 0.07742134 -0.016181124
000290 a2 24 32 be 6e 35 26 be cf b2 45 bc 33 6f 75 be
       -0.17396787 -0.1623132 -0.012066557 -0.239682
0002a0 a8 30 ab bd 75 a3 e1 3b 08 cf a5 3c 6f 20 b4 bd
       -0.0835889 0.0068859407 0.020240322 -0.08795249
0002b0 03 54 20 3b ac 3f 0a 3d 8f e7 35 3e 9b c5 a6 3d
       0.0024464137 0.03375213 0.17764114 0.08143159
0002c0 ca c8 21 bd 52 cb 01 3e dc cb 37 bc c6 4a 52 bd
       -0.039498128 0.12675217 -0.011218037 -0.05134084
0002d0 11 e0 08 bc 51 6e c1 3b d1 14 bd 3d 30 fc 9a bd
       -0.008354203 0.0059030433 0.09232486 -0.07567632
0002e0 d7 8b 2d 3d aa 7c 35 bd f4 4d a7 3d ff 0d 36 bd
       0.04236969 -0.044308342 0.08169165 -0.04444694
0002f0 c5 91 57 bd f0 23 37 3d 2b 91 ca bd 4c e2 80 bd
       -0.05262925 0.044712007 -0.0989097 -0.06293163
000300 66 a3 64 3d 15 3d fe bd a1 16 e9 3d 24 f3 b5 3d
       0.05581989 -0.12413994 0.11381269 0.08884266
000310 20 77 bf bc 75 ae 26 bd 33 35 30 be 5a de 96 bd
       -0.023372233 -0.04069372 -0.17207794 -0.07366629
000320 52 9d ac 3b 90 c5 d4 3d be 9f 80 3c 1d 8e 6b 3d
       0.0052677775 0.103892446 0.015701171 0.057508577
000330 0b 76 e6 3d 70 68 17 3d 2f e1 64 bc c8 ea a7 3c
       0.11252984 0.036964834 -0.013969704 0.020497695
000340 e0 9b 1d 3e 40 78 8e be 31 4b 1b be 83 e5 e7 3d
       0.15391493 -0.27826118 -0.15165402 0.11323073
000350 90 f0 e4 3c c9 30 5b bb af c4 ca bd 03 4a 4b 3d
       0.02794674 -0.0033445826 -0.09900796 0.04963113
000360 9b 2d a3 3c b1 1d ae bd 1c 7f 87 3c 47 4f 0f bd
       0.019919207 -0.08501757 0.016540103 -0.034987714
000370 01 9b 91 3e ba ac f1 bd c2 b4 10 3d 55 37 fd 3d
       0.2843857 -0.11800523 0.035328634 0.12364069
000380 e8 a6 bc bb 92 2a 47 3c 31 43 88 bd 25 25 e2 3c
       -0.0057572015 0.012156146 -0.06653441 0.027605603
000390 71 d0 09 be c9 d6 22 3c a4 e7 0c be e1 be 9f 3d
       -0.1345842 0.009938904 -0.13760239 0.07800079
0003a0 4f 3c 4e be f2 24 1c 3e da 29 88 3d 80 33 fe bd
       -0.20140193 0.15248469 0.066486076 -0.124121666
0003b0 a1 e5 1b 3e e0 08 07 be 04 19 22 3e 01 79 a0 bc
       0.15224315 -0.1318698 0.15829855 -0.01958895
0003c0 2b b4 89 3c 6e 99 97 3d 4e 95 8c bd 77 37 fd 3d
       0.016809544 0.07402311 -0.06864415 0.12364095
0003d0 79 54 80 bd aa 6e be 3c 68 e4 0f 3d c6 40 4a bd
       -0.06266112 0.023246128 0.035129935 -0.04937818
0003e0 18 23 f3 3c d2 c0 7f 3d 21 11 43 3d 03 32 d9 3c
       0.02967982 0.062439747 0.047623757 0.026513105
0003f0 3b b0 1e 3e a8 3a 80 bc 95 68 21 b9 a0 dc d2 3d
       0.15496914 -0.01565297 -0.00015393116 0.10295987

network_body._body_endoder.seq_layers.2.bias f4 [128]
000000 b8 02 03 3d b1 ed ee 3c 8f a3 dc 38 5d be af 3c
       0.031985015 0.029166074 0.00010520883 0.021453077
000010 3b d4 ca 3b 89 25 27 3c a7 5b 0d 3d df e5 c3 3c
       0.0061898506 0.01020182 0.034511235 0.023913322
000020 18 9f 44 bd 8c b7 4a 3c 31 b0 68 3c c3 ba a6 3b
       -0.048003286 0.012372863 0.014202164 0.0050881817
000030 e1 53 bc 3c 4c 5d 3b 3c 5d 93 0c 3c 29 fb 23 3d
       0.022989215 0.011435818 0.008580056 0.040034447
000040 73 15 fc 3b ea 48 f1 3c 66 85 e0 3c b1 58 15 3d
       0.0076929866 0.029453713 0.02740736 0.036461536
000050 76 8b 8d 3c ab 9c 1c 3c a9 05 c6 3c 50 00 bd 3c
       0.017278414 0.009558837 0.02417262 0.023071438
000060 78 d0 34 bc ba f3 c5 3c d9 4b e1 3c 59 1b 2a 3d
       -0.011036031 0.02416407 0.027501987 0.041529987
000070 87 fd 4a bd dd 85 f6 3c d1 79 92 3c d3 ba 3c bc
       -0.04955819 0.030093128 0.017880352 -0.011519152
000080 89 8f 58 bc da 99 ea 3b dd 47 66 3c ea da 34 bc
       -0.013217815 0.007159454 0.0140552195 -0.011038521
000090 b6 96 79 3c c0 52 8c ba bf e6 72 bc 51 38 c6 3c
       0.015233686 -0.0010705814 -0.014825522 0.024196776
0000a0 8e 0e 29 3c 51 d8 b4 3c 30 de c7 bc 13 db 30 3d
       0.0103184115 0.022075804 -0.02439794 0.043177675
0000b0 f7 25 07 3d 42 2f 85 3c f8 8d 07 3c f8 bb 6d 3c
       0.03299519 0.016257886 0.008273594 0.014510147
0000c0 71 8a 14 bc 80 c5 85 3c 82 8f b5 ba 5f a3 e5 bc
       -0.00906621 0.016329527 -0.0013851973 -0.028032003
0000d0 90 83 db 3c 9e 7d 4d 3c 83 46 ff 3c 1d 95 18 3d
       0.026796132 0.0125421565 0.031161552 0.03725158
0000e0 44 5a 1d 3d 3f c1 56 3c 8e e8 70 3c 33 c0 23 bc
       0.038416162 0.013107597 0.014703883 -0.009994554
0000f0 f9 85 57 3c af c9 83 3c 1b 5f 0a 3c fd 37 b7 3b
       0.0131545 0.016087381 0.0084455265 0.005591391
000100 25 cf a5 3c c1 fc 21 3c 80 c4 d3 39 7c ac b0 bb
       0.020240376 0.009886921 0.0004039146 -0.0053916555
000110 fe 72 85 bb d2 4b f5 3c 42 2d 43 3a 5d 23 6c bc
       -0.004072546 0.02994338 0.00074454036 -0.014412728
000120 d0 83 03 bd 56 ae 5c ba 79 70 53 3c 33 be 91 3c
       -0.032108128 -0.0008418312 0.012905234 0.01779089
000130 4d c4 8c 3c 36 ce de 3c 2f 76 b8 3b 40 4f 4a bb
       0.017183447 0.027197938 0.005629323 -0.003086999
000140 d9 25 5d 3d 3a b6 ba 3c 9f 28 2b 3d 53 33 e8 3c
       0.053991172 0.02279197 0.041786786 0.028344786
000150 3c 22 90 bd 26 c8 db 3c 63 e8 8d 3c c7 f4 c9 3c
       -0.0703778 0.026828837 0.017322725 0.024652852
000160 3e b2 03 3d 82 35 1c 3d 8b 9d b7 3c 49 23 06 3c
       0.032152407 0.038136967 0.02241399 0.008187124
000170 a1 13 bb ba d9 2b 5e 3c 43 2a 9e 3c d4 40 ce 3c
       -0.0014272818 0.013560259 0.019307261 0.025177397
000180 f6 89 03 3d 73 76 53 3c 39 41 24 3c 2e 2a 4a 3b
       0.03211399 0.012906658 0.010025316 0.0030847895
000190 da 70 be 3c 63 8f b7 3b da b6 4d 3c c8 ae e2 3b
       0.023247171 0.00560181 0.012555802 0.006917808
0001a0 73 c9 b5 3b 39 1b b6 3b 61 38 de 3c b3 e9 9c 3c
       0.0055476963 0.0055574444 0.027126493 0.019154405
0001b0 d6 e5 68 3b 46 91 22 bc 0a ab ce bb 1e 48 91 3c
       0.0035537384 -0.009922331 -0.0063070105 0.017734583
0001c0 33 13 31 3c a5 50 6e 3c 29 1f d9 3c e4 d7 b2 b9
       0.0108078 0.014545594 0.026504116 -0.00034111657
0001d0 f8 f5 1c bc 42 b3 2c 3d fc 65 06 bc 14 3b 7e 3c
       -0.009580128 0.04216314 -0.008203026 0.015517015
0001e0 48 48 cf bb 38 cb 0a bc cd 0e b7 b8 d4 0a 30 3b
       -0.0063257553 -0.008471303 -8.728877e-05 0.0026861923
0001f0 79 47 03 3d 18 63 ad 3c bc e2 97 3c ed 48 fb 3c
       0.032050584 0.021165416 0.018540733 0.030674422

network_body._body_endoder.seq_layers.4.weight f4 [128, 128]
000000 28 dc 97 3d 08 8d 2e bd 43 38 15 3d e5 19 d2 3d
       0.07415038 -0.042614967 0.03643061 0.10258845
000010 ee ea 51 3d 85 b2 e5 bd 4d 89 3d bd 72 c8 0d 3e
       0.051249437 -0.112156905 -0.04627352 0.13845995
000020 c1 61 8a bd bc ba 8a bc e5 96 dd 3c f3 1d 14 be
       -0.06756926 -0.016934745 0.027049491 -0.1446455
000030 9a e2 9e 3d 4b 38 f7 3c d8 47 bd bd 19 9b 38 3c
       0.077580646 0.03017821 -0.09242219 0.011267447
000040 61 2c 91 bd aa df 0a 3d 06 11 48 3d 87 b9 48 3d
       -0.07088543 0.03390471 0.04884436 0.049005058
000050 b8 c6 ff bd 68 ec d7 bd d4 43 28 bd a0 07 21 bc
       -0.124890745 -0.10543138 -0.04108031 -0.009828478
000060 31 65 83 bd e8 37 20 bd 14 bf 75 bc 17 51 d4 bc
       -0.06415785 -0.039115816 -0.01499917 -0.025917573
000070 cb c9 9a ba af 72 cb 3d e6 c4 24 3d 13 15 d7 3b
       -0.0011809407 0.099339835 0.04022684 0.0065637915
000080 15 59 99 3c fb fd 12 be b3 c8 c6 3d 0a 4e aa 3d
       0.018719235 -0.14354698 0.09706249 0.08315666
000090 7b c6 2a be 46 0d 90 bc 9b b6 ed bc 77 ad 73 3d
       -0.16677277 -0.017584454 -0.029017737 0.0594916
0000a0 b6 5e f6 bd a3 97 a4 3b dc ff 3a 3d 88 1d 08 3e
       -0.120297834 0.0050229593 0.045654163 0.13292515
0000b0 f2 00 c2 bd 2d d5 78 3d 7d 32 f4 3d 4b a7 85 bd
       -0.094728366 0.060750175 0.119236924 -0.06526049
0000c0 3e 6f 91 bd 2a 1c 51 bd 67 9b 4b be 40 0c 96 3b
       -0.07101296 -0.05105225 -0.198835 0.004579097
0000d0 25 27 27 bd 2e d9 23 be 2c 03 a1 bd 3c e2 49 be
       -0.040808816 -0.16000816 -0.07861933 -0.19715208
0000e0 bc 18 f8 3c ba 85 ed 3c d4 25 d9 3c ea 73 d4 3d
       0.030285232 0.02899443 0.026507296 0.10373671
0000f0 75 c0 22 bc 86 2b 0b 3e 0e c8 f2 3d 74 d7 ef bc
       -0.009933581 0.13590822 0.11854564 -0.02927754
000100 18 c6 47 be 51 8f 49 bd e9 8b e2 3d de 87 42 be
       -0.1950916 -0.049208943 0.11061842 -0.18997142
000110 31 cd 34 bd ee 64 bc 3d b8 74 06 3c 9a b2 15 bd
       -0.044141 0.09198938 0.008206539 -0.03654728
000120 a8 5b cc 3d e8 c5 d3 3d f8 65 3d 3b d1 59 fc bd
       0.099784195 0.10340482 0.002889989 -0.123218186
000130 a1 b1 d7 bd df ff 0f be 54 a8 ab bd 6f 41 b8 bc
       -0.10531927 -0.14062451 -0.083817154 -0.022492139
000140 91 08 b9 3c db b4 1c 3e 66 39 9d bc 06 f5 a5 bd
       0.022587093 0.15303366 -0.019192409 -0.08103375
000150 f5 4b 2d ba e9 9f db 3d a5 eb ac bd 6d 58 33 bd
       -0.0006610745 0.1072386 -0.08443383 -0.0437855
000160 65 02 12 3c b2 64 08 3e bf 36 37 3e 42 9d fd ba
       0.008911704 0.13319662 0.17891978 -0.0019349235
000170 2a 41 b9 bd 68 ac 1b be 19 d1 d5 3c a0 98 27 3d
       -0.09045632 -0.15202487 0.026100682 0.04091704
000180 76 62 dd 3c 4b 39 15 be 7f 98 20 3c cf 59 06 3e
       0.027024489 -0.14572637 0.009801983 0.13120197
000190 13 15 61 be 16 f0 84 bc 85 77 a7 bc 33 cf f8 bc
       -0.21980695 -0.016227763 -0.020442734 -0.030372238
0001a0 35 ee 06 3d 00 f0 aa bc 22 9e 3e 3d 53 b4 03 bd
       0.032942016 -0.020866394 0.046537526 -0.032154392
0001b0 f1 55 7c be a9 9a 2e be 35 6a aa 3d 63 f4 1b be
       -0.24642159 -0.17051186 0.08321039 -0.15229945
0001c0 5c ad c8 3d 9e 0c 87 3d c4 32 9a bd c6 3c 66 bd
       0.09798691 0.065942034 -0.07529214 -0.0562103
0001d0 09 d9 a1 bc 13 1d 8e bd 4e 1d e4 bc 97 6f 24 be
       -0.01975681 -0.06939139 -0.027846005 -0.16058193
0001e0 10 d9 24 be ed f8 75 bc ce 00 75 bd 96 18 58 3d
       -0.16098428 -0.015012962 -0.05981522 0.052757822
0001f0 63 2c 05 3e ca 3e 03 be f9 0e 30 3e 0d 87 12 3d
       0.13005213 -0.12816921 0.17193212 0.035773326
000200 4b af 3e bd 80 3a 90 bd 7e d3 bd bd 23 c2 42 bc
       -0.04655389 -0.07042408 -0.092688546 -0.011887106
000210 00 a3 02 be cd 05 d6 3d d9 9d ed bc d2 d6 10 be
       -0.12757492 0.10450325 -0.029005932 -0.14144447
000220 07 6d 6c bd ac 6f 30 bd d1 36 d9 3b f4 51 b0 bb
       -0.057721164 -0.04307525 0.006628849 -0.0053808633
000230 f9 d7 5a 3c 44 65 60 3d b3 7d d0 3d bb 93 ad 3d
       0.013357156 0.054784074 0.10180225 0.08475443
000240 96 e6 d2 bb de e3 b1 3a 4e 50 1c 3c 08 8e 14 3d
       -0.0064361794 0.0013571938 0.0095406305 0.036268264
000250 40 01 b7 3b 2f db 0b be 46 92 79 be 4d bf 0e 3d
       0.005584866 -0.1365783 -0.24372205 0.034850407
000260 59 cd 85 be b0 b3 19 3d c2 29 37 be 38 62 45 3e
       -0.2613323 0.03752488 -0.17887023 0.19275749
000270 ad f6 4c be 28 e3 8d bd 9f fe 0f bd 50 6e 5c 3c
       -0.20015974 -0.06928092 -0.035154935 0.013454035
000280 9d a6 f2 bd 89 9d 5a 3d 9e 93 3f 3e 96 a9 af bd
       -0.11848185 0.053372893 0.18708655 -0.08577268
000290 b3 32 8b bb 39 68 b4 3d b4 8b b3 3c 7e 5a bb 3d
       -0.004247987 0.088089414 0.021917202 0.091481194
0002a0 d4 ae e4 bd e6 78 c4 3c c6 e5 88 bd fc 5f 93 3a
       -0.11166158 0.02398343 -0.06684451 0.0011243816
0002b0 0a 51 76 3e 12 4b 9b bc 03 9c f2 bc a8 23 14 bc
       0.24054351 -0.018956695 -0.029615408 -0.009041704
0002c0 5f d3 60 bd af 34 87 3c 1a 02 76 3d 8f 0c 79 bc
       -0.05488908 0.016504614 0.060060598 -0.015200748
0002d0 e8 f0 21 bd 5e 45 7b bc 70 57 d8 bd 41 72 ef 3c
       -0.039536387 -0.015336363 -0.105635524 0.029229285
0002e0 44 1c 64 bb b1 b3 91 3d d8 44 56 3d 10 4a 97 3d
       -0.0034806887 0.071143515 0.05231175 0.07387173
0002f0 a2 bb 24 3d 8a ae d4 bc ac ca ac bd 1c eb 1a be
       0.040218003 -0.025962133 -0.08437094 -0.1512875
000300 87 f0 d6 bb e2 e8 f2 bd ed e1 18 3e 63 af 61 bd
       -0.006559435 -0.11860825 0.14929934 -0.055098902
000310 8f 31 05 3d 28 e6 c7 bd 20 29 95 bd aa 58 2d 3e
       0.032517966 -0.09760696 -0.072832346 0.16928354
000320 39 a5 02 be ca b3 2e bd a1 d4 f0 3d 83 97 81 bc
       -0.1275834 -0.04265193 0.11759306 -0.015819317
000330 4e 4b 55 bd 2f c0 55 3d a1 0b 86 3d 50 b4 02 be
       -0.05207377 0.052185234 0.06545187 -0.12764096
000340 24 42 71 bb e3 b4 9c bd 68 b2 14 3d 2a c5 be bd
       -0.0036813105 -0.07651689 0.036302954 -0.0931495
000350 d1 a4 84 bc 0e ed 4d be 3d dd 61 bd 76 a1 69 3e
       -0.016191872 -0.2010996 -0.05514263 0.22815499
000360 a9 80 17 3c 0f 6a 6b 3e e4 70 f0 3d 8b b5 ec bd
       0.009246984 0.22989677 0.11740282 -0.11558064
000370 98 39 89 3d 23 d8 52 be 72 4a 69 3d ba 93 40 bd
       0.06700438 -0.20590262 0.056955762 -0.047015883
000380 51 04 e2 3d 6b 2c 2c bd 09 fe 6e bd 23 43 55 3d
       0.110359795 -0.042034548 -0.058347736 0.05206598
000390 28 3a b7 3d 98 5f 2d 3e b4 fb 47 ba a4 01 eb 3d
       0.08946639 0.16930997 -0.0007628754 0.11474922
0003a0 eb 42 04 bd 78 2c 11 bd bf 66 14 bc a6 08 8a bd
       -0.03229038 -0.0354428 -0.0090577 -0.06739931
0003b0 79 3f 54 3c df d2 9c 3d b6 54 0a be e8 a2 05 3c
       0.012954586 0.07657408 -0.13508877 0.008156516
0003c0 3c 43 23 bd f2 51 63 3e 85 87 4e bd 64 04 aa bd
       -0.03985904 0.22199228 -0.05042221 -0.08301619
0003d0 40 06 7a bd 2e 1b 3c 3e 87 46 3f 3d 98 c4 6c bd
       -0.061041117 0.18369743 0.04669812 -0.057804674
0003e0 35 c1 9f bc db d4 69 3d 43 5b c8 3d 9c 96 c5 bc
       -0.019501308 0.05708776 0.09783032 -0.024119668
0003f0 2c 6b 94 ba 04 b1 50 3e 81 e8 48 bd bc 12 28 39
       -0.0011323444 0.20380026 -0.049049858 0.00016028708

network_body._body_endoder.seq_layers.4.bias f4 [128]
000000 94 70 12 3d 88 3c 59 3c b4 55 ce 3b 21 6a 3d 3c
       0.035751894 0.013259061 0.0062968377 0.011560948
000010 f7 05 02 3d aa 89 f3 3c 6a 16 03 bc 20 f4 39 3c
       0.03174397 0.02972873 -0.008000949 0.011349708
000020 77 de 8b bc f8 62 4c 3d 78 b9 95 3b a3 26 0b 3d
       -0.017073853 0.04989907 0.0045692287 0.033972394
000030 b7 f2 d1 3c 57 c4 23 bc 4c 8f c8 3c 24 a3 d3 38
       0.02562843 -0.009995542 0.024482392 0.00010091651
000040 f5 3a 89 bc 52 2b 33 3c fe be ad 3c e0 1a 9c 3b
       -0.016751746 0.010935621 0.021209236 0.004763946
000050 fe 59 48 3d 91 cb f2 bc a5 91 8b 3c b3 aa a9 3b
       0.04891395 -0.029638084 0.017037222 0.0051778196
000060 dd 9c c2 3c 78 a7 9a 3c f9 10 fb bc eb 44 a9 bc
       0.023756439 0.018878683 -0.030647742 -0.020662745
000070 aa 58 50 bd 7a ff a7 bc a6 c2 40 bc 0a c2 14 3c
       -0.050865807 -0.020507563 -0.011765158 0.009079466
000080 a7 81 92 3c d3 e7 cc bb a9 85 00 bd de 44 9c 39
       0.017884089 -0.0062532215 -0.03137747 0.0002980595
000090 8d c9 3c 3c 33 fb c2 3c 00 e9 96 3c 56 a7 77 bb
       0.011522663 0.023801422 0.01842165 -0.003778895
0000a0 bd 2c 11 3d e5 3c 28 bc 4f 54 49 bb 75 0f c9 bb
       0.035443056 -0.010268425 -0.0030720418 -0.006135876
0000b0 de 50 2c 3b e8 9f 61 3c ca 72 87 bc f3 1d b9 3c
       0.0026293318 0.013771035 -0.016534228 0.022597289
0000c0 bc b6 d6 3a da 08 3f 3c 76 61 63 3c d6 d5 09 3d
       0.0016381363 0.011659825 0.013878217 0.033651195
0000d0 d0 43 6e 3c 70 f1 1e 3c 90 27 9f bc 80 d3 17 bd
       0.014542535 0.009701118 -0.019428045 -0.037066936
0000e0 80 00 1c 3c 22 fb 08 3d d2 08 8d bc 6c 0a 90 bc
       0.009521604 0.033442624 -0.01721612 -0.017583095
0000f0 3a 0f 2e 3d b1 3f 5a 3c 90 6d 56 3b 37 44 88 bc
       0.04249499 0.013320849 0.0032719113 -0.01663409
000100 b9 eb 09 3c 80 11 af 3c 81 17 ff bc 8c d7 6e 3c
       0.008418017 0.02137065 -0.031139137 0.014577758
000110 a8 0a 95 3b 44 b8 92 bb aa cf 38 3c 96 5e da 3b
       0.0045483895 -0.0044775326 0.01127998 0.0066641076
000120 37 74 20 3c 19 80 d1 3c 7b 2e fd 3c b5 3f 4b bc
       0.009793333 0.025573777 0.030905953 -0.012405326
000130 ae 33 cd 3c e6 f4 cf bb b2 c0 31 bc 2a f5 14 bd
       0.025049057 -0.006346333 -0.010849165 -0.03636662
000140 7f d1 51 3c 34 4a eb 3c cf 82 95 3c c1 da 33 3c
       0.012806295 0.028721906 0.018250851 0.010977448
000150 03 da 68 bd f1 5d a9 3c 9f 9f 2c bc cb 57 11 3c
       -0.056848537 0.020674678 -0.0105361035 0.008871029
000160 66 49 a5 3c b2 db c3 3c d7 77 c8 3c 17 bc 84 3c
       0.0201766 0.02390847 0.024471207 0.01620297
000170 ce 65 cc 3b 99 2d f4 bb 65 ab 50 3b 2a 25 af 3b
       0.006237722 -0.0074517247 0.003184044 0.0053450065
000180 31 41 99 3c 81 e6 b1 3b fd 63 b4 3c 80 00 28 3d
       0.018707843 0.0054290895 0.022020334 0.0410161
000190 b4 a3 31 3c e0 53 3b bb de fb dc 3c 71 a6 41 3c
       0.0108422525 -0.002858393 0.026975568 0.011819468
0001a0 54 fd 98 bb a9 6a 93 3c c3 60 0f 3d a7 e5 89 bc
       -0.004668871 0.017995195 0.03500439 -0.01683314
0001b0 03 6e ab 3b cd 55 68 3c c8 8a 0a 3b 3c 3c 9f 3b
       0.0052316203 0.014180613 0.002113985 0.0048594754
0001c0 e7 7a 96 3c 80 2f 7f 3c c0 03 05 3d 66 0c 92 3b
       0.018369151 0.01557529 0.03247428 0.0044570444
0001d0 96 6a 52 bc 40 97 11 3b c3 25 87 bc 58 39 2b 3b
       -0.012842795 0.0022215396 -0.016497498 0.0026126709
0001e0 fa 05 fa 3c f6 32 eb 3c f1 4b e2 ba 91 e4 71 ba
       0.030520428 0.028710824 -0.0017265064 -0.00092274795
0001f0 bb 02 9d 3c 0f c7 3b 3d 7d 2d b3 bc 90 10 97 3c
       0.019166341 0.045844134 -0.021872276 0.018440515

network_body._body_endoder.seq_layers.6.weight f4 [128, 128]
000000 81 b0 00 3e 27 ac 58 3d b4 26 a2 3d 84 10 35 bd
       0.12567331 0.052898552 0.07917538 -0.044205204
000010 c6 72 5a bd 87 91 d4 3d f7 7b 83 bd 70 c4 09 be
       -0.053332113 0.1037932 -0.06420129 -0.13453841
000020 b8 c3 c1 3d 24 94 e6 3d a8 bc 8f bd 29 3d c1 3d
       0.094611585 0.11258724 -0.07018405 0.094354935
000030 f8 f1 7d bd 55 85 16 3c 63 5a 85 3d 2d c4 31 bd
       -0.061998338 0.009187062 0.065113805 -0.04339998
000040 2e 14 4d 3b 7e 3d 00 3d 4f 19 39 be 1a a4 d1 bd
       0.0031292546 0.031308644 -0.1807606 -0.10236378
000050 9a c7 b0 3d 82 c1 36 bd ef 2c d7 3c 47 06 b6 bd
       0.08631821 -0.044618137 0.026266543 -0.08887916
000060 2e b5 a0 3c 2f a0 b2 bd 3b 30 9d bd 28 d0 28 be
       0.019617643 -0.08721959 -0.07675215 -0.16485655
000070 1a ed 2e be 0d 10 a4 bd 37 80 1c be 4f f9 01 bd
       -0.17082635 -0.08010874 -0.15283285 -0.0317319
000080 05 26 92 bd aa b7 07 be f9 02 f7 bd 70 b7 32 3e
       -0.07136158 -0.13253656 -0.12061114 0.17452788
000090 ba 15 e3 3d fb 09 4f bd 2a 04 a6 3c c1 4e 92 3c
       0.110881284 -0.050546627 0.020265657 0.017859818
0000a0 f8 0b 9f bd 21 f8 92 bd 98 7b c2 bc 8c 8b 5f 3d
       -0.07765955 -0.07176233 -0.023740575 0.05457644
0000b0 6e 39 e1 bd 81 d9 05 be d8 51 b9 3d 28 34 49 bd
       -0.10997282 -0.13071252 0.090488136 -0.049122006
0000c0 e4 4e 05 3e 41 db 41 3e 3d 43 00 bd 5b 90 5d bc
       0.13018376 0.18931295 -0.031314123 -0.013523187
0000d0 a0 3d 21 bc 46 b9 f3 bd 4a 01 eb bc 33 bc 62 be
       -0.009841353 -0.119005725 -0.028687138 -0.22142105
0000e0 38 6a b8 3d f2 95 1f 3e 4c d2 88 bd ca 5c e7 bd
       0.090046346 0.15584543 -0.06680736 -0.11296995
0000f0 a3 0a 9a 3d f0 ac 12 be 81 e6 3d bd 58 2c bb 3c
       0.0752156 -0.14323783 -0.046362404 0.022848293
000100 e4 55 79 3d fc 2c 8e bd d8 04 f2 3d 24 f4 2e bd
       0.060872927 -0.06942174 0.1181733 -0.0427133
000110 e3 af 07 3e 18 4d dd bc c3 40 1f be 4e b8 a8 3d
       0.13250689 -0.0270143 -0.15552048 0.08238278
000120 96 46 1a be 27 3c f7 bd 34 35 a9 3c 5e c6 4f 3d
       -0.15065989 -0.1207202 0.020655252 0.050726287
000130 f6 15 a1 bc 0a 22 b4 bc 3c 83 52 3d 78 ec 8a 3c
       -0.019663792 -0.021988887 0.051394686 0.01695846
000140 7f af dc 3c 91 48 4a be 07 c0 95 3d 07 e5 d5 3c
       0.026939152 -0.19754244 0.07312017 0.026110185
000150 1e f5 b1 bd bc 40 5b 3a de 77 be 3b fd 9d 16 be
       -0.086893305 0.0008363833 0.005812629 -0.14708705
000160 42 50 46 be e8 24 eb bd 27 80 10 3d 37 df ab 3d
       -0.19366553 -0.11481649 0.035278466 0.08392184
000170 f9 16 06 3e 3d a7 5c bc be c3 df bd bc 3b a8 3c
       0.13094701 -0.013467607 -0.10926007 0.020536296
000180 0e 56 e2 bb 8f ab ef ba 50 58 68 bd 6e e9 fb 3d
       -0.006907231 -0.0018285381 -0.056724846 0.123003826
000190 46 7f bb 3d 9e bd 6d bc 75 86 0d 3e f3 5e 81 bb
       0.09155135 -0.01451054 0.13820823 -0.0039480864
0001a0 90 c2 71 bb 17 79 9e 3d 0a 3b 9b 3c 10 68 ca 3c
       -0.003688965 0.0773794 0.01894905 0.024707824
0001b0 94 05 9c 3c 90 70 d8 bc 96 b2 c9 bd 70 01 03 3d
       0.019045629 -0.026420861 -0.09848516 0.031983793
0001c0 78 e9 08 3e 09 55 9d 3d 07 f8 80 be 6a bc 17 3e
       0.13370311 0.07682235 -0.2518923 0.14817968
0001d0 ab 37 c3 bd 49 1f 69 bd f5 d7 3b be 0e 76 40 bd
       -0.09532102 -0.0569146 -0.183441 -0.046987586
0001e0 d7 bf 1f 3c 96 4d fd 3d 80 d1 ff bd 78 c1 28 3d
       0.009750328 0.12368314 -0.12491131 0.04120013
0001f0 ca a1 79 3d f1 35 1c 3d dc bc 19 3b f2 80 d3 ba
       0.06094531 0.03813738 0.0023458516 -0.0016136451
000200 25 31 54 3c e3 95 81 bd bc 1f 37 3c 58 1b db bc
       0.01295117 -0.06327417 0.011177 -0.026746437
000210 c8 55 30 3d 8e ae 88 bd 59 23 45 3e 90 a0 81 3c
       0.043050557 -0.06673919 0.19251765 0.015823632
000220 6b c4 9c 3d f9 42 da 3c 82 b3 b4 bd 56 3f 0a 3e
       0.07654651 0.026643263 -0.08823301 0.13500723
000230 33 21 cb bd 84 61 37 3e 39 18 89 3e 07 57 ae bc
       -0.099184416 0.17908293 0.26776293 -0.021281732
000240 d2 ab 9b 3c 16 41 9d bd 29 d0 c9 3d bd d4 95 3c
       0.019002829 -0.0767843 0.098541565 0.018289918
000250 13 2b 39 3e 09 eb 53 3d 34 31 6e bd eb 7b c8 bc
       0.18082838 0.05173782 -0.058152393 -0.024473151
000260 8a 65 af bd 81 c1 8f 3d 08 a4 79 3d 49 55 a8 bc
       -0.08564289 0.0701933 0.060947448 -0.02054848
000270 2d aa 6e 3d 05 3c 9c bd 61 76 86 be d9 a0 fe 3c
       0.05826776 -0.07628635 -0.2626219 0.031082558
000280 97 2f 01 3e 55 8b 3b be 60 f4 8c 3d f8 01 9d bc
       0.1261581 -0.1831487 0.06882548 -0.019165978
000290 69 b7 20 3d 7c a7 00 bd 9b 71 0f 3e 75 2c 2a 3d
       0.039237414 -0.031409726 0.14008181 0.041546304
0002a0 f7 b9 23 3d 07 af 0d bd 95 29 9d 3d 90 bb 1d be
       0.03997227 -0.034590747 0.07673947 -0.1540358
0002b0 13 ff e7 bd 7a 34 84 3c 82 c8 f2 3d da 53 54 3d
       -0.113279484 0.016138304 0.1185465 0.05183778
0002c0 b4 57 39 be b8 7d 82 be d5 6d b1 3d a2 19 5c 3d
       -0.18099862 -0.2548654 0.08663527 0.053735383
0002d0 3b 87 56 be 20 7e 80 3c 54 fd 2d be 41 f1 9f bc
       -0.20950024 0.015685141 -0.16991168 -0.019524219
0002e0 07 1b d8 bd d9 78 28 3d 7a 96 e9 3b 49 17 77 bd
       -0.1055203 0.041130874 0.007128534 -0.06032494
0002f0 37 e9 03 be 0e 49 0a bd 32 e7 cf bd 09 0f 0a 3e
       -0.12881933 -0.033761077 -0.10151519 0.13482298
000300 e8 87 4a 3d c9 6f d6 3d d9 ea 0c bd e6 86 83 bd
       0.049446017 0.1047054 -0.034403656 -0.06422214
000310 84 e0 74 3d 93 63 80 bb 04 51 79 3e a9 62 65 be
       0.059784427 -0.00391812 0.24347311 -0.22400917
000320 23 60 c3 3d 7b 47 56 be 6f ce bc bd 7f 44 50 bd
       0.09539821 -0.20925705 -0.092190616 -0.050846573
000330 9a d5 80 3d 84 9b 84 bd 5a 77 c7 3c d5 31 b1 bd
       0.06290741 -0.06474975 0.024348903 -0.08652083
000340 f5 2f e1 3c 7b f1 d0 3d 34 3a c3 bd 45 17 2c bd
       0.027488688 0.10202309 -0.09532586 -0.04201438
000350 75 ce 9f bd 8c 03 43 3d df 08 b1 bc 0a 3a 0b 3e
       -0.078030504 0.047610804 -0.021610675 0.13596359
000360 35 b9 55 bd 80 9f 09 be c5 12 60 bd 36 70 6c be
       -0.05217858 -0.1343975 -0.0547054 -0.2308968
000370 de db 20 bd 66 ce 5b bc 43 a4 f0 3c 36 cc 57 bd
       -0.03927218 -0.013415908 0.029375201 -0.052684985
000380 cf 81 40 3c a6 bd cb 3d 3f 21 07 be a1 25 b1 3b
       0.011749699 0.09948282 -0.13196276 0.005406097
000390 ff 32 90 bd 08 2b 5c bd db 9a ea bb 45 a1 f5 bc
       -0.07040977 -0.053751975 -0.0071595735 -0.029984126
0003a0 7a 7a 26 3d 22 a1 a8 bd 30 59 23 bd aa 39 3d 3d
       0.040644147 -0.08233859 -0.039879978 0.04619757
0003b0 c2 60 20 bc 82 0b 06 bc 82 02 90 bd 01 89 01 3e
       -0.009788694 -0.008181455 -0.07031728 0.12649919
0003c0 a9 3f a6 3b 7c 0e 43 be 8d c4 66 3c 58 8d c5 3d
       0.005073507 -0.19048494 0.014084947 0.096461
0003d0 96 dd 00 3e 71 e2 51 3e c8 ce 20 be e2 cd a8 3c
       0.12584528 0.20496537 -0.15703881 0.020605985
0003e0 11 24 b2 bc af 51 ea 3c 72 3e 19 be cb 2a f6 3d
       -0.021745713 0.028603403 -0.14965227 0.12019881
0003f0 58 2f 86 3b b1 8a bd bd a6 e6 34 3c 3d eb 09 3e
       0.0040949993 -0.09254969 0.011041319 0.13468643

network_body._body_endoder.seq_layers.6.bias f4 [128]
000000 ab cf 2a 3d e0 d2 06 3d 7d 03 d2 3c cf 7e b0 bc
       0.041701954 0.03291595 0.025636429 -0.021544842
000010 02 ff 02 bc 25 ca e6 3c 6f b5 ed 3b cd 1d 3d bd
       -0.007995369 0.028172562 0.0072542946 -0.046171
000020 78 e6 2a 3c a5 2b 23 bd 38 3a 5d 3c 29 2a 88 3c
       0.010430925 -0.039836545 0.01350265 0.016621666
000030 fd db 34 3d d1 dc ff 3b 39 a5 4c bd 05 6f 62 3c
       0.04415511 0.007808306 -0.049962256 0.013820414
000040 4d ae f7 3a 9b 81 6a bc bb fd 7b bd 8c b3 cf 3c
       0.001889655 -0.014313127 -0.061521273 0.02535417
000050 68 8e 49 bc 93 0f 42 3c e8 5e 81 3b f2 a6 a9 bc
       -0.012302019 0.0118445335 0.0039480813 -0.020709489
000060 75 15 84 3c 0b 33 33 bc 68 eb 1f 3d 83 64 30 bc
       0.016123513 -0.010937463 0.03904286 -0.010766151
000070 fe f6 19 39 e3 73 6b 3c 39 3e 42 3d 15 d0 62 3c
       0.00014683229 0.014370891 0.04742262 0.013843556
000080 31 c1 28 3d 0d 31 10 bc 03 ed d6 3a 9f 06 19 3d
       0.041199867 -0.008800757 0.0016397539 0.03735983
000090 35 eb ca 3c 37 f7 a3 bc b6 fa e1 bc 52 72 e2 3c
       0.024770359 -0.020015342 -0.027585369 0.027642403
0000a0 20 a5 d0 3c f9 3d 81 bb 7b e3 9a bc 4c 9c 09 3d
       0.025469363 -0.0039441553 -0.0189073 0.033596322
0000b0 c2 48 30 3c c4 a8 61 3c 98 87 f1 3b 08 2c ac 3c
       0.010759534 0.013773147 0.0073709004 0.02101709
0000c0 4a 55 1a 3d 66 84 33 bc 9f 6f 0c 3a 56 0f 2b bd
       0.037678994 -0.010956859 0.0005357209 -0.041762672
0000d0 21 87 08 3d 4d af 88 3c 08 c0 14 bc 4a a7 75 3c
       0.033331994 0.016685152 -0.009078987 0.014993498
0000e0 a8 b0 6e 3c 06 a1 16 bd b5 1d cd bc 57 fe 4d 3d
       0.014568485 -0.036774658 -0.02503858 0.050291386
0000f0 cf 16 a8 3b f2 20 ab 3b 0f 65 8d 3c 5e d1 1f bc
       0.005129672 0.0052224332 0.017260103 -0.009754507
000100 d2 1d b3 3b 6b 3c 38 3c a4 17 3e 3c 04 78 a5 3c
       0.0054662013 0.0112448735 0.011602316 0.02019883
000110 cc 1b d9 3c 95 1b 93 3c 32 8f ea 3c 30 9c 83 bd
       0.026502512 0.017957488 0.028632734 -0.06426275
000120 02 4f 7c 3c 06 79 1e bd 56 3f bf bc 1d 6f 95 bc
       0.015399696 -0.038689636 -0.02334563 -0.01824146
000130 7d 61 0b 3c 07 e1 f2 3c 19 e6 a8 bb 35 ae 69 3d
       0.00850713 0.029648317 -0.005154383 0.057050902
000140 41 03 33 bb a4 f5 1e 3c 04 92 dd 3c a9 28 06 bd
       -0.0027315172 0.00970212 0.027047165 -0.03275362
000150 11 7a 41 bd bf ca f0 39 1a 98 0e 3c 0d 42 d2 3c
       -0.047235552 0.00045927425 0.008703256 0.025666261
000160 84 40 10 bd 1e e9 10 3d 52 4f c9 3b 20 20 ce 3c
       -0.035217777 0.035378568 0.006143489 0.025161803
000170 35 7d 1e 3c 23 c0 49 3c d5 24 38 bd 87 93 85 bc
       0.009673406 0.012313875 -0.044957 -0.016305698
000180 e5 5d b0 3c 53 6b 87 3c f4 a5 88 bd 6e a7 67 3c
       0.021529147 0.016530668 -0.06672278 0.014139039
000190 a1 84 10 3d 3f b6 1b 3d 3c ce 2a bc 7c 20 75 3c
       0.035282735 0.0380156 -0.010425147 0.014961358
0001a0 66 ec e7 3c a5 6a 74 3c 71 c7 46 bd 36 d0 0a bc
       0.028310966 0.014918004 -0.048530046 -0.008472493
0001b0 cf 88 23 bd 55 2e 18 bc d0 36 c9 3c 8b 1f c4 3c
       -0.039925393 -0.00928839 0.02456227 0.023940822
0001c0 5f 0d 30 bd 7f b2 8b 3c 67 3b b9 ba d1 f8 ad 3c
       -0.0429815 0.017052887 -0.0014132083 0.021236809
0001d0 63 ef 18 bd fb a9 a9 3a 7b 76 c5 3c 25 76 90 3c
       -0.037337672 0.0012944335 0.024104347 0.01763446
0001e0 9d 9c 37 bc a8 73 f3 3c 90 3f 71 3c b3 e3 a6 bc
       -0.011206773 0.029718235 0.014724627 -0.020372247
0001f0 05 4b 47 3d b9 04 45 3b 9f 73 aa 3c 88 99 57 bd
       0.04865553 0.003006263 0.020807086 -0.052636653

network_body._body_endoder.seq_layers.8.weight f4 [128, 128]
000000 ee 23 75 bd 87 52 c7 3c 2a 42 99 3c f9 a4 97 bc
       -0.05984872 0.024331344 0.018708307 -0.018511282
000010 c3 dc 84 bd e3 30 82 3e 51 cb 17 3e d1 8c e7 3b
       -0.064874195 0.25427923 0.14823653 0.007066347
000020 c0 ac a6 bd 5d b5 1c be e7 8c 42 bd d8 a9 40 3d
       -0.08138418 -0.1530356 -0.047497656 0.047036976
000030 db 18 17 3d 1b f4 e6 bd ab 71 6f bd 52 d5 08 be
       0.03688894 -0.11277028 -0.05845801 -0.13362625
000040 b9 08 28 bd 6d 01 96 bc e0 44 b5 bd bb bf ed 3d
       -0.041023944 -0.018311227 -0.088510275 0.11608835
000050 6d ae 15 bd 63 69 58 3d 86 6e 19 bd b0 6a ff 3d
       -0.0365433 0.05283488 -0.03745892 0.12471521
000060 e0 19 06 3d 59 94 eb 3d 6e 26 88 bd 46 f8 ad 3b
       0.03273952 0.115029044 -0.06647955 0.0053091375
000070 e8 30 42 be 8c 90 cd 3d 36 4d af 3d be 02 41 bd
       -0.18963969 0.10037336 0.08559649 -0.047121756
000080 0c 79 48 be e0 7e ef bd 5b 8f 99 bc 55 22 8b 3d
       -0.19577426 -0.11694121 -0.018745115 0.06793658
000090 98 c3 40 bd 29 1b 84 bd 57 ab d8 bc a1 38 c7 3d
       -0.047061533 -0.06450493 -0.026448889 0.09727598
0000a0 dd 31 e6 bd 7f ce d4 3b 44 40 2a bc 3e 2a de bd
       -0.112399794 0.006494343 -0.010391299 -0.10847901
0000b0 da e9 f6 3d 27 84 25 be 08 f0 2c bc 17 68 41 3e
       0.120563224 -0.16163693 -0.010555275 0.18887363
0000c0 de 21 4d 3e b8 a9 3b bd 8f 6c f9 3c 53 3a 59 be
       0.2003245 -0.045816153 0.030447273 -0.21213655
0000d0 d6 7f 13 bd 7e 6f 50 bd 1b 77 05 be 72 7c b0 bc
       -0.036010586 -0.050887577 -0.13033716 -0.021543715
0000e0 0a f6 ab bd e8 f1 88 3d 9b e8 54 bc 1e ba 92 bd
       -0.083965376 0.06686765 -0.012994911 -0.07164405
0000f0 74 ee 72 3c 35 0b b0 bd 80 72 23 bd e2 d4 93 bd
       0.0148273595 -0.085958876 -0.039904118 -0.072183385
000100 5a 49 5b bd 8a 1b 72 bd 8b c3 6f 3d 14 a3 9f 3a
       -0.05353675 -0.059108295 0.058536094 0.0012179338
000110 c1 5e ea bd d3 48 11 bd 2e fd 2d bb 9a ba f0 bc
       -0.11443854 -0.03546984 -0.0026548612 -0.029385854
000120 00 c3 22 3e 10 93 19 3d 5a 65 ef 3d bc 59 5b be
       0.15894699 0.037493765 0.11689253 -0.2142095
000130 8f 97 56 be 2b d2 6e 3c 6b c0 ad bd 40 40 a6 3a
       -0.20956253 0.014576475 -0.084839664 0.0012683943
000140 42 92 08 bd 77 8e 23 bd bb 5e 43 3c 02 f9 ca bc
       -0.033342607 -0.039930787 0.011924441 -0.02477694
000150 f1 1a 16 3d 61 0f 78 3c eb dc 1c 3e 37 93 7e bc
       0.036646787 0.015140385 0.15318649 -0.015538028
000160 4e 1c 0d 3e a0 d8 e6 3c c8 36 90 bb 14 fc d9 3d
       0.13780329 0.028179467 -0.0044010617 0.10643783
000170 ea 72 57 be 13 a7 28 3d b8 29 27 3e 2c 98 1a 3a
       -0.2103993 0.04117496 0.16324508 0.0005897309
000180 19 82 47 3e e5 0d ce bd 51 cd ab bb 19 b3 f6 bc
       0.19483222 -0.10061244 -0.0052429815 -0.030114697
000190 e1 94 05 ba 06 ee f0 bd 6d 80 2a bd e5 40 7c 3d
       -0.0005095732 -0.11764149 -0.041626383 0.061585326
0001a0 6c 03 a1 bd 70 47 8e b9 f5 e1 00 bc 1e 9f 92 3c
       -0.07861981 -0.00027137576 -0.007866372 0.017898139
0001b0 b1 d2 4f be 9e 0d b5 3c 2f 8a bb 3c 48 5b 61 bd
       -0.20295216 0.02210122 0.02289304 -0.055018693
0001c0 20 23 05 3e 15 23 05 be 96 eb 90 3d 37 b1 6b bc
       0.1300168 -0.13001664 0.070761845 -0.014385513
0001d0 1a 27 e3 3c eb 20 7c 3d 74 c0 1b 3e dc d2 9f bc
       0.027728606 0.06155483 0.15210134 -0.019509725
0001e0 21 f1 75 bc 07 6d 2a bd 34 48 87 3d 82 eb bd 3c
       -0.015011103 -0.041607883 0.066055685 0.023183588
0001f0 47 c3 28 3d 34 c3 0a be 3b df 4a 3d 2a e2 08 bd
       0.041201856 -0.13551027 0.049529295 -0.03341881
000200 1a 2b 71 bc 02 df 5d bb 74 f8 73 b9 69 2a 15 be
       -0.014719749 -0.0033854847 -0.00023266842 -0.1456696
000210 b7 ef 29 be a6 52 21 be b0 7b 97 bc 3b d9 5f bd
       -0.1659535 -0.15754184 -0.018491596 -0.054650526
000220 bf f0 32 ba cc 55 6f bd 4c 80 ce bd 60 ba c7 3d
       -0.0006826035 -0.05843143 -0.100830644 0.09752345
000230 0f 7e b2 bd 68 14 e4 3d e4 31 26 bd 1b 79 d6 3d
       -0.0871545 0.11136705 -0.040574923 0.10472318
000240 23 7d 88 3d a4 c4 c4 bd 3d 35 4a 3c cc 3a 77 bd
       0.06664493 -0.09607819 0.012341795 -0.060358807
000250 25 24 c3 bc c8 52 c6 3d 14 da 62 bd b1 81 10 bd
       -0.023820946 0.09683758 -0.055383757 -0.035279933
000260 06 d6 0e 3e e3 77 8a 3d 0b 08 0a 3e db 0f 95 bd
       0.13948831 0.06761148 0.1347963 -0.07278415
000270 07 1d 0f bd 58 67 72 be 5f 39 e8 bd 85 11 60 bd
       -0.034939792 -0.23672235 -0.11339068 -0.054704208
000280 d8 d2 88 3d 8a 46 c7 3c 35 2b 9b bd 45 4f ba bd
       0.0668084 0.024325628 -0.075766005 -0.09097151
000290 a0 24 b4 3b 1b 8c 6f 3c a4 d0 13 3d 76 3d 79 3d
       0.00549753 0.014620806 0.036087647 0.06084963
0002a0 bc f8 0c bb e6 7f cf bd 7d f1 dc bd bf 05 8a bd
       -0.0021510562 -0.101318166 -0.10788248 -0.06739377
0002b0 0b 32 25 3d 4d a8 a5 3d e6 57 53 bd 1d 6c 1c 3e
       0.040330928 0.080887415 -0.0515975 0.15275617
0002c0 62 db bd 3c 24 94 8c bd be 34 27 bc 84 84 9a 3c
       0.023175899 -0.06864193 -0.010205446 0.018862016
0002d0 58 85 5f be b7 5f 6c 3d 9d c3 ed 3c 16 a9 20 bd
       -0.2182821 0.05770847 0.02902394 -0.039223753
0002e0 3a 2b 2f bd 7e c7 0c 3e 29 92 a7 bd 21 70 d5 3d
       -0.042765833 0.13747975 -0.08182175 0.104217775
0002f0 d4 42 e8 bc e9 f0 de bc a2 da 29 bd 1f 21 f7 3d
       -0.028352179 -0.027214484 -0.04146827 0.12066864
000300 8c 46 8a 3d 06 6a 12 3d e5 14 5c 3d 5c 31 6b bb
       0.06751737 0.035745643 0.053730864 -0.0035887575
000310 fb 1f 1f 3e f4 72 80 3d e8 a1 2a 3d 92 db c6 3d
       0.15539543 0.062719256 0.041658312 0.097098485
000320 10 fc 83 3a 5f 5c 16 bd 7e ce 04 be 91 ce 66 bc
       0.0010069627 -0.036709186 -0.12969396 -0.014087335
000330 8f b2 3f be 50 34 f4 3d 05 e2 f2 bc 6a 2c 93 3d
       -0.18720458 0.1192404 -0.02964879 0.07186206
000340 b4 46 4c 3c 37 4c 67 bd db 00 7d bb 2f be 92 3d
       0.012468029 -0.05646917 -0.0038605246 0.07165181
000350 6f ae d5 bd da ee d7 bd 41 97 c3 3d 46 c9 ad bd
       -0.10433661 -0.10543604 0.09550334 -0.084856555
000360 6a f2 2f 3c 3e 55 2f bc d9 a9 28 be 68 ed 80 bd
       0.010738948 -0.010701476 -0.16471042 -0.06295282
000370 03 a3 8c 3d 01 a0 8c bd c6 cc a0 3d 78 c2 a6 3d
       0.068670295 -0.06866456 0.078515574 0.08142561
000380 af 7c 44 bc 52 86 c1 3d 71 a7 73 bd c5 50 e5 bc
       -0.0119926175 0.09449448 -0.059485856 -0.027992615
000390 26 a3 3d bc 81 18 05 be 00 2a 8f 3d eb 9b 40 be
       -0.011574542 -0.12997629 0.06990433 -0.18809478
0003a0 23 72 72 bc f3 1c 80 bd a6 c2 5c bd 27 54 34 3e
       -0.01479772 -0.062555216 -0.05389657 0.17610227
0003b0 79 8d 28 3d e2 03 cf 3d b6 bc 04 3d fb 41 09 3e
       0.041150544 0.101081625 0.03240653 0.13404076
0003c0 16 9f 7e 3b ac ba 3a bb 1d b5 05 be 09 ac 86 be
       0.0038852147 -0.0028492613 -0.1305737 -0.26303127
0003d0 33 d8 e2 bd 68 1c 69 3e 33 10 02 3e 40 a0 e6 3d
       -0.11076393 0.22764742 0.12701492 0.11261034
0003e0 ca 08 e7 bd 15 37 d2 3d 81 11 bd bd bb 7f c6 3b
       -0.11280973 0.10264412 -0.09231854 0.006057707
0003f0 7f 42 73 3d 49 32 64 3c 6f f2 4d bd 59 f0 0c be
       0.059389587 0.013928005 -0.05028003 -0.1376356
