results/newOne/Move Behavior/Move Behavior-24999961.onnx (onnx, 293140 bytes, 19 tensors)

action_model._discrete_distribution.branches.0.bias f4 [2]
0.0026764926 -0.0026764902
00000000: 1868 2f3b 0e68 2fbb

action_model._discrete_distribution.branches.0.weight f4 [2, 128]
0.006861679 -0.0051722885 -0.0026336412 0.0020778414 0.029207876 -0.0115735205 -0.004846417 -0.0014194385
-0.013817447 -0.009066111 -0.083627015 0.08688277 0.0003545403 0.034939904 0.002510185 -0.026989473
0.0093579255 -0.04687051 0.022095373 0.03216027 -0.0067166113 -0.0013329724 -0.009691946 0.004730658
0.012944394 0.0004103082 -0.01502762 0.04586537 -0.034527704 0.011210234 0.0072287354 0.02370718
0.00029979256 -0.017676938 -0.010260715 -0.024315385 0.009975435 -0.047566 0.012982189 0.026027922
-0.014862987 -0.0312648 0.008753094 -0.032216974 0.012674048 0.006119602 -0.03034184 -0.013367423
-0.010904012 0.006486899 -0.026990285 0.029711489 -0.030545797 0.0077319383 -0.022587068 0.022648718
0.013748969 0.006405728 -0.006747054 -0.0066547394 -0.024916608 -0.008878863 0.016193405 0.0024109716
-0.007543375 -0.06532594 -0.034735512 0.007699306 -0.018082159 -0.035907004 0.0006120811 -0.011257945
-0.01675171 -0.016000168 -0.021700315 -0.00030297093 0.014236669 -0.017179472 -0.0148873525 -0.029982118
-0.014220758 0.00068655494 -0.038776714 -0.07224625 0.02815722 -0.01725737 -0.020273298 -0.011560669
0.049214102 0.010113188 0.008997882 0.013199963 0.0014897885 0.022676181 0.024934415 0.01657792
-0.05242303 0.012219071 0.022443151 -0.06818577 -0.012518477 -0.018842887 -0.03528481 -0.018916525
-0.055013753 -0.006721672 0.009867161 0.041378506 -0.01861273 -0.037162513 0.008555571 -0.0025835861
-0.022435093 -0.040781476 -0.028602595 -0.0036613166 -0.015576484 -0.027882583 0.015401092 0.019698564
-0.0060736025 -0.008426291 -0.028087042 0.05930529 0.006701191 -0.027026441 -0.0108286925 -0.012340718
0.024815315 0.02097032 0.013661631 -0.005009023 -0.024209065 0.005885761 0.015438426 0.015936524
0.012188836 0.0066613085 0.065700784 -0.070702195 0.0031524322 -0.03625601 0.005557878 0.022596406
-0.004697299 0.03199491 -0.0035189448 -0.03339605 0.006420896 -0.0023613158 0.018642057 -0.005815164
0.0014920696 0.0033160667 0.009785927 -0.03207037 0.027978167 0.034419905 0.010125877 -0.029478215
0.0038217423 0.013994829 0.022500843 0.025963724 -0.0045025107 0.04733177 -0.021400038 0.0030420045
0.011753276 0.017891942 -0.010597583 0.040818226 -0.00069576496 -0.021488473 0.010290296 -0.006101853
0.016834784 0.0025267918 0.01979491 -0.001143713 0.02988808 0.0073197256 0.00046671022 -0.04501162
-0.0011592995 -0.007621522 -0.007627635 0.019652149 0.010092652 0.006041239 -0.017790306 0.012885332
0.021088665 0.070557475 0.025498176 -0.010248672 0.012626972 0.041189436 -0.022089317 0.0026231026
0.01531012 0.0075293086 0.016875733 0.011296909 0.002368146 0.0026398906 0.023811292 0.03017357
-0.008388718 0.00466793 0.029044207 0.06615515 -0.012255188 0.0028274718 -0.0017564195 0.011277855
-0.030820154 -0.016199905 -0.018965323 -0.012806591 0.0012570777 0.0027190694 -0.013072588 -0.015642954
0.035097394 -0.007724139 -0.020670757 0.05237227 0.021642324 0.009267733 0.036243025 0.02275258
0.040576596 0.008671738 0.014200406 -0.033109862 0.014612273 0.036058977 -0.009226453 -0.013748814
0.02384504 0.022196028 0.0043680323 0.014211943 0.012465399 0.015812898 -0.01082206 -0.0001489027
0.026665451 -0.0053175874 0.023269605 -0.05870089 0.0029811652 0.028685514 0.010181743 0.014669882
00000000: efd7 e03b 4d7c a9bb 2b99 2cbb 652c 083b
00000010: 5b45 ef3c dd9e 3dbc b1ce 9ebb 740c baba
00000020: 9362 62bc 078a 14bc a444 abbd 98ef b13d
00000030: 98e1 b939 251d 0f3d ea81 243b 0719 ddbc
00000040: fc51 193c 4bfb 3fbd 5b01 b53c 7dba 033d
00000050: 0517 dcbb 22b7 aeba f8ca 1ebc a303 9b3b
00000060: b914 543c a21e d739 6836 76bc 54dd 3b3d
00000070: ec6c 0dbd 21ab 373c 07df ec3b 8f35 c23c
00000080: 7a2d 9d39 3acf 90bc 8f1c 28bc 0f31 c7bc
00000090: 0270 233c 91d4 42bd 3fb3 543c 8238 d53c
000000a0: e383 73bc 850f 00bd 2369 0f3c f2f5 03bd
000000b0: cfa6 4f3c f186 c83b 738f f8bc 0903 5bbc
000000c0: bea6 32bc 0e90 d43b bb1a ddbc 8265 f33c
000000d0: 2e3b fabc 335c fd3b 8408 b9bc ce89 b93c
000000e0: 5b43 613c 24e7 d13b 6416 ddbb 0010 dabb
000000f0: ea1d ccbc a778 11bc 08a8 843c 6401 1e3b
00000100: 6a2e f7bb 9bc9 85bd d346 0ebd 764a fc3b
00000110: 0921 94bc 3913 13bd 1174 203a 3e73 38bc
00000120: e23a 89bc c912 83bc dcc4 b1bc 12d8 9eb9
00000130: eb40 693c f7bb 8cbc 15ea 73bc 0f9d f5bc
00000140: 2ffe 68bc ecf9 333a 55d4 1ebd d8f5 93bd
00000150: f8a9 e63c 545f 8dbc 3014 a6bc f668 3dbc
00000160: ba94 493d c9b1 253c da6b 133c a844 583c
00000170: 0245 c33a 66c3 b93c 4243 cc3c 6bce 873c
00000180: 88b9 56bd 8032 483c b3da b73c fba4 8bbd
00000190: 4c1a 4dbc 665c 9abc ce86 10bd d4f6 9abc
000001a0: 1a56 61bd 7941 dcbb dfa9 213c 827c 293d
000001b0: b979 98bc b837 18bd aa2c 0c3c 6251 29bb
000001c0: cdc9 b7bc 7a0a 27bd fd4f eabc b3f2 6fbb
000001d0: 8234 7fbc 046a e4bc dd54 7c3c e25e a13c
000001e0: 1205 c7bb 6d0e 0abc cc16 e6bc 1bea 723d
000001f0: aa95 db3b 8e66 ddbc d46a 31bc b930 4abc
00000200: 7d49 cb3c f3c9 ab3c 09d5 5f3c bb22 a4bb
00000210: 1752 c6bc 58dd c03b 74f1 7c3c 508d 823c
00000220: afb3 473c 1b47 da3b 228e 863d 50cc 90bd
00000230: 0999 4e3b 2f81 14bd dc1e b63b 191c b93c
00000240: cdeb 99bb 180d 033d 199e 66bb 4cca 08bd
00000250: 6166 d23b 4ec0 1abb 3ab7 983c 228d bebb
00000260: 8c91 c33a 5e52 593b 2755 203c 385c 03bd
00000270: 7832 e53c e3fb 0c3d 02e7 253c 4c7c f1bc
00000280: 3276 7a3b 914a 653c b053 b83c e0b1 d43c
00000290: cc89 93bb f5de 413d 224f afbc 5e5c 473b
000002a0: d090 403c 1f92 923c 7ca1 2dbc 0331 273d
000002b0: ff63 36ba 9808 b0bc a198 283c 0ef2 c7bb
000002c0: 1ae9 893c 8898 253b ef28 a23c a4e8 95ba
000002d0: d9d7 f43c 4fda ef3b c9b0 f439 1b5e 38bd
000002e0: a3f3 97ba f6bd f9bb 3df1 f9bb 8bfd a03c
000002f0: a75b 253c 96f5 c53b fabc 91bc 001d 533c
00000300: 23c2 ac3c 7080 903d 8de1 d03c 0cea 27bc
00000310: 5ce1 4e3c 41b6 283d a8f4 b4bc 5ce8 2b3b
00000320: 4cd7 7a3c 6bb8 f63b fa3e 8a3c ac16 393c
00000330: e632 1b3b 0402 2d3b e60f c33c 902e f73c
00000340: d570 09bc 6ff5 983b 1eee ed3c 5a7c 873d
00000350: fcc9 48bc 1b4d 393b a937 e6ba c1c6 383c
00000360: 8c7a fcbc aab5 84bc 2a5d 9bbc bcd2 51bc
00000370: 87c4 a43a 6a32 323b 682e 56bc a725 80bc
00000380: 49c2 0f3d c61a fdbb b855 a9bc 4e84 563d
00000390: 3e4b b13c b1d7 173c 9173 143d 9e63 ba3c
000003a0: a533 263d e813 0e3c d2a8 683c 359e 07bd
000003b0: 5168 6f3c 94b2 133d 8c2a 17bc b542 61bc
000003c0: ac56 c33c 72d4 b53c b621 8f3b 36d9 683c
000003d0: ac3b 4c3c 0d8a 813c 024f 31bc c422 1cb9
000003e0: 8171 da3c 283f aebb e69f be3c 5870 70bd
000003f0: a75f 433b e2fd ea3c 53d1 263c f259 703c

action_model._discrete_distribution.branches.1.bias f4 [2]
0.0027464635 -0.0027464088
00000000: 03fe 333b 18fd 33bb

action_model._discrete_distribution.branches.1.weight f4 [2, 128]
-0.009880369 0.010986272 -0.003242378 0.004257623 0.0038282855 -0.024302006 0.013772227 0.014568439
0.009303611 -0.022825 0.096886836 -0.08509828 -0.0020725504 -0.017645186 -0.005981061 -0.0050932844
-0.027371237 -0.011447533 -0.043762065 -0.04689912 -0.010024637 0.0029657288 -0.007972012 0.016336737
-0.0063109132 0.005487646 0.00050886784 -0.03438071 0.035288822 -0.0026832758 -0.029616753 -0.0026518232
0.0045662243 -0.00095061347 0.032416165 0.028313518 -0.002006317 0.04113878 -0.0315741 -0.017246744
-0.009159736 -0.017592823 0.009992674 0.0033478579 -0.007564432 0.00039506378 -0.0020873018 0.007335345
-0.012399759 0.0027652576 -0.01587552 0.0013969154 0.053433586 0.0003121752 -0.0018906858 -0.054847628
0.016293088 0.00876518 0.0040558768 0.0015952163 -0.011980606 0.0086316345 0.0078120697 -0.004233782
-0.003458923 0.10009297 -0.008620622 -0.012343947 0.01168072 0.03659398 0.009918728 -0.013476103
-0.012625653 0.009789037 -0.022404658 0.0065446896 0.0036496227 0.012878808 -0.0045169094 -0.011163015
-0.010780696 0.0018843027 0.0017386045 0.05965494 -0.019066192 -0.02907044 0.0083523365 -0.010898667
-0.054358155 -0.00579313 0.020144837 -0.012173743 0.010697463 -0.009821539 -0.015078499 0.0050848154
-0.007669993 0.001492959 -0.0033018691 0.085207455 -0.0009506489 0.0040111844 0.022161594 0.0028292155
-0.00019613079 0.006040641 -0.0036439672 -0.06442685 -0.01617157 0.0021917592 -0.0015632488 -0.008172001
-0.004322877 -0.003688488 0.006350565 0.00978596 -0.0009553231 -0.006513007 -0.024634091 -0.0122445775
0.016673127 0.015531255 0.012523218 -0.07370559 -0.009481396 -0.009710961 0.03893595 -0.007723114
-0.0022017534 0.004725977 0.009053345 0.0028081248 -0.0031796412 0.02006187 0.010175527 0.013014459
-0.0032057716 0.019063799 -0.105418816 0.07790139 0.01451648 0.0031432612 -0.004986589 0.019066194
0.0035495078 0.012992772 0.026568355 0.03966307 0.0145476 0.0049429764 0.006891775 -0.00011380423
0.01738677 -0.0114319315 -0.0018360792 0.046346575 -0.025319543 -0.0034190107 -0.0047299955 -0.016256465
-0.015759926 0.0023812095 -0.025097655 -0.01071499 -0.0016714388 -0.0615005 0.013684265 0.0052007954
-0.004878541 -0.0121923955 0.010953728 -0.01761139 0.008421899 0.027514385 0.004545393 -0.032702807
-0.004937284 0.011285816 -0.0011605257 -0.009691514 -0.038984325 -0.013594823 -0.0010232051 0.035749283
0.008648789 0.0052496945 -0.0014717078 0.011900727 -0.0027744868 -0.012077772 -0.004613177 0.003137335
0.005087189 -0.10042576 0.0018483689 -0.0042683478 0.0026727016 -0.026986962 -0.0059213843 0.008607946
0.010094994 0.0026312557 0.0055246684 -0.018755564 -0.016219074 -0.0052231234 0.0021178853 0.0066043558
-0.005853501 -0.013032341 -0.014217401 -0.072488576 -0.0021075124 0.025825365 -0.01562689 -0.0010069427
0.04626827 0.014203085 0.027658734 0.0079064425 -0.003860269 0.0055739917 0.0062494897 -0.0009339549
0.0023044683 0.008409241 0.00660421 -0.08893739 -0.005889694 0.013103151 -0.02540692 0.0025414266
0.003936473 -0.024542512 0.010876017 0.047664583 -0.0065320763 -0.005096329 -0.014433947 -0.0041143117
-0.018668463 0.01324821 -0.008980645 0.015125986 -0.0045537543 0.016408322 0.026166055 0.010579358
0.0064367442 -0.015085293 -0.004444336 0.078440845 -0.009598052 0.015371969 -0.029872965 -0.010402813
00000000: 45e1 21bc c4ff 333c 137e 54bb 8883 8b3b
00000010: f9e3 7a3b 0015 c7bc e8a4 613c 76b0 6e3c
00000020: 2c6e 183c 7ffb babc 9b6c c63d 0248 aebd
00000030: a0d3 07bb a38c 90bc c7fc c3bb 91e5 a6bb
00000040: a539 e0bc 6f8e 3bbc da3f 33bd 4b19 40bd
00000050: 603e 24bc ac5c 423b 0b9d 02bc 9fd4 853c
00000060: c7cb cebb b6d1 b33b 8b65 053a cad2 0cbd
00000070: 038b 103d e6d9 2fbb d59e f2bc 36ca 2dbb
00000080: 44a0 953b 9732 79ba d0c6 043d c0f1 e73c
00000090: 6a7c 03bb 2381 283d d853 01bd 0b49 8dbc
000000a0: b812 16bc d31e 90bc 50b8 233c bc67 5b3b
000000b0: 0edf f7bb 9020 cf39 1dcb 08bb 555d f03b
000000c0: 5c28 4bbc 5339 353b 610d 82bc b418 b73a
000000d0: 2ddd 5a3d 72ab a339 e3d0 f7ba e8a7 60bd
000000e0: 1579 853c d49b 0f3c 29e7 843b 9416 d13a
000000f0: 4e4a 44bc b36b 0d3c 64fc ff3b 8abb 8abb
00000100: 19af 62bb 8bfd cc3d 823d 0dbc 443e 4abc
00000110: 7e60 3f3c 92e3 153d 2982 223c dfca 5cbc
00000120: d4db 4ebc 3262 203c f989 b7bc d674 d63b
00000130: 822e 6f3b a301 533c 9502 94bb 14e5 36bc
00000140: 84a1 30bc b5fa f63a e3e1 e33a bd58 743d
00000150: b430 9cbc 2225 eebc 3dd8 083c 5390 32bc
00000160: a8a6 5ebd 4cd4 bdbb c906 a53c 6174 47bc
00000170: 6944 2f3c 85ea 20bc cf0b 77bc 869e a63b
00000180: 9154 fbbb 64af c33a 2c64 58bb 3f81 ae3d
00000190: f834 79ba 4170 833b 3b8c b53c 5c6a 393b
000001a0: 75a8 4db9 92f0 c53b a0cf 6ebb 39f2 83bd
000001b0: 3e7a 84bc 9ea3 0f3b ede5 ccba dbe3 05bc
000001c0: eca6 8dbb 8fba 71bb 6618 d03b 4b55 203c
000001d0: a66e 7aba 106b d5bb 6fcd c9bc 7b9d 48bc
000001e0: 1596 883c ce76 7e3c 2f2e 4d3c f5f2 96bd
000001f0: db57 1bbc b91a 1fbc 4d7b 1f3d 2d12 fdbb
00000200: 4b4b 10bb 5edc 9a3b 7b54 143c 8408 383b
00000210: 8761 50bb ca58 a43c 41b7 263c 993a 553c
00000220: ec17 52bb af2b 9c3c d2e5 d7bd c48a 9f3d
00000230: 88d6 6d3c 2cff 4d3b 8a66 a3bb b530 9c3c
00000240: dc9e 683b a3df 543c e1a5 d93c be75 223d
00000250: 0f59 6e3c b1f8 a13b 66d4 e13b 2eaa eeb8
00000260: b36e 8e3c ff4c 3bbc 98a8 f0ba e8d5 3d3d
00000270: ee6a cfbc 7b11 60bb 14fe 9abb 472c 85bc
00000280: f61a 81bc 110e 1c3b 9999 cdbc ed8d 2fbc
00000290: 2e14 dbba f3e7 7bbd f833 603c 6f6b aa3b
000002a0: 2bdc 9fbb 9dc2 47bc 4477 333c c345 90bc
000002b0: 01fc 093c d965 e13c 85f1 943b 61f3 05bd
000002c0: f1c8 a1bb 25e8 383c c81c 98ba 28c9 1ebc
000002d0: 07ae 1fbd d2bc 5ebc 111d 86ba d76d 123d
000002e0: a6b3 0d3c a105 ac3b 52e6 c0ba 44fb 423c
000002f0: 2ad4 35bb d9e1 45bc 222a 97bb bf9b 4d3b
00000300: 6fb2 a63b 05ac cdbd f844 f23a 7fdd 8bbb
00000310: 7e28 2f3b c313 ddbc 2c08 c2bb 5808 0d3c
00000320: 7965 253c 2571 2c3b 4708 b53b 45a5 99bc
00000330: dddd 84bc bc26 abbb 38cc 0a3b 5a69 d83b
00000340: bace bfbb 9a85 55bc 1af0 68bc e474 94bd
00000350: 311e 0abb b78f d33c f703 80bc 64fb 83ba
00000360: cc83 3d3d 0eb4 683c 9294 e23c 068a 013c
00000370: 91fc 7cbb 08a6 b63b 85c8 cc3b a7d4 74ba
00000380: 9006 173b eac6 093c 2168 d83b ce24 b6bd
00000390: 56fe c0bb 99ae 563c 2c22 d0bc 108e 263b
000003a0: 87fd 803b 610d c9bc 5231 323c f03b 433d
000003b0: 070b d6bb 1bff a6bb 5d7c 6cbc 59d1 86bb
000003c0: 9bee 98bc 050f 593c 8e23 13bc fcd2 773c
000003d0: a937 95bb bf6a 863c 325a d63c 0b55 2d3c
000003e0: 53eb d23b 4e28 77bc cba1 91bb 98a5 a03d
000003f0: 2641 1dbc b6da 7b3c 26b8 f4bc 8f70 2abc

action_model._discrete_distribution.branches.2.bias f4 [2]
0.02568498 -0.025685
00000000: 4f69 d23c 5969 d2bc

action_model._discrete_distribution.branches.2.weight f4 [2, 128]
0.016607894 -0.0036030489 0.009316213 0.0066945995 0.03668926 -0.017970191 -0.020791953 -0.014686296
-0.023938915 0.0060480717 0.017148502 0.022276683 -0.12453168 0.016852522 -0.0968874 -0.024840992
-0.06885038 -0.046349302 -0.009668635 0.015229102 -0.014467508 0.013992492 -0.058824833 0.024148853
-0.011938063 -0.0009172033 -0.009461979 -0.016665194 0.032400593 -0.023612842 -0.0018584385 0.014220051
-0.0078033335 -0.03008951 0.01761184 0.017874528 -0.0013490706 0.05606843 0.016273145 0.012575776
0.0062479805 -0.015888661 -0.0066853925 0.007171977 -0.006949243 -0.004730979 -0.061224606 0.010864277
-0.018057488 0.0039957403 -0.010761983 0.0125918705 0.022668382 -0.0018273881 -0.023308288 0.023288315
0.010006987 -0.0011931871 -0.013507076 -0.022527969 -0.01864127 -0.015684677 0.0033670678 -0.002361852
-0.036299888 0.023185488 -0.016833091 -0.004339991 -0.011400325 0.033481784 0.024267327 0.012180448
-0.01991707 0.0012305351 -0.031658005 -0.014946915 0.0039682365 -0.01234351 -0.024148313 -0.026793566
-0.019181183 -0.029609036 0.061716374 0.047954295 -0.039740626 0.025243355 -0.009735844 -0.028437443
0.016248398 0.0175789 -0.07201416 -0.022614045 -0.02231456 0.018036693 -0.052475434 0.008901622
-0.029878194 0.03625862 0.057870604 0.044356395 -0.013385885 -0.03640545 -0.16867177 -0.043020654
-0.01220869 0.0054658893 -0.14156629 0.017834086 -0.003960575 0.018533994 0.009568296 -0.046968546
-0.01920714 -0.057772838 -0.12664527 -0.011818723 -0.021523481 -0.03417764 -0.059705134 0.011648448
-0.028505392 0.014187851 0.023111308 0.029429708 -0.057058807 -0.03417541 -0.0068753306 -0.13111101
-0.009273654 0.01644915 -0.001734213 -0.006672907 -0.019806823 0.024495324 0.013983356 0.011825749
0.011171119 0.0023702565 -0.015820721 -0.03376238 0.122390114 -0.022884011 0.07960907 0.029348178
0.061718266 0.037125636 0.006671011 -0.001815112 0.025710544 -0.012935354 0.051728707 -0.009886319
0.0025898744 0.0011130057 0.019800818 -0.0032387304 -0.032115635 0.016875891 0.0045539867 -0.023995893
-0.0012374927 0.049248137 -0.01146965 -0.02843711 0.019464474 -0.078589275 0.01086089 -0.0023424523
-0.003963646 0.031589996 -0.013280326 -0.011587979 0.001222154 -0.0028986495 0.047116965 -0.0049308403
0.020679552 -0.010478919 0.028055392 -0.016941622 -0.00810031 -0.015111694 0.022215106 -0.034564186
-0.0029043758 0.005647196 0.013711603 0.025778066 0.029688029 0.020647267 -0.015952395 0.01988997
0.03033943 -0.018184077 0.024031071 0.012673138 0.014184253 -0.011614555 -0.005524929 0.0011911269
0.012667342 0.022164574 0.027922958 0.008548896 0.003726055 0.018485066 0.029145388 0.025266679
0.013454133 0.0071601365 -0.05319004 -0.057197228 0.045252264 -0.03133118 0.01014027 0.030835275
-0.012120259 -0.017108968 0.07402617 -0.011527301 0.0112192 0.0020293882 0.056373555 -0.024047896
0.04118883 -0.029206622 -0.04023543 -0.046369027 0.02030153 0.02120713 0.17472894 0.03091752
0.015344165 0.0090897735 0.14522552 -0.020854497 0.011979987 -0.018721752 -0.009585934 0.059297755
0.018721476 0.033416685 0.122781 -0.010514521 0.0062089213 0.019806225 0.06698961 0.0018814609
0.011627508 0.0013601282 -0.019267883 -0.029811475 0.051869504 0.01312366 -0.010380799 0.11642465
00000000: 470d 883c 2121 6cbb 08a3 183c 5f5e db3b
00000010: 7a47 163d 3936 93bc e353 aabc ca9e 70bc
00000020: 8b1b c4bc e72e c63b 047b 8c3c 977d b63c
00000030: 770a ffbd 4d0e 8a3c e76c c6bd 567f cbbc
00000040: 6e01 8dbd c4d8 3dbd 3269 1ebc 7c83 793c
00000050: 2009 6dbc c440 653c 4ff2 70bd d1d3 c53c
00000060: de97 43bc 7970 70ba 6b06 1bbc 7285 88bc
00000070: 7cb6 043d b86f c1bc d996 f3ba 37fb 683c
00000080: 1bb3 ffbb 477e f6bc b546 903c 9a6d 923c
00000090: 4cd3 b0ba 03a8 653d 424f 853c a10a 4e3c
000000a0: dcbb cc3b f028 82bc 2311 dbbb e702 eb3b
000000b0: 7ab6 e3bb 5406 9bbb a7c6 7abd 1500 323c
000000c0: 4ced 93bc b3ee 823b 0753 30bc 224e 4e3c
000000d0: 0bb3 b93c f884 efba 06f1 bebc 23c7 be3c
000000e0: 58f4 233c b764 9cba c84c 5dbc 938c b8bc
000000f0: 94b5 98bc 277d 80bc 06aa 5c3b 4dc9 1abb
00000100: 31af 14bd 7eef bd3c 8de5 89bc 7c36 8ebb
00000110: 6ec8 3abc 3224 093d 46cc c63c 8090 473c
00000120: 2029 a3bc e849 a13a d3ab 01bd e8e3 74bc
00000130: fb07 823b 6f3c 4abc afd2 c5bc 2e7e dbbc
00000140: db21 9dbc a68e f2bc 4fca 7c3d b96b 443d
00000150: 11c7 22bd 27cb ce3c 1783 1fbc a4f5 e8bc
00000160: 5c1b 853c a001 903c 297c 93bd 1741 b9bc
00000170: 06cd b6bc b0c1 933c 7bf0 56bd 1cd8 113c
00000180: 1dc3 f4bc eb83 143d ba09 6d3d 0daf 353d
00000190: 7950 5bbc e21d 15bd 4bb8 2cbe 6d36 30bd
000001a0: f506 48bc 341b b33b c1f6 10be ca18 923c
000001b0: b6c7 81bb 9ad4 973c 58c4 1c3c 1762 40bd
000001c0: 4b58 9dbc 36a3 6cbd 4caf 01be 51a3 41bc
000001d0: 0352 b0bc dafd 0bbd 5f8d 74bd 22d9 3e3c
000001e0: 2484 e9bc 2974 683c ed53 bd3c 9216 f13c
000001f0: 7fb6 69bd 84fb 0bbd 744a e1bb f741 06be
00000200: 86f0 17bc 5ec0 863c 884e e3ba 67a8 dabb
00000210: eb41 a2bc 6baa c83c 721a 653c c9c0 413c
00000220: 1207 373c 4e56 1b3b 759a 81bc 6c4a 0abd
00000230: aba7 fa3d 4077 bbbc 150a a33d 976b f03c
00000240: 4bcc 7c3d 0d11 183d 7f98 da3b 0de9 edba
00000250: eb9e d23c cfee 53bc 7be1 533d 3afa 21bc
00000260: e2ba 293b 46e2 913a 5335 a23c e140 54bb
00000270: af8b 03bd 4f3f 8a3c 9c39 953b 0993 c4bc
00000280: 5d33 a2ba 6ab8 493d 33eb 3bbc f1f4 e8bc
00000290: f673 9f3c 6af3 a0bd e0f1 313c d483 19bb
000002a0: 79e1 81bb 8364 013d b995 59bc 82db 3dbc
000002b0: af30 a03a 45f7 3dbb b8fd 403d e392 a1bb
000002c0: 2a68 a93c c6af 2bbc 6cd4 e53c 28c9 8abc
000002d0: 2ab7 04bc 0a97 77bc 74fc b53c 2d93 0dbd
000002e0: 5757 3ebb 1d0c b93b a2a6 603c 862c d33c
000002f0: 4f34 f33c 7524 a93c 99ae 82bc 4af0 a23c
00000300: 658a f83c c6f6 94bc cfdc c43c fea2 4f3c
00000310: 1265 683c f94a 3ebc 770a b5bb 961f 9c3a
00000320: af8a 4f3c 7b92 b53c b0be e43c ab10 0c3c
00000330: d430 743b fe6d 973c 4fc2 ee3c 11fc ce3c
00000340: b96e 5c3c 949f ea3b cddd 59bd a447 6abd
00000350: 705a 393d 2055 00bd 6023 263c 429a fc3c
00000360: 0d94 46bc 1b28 8cbc 089b 973d 01dd 3cbc
00000370: bcd0 373c 7cff 043b f5e7 663d 1800 c5bc
00000380: 9eb5 283d ba42 efbc e8cd 24bd 73ed 3dbd
00000390: 654f a63c 93ba ad3c 25ec 323e bd46 fd3c
000003a0: 1866 7b3c 46ed 143c 00b6 143e 0dd7 aabc
000003b0: b547 443c 5c5e 99bc 520e 1dbc 34e2 723d
000003c0: c85d 993c efdf 083d 9b74 fb3d 1945 2cbc
000003d0: 3574 cb3b aa40 a23c d931 893d 5a9b f63a
000003e0: 4e81 3e3c 5446 b23a aed7 9dbc 3237 f4bc
000003f0: 1e75 543d 9f04 573c 3a14 2abc 0c70 ee3d

action_model._discrete_distribution.branches.3.bias f4 [2]
0.044352982 -0.044352967
00000000: 79ab 353d 75ab 35bd

action_model._discrete_distribution.branches.3.weight f4 [2, 128]
-0.03633574 8.846995e-05 -0.022449533 0.010538426 0.03179166 -0.054518342 -0.007798219 -0.005859365
-0.022743532 -0.030664533 0.012983367 -0.03263477 0.11303934 0.0003231255 0.068278365 -0.020102546
0.032269746 -0.023952296 -0.048664622 -0.06954745 -0.0018133173 -0.0340849 0.024298776 -0.015417788
0.0079709 -8.52013e-06 -0.0068464666 -0.022022417 -0.05058922 -0.01697663 0.008348701 -0.0018098906
0.00063006673 -0.008260339 -0.010228063 -0.004642943 -0.012248875 -0.063386776 -0.07322767 0.001210041
-0.010501838 -0.024810286 -0.0058939424 -0.017917067 0.008172027 0.013842517 0.028696723 -0.011624982
-0.021931302 -0.02520061 -0.023901194 9.011448e-05 -0.029691517 0.008861945 -0.025613436 -0.06515186
0.0010047305 -0.002391661 -0.015127541 -0.012022172 -0.021360118 -0.021367135 -0.002157268 -0.008875101
-0.0055329646 0.014181482 -0.001948133 -0.0218146 -0.012091903 -0.041234687 0.0041436674 -0.006264617
-0.0050551593 -0.0051931804 0.008225157 -0.040556625 0.0054807076 -0.016962819 -0.024501845 -0.031280823
-0.03241078 -0.01943337 -0.051921368 -0.030826142 0.052040204 -0.040875006 -0.0001724624 0.00073756126
-0.012542303 0.0020263314 0.06918545 -0.002120777 -0.0217063 0.003388604 0.05710889 0.02252794
-0.029225511 0.016124293 0.04487771 -0.00016216532 -0.028268075 0.0031402137 0.1433366 -0.024982594
-0.001923394 -0.003653317 0.12317216 -0.061193418 -0.016316552 -0.01758242 -0.0026811222 0.04712525
-0.028017243 -0.019810125 0.11279187 -0.027438056 -0.015575922 -0.02141486 0.026601434 0.0072977897
-0.014729764 -0.0019705037 9.756165e-05 -0.032486286 0.0472841 -0.029247673 -0.020414365 0.10586826
0.045623846 0.014152511 0.021001915 -0.000240854 -0.02603477 0.044085428 0.023087276 0.0110522
0.015620049 0.023307942 -0.0023940909 0.029650673 -0.106520474 -0.0017058048 -0.08960744 0.016969927
-0.048376016 0.042893935 0.03796479 0.054893605 0.008962105 0.008751307 -0.025643649 -0.0070649376
-0.0011200225 0.00808228 0.007567117 0.03680174 0.03619144 0.007237721 -0.0034297782 0.0060582147
0.009310713 0.029849714 0.021076314 0.018984439 0.017749708 0.050578255 0.07230304 -0.002228688
-0.011930044 0.016439924 -0.015431901 0.014631555 -0.010034806 -0.010531558 -0.012095527 -0.016162857
0.005756411 0.030555693 0.031526074 -0.012087961 0.02088254 -0.010051352 0.015809426 0.07060505
-0.008536382 -0.011665756 0.013214851 0.010665634 -0.0048843953 0.022811646 -0.010340177 0.009158531
0.032779958 0.0024770603 0.02145146 -0.0067519033 0.023153655 0.0356474 -0.01591228 0.004709391
-0.0115761515 0.017313479 -0.017520308 0.015887156 -0.0003021123 0.022599349 0.016181372 0.0167518
0.03192996 0.0292811 0.04805789 0.03547976 -0.034564525 0.024352 -0.0014695304 0.0034403047
0.0063657663 -0.023943348 -0.08436446 -0.0150463665 0.037307344 -0.015596226 -0.07135158 -0.00856942
0.024148578 -0.009133345 -0.018895803 0.01438282 0.012199625 0.024472587 -0.118625365 0.013217651
0.0004896888 0.0026345602 -0.11162052 0.049391795 0.016211022 0.0404792 0.007898664 -0.04848932
0.018255463 0.0054981806 -0.11389932 0.010239187 0.021006662 0.0023699512 -0.03608233 -0.015376176
0.016990662 0.013300177 0.03978926 0.03138804 -0.045181554 0.027484229 0.017345095 -0.124458164
00000000: c9d4 14bd f188 b938 15e8 b7bc 5da9 2c3c
00000010: f937 023d a04e 5fbd 3488 ffbb ebff bfbb
00000020: a550 babc 3034 fbbc 30b8 543c 09ac 05bd
00000030: 2b81 e73d 2c69 a939 87d5 8b3d 18ae a4bc
00000040: 482d 043d 9b37 c4bc 8e54 47bd e56e 8ebd
00000050: d5ac edba 9c9c 0bbd 3a0e c73c e49a 7cbc
00000060: 6198 023c aef1 0eb7 5358 e0bb 5b68 b4bc
00000070: a436 4fbd 9312 8bbc fdc8 083c da39 edba
00000080: 102b 253a 5f56 07bc 9b93 27bc d423 98bb
00000090: 81af 48bc edd0 81bd 63f8 95bd 3d9a 9e3a
000000a0: e70f 2cbc f13e cbbc f921 c1bb d0c6 92bc
000000b0: f7e3 053c b9cb 623c 6415 eb3c b576 3ebc
000000c0: 46a9 b3bc 8271 cebc 70cc c3bc d8fb bc38
000000d0: a03b f3bc b131 113c 45d3 d1bc 576e 85bd
000000e0: 29b1 833a 6abd 1cbb 81d9 77bc a5f8 44bc
000000f0: 6afb aebc 210a afbc f460 0dbb df68 11bc
00000100: df4d b5bb 7259 683c 7f58 ffba 88b4 b2bc
00000110: 1e1d 46bc b4e5 28bd 9ac7 873b 6b47 cdbb
00000120: c0a5 a5bb 8e2b aabb cfc2 063c b41e 26bd
00000130: 8297 b33b 9cf5 8abc 18b8 c8bc 5220 00bd
00000140: 2bc1 04bd bb32 9fbc 80ab 54bd 1b87 fcbc
00000150: 1c28 553d 8d6c 27bd 06d7 34b9 e658 413a
00000160: 3b7e 4dbc 33cc 043b 1ab1 8d3d bcfc 0abb
00000170: 69d1 b1bc 5713 5e3b 03eb 693d 848c b83c
00000180: 576a efbc 1817 843c b1d1 373d ec0a 2ab9
00000190: 7392 e7bc 0bcc 4d3b d4c6 123e 4ca8 ccbc
000001a0: 651a fcba 7d6c 6fbb af41 fc3d f3a5 7abd
000001b0: 4aaa 85bc 0209 90bc c4b5 2fbb 6806 413d
000001c0: 6b84 e5bc d848 a2bc 6dff e63d c6c5 e0bc
000001d0: 2732 7fbc 376e afbc 40eb d93c 4c22 ef3b
000001e0: 1c55 71bc 9123 01bb 039a cc38 5710 05bd
000001f0: f9ac 413d d198 efbc 073c a7bc 75d1 d83d
00000200: 12e0 3a3d efdf 673c 350c ac3c c18d 7cb9
00000210: df46 d5bc ec92 343d 8721 bd3c 4914 353c
00000220: 3ceb 7f3c 4cf0 be3c 2ee6 1cbb f8e5 f23c
00000230: 6827 dabd 5095 dfba 1b84 b7bd 8404 8b3c
00000240: ee25 46bd 8db1 2f3d f880 1b3d 1ed8 603d
00000250: cbd5 123c a461 0f3c a112 d2bc fe80 e7bb
00000260: b8cd 92ba 8a6b 043c 94f5 f73b 6cbd 163d
00000270: 7a3d 143d 672a ed3b 21c6 60bb fd83 c63b
00000280: f68b 183c 6387 f43c 3ca8 ac3c 4185 9b3c
00000290: d667 913c 252b 4f3d 9e13 943d 2e0f 12bb
000002a0: 3b76 43bc 05ad 863c 16d6 7cbc 31b9 6f3c
000002b0: 0769 24bc 8e8c 2cbc 512c 46bc f867 84bc
000002c0: 46a0 bc3b ef4f fa3c 7c21 013d 950c 46bc
000002d0: dc11 ab3c 6dae 24bc c582 813c 6199 903d
000002e0: 2edc 0bbc ba21 3fbc 1a83 583c e9be 2e3c
000002f0: 470d a0bb 7ddf ba3c d969 29bc aa0d 163c
00000300: 4744 063d 2d56 223b f9ba af3c 123f ddbb
00000310: bcac bd3c 0203 123d 785a 82bc 3c51 9a3b
00000320: e6a9 3dbc ffd4 8d3c c086 8fbc c825 823c
00000330: d464 9eb9 4522 b93c cc8e 843c 123b 893c
00000340: fdc8 023d ebde ef3c 5ad8 443d 3a53 113d
00000350: 8893 0dbd d87d c73c 429d c0ba bc76 613b
00000360: eb97 d03b d724 c4bc 46c7 acbd 0985 76bc
00000370: 96cf 183d 5087 7fbc c720 92bd c166 0cbc
00000380: 3dd3 c53c 07a4 15bc 5fcb 9abc eba5 6b3c
00000390: f0e0 473c bc7a c83c dbf1 f2bd d98e 583c
000003a0: 765e 003a 96a8 2c3b 4d99 e4bd 0d4f 4a3d
000003b0: facc 843c 85cd 253d 6669 013c bd9c 46bd
000003c0: 7b8c 953c 152a b43b 0c44 e9bd 43c2 273c
000003d0: 2a16 ac3c 2f51 1b3b 11cb 13bd 5bec 7bbc
000003e0: 0030 8b3c fce8 593c 10fa 223d bf90 003d
000003f0: 4b10 39bd 9b26 e13c 4d17 8e3c ece3 febd

discrete_action_output_shape f4 [1, 4]
2.0 2.0 2.0 2.0
00000000: 0000 0040 0000 0040 0000 0040 0000 0040

network_body._body_endoder.seq_layers.0.bias f4 [128]
-0.072990276 0.044926085 -0.11566249 -0.1552714 -0.027681425 -0.052211907 -0.03223023 -0.010603387
-0.004453376 -0.032113686 -0.026870394 -0.04128798 0.00018939984 -0.02796792 -0.0053368397 0.027727472
-0.008941466 -0.051776353 -0.0006674782 -0.022289041 -0.11452208 -0.044340022 -0.09324278 -0.01862365
0.057212994 -0.058844067 0.0008657936 0.026315214 -0.0042698565 0.02555365 -0.0010254547 0.030822579
-0.06257107 0.06714124 -0.06153011 0.024912661 -0.029077033 -0.056930404 -0.06747496 -0.018666273
0.009395056 0.017832356 0.0021033164 0.0010536311 -0.0027387978 0.012005537 0.021084825 -0.08141183
-0.019471088 -0.0714135 -0.0026362827 -0.071432486 -0.097861014 -0.06415914 -0.00014563977 -0.036442928
-0.07076363 -0.0062442515 0.02175066 -0.012715208 0.011429435 -0.011346707 -0.046618734 -0.017507551
-0.053407762 -0.0035713795 -0.07679251 0.03063475 0.0123819085 -0.053486228 -0.08730674 0.06925845
-0.06116028 -0.07142846 0.018810028 -0.028702527 -0.00759653 -0.059066508 -0.03719216 -0.011380607
-0.015125784 0.002066011 -0.027357299 -0.006346748 0.0056563686 0.018068243 -0.1018473 -0.061431363
-0.064653456 -0.0010239223 -0.004496343 -0.008977557 0.0002231219 -0.025808737 -0.043594766 -0.16032474
-0.014227418 0.0105551835 -0.0034994339 0.04108357 -0.05583991 -0.03585906 -0.020377332 -0.038493056
0.0026080518 -0.05667701 -0.002177827 -0.014999582 -0.118200496 -0.002300023 -0.014599881 0.03393904
0.02346684 -0.08737097 -0.03123499 0.017897911 -0.1590352 -0.061861306 -0.09002384 -0.061590135
-0.111501746 -0.036004417 -0.098774344 -0.05048774 -0.0016935521 -0.008292705 -0.04392232 -0.06637344
00000000: ed7b 95bd 6a04 383d 75e0 ecbd 77ff 1ebe
00000010: 28c4 e2bc 27dc 55bd d803 04bd d4b9 2dbc
00000020: a0ed 91bb a489 03bd 4d1f dcbc 961d 29bd
00000030: a299 4639 fb1c e5bc a8e0 aebb b924 e33c
00000040: 3a7f 12bc 7113 54bd b4f9 2eba 8297 b6bc
00000050: 8d8a eabd e29d 35bd 12f6 bebd a090 98bc
00000060: 2c58 6a3d 7a06 71bd 6df6 623a 0193 d73c
00000070: 27ea 8bbb e355 d13c 8d68 86ba a27f fc3c
00000080: 4325 80bd 5981 893d ff06 7cbd a315 cc3c
00000090: f532 eebc db2f 69bd 5030 8abd 03ea 98bc
000000a0: b9ed 193c 2915 923c cbd7 093b fe19 8a3a
000000b0: 677d 33bb dfb2 443c 15ba ac3c 3fbb a6bd
000000c0: d581 9fbc 3e41 92bd 7cc5 2cbb 324b 92bd
000000d0: 5b6b c8bd de65 83bd e1b6 18b9 2e45 15bd
000000e0: 86ec 90bd 949c ccbb 712e b23c 7353 50bc
000000f0: 8642 3b3c 8ae7 39bc 49f3 3ebd ff6b 8fbc
00000100: 19c2 5abd ce0d 6abb 6445 9dbd baf5 fa3c
00000110: 7ddd 4a3c 6014 5bbd e0cd b2bd 60d7 8d3d
00000120: 3483 7abd 1649 92bd 7d17 9a3c 9021 ebbc
00000130: 50ec f8bb b9ef 71bd ce56 18bd ba75 3abc
00000140: 23d2 77bc ea65 073b 6a1c e0bc 62f8 cfbb
00000150: 0f59 b93b da03 943c 5195 d0bd 749f 7bbd
00000160: 0869 84bd 2235 86ba 0f56 93bb 9a16 13bc
00000170: d4f5 6939 d86c d3bc 6d90 32bd 2b2c 24be
00000180: 1e1a 69bc a6ef 2c3c c256 65bb 3f47 283d
00000190: 64b8 64bd f3e0 12bd 5dee a6bc e5aa 1dbd
000001a0: d9eb 2a3b 2726 68bd e0b9 0ebb cfc0 75bc
000001b0: 1a13 f2bd fcbb 16bb 5734 6fbc aa03 0b3d
000001c0: 883d c03c 8def b2bd 86e0 ffbc a49e 923c
000001d0: 20da 22be 4862 7dbd 6b5e b8bd f045 7cbd
000001e0: 075b e4bd 5e79 13bd 344a cabd 3ccc 4ebd
000001f0: 2efa ddba 20de 07bc e4e7 33bd ccee 87bd

network_body._body_endoder.seq_layers.0.weight f4 [128, 36]
0.2925982 0.0197082 -0.1446266 0.07935744 0.20430806 0.0854888 0.122581705 0.031518545
-0.22392164 0.22945541 -0.14986625 -0.034378838 -0.21360624 0.65342075 -0.052918263 -0.18741302
0.37698194 0.3542753 0.09779965 -0.18616469 0.018499352 0.678903 0.2173248 -0.46758553
0.054252353 -0.20765257 0.2692671 0.3272335 -0.33196506 -0.037883937 0.085655354 -0.17722312
-0.24714361 0.0029851082 0.18182282 -0.012471582 -0.11483665 -0.09789459 -0.27831185 -0.27753356
0.14375395 0.31859347 0.23255101 -0.012971735 -0.20732582 0.3173486 0.18039446 0.17524037
-0.18486324 0.23168135 0.076029636 0.16086012 -0.17802255 0.30690563 0.32954428 0.05217661
0.17661908 0.46330738 -0.06709548 0.16292772 -0.011671874 0.41950354 0.30113572 0.0009044187
0.24025321 -0.08744054 -0.032102875 0.0946534 0.086221606 -0.2916838 0.14395756 0.06257541
-0.038170703 -0.12235171 0.14557779 -0.13774377 0.026016202 0.06067524 0.30990773 0.114329375
0.2708136 0.3809651 -0.13065988 -0.41477367 0.14852001 0.13796423 -0.21431106 0.050426245
0.09167596 0.45326477 0.12865448 -0.1970453 0.05583842 0.6089205 -0.08364165 -0.27019006
-0.2948482 -0.32195735 0.11094092 0.15615024 -0.080686174 -0.024172973 0.038604572 -0.040844224
-0.03547815 -0.074218184 0.044424225 -0.06405375 -0.034778517 -0.3204204 -0.25702363 -0.28062198
-0.05165424 0.22283238 -0.13055968 0.18343556 0.52707267 0.07381006 -0.192011 -0.13196808
0.12889528 0.32515293 0.090463996 -0.06530198 0.0430056 0.08709773 0.031828895 0.21898095
-0.05820582 0.05163746 0.06847574 -0.21893385 0.33360025 -0.31302172 0.2667624 -0.10946221
0.20434704 -0.07592158 -0.04691129 -0.16564852 -0.061509117 -0.011976895 0.27016112 0.16751117
-0.025606781 0.16927499 -0.032516696 0.26186574 0.12447157 -0.804986 -0.2786076 0.0062971376
0.04975718 -0.7273486 0.1807696 -0.15059878 -0.25333154 -0.39647168 0.13516553 0.0039277887
0.16483857 -0.5072006 -0.21347302 0.25782487 0.14390448 -0.4453463 0.16033733 0.09783369
0.4286153 -0.18231438 -0.27093044 -0.28844678 -0.035632733 -0.008952639 -0.068159774 0.36488816
-0.15421188 0.06608584 -0.16280551 -0.079482645 0.018358735 -0.13775663 0.034817062 -0.12089512
-0.15231785 0.00654229 -0.033196233 0.011960567 -0.04053704 0.1344412 0.024421066 -0.24441183
-0.21634302 -0.11857519 0.16461009 -0.007833964 0.3285811 0.20412292 -0.29424512 -0.18799166
0.025596982 -0.43322966 -0.050027918 0.085161686 -0.21494123 0.0780673 -0.1302606 -0.12826547
0.21873586 -0.3613084 0.028771799 0.11048012 0.1524837 -0.16112204 0.3365885 -0.10189678
-0.062004097 0.01647798 0.18845427 -0.03595014 -0.12061781 0.624954 -0.11715095 -0.112118416
-0.17443298 0.16203013 -0.17436253 -0.44977573 0.3465495 0.14145619 -0.0745077 0.040366657
0.011139439 0.40641814 -0.158797 0.33596915 0.16745746 0.5190656 -0.1918727 0.0060620815
-0.124048114 0.1306559 0.1554288 -0.17789198 0.25811133 0.008436015 -0.07310071 0.1435768
0.12358197 0.0021318854 0.10446839 0.2486498 0.3832476 -0.0039515886 0.26228932 -0.087093614
00000000: 6ecf 953e 1773 a13c ff18 14be 2786 a23d
00000010: 2236 513e c114 af3d 1e0c fb3d 9719 013d
00000020: b74b 65be 5cf6 6a3e 8a76 19be d3d0 0cbd
00000030: 98bb 5abe 9546 273f d2c0 58bd 33e9 3fbe
00000040: c703 c13e 9263 b53e 2f4b c83d f5a1 3ebe
00000050: f48b 973c 96cc 2d3f 648a 5e3e 5f67 efbe
00000060: b737 5e3d e0a2 54be 61dd 893e 268b a73e
00000070: 53f7 a9be 302c 1bbd 136c af3d fa79 35be
00000080: 3713 7dbe cea1 433b c32f 3a3e 9b55 4cbc
00000090: 7a2f ebbd f57c c8bd e47e 8ebe e118 8ebe
000000a0: 3c34 133e af1e a33e da21 6e3e 6687 54bc
000000b0: 384d 54be 847b a23e 53b9 383e 3672 333e
000000c0: ca4c 3dbe e03d 6d3e 6db5 9b3d 84b8 243e
000000d0: 8b4b 36be bc22 9d3e 07ba a83e 24b7 553d
000000e0: a2db 343e a036 ed3e 5b69 89bd 86d6 263e
000000f0: 633b 3fbc 2bc9 d63e 762e 9a3e 8316 6d3a
00000100: f004 763e 0714 b3bd 4e7e 03bd a4d9 c13d
00000110: f494 b03d 9457 95be 9c69 133e 8927 803d
00000120: e258 1cbd 8993 fabd 5812 153e b40c 0dbe
00000130: ee1f d53c 9a86 783d 3aac 9e3e 8525 ea3d
00000140: 15a8 8a3e dc0d c33e b4cb 05be 375d d4be
00000150: a115 183e 7f46 0d3e 5c74 5bbe c08b 4e3d
00000160: 9bc0 bb3d 5212 e83e 00be 033e 3ec6 49be
00000170: d4b6 643d 37e2 1b3f 504c abbd 5a56 8abe
00000180: 58f6 96be 98d7 a4be fe34 e33d d9e5 1f3e
00000190: cb3e a5bd 6606 c6bc d41f 1e3d 464c 27bd
000001a0: 8951 11bd b4ff 97bd 2df6 353d 9d2e 83bd
000001b0: eb73 0ebd 250e a4be 9a98 83be afad 8fbe
000001c0: 6593 53bd 2c2e 643e 70b1 05be 88d6 3b3e
000001d0: 3cee 063f bb29 973d 889e 44be a422 07be
000001e0: 20fd 033e 727a a63e 3045 b93d 0bbd 85bd
000001f0: a426 303d 4b60 b23d 045f 023d 8b3c 603e
00000200: 3a69 6ebd cd81 533d 023d 8c3d 3230 60be
00000210: a7cd aa3e 6244 a0be 1595 883e b92d e0bd
00000220: 5a40 513e c67c 9bbd 0e26 40bd c49f 29be
00000230: fcf0 7bbd bd3a 44bc 8f52 8a3e 0c88 2b3e
00000240: 50c5 d1bc 6c56 2d3e 3a30 05bd 4413 863e
00000250: f3ea fe3d 9013 4ebf a8a5 8ebe 3858 ce3b
00000260: 2fce 4b3d 8533 3abf ab1b 393e 9136 1abe
00000270: acb4 81be 56fe cabe d568 0a3e aeb4 803b
00000280: 71cb 283e e6d7 01bf ac98 5abe 9f01 843e
00000290: b25b 133e 6e04 e4be 782f 243e 085d c83d
000002a0: 7773 db3e 9fb0 3abe 65b7 8abe 4caf 93be
000002b0: a1f3 11bd 17ae 12bc 5a97 8bbd 9fd2 ba3e
000002c0: b8e9 1dbe 0358 873d 7db6 26be ccc7 a2bd
000002d0: 0f65 963c 1310 0dbe 569c 0e3d dc97 f7bd
000002e0: 36f9 1bbe b560 d63b c6f8 07bd 41f6 433c
000002f0: 2b0a 26bd f4aa 093e b00e c83c 1847 7abe
00000300: 0689 5dbe 8dd7 f2bd 8c8f 283e 075a 00bc
00000310: c83b a83e 9905 513e 4ca7 96be e380 40be
00000320: c3b0 d13c 47d0 ddbe 13ea 4cbd 4069 ae3d
00000330: 8e19 5cbe c0e1 9f3d 0963 05be 0658 03be
00000340: 4bfc 5f3e 6afd b8be d6b2 eb3c 6743 e23d
00000350: b024 1c3e 2dfd 24be 5455 ac3e 42af d0bd
00000360: 02f8 7dbd d4fc 863c 28fa 403e 7440 13bd
00000370: 7806 f7bd fcfc 1f3f d6ec efbd 579e e5bd
00000380: 8f9e 32be 3aeb 253e 178c 32be 0149 e6be
00000390: f06e b13e e4d9 103e 7e97 98bd 8257 253d
000003a0: 3282 363c 0a16 d03e ae9b 22be 2604 ac3e
000003b0: f879 2b3e 7ce1 043f 477a 44be 6da4 c63b
000003c0: f00c febd a9ca 053e ba28 1f3e 5129 36be
000003d0: 2b27 843e 3637 0a3c d3b5 95bd cc05 133e
000003e0: 8b18 fd3d 1ab7 0b3b 86f3 d53d 0e9e 7e3e
000003f0: 0839 c43e 547c 81bb c94a 863e 235e b2bd

network_body._body_endoder.seq_layers.2.bias f4 [128]
-0.060991917 0.0057183728 -0.042531572 0.014191239 -0.028640268 -0.07232215 -0.08133574 -0.016791308
-0.1571648 -0.12585393 -0.088494666 -0.026099112 -0.16603826 -0.12242614 0.05107462 -0.16016307
0.034841735 -0.021012895 0.0067103184 -0.013739259 0.012596365 -0.020836275 -0.12438436 -0.13691056
-0.01853819 -7.3804586e-05 -0.014591515 -0.050330147 0.013154162 0.014705723 -0.028672079 0.012251148
-0.0019588824 -0.030411243 -0.025619205 -0.045250963 -0.109926805 -0.1806929 -0.009486917 -0.1961366
-0.014572126 0.00076811353 0.002231491 -0.0039365874 -0.12842244 0.017340895 -0.055107743 -0.22650039
-0.1058815 -0.0021920835 0.027047046 -0.0432556 -0.054574706 -0.1760398 0.0055781156 -0.00912186
-0.087992646 -0.0011025348 0.0068389038 -0.041189615 0.023438208 -0.07309468 -0.030120045 -0.026803387
-0.04394885 -0.0010657979 -0.0065370793 -0.055882704 -0.030193403 -0.037598763 -0.031153567 -0.025241354
-0.017311944 -0.050027594 0.020740706 -0.11561337 -0.14314124 -0.0045983563 0.048458915 -0.10798679
-0.05600203 -0.02027326 -0.07289109 0.003062857 0.08818196 0.00017033282 0.0027829874 0.0047241333
-0.026642319 -0.13046071 0.071672775 -0.045560684 -0.11348412 0.0073434985 -0.040082175 -0.040060677
-0.06928471 -0.02012179 -0.02059464 -0.006115979 -0.13086563 -0.06074307 -0.061189033 -0.05081619
-0.0897927 0.002903718 -0.09941658 0.0071246414 -0.037585966 -0.04967456 0.016888442 0.033368595
-0.18652208 -0.16799217 0.0027965077 0.017526066 -0.20593862 -0.13663116 -0.02465077 -0.04715636
-0.015916271 0.0020298522 -0.07266725 -0.13219143 -0.06836216 0.02852239 -0.033048786 -0.13427205
00000000: a9d2 79bd 3061 bb3b 9635 2ebd 5f82 683c
00000010: ff9e eabc a31d 94bd 5a93 a6bd ed8d 89bc
00000020: cfef 20be dadf 00be b13c b5bd cecd d5bc
00000030: ef05 2abe 8eba fabd 9f33 513d ca01 24be
00000040: 35b6 0e3d 3c23 acbc 3be2 db3b a11a 61bc
00000050: fc60 4e3c d6b0 aabc 3abd febd 4832 0cbe
00000060: 67dd 97bc 89c7 9ab8 4011 6fbc fc26 4ebd
00000070: 8e84 573c 46f0 703c b5e1 eabc 0ab9 483c
00000080: 9860 00bb 0021 f9bc 5edf d1bc 1359 39bd
00000090: 4e21 e1bd 8f07 39be 046f 1bbc 08d8 48be
000000a0: edbf 6ebc 3a5b 493a 353e 123b 7dfe 80bb
000000b0: 2c81 03be 7e0e 8e3c a8b8 61bd b8ef 67be
000000c0: 66d8 d8bd 0fa9 0fbb c491 dd3c c92c 31bd
000000d0: ba89 5fbd c743 34be a0c8 b63b db73 15bc
000000e0: 7d35 b4bd ee82 90ba e218 e03b 71b6 28bd
000000f0: 7c01 c03c aab2 95bd 50be f6bc c792 dbbc
00000100: b603 34bd 3eb2 8bba ff34 d6bb 43e5 64bd
00000110: 2858 f7bc 2901 1abd c435 ffbc f5c6 cebc
00000120: c7d1 8dbc bce9 4cbd 6ae8 a93c b4c6 ecbd
00000130: 9e93 12be cfad 96bb db7c 463d 2e28 ddbd
00000140: 6262 65bd 1c14 a6bc ec47 95bd 37ba 483b
00000150: be98 b43d 5e9b 3239 c862 363b e7cc 9a3b
00000160: fe40 dabc 7e97 05be 2dc9 923d d79d 3abd
00000170: 5d6a e8bd bba1 f03b 352d 24bd aa16 24bd
00000180: 24e5 8dbd 74d6 a4bc 17b6 a8bc 8d68 c8bb
00000190: a401 06be bacd 78bd 5aa1 7abd a324 50bd
000001a0: 3ce5 b7bd 4e4c 3e3b eb9a cbbd d375 e93b
000001b0: bef3 19bd 8d77 4bbd a159 8a3c 82ad 083d
000001c0: a5ff 3ebe 2406 2cbe 9d45 373b d392 8f3c
000001d0: 93e1 52be 0ae9 0bbe 69f0 c9bc 0727 41bd
000001e0: d762 82bc 4507 053b 91d2 94bd 315d 07be
000001f0: 7601 8cbd caa7 e93c 2a5e 07bd 9d7e 09be

network_body._body_endoder.seq_layers.2.weight f4 [128, 128]
-0.12482299 0.04798248 -0.038707342 -0.12373913 -0.13043287 -0.016740706 -0.035313874 0.1418322
0.14797232 -0.1612943 -0.030730283 -0.0076155956 0.111012645 0.03628914 0.11656391 0.047259618
0.04549479 0.10737563 -0.06904979 0.079371214 -0.15834478 0.09907991 0.059310734 0.0241326
0.1324184 0.08726492 0.077627055 0.06386127 0.04874548 0.16404034 -0.01630431 0.23420388
0.0068632946 0.23528913 -0.022729406 0.09160338 -0.04995868 -0.05344862 -0.041609224 -0.022282498
-0.014482894 0.1838814 0.13992207 0.1632543 0.014160223 -0.035655044 0.14854233 -0.0018772626
0.011696265 -0.004110967 -0.05878292 0.10321088 0.087174445 -0.06878749 0.10487937 -0.080867216
0.052150615 -0.017610561 0.060690235 0.02684849 -0.03623875 -0.059293654 0.08403861 -0.18799502
0.06576815 0.027829506 0.091770835 0.18735915 0.027533934 -0.1309117 0.09452384 0.23924899
-0.04004565 0.2883015 0.20991705 0.012006446 0.045156997 -0.14097327 0.15887852 -0.11232709
0.21558616 -0.0025464708 0.09628802 -0.0013206007 0.058358587 -0.013348405 0.084474444 -0.023485769
-0.11137722 -0.0993094 0.1595155 -0.013845786 -0.17747064 0.031101601 -0.022460377 0.01900837
0.11123205 0.14829588 -0.04285721 0.059089568 0.021368401 0.06536407 0.2024936 0.03268924
0.12124225 -0.048534498 0.024415921 0.029031906 0.1300975 0.03352822 0.025386434 0.34561247
0.101306476 -0.17824478 0.11491064 0.11304607 0.08811718 0.15002199 -0.24177492 0.042259376
0.042252194 0.056728024 0.061320685 0.108557664 -0.07170489 0.024750656 -0.09612485 0.038685404
-0.038664397 -0.0434129 0.06313278 0.11234541 0.3132413 -0.11622926 0.09111811 0.062879354
-0.15357013 0.09696308 0.14576487 0.02947853 0.07337503 -0.16742858 -0.254781 -0.29874313
-0.070526004 -0.10041359 0.2570746 0.15498379 0.16050805 0.27096617 0.2078926 -0.1387235
0.04453067 -0.044789236 0.08472217 -0.2590151 -0.021372404 0.077625416 0.05982072 -0.17597865
0.0142923 -0.18525577 0.07542354 -0.05216992 -0.062292308 -0.04547879 -0.03199216 0.0031412076
0.19193752 -0.034819186 -0.13015981 -0.06581766 0.031589624 -0.13964857 -0.13050757 0.015211363
0.021831214 -0.07522236 -0.051129878 0.12862198 -0.13033253 -0.016572652 0.1430872 0.11733934
-0.10950149 -0.13065375 0.017787598 -0.20498574 -0.13145305 -0.010636934 -0.012837712 0.001896247
-0.02927263 0.013911878 -0.15703286 -0.15281989 -0.17360736 -0.112642184 -0.15560634 -0.2527743
0.13995089 0.043992974 -0.1069187 -0.15316688 0.062243506 0.001995206 -0.02335575 0.02277538
-0.06732651 0.07431314 -0.14164971 0.18831943 0.058149517 0.09158152 -0.09353516 0.060375676
-0.0010788405 0.012732474 -0.01401546 0.11297208 0.014871354 -0.014305907 0.009282499 -0.1432756
-0.16281165 -0.13827771 -0.13530312 0.16288482 0.11391893 -0.067191 0.043719478 -0.06475607
-0.0021484622 0.008043153 0.14647047 -0.19733971 0.057763685 0.082058154 -0.0068411073 0.117957056
-0.232095 -0.08034262 -0.12200682 -0.041360036 -0.11208682 -0.049637485 0.0022388431 -0.09792455
-0.04158188 -0.05737751 -0.09007722 -0.22387569 0.09694282 0.059178364 -0.030772528 -0.048347916
00000000: 32a3 ffbd 4789 443d 978b 1ebd f16a fdbd
00000010: 3290 05be ce23 89bc 48a5 10bd 763c 113e
00000020: 0e86 173e 552a 25be 13be fbbc 3f8c f9bb
00000030: 995a e33d eca3 143d 0fb9 ee3d 4d93 413d
00000040: bf58 3a3d c1e7 db3d fa69 8dbd 608d a23d
00000050: 2225 22be 68ea ca3d d0ef 723d bbb1 c53c
00000060: b098 073e f3b7 b23d effa 9e3d b3c9 823d
00000070: 57a9 473d 31fa 273e 9e90 85bc 24d3 6f3e
00000080: 7de5 e03b a2ef 703e 0533 babc 8e9a bb3d
00000090: 79a1 4cbd f1ec 5abd 6f6e 2abd c989 b6bc
000000a0: a949 6dbc 684b 3c3e bb47 0f3e 232c 273e
000000b0: 4800 683c 060b 12bd 7b1b 183e 7b0e f6ba
000000c0: b1a1 3f3c 4ab5 86bb 5cc6 70bd 3a60 d33d
000000d0: 8488 b23d 75e0 8cbd ffca d63d b69d a5bd
000000e0: e29b 553d 0644 90bc 5396 783d 5df1 db3c
000000f0: 156f 14bd e7dd 72bd 6f1c ac3d c481 40be
00000100: 74b1 863d b4fa e33c 59f2 bb3d 14db 3f3e
00000110: d88e e13c b70d 06be b795 c13d b0fd 743e
00000120: e806 24bd 419c 933e 7ff4 563e afb6 443c
00000130: 8bf6 383d 4c5b 10be 0db1 223e bf0b e6bd
00000140: 9ec2 5c3e b1e2 26bb a732 c53d 0218 adba
00000150: 6a09 6f3d 45b3 5abc f000 ad3d 3a65 c0bc
00000160: bd19 e4bd ba62 cbbd 0858 233e 70d9 62bc
00000170: ddba 35be c9c8 fe3c d3fe b7bc 71b7 9b3c
00000180: a1cd e33d e0da 173e 0b8b 2fbd e707 723d
00000190: c90c af3c 99dd 853d 7b5a 4f3e 27e5 053d
000001a0: db4d f83d 1ccc 46bd e603 c83c 52d4 ed3c
000001b0: 4738 053e e354 093d 36f7 cf3c 1ef4 b03e
000001c0: c579 cf3d cd85 36be 4556 eb3d b384 e73d
000001d0: c876 b43d 5d9f 193e d893 77be 2b18 2d3d
000001e0: a310 2d3d a55b 683d 662b 7b3d 7b53 de3d
000001f0: 03da 92bd e3c1 ca3c 1bdd c4bd 9674 1e3d
00000200: 8f5e 1ebd bad1 31bd c24b 813d 5a15 e63d
00000210: 2a61 a03e 9b09 eebd 229c ba3d e4c6 803d
00000220: 7d41 1dbe 9494 c63d 6343 153e f57c f13c
00000230: a645 963d 6672 2bbe a872 82be dcf4 98be
00000240: f06f 90bd a4a5 cdbd 489f 833e 12b4 1e3e
00000250: 395c 243e 14bc 8a3e cce1 543e 880d 0ebe
00000260: cb65 363d eb74 37bd d182 ad3d a19d 84be
00000270: 2e15 afbc 13fa 9e3d 9206 753d bf33 34be
00000280: 402a 6a3c b0b3 3dbe a877 9a3d 20b0 55bd
00000290: 3826 7fbd f847 3abd 360a 03bd b8dc 4d3b
000002a0: 458b 443e 909e 0ebd 9d48 05be 69cb 86bd
000002b0: 1f64 013d 0900 0fbe c7a3 05be 1539 793c
000002c0: 60d7 b23c 2e0e 9abd 906d 51bd 7bb5 033e
000002d0: e475 05be 5fc3 87bc 7385 123e 9c4f f03d
000002e0: 5142 e0bd 19ca 05be 4cb7 913c c8e7 51be
000002f0: a19b 06be 8946 2ebc 4455 52bc 7e8b f83a
00000300: 28cd efbc a5ee 633c 39cd 20be d17c 1cbe
00000310: 21c6 31be f2b0 e6bd 4557 1fbe a26b 81be
00000320: 494f 0f3e fa31 343d 31f8 dabd c7d7 1cbe
00000330: 0cf3 7e3d 01c2 023b 8f54 bfbc 6f93 ba3c
00000340: 7be2 89bd 7d31 983d 9f0c 11be cfd6 403e
00000350: 302e 6e3d 188f bb3d 5d8f bfbd 7c4c 773d
00000360: e167 8dba de9b 503c 1aa1 65bc e85d e73d
00000370: fba6 733c 5363 6abc 9f15 183c d7b6 12be
00000380: 19b8 26be ac98 0dbe e78c 0abe 47cb 263e
00000390: 544e e93d 6f9b 89bd 3213 333d d59e 84bd
000003a0: 37cd 0cbb 6ec7 033c 5bfc 153e 6c13 4abe
000003b0: 9d99 6c3d 1b0e a83d 5e2b e0bb 7893 f13d
000003c0: 50aa 6dbe ac8a a4bd b6de f9bd 2469 29bd
000003d0: c68d e5bd ad50 4bbd 8eb9 123b ab8c c8bd
000003e0: c351 2abd ae04 6bbd 687a b8bd ab3f 65be
000003f0: f589 c63d 0365 723d ab16 fcbc 7708 46bd

network_body._body_endoder.seq_layers.4.bias f4 [128]
0.0033280363 0.006836146 0.01249102 -0.2342139 0.018207263 0.009115478 0.016210925 -0.13728423
-0.14527644 0.0064474787 -0.045919858 -0.007727478 -0.020688977 -0.12069066 0.004035876 -0.014704481
0.0052591385 -0.0065912255 0.006879101 0.03421832 0.005192723 -0.18383282 0.015692547 0.010287522
-0.007002455 0.00093576085 -0.14700317 0.034642354 0.014407647 -0.005744819 -0.017814402 -0.19573921
-0.028633138 -0.019813193 -0.08987919 0.02042384 0.006516337 -0.34638444 -0.17617717 -0.023358518
-0.029719342 -0.023035066 0.006595177 0.03546125 0.02169974 -0.015314781 0.02480323 0.0066536805
-0.007911494 -0.2585766 -0.16915198 -0.0126356715 -0.18430431 0.0198862 -0.1624607 0.04378618
0.03464688 -0.54366755 -0.17495291 -0.12617034 -0.19557874 0.0038910892 -0.34812865 -0.22702649
0.013178956 -0.16325437 -0.33089855 0.016269585 -0.119148366 -0.0052926894 0.0015608355 0.011363427
0.00364246 0.0075313407 0.01317463 -0.010794141 -0.3612279 -0.01903918 -0.34244004 -0.44303504
-0.5244292 0.027892016 -0.004949381 -0.1691318 -0.021096969 0.017271776 0.025241112 -0.15124011
0.011399453 -0.0047750906 0.028926872 -0.060112048 0.019091299 0.012191408 -0.32919323 -0.2930807
0.034583427 -0.22677389 -0.16863462 -0.29593107 -0.37776533 0.03185795 -0.13892677 0.037444334
0.020696407 -0.21529664 -0.21553567 -0.219937 -0.017310917 -0.14720084 0.0072863377 0.007467205
0.04964367 -0.03049625 0.027732667 -0.14315607 0.022772372 0.0029260952 -0.087684445 -0.012128247
0.028105143 0.0038790817 0.009385276 0.010770209 -0.019389143 0.010669832 -0.42936906 -0.17836186
00000000: 2f1b 5a3b c001 e03b 23a7 4c3c c5d5 6fbe
00000010: 6627 953c 1659 153c c6cc 843c 3d94 0cbe
00000020: 59c3 14be 5f45 d33b 7616 3cbd c936 fdbb
00000030: ee7b a9bc aa2c f7bd 623f 843b 10eb 70bc
00000040: da54 ac3b 35fb d7bb 156a e13b 8228 0c3d
00000050: b827 aa3b ac3e 3cbe a88d 803c ff8c 283c
00000060: da74 e5bb d94d 753a 0088 16be 24e5 0d3d
00000070: 0d0e 6c3c 093f bcbb 82ef 91bc dc6f 48be
00000080: 0b90 eabc 474f a2bc 9512 b8bd e64f a73c
00000090: ff86 d53b 4d59 b1be ca67 34be 5d5a bfbc
000000a0: fa75 f3bc 09b4 bcbc 5b1c d83b d13f 113d
000000b0: a7c3 b13c d9ea 7abc 2530 cb3c 1e07 da3b
000000c0: 369f 01bc 2764 84be 2d36 2dbe d905 4fbc
000000d0: 45ba 3cbe 62e8 a23c 195c 26be 2359 333d
000000e0: e3e9 0d3d cc2d 0bbf db26 33be cc32 01be
000000f0: cb45 48be a501 7f3b eb3d b2be a279 68be
00000100: 8cec 573c 272c 27be 896b a9be cb47 853c
00000110: 0f04 f4bd 4c6e adbb f394 cc3a ab2d 3a3c
00000120: 57b6 6e3b 77c9 f63b 67da 573c e9d9 30bc
00000130: ddf2 b8be 0ef8 9bbc 4d54 afbe 7dd5 e2be
00000140: fe40 06bf cc7d e43c 6b2e a2bb e330 2dbe
00000150: 8dd3 acbc 8a7d 8d3c 73c6 ce3c b0de 1abe
00000160: c5c4 3a3c 5d78 9cbb 0cf8 ec3c 0d38 76bd
00000170: 5b65 9c3c 79be 473c 048c a8be ac0e 96be
00000180: 5aa7 0d3d 6a37 68be 8eae 2cbe 4784 97be
00000190: 756a c1be 7b7d 023d d242 0ebe 3b5f 193d
000001a0: 838b a93c b976 5cbe 62b5 5cbe 2a37 61be
000001b0: a0cf 8dbc d1bb 16be 3bc2 ee3b 75af f43b
000001c0: 2957 4b3d 46d3 f9bc 9e2f e33c 8197 12be
000001d0: 208d ba3c bbc3 3f3b e793 b3bd 8eb5 46bc
000001e0: c23c e63c 3138 7e3b b3c4 193c 8875 303c
000001f0: fbd5 9ebc 85d0 2e3c 43d6 dbbe 7ea4 36be
