results/newOne/Move  Behaviour/Move  Behaviour-22180.pt (torch, 545175 bytes, 52 tensors)

discrete_act_size_vector f4 [1, 4]
2.0 2.0 2.0 2.0
00000000: 0000 0040 0000 0040 0000 0040 0000 0040

network_body._body_endoder.seq_layers.0.weight f4 [128, 36]
0.35792992 0.08643736 0.033117734 0.22844614 0.11783691 -0.0193168 -0.13596596 -0.042865627
0.108562365 -0.1718462 -0.01305172 -0.075088724 -0.1494979 -0.022669973 -0.20426172 0.13870062
-0.13375884 -0.0055147572 0.015724149 0.14119463 -0.2519637 0.0024829612 0.11929843 0.015082901
-0.048307758 0.0493042 -0.004088859 0.05619487 0.064893186 -0.0015097163 -0.30166334 0.3745526
-0.34257305 -0.1158043 0.007845972 0.24441521 -0.072484344 -0.15852074 0.0035775555 -0.034552254
0.07526421 0.010543739 0.113040105 -0.31726363 0.048880205 0.108407214 0.101969294 -0.23272943
-0.11478494 0.22019556 -0.16019163 -0.35197872 -0.065337874 0.06688166 -0.38159025 0.22197291
0.21958159 -0.18954854 0.18077086 -0.1674924 -0.23314218 0.24885845 -0.014662278 0.03558834
-0.25975734 0.02777472 0.28792894 0.1048668 -0.11984391 -0.20893008 0.14522415 -0.0947431
-0.24458331 0.26743844 0.02458727 -0.100772396 -0.27330893 0.10682882 -0.034787215 0.21110953
-0.052051686 0.2698213 -0.07196097 -0.05235189 -0.12193833 0.055511624 0.014863018 0.13507722
0.1418414 0.034702167 0.04140514 -0.1289306 0.07219851 -0.27102754 -0.15681839 -0.05823521
0.12926513 0.02988626 0.10367449 -0.20768093 0.1553124 0.040074795 -0.1553065 0.22859544
-0.10718023 0.14155638 0.008501613 -0.29195228 -0.0049469178 0.15172125 0.06252246 -0.16335638
-0.31263828 -0.16937916 -0.1741083 0.19893484 0.16010872 -0.17414534 -0.08106303 -0.34079692
0.0036380019 -0.19229846 -0.18324056 0.133559 -0.11493866 0.010116978 -0.04522956 0.32387048
-0.23167096 -0.07620151 -0.04164552 -0.35899746 0.0185979 -0.09953706 0.07416201 0.109901376
-0.06781316 -0.063018456 -0.22126985 -0.02868811 -0.019304939 -0.09857441 -0.20443504 0.20520514
0.17137167 0.14689851 0.10831262 -0.052424535 0.061727926 -0.14181693 -0.23269227 0.34083962
-0.31587547 0.10558525 0.03505757 0.23002926 0.015689002 0.09684045 0.03534478 0.049074665
0.15890895 -0.15910265 0.09489509 -0.22682735 0.14366993 -0.044950742 -0.11537014 0.28632095
-0.10397827 -0.070935115 -0.09271777 0.027922304 -0.011858672 -0.26926845 -0.1458015 0.03981427
-0.25176257 0.05576351 -0.13142979 0.19907448 0.26287788 -0.059982195 0.22862169 -0.08464064
-0.23522332 -0.039265595 -0.1722365 -0.1564265 -0.112801895 -0.22566435 -0.076709256 -0.19948636
0.23310384 -0.15839756 -0.1867904 0.046745203 0.07023895 -0.21476218 0.1775383 -0.029084168
0.118894294 0.038510468 0.35977504 0.116834186 0.1325565 -0.05066298 -0.11357477 0.04374384
0.32101476 -0.16020373 0.15198159 0.07732387 -0.13586913 0.2990122 0.27445728 -0.04697157
-0.088635676 0.11626857 0.31032816 0.07753397 -0.008506941 -0.073881015 0.356426 0.16012506
0.08571346 0.021171842 0.04362411 0.19166353 0.14486009 -0.3219697 -0.31039953 0.09395955
0.2784386 0.120048195 0.10940521 0.1958944 0.2719373 0.21993653 -0.022718266 0.24368803
-0.16577831 0.04213675 0.03127729 0.04283162 -0.057660565 -0.11886483 0.16983543 0.13975778
0.08668306 -0.024586536 -0.0025155095 0.002689224 0.17584926 -0.21539466 -0.13353829 -0.013240893
00000000: 9742 b73e 1206 b13d 76a6 073d c9ed 693e
00000010: 7a54 f13d 443e 9ebc a93a 0bbe de93 2fbd
00000020: f255 de3d 73f8 2fbe e2d6 55bc 1ec8 99bd
00000030: fa15 19be 61b6 b9bc fc29 51be 8907 0e3e
00000040: 14f8 08be 23b5 b4bb eecf 803c 5395 103e
00000050: 6301 81be 2db9 223b bc52 f43d 461e 773c
00000060: 5bde 45bd 33f3 493d d6fb 85bb 982c 663d
00000070: b8e6 843d ace1 c5ba 9e73 9abe 5cc5 bf3e
00000080: bc65 afbe ce2a edbd 648c 003c fb47 7a3e
00000090: ac72 94bd 4353 22be 6c75 6a3b aa86 0dbd
000000a0: 1f24 9a3d a6bf 2c3c 9281 e73d 6170 a2be
000000b0: 9c36 483d 9a04 de3d 47d5 d03d a050 6ebe
000000c0: 5e14 ebbd f27a 613e 4609 24be 8e36 b4be
000000d0: ddcf 85bd 40f9 883d cc5f c3be de4c 633e
000000e0: ffd9 603e 0319 42be ff1b 393e 2183 2bbe
000000f0: d3bc 6ebe c0d4 7e3e 0d3a 70bc 14c5 113d
00000100: eafe 84be cf87 e33c 6c6b 933e 68c4 d63d
00000110: b970 f5bd c4f1 55be a4b5 143e ac08 c2bd
00000120: 0c74 7abe b1ed 883e 3e6b c93c c261 cebd
00000130: 26ef 8bbe 12c9 da3d 0a7d 0ebd 192d 583e
00000140: 2634 55bd 0426 8a3e 4660 93bd ef6e 56bd
00000150: ceba f9bd 2860 633d 0484 733c af51 0a3e
00000160: df3e 113e dc23 0e3d 7098 293d 6206 04be
00000170: d0dc 933d 1fc4 8abe 0095 20be 0b88 6ebd
00000180: 145e 043e 08d4 f43c 4a53 d43d 4faa 54be
00000190: 370a 1f3e 7825 243d ab08 1fbe ec14 6a3e
000001a0: 4f81 dbbd 28f4 103e 594a 0b3c c57a 95be
000001b0: c119 a2bb d15c 1b3e c70b 803d e546 27be
000001c0: 2012 a0be bb71 2dbe 7249 32be 93b5 4b3e
000001d0: 8af3 233e 2853 32be 6004 a6bd ef7c aebe
000001e0: 8b6b 6e3b e3e9 44be 6aa3 3bbe b1c3 083e
000001f0: f664 ebbd aec1 253c a242 39bd 5ad2 a53e
00000200: 273b 6dbe 8a0f 9cbd 7e94 2abd 84ce b7be
00000210: a05a 983c 16da cbbd 40e2 973d f913 e13d
00000220: a0e1 8abd d20f 81bd 9094 62be 5403 ebbc
00000230: 6425 9ebc 61e1 c9bd 6b57 51be 4c21 523e
00000240: 0e7c 2f3e 906c 163e 02d3 dd3d 1cbb 56bd
00000250: 6cd6 7c3d 7538 11be e246 6ebe 8882 ae3e
00000260: 6eba a1be 143d d83d 8798 0f3d ca8c 6b3e
00000270: 3986 803c 4954 c63d b0c5 103d 8402 493d
00000280: 07b9 223e ceeb 22be 5b58 c23d 6e45 68be
00000290: 361e 133e 451e 38bd 2e47 ecbd a998 923e
000002a0: 8ff2 d4bd 6e46 91bd d0e2 bdbd 51bd e43c
000002b0: e04a 42bc 8edd 89be fd4c 15be 4a14 233d
000002c0: 06e7 80be 4768 643d 8895 06be 2eda 4b3e
000002d0: ee97 863e e4af 75bd ce1b 6a3e 1258 adbd
000002e0: 62de 70be f6d4 20bd c45e 30be 452e 20be
000002f0: ae04 e7bd 8e14 67be be19 9dbd 2746 4cbe
00000300: c6b2 6e3e f832 22be fc45 3fbe e677 3f3d
00000310: 70d9 8f3d 9eea 5bbe 9acc 353e ec41 eebc
00000320: da7e f33d 27bd 1d3d 6f34 b83e c346 ef3d
00000330: e4bc 073e fc83 4fbd e499 e8bd be2c 333d
00000340: 0c5c a43e 720c 24be 10a1 1b3e fa5b 9e3d
00000350: 4721 0bbe 2118 993e aa85 8c3e 4365 40bd
00000360: 9f86 b5bd 371e ee3d 55e3 9e3e 21ca 9e3d
00000370: b260 0bbc ee4e 97bd 787d b63e d3f7 233e
00000380: 8a8a af3d 9270 ad3c 32af 323d 7243 443e
00000390: 3456 143e 36d9 a4be b0ec 9ebe dd6d c03d
000003a0: 818f 8e3e d4db f53d d70f e03d 8b98 483e
000003b0: 5e3b 8b3e 0b37 613e a81b babc 5b89 793e
000003c0: cac1 29be 9697 2c3d 9e1c 003d 3570 2f3d
000003d0: 7c2d 6cbd 676f f3bd 57e9 2d3e aa1c 0f3e
000003e0: e386 b13d b469 c9bc 3fdb 24bb b13d 303b
000003f0: d411 343e 6b90 5cbe 43be 08be 55f0 58bc

network_body._body_endoder.seq_layers.0.bias f4 [128]
-0.0007255733 5.4558477e-05 -1.3032786e-06 0.00047951785 -9.521722e-05 -0.00046323607 0.0012502499 -0.0003110247
-0.00014240923 -0.00013509979 -0.00020235761 -0.0007164038 0.0030002 -0.00038337408 -0.0022366126 -0.0005599504
-3.2680842e-07 -0.0020851889 -0.002156989 -0.0008857863 -0.0012184683 5.949433e-05 -0.00028778135 0.00052399805
0.0010016194 -0.0003114271 -0.00046618102 -0.000720022 5.1816365e-05 0.0006195023 0.0008451495 -0.0014113329
0.00075828435 -2.542562e-05 0.00262393 -1.301191e-05 0.0013285528 -0.00093380705 -0.0006776391 -0.0004539419
-0.00045421618 -0.00079445884 -0.001308839 0.0012968798 -4.3544125e-05 -0.00022435325 0.0018107701 0.00018559201
-0.0005711307 -0.00067622704 -0.00044588168 3.9304945e-07 -0.0011520522 0.0001959867 0.0001006935 -0.0014274681
-0.00016990566 -0.00066477485 1.2469975e-05 0.001972741 -0.0071601514 -0.0043016723 -0.0039216075 0.00023527794
-0.0005115437 0.00014662946 -0.0029867718 -0.0001283034 4.63419e-05 -0.00010338714 0.0037626282 -0.00068985816
2.409259e-05 0.00018800086 -0.00053266034 6.321711e-05 4.3988064e-07 -0.00032181782 0.00093928096 -0.00037057517
-0.0027450032 -0.0014332735 -7.9747675e-05 -0.001394438 -0.0010198749 -0.0003674208 0.00023447984 -0.00017225192
-0.0013413654 3.277905e-05 -1.2526262e-05 7.5543e-05 -0.000441841 0.00015873855 -0.00027622088 -0.0011219027
-0.00059731654 0.0045052874 -1.2812269e-06 -0.000313244 -0.004098806 0.0005826034 2.4470237e-05 -0.0002139266
-0.0027134009 -0.00061786856 -0.0002812038 -0.0017381816 -3.4910336e-05 -0.0014714911 -0.005708898 -0.0006486169
0.00094032486 -0.004024388 -0.00093913754 0.0008989404 0.0018038924 5.5835234e-09 8.472456e-06 -0.00018143479
-0.00021840562 0.00042944556 -0.0027105883 -0.0024524273 -0.0020816824 0.00013518364 -0.00028239557 -0.00044349002
00000000: 6634 3eba b8d5 6438 50ec aeb5 cc67 fb39
00000010: 5baf c7b8 7ede f2b9 6ddf a33a 0711 a3b9
00000020: b053 15b9 93a9 0db9 f52f 54b9 0ccd 3bba
00000030: 019f 443b 99ff c8b9 2294 12bb a3c9 12ba
00000040: 3574 afb4 aaa7 08bb 455c 0dbb 1d34 68ba
00000050: 03b5 9fba 8d89 7938 5ce1 96b9 ea5c 093a
00000060: c548 833a 0a47 a3b9 c269 f4b9 dcbf 3cba
00000070: 6655 5938 1866 223a 068d 5d3a 79fc b8ba
00000080: 9ac7 463a 1a49 d5b7 3ef6 2b3b ba4d 5ab7
00000090: d622 ae3a bbca 74ba 97a3 31ba 0dff edb9
000000a0: dd23 eeb9 3b43 50ba 598d abba 11fc a93a
000000b0: 26a3 36b8 5e40 6bb9 5d57 ed3a 7a9b 4239
000000c0: efb7 15ba d444 31ba 3ac5 e9b9 4e04 d334
000000d0: 7500 97ba c781 4d39 692b d338 e219 bbba
000000e0: b428 32b9 4944 2eba 2336 5137 1a49 013b
000000f0: b49f eabb 0bf5 8cbb d480 80bb f1b4 7639
00000100: 1e19 06ba 8cc0 1939 b7bd 43bb 2f89 06b9
00000110: 3c5f 4238 8cd1 d8b8 6d96 763b 99d7 34ba
00000120: 711a ca37 1922 4539 3ba2 0bba 6d93 8438
00000130: bc28 ec34 a8b9 a8b9 143a 763a c249 c2b9
00000140: 83e5 33bb aedc bbba 353e a7b8 93c5 b6ba
00000150: 53ad 85ba 63a2 c0b9 b4de 7539 869e 34b9
00000160: c1d0 afba 3d7c 0938 e327 52b7 d76c 9e38
00000170: e5a6 e7b9 0e73 2639 bdd1 90b9 cf0c 93ba
00000180: 3c95 1cba 17a1 933b 9ff6 abb5 e63a a4b9
00000190: 474f 86bb dab9 183a 6f45 cd37 7c51 60b9
000001a0: 50d3 31bb 75f8 21ba 896e 93b9 b2d3 e3ba
000001b0: b06c 12b8 0cdf c0ba b511 bbbb f107 2aba
000001c0: 2280 763a 03df 83bb 7430 76ba dea6 6b3a
000001d0: 9670 ec3a 31d9 bf31 ec24 0e37 883f 3eb9
000001e0: d003 65b9 3527 e139 20a4 31bb e7b8 20bb
000001f0: d66c 08bb 15c0 0d39 7e0e 94b9 3984 e8b9

network_body._body_endoder.seq_layers.2.weight f4 [128, 128]
-0.025824204 0.011093453 -0.11806565 -0.039735697 -0.04864315 -0.25088945 -0.01839733 0.032613035
-0.07677795 -0.143568 -0.11402616 0.008620105 -0.16679846 0.022670284 0.05705398 0.02493298
-0.054420006 0.029458411 -0.03350035 -0.12983255 0.033203993 0.112375975 -0.10968916 0.020494219
0.07945608 -0.051552672 -0.037596386 0.045829568 -0.10599479 0.14605784 -0.06561146 0.0010775615
-0.010701321 -0.06961206 -0.013967666 -0.09293723 -0.043738622 -0.06929622 0.03381626 -0.021773405
-0.13218884 0.058072377 -0.08879895 0.06911989 -0.034176726 -0.08274917 -0.019689571 -0.0985056
0.14854395 0.017989056 -0.09140553 -0.06266738 -0.11403993 0.028227426 -0.008063632 0.042639133
-0.03258331 0.034074817 0.15812771 0.044306416 -0.16737399 0.08310141 -0.09585419 0.0976299
-0.062230546 0.06643452 0.07352595 0.004985206 -0.025214385 -0.08548003 0.0082080895 0.019088218
0.0785358 -0.0825397 -0.07621935 0.10776282 0.07963818 0.034839183 -0.15297042 -0.159399
-0.021073358 0.1228026 -0.15622553 0.18766296 0.06636224 -0.017720649 -0.025039071 -0.02818945
0.009833538 0.023269774 -0.075526714 0.094184466 -0.005524465 -0.043314517 0.12718228 0.0057710125
0.06660987 0.1632955 0.014842249 -0.07371795 -0.19520693 -0.023769489 0.022638962 0.08924697
0.06815958 0.011732241 -0.031894293 0.118057474 0.01290224 0.10189472 0.013749524 -0.020216895
0.07011715 -0.028708842 -0.1350912 0.00644628 -0.076115616 0.02231178 -0.09569638 -0.3236114
-0.042146914 -0.017040556 0.029904649 -0.14985381 0.04327468 -0.021156682 -0.039322097 0.05239618
-0.03933803 -0.044863857 -0.1136437 -0.09294339 0.23782015 0.059535068 -0.04103445 0.03884025
-0.054333813 -0.008534431 -0.043543883 -0.019877816 0.0248056 0.031619105 -0.026950182 0.19535196
0.010439738 -0.020275008 -0.09482965 0.13616504 -0.09777407 0.00080192054 0.013330286 -0.093044646
0.12310824 0.1398644 0.13937864 -0.12924118 -0.16298078 -0.027488511 0.02876759 0.10364377
-0.06329747 0.09312593 0.10232537 0.03067032 -0.1323893 -0.027829334 -0.028810676 0.033123527
0.013006922 0.00238514 0.0589721 0.064881645 0.08740101 0.013483912 0.12345081 0.087828524
0.09329369 0.15138789 0.09268546 0.03146107 0.09676113 -0.13727167 -0.11979977 -0.09671399
-0.032686144 -0.00022047352 -0.019506013 -0.1949715 -0.017230742 -0.13777246 -0.065112114 -0.0012185223
0.14674746 0.014268408 0.108901545 0.0050467653 0.09519723 0.032569777 -0.053601366 -0.12517716
0.024961872 0.122354336 0.08191136 -0.09396221 -0.040533025 0.14817056 0.13221626 0.09043062
0.057845768 0.03448639 0.0809687 -0.03920568 0.09044128 -0.014177358 0.03544644 -0.037979703
0.17933255 -0.080493756 -0.006888553 -0.05708463 0.020090744 0.036691673 -0.082717724 0.039750125
-0.0339931 -0.050205916 -0.029440936 -0.041919075 0.15656504 -0.15287578 -0.15598859 0.08648685
-0.05826071 0.0073764627 0.06511423 -0.07725267 0.024176098 0.032774057 -0.054758348 0.09343022
-0.06099186 0.11046153 -0.09044669 0.046053957 0.07928612 -0.08129188 0.12174042 -0.12443419
0.031853825 -0.084077135 0.08561311 -0.005979003 -0.012795468 0.15027599 -0.018784929 0.20384401
00000000: 488d d3bc 50c1 353c 67cc f1bd e6c1 22bd
00000010: 0a3e 47bd 9574 80be ffb5 96bc 3f95 053d
00000020: c23d 9dbd 7d03 13be 8c86 e9bd 573b 0d3c
00000030: 37cd 2abe 08b7 b93c 6fb1 693d 4040 cc3c
00000040: 83e7 5ebd c452 f13c aa37 09bd d3f2 04be
00000050: e900 083d 6025 e63d b6a4 e0bd 7ee3 a73c
00000060: dfb9 a23d e528 53bd abfe 19bd c9b7 3b3d
00000070: cc13 d9bd 3090 153e 4d5f 86bd f73c 8d3a
00000080: 9854 2fbc c590 8ebd a3d8 64bc e055 bebd
00000090: 4527 33bd 2deb 8dbd eb82 0a3d 245e b2bc
000000a0: 835c 07be 4ddd 6d3d 39dc b5bd bb8e 8d3d
000000b0: e5fc 0bbd 6678 a9bd 064c a1bc 4ebd c9bd
000000c0: e81b 183e c95d 933c d332 bbbd c157 80bd
000000d0: c48d e9bd 343d e73c 531d 04bc 5fa6 2e3d
000000e0: 1476 05bd 0992 0b3d 3bec 213e a57a 353d
000000f0: 1664 2bbe 1231 aa3d 344f c4bd 2ff2 c73d
00000100: 75e5 7ebd d20e 883d c694 963d f05a a33b
00000110: 668e cebc 2710 afbd 397b 063c e55e 9c3c
00000120: 61d7 a03d 930a a9bd e418 9cbd c1b2 dc3d
00000130: 5819 a33d 88b3 0e3d 47a4 1cbe 7e39 23be
00000140: 09a2 acbc ee7f fb3d 96f9 1fbe b82a 403e
00000150: ede8 873d e52a 91bc bd1e cdbc 90ed e6bc
00000160: d91c 213c 41a0 be3c c0ad 9abd c9e3 c03d
00000170: 9206 b5bb 906a 31bd 123c 023e c31a bd3b
00000180: c16a 883d f036 273e e82c 733c 70f9 96bd
00000190: 53e4 47be 3bb8 c2bc 5875 b93c 1ec7 b63d
000001a0: 4097 8b3d 9638 403c 97a3 02bd 1ec8 f13d
000001b0: eb63 533c 2eae d03d af45 613c e79d a5bc
000001c0: 9599 8f3d ce2e ebbc 5955 0abe 513b d33b
000001d0: 81e2 9bbd 32c7 b63c 77fc c3bd 65b0 a5be
000001e0: 3ea2 2cbd a398 8bbc 98fa f43c 4773 19be
000001f0: ca40 313d c750 adbc 3510 21bd 609d 563d
00000200: ea20 21bd 2ac3 37bd 07be e8bd 1b59 bebd
00000210: 2087 733e 0bdb 733d bd13 28bd f416 1f3d
00000220: 228d 5ebd 00d4 0bbc 125b 32bd cdd6 a2bc
00000230: 1d35 cb3c 0983 013d a1c6 dcbc 580a 483e
00000240: 6f0b 2b3c c617 a6bc 0c36 c2bd d96e 0b3e
00000250: c63d c8bd fa37 523a 4667 5a3c 318e bebd
00000260: 2c20 fc3d 9d38 0f3e 46b9 0e3e cd57 04be
00000270: 6fe4 26be 962f e1bc 02aa eb3c 2f43 d43d
00000280: 1ba2 81bd cfb8 be3d f78f d13d 5340 fb3c
00000290: 1091 07be 58fa e3bc 5e04 ecbc 89ac 073d
000002a0: fc1a 553c 0250 1c3b bb8c 713d abe0 843d
000002b0: 4dff b23d a0eb 5c3c c7d3 fc3d 71df b33d
000002c0: c310 bf3d 6d05 1b3e e0d1 bd3d 53dd 003d
000002d0: b32a c63d f290 0cbe 9559 f5bd fc11 c6bd
000002e0: e8e1 05bd e92e 67b9 13cb 9fbc 9ca6 47be
000002f0: 7c27 8dbc 3914 0dbe 8059 85bd d3b6 9fba
00000300: f744 163e 0ac6 693c c607 df3d 565f a53b
00000310: c4f6 c23d e367 053d 1b8d 5bbd 712e 00be
00000320: d77c cc3c e994 fa3d 25c1 a73d 426f c0bd
00000330: f505 26bd 06ba 173e b363 073e b033 b93d
00000340: afef 6c3d 9a41 0d3d ebd2 a53d 2396 20bd
00000350: 4739 b93d 2648 68bc 4930 113d 9b90 1bbd
00000360: f4a2 373e e9d9 a4bd 5fb9 e1bb 93d1 69bd
00000370: 5895 a43c 024a 163d e967 a9bd 07d1 223d
00000380: 593c 0bbd b8a4 4dbd 1e2e f1bc 56b3 2bbd
00000390: 9652 203e 788b 1cbe 79bb 1fbe 0520 b13d
000003a0: c8a2 6ebd 41b6 f13b 9c5a 853d a636 9ebd
000003b0: f40c c63c 173e 063d 4a4a 60bd 5858 bf3d
000003c0: 9ad2 79bd a839 e23d 1d3c b9bd 13a3 3c3d
000003d0: c360 a23d 5b7c a6bd 0b53 f93d 5ad7 febd
000003e0: 2879 023d a230 acbd ed55 af3d 83eb c3bb
000003f0: 15a4 51bc f3e1 193e dae2 99bc 7cbc 503e

network_body._body_endoder.seq_layers.2.bias f4 [128]
-0.00033767684 -0.0004551303 0.0011564523 -0.00032393727 -0.0028844925 -0.0035851575 -0.0013988324 -0.0010689093
-0.0010341788 -0.00030596758 0.0002092545 -0.0020148873 -0.00016419939 -0.0016620642 -0.0031726074 -0.0018331859
-0.0016980764 0.00034425379 0.0013578231 -0.0007984702 -0.0014115701 0.0013205898 -0.0013946912 8.2775305e-06
-0.0001095045 -0.00010472516 -2.6232534e-05 2.0130943e-05 -0.0011708189 0.00033771622 -0.0003220987 0.004334896
-0.0014797226 -0.00047835516 0.0002850638 -0.0017328287 -0.0013061642 -6.9372796e-08 -0.0003518371 -0.000624967
-0.0018151477 -0.00070461154 -0.0026829485 -0.002570343 0.00046101407 -2.225394e-05 1.0290551e-05 -0.00076421374
-0.0006393434 -0.0010005181 -0.00040375063 -0.00050905545 -0.001544308 -0.0016399894 -0.0010865505 4.4811928e-05
-0.0004337084 -0.0015078483 -0.00079718244 -0.00026313768 -0.0014746446 -0.00025961507 -0.0005315002 -0.0002965779
0.00010665824 -6.500937e-06 -0.0010875203 -0.00081174046 -0.00035222629 -0.0006230639 0.00035988376 -0.00017375943
-0.0006809976 -0.000978553 -0.0007475938 -0.00010614832 -0.0005162312 -0.00038985565 -0.00092363515 -0.00017262266
-0.0019370508 -0.00081916235 -0.0009581112 -4.58768e-06 -0.0022894992 -0.0010845448 -0.00019884633 -4.4751516e-05
0.00081514596 -0.00037036772 -0.0016608265 -0.0013198704 -0.0014883525 -0.000624163 -0.00041830773 -9.21782e-06
-0.0007027859 -0.00021525164 -0.00064812193 -0.00014408374 -0.00026094617 -0.00047867795 -0.0006937678 -0.0008445485
-0.00032767977 -0.0008896169 -0.0009114119 6.489119e-05 0.00021259024 -0.0008404741 -0.00039161253 -6.431815e-05
-0.0004956811 -0.0016225079 -0.00021623595 -6.2910105e-05 -0.00032347618 -0.00019910293 -0.0051354915 -0.004461374
-0.00022684013 -0.00032166878 -0.0016388322 -0.00032466368 0.00038289183 -0.0010355436 -0.00043305647 -0.00060819037
00000000: 380a b1b9 8e9e eeb9 1a94 973a 20d6 a9b9
00000010: c109 3dbb f6f4 6abb 0759 b7ba a51a 8cba
00000020: 488d 87ba 466a a0b9 546b 5b39 330c 04bb
00000030: f02c 2cb9 9fd9 d9ba 85eb 4fbb 8347 f0ba
00000040: fd91 deba f67c b439 fcf8 b13a 6e50 51ba
00000050: 6f04 b9ba a417 ad3a 12ce b6ba b9df 0a37
00000060: c8a5 e5b8 e49f dbb8 f00d dcb7 dfde a837
00000070: 2a76 99ba 810f b139 5bdf a8b9 be0b 8e3b
00000080: 40f3 c1ba becb fab9 9e74 9539 1520 e3ba
00000090: 9933 abba 19fa 94b3 c776 b8b9 d3d4 23ba
000000a0: 40ea edba aeb5 38ba 68d4 2fbb 3373 28bb
000000b0: 43b4 f139 f9ad bab7 94a5 2c37 8455 48ba
000000c0: 9c99 27ba d123 83ba 7eae d3b9 2272 05ba
000000d0: 616a caba eaf4 d6ba 966a 8eba 71f4 3b38
000000e0: 5b63 e3b9 fea2 c5ba 02fa 50ba bef5 89b9
000000f0: dd48 c1ba f21c 88b9 6054 0bba 037e 9bb9
00000100: b5ad df38 a022 dab6 208b 8eba fbca 54ba
00000110: 03ab b8b9 1c55 23ba c8ae bc39 3133 36b9
00000120: fa84 32ba ca42 80ba 2cfa 43ba f29b deb8
00000130: b053 07ba 8a65 ccb9 1b20 72ba 0b02 35b9
00000140: a4e4 fdba 0ebd 56ba c129 7bba dfef 99b6
00000150: 6c0b 16bb 4927 8eba 6881 50b9 93b3 3bb8
00000160: 85af 553a ea2d c2b9 17b0 d9ba 80ff acba
00000170: d314 c3ba df9e 23ba 5050 dbb9 3ca6 1ab7
00000180: 2a3b 38ba 2cb5 61b9 bae6 29ba 2f15 17b9
00000190: 9acf 88b9 11f7 fab9 f8dd 35ba b164 5dba
000001a0: 6fcc abb9 2e35 69ba d1eb 6eba 3116 8838
000001b0: c2ea 5e39 4353 5cba 5851 cdb9 8be2 86b8
000001c0: 98f0 01ba 55aa d4ba 65bd 62b9 9bee 83b8
000001d0: 3d98 a9b9 49c6 50b9 a047 a8bb b830 92bb
000001e0: efdb 6db9 a7a5 a8b9 15ce d6ba 9f37 aab9
000001f0: dfbe c839 14bb 87ba db0b e3b9 f76e 1fba

action_model._discrete_distribution.branches.0.weight f4 [2, 128]
0.008093626 0.007910317 -0.007955874 0.012526381 -0.006986955 -0.006861203 0.0062044435 -0.004578708
5.8150636e-05 0.022612093 -0.00963967 -0.0050833416 0.006824349 0.003090864 -0.0002431266 -0.0026417233
-0.0033463284 -0.0025752564 0.011642036 0.007930879 -0.0038123573 -0.013644665 -0.0036667471 0.012954351
-0.025971886 0.0022146057 0.007133674 0.02300715 0.012584032 0.011046891 -0.009454998 -0.0011195902
0.0115390485 0.001613712 0.0063712425 -0.014992925 -0.0012805518 -0.008937935 -0.00040451216 0.011658052
0.0018980522 0.00919204 0.0046082987 -0.0017511138 -0.0052860817 0.012636262 -0.009042921 0.018175496
-0.0056087 0.005581361 0.004544788 0.0027421485 0.0009497914 0.011046265 0.015058031 -0.0070913904
0.015890403 0.001283453 -0.003687324 0.0051893676 -0.003860044 0.0051140045 -0.002470807 0.0030616699
0.0129441265 0.0077711004 -0.017810654 0.00094066217 -0.009096957 0.0018253255 0.003249257 0.01408238
0.003924572 -0.0076138177 -0.0040889625 0.0020167036 -0.006458489 -0.0016466507 -0.010006653 -0.01014665
-0.010349851 0.0035262934 -0.00049305946 -0.0016621946 -0.0022194164 -0.0030197464 -0.0018084625 -0.0026639176
-0.003932622 0.0025093947 -0.0025591336 -0.012855494 0.018434996 -0.007184473 0.0050920416 -0.011528357
0.0013499468 -0.0023008722 -0.0059591616 -0.013753508 0.00013864855 0.005432705 -0.012490503 0.0013938177
-0.005184163 -0.0164763 -0.0024293447 0.0039455583 -0.00060666754 0.0038058802 0.0036543203 -0.015930116
-0.006796353 -0.0035883114 -0.0036065287 -0.012341001 0.011496562 0.005237802 0.00011200533 -0.0123216845
-0.004164224 -0.00643808 -0.0026913313 0.019082779 -0.0075635207 0.025345467 0.0049402947 0.01047205
-0.009899993 0.00047622924 0.0037153799 0.0034648466 0.01458572 0.008703897 -0.0075145876 -0.0030895576
-0.009681235 -0.0065129893 0.009957749 0.016334374 -0.02918295 0.00730461 0.005197683 0.0056564864
-0.0004367222 0.0014071402 0.010573987 0.00233012 -0.00356742 0.008507478 0.0045701014 -0.009156075
-0.010477361 0.00518408 0.0021212606 -0.008179643 -0.010604422 -0.021302333 -0.0031827537 -0.0070775324
-0.008520789 0.00037074278 -0.0053432696 -0.017482024 0.0032834539 -0.012946801 -0.006112968 -0.001028024
-0.00010999291 0.0063839518 0.013579207 0.0022333718 -0.004704731 -0.009033532 0.014236731 0.00095480925
0.0006862654 -0.013802387 -0.012191774 -0.0055373064 0.0054780208 0.01033565 0.0044550155 0.004414652
0.000519331 -0.00083018106 0.0016365902 -0.0060662874 -0.0056846743 -0.007769145 0.0031497441 -0.00629331
-0.0026042948 -0.009322406 0.0052486714 0.005848471 -0.0018288128 0.0057098535 -0.015073601 0.0061602476
0.003008307 0.0038365682 -0.0070223887 0.010247698 0.007895654 -0.0025497805 -0.0034624063 0.01752704
0.0018996195 0.013861543 0.0035328025 -0.0013155042 0.0017367875 0.0021359844 -0.0084682675 0.0099921385
-0.0022920654 0.013429594 0.007366527 -0.0028496913 -0.002023965 -0.004301405 -0.008194061 0.004536574
0.010642457 0.0146897165 -0.01850661 0.0008899098 -0.0021934472 -0.0022015716 0.004443114 -0.0077319527
0.0014534151 0.0009924705 -0.0067282906 0.006238001 0.0018043708 0.0046319873 -0.018805632 0.005278702
-0.008066043 -0.012856661 0.0054887976 0.008602847 0.00898608 -0.00033589976 -0.004143145 -0.0037976492
-0.001383736 0.0018755078 0.004452862 0.0051906854 0.016477086 -0.0016392731 -0.0039859284 0.0050745914
00000000: 219b 043c 469a 013c 5b59 02bc 733b 4d3c
00000010: d4f2 e4bb f1d3 e0bb a54e cb3b fd08 96bb
00000020: c5e6 7338 ff3c b93c b5ef 1dbc 2992 a6bb
00000030: ca9e df3b 1890 4a3b cdef 7eb9 c320 2dbb
00000040: 134e 5bbb a2c5 28bb 3dbe 3e3c 84f0 013c
00000050: bed8 79bb df8d 5fbc cf4d 70bb 7c3e 543c
00000060: fec2 d4bc eb22 113b 98c1 e93b 7e79 bc3c
00000070: 412d 4e3c 05fe 343c 23e9 1abc 37bf 92ba
00000080: 470e 3d3c 3183 d33a dbc5 d03b e3a4 75bc
00000090: 30d8 a7ba 6b70 12bc b414 d4b9 6a01 3f3c
000000a0: 10c8 f83a 369a 163c 3601 973b a185 e5ba
000000b0: de36 adbb 5308 4f3c c228 14bc c7e4 943c
000000c0: 30c9 b7bb d9e3 b63b 72ec 943b 9eb5 333b
000000d0: 6cfb 783a 65fb 343c f6b5 763c e55e e8bb
000000e0: 972c 823c 8939 a83a 08a7 71bb 920b aa3b
000000f0: cbf8 7cbb 6193 a73b 43ed 21bb 4ca6 483b
00000100: 9a13 543c b7a4 fe3b a6e7 91bc c596 763a
00000110: 670b 15bc c33f ef3a 7df1 543b c8b9 663c
00000120: b299 803b 557d f9bb b4fc 85bb ac2a 043b
00000130: bca1 d3bb 6ed4 d7ba f2f2 23bc 223e 26bc
00000140: 6c92 29bc 6319 673b a940 01ba ffdd d9ba
00000150: a173 11bb f0e6 45bb ef09 edba 1f95 2ebb
00000160: 39dd 80bb a874 243b 23b7 27bb da9f 52bc
00000170: fd04 973c ba6b ebbb 24db a63b 6fe1 3cbc
00000180: b3f0 b03a 3bca 16bb 1245 c3bb 6556 61bc
00000190: 3062 1139 d504 b23b f7a4 4cbc c3b0 b63a
000001a0: e9df a9bb 4ef9 86bc a435 1fbb be49 813b
000001b0: c508 1fba 136c 793b 527d 6f3b e07f 82bc
000001c0: f1b3 debb e029 6bbb 835b 6cbb e931 4abc
000001d0: 135c 3c3c dea1 ab3b 67e4 ea38 e4e0 49bc
000001e0: 0b74 88bb 88f6 d2bb 0c61 30bb 7d53 9c3c
000001f0: 69d7 f7bb 4ca1 cf3c 32e2 a13b f692 2b3c
00000200: 9533 22bc 68ae f939 bb7d 733b 7b12 633b
00000210: f2f8 6e3c ca9a 0e3c ee3c f6bb 2d7a 4abb
00000220: 0b9e 1ebc ea6a d5bb d425 233c aacf 853c
00000230: 1511 efbc 835b ef3b 5351 aa3b 0c5a b93b
00000240: ddf7 e4b9 ca6f b83a 843e 2d3c edb4 183b
00000250: 60cb 69bb f362 0b3c cac0 953b 5d03 16bc
00000260: 3da9 2bbc 37df a93b d904 0b3b e903 06bc
00000270: 2bbe 2dbc 3b82 aebc bf95 50bb a5ea e7bb
00000280: c89a 0bbc 4160 c239 9816 afbb 7636 8fbc
00000290: 372f 573b d21e 54bc 4b4f c8bb c3be 86ba
000002a0: feab e6b8 7830 d13b 527b 5e3c c35d 123b
000002b0: 252a 9abb 6101 14bc 2e41 693c 2a4c 7a3a
000002c0: 7ee6 333a 6823 62bc 02c0 47bc 4b72 b5bb
000002d0: f880 b33b dc56 293c 61fb 913b c9a8 903b
000002e0: b723 083a 82a0 59ba db82 d63a b5c7 c6bb
000002f0: 8146 babb 5094 febb f06b 4e3b 1c38 cebb
00000300: d1ac 2abb 01bd 18bc 0cfd ab3b 88a4 bf3b
00000310: c6b4 efba b919 bb3b 44f7 76bc e7db c93b
00000320: 0427 453b ef6e 7b3b 111c e6bb f6e5 273c
00000330: c65c 013c 381a 27bb 8ae9 62bb de94 8f3c
00000340: a7fc f83a 861b 633c 9786 673b ff6c acba
00000350: eba4 e33a dffb 0b3b 7dbe 0abc 11b6 233c
00000360: 7a36 16bb cd07 5c3c e862 f13b e3c1 3abb
00000370: 7fa4 04bb cdf2 8cbb 6240 06bc 8aa7 943b
00000380: b35d 2e3c 23ad 703c 2d9b 97bc d648 693a
00000390: f0bf 0fbb 3e48 10bb 8b97 913b 525c fdbb
000003a0: 8580 be3a c915 823a fe78 dcbb 2568 cc3b
000003b0: a380 ec3a edc7 973b 450e 9abc f6f8 ac3b
000003c0: 7027 04bc bfa4 52bc 5fdb b33b f5f2 0c3c
000003d0: 5a3a 133c b41b b0b9 38c3 87bb fbe1 78bb
000003e0: 7a5e b5ba 99d3 f53a 50e9 913b a016 aa3b
000003f0: f4fa 863c e1dc d6ba 649c 82bb c248 a63b

action_model._discrete_distribution.branches.0.bias f4 [2]
-0.00011884743 0.00011884722
00000000: ba3d f9b8 9e3d f938

action_model._discrete_distribution.branches.1.weight f4 [2, 128]
0.005358532 0.0161283 0.0018844851 0.0042283544 0.00017495944 -0.0065997764 -0.007956454 -0.010719485
-0.009655767 -0.017347021 -0.022420954 -0.008121977 -0.000106044405 -0.008192875 -0.0049344352 0.010636818
-0.014172553 -0.008205554 -0.008248873 0.011574685 -0.009553276 -0.010952824 -0.0068943216 0.008687562
-0.0025313948 -0.00053384766 0.0126990285 0.009200709 0.012200504 -0.004129057 -0.010937748 -0.011844105
-0.0027366765 0.007772629 -0.015610773 -0.0067194966 0.0053312317 -0.009734231 0.0034426656 0.015190174
0.009178719 0.00042059377 0.017390981 0.010394231 -0.009334307 0.008603467 0.004621823 0.0062251515
0.0022658024 -0.00032718867 -0.007496708 0.006877162 -0.004505252 -0.0038469303 0.00861385 -0.028913299
-0.007229048 0.004512318 -0.00034580924 0.0014038652 -0.00038951475 0.000951113 0.0169058 -0.00846742
0.008422534 -0.00032621966 0.0074883383 0.00318851 0.014324331 0.0033687337 -0.008212267 0.0058134743
-0.0094199125 0.01579514 0.007757719 -0.0016676745 0.001968147 0.018553998 -0.000510025 0.0048786644
0.0036069872 -0.012392659 0.002448275 0.006390104 -0.0034799047 0.009183482 -0.016731406 -0.006684748
-0.011317902 0.002682697 0.008139649 0.01228767 -0.0136257205 0.00094259216 0.0114200385 0.005716724
0.0015051143 0.00013207879 -0.01566822 -0.00078313646 -0.013626585 -0.009957558 0.0036629897 0.01830996
-0.012270359 0.015612474 -0.0026768008 -0.008276162 -0.01555319 0.014087867 -0.002648703 0.0020101494
-0.006592262 -0.008916755 0.0037463221 0.0026025516 -0.016779238 -0.0077345907 -0.0010336746 -0.0040978463
-0.016495546 0.0065903026 -0.012586008 0.0066389455 -0.0030402427 -0.0012606496 -0.0062646056 -0.0023678096
0.007181565 0.00041885301 0.0008885754 0.0011070014 -0.005015783 0.008819074 -0.0014594751 0.0044558514
-0.0056066895 -0.012553991 -0.007656831 -0.009976594 -0.009311926 -0.010985782 -0.0027625198 -0.010075824
0.01800335 0.0061339936 -0.002066673 0.0037278472 0.010831699 0.0018830687 -0.0029389586 -0.008276643
0.008432643 0.0007307652 -0.00920754 -0.0065742093 -0.0068365345 0.002102901 0.004826768 -0.0034852491
0.007835543 0.008343054 5.6681944e-05 0.010560537 0.007152279 -0.011187375 -0.00040179086 -0.0014530969
0.0014344639 -0.010164761 0.0056401775 0.008805601 0.009314855 -0.010805222 0.0045870896 -0.004372593
-0.011216543 0.0077699833 0.007291025 0.0029392838 -0.0074239476 0.015512405 0.011838512 0.015075377
-0.00026876983 -0.0071909255 0.0078200735 -0.0041283173 -0.001270212 -0.007502405 -0.0036093486 0.0017866741
-0.0027031037 0.010565939 0.01546942 0.006987503 0.0009100277 0.0077616144 -0.013422584 0.0008770085
0.011921389 0.014476218 0.012948864 -0.008697744 0.0020777083 -0.0071974406 0.0034759638 -0.0028189267
0.0033882791 -0.0014503447 -0.005304151 -0.011653012 -0.004833571 -0.010231689 0.0047020214 -0.010618959
-0.0021967117 0.0059849545 0.0012320786 -0.012073695 -0.0028756347 -0.004014822 -0.0045088604 -0.006639068
0.0044817617 0.0062870365 0.006938327 0.0055722483 0.00193021 0.024232503 -0.0027368215 0.0039626956
0.0065542283 0.0057273475 -0.006286305 0.018219369 0.0011655865 0.0056277597 0.01644047 -0.0019021917
-0.009386156 0.00071153924 0.013478702 0.006667018 -0.0073565017 -0.009506184 0.012520416 0.0062507475
-0.00071429723 0.0073441276 0.000116525014 -0.002362092 -0.008278034 9.313036e-05 -0.01413057 -0.0007094555
00000000: a096 af3b 7f1f 843c d400 f73a 028e 8a3b
00000010: 5175 3739 f042 d8bb c95b 02bc c7a0 2fbc
00000020: 3933 1ebc 571b 8ebc 26ac b7bc 0a12 05bc
00000030: 2864 deb8 693b 06bc 0bb1 a1bb 0c46 2e3c
00000040: ff33 68bc 9770 06bc 4826 07bc bfa3 3d3c
00000050: 5885 1cbc 7973 33bc c3e9 e1bb 4756 0e3c
00000060: c2e5 25bb e9f1 0bba 960f 503c 92be 163c
00000070: 9fe4 473c 0a4d 87bb 3d34 33bc c70d 42bc
00000080: d059 33bb 8ab1 fe3b 54c4 7fbc 392f dcbb
00000090: 9db1 ae3b 537c 1fbc 589e 613b 35e0 783c
000000a0: 5662 163c 2483 dc39 8877 8e3c 914c 2a3c
000000b0: ecee 18bc 8ef5 0c3c a972 973b 5bfc cb3b
000000c0: db7d 143b 858a abb9 f2a6 f5bb d159 e13b
000000d0: cba0 93bb c81c 7cbb 1b21 0d3c 95db ecbc
000000e0: a6e1 ecbb 11dc 933b bb4d b5b9 e601 b83a
000000f0: c937 ccb9 1d54 793a 087e 8a3c efba 0abc
00000100: abfe 093c 7608 abb9 bc60 f53b 52f6 503b
00000110: 99b0 6a3c f9c5 5c3b bf8c 06bc f57e be3b
00000120: fa55 1abc cf64 813c 7734 fe3b df95 daba
00000130: 07fc 003b 8efe 973c 33b3 05ba 34dd 9f3b
00000140: 3463 6c3b 940a 4bbc 3d73 203b 1464 d13b
00000150: 1d0f 64bb 5176 163c 4d10 89bc bb0b dbbb
00000160: b96e 39bc 30d0 2f3b 2a5c 053c 3952 493c
00000170: 6a3e 5fbc 4a18 773a 1d1b 3b3c 5b53 bb3b
00000180: 4147 c53a a17e 0a39 a45a 80bc 664b 4dba
00000190: 0a42 5fbc 0625 23bc c50e 703b c5fe 953c
000001a0: 9e09 49bc 76cb 7f3c 446d 2fbb bd98 07bc
000001b0: cfd2 7ebc ccd0 663c dd95 2dbb b6bc 033b
000001c0: e703 d8bb 9517 12bc db84 753b 928f 2a3b
000001d0: 9d74 89bc 7372 fdbb 5d7c 87ba 3a47 86bb
000001e0: ab21 87bc 77f3 d73b 8b35 4ebc 838b d93b
000001f0: cf3e 47bb 623c a5ba 5247 cdbb 412d 1bbb
00000200: 5553 eb3b 8099 db39 49ef 683a ce18 913a
00000210: 705b a4bb e17d 103c dc4b bfba 6402 923b
00000220: 52b8 b7bb 41af 4dbc 27e6 fabb de74 23bc
00000230: 0c91 18bc b6fd 33bc 640b 35bb 1215 25bc
00000240: c37b 933c abff c83b 0571 07bb e64e 743b
00000250: 7077 313c 4dd1 f63a 8b9b 40bb c29a 07bc
00000260: 1129 0a3c d390 3f3a 39db 16bc 776c d7bb
00000270: 0205 e0bb d3d0 093b dd29 9e3b c768 64bb
00000280: a660 003c 4eb1 083c c6bd 6d38 1a06 2d3c
00000290: aa5d ea3b 404b 37bc 75a7 d2b9 d775 beba
000002a0: 9f04 bc3a 198a 26bc 3dd1 b83b 5e45 103c
000002b0: 559d 183c 6308 31bc 4c4f 963b f847 8fbb
000002c0: 97c5 37bc 589b fe3b 8de9 ee3b 00a1 403b
000002d0: 9644 f3bb be27 7e3c 51f6 413c b7fe 763c
000002e0: ade9 8cb9 dba1 ebbb c41f 003c d646 87bb
000002f0: 3e7d a6ba bcd6 f5bb d28a 6cbb d62e ea3a
00000300: 8e26 31bb c31c 2d3c 7373 7d3c 6cf7 e43b
00000310: ed8e 6e3a 2455 fe3b 66ea 5bbc 0be7 653a
00000320: ee51 433c a92d 6d3c 7927 543c fc80 0ebc
00000330: 292a 083b 82d8 ebbb ffcc 633b bebd 38bb
00000340: e40d 5e3b 7e19 beba 72ce adbb 46ec 3ebc
00000350: ef62 9ebb d0a2 27bc 6a13 9a3b 24fb 2dbc
00000360: b5f6 0fbb 701d c43b b37d a13a bfd0 45bc
00000370: 2575 3cbb c58e 83bb 10bf 93bb 8a8c d9bb
00000380: bedb 923b 7c03 ce3b e85a e33b 6897 b63b
00000390: 1aff fc3a 3e83 c63c 3f5c 33bb 80d9 813b
000003a0: dac4 d63b 79ac bb3b 59fd cdbb c940 953c
000003b0: 98c6 983a 1269 b83b 2aae 863c f652 f9ba
000003c0: 64c8 19bc 9786 3a3a c6d5 5c3c 0077 da3b
000003d0: cf0e f1bb d3bf 1bbc 6e22 4d3c 12d3 cc3b
000003e0: ad3f 3bba 02a7 f03b e45e f438 54cd 1abb
000003f0: 97a0 07bc fb4e c338 e883 67bc c1fa 39ba

action_model._discrete_distribution.branches.1.bias f4 [2]
0.0001986089 -0.00019860917
00000000: ac41 5039 be41 50b9

action_model._discrete_distribution.branches.2.weight f4 [2, 128]
-0.008539161 0.014460224 0.0046402994 0.009175056 2.6362388e-05 0.009725918 -0.015969776 0.020799818
0.006673983 0.005892617 0.016109673 0.02075447 0.002521447 -0.00761633 0.0050220196 -0.0038259686
-0.007480023 -0.015486692 0.020700896 -0.0047457004 0.004853517 0.014258915 0.0063867043 -0.016524538
0.010136227 -0.01487561 0.011826445 -0.005644081 -0.021330774 0.0024402943 -0.005477979 -0.022556856
0.006947098 -0.003634744 -0.008545532 0.00015030317 -0.0018226297 0.0061302697 0.009405169 0.012537497
0.0134892855 -0.023806078 -0.001193816 -0.0056865886 0.003990894 0.0027772204 -0.005600224 0.0025768955
0.008905905 0.012723553 -0.014478132 2.588685e-05 -0.0046396204 0.01674569 0.037679873 -0.01671781
0.0029653884 0.00064569875 0.0014264544 0.0057534934 0.012360589 -0.0016105076 0.0016807532 -0.0013129129
0.025291344 -0.012916065 -0.0155210765 0.0042747194 -0.007286813 0.0006442621 -0.009041277 -0.008152351
0.013577597 -0.00377264 -0.0038397824 -0.004862027 0.0050453194 0.00040535367 0.0006070524 -0.001954024
0.0048024887 0.012909758 0.003218314 -0.012741596 0.00589284 -0.003835549 -0.013651921 -0.010011186
-0.0017895404 0.007333373 -0.0015464196 0.008398132 -0.0020003018 -0.0075188903 -0.0003805715 -0.007898233
0.014902198 -0.008598323 0.011635863 -0.003567025 -0.008503869 0.0009104652 0.008614053 0.0027508195
0.0020549872 -0.012871934 -0.010321605 0.0098763 -0.004137077 0.0018718888 -0.018942542 -0.014062771
0.0020141185 0.00076687994 -0.0084163705 -0.004275108 -0.00047649784 -0.01755295 0.0048982436 -0.009502601
0.011670476 -0.008132797 0.010160902 0.0059511056 0.0020877365 0.0028520855 -0.005134305 0.00413043
-0.0046346993 -0.0057743555 -0.002012091 -0.012177426 -0.012857454 0.0066243354 0.007071566 0.0043688915
0.0032133302 0.0076179705 0.0015391182 0.0077135274 0.006642908 -0.0074098916 0.0070528025 -0.0034675729
0.0013352524 -0.003505111 -0.0022405584 -0.008397238 -9.139383e-05 -0.008072652 0.01084212 0.0031993517
0.01670413 -0.0012126042 -0.0012678374 0.018298572 -0.0032308372 0.008672252 -0.014427192 0.021784253
-0.0020248939 -0.0038596888 0.0021491053 -0.0037710217 0.0022993062 -0.0030960678 -0.012984389 -0.0054640835
0.002186913 0.010883639 0.011962952 0.0011258187 -0.015986279 0.009103916 0.008438197 0.0074060303
0.013409363 0.0041333367 -0.002204154 0.006628846 -0.0011110622 -0.0026898102 0.010029014 0.019445056
-0.0020173101 0.006821257 -0.012848655 0.001127161 0.0104921395 0.0068109594 -9.964331e-05 0.008962316
-0.0029528083 0.00405054 -0.004522771 -0.0051536034 -0.008136677 -0.00861846 0.003394103 0.019163402
0.010380615 0.008761473 -0.0003202209 0.003092038 0.0022917504 -0.018434627 -0.010835224 -0.002540894
0.004068449 0.0078957435 0.0046577477 0.0030723803 0.010927649 -0.016239598 0.0021122682 0.0114463875
0.0066534593 -0.004566826 -0.014055889 -0.0059478246 0.0010456905 0.00402319 -0.008718077 0.0029815363
0.0022143603 0.0072895973 -0.009911975 -0.005318785 0.004877225 -0.00062566134 0.0012804042 0.007802754
-0.0013940685 -0.006433064 2.0131232e-05 -0.021942496 0.0052652652 -0.007216358 8.248405e-05 -0.0043795686
-0.011871842 -0.014878536 0.0026227303 -0.005193476 0.0074932105 0.004453821 -0.003424926 0.007560077
0.009859278 -0.0022479845 -0.010973999 -0.020062039 -0.0032106717 0.0013036502 0.0008031307 0.01509271
00000000: d6e7 0bbc 93ea 6c3c a70d 983b f952 163c
00000010: cc24 dd37 7559 1f3c 0cd3 82bc 6164 aa3c
00000020: 6db1 da3b db16 c13b 6ff8 833c 4705 aa3c
00000030: dc3e 253b 6892 f9bb c18f a43b 1abd 7abb
00000040: fb1a f5bb e5bb 7dbc ed94 a93c d281 9bbb
00000050: 400a 9f3b 399e 693c 8f47 d13b 785e 87bc
00000060: 6b12 263c d5b8 73bc b5c3 413c fcf1 b8bb
00000070: e0bd aebc 58ed 1f3b 9e80 b3bb 28c9 b8bc
00000080: 7ba4 e33b e334 6ebb 8f02 0cbc b39a 1d39
00000090: 4ee5 eeba 6ee0 c83b 2318 1a3c 136a 4d3c
000000a0: 2a02 5d3c f704 c3bc d179 9cba 9056 babb
000000b0: 0cc6 823b 0702 363b 1582 b7bb 22e1 283b
000000c0: 13ea 113c 7376 503c b035 6dbc 9627 d937
000000d0: f507 98bb 422e 893c 3656 1a3d caf3 88bc
000000e0: f656 423b 1c44 293a def7 ba3a cd87 bc3b
000000f0: 1184 4a3c ab17 d3ba b84c dc3a 0c16 acba
00000100: cb2f cf3c e79d 53bc 1d4c 7ebc f212 8c3b
00000110: 38c6 eebb b3e3 283a dd21 14bc 7091 05bc
00000120: 9274 5e3c 653e 77bb dca4 7bbb a351 9fbb
00000130: 3553 a53b a685 d439 9922 1f3a 150f 00bb
00000140: 325e 9d3b 7383 533c 59ea 523b 21c2 50bc
00000150: ba18 c13b d65d 7bbb 4fac 5fbc f505 24bc
00000160: 038f eaba cb4c f03b 3bb1 caba 5298 093c
00000170: 7f17 03bb 0661 f6bb 7187 c7b9 9767 01bc
00000180: 5928 743c fbdf 0cbc 59a4 3e3c c0c4 69bb
00000190: d053 0bbc 49ac 6e3a f521 0d3c 1847 343b
000001a0: f7ac 063b cee4 52bc f31b 29bc 34d0 213c
000001b0: 5190 87bb 2a5a f53a 642d 9bbc 8967 66bc
000001c0: 4dff 033b 7108 493a d1e4 09bc 3516 8cbb
000001d0: 75d2 f9b9 34cb 8fbc 7281 a03b ccb0 1bbc
000001e0: 8635 3f3c 6c3f 05bc e979 263c 7e01 c33b
000001f0: 68d2 083b 0eea 3a3b ac3d a8bb 8f58 873b
00000200: adde 97bb ce36 bdbb 49dd 03bb d483 47bc
00000210: 12a8 52bc f410 d93b 98b8 e73b eb28 8f3b
00000220: bc96 523b 2ba0 f93b 3dbc c93a c2c1 fc3b
00000230: c0ac d93b adce f2bb 321b e73b 3840 63bb
00000240: a303 af3a 01b6 65bb 55d6 12bb 9294 09bc
00000250: b0aa bfb8 2843 04bc 26a3 313c 37ac 513b
00000260: 1ad7 883c 3ff0 9eba 902d a6ba e3e6 953c
00000270: 74bc 53bb 1016 0e3c 0760 6cbc e474 b23c
00000280: 15b4 04bb d5f2 7cbb 01d8 0c3b 3f23 77bb
00000290: f5af 163b 66e7 4abb 7abc 54bc 0e0c b3bb
000002a0: 5052 0f3b 4a51 323c 4200 443c 3590 933a
000002b0: a8f5 82bc 9728 153c 5d40 0a3c 49ae f23b
000002c0: f2b2 5b3c f170 873b 9173 10bb ca36 d93b
000002d0: 10a1 91ba 8747 30bb bc50 243c 3d4b 9f3c
000002e0: d934 04bb da84 df3b 2a83 52bc 3fbd 933a
000002f0: 39e7 2b3c 782e df3b 98f7 d0b8 aed6 123c
00000300: e783 41bb 64ba 843b c133 94bb 8fdf a8bb
00000310: b24f 05bc 7134 0dbc 996f 5e3b 91fc 9c3c
00000320: 7413 2a3c 488c 0f3c 52e3 a7b9 caa3 4a3b
00000330: 3131 163b 3704 97bc 3986 31bc 2185 26bb
00000340: a050 853b 265d 013c 05a0 983b fd59 493b
00000350: e209 333c e808 85bc fb6d 0a3b a189 3b3c
00000360: 4305 da3b 50a5 95bb ac4a 66bc f8e5 c2bb
00000370: 8d0f 893a f7d4 833b 44d6 0ebc e165 433b
00000380: cd1e 113b 93dd ee3b d665 22bc 3449 aebb
00000390: 21d1 9f3b 6c03 24ba 3cd3 a73a 3fae ff3b
000003a0: 2db9 b6ba 74cc d2bb 7edf a837 c0c0 b3bc
000003b0: 3f88 ac3b 3377 ecbb 4afb ac38 7c82 8fbb
000003c0: 1d82 42bc 1ac5 73bc 1de2 2b3b 092e aabb
000003d0: 9b89 f53b 5cf1 913b b974 60bb 86ba f73b
000003e0: cf88 213c ec52 13bb 4acc 33bc 2559 a4bc
000003f0: 226a 52bb 3edf aa3a 3089 523a 6a47 773c

action_model._discrete_distribution.branches.2.bias f4 [2]
-0.00054548547 0.0005454859
00000000: e9fe 0eba f0fe 0e3a

action_model._discrete_distribution.branches.3.weight f4 [2, 128]
-0.017797455 0.0049909423 -0.02081125 -0.0006818569 0.0028060256 -0.0003647548 0.009188445 0.0038558675
-0.0029010274 -0.0030640387 0.0023594596 0.015605379 4.4350803e-05 -0.0056474456 0.004691838 -0.008305429
-0.008629933 0.013716583 -0.012872977 0.00075882056 0.0071865553 -0.00898601 0.0026354971 0.00085850235
0.0027150759 -0.0011874931 0.008025251 0.0061469977 -0.00029309644 0.0039843125 -0.002840828 0.018371023
0.017337495 -0.0030535609 0.0007345271 0.008610535 0.0024745516 0.008795353 0.00571172 -0.005021119
-0.01229634 -0.004952926 0.003368629 -0.0017891007 -0.0034563849 -0.0036388317 -0.014129426 0.008288869
-0.0104301935 0.005311582 0.004726827 -0.004479857 -0.009120301 -0.013010132 0.0008991396 -0.010240109
-0.0005442984 0.017021304 0.0028337685 -0.0042185085 0.0060132863 -0.0037546307 -0.004310903 0.0055441777
0.0022161037 -0.007705555 -0.0015145942 0.02150106 0.008920483 -0.0003473411 -0.0017597285 -0.00021012023
0.0047986642 0.010217714 0.007546573 -0.017926566 0.007441135 -0.009828108 0.0075841118 -0.0034548426
0.014344038 -0.0055539343 -0.008720478 0.020389333 0.009384804 -0.008614446 0.008213363 0.013774867
-0.0077001154 -0.005208383 -0.0032366721 -0.0063382117 0.0013892342 -0.015252534 -0.013811048 -0.02415094
-0.0044594076 0.01963472 -0.0015217988 -0.006228312 7.63991e-06 -0.00033648932 -0.001462478 0.016740825
-0.0025133772 -0.0071906094 -0.008041993 0.0015443811 -0.0006164931 -0.0073473756 -0.022355417 -0.002759897
0.009782343 0.008179897 0.009490964 -0.017863695 0.0042849313 -0.009072353 0.0061382093 0.012916354
-0.007833631 0.007157577 -0.001566064 0.007476885 0.0036794455 -0.009077856 0.011086556 0.004833574
0.003695749 -0.010393841 -0.0005235108 -0.006482594 -0.013464721 0.00437043 -0.002657698 0.013788629
0.00070665247 0.002215747 0.013742501 -0.00045847037 -0.010813968 -0.0104723275 -0.0016831887 -0.007740485
-0.0074906284 0.00014110026 -0.0013315489 0.0009081245 0.0023399766 0.0016032294 -0.013722238 0.0019502845
0.0028327652 -0.0017266585 0.013935682 0.008346627 0.0056696665 0.01579002 -0.008361848 0.004844554
0.0041092583 0.008892932 -0.0133740995 0.0033926207 -0.0008580415 -0.0048089665 0.009293694 0.0068079187
-0.00094649254 0.012120033 -0.0034457685 -0.006934098 0.011918502 -0.010385827 -0.020214152 0.0045335838
0.00034961035 -0.0012622724 0.014582276 -0.002507825 -0.011257477 -0.010329958 -0.015874492 -0.015343162
-0.010227412 0.017532947 -0.010583682 -0.016597955 0.009363988 -0.0011033183 -4.365609e-05 0.017324207
0.015497836 -0.005366738 0.011259211 0.001951478 -0.0014688976 0.011278192 -0.003167872 0.009218099
0.0025826527 -0.0032410678 -0.009657069 -0.00043304908 0.0015486612 -0.014299198 -0.0010454655 0.002251226
-0.00028920712 -0.010708071 -0.010077819 -0.00838724 -0.002829402 0.009361674 0.013100804 0.007325132
0.0030438765 0.010794189 -0.00916847 0.015482641 0.014661554 -0.002515639 -0.019940209 -0.0012587663
-0.0060756034 0.0026606135 -0.01259767 -0.0046025054 -0.0015883996 0.005005172 -0.00034944376 0.009649888
0.008560513 -0.0023342122 -0.005210374 -0.010241181 0.019655392 -0.00070326065 0.0075979587 -0.00152078
-0.017061356 0.012074405 0.0016408887 -0.0075080227 0.00873226 -0.0016798134 -0.0035746628 0.00023561988
0.014594352 0.003651941 0.0002496696 -0.012696026 0.004442296 -0.0006031169 0.0098609915 0.006228875
00000000: f8cb 91bc 0f8b a33b 5b7c aabc a4be 32ba
00000010: 4ce5 373b 8f3c bfb9 228b 163c b9b2 7c3b
00000020: 2a1f 3ebb 0ace 48bb 2aa1 1a3b b4ad 7f3c
00000030: 5005 3a38 350e b9bb fdbd 993b 7e13 08bc
00000040: 9064 0dbc 85bb 603c 2ee9 52bc 96eb 463a
00000050: 327d eb3b 0f3a 13bc 4eb8 2c3b 1e0d 613a
00000060: 6aef 313b a8a5 9bba 587c 033c c16c c93b
00000070: bdaa 99b9 d68e 823b 2f2d 3abb d47e 963c
00000080: 5d07 8e3c 401e 48bb 478d 403a 3413 0d3c
00000090: 162c 223b 621a 103c 6129 bb3b 3388 a4bb
000000a0: 9776 49bc 284c a2bb 37c4 5c3b 4280 eaba
000000b0: 8484 62bb 7779 6ebb 1c7f 67bc 09ce 073c
000000c0: 67e3 2abc c70c ae3b 80e3 9a3b c4cb 92bb
000000d0: 516d 15bc 7328 55bc 3db4 6b3a 21c6 27bc
000000e0: 3faf 0eba 4370 8b3c bfb6 393b 6a3b 8abb
000000f0: 1a0b c53b 4010 76bb 7a42 8dbb efab b53b
00000100: 0d3c 113b e17e fcbb 5985 c6ba fe22 b03c
00000110: 3827 123c 551b b6b9 b1a6 e6ba b853 5cb9
00000120: 1d3e 9d3b 3368 273c 3e49 f73b bcda 92bc
00000130: c4d4 f33b 1306 21bc 2484 f83b a46a 62bb
00000140: 4203 6b3c c7fd b5bb 56e0 0ebc 8807 a73c
00000150: b9c2 193c 9b23 0dbc 5791 063c fbaf 613c
00000160: 4051 fcbb 15ab aabb 591e 54bb c6b0 cfbb
00000170: f716 b63a c4e5 79bc bc47 62bc 31d8 c5bc
00000180: 3920 92bb fed8 a03c 1877 c7ba de16 ccbb
00000190: 2a2d 0037 d56a b0b9 9eb0 bfba 0e24 893c
000001a0: 79b7 24bb 349f ebbb 90c2 03bc d56c ca3a
000001b0: 279c 21ba 41c2 f0bb b522 b7bc 63df 34bb
000001c0: 1f46 203c fa04 063c fd7f 1b3c e256 92bc
000001d0: 9c68 8c3b 35a4 14bc 0823 c93b 1e9f 533c
000001e0: a158 00bc 1c8a ea3b 6344 cdba a800 f53b
000001f0: da22 713b 4abb 14bc 63a4 353c f562 9e3b
00000200: 6134 723b ee4a 2abc 373c 09ba f16b d4bb
00000210: 229b 5cbc d335 8f3b c62c 2ebb b4e9 613c
00000220: a53e 393a 1136 113b 3a28 613c da5e f0b9
00000230: 122d 31bc 2094 2bbc 719e dcba e5a3 fdbb
00000240: f273 f5bb 50f4 1339 5e87 aeba 340f 6e3a
00000250: 4b5a 193b 7423 d23a 3dd3 60bc b0a0 ff3a
00000260: eaa5 393b 0c51 e2ba 7d52 643c 4ac0 083c
00000270: 9cc8 b93b 125a 813c 2200 09bc 10bf 9e3b
00000280: f5a6 863b a9b3 113c 0a1f 5bbc bb56 5e3b
00000290: 31ee 60ba 8994 9dbb 9444 183c f614 df3b
000002a0: 0a1e 78ba 1a93 463c 67d2 61bb 6e37 e3bb
000002b0: d245 433c 5129 2abc 2698 a5bc 758e 943b
000002c0: e84b b739 d572 a5ba 80ea 6e3c 525a 24bb
000002d0: 4871 38bc fc3e 29bc 390b 82bc e361 7bbc
000002e0: e090 27bc 41a1 8f3c 2e67 2dbc 6ff8 87bc
000002f0: 6a6b 193c 389d 90ba 5f1b 37b8 7feb 8d3c
00000300: a3ea 7d3c 76db afbb 8e78 383c bcc8 ff3a
00000310: 0688 c0ba 2ac8 383c 139c 4fbb 8207 173c
00000320: b941 293b 1868 54bb af38 1ebc dd0a e3b9
00000330: 72fc ca3a 2f47 6abc 0008 89ba 4e89 133b
00000340: b9a0 97b9 e870 2fbc 701d 25bc a26a 09bc
00000350: 7d6d 39bb b561 193c c1a4 563c a907 f03b
00000360: c67b 473b 1cda 303c 5a37 16bc e7aa 7d3c
00000370: 0437 703c 6bdd 24bb a659 a3bc 30fd a4ba
00000380: db15 c7bb b05d 2e3b 7566 4ebc 9dd0 96bb
00000390: d931 d0ba 6d02 a43b 8c35 b7b9 901a 1e3c
000003a0: 6541 0c3c 95f9 18bb c9bb aabb a0ca 27bc
000003b0: 5804 a13c 065b 38ba 4cf8 f83b e954 c7ba
000003c0: 42c4 8bbc bad3 453c 1713 d73a dc05 f6bb
000003d0: c111 0f3c 2f2d dcba e444 6abb bb10 7739
000003e0: 261d 6f3c 6755 6f3b 16e6 8239 fe02 50bc
000003f0: ae90 913b 7d1a 1eba ff8f 213c 971b cc3b

action_model._discrete_distribution.branches.3.bias f4 [2]
-8.185912e-05 8.1858954e-05
00000000: c8ab abb8 b1ab ab38
