results/newOne/Move  Behaviour/Move  Behaviour-10256.pt (torch, 545175 bytes, 52 tensors)

discrete_act_size_vector f4 [1, 4]
00000000: 0000 0040 0000 0040 0000 0040 0000 0040
2.0 2.0 2.0 2.0

network_body._body_endoder.seq_layers.0.weight f4 [128, 36]
00000000: 7a43 b93e 4dce 5cbd 32db 613e f702 cdbd
00000010: c8a2 203d 87cb 2a3d 834b d73d 67c6 a5bd
00000020: dff7 b13e 60c9 9ebe 158b 593d 2782 82bc
00000030: 02c8 86be 3f5d 5f3e 78c6 6e3c 5946 dbbd
00000040: e0ed 36be be0f cf3e 28b0 1ebd 2cb4 d63c
00000050: e298 3dbd 73d4 7cbd 5b03 e63d 7bfa 04bd
00000060: 230a 4e3e 20c8 ec3d 7310 013d 9314 6cbc
00000070: 8d0f 9e3c 7f69 ba3d 2848 6fbd 6aa8 19bd
00000080: 1a0b 5b3d 906e 12be 2512 f33b 3e54 c8bd
00000090: aa6a babd e3f1 0abe 6b3f 993d e460 8e3e
000000a0: 9df9 a7bd 2a25 7abd 7364 ab3d 806b a6be
000000b0: 7fce 08be 3ec0 6c3e 211a 9f3d 924b c2bc
000000c0: fa29 8bbe 0632 dabc 27cf 8abc be70 873e
000000d0: 061e 81be 716a a13c e8c5 2ebc 2191 e9bd
000000e0: e304 eebd e17a 48bd 6014 7bbe ca50 62be
000000f0: 3c9a c93d d524 c33c 3fb0 003e a487 60be
00000100: cbbb 15be 8e8a 433e d37c 2e3e a874 57be
00000110: 2457 0c3e 47ca bbbd 8ded 8cbd 941b 383e
00000120: 8f4b 773d 4f4b d0bd 5d8a c1bc 3c99 00be
00000130: 7276 ab3e fdd4 263e 63b5 8d3d 428d 1a3d
00000140: f048 14be d2b9 acbe 909a 343d ffaa cbbe
00000150: 8c47 e5bd dee7 013e b8b3 c33e 3234 0e3e
00000160: fb0d 5d3b e8f3 363e 8376 ae3b 6d5e a03d
00000170: 6219 d7ba dd99 123e 9ba5 733e 73cd 31bb
00000180: 72a2 4bbe 599e 1cbe ee8e d23d cc3c bebd
00000190: c803 6fbd b3da 0f3d ce93 8abe 1a47 e9bd
000001a0: 7380 3f3d d9fc a23e bc72 88be 3eb6 1ebd
000001b0: d5a8 833d 3fbe 73bc 21a4 963d 4066 fdbc
000001c0: 5397 0d3e 1c98 b73b f925 83be 1bc6 2fbe
000001d0: f82b 613e af19 fbbd 10e0 c7bd 3371 0cbc
000001e0: 3b8a bb3e 3aaa c7bd 5e7e 8fbe a4b6 643e
000001f0: 57fd 41bd 1a44 83be f984 bbbe 1f6c 133e
00000200: ec89 37be 98d4 783e 7310 ff3d d989 4fbd
00000210: 48d1 ddbc cf8c c3be 382b 64bc 1d99 843d
00000220: 8015 cdbd ac84 413e c8f5 97bd 1ff8 03be
00000230: 57f7 babe aaaa b13c e40b 8bbe 1652 273e
00000240: d28c 843d a1f3 543e 199f 443e 1a59 68bd
00000250: 5d27 a2be 596a 7e3e 2d67 8c3e bdce 063c
00000260: feb3 09be 2010 27be 3d50 a93c c87f 42be
00000270: c30f 303d 5626 a53c cf4f b03e b348 75bc
00000280: 6e66 9fbd fcda 9d3c 2028 a43d 38c3 0b3e
00000290: 4347 f93d f823 2d3d e2db 873c ce8d 993e
000002a0: d6bb 36be ee12 173e d89a fcbd b31d b93c
000002b0: 37da 39bc b4da 35be 1475 813e da29 383e
000002c0: 7bf9 353e 4e5c 34be 5304 1a3d b944 153c
000002d0: 78e2 973e 27da 64bd 5fe5 713d 8382 70be
000002e0: 4070 3cbe c2aa 8abd 1e97 3cbe e58d 57be
000002f0: 52c1 babd fec4 473c 5f1a 1c3e dad6 6d3e
00000300: 7e91 f23d 2053 673e f6de 58be ac05 6c3e
00000310: 1525 1d3d ce98 4abd 15ac 99bd 7493 d53d
00000320: 84c9 12bc 7d53 dabc 534a 3fbe a562 50bd
00000330: d9ab 003e 4075 22be 8d30 313e 9e51 9f3e
00000340: 4df2 6b3d 4e56 7bbe 066f 563d 176d c3bd
00000350: 853e 35bd 52fe 5fbe 41cb cbbe d8dd cdbc
00000360: 6ca3 a1bd a1dc 2ebe 2c24 533e dfce 00be
00000370: 94c7 7e3e 9608 343e 9436 253d 4ac2 e7bd
00000380: 0095 aa3d 02e5 df3d e038 96bd c8f2 db3d
00000390: 3f0a d83c ec82 58bd 945c 80bd 00ce 92be
000003a0: 03e1 58bd 62af 42bd a27c 9fbd d92d 9c3e
000003b0: 36c7 3d3c 8df8 6f3e cf8b 55be c469 24be
000003c0: 3657 1c3e d64d 62be 5382 b83d ec0f debc
000003d0: f2dc aa3c 58b6 853e aa39 3b3d 7ecd 99bd
000003e0: 0c50 6abc a037 453e dd16 0ebe dff6 f43d
000003f0: b168 05bf 4f2e 14be 4ac5 11ba f28c be3d
0.36184293 -0.05390768 0.22056273 -0.10010331 0.03921774 0.041698005 0.105124496 -0.08094483
0.34759423 -0.31013012 0.053111155 -0.015931202 -0.2632447 0.21812914 0.014573686 -0.10706777
-0.1786418 0.40441698 -0.038742214 0.02620896 -0.04628838 -0.061726045 0.11231109 -0.03246544
0.20121054 0.11561608 0.031509828 -0.014409202 0.019294525 0.09102153 -0.058418423 -0.037514128
0.053477384 -0.14299989 0.0074179345 -0.09781693 -0.09102376 -0.13568835 0.07482799 0.27808297
-0.08201907 -0.0610706 0.083687685 -0.3250389 -0.13360022 0.2312021 0.077686556 -0.023717675
-0.27180463 -0.026635181 -0.016944481 0.26453203 -0.2521822 0.019704076 -0.010667302 -0.11404634
-0.11622026 -0.04894531 -0.24519491 -0.22101131 0.09843871 0.023821274 0.12567233 -0.21926743
-0.14622419 0.19095823 0.17039804 -0.21040595 0.13705117 -0.09169441 -0.06881247 0.1797927
0.060374793 -0.10170614 -0.023625547 -0.12558454 0.33488804 0.16292186 0.069193624 0.03773237
-0.14480948 -0.3373552 0.044092715 -0.39778897 -0.11195287 0.12686107 0.38223052 0.13887098
0.0033730257 0.1786648 0.0053241863 0.0783051 -0.0016410763 0.14316507 0.23793642 -0.0027130514
-0.19886187 -0.1529478 0.10281168 -0.0928894 -0.058353215 0.035120677 -0.2706589 -0.11390515
0.046753358 0.31833532 -0.26650035 -0.03874802 0.064286865 -0.014876901 0.07355524 -0.030932546
0.13827257 0.0056028496 -0.25614908 -0.17165415 0.21989429 -0.12260758 -0.097595334 -0.008571911
0.366289 -0.09749265 -0.28026098 0.22335297 -0.047360744 -0.25637895 -0.36624888 0.14396714
-0.17923707 0.24299848 0.12454309 -0.05066857 -0.027077332 -0.38193366 -0.01392632 0.064745165
-0.100138664 0.18898267 -0.07419926 -0.1288762 -0.3651683 0.021687824 -0.2715751 0.16339907
0.06472172 0.20796062 0.19201316 -0.0567256 -0.31670657 0.24845256 0.27422467 0.008228001
-0.13447568 -0.16314745 0.020668143 -0.18994057 0.04298378 0.020159882 0.3443589 -0.014970946
-0.07783209 0.019269459 0.08015466 0.13648689 0.12171795 0.04227063 0.01658434 0.29991
-0.17845091 0.14753315 -0.123342216 0.02259717 -0.01134353 -0.1775921 0.25284636 0.17984715
0.1777095 -0.17613336 0.03760178 0.009110623 0.2966497 -0.05587211 0.059056636 -0.23487286
-0.18402195 -0.06770851 -0.18417022 -0.21050222 -0.09118904 0.012192963 0.15244435 0.2322649
0.11844157 0.22590303 -0.21178803 0.23049039 0.038365442 -0.049462132 -0.07503525 0.10428515
-0.008959178 -0.026651138 -0.18680696 -0.050875325 0.12565555 -0.1586504 0.17303677 0.31116956
0.057604123 -0.24544641 0.052351974 -0.095422916 -0.044249076 -0.21874359 -0.39803508 -0.025130197
-0.078924984 -0.17076351 0.20619267 -0.12578915 0.2488082 0.175814 0.040335253 -0.113163546
0.08329201 0.10932352 -0.07335067 0.10739666 0.026372073 -0.05285923 -0.06267658 -0.2867279
-0.052948963 -0.04753054 -0.07787444 0.3050373 0.01158314 0.23434658 -0.20854114 -0.16055971
0.15267643 -0.22100005 0.09009232 -0.027107202 0.020857308 0.2611568 0.04570929 -0.07509898
-0.014301311 0.192595 -0.13875909 0.119611494 -0.5211287 -0.1447079 -0.00055607094 0.09304227

network_body._body_endoder.seq_layers.0.bias f4 [128]
00000000: 54ac 52b9 60e7 2e39 a326 a5b8 6f21 063a
00000010: 6ef1 ea37 7261 a5b8 3a07 6db8 8d3c 1337
00000020: c5a2 51b8 48fc 95ba c6a7 1932 1285 88b9
00000030: 0748 1dba edd1 31b8 50b5 7137 1a2c e7b9
00000040: 1db9 35b8 f9a8 d1b8 6742 ee39 b771 44b9
00000050: ecd5 5038 1e15 d1b9 2e98 7f39 358a 98b5
00000060: 01b1 1ab8 1201 13ba ca64 ac3a 27b5 1737
00000070: eac9 e7b9 a44c a738 a674 f8b8 e06d 8db8
00000080: c9a7 e1b8 8ea0 c038 f03d b4ba 6844 9fb9
00000090: f93f b6ba 2a44 70b6 fae0 0cbb b2ea 2f38
000000a0: 1649 b338 d796 463a 2ac0 ec38 ee53 84b9
000000b0: 8858 e738 84cc 4f37 639a e9b6 5171 0339
000000c0: a48b 28b9 9682 1ab9 65a5 8eb9 91a0 d73a
000000d0: 9a25 b9b8 6420 25ba 44c6 dcb9 2718 95b9
000000e0: bfe6 4e3a 267d 6e39 81cf bd37 4146 89bb
000000f0: f871 0230 64fb 3937 f277 3f38 0fa1 a4b8
00000100: 2c0e b7b8 b692 15b7 e835 64bb 03b1 0e39
00000110: f354 2e39 2269 d037 67bc 33b9 a977 9eba
00000120: 842b 6139 f1a6 633a 2c23 ba39 203e 0139
00000130: 318f 1e3a 6685 b538 4ac0 b4ba 5aa9 96b8
00000140: 1633 19b7 6a6b beb8 72bc 95b9 f6ef 3d3a
00000150: d239 5eba c1a9 b7b6 06f8 383a 9850 a3b9
00000160: e5d0 76b6 d746 10ba 431f 793a 4e9c 0ab7
00000170: 466d 80ba f89f f2b9 fff1 4aba c666 4339
00000180: 5996 a5ba a3f3 22ba 0a1f c739 c50c 3139
00000190: a173 3aba c155 05ba 68d2 7936 3eb8 1cba
000001a0: 3dc8 a338 19a1 5839 f3a1 fbb9 73b5 8b3a
000001b0: 10b7 10b9 c846 4f35 d10c e339 a1c2 5eba
000001c0: 0d50 d23a 414f fbb8 280e 9738 6152 82ba
000001d0: 8452 2533 5589 17b9 354f 85ba f018 1e39
000001e0: d23f 5c38 a30b 173a c8ac 8fb9 f3c1 7db9
000001f0: 168c f0ba 044c 2eb9 285a 962f c7ad 06bb
-0.00020091358 0.00016680127 -7.87501e-05 0.00051166763 2.8007398e-05 -7.885964e-05 -5.6511934e-05 8.775981e-06
-4.9981074e-05 -0.0011442984 8.943919e-09 -0.00026039087 -0.00059998076 -4.2395597e-05 1.44069345e-05 -0.00044092612
-4.3326163e-05 -9.99737e-05 0.0004544437 -0.00018734379 4.9790295e-05 -0.0003987932 0.00024375386 -1.1365106e-06
-3.688131e-05 -0.00056077645 0.0013152596 9.042479e-06 -0.0004421019 7.977456e-05 -0.00011847289 -6.74387e-05
-0.000107600885 9.185179e-05 -0.0013751369 -0.0003037781 -0.0013904563 -3.5802464e-06 -0.0021496401 4.194183e-05
8.5489984e-05 0.00075755775 0.0001128915 -0.00025239534 0.000110314286 1.2385779e-05 -6.961914e-06 0.00012535347
-0.00016073749 -0.00014735232 -0.0002720758 0.0016451051 -8.828491e-05 -0.0006299077 -0.0004210939 -0.0002843749
0.000789266 0.0002274407 2.2627182e-05 -0.004189283 4.7455684e-10 1.1085391e-05 4.5649656e-05 -7.850129e-05
-8.72876e-05 -8.915251e-06 -0.003482217 0.00013608117 0.00016625579 2.4844489e-05 -0.00017140956 -0.0012090105
0.00021473883 0.0008684239 0.0003550289 0.00012325542 0.0006048559 8.6556e-05 -0.0013790217 -7.1841016e-05
-9.131405e-06 -9.0799134e-05 -0.00028559897 0.0007245535 -0.0008477244 -5.473587e-06 0.00070560013 -0.0003114983
-3.677845e-06 -0.000550372 0.00095032546 -8.2618335e-06 -0.0009798191 -0.00046277023 -0.00077417487 0.00018634935
-0.0012633308 -0.0006216114 0.00037979364 0.00016884792 -0.0007112567 -0.00050863257 3.7226364e-06 -0.0005978382
7.809743e-05 0.00020659379 -0.00047995112 0.0010658934 -0.00013801106 7.721651e-07 0.00043306363 -0.000849763
0.0016045586 -0.00011983375 7.202878e-05 -0.0009942764 3.8492104e-08 -0.00014451642 -0.00101707 0.00015077344
5.2511525e-05 0.0005761927 -0.00027403818 -0.00024200212 -0.0018352296 -0.00016622251 2.73489e-10 -0.0020550357

network_body._body_endoder.seq_layers.2.weight f4 [128, 128]
00000000: 2511 513e 9cfc 97bd 3fdd d1bd d687 07bb
00000010: 7fa7 713e 9ab1 4cbd a94b 44bb e145 2dbe
00000020: af5d 8f3c 96b5 90bd ec12 51bd a4d3 d4bb
00000030: 69b2 dfbd 222a 69bc 98fc 983d 43a0 ed3d
00000040: 5521 2b3d 53a1 58bd ebba efbd f66e c8bc
00000050: ef94 9abc 381b fdbc 45d4 39bd dd2f 3fbd
00000060: 711a 923d 95d8 533d 309d 42bd d494 95bd
00000070: d72b 8dbd 3592 91bd 5faa a5bd d7da 0dbc
00000080: fa68 0c3e 8436 3cbd e725 c4bd c7cf fdbc
00000090: 0322 703d 00f5 e4bd fefe a23d 6c73 08be
000000a0: d542 7d3d bc7c cb3d 1eb8 6bbd 6e3f 833d
000000b0: a483 26be 5812 00be 13c9 f3bc 0bc6 183e
000000c0: bd24 3cbe d34c 213e 950b 59bc 960f 8f3d
000000d0: 85d0 f53d 6cec 4d3d 6525 a13d 5072 ee3b
000000e0: b6b4 dd3d b390 713c 1dfb 1c3e 9f9d 87bd
000000f0: 77dc a33d 42f7 923d bc98 803d c869 483c
00000100: 85de 553d 98cc d83d aff0 0d3e aa35 2e3e
00000110: cc97 f73d 72e6 3e3e 6f25 af3c 1159 52bd
00000120: 418a 093d 69bb 9dbb 176a 30bc 7f80 b43d
00000130: 9305 003e 4350 f3bd 230b a63d 18c2 8f3c
00000140: fc67 c8bd 6658 1b3b 7af8 093e fb2a 5dbd
00000150: 9d1e 923c e307 de3c a619 97bd e669 7bbd
00000160: 3b2d b23d 59d5 f0bc d4db 0f3e 8fea 89bd
00000170: 4650 cf3d 1fc7 c6bc 3f44 6e3d b5f2 ed3c
00000180: 2a8e 933d 12d4 733c 4b34 21bd f939 f23d
00000190: a330 5a3d 1645 0c3d 61f1 883d 5cd9 83bd
000001a0: 1849 933c 7c85 28be 3bb7 373b 8ace 1bbe
000001b0: 17fa b53a 301b 85bd 9699 7dbd 66d1 cfbc
000001c0: 4a85 783d c1a7 983d feb6 5fbd eda5 86bb
000001d0: 930b 39bd 01d8 c4bd 7408 d33d 2a84 bbbd
000001e0: 8e04 11bc ebb0 e03d fd06 953d 9890 ab3d
000001f0: e9ea 253e 5c42 1ebc 0960 6b3d c0fc cebd
00000200: 218d a7bd 36ff af3d 5e46 3dbd 8c4d a9bc
00000210: f0f4 0dbe 6009 97bd 101c 3fbe cb7e 82bd
00000220: 816b 563c b56b eb3c 47ed 12bd 701e a2bd
00000230: b0be b5bd f450 b6bd 4cb9 d4bd 0850 b6bb
00000240: 04df 08be 8c76 d03b a9d5 24bd 77e7 a3bd
00000250: d3b0 9a3d 928f 923d a979 99bd a144 003e
00000260: b896 d3bc da5f efbd 2af5 423d 8e03 fd3c
00000270: 270f a63d f2a0 0e3e 4746 f3bd 9b5b 59bd
00000280: b2af e5bd 6ae3 c53d 66a3 983d 3799 02bd
00000290: 2bbf bcbd 5a77 0dbe e04b 1f3d f98d 1d3c
000002a0: 414c b13c ca14 eabd 41aa 9e3d 1a08 2e3d
000002b0: 7b6d 92bd 4872 813d 86ab 933d dc5c bcbd
000002c0: fe31 c53d 517d 9e3d e7c4 29bd 6ed5 7bbd
000002d0: e9c6 01be 2929 a2bd bf0a b63d 78ec 073d
000002e0: 841d d0bc 2297 8abd e52c 7abd 8b97 9aba
000002f0: c8a9 0e3c 9086 f8bd 5416 07bb 35e3 97bd
00000300: a3ec 343e 81e0 8c3d a695 4fbd 13c8 183e
00000310: 37fe 22bd d536 8f3d ee41 333e 7c24 a13d
00000320: 627e 79be cc01 e3bd 42e4 38be e469 383d
00000330: 614a d8bd e10c 93bc c34d d4bd 5a01 51bd
00000340: 8832 d53d 9fa3 093d 56fb 9f3d 04df f83d
00000350: 4c67 efbd a181 be3d 7443 c0bb 2d7f 5ebe
00000360: 8893 1b3e bcd8 8f3d 3fcc 903c 704d 3f3d
00000370: 079a a63d 1750 03be 8ddc 023d 5d0e 4b3d
00000380: 7b46 aabd 0a37 1c3e 11a4 96bd c190 553d
00000390: 4de9 8a3d de5e a23e c70b 0b3e 18e9 8abd
000003a0: 5045 5dbd c7cf ee3c 43cc 8c3d 4e42 fabd
000003b0: 8473 e93c 16c3 d2bc e65f 093e 0970 09bc
000003c0: b2e4 ffbc 5972 c3bc 6371 f9bd 2f16 2bbe
000003d0: 0fdd bf3d 5cd0 403c 92e7 33be 6286 1abc
000003e0: 2c4f aabd 2921 34bc f773 1fbe c53e d13c
000003f0: 1786 babc 24ef 7d3d d1a6 a8bc 17cc b63c
0.20416696 -0.07421228 -0.102472775 -0.002068033 0.23599051 -0.04997406 -0.0029952324 -0.16921188
0.017500727 -0.07065885 -0.051043436 -0.006494956 -0.10922701 -0.014231237 0.074700534 0.11602833
0.041779835 -0.052888226 -0.11705574 -0.024466973 -0.018869845 -0.030896768 -0.04536845 -0.046676505
0.071339495 0.05172022 -0.047513187 -0.07303777 -0.068931274 -0.07107965 -0.08089136 -0.0086581325
0.1371192 -0.045950428 -0.09577542 -0.030982865 0.058626186 -0.111795425 0.07958792 -0.1332528
0.061831314 0.099359006 -0.057548635 0.06408583 -0.16261154 -0.12506998 -0.029758966 0.14919297
-0.1837339 0.15751962 -0.01324739 0.06985395 0.120026626 0.050274298 0.078684606 0.0072768107
0.108254835 0.014743972 0.15330167 -0.06621861 0.08001035 0.07176067 0.06279132 0.012232251
0.052214164 0.10585898 0.13861345 0.17012659 0.120895 0.18642595 0.021380154 -0.05135447
0.033579115 -0.004813601 -0.010767481 0.08813571 0.12502126 -0.11880543 0.08107593 0.017548606
-0.097854584 0.0023703813 0.13473693 -0.053996067 0.017836863 0.02710337 -0.07377939 -0.06138029
0.08700033 -0.029398607 0.14048702 -0.067341916 0.10122733 -0.02426487 0.058170553 0.029046396
0.0720485 0.0148821045 -0.03935651 0.11827464 0.05326904 0.034245573 0.066866644 -0.064379424
0.01797919 -0.1645717 0.0028032798 -0.15215507 0.0013883737 -0.06499326 -0.06191405 -0.025368404
0.06067399 0.074538715 -0.054617874 -0.0041091354 -0.045177054 -0.09611512 0.10304347 -0.09156068
-0.008851184 0.109712444 0.072767235 0.083771884 0.16202892 -0.009659376 0.057464633 -0.10106802
-0.08181215 0.085935995 -0.046209686 -0.02066686 -0.13862967 -0.07374835 -0.18663049 -0.0637184
0.013087154 0.028737882 -0.035870817 -0.07915962 -0.088742614 -0.08902159 -0.10386905 -0.0055637397
-0.13366324 0.006361788 -0.040242825 -0.08003133 0.07553258 0.0715629 -0.07493908 0.1252618
-0.025828704 -0.11688204 0.047597088 0.030885484 0.08108359 0.13928583 -0.11878639 -0.053065877
-0.11215152 0.096625164 0.07453041 -0.0318844 -0.0921615 -0.1381506 0.03889072 0.009616368
0.021642806 -0.114297464 0.07747317 0.042488195 -0.07149788 0.063206255 0.0721045 -0.09197399
0.09628676 0.07738746 -0.041447546 -0.06148284 -0.12673534 -0.07918007 0.088887684 0.0331845
-0.0254047 -0.067671075 -0.06107797 -0.0011794431 0.008707471 -0.12135041 -0.0020612674 -0.07416383
0.17668395 0.06878758 -0.050679825 0.14920072 -0.03979322 0.0699288 0.17505619 0.07868287
-0.24364617 -0.11084327 -0.18055823 0.04502286 -0.10561062 -0.017950477 -0.10366394 -0.05102668
0.10410029 0.033603307 0.078116104 0.12151912 -0.11689624 0.093020685 -0.005867416 -0.21728201
0.15192997 0.07023761 0.017675517 0.04670471 0.08134847 -0.1282352 0.031948615 0.049574245
-0.08314224 0.1525537 -0.07355512 0.05214 0.0678278 0.31713003 0.13578711 -0.0678274
-0.05402118 0.02915181 0.06874897 -0.12219678 0.028497465 -0.02572779 0.13415489 -0.008388528
-0.03123698 -0.023858236 -0.1217983 -0.16707681 0.093683355 0.011768427 -0.17568806 -0.009431453
-0.08315882 -0.010994234 -0.15571581 0.025542626 -0.022769017 0.06199564 -0.020587357 0.022314114

network_body._body_endoder.seq_layers.2.bias f4 [128]
00000000: f079 52ba bcdf f238 3fda 29b9 f871 8bba
00000010: 7336 9d39 43c7 a639 06fa 55ba 21e4 9eb9
00000020: 6165 bdb9 9f07 b1b9 284f 8bba 01a8 8cba
00000030: 380f 6138 fb30 96b9 d48f a1b9 a7dd 99b9
00000040: b7e8 bdb9 de28 95b9 277c 4aba cdcc 1b39
00000050: 1a76 66b9 1cc0 1838 bd21 88b9 ac1b 06ba
00000060: 8b04 4fba b45f 69b9 7862 66b9 2810 d2b9
00000070: 98ef 84b9 9ef4 cfb9 68c3 8eb9 9622 20ba
00000080: aee9 e8b9 41c4 87b7 9084 99ba 93c9 90b8
00000090: 3e98 433a 168e e2b9 93a1 d0b9 0314 b9b9
000000a0: ca72 5db9 6f4d 38ba e610 05ba 36e4 79ba
000000b0: 740e ce39 3467 8eba 0c5c b3b9 d54c 00ba
000000c0: a6e0 2bba de58 8fb9 a108 a2b9 fe0e 8137
000000d0: 1855 02b7 c843 cfb9 2448 65b9 505d aeb9
000000e0: c5e5 88b9 598b 3eba 4fa6 54b9 cba0 69b9
000000f0: 68b2 3dba 0496 42ba 4429 38ba 2b81 44ba
00000100: b3e3 b1b9 d2b1 dcb7 0e1e 6eb4 0494 5ab9
00000110: fa66 aab8 baf7 cab7 d804 30ba 399b b2b9
00000120: 54ce 54b9 48b2 1cba 10d1 6eba ddb0 53ba
00000130: cdbe 2fba ee94 34ba e346 e6b9 a67b 00ba
00000140: e21a 37b9 08cd 703a 2e7a d9b9 1875 f2b8
00000150: 1368 82ba 9b79 53ba 09b0 35b9 6ac9 06ba
00000160: d887 96b9 3cd0 33ba 9d95 ecb9 5c1a e6b8
00000170: 2b1e a0b9 bbbf 0c3b 2f16 d4b9 104f dbb9
00000180: 5b3e 07ba 55df c8b9 f58e 9038 ef57 90b9
00000190: d032 25ba 01bd f1b9 ed92 8fba 5f02 7a38
000001a0: 443b 1b39 4930 acb8 52b0 ed38 8542 70ba
000001b0: 08e2 1eba 50b8 65ba 3439 0cb6 afb0 02b9
000001c0: 43ee ff39 a7c1 54b9 18f0 34b9 740a 29ba
000001d0: 139c 9db9 71a2 cd38 9614 ecb8 8465 3fb9
000001e0: 2420 1cba a54c 32b9 57d3 06ba 75f8 85b8
000001f0: dc55 56b9 93e9 16ba 3ec4 e7b8 a6b2 65b9
-0.00080290344 0.00011581133 -0.00016198399 -0.0010638824 0.0002998594 0.0003181045 -0.00081625616 -0.00030306078
-0.00036124422 -0.0003376575 -0.0010628449 -0.0010731221 5.3658354e-05 -0.00028646723 -0.00030815473 -0.00029347578
-0.00036222275 -0.00028449943 -0.00077241886 0.00014858246 -0.00021978506 3.641854e-05 -0.00025965078 -0.0005115818
-0.00078971003 -0.00022256264 -0.00021971192 -0.0004006636 -0.00025355513 -0.0003966437 -0.0002722994 -0.00061086693
-0.00044424593 -1.6184642e-05 -0.001171248 -6.904001e-05 0.00074613455 -0.0004321194 -0.00039793234 -0.0003530086
-0.00021118965 -0.00070305815 -0.00050760654 -0.0009532602 0.0003930215 -0.0010864497 -0.0003421012 -0.00048942614
-0.00065566076 -0.00027341297 -0.00030905477 1.538498e-05 -7.768416e-06 -0.00039532618 -0.00021866016 -0.0003325739
-0.00026111133 -0.0007268689 -0.0002027985 -0.00022280512 -0.00072363624 -0.0007422867 -0.0007025192 -0.0007496054
-0.0003392972 -2.6308848e-05 -2.2176411e-07 -0.0002084524 -8.1254126e-05 -2.4195633e-05 -0.0006714589 -0.00034066456
-0.00020294759 -0.0005977494 -0.0009110132 -0.0008075366 -0.0006704152 -0.00068886473 -0.00043921833 -0.00049012376
-0.00017462255 0.00091858255 -0.00041480496 -0.0001156127 -0.000994923 -0.0008067132 -0.00017327083 -0.00051417074
-0.0002871144 -0.00068593374 -0.00045124898 -0.000109721645 -0.00030540055 0.0021476585 -0.0004045232 -0.0004182984
-0.0005159133 -0.00038313368 6.893083e-05 -0.00027531336 -0.0006301822 -0.0004610792 -0.0010953821 5.9606853e-05
0.0001480403 -8.210593e-05 0.00011333883 -0.00091651856 -0.0006060903 -0.00087631214 -2.0894922e-06 -0.00012463586
0.0004881491 -0.00020290037 -0.0001725558 -0.0006448396 -0.00030061658 9.805419e-05 -0.00011257191 -0.00018252997
-0.0005955717 -0.00017003955 -0.00051431864 -6.388213e-05 -0.00020440615 -0.0005756851 -0.00011051491 -0.00021905694

action_model._discrete_distribution.branches.0.weight f4 [2, 128]
00000000: a14c 1d3b 604c 833c 338f 9cbb 2635 c0ba
00000010: d224 cf3b d70a 4bbc 3a9f ab3b e3ee 153c
00000020: 7a43 88bb d8ef 323c 8226 22bc b862 43bc
00000030: c003 2034 9ace 13bc c025 7dbc ba35 c0ba
00000040: 1f84 113b 2c96 333c b138 1b3b 00a0 543c
00000050: 268f 05bc 1b4a 353c b290 5b3b 673d 563c
00000060: a30b 283b d53a febb 9522 89ba e740 07bb
00000070: 5172 b43c a5de 9c3b 527b c7bb a66e 3fbc
00000080: c672 573a 31e8 10ba 135f 9cbb 32aa 84bb
00000090: 8611 c13b 0f8c e33a 2de4 463a 2a81 8f3b
000000a0: be50 243c 8503 33bc 995f d7bb b7f7 e43b
000000b0: d5d0 603b 4381 0dbc d3c4 a03b cbdd a93a
000000c0: 5c00 1abc 06e0 15bc 0bbf 68bb 54d5 45bb
000000d0: 0e11 59bc e413 5bbb c269 4b3c 199b b23b
000000e0: 705d 4fba 3be2 713b 1c4e b7bb e408 fa3b
000000f0: d9ef 0e3c 9acf 8ebb 723e 8639 576f 933b
00000100: ea2e 03bc d965 57bb aca4 46ba 1c2a 9cba
00000110: 2ca5 653a 901a ef3b 49ba 81bc d7bc 31bc
00000120: 0357 4a3c b498 89bc 945e 5ebc 380f 39bb
00000130: 24a9 b0bb 3701 923c 7f7e 043c 6abd fdbb
00000140: ff16 813b 2b72 3c3c 36b8 d13a ba2f a5ba
00000150: 074f eabb 8951 a539 e667 053c 31b2 323b
00000160: 810a b4bc 0e9e c9ba dd6a 713c 3245 c43b
00000170: bcdb 86bb 4d78 8cbb 1a66 343b e187 55bb
00000180: 62b6 553b 2781 fa3b 7269 a33b edb5 4cbb
00000190: c1cf c6bb a7cb 31bb 1025 b23a c15c 4d3b
000001a0: 3549 ccbb b3ef 9bbc a4a6 013c 900f 8f3a
000001b0: 4bf4 803b 20a2 0cbc fda1 3b3c dc0d 4b3c
000001c0: 740c bbbb 1037 85bb 9d0f db3b 2884 b6ba
000001d0: e1cf 6b3b 0705 473c fc9b ae3a 6849 4e3c
000001e0: 2986 51bc 0826 27bc 8048 06bc 4f75 86bb
000001f0: 3a21 a2bb 239c 5c3b 0e1d eaba 9e33 213b
00000200: e300 1b3c bbe4 52bc e9ee 883a ca35 c0bb
00000210: 7dc7 523a caa6 b3bb 0d37 9abb 316a 2e3b
00000220: 1704 88bb 6aac d5bb 11fd b7bb c2b7 67bb
00000230: ffbe 18bc 1a60 a63c c21c 4c3c 06c6 1e3b
00000240: 38fd b7bb 34f6 363c c923 8abb 0a75 6abb
00000250: 1c6e 483c 15f5 873b 55e5 c63a 6c48 dd3b
00000260: 9487 513b 8a08 503b 78f2 7b3b ff7e 893a
00000270: 5340 0ebc 28c0 50ba 3c05 223b 9fac 1dbb
00000280: 7769 213c a74d 7ebc 0b29 b63b 8f54 16bc
00000290: d4a1 83bc 9381 f1bb 9a8d 483a ee71 bd3b
000002a0: 3f56 5a3c 996a ce3a 9680 ebbb 9045 3bbb
000002b0: 77d8 e23b f576 afba 2e8b 07bc 9e37 a0b6
000002c0: 1d78 cd3b c891 3b3c 37ee 743c ac05 3abc
000002d0: 22ee 0abc 48a1 213c 2103 553c 476e 1b3b
000002e0: be55 a7bb a2ef abba df9c 7a3b e799 1cbb
000002f0: 8f31 ccbc 7bfe 073c 7924 88bc f217 cdbb
00000300: c1e9 fcba c5aa 7a3c 1b46 dd3b dbac 3f3b
00000310: 68eb 23b8 7f55 3abc 68b5 23bb bf63 a93a
00000320: a385 233c 580a bf3b a356 b1bb 7d5e f83b
00000330: eeff 82b8 df52 babb ee21 473b 0119 18bb
00000340: 8636 fbbb a5f2 2a3a 6e92 353c 410d 24bc
00000350: 35b6 d33b 5b01 28bb eca9 373c d6e2 5b3b
00000360: 0125 efba d5c3 35bc f516 843b 4869 eebb
00000370: 62e8 89bb d563 8abb d124 b7bb 70c8 68bb
00000380: 784b 51bb a4ae 0d3c b537 f3bb a254 f43b
00000390: 5a54 e0ba e290 9d3b 9f90 86bc 8df6 d0bc
000003a0: 106e 0dbc 0f4f ad3b 36de 453c 0ae0 793b
000003b0: b6e3 cfbb 8cca 063b 7127 adbb 9f81 f6bb
000003c0: b3c5 823b db16 cfbb ae75 2bbc b773 023c
000003d0: 1cda a1bb 473a 1fbb 1cc7 ccbb 6435 3838
000003e0: 520e d1bb ac7f 5ebc 3dd7 8f3a 316b 003b
000003f0: d993 723b 182a b739 9feb 02bb c506 af3a
0.0024001973 0.01602763 -0.004777813 -0.0014664277 0.006321528 -0.012392721 0.005237487 0.009151193
-0.0041584345 0.010921441 -0.009896876 -0.011925392 1.4902525e-07 -0.009021426 -0.015450895 -0.0014664449
0.0022203994 0.010961097 0.0023684914 0.0129776 -0.008151805 0.011065031 0.0033502993 0.013076163
0.0025641702 -0.007758478 -0.0010462577 -0.002063805 0.022027167 0.0047872835 -0.006087699 -0.0116840955
0.00082187017 -0.0005527763 -0.004772076 -0.004048609 0.0058919815 0.0017360466 0.00075871014 0.004379411
0.010029016 -0.010926132 -0.0065726754 0.0069875377 0.003430416 -0.008636775 0.004906276 0.0012959776
-0.0093995 -0.00914765 -0.003551426 -0.0030186968 -0.013248695 -0.0033428604 0.012415351 0.005450618
-0.00079103466 0.0036908526 -0.005594028 0.0076304544 0.008724176 -0.004358244 0.00025604997 0.0044993567
-0.008006791 -0.0032867102 -0.00075776386 -0.0011914405 0.0008760269 0.0072968677 -0.015835898 -0.010848246
0.012349847 -0.016796447 -0.013572354 -0.002823783 -0.005391257 0.017822845 0.0080868 -0.007743527
0.003939509 0.011501829 0.0016000334 -0.0012602725 -0.007150534 0.00031532 0.008142447 0.0027266855
-0.021977665 -0.0015382187 0.014734951 0.005989694 -0.00411555 -0.004286802 0.0027526678 -0.003258221
0.003260993 0.0076447907 0.0049869353 -0.0031236366 -0.0060672467 -0.0027129443 0.0013591368 0.0031335803
-0.006234313 -0.019035196 0.007913265 0.0010914672 0.003935372 -0.0085835755 0.011452195 0.012393441
-0.0057082716 -0.004065402 0.006685211 -0.0013924884 0.003598206 0.012147195 0.0013321633 0.012590744
-0.012788334 -0.010201938 -0.008195996 -0.0041033397 -0.0049478086 0.00336624 -0.0017861442 0.0024597417
0.009460661 -0.012871916 0.0010447177 -0.005865787 0.00080405903 -0.0054825293 -0.0047062696 0.0026613588
-0.004150878 -0.0065207975 -0.0056148847 -0.003535733 -0.009322881 0.020309497 0.012458028 0.0024226918
-0.005614903 0.011167098 -0.0042156917 -0.0035775327 0.012233283 0.004149089 0.0015174547 0.006753018
0.003197168 0.003174337 0.0038444083 0.0010490118 -0.008682328 -0.0007963204 0.0024722358 -0.002405919
0.009851805 -0.015521443 0.005559092 -0.009175434 -0.016068377 -0.007370183 0.0007650495 0.0057814037
0.013326227 0.0015748321 -0.0071869595 -0.0028575398 0.0069227773 -0.0013386892 -0.008272929 -4.7748463e-06
0.006270422 0.011448331 0.014949373 -0.011353891 -0.008479627 0.009865113 0.013001234 0.0023716853
-0.005106657 -0.0013117681 0.0038240475 -0.0023895444 -0.024925975 0.008300419 -0.016618954 -0.006258958
-0.0019295738 0.015299504 0.006752742 0.0029247317 -3.9081468e-05 -0.011372923 -0.0024979953 0.0012923403
0.009980592 0.0058300905 -0.005411939 0.0075796233 -6.246554e-05 -0.0056861485 0.0030385214 -0.0023208263
-0.007666412 0.0006521142 0.011082275 -0.010012926 0.0064609298 -0.0025635574 0.011209946 0.0033551953
-0.0018245281 -0.011094053 0.004031057 -0.007275734 -0.0042086104 -0.0042233267 -0.0055891057 -0.003551986
-0.0031935852 0.008647595 -0.0074224123 0.007456378 -0.0017114982 0.004808531 -0.016426383 -0.02550819
-0.008632198 0.0052889655 0.012076905 0.0038127922 -0.006344284 0.0020567505 -0.005284243 -0.0075227763
0.0039908527 -0.0063198633 -0.010465069 0.007962159 -0.0049393307 -0.002429621 -0.0062493216 4.3918742e-05
-0.006379881 -0.013580244 0.001097418 0.001959514 0.0037014394 0.00034935842 -0.0019976867 0.0013353458

action_model._discrete_distribution.branches.0.bias f4 [2]
00000000: cd02 3539 cc02 35b9
0.00017262548 -0.00017262547

action_model._discrete_distribution.branches.1.weight f4 [2, 128]
00000000: 6389 9cbb 3494 4f3c 7e6d a03b 24f0 4e3c
00000010: 6076 a4bc 89f5 87bc c82d f1bb 6210 4b3b
00000020: 27bb bd3b 01ba c5b9 e0ac cb3b af84 ccbb
00000030: c6eb 48bb 9560 80bc 226b 323b 553b 8eba
00000040: e9f4 dbb9 168c b1bb 5217 773b 7c8a 43bb
00000050: e846 7a3c 5888 873b ea53 013c 0d13 dd3a
00000060: 9559 eebb 1367 e8bc d109 f23b a3dd 143b
00000070: fcae f9ba 72c6 9d3b a3ee d93b c439 1a3b
00000080: 6a66 2dbc 97ab 54bc 6dd9 103b c2c0 b73c
00000090: 0b0c 85bb c4a7 543c 680e 82bc c310 693c
000000a0: 7d77 1cbc 84e3 ccbb 3932 e1bb 0f6d 27bc
000000b0: ee3c ae3b 2d02 d5b9 b368 f8bb a192 79bb
000000c0: d538 ca3a 4b2c 33bc 5c84 c4bb fb1d f6b9
000000d0: 7c2a f9bb f5a2 ee3b dd31 313b a3f3 033c
000000e0: 2b5a eb3a b71f 0b3b 39f6 1db9 61f8 063c
000000f0: 9720 823c 557f c0bb 7c44 08bc 1494 7fbc
00000100: 3355 1ebb 0ed0 f53b 71d0 f7bb be8c b73b
00000110: f38b 5cbb 42f2 e03b 9ecf af3b ea32 4dbc
00000120: 6200 973b 5567 053c a3bc 873b b000 5a3b
00000130: 2a01 12bc dd8d 3c3b 1f01 34ba 3a85 23b8
00000140: 51ac 3e3a 6096 a5bb 3262 37bb 66d4 67bb
00000150: 7e6b 12bc 8f79 80bb a8ca ffb9 586b a73a
00000160: f560 a0bb c025 7cba 11d2 823c 2aa4 3ebc
00000170: 8d3f 763b 4973 3fbc 5647 433b 4f88 ea3b
00000180: f624 1f3b 59a8 573c eae2 c7bc e4f5 183b
00000190: 8bac 213b 093d e03a 1ca9 563b 14a0 75bc
000001a0: 8f1d 1b3b ec26 0e3c c00f 023c f9b0 8fbb
000001b0: 2afa b9bb 6bf5 0fbc 893e 00bc 07bf eb3b
000001c0: 571a 0abc 6e77 96bb 28d2 fbbb aae6 23bc
000001d0: d9f0 7e3b 292d 123c 1787 01bc 2337 6c3c
000001e0: 43dd 133c ec23 d23b a959 3fbb 61c5 96bb
000001f0: acae 223c 23e8 9b3a fb20 3dbb 910f 04bc
00000200: 56bf 3d3c 6bd4 08bb 4c13 2fbc 6da2 443c
00000210: 6b1d cfbb aab4 7dbc 9f7e 003b 640d 74bc
00000220: 64bf 7fbc fe24 f13b 7817 973c 1ef8 56bb
00000230: 8a92 b0ba 3fe3 a7bc 02e4 99bb f7a7 8a3a
00000240: 02bf 30bc b09c 3dbc c7b9 19ba 002f 873b
00000250: b9f7 d0bb 537f bc3b 98e7 e33b 7670 c7ba
00000260: 2866 ba3b 3bba ff3b 7613 0fbb 0772 c8ba
00000270: 99ce 9a3a d82c afbb 279b 45bc 0d3a 863a
00000280: 8e99 79bc 5ef9 823b a51f ecbb 39af 7e3a
00000290: eea7 91ba 6bc7 b1bb 5161 68bc 649a 203c
000002a0: da7c 033c 934b d13b 9538 6dbc 2e18 8fbb
000002b0: 27ab 5b3c 163b d6bb cc47 7cbb 26fe be39
000002c0: 813b 723c 731b af3b 61ab 98bb 3f2f 453b
000002d0: c661 db3b c84c cebb 6c2a 05bc 9b22 80bc
000002e0: 0d26 b5bb 83d1 eb3b 0233 8abb f14c 283c
000002f0: 576c 32ba 7b13 003c 73a6 363c 276a 893b
00000300: 806f 413a 4032 c5bb a71a 4a3c 0290 723c
00000310: 1dc0 933a b377 c4ba e05a f03b 6e60 65bc
00000320: e9ab 48bb fa0a 39bc 758a 233c 03e8 4b3c
00000330: 9f73 5bbc 29e5 d7ba 628c 8ebb 545d 8b3b
00000340: ad6d 7d3b a2a3 083c d4e0 babb 728d 20ba
00000350: 2902 133a 00f1 b4ba c266 7dbc 96f2 67bb
00000360: 5293 55bb 03bc 1e3c 4d76 a03b 8727 ca3b
00000370: bbf5 c73b a806 8b3b f143 3f3c 196b 25bb
00000380: 87f3 833c 1327 08bb 21d2 47bb 4f98 b9bc
00000390: b4c9 a73b 0103 753b 94fc b9bb 7604 68bb
000003a0: f371 6b3b b4ca 153c 5e3b 51bc 403e 6ebb
000003b0: fbb9 d1ba 3c5c fbbb a0e4 f1bb d2b8 70bb
000003c0: 9d9b 46bc bbd1 9bbc 9ad0 54bb e907 e5bb
000003d0: c2be 3ebc 9c03 cabb 84a1 583a a4ca 9ebc
000003e0: f6dc e03a 74e7 5e3c 2171 913b 9396 263c
000003f0: 4ff0 83bb 2f7e 9d3b ea9c ae3a fbcb 9a3c
-0.00477712 0.012669612 0.004895865 0.012630496 -0.020075977 -0.016596572 -0.007360194 0.0030985107
0.0057901326 -0.00037713352 0.0062156767 -0.006241403 -0.003065811 -0.015671054 0.00272245 -0.0010851423
-0.00041953407 -0.005418311 0.003770311 -0.0029837182 0.015275694 0.0041361265 0.007893542 0.001686664
-0.0072738626 -0.028369462 0.007386424 0.0022715114 -0.0019049342 0.0048149163 0.006650762 0.0023532966
-0.010583499 -0.012980363 0.0022102252 0.022430781 -0.0040602735 0.012979452 -0.01587601 0.014225188
-0.009549973 -0.006252708 -0.006872442 -0.010218873 0.005317322 -0.00040628147 -0.0075808405 -0.0038081782
0.0015428314 -0.010935853 -0.005997224 -0.00046943114 -0.0076039415 0.0072826096 0.0027037777 0.008053693
0.0017955949 0.002122862 -0.00015064412 0.008237929 0.01588468 -0.005874554 -0.008317109 -0.015599269
-0.002415967 0.0075016087 -0.00756269 0.0056014946 -0.0033652752 0.006864817 0.005365326 -0.012524346
0.0046082 0.008142312 0.0041423603 0.003326457 -0.00891141 0.002877108 -0.0006866622 -3.8986305e-05
0.0007273602 -0.0050533265 -0.0027982113 -0.0035374402 -0.008936761 -0.003920741 -0.0004878838 0.001277308
-0.0048943707 -0.00096186623 0.015969308 -0.011635819 0.00375745 -0.011685201 0.0029797158 0.0071573625
0.0024283505 0.013162696 -0.024400193 0.0023339922 0.0024669494 0.0017108034 0.0032754606 -0.014991779
0.0023668741 0.008676272 0.007938325 -0.0043851105 -0.005675574 -0.00878654 -0.00782741 0.007194403
-0.0084291315 -0.004591874 -0.0076849647 -0.010003725 0.003890088 0.0089219 -0.007905743 0.0144174425
0.009024921 0.0064129736 -0.0029197729 -0.004601166 0.00992934 0.0011894744 -0.002885877 -0.008060352
0.011581263 -0.0020878564 -0.010685753 0.012001616 -0.0063206456 -0.015484968 0.0019606722 -0.014895771
-0.015609596 0.007359146 0.018443808 -0.0032801698 -0.0013471406 -0.020494102 -0.00469637 0.0010578622
-0.010787727 -0.011573002 -0.000586417 0.004125476 -0.006377187 0.005752483 0.0069550984 -0.0015216011
0.0056884475 0.007804183 -0.0021831668 -0.0015292772 0.0011810838 -0.005345922 -0.012060917 0.0010240689
-0.015234364 0.003997012 -0.0072059208 0.0009715441 -0.0011112669 -0.005425384 -0.014183358 0.009802435
0.008025372 0.006387183 -0.014478822 -0.004366896 0.013407505 -0.0065378053 -0.0038494943 0.0003642898
0.014784695 0.0053438484 -0.004659102 0.0030087975 0.006695005 -0.006295774 -0.00812779 -0.015641501
-0.0055282176 0.0071966066 -0.0042175064 0.0102722505 -0.0006806305 0.0078171445 0.011148083 0.0041935625
0.00073789805 -0.006017953 0.012335456 0.014804842 0.0011272464 -0.0014989286 0.007335052 -0.014000041
-0.0030620045 -0.011294121 0.009981741 0.012445453 -0.013394265 -0.0016471493 -0.004350231 0.004253069
0.0038670108 0.008339794 -0.005703071 -0.00061245926 0.0005607927 -0.0013804734 -0.015466394 -0.0035392395
-0.003258903 0.00968838 0.004896915 0.006169263 0.0061022914 0.004242737 0.011673913 -0.0025240837
0.016107334 -0.0020775243 -0.0030490237 -0.022655634 0.0051204804 0.0037385824 -0.0056758616 -0.003540305
0.0035926073 0.0091425665 -0.012770502 -0.0036353022 -0.0016000861 -0.0076709073 -0.0073819906 -0.0036731255
-0.012122062 -0.019020906 -0.003247297 -0.0069894684 -0.01164216 -0.006164981 0.0008263814 -0.019383736
0.0017155695 0.013604987 0.004438535 0.010167736 -0.0040264498 0.004806302 0.001332191 0.018896094

action_model._discrete_distribution.branches.1.bias f4 [2]
00000000: e29a b6b8 ce9a b638
-8.7072855e-05 8.707271e-05

action_model._discrete_distribution.branches.2.weight f4 [2, 128]
00000000: d184 8fbb 4f1c 063c 64a4 3d3c a540 edbb
00000010: 4ce4 23b9 cd11 9a3b 96c6 da3a 6ec7 503c
00000020: 26a6 133c 6fb3 61bc 4293 4abc f53b 153a
00000030: e873 963b 1cf3 753c 28c1 1cb6 505c 5b3c
00000040: 4125 793b 4545 43bc 0026 d839 9503 b93b
00000050: 7f02 153b c945 1dbb 992b 36bc 1be9 653a
00000060: 6cd8 c2ba 2be2 673b 8871 a1bb e9ba b43b
00000070: bb64 0bbc 5bfc 99bb 5138 4d3c abae 28bc
00000080: feb8 4bbb a2c3 143c eab4 593a 5878 83bc
00000090: c253 36bc 9bd3 1c3a c084 353b 74b8 c0ba
000000a0: 41fe 6ebc 2e1c e9bb 660a bc3a da92 31bb
000000b0: 12c0 a23c 5bad b3bb 41e6 82bc 3933 2f3c
000000c0: dd14 803c a137 5f3c 3ea2 343c db0e abbb
000000d0: 5f4c 83bb a0d2 fc3b c615 29b9 51e8 7e3b
000000e0: b67a b43c be9f 96bb 0144 53bb ee4b 463c
000000f0: 0c39 193c c974 9e3a 6a86 fc3a d000 893b
00000100: 5883 6abb 1edc 23bc c746 00bb ef23 2d3c
00000110: c550 08bc 2c82 af38 732f 013b f1ef 3e3b
00000120: 75ed cfbb 3510 2b3c bb4a c836 e486 b7bb
00000130: d78c 713b a12d b1b9 a5ee e13b c687 513c
00000140: 5bdd 293b e74d e7ba 2b51 f6ba 698b c7bb
00000150: 788b 8cbb 8083 bfbb 6493 bd3b 8735 dabb
00000160: 6ae6 5e3c b9a3 833b 6587 363c 368e babc
00000170: 51b4 e1b8 a2b4 013c 7b64 d93b 0a04 5e3b
00000180: 7253 0fbc f31c 5fba c648 c2bb e553 133c
00000190: 4ddb 863b d0a4 aa3b 1673 6bbb fd51 17bd
000001a0: 05a1 793c 638c 77bc 022b c83c cfb6 2e39
000001b0: c4da 6a3b 6620 a73b bbca 08bc b396 0dbc
000001c0: d064 5d3a 968c be3b 6f9d 24bc db5b 0b3c
000001d0: 2e92 39bc edfa 0b3c 0f71 3bbb 4a8c 983b
000001e0: 1d27 2ebb 5708 f6bb 6f05 d13b b777 673b
000001f0: bb37 9eba c623 18bb 9edb c4bb 2ebe 153c
00000200: 42dc b6bb e9e0 9a3b 3463 a73b 9d47 04bc
00000210: 46a5 2cbc 856d 933a 650d a53b c50d 2fbc
00000220: 8159 b2bb 0c5d 27bc eaf3 22bc ee19 f8bb
00000230: f77b 0dbc 7eaf 21bc 392c 79bc 98f7 1dbc
00000240: 3f3a 63bc fad5 4bbc 01e9 863a 031f d5bb
00000250: 5c45 8bbc 83a6 e23b 2250 b73b 9324 92bb
00000260: 2fd1 a9b9 4326 253a f3ab 693c 8059 97bb
00000270: 1f7f d2bb a06d 6a3c 2ba0 5c3b e895 1fbb
00000280: f5c9 c6bb be82 983b 358b 613c 7253 7a3b
00000290: 9bc3 9e3c 0a62 193b 8e6f cd3b 723e 41bc
000002a0: ddee 21bc a82c 2abc 7b99 a03c 87df 5dbc
000002b0: d79b f6ba 16d1 f23b 2068 79bb 8728 41bc
000002c0: 155a 2a3c 7998 b73b 84a6 1abb 107c 18bb
000002d0: 16f3 3f3b 6dae 053b 96e3 67bc 33c4 be3b
000002e0: a56f 7fbc ea00 89bc ba8a a0bb 9deb 303b
000002f0: 97be 35bc c3db 81bb d653 12bb 8d87 96ba
00000300: a402 edb9 d8bd b13b 0322 aa3c 3b83 b6bb
00000310: 7bc6 0dbb 298d fbbb ffc0 8f3b 6681 8b3b
00000320: 1d6b cb3b b88f 7e3b baff 7e3b d41c 41bb
00000330: 136a 8c3c 2c34 223c 02d0 0bbb b9c6 343c
00000340: 13fa 383c 8f9e f83b 19eb cfbb 5240 2f3b
00000350: fec2 46bc 4aa1 7cbb 47dd 113c 45ec 203c
00000360: 8d0f 00bc 9dfe 3c3b 5e8a 123b df45 87bb
00000370: 13d1 b8bb b404 903b ec02 c9bb 6a34 27bc
00000380: bc8c e5bb c3fb f3ba ce52 57bc 3d0f 353c
00000390: e068 053c 5e45 083b 2ef4 56bc 190b b73b
000003a0: 0185 823b db59 4f3c 2eab bc3b 1a51 603a
000003b0: dac9 c63b e02d 873c 742c 7c3a 957c 95ba
000003c0: 8bbb b7bb a76b c5bb 092a 1bbc c7bf 14bc
000003d0: d085 743c ad03 1bbb 0dd5 fabb c251 92b9
000003e0: 8567 f5bb 96ca 51bc 9fe1 c03a 9b9e 493c
000003f0: a652 343c 756a a4bc fc1f a73c 8e4c 993b
-0.0043798466 0.00818546 0.011574838 -0.0072403722 -0.00015629939 0.004701829 0.0016691263 0.01274286
0.009011781 -0.01377569 -0.012364211 0.0005692833 0.004591454 0.015011575 -2.3358243e-06 0.013388708
0.003801659 -0.011918371 0.00041227043 0.005646179 0.0022737083 -0.0023997894 -0.011118793 0.0008770392
-0.0014865524 0.003538261 -0.004926864 0.0055154455 -0.008507903 -0.0046992726 0.012525634 -0.01029555
-0.0031085606 0.009079846 0.00083048514 -0.016048595 -0.011128368 0.00059824594 0.0027697533 -0.0014703409
-0.014586986 -0.007113955 0.0014346361 -0.0027095587 0.019866977 -0.005483312 -0.015978934 0.010693365
0.015634948 0.013624103 0.01102501 -0.005220277 -0.004006907 0.007715538 -0.00016125207 0.0038895796
0.02203117 -0.0045966795 -0.0032236578 0.012103064 0.00935198 0.0012089248 0.0019266133 0.004181005
-0.0035783853 -0.0100012105 -0.0019573437 0.010567649 -0.008320038 8.368897e-05 0.001971212 0.0029134715
-0.0063454458 0.010440876 5.9691642e-06 -0.005600797 0.0036857629 -0.00033794067 0.0068949037 0.012788719
0.0025919292 -0.0017647118 -0.00187925 -0.006089617 -0.004289087 -0.0058445334 0.0057853926 -0.006659213
0.01360474 0.00401732 0.011140679 -0.02277289 -0.000107624226 0.007916601 0.0066342927 0.003387692
-0.008747922 -0.00085110887 -0.0059290854 0.00899217 0.004115498 0.0052076355 -0.003592675 -0.036943424
0.015236144 -0.015109154 0.02443457 0.00016662035 0.003583596 0.0051002977 -0.008349116 -0.0086418865
0.0008445503 0.005815099 -0.010047301 0.008505787 -0.011326356 0.008543712 -0.0028601324 0.0046553956
-0.0026573606 -0.0075083184 0.0063788216 0.0035319158 -0.0012071052 -0.0023214682 -0.0060076257 0.009139581
-0.005580456 0.0047265184 0.0051082615 -0.008073715 -0.010537451 0.0011247849 0.005036997 -0.010684435
-0.0054427986 -0.010215055 -0.009945849 -0.0075714504 -0.008635513 -0.009868501 -0.015208297 -0.0096415505
-0.013868867 -0.012441153 0.0010292829 -0.006503941 -0.017000847 0.0069168224 0.0055942694 -0.0044599264
-0.00032390046 0.0006299952 0.014262187 -0.0046188235 -0.0064238454 0.014308363 0.0033664803 -0.0024350826
-0.0060665556 0.0046542576 0.0137661 0.003819671 0.019380381 0.0023404383 0.006269402 -0.011794673
-0.00988361 -0.010386623 0.019604435 -0.013542063 -0.0018814754 0.007410179 -0.0038056448 -0.011789448
0.010397454 0.005602893 -0.0023597786 -0.0023267306 0.0029289178 0.0020398155 -0.014153382 0.0058217286
-0.015590583 -0.016724069 -0.00489935 0.0026995905 -0.011092803 -0.003962965 -0.0022327802 -0.0011484489
-0.0004520613 0.0054242425 0.020768171 -0.005569843 -0.0021633196 -0.0076767397 0.0043870206 0.004257369
0.0062078373 0.0038842987 0.003890975 -0.0029466646 0.017140424 0.009900134 -0.00213337 0.011033707
0.011290091 0.007587261 -0.0063451645 0.0026741219 -0.012131451 -0.0038548284 0.008902854 0.009821956
-0.007816208 0.0028838285 0.0022360305 -0.0041282023 -0.005640158 0.004395092 -0.0061343815 -0.010205368
-0.0070053022 -0.001861446 -0.013142301 0.011050996 0.00814268 0.00207933 -0.01311974 0.0055860397
0.0039831405 0.012655701 0.005757711 0.0008557007 0.006066543 0.016501367 0.0009619661 -0.0011404926
-0.0056070737 -0.006024796 -0.009470471 -0.009078926 0.0149244815 -0.0023653314 -0.007654792 -0.00027908204
-0.007489147 -0.012804648 0.0014715678 0.012305881 0.011006033 -0.020070294 0.020400994 0.0046783155

action_model._discrete_distribution.branches.2.bias f4 [2]
00000000: e41f 09b9 d31f 0939
-0.00013077218 0.00013077194

action_model._discrete_distribution.branches.3.weight f4 [2, 128]
00000000: 2c99 44bc 571d a73c 2966 c03b 2650 80bb
00000010: 4c68 24bc 9512 f83b da94 c53b 6f86 50ba
00000020: 75bc 0abc 2d1a abbb 0485 233b b2ec 85bc
00000030: e1cd 29bc e1f2 ac3b afcb 233c ce97 33bc
00000040: 5957 373b 307f 04bc 5e9c a63b f7c4 b83b
00000050: 96c8 8dbb fba5 95bb 4e65 b93a d950 acbb
00000060: 4111 9bbb 29c0 fc3a 3dff f5bb b234 f0bb
00000070: b67a ec3b c764 e7ba c2cf 423b a4a6 b3bb
00000080: d2fe dd3b 46b4 78bb 8318 deba 6d25 e03c
00000090: 8813 14bb 5f5a 823a 6375 a0bb 43c0 1f3c
000000a0: 192f a83b a19d a13a a29c 94bb 6503 adbb
000000b0: d6ba 97bb 00f0 163c 2117 503c ae25 d03b
000000c0: a232 2fbc 2508 5ebb a0e8 84bb b46a 6a3a
000000d0: 632f d63a 8a0a 643b be51 85bb 7ca8 1bbc
000000e0: 4e18 a2ba 9d80 a6bb 17c9 cabc 6c90 cbbb
000000f0: f8d2 d13b 797d 94bb 9bdd 02bc aaaf 35bb
00000100: 4ed3 f53b a7c5 793c 8bb2 ae3b 08b1 3dbb
00000110: f526 b1bc 6681 01bc a661 b4bb a43b 843b
00000120: a034 45bc 462e 54bc 7f53 393b 9d1a aabb
00000130: 6586 9d3b 97cd 1e3c 8858 42ba c2e0 5a3c
00000140: d152 3fbc 8687 dfba e058 18bc dfeb a9bc
00000150: 8b04 29bc ae18 60bb c63b 7a3c bc5c 82bc
00000160: 5d44 11bc c255 b43b d589 c8bb 122e 443c
00000170: a990 08bc d6f6 993a ef0e 84bc 34ac 11bb
00000180: 2594 093c a8eb 033c 096e 5f3b fc97 953a
00000190: ac54 d0bb 945e 973b 1f78 7fbb 33da ae3b
000001a0: fb01 103b 3601 88bb 300b db3b f00c 0d3b
000001b0: 48ed c1bb 8f85 c93b ac4f 9b3c 6062 913c
000001c0: aa51 2dbb 7880 71bb e96c 9d3c 23fc 633c
000001d0: 33e4 193b 7e1e a6bb 3a3f 413c c7d7 0a3a
000001e0: e01d ab3a f0af 563c d757 76bb c2ae 573a
000001f0: 35b1 583b 5c04 2f3c 6885 953b 7a91 4e3c
00000200: f7f8 7c3c 4513 c4ba 4aa8 a63c af54 673b
00000210: dcbe 05ba c50e 8dbc d034 14bc f240 4abb
00000220: 3b01 9ebb 8c7c 09bc 567f c2bb 1e45 843a
00000230: 2e4e 7c3b 318d b5bc d6ea 7f3a da2c dabb
00000240: f26c ee3b f605 933b 005e a53b ec2f 87bc
00000250: 523f 83bb 4385 5c3c 5c37 223a 3670 4c37
00000260: fe30 87bc 29c6 063c 5951 303b 0f61 343b
00000270: 468f d8bb 5806 56bc d33b 0bbc b601 8e3b
00000280: 0ea8 973b d41e 42b9 539d a23b 3646 09bb
00000290: f0d9 3d3c 688e 87bb 3a02 113c 054b cc3b
000002a0: 7d24 d83a e602 0fbc b367 9d3c fe88 09bc
000002b0: bca9 babb c296 cd3b 118c e03b 496c 043b
000002c0: 72e1 813c 0dc1 9cba 6d40 00bb 0670 863c
000002d0: f051 173c 5862 76bc ac4b d33b e5f6 913b
000002e0: ed8b 883b 15a9 3fbc 071f 28bb 4b99 02bc
000002f0: acd7 4dba c4d6 953c 1fb9 5d3c 542c 61bb
00000300: 050b a5ba 6463 193c b24f 803c ddcd 943b
00000310: 02da b5bb 1624 82bc f27e 993b 702d 8aba
00000320: 7430 a5bb 7906 243a 8ab2 af3b 4473 793c
00000330: 34be 35bc ffd8 2fbc 088e 17ba 8f98 a7bc
00000340: 3ad6 c2bb 6361 b4bb df22 c03a cb43 f83a
00000350: 4466 da3b b012 193c 31de 863c 179c af3b
00000360: c8d2 0abc c1ce 1f3b 8c5b 4c3b 6329 51bc
00000370: 1303 cc3b ec4e 993b 8319 033c 7f49 5ebb
00000380: 9bcf 2cbb be3e 2d3c 3eef e23b 55ad aabb
00000390: 544b 083c a7aa 34bc 0c10 5f3a 73d7 15bc
000003a0: 6c75 66bc cbd0 2439 ac83 1c3a 887a 023c
000003b0: 0d18 b53b bc04 4c3b 98a4 73bc 6975 4dbb
000003c0: 9c1d 61bc 4335 973c 8ff6 f5bb ce8f 823c
000003d0: 7c0f 9c3b 8484 23bc b8a7 78bc d534 11bc
000003e0: 82fe 15bb 8062 15bb de93 5b3a d9d3 b13b
000003f0: 9446 713c ab29 eeba c56b 74bc 357d 1c3c
-0.01199941 0.020399733 0.0058715534 -0.0039158044 -0.010034632 0.0075705745 0.0060297074 -0.00079546025
-0.008467783 -0.0052216263 0.002495111 -0.016348217 -0.010364027 0.005277977 0.009997292 -0.010961486
0.0027975647 -0.0080869645 0.0050845584 0.0056387144 -0.00432689 -0.0045669056 0.0014144571 -0.005258661
-0.0047322814 0.0019283342 -0.0075072334 -0.0073305005 0.0072167767 -0.0017653935 0.0029725884 -0.0054825116
0.0067747617 -0.0037949248 -0.0016944561 0.027361596 -0.002259465 0.0009945146 -0.004896806 0.009750429
0.0051325676 0.0012330302 -0.0045352736 -0.0052799457 -0.004630427 0.009212494 0.012700827 0.006352148
-0.010693224 -0.0033879366 -0.0040560514 0.00089422916 0.0016341027 0.003479632 -0.0040685823 -0.009500619
-0.0012366863 -0.00508125 -0.02475409 -0.006212285 0.0064033233 -0.004531559 -0.007987405 -0.0027723112
0.007501996 0.015244878 0.0053313426 -0.002894463 -0.021625021 -0.007904386 -0.0055048047 0.00403543
-0.012036473 -0.012950486 0.0028278527 -0.005191161 0.004807281 0.009692571 -0.0007413705 0.0133592505
-0.01167746 -0.0017053939 -0.009298533 -0.020742355 -0.010316025 -0.0034194398 0.01527304 -0.01591336
-0.008866397 0.005503387 -0.0061199465 0.011973875 -0.008335271 0.0011746536 -0.016120402 -0.0022227885
0.008397137 0.00805179 0.0034092686 0.0011413093 -0.00635775 0.004619429 -0.003898151 0.00533607
0.0021973837 -0.004150535 0.0066846833 0.0021522604 -0.0059181787 0.0061499546 0.018958889 0.017747104
-0.002644638 -0.0036850255 0.019216971 0.013915095 0.0023481965 -0.005069553 0.01179486 0.00052964356
0.0013055168 0.01310347 -0.0037588978 0.000822764 0.0033064608 0.010682192 0.0045630224 0.0126079265
0.015440217 -0.0014959356 0.020343918 0.0035298278 -0.00051019876 -0.017218957 -0.009045795 -0.0030861464
-0.004821924 -0.008391511 -0.00593559 0.0010091399 0.0038498747 -0.022162052 0.00097624713 -0.0066581788
0.007276171 0.0044867946 0.005046606 -0.016502343 -0.004005351 0.013459506 0.0006188059 1.2185474e-05
-0.016502853 0.008225956 0.0026903956 0.0027523672 -0.0066088764 -0.013063036 -0.00849815 0.0043337
0.004628188 -0.00018512766 0.004962602 -0.002094639 0.011587605 -0.004136849 0.0088506285 0.006234529
0.0016490367 -0.008728718 0.019214487 -0.008394478 -0.0056965034 0.0062740752 0.0068526347 0.0020206145
0.015854571 -0.0011959389 -0.001956965 0.016410839 0.009235844 -0.015038095 0.00644823 0.004454481
0.004167071 -0.011698027 -0.002565326 -0.007971118 -0.0007852267 0.018290885 0.013532906 -0.0034358697
-0.0012591785 0.0093620755 0.015663002 0.0045411424 -0.00554967 -0.015886348 0.0046843225 -0.0010542106
-0.0050411765 0.0006257068 0.0053618597 0.015225235 -0.011092711 -0.010732888 -0.0005781357 -0.020458488
-0.005945948 -0.0055047735 0.001465883 0.0018941102 0.006665023 0.009342834 0.016463371 0.0053591835
-0.008473106 0.002438471 0.0031182496 -0.012766215 0.0062259524 0.0046785977 0.008001688 -0.0033918319
-0.002636886 0.010574041 0.0069254925 -0.005208651 0.008318741 -0.011027015 0.0008509166 -0.009145605
-0.0140660815 0.0001571804 0.00059705484 0.007963784 0.0055265487 0.0031130752 -0.014870785 -0.00313505
-0.01373997 0.018458014 -0.0075061987 0.015937712 0.004762588 -0.009980325 -0.015176706 -0.008862694
-0.0022887294 -0.0022794306 0.0008376221 0.0054268655 0.0147263 -0.0018170377 -0.014918272 0.009551336

action_model._discrete_distribution.branches.3.bias f4 [2]
00000000: 2142 b739 1d42 b7b9
0.0003495375 -0.00034953738
