results/newOne/Move  Behaviour/Move  Behaviour-406144.pt (torch, 545175 bytes, 52 tensors)

discrete_act_size_vector f4 [1, 4]
000000 00 00 00 40 00 00 00 40 00 00 00 40 00 00 00 40
       2.0 2.0 2.0 2.0

network_body._body_endoder.seq_layers.0.weight f4 [128, 36]
000000 08 de 12 bd ae 5e b5 3d 9e f1 3d be b6 fa a8 3d
       -0.035856277 0.08855949 -0.18549201 0.08250944
000010 d3 ff e3 bd aa 54 c3 bc e0 02 9d be 46 c2 8a bd
       -0.11132779 -0.023844082 -0.30666256 -0.06775336
000020 41 83 a2 3d 2f bd fa bd 3f b3 1a bd d8 2c a6 3d
       0.07935191 -0.12243115 -0.0377686 0.08114022
000030 ce 32 42 be db e8 10 3e 6f 04 6c be 5c ce 7e 3e
       -0.18964693 0.14151327 -0.23048566 0.24883407
000040 e3 d8 03 3e de 49 db 3d ae f4 8e be 56 d1 eb bd
       0.12875704 0.107074484 -0.2792105 -0.11514537
000050 33 ea 9a 3d 76 1b df 3c 3f 62 6e bc ef ff b9 3d
       0.07564201 0.027234774 -0.014549791 0.090820186
000060 98 2a 09 3e 6f f4 24 3e 90 f7 28 be 3a 70 8f 3c
       0.13395154 0.16108869 -0.16500688 0.017509568
000070 51 9d 2f 3e 64 9c 95 bc 17 fc 96 3e 0e d1 f7 bd
       0.17149855 -0.01826305 0.29489204 -0.12100421
000080 b1 91 a2 3e 11 1b ef bd 84 63 c7 bd 4d d4 c3 3e
       0.3175178 -0.116750844 -0.09735778 0.3824791
000090 96 f0 20 3e 78 3f 8e 3d 8a e9 50 3e 6f 32 59 3d
       0.15716776 0.069456995 0.20401588 0.053026613
0000a0 8a dc 81 bd 4e ba ac 3e 58 0f ce bd e2 13 57 3d
       -0.063408926 0.3373589 -0.1006152 0.052509196
0000b0 fa 32 17 3e ef b1 53 3d 1a eb 07 3e fc 6e fd 3e
       0.1476554 0.051683363 0.13273278 0.49498737
0000c0 62 0e ae be 79 9d cd 3e 6c 8e a0 bd 3e cf 50 3c
       -0.33995348 0.40159205 -0.07839665 0.012744723
0000d0 3e 1a 25 3e da 27 4b 3e f4 29 51 3e 1f cc 2a 3e
       0.16123292 0.19839421 0.2042616 0.16679429
0000e0 cb 34 5a be 27 6b ee 3d 0a 78 f8 bd 0f 9a 64 be
       -0.21309201 0.116415314 -0.12132271 -0.22324394
0000f0 bb e5 a4 bc e0 e4 5a be 7c 07 be 3d 43 c0 74 3e
       -0.020129075 -0.21376371 0.09278771 0.23901467
000100 ee 2b 85 3b 0f 01 b8 bb f0 7c 8e bd 16 12 fd be
       0.0040640747 -0.0056153606 -0.06957424 -0.4942786
000110 d2 00 f9 bd ed 65 2f be 85 e1 1b be 0c 68 a5 3b
       -0.121583596 -0.17128725 -0.15222748 0.0050478037
000120 ef cf f8 3d 30 52 fa 3c 33 ef 17 3e 7c ac 88 be
       0.12149035 0.030556768 0.14837341 -0.26694095
000130 5f 6a da be e5 70 98 3d 9c b2 0c bd 19 1d 29 3e
       -0.4265928 0.07443408 -0.034350023 0.16515006
000140 42 64 02 be ff 87 ad 3b 58 38 3f 3e 97 8d b7 be
       -0.12733558 0.005295753 0.18673837 -0.35850212
000150 6f 2e c6 be e4 4d 2e bd e4 27 a9 be d1 cf b1 be
       -0.387073 -0.04255475 -0.33038247 -0.34728864
000160 9e 32 37 be cc 3e ac 3c 26 ee 56 be 73 f0 0c 3d
       -0.17890403 0.021026038 -0.20989284 0.034408998
000170 ec ca 5d bd d9 db c4 3d f2 37 1d be 76 dc 9b bd
       -0.0541486 0.09612245 -0.15353373 -0.07610409
000180 a4 94 34 3e c0 72 c9 bc b7 db 3e be a0 38 e5 3d
       0.17634827 -0.02459085 -0.18638502 0.11192441
000190 1d a3 13 be ad b9 8e be 4b db cd bc 50 aa 51 3d
       -0.14417692 -0.27876034 -0.025128981 0.051187813
0001a0 52 96 6b ba 28 99 50 bc 80 6e 33 bd a4 56 32 3e
       -0.0008986938 -0.012731828 -0.043806553 0.17415863
0001b0 0e 08 d0 3b 8c 55 78 bd 08 61 57 be c8 84 0a be
       0.0063486164 -0.06062846 -0.21033108 -0.13527215
0001c0 7e b7 4d 3b a0 27 ad be 82 ae 0b be be bd 3d 3d
       0.0031389887 -0.33819294 -0.13640788 0.04632353
0001d0 69 60 95 3d 00 f6 5f 3d a6 c8 e4 3e 9c 4d 41 bc
       0.072937794 0.054677963 0.44684333 -0.011798289
0001e0 02 33 3e be 02 63 80 3d 28 fd dd bd 1f 71 fd bd
       -0.18574145 0.06268884 -0.10839301 -0.12375092
0001f0 90 55 5b be da d1 18 bc 8a b7 51 3e 08 9e bb bc
       -0.21419358 -0.009327376 0.20480171 -0.022902504
000200 6e 95 eb 3d cc e2 f6 bd 93 76 d6 3d 4a 40 e5 3c
       0.11503111 -0.12054977 0.10471835 0.027984757
000210 d2 27 53 bd 33 cc 23 bd 6f c9 ee 3b 28 1d 76 bd
       -0.051551647 -0.03998966 0.0072871963 -0.0600864
000220 e7 97 1c be 3b a9 58 3c d6 3d 71 bb ca b2 61 3b
       -0.15292321 0.013223941 -0.0036810539 0.0034438842
000230 c7 d1 32 3e 5b 49 14 be d4 f9 ab 3c ad 92 91 3d
       0.17462836 -0.14481108 0.02099315 0.07108054
000240 8a 3f 4d 3d 75 0f c9 3e 3f ff 36 bd 2e 78 49 3e
       0.050109424 0.39269605 -0.044677015 0.19674751
000250 fe 48 24 3d a6 5f 86 3d bc 9d a1 bd 69 37 1a bd
       0.040108673 0.06561212 -0.078914136 -0.0376505
000260 de 84 13 bd 08 4e 3c 3d 8e 4c a4 3b af 5d bb be
       -0.036015384 0.045972854 0.005014009 -0.36594912
000270 4f 6b 40 3e 80 24 92 3e b0 8c 39 be 4f 4a 9a bd
       0.18790935 0.28543472 -0.18120074 -0.075337045
000280 be 11 4e be 79 2e 15 3b 6b 6b 8a bc 0c 57 8b be
       -0.20123956 0.0022763296 -0.016896924 -0.2721485
000290 59 53 0e 3e 37 8b e0 3d 77 1a 29 be 24 c3 89 3e
       0.13898982 0.10964053 -0.16514002 0.26906693
0002a0 c8 54 0c 3d 21 45 06 bf 8d 15 1a 3e 79 12 d3 3d
       0.03426054 -0.5244923 0.15047283 0.10306258
0002b0 b6 fa 8c 3d 8a 69 b8 3d d4 f4 14 be e1 ec a5 be
       0.06883757 0.09004505 -0.1454652 -0.32407287
0002c0 03 84 43 3c ce 2a bc 3d ed 59 98 3e 7f d6 8c 3d
       0.0119333295 0.09187852 0.29756108 0.068768494
0002d0 27 87 75 38 56 e9 b4 3d 6b 6f 28 be 51 ca 0c 3e
       5.8538422e-05 0.08833568 -0.16448753 0.13749053
0002e0 be d6 35 bc 5d ec 9e bd 2b 79 19 be 8a 94 ed 3c
       -0.011098562 -0.077599265 -0.14987628 0.029001493
0002f0 4b c2 ce bc ed 93 98 be 28 95 8f be 6a 9a ed bd
       -0.02523913 -0.29800358 -0.28043485 -0.11601718
000300 90 28 8a 3e 27 2b 34 3c 9a f9 44 3e 42 46 c9 bc
       0.26984072 0.010996616 0.1923584 -0.024569634
000310 78 98 21 3e 60 48 06 3e 9b 9c 57 be 13 06 a1 bc
       0.15780818 0.13113546 -0.21055834 -0.019656217
000320 88 7c 01 be e7 e3 e5 3d 77 ba f1 bc bc 42 ff 3d
       -0.12645161 0.112251095 -0.029507859 0.124639004
000330 98 be 3d 3e 90 a8 34 3e b1 2b 7f be 16 9a c3 3b
       0.18529737 0.17642426 -0.2491901 0.005969296
000340 30 a2 02 3e d0 55 bb bc b6 2f b8 be 7f f1 9f be
       0.12757182 -0.022868067 -0.359739 -0.31238934
000350 e3 cd 04 3e 73 42 32 3e 36 08 04 3e 88 1e 47 be
       0.12969165 0.17408161 0.12893757 -0.1944524
000360 e7 25 29 be bf 5d 91 bd 60 be 63 3e 29 1f b7 bc
       -0.16518365 -0.07097959 0.22240591 -0.022353726
000370 71 31 10 3d b8 be a4 bb 70 8a c0 bc bc 13 76 bd
       0.0352034 -0.0050276183 -0.023503512 -0.060077414
000380 3e 10 92 3e e2 c0 93 3e 92 8c 4a bd 23 27 b5 bd
       0.28528017 0.28858095 -0.049450465 -0.08845355
000390 4f 2b 51 be 5f 69 47 be 4e 51 0c bd 8d fb 38 be
       -0.20426677 -0.1947379 -0.034257226 -0.18064709
0003a0 71 da 95 3e 63 5a 9b be a5 4c 04 be e0 63 35 be
       0.2926822 -0.30342397 -0.12919863 -0.1771388
0003b0 24 a2 18 bb be e9 99 be 0c e6 97 be 21 96 31 be
       -0.0023290003 -0.30061144 -0.296677 -0.17342426
0003c0 44 3c 24 bd 4a b0 8a 3d 94 bc 5a 3e 73 75 b9 bd
       -0.040096536 0.06771906 0.21361 -0.09055605
0003d0 a0 3c 3b 3e 50 97 3b be 31 5b a1 be b0 51 f7 bd
       0.18284845 -0.1831944 -0.31514886 -0.120761275
0003e0 33 f4 89 be ee 90 05 bd fa e8 c9 be df 6a 25 bd
       -0.26944122 -0.03260892 -0.3943556 -0.040385123
0003f0 9a 19 91 be 4e 73 12 bd 20 c6 23 bc 0f 9a ec 3e
       -0.28339845 -0.035754494 -0.009995967 0.46211287

network_body._body_endoder.seq_layers.0.bias f4 [128]
000000 e3 64 55 36 00 8b 9f bb e4 50 36 ba 1d c4 6a bb
       3.1798197e-06 -0.004868865 -0.00069548027 -0.003582246
000010 c0 43 97 ba bc 50 af bb 7f 0f b0 bb 27 68 d2 3b
       -0.0011540577 -0.0053502005 -0.005372941 0.0064211073
000020 89 9f 82 bb d2 b8 6f b9 cc dd 03 bb 2a 46 36 bc
       -0.003986303 -0.00022861667 -0.0020121215 -0.011125127
000030 34 73 70 3b fd 3a cf 39 55 a8 e7 3a b8 78 13 3a
       0.003668976 0.00039526066 0.0017674068 0.00056255935
000040 e7 99 d9 bb ca 17 b4 bb 20 5a 27 bb 2c 2f 49 ba
       -0.006640661 -0.005496 -0.0025535896 -0.00076745707
000050 ac 77 1a bc 06 b0 13 33 65 70 a5 b9 b4 41 83 b8
       -0.009427946 3.4386197e-08 -0.00031554993 -6.258805e-05
000060 15 01 7c 3b 78 db 89 ba 65 fb b6 bb 8d 65 8d bb
       0.0038452793 -0.0010517677 -0.005584168 -0.0043150843
000070 2e 26 89 b9 f3 6d ab bb 52 c6 ed ba e5 f1 9c 3b
       -0.00026159122 -0.005231613 -0.0018140769 0.0047895783
000080 7a 7f ca ba c8 11 b5 b9 84 10 3d 3b 4b 4d 01 bb
       -0.0015449368 -0.00034536258 0.0028848955 -0.0019729908
000090 b4 4e 9c b9 fe 19 e3 b9 22 04 1a bb ec 6c 44 bb
       -0.00029813277 -0.0004331618 -0.0023500999 -0.002997215
0000a0 a9 a5 a5 b9 9a 16 dd ba 1d 2b 3e bb f2 85 e1 bb
       -0.0003159468 -0.0016867698 -0.0029017397 -0.0068824226
0000b0 90 70 53 ba ee f3 fb b9 15 88 b3 bb 4f 22 1f bb
       -0.00080657844 -0.00048056192 -0.0054788687 -0.0024281924
0000c0 46 7a 10 bb b5 62 ae bb 79 a3 ac bb ee 65 22 3b
       -0.0022045537 -0.0053218254 -0.005268511 0.0024779993
0000d0 44 d4 2b bb f4 f7 c1 39 28 37 83 b2 49 b5 6c bb
       -0.002621905 0.00036996568 -1.527549e-08 -0.0036118797
0000e0 2d cc 51 ba 37 26 1c ab cd db 3b 3b 62 05 46 3b
       -0.0008003142 -5.5475367e-13 0.0028664947 0.003021561
0000f0 23 52 e8 39 cc 39 9c bb a3 d5 cd 3a 96 7e 34 ba
       0.00044311685 -0.004767632 0.0015703927 -0.0006885318
000100 49 86 53 bb f9 5a 2a 39 89 21 2f bb 48 02 c7 bb
       -0.0032276085 0.00016246353 -0.002672287 -0.00607327
000110 ae 14 e8 ba 85 7c f6 ba de f5 57 39 75 38 73 bb
       -0.0017706358 -0.001880542 0.0002059559 -0.0037112508
000120 47 0b 3e bb 81 73 0f 3b d8 3a 2c bb 43 d1 44 3a
       -0.002899842 0.0021888914 -0.002628019 0.0007507989
000130 7a 9e 51 b8 11 40 40 bb 38 df d1 38 86 91 d7 ba
       -4.9977076e-05 -0.0029335062 0.00010007474 -0.0016446568
000140 a5 66 96 b9 f5 95 5b bb 65 dd 3a ba 4c 34 59 3b
       -0.00028686706 -0.003350613 -0.0007128327 0.0033142744
000150 39 6e bf 3a 47 f1 87 bb 2f b1 1b ba 09 43 95 ba
       0.0014604992 -0.0041486355 -0.0005939183 -0.0011387776
000160 8c 6f 9e bb 05 ab c9 bb bf e2 00 bc 76 9b 15 b9
       -0.004835075 -0.0061544203 -0.0078665605 -0.00014267661
000170 3e 4d 94 bb ac 60 e0 3b 45 50 6d bb 87 a5 a0 ba
       -0.0045258095 0.0068474617 -0.0036211174 -0.0012256362
000180 57 40 83 b9 59 51 1d 3b cc 7e 07 ba 1e 4b 39 bb
       -0.00025034204 0.0024004786 -0.00051687355 -0.0028273533
000190 2b 7f 28 bb 50 94 43 3b e0 91 52 bb bb 1b 24 bb
       -0.0025710564 0.002984304 -0.0032130405 -0.0025040943
0001a0 25 bd b4 bb 15 28 1d 3c e6 f6 78 3b e0 5c 95 3a
       -0.005515712 0.009592076 0.003798896 0.0011395477
0001b0 92 25 86 bb 89 6b 45 bb 3a ee d5 3a f4 5c bb ba
       -0.004093834 -0.003012391 0.0016321607 -0.001429467
0001c0 d9 eb 9a 39 f4 fb 19 3b c3 7f 52 bb d3 5f d2 ba
       0.0002954889 0.0023496123 -0.003211961 -0.0016050286
0001d0 ac a1 19 bb 11 70 85 b5 58 1a a7 ba d4 00 85 bb
       -0.0023442311 -9.941888e-07 -0.001274894 -0.0040589366
0001e0 aa fa 5e ba e6 ec f3 3a 27 40 0e ba ec a0 54 3b
       -0.000850598 0.001861003 -0.00054264296 0.003244455
0001f0 d8 f7 9c 3a 74 f5 ab bb 9b 03 d9 ba d2 7e 7d bb
       0.0011975719 -0.005247766 -0.0016556861 -0.0038680327

network_body._body_endoder.seq_layers.2.weight f4 [128, 128]
000000 1e 4c 5a 3c 52 23 ce bc 59 64 03 bd 7f 72 d4 39
       0.013323812 -0.025163326 -0.03207812 0.00040521097
000010 d3 47 22 be ea 8c 0d 3c 31 b3 d1 bd ff d1 e3 3c
       -0.15847711 0.008639554 -0.10239256 0.027810095
000020 c2 d9 33 3e 77 87 06 be b7 71 de 3d ba 31 91 3d
       0.17563537 -0.13137613 0.10861533 0.07089563
000030 a2 39 05 3e 12 27 e3 bd 64 8f d1 3d 6c 62 ce 3c
       0.13010266 -0.110914364 0.10232428 0.025193416
000040 ff c0 a5 bd 8f a5 56 ba 8c 53 40 bc 78 86 0a 3e
       -0.08093452 -0.00081881223 -0.011738669 0.13527858
000050 e0 bc 45 bd 76 6a 1d be d5 cf 20 be 83 b5 36 bc
       -0.04827583 -0.15372643 -0.15704282 -0.011151674
000060 10 7f 37 3d 8a 4c 9a 3d 15 02 5f bd 74 95 3f bc
       0.04479891 0.0753413 -0.054445345 -0.011693347
000070 c9 28 e6 bd f7 6f af 3d 10 84 87 3c f1 2a 15 bd
       -0.11238248 0.085662775 0.016542464 -0.036417905
000080 eb 60 4b 3d 84 97 79 bd d8 74 81 bd e4 05 06 bd
       0.049652975 -0.060935512 -0.06321114 -0.03272046
000090 8c 02 ea bb a2 db c0 3d 19 b5 98 3d 56 8a 41 3c
       -0.007141417 0.09416892 0.07456417 0.011812767
0000a0 bf b1 e9 3d 80 e4 3e 3c 20 6d c2 bd 94 e5 36 3d
       0.114108555 0.011651158 -0.0949347 0.044652537
0000b0 c9 2f 6c bd 35 06 35 3d 2c e3 13 3d b4 03 45 be
       -0.05766276 0.044195373 0.03610532 -0.19239694
0000c0 27 26 06 be 37 a5 b7 3d 0a 03 5c bd 05 a8 40 3e
       -0.13100491 0.08967059 -0.053713836 0.18814094
0000d0 af 58 a3 bc 33 82 97 bb e1 fc 3d 3d de 23 89 bc
       -0.019939749 -0.0046236753 0.046383742 -0.016740736
0000e0 64 9f c9 3d 74 b8 d2 bc 17 d3 5b bd 4d 2a 0d be
       0.098448545 -0.02572272 -0.053668108 -0.13785668
0000f0 74 f7 da bc d9 d1 28 3d 26 b1 76 bb 59 78 bc 3c
       -0.026729323 0.04121575 -0.003764221 0.023006605
000100 ad dd 2c bd d5 98 3f bd 33 1f 2f 3d bb 05 88 3d
       -0.042203594 -0.04677661 0.042754363 0.06641718
000110 d0 ba a6 3c aa b9 83 3d 30 ec 99 3d 6b f5 af bd
       0.020352751 0.06431897 0.07515752 -0.08591732
000120 99 f0 2a bd 6c 9b 76 bd 8d 94 e8 3b 70 1f 5c 3d
       -0.041733358 -0.060206816 0.0070977868 0.05374092
000130 38 24 1a bc a0 0f 26 be 25 17 3a 3d 62 7c 8b 3d
       -0.009408049 -0.16216898 0.04543223 0.068108335
000140 0b 1d c6 3d 5f e4 71 be 32 ca 19 be ff 92 4d 3d
       0.09673508 -0.23622273 -0.15018538 0.050189015
000150 1e 5b 84 be eb 79 51 bc 8c 6f 68 3e 3c 4b be bc
       -0.25850767 -0.012785415 0.22698802 -0.023229234
000160 7b ae e6 bc 4e 2b c7 3d 05 73 e1 3d 0a 63 d9 3d
       -0.02815937 0.097250566 0.11008266 0.10614593
000170 14 05 60 3e b6 ef 0b 3b 66 61 c6 3c 5a c7 da bb
       0.21876937 0.0021352596 0.024216365 -0.0066765966
000180 38 4e f1 bd eb 33 b3 bd 77 ad fc 3c 2c 48 65 3a
       -0.11782497 -0.08750137 0.030844433 0.0008746411
000190 cc 06 ad bd c3 b1 bf bb 26 7d b7 3c 1f 87 0c bd
       -0.08448562 -0.0058500483 0.022398543 -0.03430855
0001a0 7e 22 31 bd af fa 69 3d 9b 08 ad 3d d5 fb a9 bd
       -0.043245785 0.057123836 0.08448907 -0.08299986
0001b0 1d bd 18 3d c7 38 34 3c 8d d7 6f bc c8 33 6e 3d
       0.037289727 0.010999865 -0.014638794 0.05815485
0001c0 1a 64 88 bc f4 78 c3 3d d8 7a df 3d 2b 6e 50 bd
       -0.016649295 0.09544554 0.109121025 -0.050886314
0001d0 de 7d e9 3d cd 33 28 be 60 31 9a bc 22 dd c2 3c
       0.114009604 -0.1642601 -0.018822372 0.023787085
0001e0 56 ba 6b bd 0b 98 20 be 38 04 ed bd 40 62 3e 3c
       -0.05755075 -0.15683 -0.1157307 0.011620104
0001f0 88 aa 23 3d 82 cc d6 3d 54 38 c4 bc 0d db 01 3e
       0.039957553 0.104882255 -0.02395264 0.12681217
000200 85 70 06 3e ef ba ce 3c 4f 74 b3 bc 08 64 54 bc
       0.1312886 0.025235621 -0.021906046 -0.012963302
000210 a7 f9 8e 3d 25 41 14 3e 86 fc 1c 3e 87 43 8b bd
       0.06981211 0.14477976 0.15330705 -0.06799989
000220 72 76 a2 3d 07 0d 87 bb 60 eb 8a 3d 01 4d 3d bd
       0.07932748 -0.004121426 0.067831755 -0.046216015
000230 80 3e 13 3e 2a 09 84 bc 6d a0 16 3d 4d 51 4e 3e
       0.1437931 -0.016117651 0.036774088 0.20148201
000240 b5 6e fb bb ca 6a fd bc 25 91 83 bd a3 e3 80 3d
       -0.0076731094 -0.03093471 -0.064241685 0.06293418
000250 d6 e3 6e 3d c8 36 8a bc 6d 85 0c bd 16 ae 96 bc
       0.05832275 -0.016871825 -0.034306932 -0.018393558
000260 17 55 9d 3d ce 5d 62 bd 8c 2e 2d 3d 91 68 b7 3a
       0.07682245 -0.05526524 0.04228072 0.0013992955
000270 55 ac a4 bc 2d 4a 9c 3b 69 05 7a 3c 70 6c c3 bd
       -0.020101706 0.0047695846 0.015260079 -0.09542167
000280 df 79 cc bd da 6b 84 3d 04 a8 21 bd 7b d3 9c bd
       -0.099841826 0.064658836 -0.039466873 -0.07657524
000290 1d ac b3 3d 79 69 ca bd bd a3 bf 3c 36 ff 74 bd
       0.087730624 -0.098833986 0.023393506 -0.0598137
0002a0 50 2e 15 3d 6c 03 47 bc f8 9d 60 3b 1f ec 3f bd
       0.03642112 -0.012146812 0.0034273844 -0.046856042
0002b0 5a 49 8a bd f6 40 51 3d 12 07 a0 3c 21 04 c8 bd
       -0.06752272 0.051087342 0.019534621 -0.097664125
0002c0 36 01 0e be 98 c2 c4 3d 87 71 a8 bd b0 e2 7b 3c
       -0.1386765 0.09607428 -0.082247786 0.015373871
0002d0 38 fd 87 bd 53 80 9c 3c ed 40 df bd 78 98 c2 3c
       -0.066400945 0.019104159 -0.109010555 0.023754343
0002e0 9a 1f ab bd bb 53 ce 3c c4 57 92 3d e3 7c 45 ba
       -0.08355637 0.02518641 0.07145646 -0.0007533563
0002f0 25 a9 e0 3d b3 ef a8 3c 62 a7 88 bd 26 e7 a6 bc
       0.10969762 0.02062211 -0.06672551 -0.020373892
000300 6d ca b2 3d 26 a2 14 be 4f f9 db bd cd 54 cd 3d
       0.08730016 -0.1451498 -0.10740911 0.1002594
000310 1c 24 49 3e 55 2e dd bd 66 39 7e bc da 6f b0 bd
       0.19642681 -0.10799853 -0.015516615 -0.08615084
000320 07 1c 86 bd 2b c1 9a bd 9e f2 c8 3d bc f1 0d 3d
       -0.065483145 -0.07556375 0.098119006 0.034654364
000330 ea 69 2c 3e 76 06 eb 3c 0d 9f da 3c 8a 19 b4 bb
       0.16837278 0.028689604 0.02668717 -0.0054962086
000340 1b e6 d4 bd d1 c5 e2 3c 3b 03 72 3d 1a 44 f7 bd
       -0.10395452 0.027682217 0.059085112 -0.12073536
000350 3f 6e 7a 3d e1 5e 47 3d be b7 01 3e 45 c0 23 3e
       0.061140295 0.048674468 0.12667748 0.15991314
000360 75 a5 4c bd 75 66 33 3c 0e 36 32 3e df df 95 bd
       -0.04996248 0.010949721 0.17403433 -0.07318091
000370 ef cf 99 3c fd b9 e1 bd ce b7 09 be e7 28 59 bc
       0.018775908 -0.110218026 -0.13449022 -0.013254381
000380 4c 7b 6d 3c 9b 2d c6 bc 19 9a fb bc 4f 6c 58 3e
       0.014494728 -0.024191668 -0.030713128 0.21135066
000390 60 f1 a9 bd 52 6e 89 3b 0a 99 2f ba 9e 48 cb bc
       -0.08297992 0.0041940594 -0.0006698525 -0.0248149
0003a0 bd c5 93 3d 66 ea a5 3d 12 60 75 3b 88 ae d3 3d
       0.0721545 0.081013486 0.0037441296 0.103360236
0003b0 5c c9 16 bd b3 9e 0d 3d 96 7c 1d 3e dd 62 61 bd
       -0.036813125 0.034575175 0.15379557 -0.055025924
0003c0 6f 82 33 3c b5 d1 5f bc 7b 0f a1 bd a8 fc b8 3d
       0.010956391 -0.013660838 -0.07864281 0.09032565
0003d0 cd ba c8 3d d6 dc 0a bd f9 71 85 3d 52 45 3d 3d
       0.098012544 -0.03390201 0.06515879 0.046208687
0003e0 36 33 47 be d1 e7 f6 3c 2d 06 61 bc ef 19 3e 3d
       -0.19453129 0.030139836 -0.013734383 0.04641145
0003f0 da 2f 0d bb 7e 4a 6e bd 95 a0 b3 3d 8b 2d 4b 3d
       -0.0021543414 -0.05817651 0.08770863 0.04960398

network_body._body_endoder.seq_layers.2.bias f4 [128]
000000 a1 a5 d4 ba 54 6b 1c ba 23 c2 15 bb 96 bc 15 bb
       -0.0016223678 -0.0005966921 -0.002285131 -0.0022848002
000010 4e c4 00 bb 3a 29 3f bb 96 39 03 bb 58 ee 94 bb
       -0.0019648257 -0.002916886 -0.0020023338 -0.0045450144
000020 0d 2a 65 3a f6 f1 ca ba 57 28 07 3b 5f 71 98 bb
       0.0008741923 -0.0015483487 0.002062341 -0.0046521868
000030 5c de b5 ba a3 76 f3 ba 18 95 9d 3a fe 58 5d bb
       -0.0013875472 -0.0018574785 0.0012022583 -0.0033774967
000040 0d 0a 85 bb 06 98 68 ba a3 82 1a bc 22 cc b8 bb
       -0.004060036 -0.0008872751 -0.00943056 -0.005639569
000050 92 f2 4d bb 0f 58 9d bb 8a 5a 4d bb 7d ab af b9
       -0.00314251 -0.004801757 -0.0031334483 -0.0003350637
000060 a0 6a 63 bb 62 cb 08 bb d4 a3 76 b9 8b 15 cb ba
       -0.0034701005 -0.0020873179 -0.00023521419 -0.0015494091
000070 10 ba 57 3a 31 45 03 bb 05 ef 3a ba 23 47 28 ba
       0.00082293246 -0.0020030255 -0.00071309536 -0.00064192916
000080 d4 de 8f b9 47 88 79 ba d9 0d 2e bb d0 41 3e ba
       -0.00027441105 -0.0009518903 -0.0026558547 -0.00072577316
000090 f5 ba 62 bb f1 42 87 bb 95 5c 2e bb 93 d6 72 3a
       -0.0034596298 -0.004127853 -0.0026605476 0.00092635414
0000a0 ad b1 75 bb 3c 32 87 bb 2f 2c a6 bb 7d 62 91 b9
       -0.0037489936 -0.0041258615 -0.005071185 -0.00027729935
0000b0 5e a5 18 bb 76 01 5e ba 22 df db ba af fa 9f bb
       -0.0023291926 -0.00084688456 -0.0016774873 -0.0048821787
0000c0 08 2b 4b ba 1b 9b 41 bb 13 ef 69 3a 19 52 92 bb
       -0.00077502476 -0.0029541913 0.00089238695 -0.004465353
0000d0 52 9f fa b9 89 97 2f bb dc 10 d7 ba 29 52 3d bb
       -0.0004780242 -0.0026793203 -0.0016408223 -0.0028888083
0000e0 b7 3f 99 bb af af 3b bb cd 83 64 bb 89 87 0c 3a
       -0.004676785 -0.002863865 -0.0034868598 0.00053607725
0000f0 1a 37 72 bb 39 97 82 3b ba d0 bb bb 56 4c 63 bb
       -0.0036959113 0.0039853123 -0.0057316693 -0.003468295
000100 d5 9b d6 ba 01 40 38 bb 1b dc a1 bb 00 c0 73 3a
       -0.0016373346 -0.0028114321 -0.0049395687 0.00092983246
000110 e5 27 b7 ba 8d de 12 bb d8 fd 5c ba 31 9f c3 b9
       -0.0013973681 -0.0022410483 -0.00084301597 -0.00037311905
000120 21 10 05 bb 5b 1b b7 ba 73 1a ea ba 70 e5 92 bb
       -0.0020303803 -0.0013969945 -0.0017860666 -0.0044829175
000130 2d 73 a5 bb ea 6e 3d 36 8e b9 12 bb 92 90 95 3b
       -0.0050491304 2.8227755e-06 -0.0022388431 0.0045643533
000140 a6 9d fa ba 52 61 83 ba 2f f4 87 ba 16 b3 46 bb
       -0.0019120469 -0.001002351 -0.0010372455 -0.0030319146
000150 94 d0 37 bb 37 f9 2f bb 75 f5 77 bb a1 59 04 bb
       -0.0028047906 -0.0026851424 -0.0037835513 -0.0020195025
000160 e1 d8 66 bb 08 18 46 bb 42 12 55 ba 41 e7 85 bb
       -0.0035224485 -0.0030226726 -0.0008128026 -0.0040864055
000170 50 fc 94 bb 67 3f a6 bb 54 84 74 bb fc 39 56 bb
       -0.0045466796 -0.005073476 -0.003731032 -0.003268837
000180 6b 6f 3d 3b 61 dd cd 3b e0 89 c4 bb 79 7a 8d bb
       0.0028905522 0.006282494 -0.0059978813 -0.0043175784
000190 c6 7e 0a bc 1b 46 7f bb 28 8d b5 bb e7 92 3d bb
       -0.008453077 -0.0038951698 -0.005540509 -0.0028926672
0001a0 35 70 10 ba 4d 68 8f ba 1a 83 28 bb 25 e2 87 bb
       -0.0005509884 -0.0010941118 -0.0025712908 -0.0041468316
0001b0 fc ea f6 ba 0a ea c8 ba b6 50 1e bb 93 c1 9a bb
       -0.0018838341 -0.0015328538 -0.0024156994 -0.004722783
0001c0 b1 c4 30 bb c3 54 6c 3b a9 6a 25 ba c3 64 4c bb
       -0.0026972706 0.0036061264 -0.0006310144 -0.0031187988
0001d0 ac 96 96 b9 0b 40 77 bb 1a 02 46 bb b2 e6 a2 bb
       -0.0002872249 -0.0037727382 -0.0030213655 -0.0049713487
0001e0 a6 51 ca bb 7e cf 45 bb 8c 15 58 bb c9 58 eb ba
       -0.006174284 -0.003018349 -0.0032971827 -0.0017955537
0001f0 c7 77 ee 3a 36 74 96 bb 16 12 37 bc cf e2 3e bb
       0.0018193655 -0.00459149 -0.011173746 -0.0029126888

action_model._discrete_distribution.branches.0.weight f4 [2, 128]
000000 72 d2 78 3c ea af 68 3c 19 bb fc 3a a8 e5 97 bb
       0.015186893 0.014202097 0.0019281834 -0.0046355315
000010 0e 92 a2 3b 27 43 f3 bb 77 0a b4 bc be 33 27 bc
       0.0049612587 -0.0074237767 -0.021977646 -0.010205207
000020 08 f5 ed bb 41 c2 45 3a 99 92 c4 bb 38 0d 87 38
       -0.007261876 0.00075438997 -0.005998921 6.439764e-05
000030 10 8c d2 3b 8e 34 0e 3a 75 f1 e5 bb 7c c7 c6 bb
       0.006425388 0.00054247014 -0.0070173093 -0.006066261
000040 c6 de ff bb 26 45 da bb c4 2a 3c 3c a8 18 0f bc
       -0.007808539 -0.006661075 0.0114848055 -0.008733906
000050 1c 2e 5b bc e8 d8 33 3a ab 2b 54 3c d3 57 c5 3b
       -0.013377693 0.00068606297 0.012949864 0.0060224324
000060 90 9e f9 ba 33 fb 48 39 60 f2 03 3c ee 5a d5 ba
       -0.0019044448 0.00019167065 0.008053392 -0.001627771
000070 58 1c 2a 3a 57 08 58 bc f5 aa 13 3c a2 e2 90 bb
       0.0006489209 -0.013185582 0.009012927 -0.004421548
000080 37 62 06 3b 35 a2 37 3b 9d f0 05 bb 18 fb 88 bb
       0.0020505318 0.0028020267 -0.0020437606 -0.0041803233
000090 20 c4 c2 bc 7d 1c 58 bb 03 0f be 3b 04 1d 28 3b
       -0.02377516 -0.0032975965 0.0058001294 0.002565206
0000a0 e3 55 a4 3b d4 63 ae bb d2 42 42 bc e6 4e 31 3b
       0.0050151213 -0.005321959 -0.0118567515 0.0027055084
0000b0 63 28 91 bc 13 6a 48 bb d5 05 85 bb d7 b0 2b ba
       -0.017719453 -0.0030580803 -0.004059533 -0.00065494835
0000c0 52 19 0e bc 6c ab 65 bc fe 9a 14 bc fe 22 c7 bb
       -0.008673029 -0.014017921 -0.009070156 -0.0060771694
0000d0 b8 2f 15 3c ad c9 3f bc 65 8f ce bc cd 3e 06 3c
       0.009105615 -0.011705798 -0.02521486 0.008193684
0000e0 a9 ad 71 ba b6 30 df bb d5 9e 74 bb 6e fb 25 bc
       -0.0009219298 -0.0068112267 -0.0037326117 -0.010130746
0000f0 a6 be 09 39 5f 2d db 3a e5 45 39 bc 8d 35 34 3c
       0.0001313636 0.0016721896 -0.011308168 0.010999096
000100 7e c7 85 3c 0f 5c 33 bc 45 b8 06 3c d0 3c 04 3c
       0.016330477 -0.010947241 0.008222644 0.008071139
000110 3f 40 19 3c b5 08 7d bb 01 6e 87 3b 56 fa 1e ba
       0.009353696 -0.0038609926 0.0041329865 -0.00060645246
000120 8e bc 47 bc 52 07 9b bb 1e 14 eb bb de d1 eb bb
       -0.012190951 -0.0047310973 -0.007174029 -0.007196649
000130 ff 0f 01 3b 26 45 de bb 02 52 df bb 12 4f d6 bb
       0.0019693372 -0.0067831455 -0.006815196 -0.0065401876
000140 c4 32 6b bc 7d 41 13 3c 13 e6 ad 3b 74 cb 74 3b
       -0.014355365 0.008987782 0.005306968 0.0037352713
000150 ba 13 f0 3b 8a 4e 88 bc 2c ec ed 3b 67 7b 5b 3b
       0.0073265703 -0.016639013 0.00726082 0.0033490302
000160 9c a7 10 3a 05 c1 f8 3b 15 f3 59 bb bf 7a dd bb
       0.000551814 0.007591369 -0.003325646 -0.0067590172
000170 0a cb 44 3c 89 d6 9f bb b2 86 88 bc 09 31 25 b9
       0.012011299 -0.0048778695 -0.01666579 -0.00015753893
000180 db 7a 45 bc 26 dc 91 bc 35 96 09 bc c4 ca 88 ba
       -0.012053217 -0.01780517 -0.008397629 -0.0010436405
000190 dc 57 e3 3b e9 7b 0c bb 26 fa be 3b 50 5e f7 bb
       0.006937964 -0.002143616 0.00582816 -0.0075490847
0001a0 e3 09 ee ba 86 9c 05 3b 55 f0 34 3c ac 6b 87 bb
       -0.0018160905 0.0020387485 0.011043628 -0.0041327085
0001b0 be fa 97 3b 9c 86 1b bb 60 49 61 bc 71 a8 6a ba
       0.004638045 -0.0023731356 -0.013750404 -0.00089514913
0001c0 60 7c f0 3a 7f a8 7f bc a7 58 d9 bb f9 fb 44 3b
       0.0018347614 -0.015604137 -0.0066328826 0.0030057414
0001d0 f3 98 95 3a 6d 4c 1c bc d4 f3 57 bc ad 78 3a 3b
       0.001141338 -0.009539706 -0.013180692 0.0028453276
0001e0 52 72 bf bb 45 8b 50 bc 5b 98 8a bc cb 04 d6 ba
       -0.0058424855 -0.012728517 -0.016918352 -0.0016328333
0001f0 79 3e b4 bc 0d 79 64 b9 7a 1e a3 ba 06 b1 16 bc
       -0.022002446 -0.0002178887 -0.0012444996 -0.009197479
000200 cb b3 0f 3b 76 42 99 bb fe 34 f9 bb 8a d1 51 bc
       0.0021927233 -0.004677112 -0.007605194 -0.012806306
000210 4d ea f4 ba 26 09 32 bb b9 92 d5 bb 98 be ea ba
       -0.001868555 -0.0027166097 -0.006517735 -0.0017909585
000220 65 cf 3d 3b ab 6a 91 3c b1 a2 cd 3b aa 68 c6 ba
       0.0028962728 0.017751059 0.006275498 -0.0015137393
000230 a5 83 29 bc 0a d0 4b bb d6 bf ef 3b c8 d2 19 3c
       -0.010346328 -0.0031099343 0.00731657 0.009388633
000240 8b 97 b4 3b dc 88 b5 3b cd 89 01 3c b6 40 27 bc
       0.0055112294 0.0055399965 0.007906389 -0.010208299
000250 e4 3a 1c bc ce 4b e8 3a 81 81 96 3b b7 bf 83 3c
       -0.009535525 0.0017722787 0.004593075 0.016082628
000260 a6 b1 62 3c 47 7d 3c 39 91 8a d6 bb 12 19 59 bc
       0.0138363 0.00017975747 -0.00654728 -0.013250606
000270 ff 26 27 ba f6 7f 39 bb ac 1c 01 3b 87 fe 1a bb
       -0.00063763553 -0.002830503 0.0019700928 -0.0023650245
000280 f2 ba 27 3b b6 89 93 3c b5 e1 2b 3c 9f b6 0b 3b
       0.0025593606 0.018010002 0.0104908245 0.0021318567
000290 c0 a2 ff bb d7 aa 98 3b e0 8e ee 3b 0c eb 80 3c
       -0.0078013837 0.0046590376 0.0072802156 0.01573708
0002a0 db 6b 11 bc bf 1e 23 3c f5 88 83 bc 56 c8 c5 3b
       -0.008875812 0.009956061 -0.016056517 0.006035845
0002b0 af bf 3c 3b 36 99 3f bc f5 ac 26 bc fb b3 a5 bb
       0.0028800776 -0.011694243 -0.010173072 -0.0050568557
0002c0 df 4d fb 3b 2a 9e 18 bc f4 15 b4 3b 98 2e ee 3b
       0.007669195 -0.009315053 0.005495781 0.007268738
0002d0 e9 d3 df ba b7 85 88 3c af 4a 7a 3b d8 08 b3 39
       -0.0017076704 0.016665323 0.0038191488 0.0003414813
0002e0 fc e1 e5 38 e2 e7 1f bb 7f 8c ce 3a 44 ee 90 3c
       0.00010961664 -0.0024399688 0.0015758424 0.017691739
0002f0 23 a4 30 3c 97 00 82 3c 9b 71 8a bc aa 41 65 bb
       0.010781321 0.015869422 -0.016899874 -0.0034981766
000300 bc 10 90 3a 20 38 09 bc e8 38 cd 3b a5 e0 1b 3c
       0.0010991315 -0.008375198 0.0062628873 0.009514009
000310 5e 59 bc bb 46 0c 15 bb fd 83 76 bb f2 88 00 3b
       -0.005747958 -0.0022742911 -0.0037615292 0.0019612876
000320 5a ea 79 bc 56 b7 58 bc d3 8e 9c bc a8 60 aa 3b
       -0.015253628 -0.013227304 -0.019111073 0.0051995106
000330 cd 0e 1f 3c b9 7f 4e 3c 3f 23 04 3c 49 6d 10 3c
       0.009708119 0.012603694 0.008065044 0.008815118
000340 2b 28 2b bc 56 d4 a1 3b 8a 44 47 bc f9 d4 5b bc
       -0.0104465885 0.0049386425 -0.012162337 -0.013417476
000350 d4 99 3c bb d0 89 a6 3b 9b 7d 2b 3b 4c 69 fe bb
       -0.0028778212 0.0050823465 0.0026167396 -0.007764017
000360 c2 70 78 3b 71 e9 c1 3a 02 cd b1 bb d5 e5 6b bb
       0.0037909006 0.0014794302 -0.00542605 -0.0035995145
000370 08 94 c2 38 35 5d 75 3a c7 10 55 bc 75 27 89 3b
       9.278214e-05 0.0009359897 -0.013004488 0.004185612
000380 8c 95 14 3c 5f 52 7b 3c 04 79 c1 ba b2 32 c3 bb
       0.009068858 0.015339463 -0.0014760797 -0.005956971
000390 64 b7 59 3c 43 73 30 3c 17 65 0b 3c ce f7 86 ba
       0.013288353 0.010769668 0.008507988 -0.001029724
0003a0 e8 3f 07 bc f5 ba 3e bc 0d 65 61 3c 90 a9 00 bc
       -0.0082549825 -0.011641254 0.013757003 -0.007852927
0003b0 6b ce 99 3b f5 5f 0a 3b f1 81 a4 3b fa 9d 11 3c
       0.0046937964 0.0021114324 0.005020373 0.008887762
0003c0 35 e0 89 3c 16 eb 1b 3c e5 1e 2d 3c d1 43 11 3c
       0.016830543 0.009516498 0.010566448 0.008866266
0003d0 92 3f 27 ba 13 9e fd 3b 6c 14 23 bc 2f 8e 13 3b
       -0.0006380017 0.007739791 -0.009953599 0.0022515168
0003e0 8e 10 82 3b ae df 64 bc d4 38 58 bb ce 49 8c bc
       0.0039692586 -0.013969345 -0.0032992857 -0.017125037
0003f0 9b 2e d8 bb ae 18 34 3c 34 13 74 38 36 e1 1f bc
       -0.0065973527 0.010992212 5.8192018e-05 -0.009758284

action_model._discrete_distribution.branches.0.bias f4 [2]
000000 92 c5 c4 3a 97 c5 c4 ba
       0.0015012494 -0.00150125

action_model._discrete_distribution.branches.1.weight f4 [2, 128]
000000 8b 16 16 bc a3 fd 24 3c e5 61 8d bb 2a 74 3e bb
       -0.009160648 0.010070237 -0.0043146485 -0.0029060938
000010 8c e8 43 bc a7 4a 0c bc 01 a0 23 bc e1 a7 b9 3a
       -0.011957299 -0.00856272 -0.009986878 0.0014164412
000020 7d 0b 57 bb 35 af 94 3c 94 79 94 3b 04 79 8a 3a
       -0.0032813244 0.018149951 0.004531095 0.001056463
000030 62 06 70 bc b6 fa e1 39 02 7f 44 3c af be 81 bc
       -0.014649959 0.00043102138 0.011993172 -0.015837995
000040 7f ee 3e bb d3 56 10 bc 97 49 30 bc d8 32 a1 bb
       -0.0029133854 -0.008809763 -0.010759733 -0.004919391
000050 a6 41 7f 39 3b f0 06 bc 87 07 fd 3b 35 3c 8b 3b
       0.00024343151 -0.008235986 0.0077218446 0.0042491206
000060 c6 9d fe 3b 12 21 ea 3b 23 6a ff 3b ad f5 20 3c
       0.007770273 0.0071450556 0.007794635 0.009824199
000070 62 da 7e 3c 8b 9d 6f bc 3f 59 22 bc c8 52 84 bc
       0.015554996 -0.0146249635 -0.009908973 -0.016152754
000080 c6 64 73 bb 38 2b eb 3b fb c0 52 ba 09 0b d3 bb
       -0.0037138923 0.007176783 -0.00080396206 -0.0064405245
000090 b2 12 49 bb ff 87 aa 3b 0a 37 58 bb e7 b4 08 3c
       -0.003068131 0.0052042003 -0.003299179 0.008343912
0000a0 c2 19 62 ba fd fa e9 3b 48 02 13 bb 66 39 e1 3b
       -0.0008625054 0.007140516 -0.002243178 0.0068732975
0000b0 10 2c 59 3c 49 02 b7 bb 1a e7 e7 3b 8a 0f 5a 3b
       0.013255134 -0.005584989 0.00707711 0.0033273422
0000c0 1f 30 31 3c 81 fb 47 3a e7 36 dc bb 6c e7 17 bb
       0.010814696 0.00076287246 -0.006720412 -0.002317871
0000d0 fd 44 55 bc f5 6a 95 bb 0a 23 01 3c c1 76 16 bb
       -0.013016936 -0.0045598694 0.007881889 -0.0022958966
0000e0 91 3f 04 bb 65 43 4f bc 73 c7 80 3b 29 bc d4 3a
       -0.002017949 -0.012650345 0.003930026 0.0016230393
0000f0 9c 43 a1 3b 46 c2 7a 3c 24 c3 71 ba b8 ae b9 bb
       0.0049213897 0.015305107 -0.00092224986 -0.00566658
000100 5a 72 b8 39 f1 32 cb 39 11 a5 fd 3b f0 f3 90 bc
       0.00035180413 0.00038757132 0.0077406247 -0.017694443
000110 fb 87 0f 3c 27 a1 a5 b9 e0 28 f5 3b 91 b7 4c bc
       0.008760448 -0.0003159132 0.0074816793 -0.0124949375
000120 e1 73 78 ba d6 1d 02 3c e2 bb 54 bb 2b fb 48 b8
       -0.00094777165 0.007941684 -0.003246062 -4.7917634e-05
000130 9a 54 00 3a 5b de 66 3c e4 00 60 3c f9 a3 30 bc
       0.0004895419 0.0140911 0.013672087 -0.010781282
000140 e7 74 f8 bb f9 ba 92 3b 14 be 09 3c a0 55 84 bb
       -0.007582295 0.0044778553 0.008407135 -0.0040385276
000150 be 9a 64 3b 54 4b 77 3c e5 d9 8d 3c d0 58 de ba
       0.0034882273 0.015093643 0.017315814 -0.0016963724
000160 83 18 0d ba 2f 4a 02 3c eb 81 ec bb 6f 11 1e 3c
       -0.00053823757 0.007952257 -0.007217636 0.009647711
000170 1d 46 a9 bb ab a3 b2 ba 13 5a 08 bc ed c2 45 bc
       -0.005165829 -0.0013629099 -0.008322257 -0.0120704
000180 2b 65 4a 3b ab 7a 41 3c 1d d5 9d bb db 4a 65 3b
       0.0030883055 0.0118090315 -0.004816665 0.0034987244
000190 51 87 6a bb bf 45 9b 3c ea 85 31 3c b0 8e 44 3c
       -0.0035786221 0.018954156 0.01083515 0.01199691
0001a0 b4 3f 9c bc db c7 ee ba 7b 7e 0f bc 4b 5d 52 bc
       -0.019073345 -0.001821752 -0.008758183 -0.012839626
0001b0 ac e1 61 bc 3e ee f2 3b 5b b2 05 3c ac 7f 80 3c
       -0.0137867145 0.0074136546 0.008160199 0.015685879
0001c0 fd 49 6c 3c 44 bb 7c 3b 55 29 53 bc 8b 78 97 3b
       0.014421937 0.0038563767 -0.012888272 0.004622524
0001d0 51 4d a7 3b ca 03 9d 3c a1 ad aa bb 3e 0a e9 3b
       0.0051056524 0.019166846 -0.0052086865 0.0071118167
0001e0 4c 8c 17 3c cf 91 22 bb 50 d2 e1 ba 2c 4d 18 3c
       0.009249758 -0.0024806147 -0.0017228816 0.009295743
0001f0 8d e4 d8 3b cc fc 42 3b 27 86 1f bc d6 6c 27 bc
       0.0066190423 0.002975273 -0.009736574 -0.01021882
000200 f6 09 52 bc dd a8 0b 3c 77 2b 89 bb 62 cc 8f ba
       -0.012819758 0.008524147 -0.0041860896 -0.0010970945
000210 a3 8c 73 3b b9 c1 0e bc ac 7f 14 3c a8 31 f6 39
       0.0037162683 -0.008713179 0.0090636425 0.00046957773
000220 d0 69 31 bb fc b9 87 3b d7 1a d5 ba c7 7f 80 3a
       -0.0027071126 0.004142044 -0.0016258609 0.0009803706
000230 a4 ab ae bb 75 cf 8d bc a9 c2 5c bb cf 62 ba bb
       -0.0053305198 -0.017310837 -0.0033685362 -0.0056880484
000240 bf 91 61 3b 29 7b a8 bb eb 5c 18 bc e3 91 ce 3a
       0.0034419147 -0.005141635 -0.009299497 0.001576003
000250 8e 1c db 39 f6 ab 52 bb 34 22 47 3c 9a a1 25 3b
       0.0004179221 -0.0032145954 0.012154151 0.0025273324
000260 ad 7d 93 bc 85 7f 2b 3c f0 ba 96 bb 38 02 1b 3b
       -0.018004263 0.010467415 -0.0045999214 0.0023652446
000270 18 07 9b 3b 7c b0 c1 bc 41 01 15 3c a8 ac 6d 3c
       0.0047310703 -0.023643725 0.009094537 0.0145064965
000280 9a 72 dd bb 8c db a7 39 fc 11 89 bb 58 5b 59 bc
       -0.0067580463 0.00032016297 -0.004183052 -0.013266407
000290 0a 7b ed bb 2c c4 a8 bb f4 fa 81 ba a3 6c 7d 3b
       -0.0072473334 -0.0051503386 -0.0009916709 0.003866949
0002a0 5f 79 b6 3b 69 17 c3 bb 66 93 94 bb 83 2b 4c bc
       0.005568668 -0.0059537184 -0.004534173 -0.012461546
0002b0 26 a3 9b bb 40 d5 57 3c f3 fc c3 b9 5d d2 1c bb
       -0.0047496734 0.013173401 -0.0003738176 -0.0023929097
0002c0 3b 62 41 3c bc a6 90 ba 26 bf 2b bc db 64 d2 3b
       0.011803205 -0.0011036019 -0.010482585 0.0064207143
0002d0 d4 11 26 3b 0f f3 39 3c c3 65 4e 3b fa 60 dd 39
       0.0025340216 0.011349454 0.003149376 0.00042224658
0002e0 49 da 2d bc d8 a8 ea bb e3 e4 b6 3b 51 0e b2 bb
       -0.010611125 -0.007161241 0.0055814846 -0.0054338356
0002f0 12 dd 85 bb 62 05 f8 bb a3 53 29 bc 9a 0f bc 3a
       -0.0040851915 -0.007569001 -0.010334882 0.0014347911
000300 2c 17 41 3b cb bb 7b 3c 8f 6f b7 3b 29 d8 b8 bb
       0.0029463274 0.015364598 0.0055980156 -0.0056410027
000310 38 75 ca ba 5a ef f1 3b 9f 49 58 3c 74 15 07 bc
       -0.0015446311 0.0073832693 0.013201146 -0.008244861
000320 06 e1 94 3c 36 25 13 bb 6e f5 7c bc dc d5 1d bb
       0.018173706 -0.00224526 -0.015439374 -0.002408377
000330 4c cc 20 3b c2 c8 c7 3a 9b 34 31 bb 09 03 a3 bb
       0.0024535833 0.0015242326 -0.0027039412 -0.004974727
000340 e6 ce 99 bc 47 e6 c0 3b 11 20 55 bc e9 46 06 3c
       -0.018775415 0.005886826 -0.0130081335 0.008195617
000350 5f 49 9a 3a eb a2 66 3b 92 d7 b3 bb 3f b2 9f bb
       0.0011771134 0.0035192322 -0.0054883445 -0.0048735435
000360 a6 ce 65 bc ff f4 b0 3b 27 5f fe 3b a7 a2 50 3b
       -0.01402632 0.0054002996 0.007762808 0.003183523
000370 72 b3 38 bb b9 70 97 3b f3 9e b6 3b 32 3e 56 bc
       -0.002818313 0.004621592 0.0055731474 -0.013076352
000380 55 69 3b bc e9 fb 48 bc c8 9a 45 bc e1 ab 29 3b
       -0.011438687 -0.012267091 -0.0120608285 0.0025889801
000390 d7 8c ff 3a 24 32 43 bc 4f fb 30 3c 69 f0 4b 3c
       0.001949693 -0.01191381 0.010802104 0.012447455
0003a0 4a 71 87 3c 08 8f 9b bb 0f 87 5b ba 41 70 d3 bb
       0.016533513 -0.0047472753 -0.00083743123 -0.0064525907
0003b0 05 1a fc 3b fc 68 f7 ba 7a 3b 54 3c 65 dc d7 ba
       0.0076935315 -0.0018875892 0.012953633 -0.0016468881
0003c0 b9 f9 8a 3b a7 ae fc bb d6 39 87 3c 9a f3 a0 3c
       0.004241195 -0.00771125 0.01650707 0.019647408
0003d0 ef d2 f1 3a 88 01 44 3c 73 48 95 3c c5 ae 9c 3b
       0.0018449704 0.011963256 0.018223023 0.0047815763
0003e0 a0 22 d6 3b 8b dc b7 bb f3 57 07 bc 6a 5c 23 bc
       0.0065348893 -0.0056110076 -0.008260715 -0.009970764
0003f0 a2 2d 1d bc 5b 97 3d 3b 84 42 ec bb a4 5a e6 3a
       -0.009593399 0.0028929326 -0.0072100777 0.001757462

action_model._discrete_distribution.branches.1.bias f4 [2]
000000 f2 b2 bf ba f2 b2 bf 3a
       -0.0014625473 0.0014625473

action_model._discrete_distribution.branches.2.weight f4 [2, 128]
000000 68 9f 39 3b f0 7f 3b bb 49 d0 45 bb 6b 9e d3 bb
       0.0028323773 -0.0028610192 -0.0030183962 -0.006458094
000010 5b 75 0a 3c 25 2b c1 3b 3d f4 9e 3b 26 d4 ed ba
       0.008450831 0.005895036 0.004850893 -0.001814489
000020 cd 57 8a 3b 3e 12 2f 3c 82 27 1b bb 41 1f f6 bb
       0.0042218925 0.010685502 -0.0023674672 -0.00751105
000030 15 6e 64 bc 94 98 23 bc a5 9e 28 bc 38 35 83 3b
       -0.013942261 -0.009985108 -0.01029173 0.004004147
000040 46 c2 7b bb bc 6d 8c bc c8 e5 25 bb ce 0c dd ba
       -0.0038415357 -0.01714217 -0.0025313962 -0.0016864778
000050 84 3b 36 3b 94 d9 9b bb e3 ea 12 3c 15 af 5e bb
       0.002780647 -0.004756162 0.008967134 -0.0033978869
000060 ac 85 4e 3b d8 28 b8 bb 07 7c 7a 3c 24 4a 18 3c
       0.003151278 -0.0056201033 0.0152883595 0.00929502
000070 32 7b 01 bc 93 20 a4 bb 15 d2 ca bb 8c f4 a1 bb
       -0.007902907 -0.005008766 -0.0061895945 -0.0049424823
000080 d0 d1 81 3c f5 26 57 bc d3 70 0c bc ce b3 e1 bb
       0.015847117 -0.013131847 -0.008571821 -0.0068878895
000090 16 81 0d 3c ee 6b 30 bc fe 02 7c bc 57 35 cd bb
       0.0086367335 -0.01076792 -0.015381573 -0.006262462
0000a0 f3 d4 6f bc 0c b8 94 ba dc 58 db 3b b2 ab 23 3b
       -0.014638173 -0.0011346354 0.0066939425 0.0024974165
0000b0 50 d0 22 bb 29 9e 9d 3c d5 73 54 3b 4d 33 ce bb
       -0.0024843402 0.019240456 0.0032417674 -0.0062927366
0000c0 49 58 35 bb cf fc 27 bb 83 2c c5 3b be 36 10 bb
       -0.002767103 -0.0025632863 0.006017269 -0.0022005285
0000d0 37 4e d3 bb eb 79 0a bc 9b 07 d7 3b 58 53 54 bc
       -0.006448533 -0.008451919 0.006562186 -0.012959324
0000e0 64 3d 5f bb 43 77 2d bc fc 2b e5 3b 6a d6 13 3a
       -0.0034063691 -0.010587516 0.0069937687 0.0005639555
0000f0 9e 6f 8b ba 97 36 82 bc f3 48 18 bc b3 73 01 bb
       -0.0010638123 -0.015895171 -0.009294736 -0.00197528
000100 88 0b de bb 18 f8 89 bc ad 1c 91 3a 70 d2 34 3c
       -0.006776277 -0.016841933 0.0011071168 0.0110365
000110 a2 80 c5 3b 7f 84 ab ba 7f 87 8f 3c 29 1f 89 ba
       0.006027297 -0.0013085752 0.017520664 -0.0010461557
000120 e3 09 80 3b 74 c9 72 3c a7 6d 26 bc 6c 0c b3 bb
       0.0039074286 0.014818538 -0.010157979 -0.0054641273
000130 60 3e c3 3b a3 d9 ee bb eb 4a 60 bc 39 23 90 3c
       0.0059583634 -0.007289128 -0.013689737 0.01759492
000140 2c 15 2c 3b 1c 79 01 3c 49 db c9 3b 1c 34 e2 bb
       0.0026257737 0.00790241 0.006160174 -0.0069031846
000150 0b 3f 04 bc d2 01 e2 bb 0d 6c 95 bc db 67 5c 3a
       -0.008071671 -0.0068971897 -0.01824 0.00084078097
000160 f1 3c a6 3c 11 e5 55 3c 14 eb 5c 3b e8 52 0a bc
       0.020292731 0.013055102 0.0033709453 -0.008442618
000170 47 d7 57 3c 24 63 b4 3a ca d7 32 bc 09 ad 31 3c
       0.013173885 0.0013762456 -0.010915706 0.010844477
000180 8d 0d de bb 93 40 8b bc 6d 1f 24 3b 81 ce 09 3c
       -0.0067765177 -0.016998565 0.0025043145 0.008411051
000190 48 f2 f1 ba e8 98 13 bc 12 60 25 ba 11 ef 74 3a
       -0.0018459046 -0.009008624 -0.0006308566 0.0009343485
0001a0 b4 c8 11 3c b7 df d6 ba 43 55 3d bc 85 58 f3 3b
       0.008897949 -0.0016393577 -0.0115559725 0.007426324
0001b0 a6 43 4d b8 20 30 c2 bb 3e 29 50 3b b7 49 28 3c
       -4.893881e-05 -0.005926147 0.0031762864 0.010271481
0001c0 93 28 78 3b 14 13 2f 3b c2 fb c3 3a 7f 1a 55 bc
       0.003786598 0.0026714252 0.0014952349 -0.013006805
0001d0 fd 8a ce 39 19 bb e4 3b cb 9b ee 39 20 89 e3 bb
       0.00039394936 0.0069803116 0.00045510972 -0.006943837
0001e0 fe 5e 44 bc 9f 9f ad bb e0 2f 84 bb c2 45 82 3a
       -0.0119855385 -0.0052985693 -0.0040340275 0.0009939002
0001f0 bf 5c 4c bb ac e0 bc 3a e8 d9 36 3c c8 4f 37 3a
       -0.003118321 0.0014410219 0.011160351 0.00069927843
000200 95 a8 04 3c a2 bc 28 3b bd 0f 8f bb ec 6e 54 bb
       0.008096834 0.00257472 -0.00436589 -0.0032414747
000210 1b 06 c9 3b ba ca 1c bc 29 9d 06 b9 ef bd 30 39
       0.006134761 -0.009569818 -0.00012837783 0.00016855424
000220 b8 de 68 bc aa 95 4a 3b 40 7d 93 3c c7 82 a7 39
       -0.014213257 0.003091196 0.01800406 0.0003195016
000230 2e b2 54 bb 57 fb fe 3b 4a e3 8e bb 6b 72 b3 bb
       -0.0032454836 0.007781427 -0.004360591 -0.005476286
000240 89 63 30 3c 30 30 23 bc a3 aa 0a bb c5 1b 05 3b
       0.0107659185 -0.009960219 -0.0021158836 0.0020310741
000250 7f af 20 bc 9d aa cf bb 91 8e 37 3b 7a 18 a2 ba
       -0.0098074665 -0.0063374774 0.002800856 -0.0012366914
000260 2f 38 af 3b 0f 3c ee ba 57 bf 6e bc a6 ec 82 bb
       0.005347274 -0.0018175858 -0.014571986 -0.003995496
000270 d5 57 8a 3b c0 ae 39 bb 72 fe 34 3c 29 61 88 bb
       0.004221896 -0.002833292 0.011046993 -0.004161973
000280 1a 41 b4 38 d5 05 4f bb 5f ec 27 3c 2a 12 4e 3c
       8.595195e-05 -0.003158917 0.010249226 0.012577573
000290 aa 8c b9 bb 06 63 bf bb 37 01 ee 3b 5f ac 8e bc
       -0.0056625204 -0.005840662 0.0072633284 -0.017416177
0002a0 e6 bf dd 3a ad e1 ff ba c8 b6 0e bb ea f6 38 3c
       0.0016918152 -0.0019522213 -0.0021776427 0.011289338
0002b0 f6 0a dd bb 78 39 df b9 d0 e6 81 3c 8d 4e e0 ba
       -0.0067456914 -0.00042576692 0.01585713 -0.0017113254
0002c0 40 65 51 3b e4 b0 39 bb b2 fa 39 bb 1e 53 81 bb
       0.003195122 -0.0028334195 -0.0028378186 -0.003946676
0002d0 4f cd 66 3b c1 0e 1b ba 0b a5 8d 3a 82 6d cf bb
       0.0035217588 -0.0005914979 0.0010806633 -0.006330193
0002e0 35 93 85 bb 2e 02 26 3c e4 c2 75 ba 19 9b 3a bb
       -0.0040763863 0.010132356 -0.0009375049 -0.0028473793
0002f0 4f 0e a7 3c 88 3d 92 3a 39 6b ce bb 7c 00 92 3c
       0.020392565 0.0011157254 -0.006299403 0.017822497
000300 42 a3 32 bc 1f 7b 99 3a 88 02 a3 3b 4d 20 5e bc
       -0.0109031815 0.0011709667 0.004974667 -0.013557506
000310 33 ab 09 3c 55 a9 2e 3c b4 45 19 3c 78 ff 82 bb
       0.0084026335 0.010660489 0.009354997 -0.0039977394
000320 1a 3f b1 bb 5e f5 a2 3b 67 99 a6 ba c6 7e ba 3b
       -0.0054091336 0.0049730977 -0.0012710512 0.005691382
000330 46 37 aa 3b d4 95 e6 ba 34 f3 34 3c 4b bc 07 bc
       0.0051945774 -0.001759226 0.011044312 -0.008284639
000340 44 dc 2a 3c ba e9 05 bc 50 44 a5 ba 27 63 8a 3c
       0.010428492 -0.008173401 -0.001260886 0.016892983
000350 97 12 8d 3c c0 e3 7e bb 4c 30 b6 3a 0a e4 3e 3c
       0.017220778 -0.0038893074 0.0013899892 0.011651048
000360 3b ff 76 3b 81 d2 67 bb 49 7b 33 bc db 3b e0 38
       0.003768875 -0.0035373273 -0.010954686 0.00010692301
000370 7f c3 ca 3b f4 a0 3f bb 79 e6 1c bc 5a db 7d bb
       0.0061878557 -0.0029240223 -0.009576433 -0.003873548
000380 2f 33 80 3c cd 5e f1 3b e4 87 b1 bb f1 89 4c 3c
       0.015649406 0.0073660375 -0.0054178108 0.01248406
000390 ac d2 7f 38 82 b5 8c bb 44 b5 32 3b 53 a3 97 bc
       6.099294e-05 -0.0042940984 0.0027268687 -0.018510496
0003a0 92 55 8c bb 84 28 22 bc 2e a8 f8 39 a4 30 ae bb
       -0.0042826617 -0.009897355 0.0004742755 -0.005315857
0003b0 28 74 b7 bc 13 b6 d0 bb de 60 2c bc e7 f1 10 3c
       -0.022394255 -0.006369361 -0.010521142 0.0088467365
0003c0 44 be 6d ba 1e be a3 bc 0c 67 45 3c 2e 64 77 3b
       -0.00090691843 -0.019988116 0.012048494 0.003774892
0003d0 44 18 b4 3c 7e 7e 96 3c 84 0b 77 bb 5b 8c 43 3b
       0.021984227 0.018370863 -0.0037696073 0.0029838297
0003e0 79 3b b7 bb a8 f9 00 3c 05 ca 4e bb a0 c4 8d bc
       -0.0055918065 0.007872023 -0.0031553518 -0.017305672
0003f0 c9 08 48 3c 02 8c 08 bb 16 3f 20 3c 21 02 3e 3c
       0.012209126 -0.0020835404 0.009780666 0.011597187

action_model._discrete_distribution.branches.2.bias f4 [2]
000000 84 96 dd b7 8d 99 dd 37
       -2.6415342e-05 2.6416756e-05
